results/Drone1/Drone/Drone-13085.pt (torch, 454495 bytes, 36 tensors)

network_body._body_endoder.seq_layers.0.weight f4 [128, 10]
00000000: 4fe9 abbe 3857 adbe ad4b aebe fe46 893e
00000010: eb52 0e3e 08ca 63be 26a9 153d 71a0 98bb
00000020: 28b9 d93c 6ac9 04be 86b1 0f3f 4259 363d
00000030: 11b2 0f3e 6053 ae3e 6906 9fbe dbd5 d9bd
00000040: 59c1 3c3e 219f bc3e f9a1 323f 5d1f 8e3d
00000050: 2397 9cbe 06b0 c53e e88f d73e 6bca 9cbd
00000060: 9cf5 96bc cf2c 953e 6051 103d ad8f 203c
00000070: c7e5 2dbe 1c47 0b3e 1880 ffbe 5236 7b3c
00000080: eb71 debe 3ca8 ccbc 6587 adbd 233f 503e
00000090: 6568 0b3f 401a edbe 03fc 313f b1d8 633e
000000a0: 1a61 c13d 6fb5 bdbd ba68 cebe 4853 883e
000000b0: 08ad b13e 2ac8 613e 1248 8abe a0c9 5b3e
000000c0: d112 dd3d e3cf 33bb 47b3 44bd 0df0 3ebe
000000d0: d883 34bd a88d c7be a5bb 9a3e aa15 e5be
000000e0: 0033 033f 6d90 093c 03e4 92be f383 c7be
000000f0: 6583 29bd c3b1 4f3e bddb 02bf 2013 c53e
00000100: 7f99 20bf 841f d8be 0290 40be 23b8 b8be
00000110: 6992 803e 6d57 45bf 8346 e53e 6cbd 4bbd
00000120: 3c9c adbe a039 b13e 991a f33c 8a1e 243f
00000130: 6b7f 953d e36b 4fbe af8e b33d 046e 82be
00000140: db15 06be 5382 6cbd f975 88be d409 573e
00000150: f9ba 1cbf 613c db3e db0f 49be 5f9e ee3e
00000160: 117c 933d 0528 a5be ea33 843d 1f4f 87be
00000170: 3313 c8bd 8388 d03e 6990 a2be 70e3 c53d
00000180: 1e98 bdbc 0b37 8dbe d01c b13d 89e1 903c
00000190: 2541 1e3f 6597 8bbd 5531 2c3e 8e8b 8c3e
000001a0: 9171 323e 316d f5be 26a0 57be 4caf b03e
000001b0: a7b3 953d d96d aebe bb20 17bf e764 9bbe
000001c0: e378 f2be b7f1 f2be 2bde a93c fe34 803e
000001d0: ecb3 07be 2c99 cebe 4431 d5be 9f41 8bbe
000001e0: 90ff 6bbe a7f4 bd3e a199 56bf b4a6 103e
000001f0: fc68 633e 8068 983d b434 3fbd 5a47 ce3e
00000200: b11f ef3e 68db 6b3e 867e f83c 246f 133d
00000210: e00f d13d b811 ce3d 399d 70be 47a8 e63d
00000220: 6ac1 9d3e ec5d a63d 8286 f23e 6fd8 793e
00000230: da11 023e b2e9 ee3e 3af3 8d3e 28b8 b63d
00000240: 31b5 393f 40e0 20be 979e b8be a8c8 d23e
00000250: 1fff da3e 472e 7f3e 09b7 02bd f28c f03d
00000260: 550b 9b3c 8616 0abe a085 0cbf 87dc 4a3d
00000270: 3ad2 663d 87a9 a5bd a762 1fbd 91f3 353d
00000280: 7bc5 a73e d2a6 773e da4e ee3d 4d0d 0ebd
00000290: b086 443d 692d 073e 7d2d 3dbe 563b c4bc
000002a0: 2783 cabe 3412 5dbe 1f3a efbe 7ae1 233e
000002b0: 0b3b 97bd d5a5 08bf 0d60 b1bc 9b4e bfbe
000002c0: 304b 663c 4a05 103f a37c 3fbe f386 a53e
000002d0: 7492 a93d d4a8 0a3f 02f8 8f3d 09a2 e93e
000002e0: d4fa 5cbe 4396 e2bd 3fef b2bd c2e5 c93d
000002f0: 95c5 c13d 97af 64bb 739a 33be edb5 b9be
00000300: 4ce6 5a3d 17e5 fcbe 4fd4 d43e 4a79 743e
00000310: 8032 533d 686a 413e a038 b2be d057 f2be
00000320: 92dc b63e 5320 8bbe 685e 923d 2dd3 f0be
00000330: f12c 37bf 1c92 af3e d995 e0be 2662 933d
00000340: 97d5 cb3e 2389 c43e f0a2 763c 3722 38be
00000350: e322 aebd dfd1 16bf 1b67 c5be d9e6 613d
00000360: 7b49 833e f047 d53c ed1d 0c3f 0a86 17bd
00000370: 7bd6 ab3e 2d9f 603f f8e2 3c3d cdb7 8dbe
00000380: 474c 57be 19f2 823e 8638 b3bd eccf 0c3f
00000390: ceda a63e 8fb2 22bf 9cc0 37be 7119 73bf
000003a0: fe47 1dbf 1a2a 343e 272b c7bc aac0 763e
000003b0: 1b5c 8e3d 6360 863d a6d6 813e aeb9 493f
000003c0: 13b3 993e 5bc4 c5bd bb53 553e da13 55be
000003d0: 060f 473e 7a9c 80be 8dcd 9d3c 1fdd 94bd
000003e0: 77c5 ecbe 72c2 64bc 33aa a4bd 5068 d43c
000003f0: 28ef 8b3c d290 4d3e febd 033f 1905 1e3e
-0.33576438 -0.33855605 -0.3404211 0.26811975 0.13898818 -0.22245038 0.036538266 -0.004657798
0.026577547 -0.12967458 0.56130254 0.044518717 0.1403277 0.34047985 -0.31059578 -0.10636493
0.18433131 0.36840156 0.697784 0.06939576 -0.30584058 0.38610858 0.4210198 -0.07655796
-0.018427663 0.2913575 0.035233855 0.00979988 -0.16982184 0.13601345 -0.49902415 0.015332775
-0.43446288 -0.024982564 -0.0847309 0.20336585 0.5445617 -0.4630909 0.69525164 0.2225063
0.09442349 -0.09263121 -0.40314275 0.2662604 0.34702325 0.22049013 -0.2700811 0.21463633
0.107946046 -0.0027437143 -0.048022535 -0.1864626 -0.04407105 -0.38975263 0.30221286 -0.4474309
0.51249695 0.00839625 -0.28689584 -0.38967857 -0.041385073 0.20282654 -0.51116544 0.38491154
-0.62734216 -0.42211545 -0.18804935 -0.36077985 0.25111702 -0.77086526 0.4478036 -0.049741194
-0.3390826 0.34614277 0.029675769 0.641091 0.07299694 -0.20256 0.08767449 -0.2547456
-0.13094275 -0.057741474 -0.26652506 0.20999843 -0.612228 0.42819503 -0.19634955 0.46605203
0.07201398 -0.32257095 0.06455214 -0.26427552 -0.09769287 0.4072915 -0.317508 0.09662521
-0.023143824 -0.27581057 0.08648074 0.017685669 0.6181815 -0.068159856 0.16815694 0.27450222
0.17426135 -0.4793487 -0.21057186 0.3450874 0.073096566 -0.34068182 -0.5903432 -0.3035042
-0.47357854 -0.4745004 0.02073582 0.2504043 -0.13252228 -0.40351236 -0.4163915 -0.27198502
-0.23046708 0.37100717 -0.8382817 0.14126092 0.22208017 0.07441807 -0.04668112 0.40288812
0.46703866 0.23032916 0.030333769 0.035994664 0.10208106 0.10061973 -0.23497476 0.11262565
0.30811626 0.08123383 0.47368246 0.24398969 0.12702122 0.4666267 0.2772463 0.08921844
0.725421 -0.15710545 -0.36058494 0.41168714 0.42772767 0.24919997 -0.031912837 0.11745633
0.018926302 -0.13485155 -0.54891396 0.049526718 0.05635283 -0.080889754 -0.03891244 0.044421736
0.32767853 0.2418473 0.116361335 -0.034680653 0.04798001 0.13200916 -0.18474384 -0.023954075
-0.39553186 -0.21588975 -0.4672403 0.16003981 -0.073843084 -0.5337804 -0.021652246 -0.3736466
0.014056012 0.5625807 -0.18699889 0.3232952 0.08279887 0.5416386 0.070297256 0.45631436
-0.21580058 -0.110638164 -0.08737039 0.09858276 0.09461514 -0.0034894699 -0.17539386 -0.3627161
0.053442284 -0.49393532 0.4156823 0.23874393 0.051561832 0.18888247 -0.34808826 -0.4733262
0.35715157 -0.271731 0.07146913 -0.47036114 -0.7155295 0.3429116 -0.43864325 0.07196455
0.39811394 0.38385877 0.015053496 -0.17981802 -0.08502748 -0.5891399 -0.38555226 0.055151794
0.25642 0.026035279 0.54733163 -0.036993064 0.33562073 0.8774288 0.04611489 -0.2767929
-0.21025191 0.2557533 -0.08751015 0.55004764 0.3258881 -0.6355371 -0.17944568 -0.94960696
-0.61437976 0.17594185 -0.024312569 0.24096933 0.069511615 0.06561353 0.25359076 0.7879895
0.30019435 -0.096565925 0.20832722 -0.20808354 0.19439325 -0.25119382 0.019263053 -0.07268738
-0.46244404 -0.013962375 -0.080402754 0.025928646 0.017081812 0.20074776 0.5146178 0.15431632

network_body._body_endoder.seq_layers.0.bias f4 [128]
00000000: ea14 7eba 23d0 64bb b7ad 35ba 85df 9cba
00000010: 7127 21bb 8bc2 d136 623a 16bb b504 cfb8
00000020: a7f6 4cbb 5359 283b ff6e 9f3a b786 473a
00000030: fd1b 1539 c0df 2ebb 8292 703a ae34 e039
00000040: 0cc7 26ba abd5 a73a 3494 4b39 7ad6 d9ba
00000050: d7f8 633b 20f6 693a 3ef7 e9ba 63c7 3bbb
00000060: c683 f8b9 9a65 113b 10da 30bb 247a 8aba
00000070: d861 353b bebb e83a eb58 303a 7e99 e9ba
00000080: 0f56 ebba 606b 133b f4f2 58b9 aa26 f13a
00000090: d59e b0b9 9e75 7bb9 8d84 9fba 58ed 143b
000000a0: ccbd 3c3a ae3b 563a ac35 cfb8 944f 17ba
000000b0: 8e71 09ba 6ccc 5f3b 0bcb 213a f7ca b5ba
000000c0: e2a9 8939 8464 77bb 21f2 dab9 b1ca cfba
000000d0: 44b3 19ba 26e4 cdba 31b7 a139 87b1 a2b9
000000e0: daea c03a 9c3d 433b 273c 6a3a a100 8ab5
000000f0: 7b23 3b3b c278 fb39 17e9 0ebb 082f 2235
00000100: 6cee e73a 630a 1fbb 9c03 083b 7187 243a
00000110: 0810 a6ba 6664 19ba 4511 ddba 3704 01bb
00000120: 47e0 e9b9 037b 37bb b438 8fba abbd ed3a
00000130: c5af 12ba 734c 4bba 2126 d0ba 9368 acba
00000140: a656 6bba 4adf 113b f935 ecba f6bc 2739
00000150: 5eef 0fbb 6b4e 6cba 50d5 733a 70df c5ba
00000160: 7109 dcba 1700 82b9 345a 49ba 1ff3 d3ba
00000170: 41e2 163a 7089 01bb 96c5 ceba 8211 033b
00000180: a38e aeba 93e2 493a 7324 23bb 4607 b13a
00000190: 2f71 f93a 1ee7 4cbb 1ef3 3f39 c72f 70ba
000001a0: c3b3 543a d01f e139 8668 34bb 5ef0 18b9
000001b0: 2578 b839 f818 4c3b 4ac0 4939 c7aa 13b9
000001c0: 4478 683a 3297 20ba 4ff9 78ba bbf7 503a
000001d0: 54f6 a1ba f03c f9ba 6a8c 74bb 87b3 7cbb
000001e0: ee37 6bba aa91 d6b9 2867 d9b9 9a18 76bb
000001f0: 06af f7b8 0033 8abb 1bf9 1eba 4e2e 69ba
-0.00096924475 -0.0034914098 -0.00069304876 -0.001196847 -0.002459016 6.251333e-06 -0.0022922982 -9.871406e-05
-0.0031274946 0.0025688007 0.0012163817 0.00076113216 0.00014220174 -0.0026683658 0.0009177105 0.0004276386
-0.0006362058 0.0012804767 0.00019414799 -0.0016619705 0.0034785771 0.000892492 -0.0017850173 -0.002865278
-0.00047400425 0.0022185803 -0.0026985444 -0.0010564965 0.0027676728 0.0017756147 0.0006727117 -0.0017822233
-0.0017954725 0.002249442 -0.00020689872 0.0018398364 -0.00033687675 -0.00023981041 -0.001217024 0.0022724476
0.0007199913 0.0008172345 -9.880526e-05 -0.0005772051 -0.0005243056 0.0034148945 0.00061719184 -0.0013869692
0.0002625725 -0.003774912 -0.000417606 -0.0015853253 -0.00058631995 -0.0015708252 0.000308448 -0.00031031316
0.0014718429 0.002979136 0.0008935355 -1.0281984e-06 0.0028555084 0.00047964422 -0.0021806413 6.041814e-07
0.0017694957 -0.0024267666 0.0020754104 0.0006276286 -0.0012669573 -0.00058514473 -0.0016866109 -0.001968635
-0.00044608323 -0.0027996905 -0.0010926933 0.001813819 -0.000559565 -0.0007755227 -0.0015880504 -0.0013153724
-0.000897745 0.0022258335 -0.0018021456 0.00015996755 -0.0021962742 -0.0009014371 0.00093015004 -0.0015096497
-0.0016787482 -0.000247956 -0.0007680983 -0.0016170478 0.00057557604 -0.0019765757 -0.0015775438 0.001999945
-0.0013317656 0.00077013037 -0.0024893552 0.0013506196 0.0019030924 -0.0031265686 0.00018305748 -0.0009162393
0.0008113945 0.00042939046 -0.002752812 -0.00014585393 0.0003518473 0.0031142812 0.00019240487 -0.00014082632
0.00088680186 -0.00061260455 -0.0009497599 0.0007971485 -0.0012356737 -0.0019015353 -0.0037315139 -0.0038559155
-0.0008972873 -0.0004092579 -0.00041466323 -0.0037551285 -0.000118104785 -0.0042175055 -0.0006064341 -0.00088951446

network_body._body_endoder.seq_layers.2.weight f4 [128, 128]
00000000: 0be8 30bd a989 283d fb9c fbbc 12e3 3cbd
00000010: 0447 37bd e57e 6d3d 4272 aebd 5cfc d33d
00000020: c68d 93bd fb25 8b3d 4751 133d 0952 31bd
00000030: efbc d8bd 9f21 ad3d a452 25bd 461b 923d
00000040: 3121 b03c 95f1 c73d d458 12bd c90c 1dbc
00000050: eebb 133d 0b8b c63a 30c2 3f3d 8705 1c3e
00000060: 2ed8 3f3d cd75 3e3c ab4f f1bb b560 663e
00000070: 0d78 6dbd 21b6 d5bb edbe e53c 6ba9 183e
00000080: b3bd 893d 594f 38be 5cf5 44bd 896c 29be
00000090: 6934 61bc 7c10 013d 993c e4bc df2d 283e
000000a0: ec3f 083c 0269 64bd 3fb3 6f3d 1a17 5dbe
000000b0: 49f8 a53d 3c47 443e d466 40bc 4fba 70bd
000000c0: e324 bf3c 55b3 203d 1e48 eb3c 5246 6dbd
000000d0: 6d2a 9ebb 1cc0 393b a9db d3bc 5f50 bdbc
000000e0: 0898 8a3d 285d 5c3d 81b6 b13d 01a0 7f3c
000000f0: 5409 01bd 3ad1 b13d 61c1 17bd 3b82 093d
00000100: 3e9e 97bd 5e0a c3bd 5e77 98bd 8e98 9e3d
00000110: 1751 983d 037b 5b3d 2b27 22be 489a 64bc
00000120: 2315 c73c bdab 34bd 8795 933d ca1c f43c
00000130: 2659 59bd 6507 8f3d fd38 ac3d d7dc b43d
00000140: 9b7d 1b3a b48e d0bd 81ea ca3d 72db 4e3c
00000150: 96f3 71bd 3f24 253d 61ea 85bc 0487 51bd
00000160: 16ec f83c 58dc 9fbb 55af 873d 9feb db3d
00000170: 8f37 193c d1e0 5dbc 0912 92bd 9dd6 27bd
00000180: b2c8 ebbd 6bac 6c3d db8a 33bd 46f2 cc3d
00000190: 8ff4 e23c c11b 313d 57ea dabd ba1f 0cbd
000001a0: 43fc 16bd 75eb 2ebc 1133 ad3d beba eebc
000001b0: 8584 453d 1603 10be fa05 e2bd 4b6a bcbd
000001c0: 85b8 03bc d17c 023e 07a0 d73d 68ad 94bc
000001d0: 86f9 55bd bfeb febc 873e 2abd 9206 d33b
000001e0: 0afd c93d ae80 233e a66f 03be f535 793d
000001f0: d201 07be 3e7f 2ebd 65d3 7a3d 2764 833d
00000200: cd7e a13d e321 82bd 6528 083e 4a6a 973d
00000210: 564e a0bb 94bb 8fbd 8b56 cbbd 39f1 1fbc
00000220: 3abb eb3c c49f 463d ab21 38be fe02 533e
00000230: 54f0 e0bc 59f4 8a3d 75c3 81bd b7f9 b73d
00000240: 0b27 3f3d 758a 2e3e 1005 cfbd 67ca 0a3e
00000250: 3967 8a3d 5e2c 8abc b864 8bba 3f66 cfbb
00000260: f75b 183d 7cad b6bd 18ce 8f3d ddd3 f23c
00000270: e95b 203a 117d db3d 80ff 1e38 4782 3ebd
00000280: fc2a c03d 6710 a33d 73c6 b1bd fc85 043c
00000290: 5d86 23be d5ba cabb 6ac0 00bd 521c 0abe
000002a0: 9ff3 d73d 3343 433d ce4d e53c 9320 0abe
000002b0: 045e 66bd 5303 f33c 309a 07be d3c9 f5bb
000002c0: 0e4b 093d de46 643d a1b9 b3bd efcf 95bc
000002d0: 0e96 5a3d bbe8 11be 7f62 553e 3954 0cbd
000002e0: 3c4f 913d bf95 7bbd c13c 633d 6cee 593d
000002f0: 9f97 543d 78ee 2f3d 014c 193d bcd7 12be
00000300: 4ce6 7abd 94c6 c6bd b40e 673d 8606 a5bc
00000310: 9b47 6b3e fd3e 9e3d 7afd dabd d53a e63d
00000320: d91b d23b e11d d33d 1c01 8d3d a3f8 c73d
00000330: fa16 42bd e2dd 81bd 5534 0b3c 9260 43bd
00000340: 94d0 53bd 7551 0bbc 8ba3 8e3e ceea a53c
00000350: c57a 283d d181 8abb e12a 36bc 5c71 ba3d
00000360: 741d 0b3e c93d 36be 2c76 4cbc 6783 393d
00000370: 1945 073d c815 793d c8f0 f5bc 7645 61be
00000380: e4f3 203d 7700 883c 6101 ee3d 4c22 82be
00000390: e8f8 12bd 501d ef3c 0839 d8bd bcbe f5bb
000003a0: d12e da3d 67c3 27bc 1564 aa3d b468 78bc
000003b0: c6ee 0b3d 8bcd 83bc 2d6b 90ba 8560 3b3e
000003c0: eeed 3f3c 5498 163d eb7d a5bd eab3 ec3c
000003d0: b762 ecbb c30b 2b3e 78cb 1b3e b84c c0bd
000003e0: a322 2e3c 89e6 94bd fd06 223d b47e a53c
000003f0: 1e48 093d 0c6b 08bd b61e eabc e55c 00be
-0.043190043 0.041146908 -0.030714503 -0.04611499 -0.04474546 0.057982344 -0.08517887 0.10350868
-0.072047755 0.067943536 0.035966184 -0.043291125 -0.10582911 0.08453678 -0.040362015 0.07134108
0.021500202 0.09762875 -0.035729244 -0.009585568 0.036067896 0.0015147639 0.04681605 0.15236484
0.046837024 0.011624766 -0.0073642335 0.22497828 -0.057975817 -0.0065219556 0.028045142 0.14908378
0.067256354 -0.17999019 -0.048085555 -0.16545309 -0.013745406 0.03150986 -0.027860926 0.16423748
0.008316021 -0.055764206 0.05852055 -0.21590844 0.08103997 0.19167799 -0.011743266 -0.058771428
0.023333019 0.039233524 0.028720912 -0.05792839 -0.004826835 0.0028343266 -0.025861578 -0.023109613
0.06767279 0.05379978 0.08677388 0.015602113 -0.031503037 0.08682485 -0.037049655 0.033571463
-0.07403229 -0.09523462 -0.074446425 0.07743941 0.07437342 0.05358411 -0.15835254 -0.013952799
0.024302071 -0.044109095 0.072062545 0.029798884 -0.053063534 0.06983832 0.08409307 0.08831184
0.00059314974 -0.101834685 0.09908009 0.012625562 -0.059070192 0.04031777 -0.016347112 -0.05115415
0.030386012 -0.004878562 0.06625239 0.107383005 0.009351625 -0.01354237 -0.07132346 -0.040976156
-0.11512889 0.057781618 -0.043833595 0.100071475 0.027704505 0.04323936 -0.10689228 -0.034209944
-0.03686167 -0.0106762545 0.08457006 -0.02914178 0.048222084 -0.14063677 -0.11036296 -0.09199961
-0.008039598 0.12742926 0.1052857 -0.018149093 -0.052239917 -0.031118272 -0.041563537 0.006439992
0.098627165 0.15967056 -0.12835559 0.060842473 -0.13184288 -0.042601816 0.061236758 0.06415587
0.078855135 -0.0635412 0.1329666 0.0739332 -0.004892151 -0.070181996 -0.09928616 -0.009762102
0.0287758 0.048492208 -0.17981593 0.2060661 -0.027458347 0.06784887 -0.063361086 0.08983176
0.046668094 0.17045005 -0.101083875 0.13553773 0.067579694 -0.016866859 -0.0010634875 -0.0063293274
0.03719708 -0.08919808 0.07021731 0.02964204 0.00061172113 0.10717214 3.790809e-05 -0.04651096
0.093831986 0.07962113 -0.08680429 0.008088585 -0.15969224 -0.006186823 -0.0314335 -0.13487366
0.10544514 0.047671508 0.027991202 -0.13488989 -0.056242004 0.029664671 -0.13242412 -0.007500866
0.033518843 0.055731647 -0.0877564 -0.018287627 0.05336576 -0.14248936 0.20838355 -0.03426001
0.07095191 -0.061422106 0.05547786 0.053205892 0.05190241 0.04295203 0.037426 -0.14340109
-0.061254784 -0.097058445 0.056410506 -0.020144712 0.22976534 0.07726858 -0.10692878 0.1124169
0.006412011 0.10308433 0.06884977 0.097642206 -0.047385193 -0.06341149 0.008496364 -0.04769952
-0.051712587 -0.008503308 0.27859148 0.020253565 0.041132707 -0.004226901 -0.011118622 0.09103653
0.13585454 -0.17797007 -0.012479346 0.04529133 0.03302488 0.060811788 -0.03002204 -0.21999153
0.039295092 0.016601784 0.11621357 -0.2541679 -0.035881907 0.029188782 -0.10557753 -0.007499544
0.10653461 -0.010239459 0.083198704 -0.015161682 0.03416326 -0.016089221 -0.0011018269 0.18298538
0.011714442 0.036766365 -0.080806576 0.028894383 -0.007213916 0.16703705 0.15214336 -0.09389633
0.010628375 -0.072705336 0.039557446 0.020202018 0.033516042 -0.033305213 -0.028579097 -0.12535436

network_body._body_endoder.seq_layers.2.bias f4 [128]
00000000: 2e6e ba3a 2bdd e9ba 186f d4ba 407c 94ba
00000010: f882 f03a 6b99 9cb8 9e47 c739 9153 693a
00000020: be24 c63a 7cc6 b0ba ab0e 853a 0352 243b
00000030: 8c86 c939 673a 063a cc82 d1ba 7772 dbba
00000040: 562e 00bb 1cd7 81b9 6fc6 2939 7fd8 983a
00000050: 8d3e 1bbb 9f57 3aba b401 69ba 19c4 64ba
00000060: ce3a 09bb 9f70 4bbb 302e d2ba 58c8 d23a
00000070: 51ff 41bb 16a8 c9ba c136 82ba b8ab 0bbb
00000080: a5f6 3dba c26a 08ba 8707 f939 99ec 8939
00000090: 8ee1 4c3a a34f 0ebb eb5f 353a 6333 2dba
000000a0: 5866 95ba 4473 15ba 12aa 6a3b 305c efba
000000b0: a9d9 f5b9 0369 03ba d034 0e38 c4ae 033b
000000c0: 55a6 c6b9 1982 2eba b828 aa3a e409 463a
000000d0: 3519 0c3b 3ac2 b9ba 695c 023a 966f 2abb
000000e0: 583b 9eb9 b445 7db9 a518 b43a 1fb2 74ba
000000f0: 37d9 103a 757b d2ba 17a8 4bb9 8962 6d3b
00000100: a1ce 0c3a 49d7 62ba 785a 26bb d23b ecba
00000110: c11c 89ba b7db 693a 6850 c5b9 834b 25bb
00000120: 7acf 1c3a 3e29 913a f374 6f38 1f36 05bb
00000130: 7eaa 843a 80a1 07ba 1129 00ba cd20 80b9
00000140: 873f 913a a049 a4ba ac23 b9ba b49b aa39
00000150: b1a1 50ba 4bba 25ba 4ee3 35ba afaf a4ba
00000160: 4d16 b3ba 6dcb bbba aec5 a23a 17ee 83b8
00000170: 15b2 61b9 ddd0 faba 360d acba 2064 e1b8
00000180: 5cd6 b8b8 c26d 4fb9 9257 89ba 025a 2fba
00000190: 5560 15bb 5991 8d39 09d5 26ba 5225 323b
000001a0: 3e48 8f3a 3f70 923a 66b9 a33a f194 533a
000001b0: dbd9 a3b9 98f8 15bb 3ce3 333b 13e7 8b3b
000001c0: f932 15bb 4a35 b53a 2c77 baba f7ee 6c3b
000001d0: f6be b2ba b3a7 7e37 b20f 1c3b 565e d9ba
000001e0: a65d 06bb 6525 a1ba ab77 d4ba ef10 f3ba
000001f0: a25f 4fba 88e9 60ba c162 09b9 84c3 3cba
0.001422351 -0.0017842402 -0.0016207425 -0.0011328533 0.0018349579 -7.467236e-05 0.00038009597 0.0008900697
0.0015117151 -0.0013486887 0.0010151466 0.0025073297 0.00038437953 0.0005120397 -0.0015984415 -0.0016742487
-0.0019558868 -0.00024765066 0.00016191018 0.00116612 -0.0023688406 -0.00071083935 -0.00088884984 -0.00087267306
-0.0020939591 -0.003104247 -0.0016035493 0.0016081436 -0.0029601643 -0.0015385177 -0.0009934531 -0.002131207
-0.0007246531 -0.00052038964 0.0004749859 0.00026306955 0.00078155927 -0.0021714948 0.0006918895 -0.00066070835
-0.0011398299 -0.0005701075 0.0035806936 -0.0018261727 -0.0004689221 -0.00050129014 3.3904624e-05 0.0020093182
-0.0003788943 -0.00066569593 0.0012982106 0.00075545744 0.002137733 -0.0014172264 0.00049728766 -0.0026006452
-0.00030180323 -0.00024153927 0.0013740255 -0.00093344034 0.00055255316 -0.0016058522 -0.00019422207 0.0036222062
0.0005371366 -0.0008653296 -0.0025383513 -0.0018023199 -0.001046084 0.00089209847 -0.00037634675 -0.002522201
0.0005981844 0.0011074913 5.7090958e-05 -0.0020326448 0.0010121611 -0.00051739067 -0.0004888932 -0.000244385
0.0011081555 -0.0012534149 -0.0014125011 0.00032540935 -0.0007958664 -0.00063220103 -0.0006938473 -0.0012564565
-0.0013663262 -0.0014327593 0.0012418532 -6.2909145e-05 -0.00021524013 -0.0019135732 -0.0013126496 -0.00010747486
-8.813731e-05 -0.00019781946 -0.0010478368 -0.00066891324 -0.0022793014 0.00027001908 -0.0006364142 0.002718289
0.0010931564 0.0011172368 0.0012491166 0.0008071205 -0.00031252098 -0.002288377 0.0027448675 0.0042694896
-0.0022765978 0.0013825085 -0.001422619 0.0036153176 -0.0013637233 1.5178625e-05 0.0023813066 -0.00165839
-0.0020502596 -0.001229447 -0.001620998 -0.0018544475 -0.0007910674 -0.0008579721 -0.00013102127 -0.0007200765

action_model._continuous_distribution.log_sigma f4 [1, 4]
00000000: 7ba3 363b b231 f9ba f9b7 62bb 6258 863b
0.0027868438 -0.0019012003 -0.003459452 0.0040998915

action_model._continuous_distribution.mu.weight f4 [4, 128]
00000000: 0b50 883c 637c 40bc 3731 21bc ad1d 94bc
00000010: e908 063b 8068 40bc f151 203c cae5 ca3b
00000020: 0956 833c 7557 c9bc dbc9 7f3c c1e7 663b
00000030: cf2a 8cbc 7928 d43a 2068 27bc 6ee0 d63b
00000040: 5443 9ebc ed86 e03c eadd e03b 5e96 33bc
00000050: 6d43 18bc 6f6c 203b b23c 4a3c 745f b23a
00000060: 0cfd a1bc 4d2b 01bd 219f 24bd 08ab 3b3c
00000070: 7670 c4bb dd4b 5d3c 91e3 c13b 2c11 31bb
00000080: 667e 01bd 9ffe 20bc 45c4 2b3d 37f8 d6bb
00000090: 1bf3 e63c e548 813b 5224 9fbb 6707 853c
000000a0: 948a 013c 4bdb 4d3c 37ba 4d3c ce5e 0abd
000000b0: 18bc 783c 80a3 c43c 7639 543b 7902 ad3b
000000c0: 424a 1cbc bf69 eebc 05c9 ac3b 8605 6a3c
000000d0: 37b9 173b 40ef 87bc 2bfc d93b be81 493b
000000e0: 77b5 59bc f4bb 853b ad2f a83b 71eb 9abb
000000f0: a353 c53a d115 debc 33d8 85bc df80 0d3c
00000100: 4745 93bc df58 8bbc 386b 8abb b55b 8cbc
00000110: de81 163c 353a a63c 5a9a ac3c 05e8 8dbb
00000120: 2832 313c 0616 6f3c 3d55 323b 8b7e 123b
00000130: f54c f13b ecf3 ae3c 8630 eabb 3a0e 82ba
00000140: b75a f1bb 11e7 c33b 0565 9ebc 297c 4ebc
00000150: df11 a0bc 4bff 323c 4e51 92bc 7020 b03b
00000160: 8ef9 633c 43c4 c0bc 266f 8b3c cd78 663c
00000170: bbc2 933a 6d5d 43bc af77 edbc e861 5fbc
00000180: bc80 f83c 3206 903c 63e7 8c3c 7c81 e7bc
00000190: 9457 9ebc 91cd 933b a381 ae3c 6fa6 613c
000001a0: 0bb3 ed3c 7eb7 ce3c 2b97 21bc 8801 ecbb
000001b0: c9fa 43bc 0b7c 59bc cf91 863c ee38 243c
000001c0: 2cb3 0dbc 6329 81bb ed7e ce3a 15a3 9e3c
000001d0: 495b f23b 4451 29bd c1d6 a6bc 43f3 373b
000001e0: 8fdb 443b da05 d5ba c1d8 bbba 03f1 5f3c
000001f0: 3bc6 75bc d4fc c83c f88e 763c d713 a2bc
00000200: e6e9 5a3b 986f babc d339 a1bc 3edb 7f3a
00000210: b647 ba3c 1506 92b9 1a5a bbba b696 8c3c
00000220: 172a 603c 0279 1b3b 2a13 8bbc 33cb 223d
00000230: e348 ac3c f9b3 9f38 5684 99bc d6c3 d8bb
00000240: 9094 fe3b eb6c 82bc 36aa fa36 5cf3 ba3c
00000250: 1092 75bc 7342 20bc efc9 a43b 21e6 873c
00000260: c46c b3bc f70c c3bc 7691 37bc 17e7 2fbc
00000270: 2340 08bc a4d1 ee3a 6a78 6ebc 295d 79bb
00000280: a9e2 3e3b 6508 98bb d7ff cfbc f545 a7bb
00000290: 72a9 073a 71bd 9bbc 38a2 803b 8358 8fbc
000002a0: 3fb6 81bc c6a1 25bd 58f7 383d 862e d63b
000002b0: f126 63bc 655f 5cbc 0aba 90ba 4f15 983c
000002c0: 5f7f b23c 9ab0 f8ba 57c8 b13c b35d abba
000002d0: 6cc3 b13c 2355 433c c0e2 0c3c c0da 013b
000002e0: 2e36 8ebc f2d6 1a3c 61f9 bd3c c421 37bc
000002f0: ab41 5c3c fde3 303c e991 5c3c 67d0 803c
00000300: cf2e 923c e5e2 623b 9263 97bc c006 0cbc
00000310: 81cd aebc 6d6b 8aba e2ee b4bc 05a4 09bd
00000320: f9ce 9b3c e832 94ba dc69 f23b ff99 efbb
00000330: a044 843b 08f2 a5bc 384c 85bc 2edf 0d3d
00000340: 3648 bdbb 504b d2bb fc3e 9cbb c75d f6bb
00000350: 9f5c 623c fee5 3dbc 7558 603b b4e6 a5bc
00000360: 43cc 6abc 409d 45bc 0543 11bc 54cc 60bb
00000370: 7f1f 21bb 53b1 b3bc d649 4c3c 800c cb3c
00000380: 5b41 ca3b 721c 3cbb f6f6 3cbb 885f c13b
00000390: 5bc8 d0bb b160 b63a b246 f0bc 193d 2c3c
000003a0: 5fbc 9c3c 24bb 2b3b 02a4 3a3d 555b 893c
000003b0: 052a f73a 1048 a1bc 5326 ed3b daa5 8b3c
000003c0: 888f 9eba fcf5 dc3c 3857 b7bc 177c 0c3d
000003d0: c170 e33b e5af 973a cb5f 8f3c a5d4 41bc
000003e0: 02dc 7abc 83fb b33b 1b3c b9ba f9c2 c0bc
000003f0: e9f7 313b 29ed dabc 47b7 05bc a5ce 973b
0.01663973 -0.011748406 -0.009838394 -0.018080557 0.0020452088 -0.011743665 0.009785161 0.006191944
0.016032236 -0.024577836 0.015612091 0.003523335 -0.017110256 0.0016186378 -0.010217696 0.006557516
-0.019319214 0.027408088 0.0068623917 -0.010961143 -0.009293419 0.0024478694 0.012343572 0.001360877
-0.019773982 -0.031535435 -0.04019082 0.011454351 -0.0059948517 0.013506857 0.0059170206 -0.0027018292
-0.031614684 -0.009826331 0.041935224 -0.0065603512 0.028192094 0.0039454573 -0.0048566246 0.016238881
0.007906575 0.012564491 0.012556604 -0.03378182 0.015181564 0.024003744 0.0032382882 0.005279836
-0.009539189 -0.029103158 0.005272987 0.014283543 0.0023151168 -0.016593575 0.006652375 0.0030747498
-0.0132878935 0.0040812436 0.0051326365 -0.004727774 0.0015054833 -0.027110012 -0.016338443 0.008636682
-0.01797737 -0.01701015 -0.0042242073 -0.017133573 0.009186236 0.020291427 0.021069694 -0.0043306374
0.010815181 0.014592653 0.002721145 0.0022353258 0.0073639103 0.021356545 -0.0071468977 -0.0009922453
-0.0073655504 0.005978473 -0.01933528 -0.012602844 -0.019539772 0.010925124 -0.017861035 0.0053749606
0.013914479 -0.023531085 0.017020773 0.014066887 0.0011273244 -0.01192413 -0.028987734 -0.0136341825
0.030334823 0.01758108 0.017200178 -0.028259985 -0.01932887 0.0045105894 0.02130205 0.013772591
0.029016038 0.02523398 -0.009862701 -0.007202331 -0.011961647 -0.013274203 0.016426949 0.010023339
-0.008648675 -0.0039417013 0.001575438 0.019364873 0.007396136 -0.041337267 -0.020366075 0.002806858
0.0030038094 -0.0016252354 -0.0014331565 0.0136683015 -0.015000875 0.02453462 0.015048735 -0.019784851
0.0033403574 -0.02275829 -0.019680893 0.00097601477 0.022739273 -0.00027851822 -0.001429382 0.017161708
0.01368191 0.002372325 -0.016976912 0.039744567 0.021030849 7.615233e-05 -0.01873986 -0.0066151423
0.007769175 -0.015921077 7.4703958e-06 0.02282112 -0.014988437 -0.009781468 0.005028955 0.016589226
-0.02190245 -0.023809893 -0.011204114 -0.010736248 -0.008316073 0.0018220437 -0.014555076 -0.0038049913
0.00291268 -0.0046396726 -0.025390549 -0.005104775 0.00051750906 -0.019011231 0.003925588 -0.01749826
-0.015833972 -0.040437482 0.04515776 0.0065363077 -0.013864265 -0.013450478 -0.0011041772 0.018564848
0.02178925 -0.001897353 0.021701975 -0.0013074189 0.02169963 0.011922154 0.008598983 0.0019814223
-0.01735982 0.009450661 0.023190202 -0.011177484 0.013443391 0.010796544 0.013462522 0.015724374
0.017844586 0.0034620103 -0.018480096 -0.008546531 -0.021338226 -0.001056058 -0.022086564 -0.033603687
0.01901959 -0.0011306675 0.0073978733 -0.007312059 0.004036501 -0.020257011 -0.016271695 0.03463667
-0.0057764305 -0.0064176694 -0.0047682505 -0.0075185033 0.013816028 -0.011590479 0.0034232412 -0.02025161
-0.014330926 -0.012061417 -0.008866076 -0.0034301477 -0.0024585424 -0.02193514 0.012468776 0.024786234
0.0061723418 -0.0028703478 -0.0028833724 0.005901281 -0.0063715405 0.0013914314 -0.029330585 0.010512614
0.019132791 0.0026204074 0.045566566 0.016767183 0.0018857127 -0.019687682 0.0072372346 0.017046858
-0.0012097219 0.026972763 -0.022380456 0.03429803 0.0069409315 0.0011572806 0.017501732 -0.011830484
-0.015311243 0.005492629 -0.0014132293 -0.02353047 0.0027155823 -0.026724415 -0.0081613725 0.0046327882

action_model._continuous_distribution.mu.bias f4 [4]
00000000: 0f1b af3a 0b9b c43a a0a9 5f3a 962e 213a
0.0013359505 0.001499982 0.0008532051 0.00061486044

exp_avg f4 [128, 10]
00000000: c500 4f36 8b28 24b7 7a6c a6b7 de95 5336
00000010: 7030 3f33 0595 1c36 3914 0ab7 6025 32b7
00000020: 0a74 36b6 e411 d837 cdd0 e736 48a3 8237
00000030: f265 d237 c570 a4b6 06bd 03b5 8a9c a236
00000040: 5095 4c37 72e2 ebb7 c587 3b37 aed9 17b8
00000050: 6a9e 83b6 7536 20b7 e9d8 8cb7 a4f6 a635
00000060: 1f09 7035 7f37 23b7 01ee bcb7 12d4 1c38
00000070: 3124 4538 78fd 8db6 ba45 5237 e26e 1237
00000080: ecb2 a3b7 f444 1037 ab4e b335 1d64 6fb6
00000090: 9cd4 a335 62f7 c934 aeab 45b8 9746 7d38
000000a0: 360d dcb6 2b5a 5db4 71a0 9e37 bfe5 8bb6
000000b0: d897 9134 6769 90b6 73b9 65b5 34df 2038
000000c0: d672 b036 e45b f9b7 1e57 9636 b656 5135
000000d0: 0d65 84b7 6b5e 21b7 a32d 90b5 bb95 1337
000000e0: 806f 48b7 9114 8bb8 c5e6 19b6 2fa5 50b8
000000f0: 0b6f 2437 c787 ecb6 1409 3135 5fd4 69b7
00000100: 57cc 5335 1955 1837 77c8 5234 2106 68b8
00000110: f5fc a8b8 464e dab8 e9e1 54b7 b7c9 ba37
00000120: 76c7 b6b6 ae2b a136 0937 5bb6 209f 4cb7
00000130: aae1 0e37 7b6b a338 9a11 a338 fe30 6737
00000140: 468c 9437 60ba 5a37 7028 3fb7 2a29 1bb6
00000150: fe44 1036 8a85 bc36 baf4 2737 3d08 8db8
00000160: 55c6 f737 4346 15b7 53f8 57b7 ea1c d2b5
00000170: ae8d 20b8 f7a2 8937 f536 d2b5 2d06 87b7
00000180: 59c1 4fb7 fdcf a838 782f 9b38 e5ab e438
00000190: e432 7c36 5e74 d8b6 aae0 9bb7 0b99 1934
000001a0: 4a27 3f35 86bd d4b5 8e98 b8b6 5132 8836
000001b0: 55a0 a037 7cb6 3037 3d02 3837 2eb0 d4b6
000001c0: 3fb8 2936 bcdd 25b6 7dbb 3f35 7a32 3037
000001d0: 4aea 6734 57de 8db8 51e3 37b7 ed05 0936
000001e0: c8a1 dc36 2496 fdb7 6543 94b7 abd6 9536
000001f0: a373 ad35 317b d037 f101 ddb7 a066 18b9
00000200: dfa9 0d36 9783 4e37 c804 6a37 4df1 8434
00000210: d94a 76b7 20d6 0d36 b2bc 8935 c78a c236
00000220: a95a 3136 5773 20b8 0f6c c2b7 7517 9337
00000230: b359 5237 afa7 94b7 2993 6eb7 bc5f 18b6
00000240: cb08 2535 29c9 a736 6a74 44b7 af3e a0b8
00000250: a0d1 1438 208c 9036 cbdb d036 efa0 afb7
00000260: 79bb c0b7 5074 2db7 ba25 aab6 863f b936
00000270: 1f75 8cb6 1020 7db8 c4d5 28b7 dcb4 20b8
00000280: 6b3a 1f35 71ab e3b6 57e1 1db7 7157 4137
00000290: 3343 c636 97db 0f35 e44e f3b6 fa3f ac36
000002a0: 72e3 5bb6 a058 7b38 4c7d 1b36 2a78 da36
000002b0: 775c cd35 8b6b fb36 756e 4735 14f4 bfb6
000002c0: c862 f236 89e8 bd37 0f7d 4738 49f0 0338
000002d0: fb34 2837 2a8d a436 ec9b 1837 5204 93b6
000002e0: 1652 a735 8fd7 0837 5e2a 19b6 a3e6 7eb8
000002f0: 8b48 0237 92fd 09b8 e505 ac36 0669 ca37
00000300: a423 b037 dbc1 6cb6 1fe5 fcb5 efa1 0d37
00000310: 40fc 5037 3caf 93b8 008e 3db8 135e f7b7
00000320: 8a3c a7b6 d6a5 19b7 cfcc f0b6 edea fc35
00000330: a2db 2ab5 525c 8136 5a23 d2b6 8fee e7b7
00000340: be50 2c37 21ca f237 024d f2b6 b9e3 eab6
00000350: 4602 68b7 2f58 ab36 81d1 fb35 6de9 b336
00000360: d00b beb7 2352 27b7 ec87 79b7 87a0 1638
00000370: 6707 0937 787b 3f37 52c4 b035 38fb dd36
00000380: fcc2 9eb2 c378 20b7 0a19 9f36 164c 1a38
00000390: 516c 4238 cd4b 3738 90e2 e935 e1da b037
000003a0: b927 bcb7 d075 a737 1f7c 4b36 f562 c636
000003b0: 689f 9136 03d7 63b8 579b b6b8 7260 de38
000003c0: ce45 7b37 f087 d9b6 9495 2137 d422 ceb6
000003d0: e9ad 4fb6 496e 9537 cbf0 c136 2f15 d3b8
000003e0: 47ea edb8 b8fe fab7 1a41 95b6 4d36 b4b6
000003f0: bc9b d736 6fe7 bab6 888f a4b5 fdd9 1935
3.0845852e-06 -9.784601e-06 -1.9839255e-05 3.1528684e-06 4.4514707e-08 2.3332552e-06 -8.230149e-06 -1.0618329e-05
-2.7187657e-06 2.5757538e-05 6.908644e-06 1.5573241e-05 2.5081423e-05 -4.900709e-06 -4.907637e-07 4.8461998e-06
1.2194112e-05 -2.811963e-05 1.117768e-05 -3.6203935e-05 -3.922546e-06 -9.549422e-06 -1.6790307e-05 1.2439746e-06
8.942024e-07 -9.728478e-06 -2.2522176e-05 3.7390804e-05 4.7002166e-05 -4.231635e-06 1.253321e-05 8.728095e-06
-1.9514431e-05 8.599123e-06 1.3359435e-06 -3.5672049e-06 1.2206324e-06 3.7619162e-07 -4.712835e-05 6.0385642e-05
-6.558049e-06 -2.0615032e-07 1.890978e-05 -4.169269e-06 2.7118836e-07 -4.303805e-06 -8.557901e-07 3.8354847e-05
5.2585774e-06 -2.9725903e-05 4.48049e-06 7.798475e-07 -1.5782682e-05 -9.618331e-06 -1.0742118e-06 8.796745e-06
-1.194689e-05 -6.631867e-05 -2.2933102e-06 -4.9744904e-05 9.801016e-06 -7.0491546e-06 6.595085e-07 -1.3937329e-05
7.890098e-07 9.079719e-06 1.9630703e-07 -5.531882e-05 -8.057981e-05 -0.000104096296 -1.26887835e-05 2.2266859e-05
-5.447243e-06 4.803259e-06 -3.2665578e-06 -1.2196397e-05 8.516401e-06 7.7924655e-05 7.775724e-05 1.378008e-05
1.7708295e-05 1.3037206e-05 -1.1393902e-05 -2.312076e-06 2.149783e-06 5.6183826e-06 1.00109555e-05 -6.7249384e-05
2.953705e-05 -8.897451e-06 -1.2872816e-05 -1.5654634e-06 -3.8278922e-05 1.6407559e-05 -1.5662214e-06 -1.609613e-05
-1.2383179e-05 8.049605e-05 7.399818e-05 0.00010903905 3.7580548e-06 -6.4508486e-06 -1.8582057e-05 1.4304912e-07
7.121022e-07 -1.585039e-06 -5.501387e-06 4.0589734e-06 1.9148147e-05 1.0532905e-05 1.0967776e-05 -6.3386024e-06
2.5290208e-06 -2.4715982e-06 7.1425876e-07 1.050217e-05 2.1598785e-07 -6.764818e-05 -1.0960576e-05 2.041804e-06
6.5753447e-06 -3.0229865e-05 -1.7674358e-05 4.4655367e-06 1.2923159e-06 2.4852898e-05 -2.6346157e-05 -0.0001453408
2.1109515e-06 1.2309195e-05 1.39486e-05 2.4762485e-07 -1.4680169e-05 2.1135274e-06 1.0262213e-06 5.7978064e-06
2.6427826e-06 -3.825439e-05 -2.317692e-05 1.7534689e-05 1.253786e-05 -1.7721059e-05 -1.4220169e-05 -2.270549e-06
6.1480085e-07 5.000406e-06 -1.1709615e-05 -7.64107e-05 3.548118e-05 4.307847e-06 6.2244703e-06 -2.0936566e-05
-2.2975482e-05 -1.0338685e-05 -5.0707868e-06 5.5208247e-06 -4.18596e-06 -6.034976e-05 -1.00633515e-05 -3.831541e-05
5.9317125e-07 -6.7850856e-06 -9.410395e-06 1.15240555e-05 5.908683e-06 5.3591197e-07 -7.2511484e-06 5.1334473e-06
-3.2765934e-06 5.99256e-05 2.3169732e-06 6.510895e-06 1.5300601e-06 7.4929026e-06 7.4294013e-07 -5.720658e-06
7.2236617e-06 2.2638838e-05 4.7561767e-05 3.1456617e-05 1.0025916e-05 4.9040145e-06 9.096209e-06 -4.3814443e-06
1.246636e-06 8.15642e-06 -2.2823438e-06 -6.0773116e-05 7.765494e-06 -3.28995e-05 5.1266857e-06 2.4129182e-05
2.0997431e-05 -3.527958e-06 -1.8842146e-06 8.441958e-06 1.2456498e-05 -7.042146e-05 -4.519336e-05 -2.9488501e-05
-4.9840355e-06 -9.158122e-06 -7.1764002e-06 1.8843836e-06 -6.3649543e-07 3.855247e-06 -6.262603e-06 -2.7648433e-05
1.0270798e-05 2.8942772e-05 -7.221127e-06 -7.000254e-06 -1.3828807e-05 5.106463e-06 1.8761931e-06 5.36179e-06
-2.2655266e-05 -9.9731e-06 -1.4873203e-05 3.591229e-05 8.16756e-06 1.14132345e-05 1.3170159e-06 6.615559e-06
-1.848229e-08 -9.56486e-06 4.741484e-06 3.678732e-05 4.6354082e-05 4.3701195e-05 1.7425791e-06 2.1082758e-05
-2.2429844e-05 1.9962812e-05 3.0321605e-06 5.91238e-06 4.339894e-06 -5.4321263e-05 -8.7073706e-05 0.00010603749
1.49770185e-05 -6.482929e-06 9.631174e-06 -6.143333e-06 -3.0946633e-06 1.781354e-05 5.77988e-06 -0.0001006521
-0.00011344678 -2.9920935e-05 -4.448125e-06 -5.3707395e-06 6.425629e-06 -5.5701744e-06 -1.2260725e-06 5.7314156e-07

exp_avg_sq f4 [128, 10]
00000000: 4d68 772e 313b c82e 2198 902e 556c 012e
00000010: ccc5 972b 290a 272e 6075 322f 65cb fb30
00000020: 5c55 2930 8494 e230 b4a5 7a2d 9900 6e2e
00000030: 4d3f 502e 4c7b dd2c 6584 c229 5e45 a92c
00000040: 5758 e42e 0952 502f 00a3 c32f aa55 b42f
00000050: 0601 102f 3355 152f 6513 c02e 215e 822e
00000060: 0ca2 5e2c 61c2 b42e c1fd 2f2f aace 8331
00000070: 687f 7b31 c397 4031 7497 a42e 35dd 9a2e
00000080: a5c7 be2e 0aab a52d 57ff ca2b 1c92 1e2e
00000090: 8604 da2e 1a2e f330 2465 2d30 f7d8 7730
000000a0: 5acd ae2d 7532 2f2e 7abd 582e 179f b82d
000000b0: 859a 3a2b 8be8 b72d a385 9f2e 398c 8130
000000c0: 3046 3530 9b4b 8a30 79d3 282f 369b 072f
000000d0: 04d5 e52e 7538 c52e 6ada ab2c 3e3e 042f
000000e0: 1cc0 052f 2c6c b231 4b3f 7431 df56 9931
000000f0: 9a33 872e 1386 302e 0e6c 782e 02d2 202e
00000100: e83c fe2b b525 452e 5ce8 f82e 512b 0131
00000110: fb5c 3030 7c41 1031 55af 2e2f f241 b62e
00000120: 6c0d e52e 8ad7 892e ec39 a72c bba2 092f
00000130: 88e6 df2e 3eb8 bb31 e9e3 6f31 346d 4d31
00000140: c581 a82e 2650 c72e 2162 112f e25c a42e
00000150: 7c13 622c 46f2 882e 0fe2 132f 4a47 5231
00000160: f8f1 bc30 0bb5 9131 c5ee dc2e 84c8 a32e
00000170: 8d08 292f 5122 a62e e49c 872c e78b 112f
00000180: 97e6 412f 9ac6 c131 96a8 3631 d5fe 8431
00000190: 7b23 572e 7fe9 862e 3e6d b02e cfb0 212e
000001a0: 1340 4d2b d22e 7d2e bc78 012f 5b94 4731
000001b0: 1197 0130 f246 0331 e33e 652e d1cc a62d
000001c0: 1bb2 202e 39d3 fb2d 6fa6 072c 79a7 6a2e
000001d0: 97e2 b92d b2e6 0931 957e 3131 e7cc a130
000001e0: 4116 482f 7fb2 ae2f faf6 402f 9482 632e
000001f0: 5431 672b 8a74 972e 32b7 0430 a00c 6231
00000200: 5dd5 0131 1858 3231 7dad 6e2e 46ff c92e
00000210: 0ef8 9f2e 836f 5f2e 40dc 052b 8632 b42d
00000220: 35d8 8a2f 32bb 9030 aed9 6930 1ff4 1631
00000230: deb4 be2e da5c f72e d017 e22e 2a6d 0e2e
00000240: 39cc b42b 38bd 532e 56ea 372f 4211 3331
00000250: 2990 8630 3901 ab30 27a0 2b2f 2b5c a52e
00000260: 3f31 ef2e 9335 9a2e 0344 ae2c e5d1 fd2e
00000270: 8143 392f cf8b a831 46d5 fb30 c771 5531
00000280: 15ea 592e afab 402e abd9 612e 3e93 312e
00000290: d6bd b22c 8d41 642e 97db 132e 0e01 1f31
000002a0: 98f5 6131 6982 fa30 48b4 692e 870e be2e
000002b0: 7ccc ae2e 3ce5 732e 443c 362c cd59 692e
000002c0: d1ab fe2e 5038 1731 1891 1931 6433 2531
000002d0: ae7a e22d 36dc 262e 7c43 2b2e ac2c c72d
000002e0: 3681 d82a e728 eb2d 4489 7b2e 615e be30
000002f0: 6c2e df2f 101e 9030 8292 e92e 3933 582f
00000300: 7833 452f 0b9d c82e a35b 4d2c f649 032f
00000310: b59a 3e2f d623 e331 fe52 7231 0419 9031
00000320: 1007 b32d a726 192e a53b bd2d 7283 312d
00000330: 7f23 de2a 68dd 522d 0dea bb2e fe90 2d30
00000340: 95f7 2830 db36 2f30 34c8 792e 9c24 202f
00000350: f007 5f2e ef49 a32d 6a05 752b 8406 012e
00000360: b85c a02f f0a9 e430 1fdc 7a30 e97f 7c30
00000370: 5adb 132f 0cd2 722f 1ce5 0a2f 666b a32e
00000380: 7a2e 4b2c 3d41 922e 4b36 8b2f 15fa 4e31
00000390: 9f37 1f31 5e9b 7331 a2eb 582f d970 d52e
000003a0: c833 862f b4ef 502f bf15 c82c ae8d cb2e
000003b0: 3f3c 722f a059 9931 f62c d031 36b1 0d32
000003c0: 8dda 032f c216 d62e d3f0 b82e 3359 8c2e
000003d0: 6c5e cb2c d6c8 dd2e feb8 002f 0ae0 af31
000003e0: 3864 a731 dcb6 5831 22de 9a2d f691 3b2e
000003f0: 222a f62d 6640 452d 45e3 672b c966 992d
5.6253936e-11 9.1054615e-11 6.5753854e-11 2.9427422e-11 1.0784095e-12 3.7980428e-11 1.6230706e-10 1.8320462e-09
6.1603145e-10 1.6485875e-09 1.4247648e-11 5.4115466e-11 4.7349947e-11 6.2948865e-12 8.6382975e-14 4.81097e-12
1.0383932e-10 1.8946635e-10 3.5586112e-10 3.2802677e-10 1.3097087e-10 1.358174e-10 8.734594e-11 5.928436e-11
3.1638052e-12 8.219981e-11 1.6006309e-10 3.8360968e-09 3.659773e-09 2.8025944e-09 7.48476e-11 7.0424035e-11
8.675664e-11 1.8834285e-11 1.4423834e-12 3.6054812e-11 9.914296e-11 1.769368e-09 6.3080763e-10 9.01664e-10
1.9872704e-11 3.9835208e-11 4.9281003e-11 2.0989028e-11 6.6294913e-13 2.0907961e-11 7.2542215e-11 9.425839e-10
6.594716e-10 1.006231e-09 1.5354641e-10 1.233332e-10 1.04515535e-10 8.9685516e-11 4.884361e-12 1.2027443e-10
1.216453e-10 5.1927795e-09 3.554265e-09 4.462762e-09 6.1482555e-11 4.013685e-11 5.6484643e-11 3.6566312e-11
1.806469e-12 4.4826105e-11 1.13190096e-10 1.8796593e-09 6.416056e-10 2.0991981e-09 1.5887498e-10 8.288116e-11
1.04160985e-10 6.268326e-11 4.752856e-12 1.2517891e-10 1.01818165e-10 5.463362e-09 3.490863e-09 2.98935e-09
7.662807e-11 9.0637095e-11 1.3222536e-10 7.474356e-11 3.2127348e-12 6.2276004e-11 1.3449884e-10 3.0599545e-09
1.3747572e-09 4.2406376e-09 1.0046856e-10 7.4480005e-11 1.5373498e-10 7.554902e-11 3.854349e-12 1.3237376e-10
1.763517e-10 5.6396177e-09 2.6580316e-09 3.8706767e-09 4.8916853e-11 6.135092e-11 8.022959e-11 3.67642e-11
7.291955e-13 5.7567125e-11 1.1775375e-10 2.9042642e-09 4.7144605e-10 1.9103337e-09 5.2124426e-11 1.8962972e-11
3.6537978e-11 2.8629198e-11 1.9277043e-12 5.3354186e-11 2.1132691e-11 2.006726e-09 2.5828844e-09 1.1772529e-09
1.81978e-10 3.1777245e-10 1.7550042e-10 5.17298e-11 8.213614e-13 6.8873865e-11 4.8281656e-10 3.2894505e-09
1.8893254e-09 2.5952485e-09 5.4269023e-11 9.1857674e-11 7.274546e-11 5.0803372e-11 4.755675e-13 2.0486068e-11
2.5255678e-10 1.0530583e-09 8.507425e-10 2.196664e-09 8.672328e-11 1.1248753e-10 1.028152e-10 3.238402e-11
1.2846452e-12 4.8143906e-11 1.6727006e-10 2.6057738e-09 9.790756e-10 1.2442235e-09 1.5609257e-10 7.5197036e-11
1.08772095e-10 7.012626e-11 4.9529283e-12 1.1542393e-10 1.6849634e-10 4.905338e-09 1.832327e-09 3.1060254e-09
4.9547994e-11 4.380823e-11 5.1352405e-11 4.0375918e-11 5.0801403e-12 5.189942e-11 3.3618965e-11 2.3138145e-09
3.2881413e-09 1.8226959e-09 5.313819e-11 8.64278e-11 7.9489276e-11 5.5455404e-11 2.589721e-12 5.3057825e-11
1.15811034e-10 2.2005402e-09 2.2346907e-09 2.4039872e-09 2.5747706e-11 3.7939617e-11 3.8940837e-11 2.2643519e-11
3.8458966e-13 2.6734571e-11 5.719271e-11 1.3851144e-09 4.0596448e-10 1.0485923e-09 1.0621638e-10 1.9663284e-10
1.7935331e-10 9.1228435e-11 2.918312e-12 1.1940657e-10 1.7335362e-10 6.6106436e-09 3.526281e-09 4.1937955e-09
2.035308e-11 3.4822503e-11 2.15133e-11 1.0090472e-11 3.9459752e-13 1.198628e-11 8.545351e-11 6.314308e-10
6.146988e-10 6.3742583e-10 5.679386e-11 1.4564921e-10 5.071138e-11 1.8563788e-11 8.7049e-13 2.933699e-11
2.916971e-10 1.6637483e-09 9.126228e-10 9.1858837e-10 1.3447501e-10 2.2084395e-10 1.2632423e-10 7.4314596e-11
2.8873835e-12 6.6509e-11 2.532253e-10 3.01191e-09 2.3169162e-09 3.544947e-09 1.9728799e-10 9.706164e-11
2.441125e-10 1.900265e-10 5.686756e-12 9.2565386e-11 2.2031175e-10 4.4630752e-09 6.058708e-09 8.247573e-09
1.1992025e-10 9.735636e-11 8.41013e-11 6.382308e-11 5.78009e-12 1.0085592e-10 1.1707255e-10 5.1186406e-09
4.8717332e-09 3.153608e-09 1.760642e-11 4.2648517e-11 2.7985673e-11 1.1212453e-11 8.2383086e-13 1.7439732e-11

exp_avg f4 [128]
00000000: c5aa 20b7 49ec 3037 831e 1fb8 4643 2737
00000010: fe6f e5b6 b7e6 3ab7 43dc 6e37 ddcc 06b5
00000020: b7c3 8d37 8161 dab7 f1a9 4ab7 4ed3 4836
00000030: 0266 0db8 d025 3d36 8406 91b7 221f 19b6
00000040: 0f3f 2cb7 c638 1737 7fc7 f435 d4a6 1f38
00000050: 53c1 ecb6 341c cab7 84cf 2cb6 869f e937
00000060: b82e 6d37 77b3 8cb6 2b44 d935 2a27 a8b6
00000070: 9ff7 35b7 d7c3 19b6 79fe 2f37 7d71 ab37
00000080: 36ba 2e37 4c68 12b7 800a 0537 395d 8eb7
00000090: 4a8f d3b5 30f1 0a37 1509 9337 dd2e 2a37
000000a0: 413d 5bb7 d930 a436 7d02 d2b6 008a d2b6
000000b0: aaf0 5c36 a2cd 0eb8 2dc0 92b7 079f 26b7
000000c0: 465b eeb6 955b 4e38 8860 37b6 3ce7 9db7
000000d0: d0c3 eeb6 c4c8 3937 e62c db36 40f8 49b7
000000e0: 6b90 9eb7 fd6e 90b6 80f8 a136 7ee5 0fb7
000000f0: 6f66 1cb8 384f fdb6 125b a137 44f1 fcb7
00000100: 162f a5b7 f3f1 0737 19d2 82b7 c472 6f37
00000110: 83f4 96b7 9f9f 7437 4a5d 5137 26ff 98b5
00000120: b3e7 9a37 4391 d5b6 7f19 c337 5951 0ab7
00000130: ee87 0337 2c8d b0b6 0f63 d0b7 a870 59b7
00000140: ffe7 b437 1596 6cb7 a751 5738 dd63 7937
00000150: ead8 0238 945e a2b5 8b59 6fb6 c878 c9b5
00000160: d18e 9637 4151 9235 6a12 0237 a617 b2b5
00000170: 61ef 0537 9e45 9a37 5629 e0b3 bfb2 aa37
00000180: e9c0 99b6 d191 9b37 8eb3 fcb6 fe57 86b7
00000190: 53f2 d535 6d36 0636 d32b 26b5 4a2a dfb6
000001a0: ffb7 30b5 4782 5db7 40fd 9d36 3bb9 9eb6
000001b0: aab8 41b8 fb41 8eb7 69b7 46b8 bd99 1a35
000001c0: 4c1b c1b7 eae1 b237 fdce a0b6 f99b 89b7
000001d0: d0a5 beb7 0996 1437 e165 0938 f957 c437
000001e0: f96d d036 5b16 a5b7 8f05 0537 b204 5437
000001f0: 9b7a abb7 f4d5 b537 9393 12b6 2748 fcb7
-9.5765035e-06 1.0545432e-05 -3.793697e-05 9.969639e-06 -6.8377694e-06 -1.1140181e-05 1.4237189e-05 -5.0217005e-07
1.6899647e-05 -2.6033029e-05 -1.2079706e-05 2.9925318e-06 -3.3712022e-05 2.8185204e-06 -1.7288381e-05 -2.2816898e-06
-1.0266681e-05 9.01352e-06 1.8237478e-06 3.8063925e-05 -7.055854e-06 -2.409341e-05 -2.5750787e-06 2.7850048e-05
1.4137178e-05 -4.1932176e-06 1.6187599e-06 -5.0113495e-06 -1.08460945e-05 -2.291277e-06 1.0490062e-05 2.0437636e-05
1.0414564e-05 -8.726562e-06 7.9298625e-06 -1.697113e-05 -1.5762428e-06 8.281597e-06 1.7527995e-05 1.0143701e-05
-1.3067679e-05 4.8932675e-06 -6.2587774e-06 -6.274553e-06 3.292264e-06 -3.404695e-05 -1.7494045e-05 -9.9313975e-06
-7.1035784e-06 4.919952e-05 -2.7325314e-06 -1.8823535e-05 -7.1157483e-06 1.1073604e-05 6.5319355e-06 -1.2038334e-05
-1.8902318e-05 -4.304455e-06 4.827103e-06 -8.576897e-06 -3.7288697e-05 -7.54921e-06 1.9235104e-05 -3.0153089e-05
-1.9691459e-05 8.10296e-06 -1.5595042e-05 1.4272231e-05 -1.7995253e-05 1.4580698e-05 1.2479091e-05 -1.139914e-06
1.8466124e-05 -6.3648054e-06 2.3257684e-05 -8.244381e-06 7.839857e-06 -5.2616433e-06 -2.484166e-05 -1.2960438e-05
2.1565704e-05 -1.410164e-05 5.133604e-05 1.4864808e-05 3.1196432e-05 -1.2097466e-06 -3.5665896e-06 -1.5010819e-06
1.7947898e-05 1.0901496e-06 7.752891e-06 -1.3268916e-06 7.9831525e-06 1.8390649e-05 -1.0438332e-07 2.0348814e-05
-4.582213e-06 1.8545341e-05 -7.531088e-06 -1.601502e-05 1.5940262e-06 1.9999236e-06 -6.190359e-07 -6.650841e-06
-6.583286e-07 -1.3202959e-05 4.708447e-06 -4.7303306e-06 -4.6186768e-05 -1.6958444e-05 -4.7377693e-05 5.759319e-07
-2.3020104e-05 2.1324453e-05 -4.792468e-06 -1.6404303e-05 -2.2726977e-05 8.85642e-06 3.2758227e-05 2.3405986e-05
6.2116856e-06 -1.9679943e-05 7.928712e-06 1.2637278e-05 -2.0441881e-05 2.1676511e-05 -2.1841595e-06 -3.007434e-05

exp_avg_sq f4 [128]
00000000: 71cd 9f2f 2063 fc2e 2cf4 c32f e4f3 3a2f
00000010: 386d f02e b6b1 b22f 2080 762f d79e 892f
00000020: 8a2f b32f 17c3 b82f 1175 732f c0b8 032f
00000030: b56d 1e30 08de c12f 44e8 7e2f b1e9 a32f
00000040: 2fbc 352f 6ae0 4d2f 0cff de2e 7da9 2230
00000050: d52e c82e 5637 c42f 47dc d92f e252 cd2f
00000060: 7eec c32f 0ffe 132f 9436 f92e 20aa 7d2f
00000070: 2e03 312f f4e7 042e da4d 6b2f 0aa9 362f
00000080: 055c fb2e c0c2 552e 4bc2 5d2f 3f4a 4f2f
00000090: a132 dc2f 543e 962f 9699 9d2f 4f45 e42f
000000a0: 05c8 c42f 50f9 322f dbf2 0030 e178 d22f
000000b0: 31af 322f 9f2d 7b2f 40a2 2a30 e6ee f62e
000000c0: 3039 b52f 5927 dd2f 3d8f 492e b81d 3a2f
000000d0: 87ef 802e 07e4 6d2f eeef ee2f d9e0 4f2f
000000e0: ed02 5c2f fbba f52e 4401 f02f 08ba 5b2f
000000f0: 28fb 2b30 82bf 962f f694 962f edff 3e30
00000100: fbab 492f 2b7a 4930 2498 ba2e 187d 0130
00000110: 58dd 3430 0c0c ae2f d32d c32f 76f7 a82e
00000120: 3c51 db2f bef0 6f2f 754e 6430 fe8b 122f
00000130: 5316 8f2e d586 932e 365c 5e30 9812 832f
00000140: 3e51 9d2f 5ab5 4b2f ad4d 0430 bd05 c92f
00000150: c10b 1130 8888 1830 f907 a02f f5df 412f
00000160: 5012 fa2e f418 1c2f 03b2 f22e a58e 942f
00000170: e97d 1630 1dac 982f 2718 712f 3667 0130
00000180: b295 b92f c65c 022f ea60 4130 78db 472f
00000190: 619b 2c2e c404 9c2f e7b4 922f c1ce 682f
000001a0: 2bfe a62e 1464 0d2f dc48 0e2f 515f 2a2f
000001b0: 894f 6430 3c61 092f d70e d02f b387 b82f
000001c0: 726c 8c30 e9eb 962f ee8b 6d2f f772 1c2f
000001d0: 5d01 9d30 5c19 362f 52b4 b92f b93b 0c2f
000001e0: c684 ce2f bd23 8f2f 0fe0 9d2f 8ff2 0030
000001f0: 932c 922f ab74 f12e 6c28 ac2e 6b31 cf2f
2.9067906e-10 1.14772414e-10 3.5643788e-10 1.7003249e-10 1.09333376e-10 3.2504283e-10 2.2419089e-10 2.5033017e-10
3.259369e-10 3.3608025e-10 2.2142312e-10 1.1980017e-10 5.763597e-10 3.5264258e-10 2.3183683e-10 2.9815575e-10
1.652871e-10 1.8724369e-10 1.01406966e-10 5.9176114e-10 9.103266e-11 3.569151e-10 3.9628587e-10 3.7348175e-10
3.563833e-10 1.3459832e-10 1.1332904e-10 2.3070656e-10 1.6099186e-10 3.021934e-11 2.1400784e-10 1.6612858e-10
1.14305045e-10 4.8603566e-11 2.016886e-10 1.8852918e-10 4.005374e-10 2.7329128e-10 2.8667263e-10 4.1522205e-10
3.5794315e-10 1.6277579e-10 4.6911247e-10 3.8284667e-10 1.6251246e-10 2.2844525e-10 6.207621e-10 1.1229222e-10
3.2964342e-10 4.0227624e-10 4.582933e-11 1.692716e-10 5.863315e-11 2.1636036e-10 4.3462428e-10 1.8906422e-10
2.0009923e-10 1.11745245e-10 4.3656645e-10 1.9984026e-10 6.256635e-10 2.7420916e-10 2.7390684e-10 6.948529e-10
1.8341943e-10 7.3296985e-10 8.485326e-11 4.7107696e-10 6.5798167e-10 3.1658975e-10 3.5502853e-10 7.6837134e-11
3.9893588e-10 2.1822452e-10 8.305741e-10 1.3328358e-10 6.506853e-11 6.708737e-11 8.089417e-10 2.3841973e-10
2.861586e-10 1.8527171e-10 4.8131704e-10 3.6565764e-10 5.2767396e-10 5.54913e-10 2.9109495e-10 1.7632813e-10
1.1371937e-10 1.4196982e-10 1.1036507e-10 2.7022398e-10 5.474861e-10 2.7770933e-10 2.1927403e-10 4.70766e-10
3.375767e-10 1.1856391e-10 7.0350714e-10 1.8176916e-10 3.9246276e-11 2.837962e-10 2.6685784e-10 2.1173731e-10
7.593955e-11 1.285943e-10 1.294071e-10 1.5495273e-10 8.3058943e-10 1.2494622e-10 3.7845524e-10 3.3565825e-10
1.0217163e-09 2.7452465e-10 2.1604737e-10 1.4228961e-10 1.1423641e-09 1.6561813e-10 3.377943e-10 1.2754144e-10
3.7565523e-10 2.6036942e-10 2.8717337e-10 4.6910825e-10 2.6588917e-10 1.09801356e-10 7.828835e-11 3.7688194e-10
