results/Drone1/Drone/Drone-11350129.onnx (onnx, 280527 bytes, 7 tensors)

action_model._continuous_distribution.log_sigma f4 [1, 4]
000000 dd ce e1 be 0d d6 e4 be 09 5d d7 be a2 f3 e9 be
       -0.44103137 -0.44694558 -0.42063168 -0.4569369

action_model._continuous_distribution.mu.bias f4 [4]
000000 90 4e 81 bd 80 92 0c bd cb a4 bd bc cb ef 52 bd
       -0.06313813 -0.0343194 -0.023149868 -0.051498216

action_model._continuous_distribution.mu.weight f4 [4, 256]
000000 6b 15 34 3c cf 02 a6 bb 23 53 8d bd 14 dc b8 3b
       0.010991435 -0.005066253 -0.06900623 0.0056414697
000010 9f 97 9d 3c 5b 9f 0f 3b 99 43 69 3c 12 27 dd 3a
       0.019237338 0.0021915052 0.014237308 0.0016872606
000020 25 71 12 bc b7 a4 fe ba c7 cf b1 3c 9e ab a5 bd
       -0.008938109 -0.0019427751 0.021705521 -0.08089374
000030 38 f3 8d 3c 68 f4 cf bc 65 ef 1c bc 93 0e 80 3c
       0.01732789 -0.025385097 -0.0095785605 0.01563195
000040 72 bf 82 bc 4b df 7b 3a 87 ba 1a bd 22 2f 65 bd
       -0.015960429 0.00096081634 -0.037775543 -0.055953152
000050 7d d7 20 3b f1 3b 27 ba 02 59 e9 3b 4e 38 93 b9
       0.0024542504 -0.00063794764 0.0071212063 -0.00028079975
000060 66 df ba 3c 26 77 cb bc 11 5e b0 bc d4 34 90 3c
       0.022811603 -0.024837088 -0.02152923 0.017603315
000070 47 e1 4e 3c 7d 22 cc 3c f5 21 63 3c 4e 56 29 3c
       0.0126269525 0.024918789 0.013863076 0.010335518
000080 4f 6b 36 3c 45 b0 ae 3c f2 d0 11 bd 0e 2f a4 bc
       0.011133983 0.021324286 -0.035599656 -0.020041969
000090 bd 46 33 bc 7c f8 95 bc 55 f2 3d 3d 7e ca 83 3b
       -0.010942158 -0.018306963 0.046373684 0.0040219417
0000a0 6d 05 c2 3c 6d 16 29 bc f2 82 48 bc 54 f2 06 bd
       0.023684228 -0.010320288 -0.012238251 -0.032945946
0000b0 8f 44 87 bc 6a 54 0c bd 4e 2b 05 bc 8b a3 70 3c
       -0.016512183 -0.03426019 -0.008128 0.014687429
0000c0 ab 43 0c bd 58 de e6 3c 66 cf 56 3c 3a b4 3b bd
       -0.03424422 0.028182194 0.013110971 -0.045826174
0000d0 36 95 07 3d 2b f1 db 3c 38 9d d2 bc 02 9b 90 3c
       0.033101283 0.026848396 -0.025709733 0.017652038
0000e0 d9 78 fc 3b df cb a2 bc a2 17 97 3c 5c 78 94 3c
       0.007704836 -0.019872604 0.018443886 0.018123798
0000f0 15 5e 9a bc dc 3c 01 3c a2 2c 18 bd a8 e6 57 bd
       -0.01884369 0.007888045 -0.03715194 -0.052710205
000100 e5 70 15 bc 0c 3f ef bc 5d 9e db bc 5a c5 09 bd
       -0.009121154 -0.029204868 -0.026808912 -0.033635475
000110 03 b0 72 bc 05 81 6f bc 0d e1 18 3c b9 94 a6 3c
       -0.014812472 -0.014618163 0.009331 0.020334588
000120 53 db cf bc 54 dc 19 3b 38 84 46 bb 7b 86 2e 3b
       -0.025373137 0.0023477273 -0.003029121 0.002663045
000130 2c 7a 0c 3d fd 4a f5 3a 1f da eb bc 79 20 c5 bc
       0.0342962 0.0018714365 -0.028790532 -0.024063336
000140 3a 33 e8 3b ed 3f 51 3c 79 70 ec bc bc 74 d3 3c
       0.007086185 0.012771589 -0.028862225 0.0258125
000150 a0 11 b8 3b f0 6f 17 3d 23 cb 02 bb 21 9d d6 3c
       0.0056173354 0.036971986 -0.0019957505 0.026197972
000160 39 fd d2 3b aa e8 40 3b 69 b2 10 3c 52 24 a5 bb
       0.006438878 0.0029435554 0.008831599 -0.00503973
000170 c4 bd 40 bc 6a e4 63 bd 39 cf 5d 3b 84 14 08 bd
       -0.011763994 -0.055637754 0.0033845438 -0.03322269
000180 22 78 83 bb 86 25 92 bb 9d 84 b0 3c 33 a0 b1 bb
       -0.0040121237 -0.0044600395 0.02154761 -0.0054207086
000190 80 04 5d 3b 12 8b a6 3c a1 ca 07 3d 1f 0a 80 bb
       0.0033724606 0.020329986 0.033152226 -0.0039074565
0001a0 2f b2 80 bd 2d 14 2c 3c ff 2a c7 bc 55 25 85 3c
       -0.06283986 0.010502857 -0.024312494 0.016253153
0001b0 47 6f bb bc 5f 60 41 3c 75 49 48 bb 43 e4 07 3c
       -0.02288021 0.011802762 -0.0030561362 0.008294168
0001c0 7c b0 3d bc 9d a3 34 3c 7c 4c 95 bc c4 66 8a bc
       -0.011577722 0.011025337 -0.018224947 -0.016894706
0001d0 cd ac 3c 3b 03 2a a0 bb 11 67 15 3d 60 3d 85 bc
       0.002878952 -0.0048878207 0.036475245 -0.016264617
0001e0 c6 85 84 3c 0c 82 15 bd 67 54 9c b9 32 ae d5 ba
       0.01617707 -0.036500975 -0.00029817523 -0.0016302525
0001f0 8a d8 2a bb 13 54 1d bc af 62 0b bd a8 6f 78 bc
       -0.0026069009 -0.009602564 -0.03402966 -0.01516334
000200 0f aa 50 bc 59 2e 82 bc b4 e0 01 bc aa c3 16 bc
       -0.012735858 -0.01589124 -0.007927109 -0.009201923
000210 99 8b 12 bc 23 cd af bc e6 5e 50 bc 22 18 cd 3c
       -0.0089444155 -0.021460121 -0.012717938 0.025035921
000220 1c aa a1 3c 9b c5 27 3c 94 3d cf 3c e4 70 11 bc
       0.019734435 0.010239984 0.025297917 -0.008877013
000230 27 e0 73 3c 71 ea f3 bc 97 e1 d6 3c 7e c1 51 bc
       0.014884985 -0.029774876 0.026230616 -0.01280248
000240 ad 39 cb bb 9b c9 0e 3d 19 39 3b 3c 29 d9 bb bb
       -0.006201944 0.034860235 0.011427187 -0.0057326746
000250 56 8b cb bc d9 4b 0a 3c 04 83 0c 3c e8 43 00 bd
       -0.024846714 0.008440935 0.008576158 -0.03131476
000260 fb 12 3e 3c e7 95 2d 3c 2b 59 dd ba 6e 11 d2 3a
       0.011601205 0.010594822 -0.0016887536 0.0016026923
000270 63 33 8f bc 3c 1f 3f 3b ed 87 3b bc 51 5d 1c 3c
       -0.017480558 0.0029162904 -0.011445981 0.009543733
000280 0d 5e 4e bc be 70 06 bb 86 44 c5 3b f5 06 a8 bc
       -0.012595666 -0.0020513977 0.0060201315 -0.02051113
000290 5d 4b f4 bb 25 3e 15 bd 7c cb b3 bc 84 9e 1e 3b
       -0.007455273 -0.03643622 -0.021947615 0.002420337
0002a0 b9 04 23 3c 8e 9b d6 bb 44 86 1a bd 66 8d d0 3b
       0.009949856 -0.0065493053 -0.037725702 0.0063645123
0002b0 65 8f a6 3c 3a 76 ea bc 3e 9a 33 3c 75 a7 09 3c
       0.020332048 -0.028620828 0.010962067 0.008401741
0002c0 ab a1 b9 bc 67 28 37 bc 4f 38 8e 3b 90 54 52 bd
       -0.022660097 -0.011179066 0.0043402086 -0.051350176
0002d0 01 5f fb bc a4 10 ac bc 6c 21 78 bd e1 db 8d bc
       -0.03068495 -0.021004029 -0.06057875 -0.01731676
0002e0 d0 84 1d 3b 04 d5 8c bc fe 29 69 bc 29 f6 31 bd
       0.0024035461 -0.017191418 -0.014231203 -0.043447647
0002f0 e2 ef a8 bb ed 9a 27 3a da 8e 0b bc 42 e5 0f 3a
       -0.0051555494 0.000639363 -0.008517945 0.0005489179
000300 08 50 e6 3c ab ba ae 3b d2 1d 20 bd 4f 2a bb 3c
       0.028114334 0.005332311 -0.03909094 0.022847323
000310 72 1f 9c 3c 92 ac 2e 3a 2e f2 9e bc 96 84 bb 3c
       0.019057963 0.0006663288 -0.01940259 0.02289037
000320 0f 7e b2 bb 7d d9 92 37 44 6b e2 3c 38 fb d0 3b
       -0.0054471563 1.7505832e-05 0.027639039 0.006377604
000330 d8 f5 62 bc 7c 23 fb bc b8 44 9c 3c 41 f5 07 bb
       -0.013852559 -0.030656569 0.019075736 -0.0020745548
000340 d7 a1 ee 3c dc a8 45 3b 52 df 6b bc 4d 13 9f bd
       0.029129906 0.0030160462 -0.014396505 -0.07767353
000350 7b b5 ec 3c 74 a0 ff 3b 3a 4e 3a 3c aa b6 f3 bc
       0.02889513 0.00780111 0.01137119 -0.029750187
000360 6a d7 bb bc ed e8 f8 bc a3 85 b8 3c 1d dd 8c 3c
       -0.022929866 -0.030384505 0.02252466 0.017195279
000370 ba 51 48 bd 0c 24 9d 3c ed e9 62 bc aa 5e 32 bd
       -0.048906066 0.019182228 -0.013849718 -0.04354731
000380 ea 06 a7 3a 09 70 7c bc 88 30 ec bd 9b 8a 89 3b
       0.001274315 -0.015407571 -0.11532694 0.0041974313
000390 58 a7 c4 3b 72 9f df 3b 8f 8f 99 3c 45 8d 30 3c
       0.0060013942 0.0068244273 0.018745212 0.010775869
0003a0 72 6d 06 bc 10 ed 58 3b 2c 95 8e bc 1e f9 89 bd
       -0.008204805 0.0033100285 -0.017405115 -0.067369685
0003b0 fe de a2 3c c6 e2 75 3b 04 e6 a4 ba bb 87 87 3b
       0.019881722 0.00375192 -0.0012580757 0.0041360534
0003c0 9f d8 aa bc 9e b1 a2 bc 56 4c b1 3a 04 23 a9 3c
       -0.020855246 -0.019860085 0.0013526778 0.02064658
0003d0 d2 c2 8a 3b 0c b0 41 3c 07 2f 42 bc 1e dd 11 bd
       0.00423465 0.011821758 -0.0118520325 -0.035611264
0003e0 2c ee fe bc 65 bd 5e bc fd 62 0e 3c 1e 4d 15 bd
       -0.031119429 -0.01359496 0.008690593 -0.036450498
0003f0 51 97 24 bc a1 d5 55 bc c2 7c 86 ba ca 93 4e ba
       -0.010045842 -0.013051421 -0.0010260569 -0.00078802987

network_body._body_endoder.seq_layers.0.bias f4 [256]
000000 50 b0 27 3b 5d 8f ae bb 40 1a ff 3c 74 90 0b bc
       0.0025587268 -0.005327149 0.031140447 -0.008518327
000010 ba 70 e9 3b e1 26 a2 3c 46 45 8b bb f4 3f 89 ba
       0.0071240338 0.01979393 -0.0042502014 -0.001047133
000020 5f d7 35 3b 4f 15 62 bc 79 07 2b 3c bc 16 12 bc
       0.002774678 -0.013799026 0.010438793 -0.008916553
000030 78 84 58 bb 59 b6 2b bb d2 6a b8 bc 9c b2 25 bc
       -0.0033037942 -0.0026201217 -0.022511873 -0.010113385
000040 8f db 1c bb 05 be df ba 3c e3 0e 3c c2 29 73 ba
       -0.0023934578 -0.001707018 0.008721169 -0.0009275937
000050 80 21 9a bc 11 48 b3 3a 26 64 90 b9 48 75 28 3b
       -0.018814802 0.0013678094 -0.00027540437 0.002570467
000060 b0 49 b9 39 95 ad 54 bc 0a 0a 6a bb d6 88 77 3c
       0.0003534085 -0.012980838 -0.003571155 0.015108308
000070 12 bb 0c ba 42 aa b1 3b 2f 32 a7 bb 42 07 e4 bc
       -0.0005368452 0.0054219076 -0.005102418 -0.027835492
000080 63 25 a6 3c 45 c7 34 3b a8 6c b0 bb fe ba 6f ba
       0.0202815 0.0027584594 -0.0053840466 -0.00091449905
000090 67 17 59 3c 04 0a 19 bb 06 38 2d bc 5b 03 53 3d
       0.013250208 -0.0023351917 -0.010572439 0.051516872
0000a0 f9 b2 4d 3c b4 b5 86 bb 17 9f 2b ba 78 8a 3d 3d
       0.012554877 -0.004111016 -0.00065468386 0.046274632
0000b0 8d 17 aa 37 ae f6 86 bc 7f 7c e2 3b 58 b8 53 3d
       2.0276546e-05 -0.016475048 0.0069118137 0.051689476
0000c0 a6 21 36 3d 40 36 05 3a 05 ca 75 3c 6b 20 0f 3d
       0.044465683 0.0005081631 0.0150017785 0.034943026
0000d0 a3 11 94 ba 4a 65 f9 bc 82 88 eb bb 95 a1 40 3b
       -0.001129676 -0.030443806 -0.007187904 0.0029393185
0000e0 1d ee 4b bb cc 7a 3c 3d ba be 60 3b 07 e9 c3 bb
       -0.0031117268 0.046015546 0.003429337 -0.0059787068
0000f0 4f 30 41 3a b2 57 0b bb ba 73 81 bb 62 17 12 bc
       0.0007369564 -0.0021261987 -0.0039505633 -0.008916708
000100 82 9a bc 3c d8 95 97 3c 18 4b a6 ba 29 cc 0b 3d
       0.023022894 0.018504068 -0.0012687175 0.03413025
000110 49 8c 06 ba 87 07 0a bb b8 5f 54 bc 86 e8 10 3a
       -0.00051325985 -0.0021061616 -0.012962274 0.0005527813
000120 e9 87 0a bc 00 f4 d8 3b f9 c3 08 39 5b 6c 51 bb
       -0.008455255 0.006620884 0.00013042976 -0.0031955454
000130 a5 24 27 3c 76 ca 06 3d 59 81 e8 bb da bd 39 bb
       0.010201608 0.032907926 -0.0070954976 -0.002834192
000140 f0 75 ba bc 64 54 52 3b 48 98 2c 3b 60 a6 22 3b
       -0.022761315 0.0032093758 0.0026335884 0.0024818406
000150 89 5b a2 bb 49 76 cc ba 21 82 53 39 7d e4 ff b8
       -0.0049547595 -0.0015599217 0.00020171005 -0.00012201907
000160 68 77 56 3c f8 81 d7 bb 7d 93 1e ba fc d7 7d 3c
       0.013089992 -0.006576773 -0.0006049199 0.015493389
000170 84 95 7a bc ab 13 16 bc 95 31 8e 3c b6 bd 74 3b
       -0.015294436 -0.009159963 0.017357627 0.0037344522
000180 7a 2a f2 3b 23 e6 85 ba 61 8d 54 3c 7a 73 81 3c
       0.0073903175 -0.0010215681 0.0129731605 0.015802134
000190 3f 93 cc bb fb 6b c9 bb 25 6a 84 3d b9 ff 34 bc
       -0.006243139 -0.0061469055 0.06465558 -0.011047297
0001a0 34 ea ea 3b dd 2d e5 3b 7d de 5b bb 95 4a a4 bb
       0.0071690325 0.0069939927 -0.0033549361 -0.0050137737
0001b0 ed 22 b8 ba 6a e2 98 bb 56 8b fb 3a 18 f2 a9 ba
       -0.0014048495 -0.0046656625 0.0019191306 -0.0012965826
0001c0 f2 f1 10 bd d0 02 f3 3b b0 85 3b 3d 63 b6 94 3c
       -0.035386987 0.0074161068 0.04578179 0.018153375
0001d0 91 5e 05 bc f0 2e c5 38 32 e3 1e bd fa 01 2f bc
       -0.008140222 9.402435e-05 -0.03879089 -0.010681624
0001e0 65 3c 54 3c a1 0a a7 bb 6f 7a 5d 3b 75 e1 81 3b
       0.012953852 -0.0050977026 0.00337949 0.003963644
0001f0 ca 32 f8 bc 08 92 58 3c aa 8b 0b bb 47 60 51 3b
       -0.030297656 0.01321841 -0.0021292963 0.0031948255
000200 41 d0 15 bc 57 46 40 3a 02 e6 31 ba a9 b5 c7 bb
       -0.00914389 0.00073347 -0.0006786288 -0.0060946536
000210 2b be 61 ba 61 1a 25 bb ac 31 08 bc 12 36 af bc
       -0.0008611406 -0.0025192725 -0.008312624 -0.021388087
000220 dc 5a 1a 3b 57 02 57 3c 43 30 3d 3c 12 17 9c 3b
       0.0023552692 0.013123116 0.011547151 0.0047634924
000230 4e 44 04 bb fd 63 85 bb 99 6e ec 3a 96 14 e2 3b
       -0.0020182314 -0.0040707574 0.0018038332 0.0068994267
000240 73 48 95 3a dd 3e 55 3c ef 30 26 bb 90 6d 6c 3d
       0.0011389389 0.013015476 -0.0025358757 0.057721674
000250 82 fc 71 bb c6 b8 87 bb b5 36 22 3b b6 47 0a bc
       -0.0036924188 -0.0041418998 0.0024751846 -0.008439949
000260 11 90 b7 3b 2e 01 10 3c 48 1e 04 3c b3 53 52 3c
       0.005601891 0.008789344 0.00806386 0.012837338
000270 81 c7 bb 3b b9 b5 b2 3c 32 24 c9 bb 00 d5 3a 3c
       0.00573057 0.021815168 -0.006138348 0.011403322
000280 9d 5f 3b bc 83 60 ab 3b d5 df a8 3b f0 c2 27 bd
       -0.01143637 0.005230011 0.005153636 -0.04095739
000290 14 34 0a bb 69 0e 6c bb 4b af 82 3d 09 6c ba 3b
       -0.002108817 -0.0036019331 0.06381091 0.0056891483
0002a0 e4 5e f2 b9 49 c1 01 bc 8c 29 d3 3b 7c c6 2b 3d
       -0.00046228536 -0.007919618 0.0064441618 0.041937336
0002b0 cc b9 d0 3c db aa 58 bc 0c 78 d8 bb e6 09 a0 bb
       0.02547922 -0.013224329 -0.0066061076 -0.0048839925
0002c0 22 11 24 bc 93 6d 22 3b 57 f6 81 3d b8 7a 20 ba
       -0.01001385 0.002478455 0.06345814 -0.0006121802
0002d0 e0 5c 4f bb 33 c9 98 3b f4 d1 73 bc dc 41 ae 3c
       -0.0031641051 0.0046626567 -0.0148816 0.021271639
0002e0 a7 81 63 3b 23 24 fc bb 8b 31 2f 3b 01 a8 05 3a
       0.003471473 -0.0076947375 0.002673241 0.0005098582
0002f0 42 49 c8 39 a0 f8 9e 3a d7 71 0a 3b 7f fc 4f bb
       0.00038201554 0.0012128539 0.0021124983 -0.0031736193
000300 c9 29 84 3b 92 49 b3 ba c3 c3 9e ba 80 07 54 b9
       0.0040333015 -0.0013678542 -0.0012112785 -0.0002022069
000310 81 91 62 3b 13 c2 54 3c 98 ad 07 3d 9b 6c 0d 3a
       0.003457159 0.012985724 0.033124536 0.00053949066
000320 4a e5 08 3c d8 dd 06 bd ff 7e 24 bb 9a 11 71 bb
       0.008355448 -0.03292641 -0.002510011 -0.0036784173
000330 6d 5e 87 3c 29 f7 23 bb 5b 8d 6e 3c fc 1f 0e 3b
       0.016524518 -0.0025019145 0.014560069 0.0021686545
000340 72 8b 62 ba 91 c5 2f 3b 90 3b de 38 e3 ac 83 ba
       -0.0008641995 0.002682064 0.00010596879 -0.0010046031
000350 4c 30 1c 3c 11 10 09 3c 1a 40 83 3d 24 39 90 3c
       0.009532999 0.008365647 0.06408711 0.017605372
000360 ee 7d 21 bc 30 11 e7 3b 42 0a 0b bb 8c e7 9d bb
       -0.009856684 0.0070516095 -0.002121583 -0.0048188623
000370 5e c4 6b bb 5a f1 e7 3c 1a f3 c6 ba c3 f2 f2 3b
       -0.0035975198 0.028313328 -0.0015178651 0.0074141934
000380 a3 23 3b bb cd 56 ed bb 96 66 08 bc 7e 00 25 3d
       -0.0028555177 -0.0072430135 -0.00832524 0.040283673
000390 95 58 92 ba fd 48 00 3d 26 da 72 3b 9b a1 0d 3c
       -0.0011165316 0.031319607 0.0037056296 0.008644487
0003a0 07 33 0d 3c a5 73 77 3c 58 a9 55 bb 0e bf 81 3c
       0.008618123 0.015103255 -0.0032602157 0.015838172
0003b0 c7 5a 96 3b 1a b9 8a bb b8 7c c8 3a bc 4f db bb
       0.004588458 -0.0042334916 0.0015295958 -0.0066928547
0003c0 13 6f 94 bb 44 bc 7e 3b 30 cd 7f 3a 82 b9 e5 3c
       -0.0045298426 0.003886954 0.00097580533 0.028042559
0003d0 d6 09 a8 bb 5f fa 9d ba a1 aa 89 3c 65 50 bf bc
       -0.0051281257 -0.0012052766 0.016804995 -0.023353765
0003e0 ff 10 da 3c b9 0f 30 3b 97 c5 6e 3b 40 40 c6 ba
       0.026619432 0.002686484 0.003643369 -0.0015125349
0003f0 36 59 21 3d c9 79 94 bb 12 b6 d4 3b a2 e3 1f bc
       0.03939172 -0.0045311195 0.006491431 -0.009758862

network_body._body_endoder.seq_layers.0.weight f4 [256, 10]
000000 5b 0b c2 be d3 6f f0 3e 07 a2 af 3e f9 57 b8 3e
       -0.3789929 0.46960315 0.34303305 0.36004618
000010 55 6c ad bd 07 34 22 bf cf d9 85 3e b8 c9 17 be
       -0.08467928 -0.6336064 0.26142737 -0.14823043
000020 84 95 a5 be a4 8e df b9 c6 31 cf 3c 4a 0b 95 be
       -0.32340634 -0.0004264015 0.025292289 -0.29110175
000030 04 2a 90 3e 04 e3 e8 bc 73 81 ae be 10 8c 38 be
       0.28157055 -0.028428562 -0.34083137 -0.1802218
000040 f7 dc b0 3e 28 a0 63 bd 3e 2d 1f bf eb e0 15 3d
       0.34543583 -0.05557266 -0.6217841 0.03659145
000050 fd f4 4f be 98 02 90 3e cc a5 14 be a2 2d 09 be
       -0.203083 0.2812698 -0.14516371 -0.13396314
000060 d1 5d d7 3e de f6 1e 3d 35 ca 83 3d 4a 33 98 3e
       0.42063764 0.03880965 0.06435052 0.2972663
000070 f2 24 7c 3e b7 1f 0b 3e 5d 1c 0e be 57 c6 0d bf
       0.24623469 0.13586317 -0.13878007 -0.5538077
000080 ed a8 7d bd b3 9f ed 3e 11 cf 00 bf a0 8a db 3e
       -0.06192868 0.46410903 -0.5031596 0.428792
000090 03 cb 88 3d 7a e5 a9 bd a1 28 14 bf 6a 3e ad 3e
       0.066793464 -0.08295722 -0.57874495 0.3383668
0000a0 b5 70 a0 bc 56 f0 1e be 21 c8 14 3f d3 43 b0 bd
       -0.019584993 -0.15521368 0.5811787 -0.086066864
0000b0 2b fa 10 3f 3e 3a 23 bf 05 eb 4e be 07 51 42 3d
       0.56631726 -0.63760746 -0.2020684 0.047440555
0000c0 91 e0 01 bd 30 ef 29 ba 9f b1 9d 3e d8 09 b8 3e
       -0.031708304 -0.000648248 0.30799577 0.3594501
0000d0 c5 98 41 bf a2 0c 95 3e 41 7b 89 be b9 05 94 3e
       -0.7562373 0.291112 -0.26851848 0.28910616
0000e0 5b c7 c9 3d 27 68 86 bc 62 3f d6 bd f3 f1 6e bd
       0.09852477 -0.016407086 -0.10461308 -0.05833621
0000f0 75 b0 b9 be 74 23 c6 3e 78 ea fe bd 6d be a3 3e
       -0.3626744 0.38698924 -0.12447065 0.3198122
000100 ab 81 1d 3e e3 ae 5b 3e 3d bd 02 bf dd de 07 3e
       0.15381496 0.21453433 -0.51070005 0.1326861
000110 79 a0 b0 3b 1b 45 ef 3e 9f 65 dc bd 30 bb be 3e
       0.0053902236 0.4673241 -0.1076157 0.37252188
000120 24 a0 2e 3c af 62 90 3e 37 5b 94 3e 3b 00 e1 bd
       0.010658298 0.2820029 0.2897584 -0.10986372
000130 eb 1c 05 3f 5e 56 d3 be 34 d2 f0 be ba 49 a6 3e
       0.5199725 -0.4127683 -0.47035372 0.32478124
000140 47 f7 19 3e 3f 1b fd 3d e8 a4 15 3e 5d 77 28 be
       0.15035735 0.123587124 0.14613688 -0.16451783
000150 67 ff a0 bb 95 cc 0e 3f 2c 68 ca be 16 a5 02 3d
       -0.004913259 0.5578092 -0.39532602 0.03189572
000160 6f 4f 6b 3e 25 df 31 be 6b b4 92 3d 46 62 83 bd
       0.2297952 -0.17370279 0.07163318 -0.064152285
000170 bc 82 87 be a9 68 e1 3e 34 bc 12 be 83 cb a2 3e
       -0.2646693 0.44025162 -0.14329606 0.31795892
000180 37 0b f4 3c 6a 2e 01 be 0b 04 b8 be e3 8a c6 3e
       0.029790504 -0.12615362 -0.35940585 0.38777837
000190 61 64 81 ba 57 3e 32 be 98 6e d9 3e 77 32 90 3e
       -0.0009871834 -0.17406593 0.4246719 0.28163502
0001a0 cd c5 fc be 5c 93 c4 bd 18 15 37 3f 74 a9 75 be
       -0.4936966 -0.09598419 0.7151656 -0.23990422
0001b0 93 78 c3 bd ec f0 cf bd 47 cc ce 3e 4e b3 d3 3e
       -0.09544482 -0.10153374 0.40390226 0.41347736
0001c0 d2 28 bd bd 76 b5 ff 3d 17 e9 04 be 73 0c ac 3d
       -0.092363015 0.12485783 -0.12979542 0.08400812
0001d0 15 83 cb 3c 69 f4 b5 be 7f 6c 88 3e e7 a3 01 bf
       0.024842778 -0.35538033 0.26645276 -0.5064072
0001e0 db 44 4a 3d fb 7f dc be ad eb 9a 3d ef 88 ba 3e
       0.049382072 -0.4306639 0.07564483 0.36432597
0001f0 28 22 38 3c ba 0c 10 bf 6f bd 05 bf 40 78 d1 3d
       0.011238612 -0.5626942 -0.5224218 0.10228014
000200 c2 3e ab 3d 96 86 99 be dc 31 e8 be 0f 50 95 bd
       0.083615795 -0.29985493 -0.4535054 -0.072906606
000210 6e 9b 9e be dd dd e5 3c 1b 11 5d bc 7e 37 c9 bd
       -0.30977958 0.028059894 -0.013492848 -0.098250374
000220 30 30 24 bc 0e 4c cf 3e 65 ba 08 3e 18 57 c4 3e
       -0.010021254 0.40487713 0.13352354 0.38347697
000230 cf 76 8b 3e a2 14 53 bd 19 90 1c 3e 83 ac d7 3e
       0.2723908 -0.05153335 0.15289344 0.42123803
000240 b9 f3 23 3d 3a e1 0b be 32 1f 22 be 87 a6 0b bf
       0.040027354 -0.13660136 -0.15832213 -0.54550976
000250 08 be 7a be 07 09 8e bd 7f 43 08 3f 35 5b fe 3d
       -0.24486554 -0.069353156 0.5322799 0.1241974
000260 a9 ca d0 bc cc 3d 4d be 48 8b e9 be 1e 9c 04 bf
       -0.02548726 -0.20043105 -0.45614076 -0.51800716
000270 0d 1a 5b be 8a 41 ee 3e e5 97 af be 78 c3 bd bd
       -0.21396656 0.46534377 -0.34295574 -0.09265798
000280 4f 24 20 3e 47 20 1d 3e ef 48 83 3c ba c0 d9 3e
       0.1563885 0.15344344 0.016025988 0.4252985
000290 72 67 c8 bd 66 cb 07 be 93 0a b3 3e 50 a4 93 3e
       -0.09785356 -0.13261184 0.34969005 0.28836298
0002a0 bf 77 32 3d 6a 70 e8 be 1e 1e cb 3d ae d4 95 3d
       0.04357123 -0.45398265 0.09917854 0.07315956
0002b0 8e 71 8e 3d 9a 86 fd 3d 46 76 7d be c0 cb 1b bf
       0.069552526 0.12379189 -0.24752149 -0.6085777
0002c0 a6 70 8e be 14 22 c3 be 71 8b bd 3e 6a d1 94 be
       -0.2782032 -0.38111937 0.37020448 -0.2906602
0002d0 45 59 7b bf b9 d5 da 3e c2 1b 42 3e ec 3f a0 3e
       -0.9818309 0.42741182 0.18955901 0.3129877
0002e0 ce b0 9f 3e f9 be eb 3e 9a f4 62 3d 71 4e 4d 3d
       0.3118958 0.46044138 0.05540905 0.050123636
0002f0 6a 4d b4 bd 5a 93 22 3e 0e 71 18 bf 54 73 e4 3e
       -0.08803828 0.15876523 -0.5954751 0.44619238
000300 78 af 7c be d5 ec ca 3e c1 92 2a bd 63 77 ab 3e
       -0.24676311 0.39633814 -0.04164386 0.33489522
000310 63 d5 89 bd 28 71 70 3e 25 84 26 bb 3c 00 44 be
       -0.067301534 0.23480666 -0.0025408354 -0.19140714
000320 74 85 73 be 89 13 97 be f4 58 9c be 5e ff 00 bf
       -0.23781377 -0.29507092 -0.30536616 -0.5038966
000330 4b d4 f7 3d 41 f0 b3 be 17 de 68 bc b5 ea ec 3e
       0.121010385 -0.35144237 -0.014213107 0.46272817
000340 8d 89 56 be 32 bf 5a 3e 4e b1 ce be da 77 27 bd
       -0.20950909 0.21361998 -0.40369648 -0.040885784
000350 2e 24 65 3e ec 60 ce 3e 21 10 7b be 74 0c 07 bf
       0.22377083 0.4030832 -0.24517871 -0.52753377
000360 aa 8b 22 3e f4 8a c2 bd 69 4f 04 3e 5c 36 a0 be
       0.1587359 -0.094991595 0.12920918 -0.31291473
000370 da a6 92 3e 2c 08 a5 be a0 4a 8b be db 68 e5 3e
       0.28642923 -0.32232797 -0.27205372 0.4480656
000380 e2 4f d8 3d b7 bb ed 3d 84 21 78 3d 0c f3 dc be
       0.105621114 0.116080694 0.060578838 -0.4315418
000390 59 86 2a 3e fa 3a 02 3f c2 b9 c9 3d cb 4a d1 3e
       0.16652812 0.5087124 0.098498836 0.40877375
0003a0 48 d5 01 3e 94 8e e0 3d 7e 2c f4 be 21 0e 06 3f
       0.12679017 0.109646946 -0.47690195 0.5236531
0003b0 c8 50 2c bf 1b f4 23 be 12 62 4a 3e 25 b8 26 3d
       -0.6731076 -0.16011088 0.19763973 0.040702958
0003c0 88 08 c8 be c6 72 a6 3e a8 cc 18 3f 5a 0b 02 3f
       -0.3906901 0.3250944 0.5968728 0.5079857
0003d0 d9 97 2a bd a5 5d 05 be 38 a2 fb 3c b3 9c 96 3c
       -0.04164872 -0.13024004 0.030717 0.018385267
0003e0 ff ac ef be 1c 6a ff bd ed a2 e0 bc c8 84 b0 bd
       -0.46811673 -0.12471411 -0.027421439 -0.08619076
0003f0 b5 91 13 be 10 53 bf be a1 43 84 be 25 3c 99 3e
       -0.14411052 -0.3736806 -0.25832847 0.299287

network_body._body_endoder.seq_layers.2.bias f4 [256]
000000 4e ff 8b 3b 5f c6 9a 3b 18 d5 1a 3d e0 31 23 bc
       0.004272378 0.0047233547 0.03780088 -0.009960622
000010 b1 44 a3 bc 67 f0 ed bb c0 49 4f bc d4 8f 1e 3b
       -0.019930216 -0.007261324 -0.012651861 0.0024194615
000020 fe c0 9c bb 1d cf cb 3b 99 ec 33 bc 09 8b 89 3d
       -0.0047837486 0.006219758 -0.010981702 0.06715972
000030 c2 ca 6d 3b f0 78 31 3b b8 af a6 b8 b2 c2 4d 3c
       0.0036284183 0.002708014 -7.948227e-05 0.012558626
000040 5d 75 d9 3a 50 6b 67 bb 16 89 23 3d ec ff b8 3c
       0.0016590763 -0.0035311766 0.039925657 0.02258297
000050 ed 18 af 3a 90 ca 84 bb d5 a8 cb 39 d8 dd 0a 3c
       0.0013358869 -0.0040524676 0.00038844967 0.008475743
000060 84 0e c2 3d ce 96 d6 3a f4 08 1f 3c 11 ab 9b bb
       0.09475425 0.0016371848 0.009706724 -0.0047506173
000070 9b 73 18 bd 7a eb d2 bb 4b df 85 bc bf 14 dc 3b
       -0.037219625 -0.0064367624 -0.016341826 0.0067163403
000080 ca 60 59 bc e1 8f 42 bd 4e 25 ea 3c 86 33 0e 3d
       -0.013267705 -0.047500495 0.028582241 0.034717105
000090 cf 24 2d bb b8 38 3c 3d aa 48 91 3d 1b a0 6e 3b
       -0.0026419645 0.04595253 0.07093938 0.0036411348
0000a0 3a 1f ff bb 3e e6 44 3a f2 a6 c8 3c 0f 37 9e 3c
       -0.007785705 0.00075111154 0.024493668 0.019313363
0000b0 38 f2 67 3a de 4c ad 38 b4 5d 1f 3b 2b c8 54 3c
       0.0008848044 8.2636005e-05 0.0024317326 0.012987177
0000c0 90 ed 5e 3b a4 a0 05 bc 64 38 4a bc a0 4f c5 3c
       0.003401611 -0.0081559755 -0.012342546 0.02408582
0000d0 4e e9 be 3b 8f 23 78 3c fd 70 a8 3a e0 0e 08 3c
       0.005826152 0.015145197 0.0012851056 0.008304328
0000e0 fa 8c 42 bc 24 23 84 3b 2e 11 9e ba a4 87 8b 3c
       -0.011874432 0.0040325094 -0.0012059563 0.017032452
0000f0 7b a0 d2 3a 18 08 2d bb 1e 24 84 bb 9a e6 17 3d
       0.0016069555 -0.002640253 -0.004032626 0.037085153
000100 85 8d 25 3d f9 e4 90 bc 1a 93 9b 3a b7 c9 5d 3c
       0.040418167 -0.017687308 0.0011869401 0.013536862
000110 88 ff de 3b 3e 92 90 3c 48 3e 91 3a 37 16 92 bc
       0.006805364 0.017647859 0.0011081183 -0.017832858
000120 b7 4d b6 bb bb 08 c2 bb 58 d9 02 3b 7f d3 99 3a
       -0.0055634636 -0.005921451 0.0019965973 0.0011736004
000130 e6 f9 bc bb aa ba 90 bb 57 d1 ae 3c 63 71 f1 3b
       -0.005767095 -0.0044167833 0.021340055 0.007368253
000140 e8 4c 49 bd cd 1e 3f 3b 7f d0 49 bb 5f fd 1b 3d
       -0.04914561 0.0029162646 -0.003079444 0.03808343
000150 bc 31 2a bc 01 5c aa bb c5 04 ac 3b 94 c7 94 bb
       -0.010387834 -0.005198956 0.005249592 -0.004540393
000160 7d b1 06 3a 60 29 01 3d 99 4c 04 3b 74 5a ca bc
       0.0005138142 0.0315336 0.0020187257 -0.024701335
000170 37 db 45 ba de f8 31 3d ea 97 e1 3c 5d ef 97 3d
       -0.0007547619 0.04345023 0.027538259 0.07418702
000180 6d f5 5a 3b 87 00 91 b9 6a 30 d1 3b 7d 1f 32 bb
       0.0033410445 -0.00027656948 0.0063839452 -0.0027179413
000190 32 f4 92 bb 64 a4 eb b7 1b bf 89 bb cc 08 1e ba
       -0.0044846768 -2.8090733e-05 -0.0042036898 -0.00060285325
0001a0 0a c3 1b 3d 32 ca 19 3b 6e 05 5e bb 6d 78 22 3c
       0.0380278 0.0023466465 -0.0033877748 0.009916407
0001b0 e3 75 e6 ba 36 44 c2 3c f9 e8 9d bc b8 b2 0b bc
       -0.001758274 0.023714166 -0.01927613 -0.008526497
0001c0 89 78 2b bc 1b c6 27 bb 6f 2c 31 3a f2 7f 90 b8
       -0.01046575 -0.0025600258 0.0006758635 -6.890287e-05
0001d0 a5 cd 69 bc 22 fd 4f bb 31 af 8b bb 0d ae 45 bc
       -0.014270221 -0.0031736572 -0.004262828 -0.012065423
0001e0 6d 18 e2 bb 74 91 2d 3c c6 9f 71 3b 67 79 64 bc
       -0.0068998844 0.010593761 0.0036868914 -0.01394496
0001f0 cb 39 d5 3d ef 14 1c 3c 8b f8 bf 3d 8f e3 ee 3b
       0.10411414 0.009526475 0.09373578 0.0072903107
000200 ee a7 ad 3b 9f 2b 59 3b e9 82 39 b9 b0 26 79 3b
       0.00529956 0.0033137572 -0.00017691743 0.0038017444
000210 4a c0 37 3c dd 91 84 3a b0 94 4c 3c 53 c3 c8 bc
       0.011215279 0.0010114271 0.012486622 -0.0245072
000220 c0 cc 92 3d 1e f1 2b 3a e2 15 ae bb cb 1b e4 ba
       0.07167959 0.00065590616 -0.005312667 -0.0017403302
000230 5a db 67 bc e3 1a b3 3c 4e 95 fc bb d8 f6 e7 3a
       -0.014151419 0.021863407 -0.007708228 0.0017697467
000240 1a ae 86 3c 9f e1 0d bc b5 f2 8b bb f4 e7 24 bc
       0.01644044 -0.008659749 -0.0042708763 -0.010065068
000250 04 93 b2 3c 54 46 bc b9 26 a1 ca 3c c6 b2 55 3c
       0.021798618 -0.00035910553 0.024735045 0.013043111
000260 f9 4c 29 3d 3a 73 a3 3b 8a d6 d6 b9 a0 77 4f 3c
       0.041333172 0.0049881013 -0.00040977105 0.012662798
000270 af da 89 3c 73 18 a1 bb 2e ce f5 3b d0 6d 32 3c
       0.01682791 -0.0049162447 0.007501385 0.010890439
000280 bd af 1f 3c cf 84 6f bc 4c 18 5c bb 03 23 fa 3b
       0.009746489 -0.014619066 -0.0033583818 0.0076335683
000290 f7 42 85 3c 73 a2 b5 3d a7 72 6c 3a 50 ee 1c bc
       0.016267283 0.08868875 0.000901977 -0.0095783025
0002a0 f8 ed b6 bb 31 67 83 3b 6a 89 b7 3c b9 bc 1c 3c
       -0.0055825673 0.004010104 0.022404391 0.009566479
0002b0 c1 f0 85 3d 59 5e f4 b7 77 51 dd 3b e6 73 35 3d
       0.06540061 -2.9131e-05 0.006754096 0.044299982
0002c0 17 7d 2c 3b 7f 1e a0 bb 32 f2 f7 ba d3 a7 30 3b
       0.0026319677 -0.004886448 -0.0018916784 0.00269555
0002d0 3a e7 bc 3b 5e bb 7a 3c 07 a5 29 3d fc 02 81 bb
       0.005764869 0.015303461 0.041417148 -0.0039371233
0002e0 f6 ab 94 ba 17 2a b3 3b d6 e1 cb 3c e0 06 96 3c
       -0.0011342752 0.005467664 0.02488796 0.018313825
0002f0 4a 1a 4b 3a 89 b4 5e 38 63 69 87 3a 08 c4 25 3c
       0.0007747753 5.309706e-05 0.001033109 0.010117538
000300 c0 2c ab bb 88 c6 14 3d 32 75 40 3c f8 0d 24 bb
       -0.0052238405 0.036322147 0.011746692 -0.002503274
000310 0f 6b 23 bc 58 cb 8f bc c4 e7 ba ba 87 fd 86 bb
       -0.009974255 -0.017553017 -0.0014259745 -0.0041195783
000320 88 de 03 3c 2e 4b ed 3b 45 cd 3a 3d 3d fe 4a 3c
       0.008048661 0.007241628 0.045605917 0.012389717
000330 76 3d 42 3c 78 f9 f9 3c 7a be 46 3b 94 1c 3a bb
       0.011855474 0.030514464 0.0030325935 -0.0028398382
000340 2f d5 b8 bb d2 6e c4 bc bd 9d 98 3b 6c d3 c8 3c
       -0.005640648 -0.023978624 0.0046574757 0.024514876
000350 98 3c 6e bb 5d ea f5 ba 17 95 93 bc c0 54 02 bc
       -0.0036352035 -0.0018761862 -0.018015428 -0.007954776
000360 33 b3 08 bb f9 22 a1 3b 92 83 30 39 4f 29 22 bb
       -0.0020858764 0.004917499 0.00016833682 -0.002474386
000370 b3 74 1d 3c 08 cd 92 bb f8 12 cd 3c 85 57 c7 3c
       0.009610343 -0.004480008 0.025033459 0.024333725
000380 b0 94 1f 3d 99 4e 0e 3d cd ba af 3d ca 6e 08 bd
       0.03896016 0.034742925 0.08580551 -0.03330878
000390 83 13 d3 39 dc e0 a9 3d 70 5f 6e bc ea 81 76 bc
       0.00040259594 0.08294842 -0.014549121 -0.015045622
0003a0 f3 d6 92 b9 3d cd 22 3c de 97 66 3c cb ae fa 3c
       -0.0002800744 0.009936628 0.014074294 0.030600926
0003b0 5c 1b a4 3a a1 62 48 3c b4 81 64 3c f5 1b e2 3c
       0.0012520361 0.012230546 0.013946939 0.027601222
0003c0 26 fb 53 bb 29 c0 31 3d 0c bf 88 3b ad 6a c3 bb
       -0.003234574 0.04339615 0.004173165 -0.0059636445
0003d0 84 d5 0d 3c 6f f4 42 3a d2 5c cf ba ec e2 a4 3d
       0.008656863 0.0007436936 -0.0015820509 0.080510944
0003e0 8f 1b 02 3a 06 57 3c 3c 19 ff 03 3d f5 f9 d6 3b
       0.0004963213 0.011495357 0.032225702 0.006560559
0003f0 1d 48 b4 3b 46 12 4b 3b 66 59 1a bc 51 a6 0a 3c
       0.0055017606 0.0030986234 -0.009420728 0.0084625045

network_body._body_endoder.seq_layers.2.weight f4 [256, 256]
000000 de 6c da bb 86 4a a2 bc 25 1c 82 bd d0 dc ae 3d
       -0.00666581 -0.019810926 -0.063530244 0.085382104
000010 9c c0 71 bb 1f e3 2f 3c 71 68 ad bd 07 dc 8f bd
       -0.0036888486 0.010735302 -0.08467186 -0.07024389
000020 08 98 a2 3d 8a 6b e9 bc 15 f3 0e be 28 32 7e bd
       0.07939154 -0.028493661 -0.13959916 -0.06205955
000030 c9 0f 9f 3d a9 18 8b 3c 59 0b a1 bc 3a a6 b2 bc
       0.07766683 0.016979532 -0.019658731 -0.021807779
000040 fa c1 2a ba 64 fb 25 bd 10 49 11 3e de 57 eb 3d
       -0.000651389 -0.040522948 0.14188027 0.11491369
000050 21 4b 9d bd 53 89 17 bb 34 b1 c5 bd 14 9b 87 bd
       -0.07680345 -0.0023122623 -0.096529394 -0.06621376
000060 0a fc 87 bd 4f 7d ec 3d 26 7f be 3c 54 4a 78 3d
       -0.066398695 0.11547338 0.023253988 0.06061776
000070 df ac 7f bd 37 10 75 bd 01 bb f5 3c 31 33 28 3d
       -0.062420722 -0.059829917 0.029996397 0.041064445
000080 2e 0e 9f bd 49 08 a4 3d 54 bb c5 bc 06 8f 03 bc
       -0.077663764 0.08009393 -0.024137177 -0.008029705
000090 70 21 ab 3c 97 9f f8 bd a0 d8 0e 3e 6c e0 33 3d
       0.020889968 -0.12139814 0.13949823 0.043915197
0000a0 12 a0 45 3d 5b ab fc bc f4 28 b0 bc 24 c7 80 bd
       0.048248358 -0.030843427 -0.021503903 -0.06287983
0000b0 f6 64 49 3b 58 d0 fb 3a 3f d5 c3 bb 15 7b fa 3c
       0.0030730343 0.0019211872 -0.0059763486 0.030576268
0000c0 25 bc 38 bd 05 fe f8 bd 76 49 86 bd 74 a7 ee 3b
       -0.045101304 -0.121578254 -0.0655698 0.0072831456
0000d0 bf 0c e6 3d b9 bb 4f bd 1d 15 b6 bc 0f 0b 33 bd
       0.112329 -0.050716136 -0.022226864 -0.04371172
0000e0 db ff 31 3d bc 1e 8d 3d a6 02 b5 bd 9a d5 31 3d
       0.043456893 0.06890628 -0.08838396 0.043416597
0000f0 be 7f 6d bc 32 24 8c bd 31 3d 6e 3d 5a de 55 bd
       -0.014495788 -0.06842841 0.058163825 -0.052214004
000100 bb 9a 6b 3d 02 7e 6e 3d 24 19 22 bd a8 01 ae 3d
       0.05752061 0.05822564 -0.039574757 0.0849641
000110 90 52 ce bc e8 e1 a4 bd 6f fb a0 3d 47 f6 ea bb
       -0.025185853 -0.08050901 0.07860457 -0.007170472
000120 67 eb c4 bc 15 fd ab bd 04 30 43 bd c0 47 96 3d
       -0.02403803 -0.08397881 -0.047653213 0.07337904
000130 32 93 b2 3d cc 88 da bc e2 56 23 bc a5 54 37 bd
       0.087194815 -0.026676558 -0.009969445 -0.044758458
000140 fa bd 62 bc e3 b0 b8 bc 4c 1a a5 bd 03 07 48 bd
       -0.013839239 -0.022545284 -0.08061656 -0.048834812
000150 8e f3 31 3d 16 40 e4 3c 96 b9 bb 3c 15 68 71 3d
       0.043445162 0.02786259 0.022915643 0.05893715
000160 52 37 98 3c f3 fd a6 bd 0a a8 24 bc b8 a7 c7 3d
       0.018581066 -0.08153906 -0.010049829 0.09748787
000170 c1 24 0b 3c 27 48 cc bc d1 a2 d2 bd 4f 84 bf bb
       0.0084926495 -0.024936749 -0.10284961 -0.00584463
000180 34 6d 76 bc 9f 4b be bd 32 4d 9a 3d 31 50 be 3c
       -0.0150406845 -0.09291767 0.07534255 0.023231598
000190 82 a1 02 3d 71 fc af 3c ca 91 17 3d 06 03 00 bd
       0.031892307 0.021482678 0.03700427 -0.031252883
0001a0 83 07 36 3d 99 69 5f 3d 25 3b d4 3c a5 12 d8 bc
       0.044440757 0.054544065 0.025907109 -0.026376078
0001b0 b7 b9 f2 bc 31 83 b4 bd f9 1a 98 bd 07 17 a0 bb
       -0.029629571 -0.08814085 -0.074270196 -0.0048855576
0001c0 f1 fc 6c 3c 10 97 5b 3c 5b 7b d0 bc 28 b0 0f 3d
       0.014464603 0.013402715 -0.025449445 0.035080105
0001d0 98 2e c3 3d 3b ab 77 3d f1 81 0c bd 5b 28 08 ba
       0.095303714 0.060466032 -0.03430361 -0.0005194002
0001e0 b6 86 0e bc 83 44 d1 bc d2 5c 55 3d e8 02 c1 bd
       -0.00869911 -0.025545364 0.052090473 -0.094243824
0001f0 d7 00 bf bd 8c 4d 40 bd 76 7f cb 3c 70 ee 37 bd
       -0.09326332 -0.046948954 0.024841052 -0.044905126
000200 cd 86 82 bd 7f 6e ad bd 23 a7 8b 3d 78 5c 82 bc
       -0.063733675 -0.08468341 0.06818988 -0.015913233
000210 dd ca 80 bd c3 6e c1 bb 7d c8 2c bc 7a 9e 0b bd
       -0.06288693 -0.0059030964 -0.010545847 -0.034086682
000220 75 3e 59 bc af 3a 1e bc e0 11 07 3d 82 b6 10 3d
       -0.01325952 -0.009657546 0.03297603 0.035330303
000230 6a 76 4c 3d 2f b9 95 bb 64 9f 06 bd 52 34 0d 3d
       0.049917616 -0.0045691947 -0.03286685 0.034473725
000240 1d 3a e5 bc 72 ac ea 3c 59 d5 e7 bd c6 c0 20 3d
       -0.027981812 0.028646681 -0.1131999 0.039246343
000250 10 97 8e 3c 41 a7 d7 3d b2 ac 96 3b a9 10 86 3d
       0.017406017 0.10529948 0.0045982236 0.065461464
000260 21 86 be bc e4 9e 50 3d 28 05 c5 bb 6b 25 82 bd
       -0.023257317 0.05093278 -0.0060125776 -0.06354793
000270 ac ba c7 3d c3 e0 c4 3d 72 ed c3 bc f7 00 5a 3d
       0.09752402 0.096131824 -0.023916934 0.053223576
000280 dc 50 e2 3c 8b af b2 3c b5 85 37 bc b2 44 84 3c
       0.027626447 0.021812221 -0.011201312 0.016146038
000290 ec 2c 38 bd 60 ef e6 bc a9 e0 1a 3c 97 d7 37 3d
       -0.044964716 -0.028190315 0.009452977 0.044883337
0002a0 ff 5f 68 bd 5c 3c bf bd d7 17 4c 3e 81 f9 2e bd
       -0.056732174 -0.093376845 0.19930969 -0.042718414
0002b0 b6 47 43 3d a5 a8 df 3d 1d fd 20 3d c1 4e 09 bb
       0.04767581 0.10920838 0.039303888 -0.0020951482
0002c0 56 0d 84 bd 64 38 8c 3d aa 72 94 3c bf a7 a8 3c
       -0.06447856 0.06846693 0.018121082 0.0205878
0002d0 df 55 9b 3c 32 f5 31 bd a6 e9 be bd f6 85 25 bd
       0.018961845 -0.043446727 -0.09321909 -0.04041096
0002e0 2d 03 81 3d 76 31 96 3d 22 9b 4a bd b0 2d 6c bd
       0.06299434 0.07333653 -0.049464352 -0.05766076
0002f0 c7 f0 db 3c ec 51 87 bc f3 35 af 3d 93 a1 8d 3d
       0.02684821 -0.016518556 0.08555212 0.069155835
000300 0b ab 47 bc 9a ae d9 bc 76 8e cd 3c 3b 13 a7 bc
       -0.012186776 -0.026572514 0.025092345 -0.020394912
000310 34 5e 94 bd b7 58 b5 bd 1d aa 2f 3d a7 2b 59 bd
       -0.0724453 -0.08854812 0.042886842 -0.053020146
000320 85 a8 de bb fd ad d0 3d 01 27 15 bd 59 0e a8 3d
       -0.0067949914 0.10189436 -0.03641415 0.082058616
000330 91 ca ba 3d 25 f0 9f bd 2a 98 45 bd 5e dc 22 3d
       0.09120668 -0.07809476 -0.048240818 0.03976094
000340 71 ef fb ba 5c e4 95 3d d3 34 8e 3d 95 70 83 bc
       -0.0019221139 0.07318947 0.06943669 -0.016044894
000350 b4 77 b1 bd 0e 35 54 bc a3 15 18 bd 3c 54 23 3d
       -0.0866541 -0.012952102 -0.03713001 0.039875254
000360 79 84 a4 3c fa f0 05 3d 61 22 8e 3d 68 89 aa 3c
       0.0200827 0.032700516 0.06940151 0.020817474
000370 b6 94 9f bd bd 21 0e 3d 8f 58 89 bd 69 73 30 3d
       -0.07792036 0.034700144 -0.06706344 0.043078814
000380 cd 85 29 bd 7f 00 1d bb 84 86 a4 3c 06 b2 74 bd
       -0.041387368 -0.0023956595 0.020083673 -0.05974009
000390 07 bc bf bd 86 35 95 3d 88 a9 83 3c aa 6a 76 bc
       -0.09362035 0.072855994 0.01607205 -0.015040079
0003a0 0f 9d 80 bd 0b 79 02 3d e2 08 87 3d 2c f4 af 3d
       -0.062799565 0.031853717 0.06593491 0.08591494
0003b0 a7 8f 9c 3c 2e d3 2a 3d 2f c3 ab 3d d0 2b 5d bc
       0.019111468 0.041705303 0.08386838 -0.013499215
0003c0 2a 41 9e 3d 38 c3 e3 bc cb 0f 1d bd 21 66 e3 3d
       0.07727273 -0.027803048 -0.03834514 0.11103464
0003d0 57 e0 bb 3d 37 33 27 bd 6c 8f c3 bd 84 92 34 3c
       0.09173649 -0.040820327 -0.0954884 0.01102126
0003e0 2a cc 02 be 1f e6 cc bd 82 59 59 3d 19 23 e2 bd
       -0.12773195 -0.100048296 0.053063877 -0.110418506
0003f0 f2 1b 35 bc b0 d6 c0 bd 33 0e b0 3c ad bc a6 3d
       -0.011054026 -0.094159484 0.021491146 0.08141456
