results/Drone1/Drone/Drone-10499904.onnx (onnx, 280527 bytes, 7 tensors)

action_model._continuous_distribution.log_sigma f4 [1, 4]
-0.4067091 -0.42811033 -0.40486577 -0.43244419
00000000: 2d3c d0be 4731 dbbe 914a cfbe 5369 ddbe

action_model._continuous_distribution.mu.bias f4 [4]
-0.056229066 -0.02169588 -0.011949368 -0.04247618
00000000: 7350 66bd 8fbb b1bc 48c7 43bc 81fb 2dbd

action_model._continuous_distribution.mu.weight f4 [4, 256]
0.007666651 -0.0028420861 -0.04399632 -0.0054693967 0.0076183234 0.00029683884 0.0060241614 0.0052985707
-0.0031063922 0.0011282703 0.010612348 -0.060811613 0.01770676 -0.02219847 -0.0029661183 -0.0032887482
-0.011588437 -0.005970187 -0.021986766 -0.025353901 0.0015489147 -0.0074461335 0.0079038385 -0.014472879
0.022922058 -0.017136231 -0.019513918 0.015478229 0.010897987 0.004685339 0.00782233 0.005383033
0.007972696 0.014324181 -0.013911877 -0.012861909 -0.010459643 -0.018504199 0.021284524 0.0005148247
0.018832691 -0.011273713 -0.008649361 -0.016416425 -0.022171786 -0.027596485 -0.010844699 0.0060424376
-0.026055526 0.023527598 0.011415862 -0.032637373 0.01695199 0.013098335 -0.012537064 0.02652145
0.009565447 -0.01016513 0.008216538 0.01375584 -0.013710195 0.009943871 -0.024838092 -0.0323107
-0.014406777 -0.023590831 -0.02630958 -0.016988724 -0.0067911935 -0.008889412 0.0030884722 0.011969762
-0.020096965 -0.0016740542 -0.0022791382 -0.008366301 0.028444115 0.0010318843 -0.021398414 -0.012199254
0.0046108314 0.0073151565 -0.021671569 0.008340629 0.009199318 0.024912681 0.0030846929 0.01773795
0.009813298 0.016627947 0.0074391444 -0.0014321073 -0.0043309275 -0.016191278 -0.014578291 -0.034356438
0.01565638 0.0007410472 0.008656226 -0.0009824986 0.004918474 0.016437996 0.026586669 0.0033761386
-0.042352527 0.0070280517 -0.01791497 0.014986111 -0.019441077 0.011337609 -0.0020168987 0.0075941845
-0.007909039 0.015150571 -0.0103506185 -0.014330907 -0.0013251527 0.0056281798 0.022484899 -0.013499489
0.010869966 -0.019064233 -0.00038225303 -0.0012926562 -0.006541729 -0.0035833116 -0.027718972 -0.0140598975
-0.0044751843 -0.012983022 -0.010287686 -0.010098739 -0.007971974 -0.016851379 -0.021534441 0.012088844
0.0048711943 0.013887484 0.031091921 -0.006601246 0.008937702 -0.024007583 0.02366074 -0.009792496
-0.012971601 0.024481427 0.012308628 -0.009014796 -0.019079767 0.006333591 0.010549023 -0.027152218
-0.0036256204 0.014366472 -0.0019407019 -0.0029265569 -0.003235368 0.003835049 -0.0049464745 0.0068687
-0.0023649498 -0.0066781673 0.005371179 -0.01953241 -0.0057401774 -0.019069817 -0.015728414 0.008723066
0.008808384 0.006285802 -0.011770486 -0.0029875569 -0.0076797595 -0.02903141 0.0044558365 -0.012394914
-0.017069092 -0.012774551 0.0012667482 -0.03375572 -0.016207254 -0.01553823 -0.028451996 -0.010239076
-0.00365607 0.005390601 -0.0054557766 -0.03337699 0.004109869 0.003853488 -0.007383526 -0.0032810175
0.025059784 -0.0097150225 -0.024040263 0.014227517 0.016398052 -0.004717451 -0.014392979 0.018411426
-0.017028572 0.009243782 0.012848163 0.0025743556 -0.011925105 -0.010747589 0.008509374 -0.0068689
0.025430942 0.0007989191 -0.005225105 -0.065794036 0.022349091 0.0056051295 0.018121356 -0.027558707
-0.013141477 -0.02777109 0.011957797 0.010025783 -0.03208584 0.01898165 -0.009105923 -0.03656111
-0.00842078 -0.013753292 -0.08583055 -0.0013242603 0.0072843926 -0.0039189253 0.015043029 0.011805697
-0.007970527 0.006759278 0.0012935075 -0.047302853 0.028160485 -0.0046387804 0.006333358 -0.00017599038
-0.014394349 -0.0043724594 -0.0030973798 0.016435541 -0.0008848188 0.004484313 -0.009617282 -0.023748603
-0.025275152 -0.0072530843 0.0030013372 -0.027024394 -0.010870051 -0.015364733 0.00021785703 0.0012288328
00000000: 8838 fb3b 4b42 3abb 7c35 34bd a038 b3bb
00000010: 21a3 f93b 09a1 9b39 5466 c53b a29f ad3b
00000020: 9d94 4bbb 78e2 933a 6adf 2d3c 9915 79bd
00000030: c40d 913c 91d9 b5bc 3563 42bb 0a88 57bb
00000040: 6ddd 3dbc 8fa1 c3bb 971d b4bc fcb2 cfbc
00000050: f404 cb3a b2fe f3bb 1a7f 013c a71f 6dbc
00000060: 0ac7 bb3c 4861 8cbc a7db 9fbc 6698 7d3c
00000070: 788d 323c 7987 993b 3b29 003c 2764 b03b
00000080: e99f 023c f8af 6a3c a4ee 63bc c2ba 52bc
00000090: ec5e 2bbc 1e96 97bc e25c ae3c 4df5 063a
000000a0: 0447 9a3c 61b5 38bc 0db6 0dbc bd7b 86bc
000000b0: 9ba1 b5bc 0612 e2bc f7ad 31bc a4ff c53b
000000c0: 6672 d5bc f3bc c03c 9809 3b3c c4ae 05bd
000000d0: e6de 8a3c 669a 563c 4268 4dbc 8343 d93c
000000e0: 65b8 1c3c a58b 26bc a89e 063c 2d60 613c
000000f0: baa0 60bc 9eeb 223c 4179 cbbc 3958 04bd
00000100: 670a 6cbc 8f41 c1bc 3087 d7bc f02b 8bbc
00000110: a988 debb e5a4 11bc f767 4a3b d21c 443c
00000120: 64a2 a4bc f06b dbba 985d 15bb cf12 09bc
00000130: a203 e93c 4b40 873a ba4b afbc 61df 47bc
00000140: 7516 973b fbb3 ef3b 9388 b1bc 22a7 083c
00000150: bcb8 163c ae15 cc3c 8f28 4a3b 2d4f 913c
00000160: f4c7 203c 5537 883c 11c4 f33b 8cb5 bbba
00000170: 74ea 8dbb 92a3 84bc c9d9 6ebc 56b9 0cbd
00000180: cf41 803c d642 423a d8d2 0d3c 2fc7 80ba
00000190: 262b a13b faa8 863c 49cc d93c 3542 5d3b
000001a0: d879 2dbd 924b e63b 6ac2 92bc 4e88 753c
000001b0: e542 9fbc 61c1 393c f22d 04bb a3d8 f83b
000001c0: ea94 01bc 1a3a 783c a495 29bc 2ecc 6abc
000001d0: bfb0 adba 986c b83b 4032 b83c f62c 5dbc
000001e0: f117 323c 982c 9cbc 2269 c8b9 586e a9ba
000001f0: 005c d6bb fed5 6abb e612 e3bc 7c5b 66bc
00000200: 91a4 92bb beb6 54bc af8d 28bc 2e75 25bc
00000210: e29c 02bc e70b 8abc ff68 b0bc 4910 463c
00000220: 8a9e 9f3b 5488 633c 7cb4 fe3c 444f d8bb
00000230: 706f 123c 8dab c4bc 2bd4 c13c b570 20bc
00000240: d786 54bc 468d c83c 21aa 493c ccb2 13bc
00000250: 2c4d 9cbc 038a cf3b cfd5 2c3c 546e debc
00000260: d19b 6dbb 5a61 6b3c 265f feba 7acb 3fbb
00000270: 7808 54bb 7255 7b3b 0916 a2bb d512 e13b
00000280: 46fd 1abb 87d4 dabb b700 b03b 6f02 a0bc
00000290: 1918 bcbb 4e38 9cbc e0d8 80bc 31eb 0e3c
000002a0: 0a51 103c 21f9 cd3b ffd8 40bc e3ca 43bb
000002b0: 7ea6 fbbb 48d3 edbc 4402 923b 0a14 4bbc
000002c0: 7bd4 8bbc 5a4c 51bc 0409 a63a 7043 0abd
000002d0: 13c5 84bc 0f94 7ebc 2914 e9bc ccc1 27bc
000002e0: ad9a 6fbb a4a3 b03b 5fc6 b2bb 50b6 08bd
000002f0: 14ac 863b cd8a 7c3b 81f1 f1bb 5706 57bb
00000300: 2d4a cd3c c22b 1fbc 16f0 c4bc 881a 693c
00000310: 3555 863c d994 9abb 88d0 6bbc 8fd3 963c
00000320: 817f 8bbc 3b73 173c 1a81 523c 85b6 283b
00000330: 8461 43bc a816 30bc e76a 0b3c 8214 e1bb
00000340: 8d54 d03c 8e6e 513a 5c37 abbb 06bf 86bd
00000350: 7115 b73c 3cab b73b 3d73 943c ccc2 e1bc
00000360: 594f 57bc 3280 e3bc a3ea 433c 2f43 243c
00000370: 716c 03bd 687f 9b3c 0231 15bc 1ac1 15bd
00000380: 50f7 09bc 7d55 61bc edc7 afbd cd92 adba
00000390: eab1 ee3b 546a 80bb 0977 763c af6c 413c
000003a0: d096 02bc ef7c dd3b e98a a93a a3c0 41bd
000003b0: d1b0 e63c e900 98bb 0f88 cf3b 0f8a 38b9
000003c0: 47d6 6bbc d946 8fbb 69fd 4abb d4a3 863c
000003d0: 2ff3 67ba 25f1 923b ce91 1dbc 6e8c c2bc
000003e0: d60d cfbc 48ab edbb 15b2 443b 4362 ddbc
000003f0: 4c18 32bc 5cbc 7bbc 8d70 6439 c910 a13a

network_body._body_endoder.seq_layers.0.bias f4 [256]
0.00014141883 -0.0010115805 0.0063727465 -0.0014329245 0.003532868 0.005707256 -7.913036e-05 -0.0005245387
0.00046911332 -0.0014419432 0.00036306036 -0.005691473 -0.0014943385 0.0016907151 -0.0062896167 -0.0024486922
-0.0012149626 -0.0021621226 0.00039322002 -0.0077820034 -0.0039387573 -0.00025963233 0.0008100343 0.0027673172
-0.00011305287 -0.0003651528 -0.0010875914 0.0018771817 -0.00068674894 0.0010382088 -0.0007552974 -0.010306041
0.00322081 0.00010824249 -7.693311e-05 0.00035309631 -0.0015939613 -0.0019013 -0.0012648731 0.013087668
-0.00089440163 -0.00067275687 -0.00049034564 0.012550003 -4.064561e-05 -0.0033937148 0.0015034467 0.011687506
0.0031446947 0.00020130943 0.0065191356 0.0037054485 -6.0881717e-05 -0.0017839236 -0.0017444304 0.0005338896
-0.00022754919 0.014385076 0.0032683213 -0.0008907021 -0.0008198986 -0.00090119854 -0.0012014409 -0.001144224
-0.00043599095 0.0031761352 -0.00026872754 0.006235121 -1.45060085e-05 -0.0011725161 0.0054077664 -0.00093781407
-0.0010599861 0.00010781069 -0.00047769718 -0.0013438064 0.0010682485 0.0067824777 -0.0010582611 -0.0017517037
-0.0024990723 -0.0013162715 0.0005976887 -0.0001631403 -0.0005492686 -0.00030599523 -0.0001734147 -8.584002e-05
0.0016697552 -0.00033401162 0.00033952037 0.0026637258 -0.003607691 -0.0017516218 0.00096100155 0.00034455213
0.0012310972 -0.0005381668 0.004022778 0.0007877421 -0.0010844785 -0.004974089 0.014071951 -0.00479374
0.0017048154 0.0009867625 -0.00030218277 -0.0016760858 -0.00029938895 -0.0007031442 -0.0004024246 -0.00070105464
-0.010343915 0.0035638239 0.0042403587 0.0030745647 -0.0010919754 0.00036733528 -0.007144551 -0.00055490434
0.0009177306 -0.0005386144 0.0005116001 0.0012448824 -0.009061779 0.0025984915 -0.0005398367 0.00037098347
-0.0010455699 -0.0005549254 -0.0006366336 -0.0014185287 -0.0026003157 -0.00039209367 -0.0010990895 -0.0031864836
0.0005432324 0.0021499004 -0.0031216356 0.0009902938 7.626859e-05 -0.0010951022 5.1881983e-05 0.0019865748
-0.002066217 0.0034372155 -6.868983e-05 0.015756538 -0.0010349225 -0.0008732036 0.00073894917 -0.0020111208
0.0012895855 0.0034776821 0.00010258377 -0.00061388366 0.0012108331 0.0018848815 -0.0027234384 0.0024207279
-0.0019270908 0.00044583293 -0.00043454656 -0.005304315 -0.0012563048 -0.00032011728 0.01485001 0.0010712782
0.0004931826 -0.0009381821 0.000741011 0.0032683671 0.013112103 -0.0026975237 -0.0018165319 -0.0010361009
-0.0016451267 -0.00012791461 0.014735413 -0.00073378783 -0.0004090015 0.0007526156 -0.0030305192 0.0023776656
0.000654756 -0.0015470217 0.00029512245 -9.025855e-05 0.00042598252 -0.0011727406 -0.0006832156 -0.00059328205
0.0012812413 -0.0021734796 0.0001235861 4.614279e-05 0.0005944084 0.0023010203 0.011634912 0.00090270705
0.0021078365 -0.004869501 -0.00026732916 -0.0007187931 0.0063008345 -0.00047798548 -0.00015952281 0.00085097237
-0.0004882934 0.0016923221 0.00034894684 -0.0008141746 0.0011048588 0.0025603087 0.021385703 0.001884474
-0.0019580422 0.0010820496 -0.00014356615 -0.00060274894 -0.0009507189 0.0065329843 -0.0014198615 0.0015383818
-0.0049760668 -0.0010663489 -0.0008194496 0.006698066 9.961436e-05 0.00557838 -0.0007540268 0.0013676716
0.0011040955 0.0015306346 -0.0007765918 0.00074284483 0.0006996432 -0.0014123498 0.0005633888 0.0010661467
-0.00051093055 -0.00016839917 -0.0017780045 0.0031355696 0.0067343432 0.00025489397 0.0018907854 -0.0066884635
0.0054796636 -0.00087402365 0.00083931553 -0.0005715845 0.0026527725 -0.001436569 0.0008733437 -0.0024392107
00000000: d449 1439 0297 84ba 79d2 d03b f8d0 bbba
00000010: b187 673b ef03 bb3b caf2 a5b8 3281 09ba
00000020: 53f3 f539 96ff bcba 2359 be39 897f babb
00000030: aedd c3ba fc9a dd3a 2119 cebb 3d7a 20bb
00000040: 613f 9fba 66b2 0dbb 1929 ce39 2d00 ffbb
00000050: b110 81bb 431f 88b9 7b58 543a e15b 353b
00000060: cc16 edb8 fb71 bfb9 838d 8eba c40b f63a
00000070: f106 34ba 8214 883a 27ff 45ba abda 28bc
00000080: 3a14 533b 3f00 e338 2657 a1b8 c91f b939
00000090: 77ec d0ba 0b35 f9ba 19ca a5ba a96d 563c
000000a0: 4776 6aba f35b 30ba 8a8a 00ba 879e 4d3c
000000b0: e47a 2ab8 1669 5ebb 4d0f c53a f47c 3f3c
000000c0: 3917 4e3b 9716 5339 799e d53b 1cd7 723b
000000d0: 3f5b 7fb8 8bd2 e9ba 5fa5 e4ba b9f4 0b3a
000000e0: 459a 6eb9 62af 6b3c 5531 563b 027e 69ba
000000f0: 77ee 56ba 693e 6cba ab79 9dba c9f9 95ba
00000100: b795 e4b9 b526 503b 00e4 8cb9 fc4f cc3b
00000110: d55e 73b7 1daf 99ba a233 b13b a3d7 75ba
00000120: 3bef 8aba 6c18 e238 6e73 fab9 a922 b0ba
00000130: 7904 8c3a 8c3f de3b 5ab5 8aba 6c99 e5ba
00000140: 7ac7 23bb be86 acba 36ae 1c3a a410 2bb9
00000150: cbfc 0fba fc6d a0b9 a7d6 35b9 0305 b4b8
00000160: b0db da3a 481e afb9 a701 b239 e791 2e3b
00000170: 036f 6cbb ad96 e5ba b9eb 7b3a 01a5 b439
00000180: c45c a13a c313 0dba 82d1 833b 7a80 4e3a
00000190: 0f25 8eba affd a2bb 0a8e 663c ce14 9dbb
000001a0: 1d74 df3a 4156 813a 496e 9eb9 1bb0 dbba
000001b0: 4ef7 9cb9 3553 38ba 84fc d2b9 fbc6 37ba
000001c0: 8679 29bc 0b8f 693b b5f2 8a3b a37e 493b
000001d0: 9d20 8fba e896 c039 d61c eabb 0077 11ba
000001e0: dc93 703a cd31 0dba e71c 063a 522b a33a
000001f0: db77 14bc 744b 2a3b d483 0dba 8f80 c239
00000200: 810b 89ba 6a78 11ba c2e3 26ba eded b9ba
00000210: 0f6a 2abb ec91 cdb9 530f 90ba 53d4 50bb
00000220: b667 0e3a 58e5 0c3b 5b94 4cbb bfcc 813a
00000230: 63f2 9f38 8889 8fba db9b 5938 3231 023b
00000240: 5e69 07bb e842 613b 920d 90b8 db13 813c
00000250: 3da6 87ba b4e7 64ba 0ab6 413a 02cd 03bb
00000260: 4f07 a93a d3e9 633b 3e22 d738 09ed 20ba
00000270: d1b4 9e3a 210e f73a b77b 32bb 13a5 1e3b
00000280: 7096 fcba afbe e939 dad3 e3b9 d2cf adbb
00000290: 98aa a4ba 6ad5 a7b9 754d 733c 226a 8c3a
000002a0: ed48 013a 56f0 75ba 6840 423a 1a32 563b
000002b0: 25d4 563c f0c8 30bb b218 eeba c7cd 87ba
000002c0: 4ba1 d7ba d120 06b9 cd6c 713c ab5b 40ba
000002d0: 416f d6b9 2e4b 453a ad9b 46bb 9cd2 1b3b
000002e0: eea3 2b3a 6fc5 caba aaba 9a39 3149 bdb8
000002f0: 6856 df39 a5b6 99ba d319 33ba 7c86 1bba
00000300: 53ef a73a f070 0ebb e496 0139 7289 4138
00000310: 13d2 1b3a b7cc 163b 5ca0 3e3c a5a3 6c3a
00000320: a123 0a3b 5690 9fbb 5028 8cb9 636d 3cba
00000330: 3b77 ce3b 209a fab9 9445 27b9 ca13 5f3a
00000340: d100 00ba e8d0 dd3a daf2 b639 556e 55ba
00000350: e9d0 903a daca 273b 1231 af3c 7400 f73a
00000360: 7f52 00bb 8fd3 8d3a 3f8a 16b9 cc01 1eba
00000370: aa39 79ba a512 d63b a51a baba 87a3 c93a
00000380: 460e a3bb bbc4 8bba 55d0 56ba 737b db3b
00000390: 0de8 d038 d8ca b63b e2a9 45ba 7243 b33a
000003a0: 4cb7 903a 939f c83a 3294 4bba 79bb 423a
000003b0: 4368 373a 981e b9ba 62b0 133a f2bd 8b3a
000003c0: f8ef 05ba 4f94 30b9 ee0b e9ba 217e 4d3b
000003d0: c4ab dc3b 4aa3 8539 3bd4 f73a e62a dbbb
000003e0: c08e b33b bc1e 65ba 8305 5c3a 63d6 15ba
000003f0: 23da 2d3b 424b bcba 1bf1 643a 2adb 1fbb

network_body._body_endoder.seq_layers.0.weight f4 [256, 10]
-0.38267395 0.46731606 0.34646317 0.36277676 -0.10008948 -0.5654711 0.2570997 -0.13885814
-0.3342995 -0.0072806175 0.026144825 -0.2816554 0.28163907 -0.031135311 -0.34135652 -0.16945086
0.349174 -0.052405123 -0.6253808 0.03545049 -0.20009448 0.2526925 -0.15002303 -0.17376606
0.40965715 0.0022584058 0.038695548 0.28115615 0.24218318 0.15710673 -0.13947824 -0.54491234
-0.062035196 0.4186023 -0.5010013 0.43852794 0.074413955 -0.08261355 -0.5741456 0.3483362
-0.013402665 -0.16270581 0.58581847 -0.042544745 0.5698528 -0.53682345 -0.20520431 0.045716405
-0.022771936 -0.010259006 0.3152148 0.34354377 -0.75669 0.20024426 -0.27210706 0.21753548
0.08570186 -0.015414183 -0.10822923 -0.06676387 -0.36212716 0.39200923 -0.124038205 0.278886
0.15560763 0.20900725 -0.5063657 0.13482216 0.00066439435 0.47199792 -0.10568866 0.37459788
0.010407181 0.23174362 0.28147018 -0.1124084 0.5210217 -0.40873778 -0.47561383 0.3161979
0.1534279 0.117806114 0.14314884 -0.17390613 0.0014785543 0.48397297 -0.39770895 0.025175782
0.22111446 -0.17777231 0.071251675 -0.05568317 -0.26302698 0.32518917 -0.1346248 0.3219677
0.04702253 -0.12847003 -0.35780963 0.38672397 -0.0017462424 -0.18699698 0.42350072 0.31960854
-0.49944285 -0.09387356 0.7053208 -0.24222562 -0.09954623 -0.105302185 0.4108616 0.4204149
-0.0851204 0.16411947 -0.14028989 0.008172138 0.028647786 -0.35640875 0.26620626 -0.51360404
0.04862148 -0.43706104 0.07438817 0.34761006 0.022451546 -0.5242857 -0.5190447 0.098223135
0.094886884 -0.29717883 -0.45617217 -0.067344375 -0.30976653 -0.026770173 -0.019089522 -0.08002349
-0.004733277 0.40553755 0.14005873 0.38912445 0.27267852 -0.036874544 0.15279421 0.3761807
0.027554046 -0.16247597 -0.13995987 -0.53824425 -0.24108018 -0.06763383 0.53804344 0.13955525
-0.025932644 -0.21596122 -0.44982713 -0.4883524 -0.20760202 0.4729412 -0.34825632 -0.09156017
0.15540767 0.15145206 0.0151927695 0.39632654 -0.095639646 -0.0860286 0.3518721 0.29017642
0.05793298 -0.44978788 0.101948835 0.06924247 0.07061681 0.10224842 -0.25564682 -0.5589289
-0.27974057 -0.37354726 0.3642527 -0.29241195 -0.9745694 0.41405532 0.19268414 0.275706
0.30972764 0.38097176 0.047454525 0.046967786 -0.08899632 0.15897043 -0.5880489 0.43424717
-0.2614838 0.31311724 -0.05270341 0.2593667 -0.08102428 0.23740652 -0.018181393 -0.20488288
-0.23422047 -0.2763472 -0.31126016 -0.5144368 0.11742523 -0.3228217 0.0011165496 0.4623165
-0.2100911 0.2137137 -0.4070656 -0.047964863 0.22689566 0.4019143 -0.25003836 -0.42960528
0.15693104 -0.087743804 0.13475628 -0.30884212 0.28892308 -0.3220074 -0.27432683 0.39591622
0.10444686 0.10200013 0.06222077 -0.42555937 0.17574202 0.51715136 0.11666754 0.40612867
0.12509531 0.062113833 -0.4692177 0.40722445 -0.67020684 -0.16642885 0.19153 0.049831416
-0.39138037 0.32287994 0.5984591 0.4905543 -0.049142703 -0.12166641 0.03024118 0.023191953
-0.46777585 -0.1261009 -0.02816064 -0.06437559 -0.14868242 -0.37308112 -0.2583842 0.33458123
00000000: d7ed c3be 0d44 ef3e 9f63 b13e e0bd b93e
00000010: b7fb ccbd b7c2 10bf 92a2 833e d430 0ebe
00000020: 4e29 abbe 3f92 eebb ac2d d63c 2335 90be
00000030: ff32 903e 7b0f ffbc 48c6 aebe 8784 2dbe
00000040: efc6 b23e c1a6 56bd f518 20bf 8834 113d
00000050: 91e5 4cbe e960 813e a39f 19be bbef 31be
00000060: 95be d13e c301 143b 397f 1e3d b3f3 8f3e
00000070: defe 773e 96e0 203e 62d3 0ebe 607f 0bbf
00000080: 9e18 7ebd 0a53 d63e 9f41 00bf bc86 e03e
00000090: 5866 983d 4b31 a9bd 35fb 12bf 1f59 b23e
000000a0: da96 5bbc 5a9c 26be 33f8 153f 6643 2ebd
000000b0: e0e1 113f 436d 09bf 1421 52be 2041 3b3d
000000c0: 368c babc 6415 28bc d663 a13e f8e4 af3e
000000d0: 70b6 41bf d50c 4d3e 9e51 8bbe 9fc1 5e3e
000000e0: 7584 af3d c58b 7cbc 49a7 ddbd 7fbb 88bd
000000f0: bb68 b9be 6fb5 c83e be07 febd 25ca 8e3e
00000100: 9b57 1f3e ff05 563e 2fa1 01bf d20e 0a3e
00000110: c02a 2e3a b6a9 f13e 4c73 d8bd 4bcb bf3e
00000120: e282 2a3c 334e 6d3e dc1c 903e 6036 e6bd
00000130: ae61 053f 1446 d1be a883 f3be b1e4 a13e
00000140: 341c 1d3e 5544 f13d 9c95 123e 7314 32be
00000150: 0dcc c13a 4ecb f73e 82a0 cbbe 713d ce3c
00000160: d46b 623e f209 36be 66ec 913d 0914 64bd
00000170: 79ab 86be 327f a63e 15db 09be f3d8 a43e
00000180: b29a 403d a68d 03be d332 b7be af00 c63e
00000190: 2ce2 e4ba 237c 3fbe 16d5 d83e bba3 a33e
000001a0: f9b6 ffbe c840 c0bd e78f 343f fe09 78be
000001b0: e5de cbbd aca8 d7bd 745c d23e 9f40 d73e
000001c0: 9b53 aebd ef0e 283e 27a8 0fbe 6ee4 053c
000001d0: c3ae ea3c 357b b6be 304c 883e 8e7b 03bf
000001e0: 5127 473d 77c6 dfbe d358 983d f2f9 b13e
000001f0: 4eec b73c 9637 06bf 1de0 04bf 3629 c93d
00000200: 0e54 c23d d327 98be 668f e9be d9eb 89bd
00000210: b899 9ebe 1f4d dbbc a161 9cbc 5be3 a3bd
00000220: 9b19 9bbb 9ea2 cf3e 8e6b 0f3e 523b c73e
00000230: 859c 8b3e c309 17bd 1676 1c3e c29a c03e
00000240: 06b9 e13c 1a60 26be a451 0fbe 60ca 09bf
00000250: b9dd 76be 9b83 8abd 37bd 093f 92e7 0e3e
00000260: b270 d4bc f024 5dbe be4f e6be 5309 fabe
00000270: a095 54be 5925 f23e a74e b2be e683 bbbd
00000280: 3023 1f3e 4016 1b3e 18eb 783c 50eb ca3e
00000290: b8de c3bd c32f b0bd 9428 b43e 0192 943e
000002a0: 224b 6d3d 994a e6be 8dca d03d ffce 8d3d
000002b0: 8c9f 903d 9f67 d13d 24e4 82be f715 0fbf
000002c0: 283a 8fbe 9641 bfbe 547f ba3e 05b7 95be
000002d0: 617d 79bf 0fff d33e fe4e 453e 5629 8d3e
000002e0: 9f94 9e3e bb0e c33e ad5f 423d 4b61 403d
000002f0: b443 b6bd 25c9 223e 5f8a 16bf a555 de3e
00000300: 34e1 85be e750 a03e 88df 57bd b6cb 843e
00000310: 0ff0 a5bd b21a 733e 25f1 94bc d1cc 51be
00000320: 7ed7 6fbe 617d 8dbe 7e5d 9fbe 21b2 03bf
00000330: a47c f03d e348 a5be 3059 923a c0b4 ec3e
00000340: 1f22 57be c4d7 5a3e e76a d0be ce76 44bd
00000350: 5657 683e b6c7 cd3e 0705 80be 39f5 dbbe
00000360: 88b2 203e 06b3 b3bd 8dfd 093e 8e20 9ebe
00000370: baed 933e 27de a4be 9174 8cbe 88b5 ca3e
00000380: 3ce8 d53d 72e5 d03d 35db 7e3d ebe2 d9be
00000390: b7f5 333e 0864 043f 64ef ee3d 19f0 cf3e
000003a0: fc18 003e 136b 7e3d 4d3d f0be b97f d03e
000003b0: ad92 2bbf 536c 2abe 7120 443e 071c 4c3d
000003c0: 0263 c8be 8550 a53e 9e34 193f ef29 fb3e
000003d0: dc49 49bd 3d2c f9bd 5abc f73c 0dfd bd3c
000003e0: 5180 efbe 9820 01be 24b1 e6bc 59d7 83bd
000003f0: 3440 18be 7d04 bfbe ef4a 84be 3b4e ab3e

network_body._body_endoder.seq_layers.2.bias f4 [256]
0.002257573 0.0023121366 0.014503375 -0.0036049231 -0.0023818153 -0.0028754089 -0.0059187924 0.0017079096
-0.001608898 0.00047273215 -0.021534147 0.034905452 0.00032621212 -0.0015685867 -9.300661e-05 0.0057281093
0.000780756 -0.0012849575 0.013687567 0.00466374 0.00024755573 -0.00062458054 0.0017911802 0.0014373651
0.062452998 -0.00050867256 0.0035964302 0.00023010018 -0.031931724 0.00041621088 -0.008551651 0.0015196787
-0.0065480946 -0.028953364 0.017325357 0.010029433 -0.0017034977 0.013869172 0.025911996 0.0058564832
-0.009672115 0.0012827022 0.014495737 0.0055420613 0.003570264 -0.0006625754 -0.0013158962 0.004311278
0.00018715922 -0.0025308088 -0.004105808 0.006524101 0.0023478325 0.003851395 -0.0007594767 0.00612826
-0.0069810287 0.00086846907 -0.0005117186 0.006151487 -0.0012142742 0.0012136745 -0.0017559656 0.008880933
0.014592556 -0.017050948 0.00021608252 0.0028874273 0.0018664238 0.0044342056 -0.00046103957 -0.011469771
-0.002152768 -0.0036485342 0.00038586353 0.0007198211 -0.0019471064 -0.00169663 0.01013884 0.0013231364
-0.030939834 0.00061861105 8.341579e-05 0.010454772 -0.0040076515 -0.0019731247 0.0057329317 -0.0010194888
0.00067548826 0.010392319 0.0019422028 -0.017750563 -0.00081601227 0.01482373 0.0068576317 0.045546558
-0.00085878593 -0.0008624726 0.002125799 -0.0013893443 0.0018752859 0.0014271609 -0.0016656987 -0.00063139043
0.01007895 0.00073579827 -0.0023920967 0.0052740667 -0.00122743 0.008200623 -0.007871707 -0.003086153
-0.005483049 -4.4624612e-05 -5.643827e-05 -0.00034642365 -0.004662334 -0.0044307383 -0.0012252677 -0.0038481203
-0.0033362906 -0.0007283353 -6.8770765e-05 -0.009028705 0.055330873 0.0034358073 0.04928578 0.0035279884
0.00036984534 0.0012715296 0.00036722605 0.00065385544 0.0035726025 0.000980222 0.0043702414 -0.008308742
0.025721194 0.00041243123 -0.0020147397 0.00013273142 -0.0053849183 0.009356754 -0.003516707 -0.00012477668
0.009749425 -0.0044688256 -0.003438501 -0.004475154 0.008684397 -8.585814e-05 0.010554948 0.008896752
0.009772136 0.0011169821 0.00087233185 -0.0057218214 0.002433537 -0.0026851522 0.0016313586 0.0013552797
0.0031762926 -0.012625369 -0.00038581048 0.0019807871 0.0044718413 0.039501905 -0.0009578025 -0.004436458
-0.0018654852 0.0004347302 0.0029775302 0.0029775838 0.01655825 0.0024700686 0.001774114 0.009371897
0.00128605 -0.003401995 -0.0016097082 -0.0024910783 -0.00033446125 0.0033771868 0.015206032 -0.00015759973
7.844532e-05 0.0012847815 0.0077390336 0.0053919367 0.00011977165 0.0005086837 0.0005291825 0.008337417
-0.00293487 0.0055075763 0.004232246 -0.003378845 -0.0057767704 -0.010716296 -0.0027898788 -0.0019177425
0.0035703143 0.0013133201 0.014962032 0.00523243 0.0065130293 0.00927623 0.00045811894 0.00094433525
-0.0030289826 -0.021273037 0.0021083255 0.012248793 -0.0018739277 -0.00085202244 -0.012537058 0.0007492621
-0.001806402 0.00028517866 -0.002071275 -0.0027031237 0.0024054293 -0.0012313018 0.005535655 0.012973751
0.012349456 0.005225316 0.05238934 -0.017973222 0.0021725278 0.049835913 -0.00980164 -0.009253358
0.0007620038 0.0028216445 0.0037903807 0.00959497 0.0017656828 0.002232374 0.002353805 0.0037414534
-0.004456959 0.015762419 0.0012365079 -0.0035786636 0.00027065922 -0.0050830897 -0.0017995476 0.048387166
-0.00054223946 0.0034475527 0.007240474 0.0043240343 -0.0005611766 0.0012292475 -0.005736469 0.0029680273
00000000: caf3 133b 3787 173b 909f 6d3c 9340 6cbb
00000010: 3b18 1cbb 5b71 3cbb 6ef2 c1bb f0db df3a
00000020: a9e1 d2ba 09d9 f739 6168 b0bc 05f9 0e3d
00000030: 7307 ab39 0999 cdba 8b0c c3b8 ddb2 bb3b
00000040: a6ab 4c3a 056c a8ba d141 603c 49d2 983b
00000050: 5eca 8139 e4ba 23ba 09c6 ea3a f865 bc3a
00000060: b7ce 7f3d 7058 05ba 16b2 6b3b 0c47 7139
00000070: d7ca 02bd e136 da39 391c 0cbc f52f c73a
00000080: 6691 d6bb 9b2f edbc e8ed 8d3c 7e52 243c
00000090: e647 dfba 863b 633c 6545 d43c bee7 bf3b
000000a0: ca77 1ebc 5820 a83a 877f 6d3c 2e9a b53b
000000b0: 17fb 693b afb0 2dba 267a acba 9f45 8d3b
000000c0: 2c40 4439 eddb 25bb 048a 86bb 20c8 d53b
000000d0: 18de 193b b067 7c3b 9e17 47ba 92cf c83b
000000e0: 1dc1 e4bb f9a9 633a db24 06ba 6a92 c93b
000000f0: 4828 9fba 2914 9f3a 6e28 e6ba 5581 113c
00000100: 9e15 6f3c 6eae 8bbc 3694 6239 fe3a 3d3b
00000110: caa2 f43a d04c 913b afb7 f1b9 b5eb 3bbc
00000120: 7415 0dbb 3f1c 6fbb ba4d ca39 60b2 3c3a
00000130: 0d36 ffba 7561 deba 611d 263c 176d ad3a
00000140: 8975 fdbc 492a 223a 83ef ae38 7e4a 2b3c
00000150: 9e52 83bb 8a4f 01bb 51db bb3b 5ea0 85ba
00000160: 4013 313a 8c44 2a3c 8391 fe3a a169 91bc
00000170: a8e9 55ba 3bdf 723c fcb5 e03b 078f 3a3d
00000180: 2620 61ba 8e17 62ba fd50 0b3b a91a b6ba
00000190: 27cc f53a 930f bb3a 9353 daba e583 25ba
000001a0: 2e22 253c 96e2 403a b9c4 1cbb 14d2 ac3b
000001b0: b7e1 a0ba e85b 063c 55f8 00bc 0e41 4abb
000001c0: 26ab b3bb 502b 3bb8 22b8 6cb8 32a0 b5b9
000001d0: 7ec6 98bb ba2f 91bb 2999 a0ba bf30 7cbb
000001e0: aba5 5abb c1ed 3eba 0639 90b8 22ed 13bc
000001f0: a0a2 623d 482b 613b e3df 493d d335 673b
00000200: cde7 c139 74a9 a63a 3f88 c039 7f67 2b3a
00000210: 5322 6a3b cb7a 803a 3e34 8f3b 6421 08bc
00000220: 41b5 d23c 953b d839 b909 04bb d22d 0b39
00000230: f873 b0bb 124d 193c 8e78 66bb 7cd6 02b9
00000240: 0dbc 1f3c 3a6f 92bb 7958 61bb 50a4 92bb
00000250: 0049 0e3c bd0e b4b8 a9ee 2c3c afc3 113c
00000260: 4f1b 203c b367 923a 33ad 643a 1e7e bbbb
00000270: fa7b 1f3b 61f9 2fbb 50d3 d53a a4a3 b13a
00000280: 5929 503b a3da 4ebc 9b46 cab9 18d0 013b
00000290: 8688 923b c0cc 213d 0a15 7bba b55f 91bb
000002a0: 4c83 f4ba 80ec e339 ab22 433b 9123 433b
000002b0: 2ba5 873c e0e0 213b 6389 e83a 968c 193c
000002c0: ad90 a83a 01f4 5ebb d8fc d2ba 5c41 23bb
000002d0: a15a afb9 cb53 5d3b b922 793c 5b41 25b9
000002e0: 0383 a438 1d66 a83a b897 fd3b d8ae b03b
000002f0: ea2d fb38 2f59 053a d6b8 0a3a a999 083c
00000300: f356 40bb e678 b43b a7ae 8a3b 9d6f 5dbb
00000310: 104b bdbb 6793 2fbc 66d6 36bb c35c fbba
00000320: effb 693b b623 ac3a 5023 753c ce74 ab3b
00000330: 406b d53b 54fb 173c af2f f039 448d 773a
00000340: e581 46bb cb44 aebc d52b 0a3b 29af 483c
00000350: 949e f5ba 425a 5fba 3c68 4dbc 216a 443a
00000360: cbc4 ecba 0884 9539 3abe 07bb e426 31bb
00000370: 68a4 1d3b a263 a1ba 7164 b53b db8f 543c
00000380: 5f55 4a3c 2139 ab3b 3496 563d 943c 93bc
00000390: f860 0e3b be20 4c3d 0f97 20bc 659b 17bc
000003a0: 36c1 473a 57eb 383b 0968 783b 3934 1d3c
000003b0: 7c6e e73a 054d 123b 4b42 1a3b 2c33 753b
000003c0: af0b 92bb 3020 813c 5212 a23a 0388 6abb
000003d0: 44e7 8d39 0c90 a6bb ccde ebba 9f31 463d
000003e0: 1325 0eba 56f0 613b 8041 ed3b a1b0 8d3b
000003f0: ed1b 13ba b41e a13a fdf8 bbbb 3c83 423b

network_body._body_endoder.seq_layers.2.weight f4 [256, 256]
0.00144689 -0.016114237 -0.06683258 0.09565888 -0.0047876406 0.018149143 -0.08195395 -0.055241376
0.08105691 -0.0148649905 -0.13546056 -0.06239291 0.08210931 0.012143603 -0.007905431 -0.019767795
0.0032802697 -0.040457606 0.15021884 0.12008155 -0.0804116 0.0006366874 -0.095734105 -0.061124712
-0.060647395 0.119754426 0.024023283 0.0574785 -0.063078515 -0.058829557 0.033963375 0.0455549
-0.079511546 0.072187744 -0.022708077 -0.009141857 0.010507354 -0.12590781 0.15272744 0.049948975
0.028163886 -0.019624734 -0.02081554 -0.06751457 0.0041057253 0.003006272 -0.00029315054 0.034855112
-0.039929934 -0.122649476 -0.0632338 0.011616831 0.10480609 -0.04443302 -0.014641477 -0.03369231
0.044105954 0.06808543 -0.089423336 0.044338815 -0.018261578 -0.065865025 0.057722848 -0.04251413
0.059303712 0.06283742 -0.03485299 0.080720715 -0.021202933 -0.07472553 0.08401355 -0.0034296028
-0.017626671 -0.08523539 -0.04347018 0.074000195 0.07969289 -0.029995468 -0.008871177 -0.04139026
-0.012359239 -0.030117797 -0.081843905 -0.045617282 0.04732947 0.029751156 0.021642378 0.06231655
0.015013625 -0.07691561 -0.013056295 0.10496874 0.009495222 -0.023047112 -0.09503654 -0.018406432
-0.01737677 -0.089850634 0.079197 0.041681904 0.032163873 0.018536197 0.02959798 -0.02858596
0.043220527 0.058771573 0.034476083 -0.026457034 -0.02470114 -0.080271974 -0.071296506 -0.003019578
0.01694788 0.0123526715 -0.025667215 0.03448908 0.090237685 0.058680154 -0.03752424 -0.0032645722
0.012428391 -0.022268215 0.04662734 -0.08730452 -0.087215565 -0.051193535 0.026525648 -0.04065589
-0.061398774 -0.08532835 0.06441088 -0.007996796 -0.06441125 0.00035271878 -0.009779004 -0.03584008
-0.01109441 0.0029343553 0.04456777 0.030565035 0.04753381 0.003822815 -0.029376209 0.033020347
-0.031438474 0.023426235 -0.110247195 0.036380745 0.02286687 0.10617494 0.010954327 0.07142638
-0.021385213 0.058262583 -0.025508454 -0.0628233 0.09698815 0.08381437 -0.019754395 0.055710398
0.032680955 0.017911438 -0.01257862 0.017088024 -0.036171075 -0.021852652 0.0112072835 0.038994286
-0.05360039 -0.09266192 0.1931671 -0.040437948 0.05338184 0.114681005 0.042129226 -0.0006916938
-0.063577026 0.074097514 0.016550414 0.013147896 0.018838445 -0.04237725 -0.08306829 -0.0322406
0.06113808 0.07772932 -0.051927745 -0.055211443 0.027828792 -0.014974541 0.07976881 0.06995007
-0.012754377 -0.029364174 0.025451908 -0.020565348 -0.06966026 -0.09092777 0.057527944 -0.05751532
0.0016090078 0.10153954 -0.0339818 0.07782919 0.092397235 -0.0758867 -0.036132667 0.034623034
0.0014844594 0.07217825 0.0700677 -0.018679498 -0.08774864 -0.011281174 -0.024579758 0.03568991
0.016079517 0.035018113 0.075924955 0.022273036 -0.08145485 0.042297233 -0.06318045 0.04092606
-0.042750802 0.002269216 0.025442492 -0.042250585 -0.08832404 0.07752913 0.015746959 0.006988429
-0.064911485 0.029802844 0.06911556 0.071186654 0.022107022 0.045803532 0.088587485 -0.017071849
0.076752454 -0.032266676 -0.037276607 0.099485464 0.0924505 -0.04092399 -0.098062925 0.016520197
-0.12931617 -0.11041434 0.06733607 -0.103932925 -0.023394817 -0.09114798 0.017403383 0.07640443
00000000: 92a5 bd3a 0102 84bc 85df 88bd cee8 c33d
00000010: a4e1 9cbb 83ad 943c 79d7 a7bd c844 62bd
00000020: 2a01 a63d 4a8c 73bc 2cb6 0abe b58f 7fbd
00000030: ed28 a83d f6f5 463c c885 01bc 12f0 a1bc
00000040: cbf9 563b e0b6 25bd f8d2 193e 51ed f53d
00000050: d6ae a4bd 5ee7 263a 3e10 c4bd e85d 7abd
00000060: 6769 78bd cf41 f53d 7acc c43c 936e 6b3d
00000070: 4f2f 81bd 43f7 70bd 2e1d 0b3d c697 3a3d
00000080: f3d6 a2bd 2bd7 933d 4a06 babc bac7 15bc
00000090: 0927 2c3c faed 00be 9564 1c3e 4c97 4c3d
000000a0: f3b7 e63c 0dc4 a0bc 5a85 aabc 1445 8abd
000000b0: 5289 863b e004 453b 00b2 99b9 3cc4 0e3d
000000c0: 928d 23bd a62f fbbd b980 81bd 8554 3e3c
000000d0: 93a4 d63d 66ff 35bd cee2 6fbc f300 0abd
000000e0: 72a8 343d 6070 8b3d 9523 b7bd 9e9c 353d
000000f0: 4e99 95bc 3ee4 86bd cb6e 6c3d 4c23 2ebd
00000100: 73e8 723d e8b0 803d 02c2 0ebd e750 a53d
00000110: c6b1 adbc b309 99bd 4c0f ac3d 30c3 60bb
00000120: cf65 90bc e48f aebd ca0d 32bd 6a8d 973d
00000130: 0736 a33d 0eb9 f5bc 6a58 11bc d588 29bd
00000140: 687e 4abc 99b9 f6bc c79d a7bd 30d9 3abd
00000150: 8cdc 413d b2b8 f33c 5b4b b13c a43f 7f3d
00000160: b5fb 753c ee85 9dbd 12ea 55bc daf9 d63d
00000170: d991 1b3c 4ccd bcbc 84a2 c2bd 16c9 96bc
00000180: ba59 8ebc 9c03 b8bd 0932 a23d a5ba 2a3d
00000190: 44be 033d 39d9 973c 7777 f23c 1a2d eabc
000001a0: 0208 313d 76ba 703d cb36 0d3d 6cbc d8bc
000001b0: 0c5a cabc a265 a4bd e703 92bd 1de4 45bb
000001c0: 48d6 8a3c dc62 4a3c 0d44 d2bc 6c44 0d3d
000001d0: 89ce b83d 9a5a 703d 04b3 19bd 6ff2 55bb
000001e0: 73a0 4b3c d56b b6bc 4ffc 3e3d b6cc b2bd
000001f0: 139e b2bd 50b0 51bd 514c d93c ca86 26bd
00000200: 487d 7bbd a1c0 aebd dae9 833d fe04 03bc
00000210: 0cea 83bd 1ded b839 1e38 20bc 0ccd 12bd
00000220: 54c5 35bc 504e 403b b28c 363d 8663 fa3c
00000230: d0b2 423d 3188 7a3b 60a6 f0bc 5840 073d
00000240: a1c5 00bd 60e8 bf3c 48c9 e1bd fa03 153d
00000250: 4d53 bb3c 3f72 d93d c779 333c fe47 923d
00000260: 0b30 afbc bfa4 6e3d 1bf7 d0bc 81a9 80bd
00000270: b9a1 c63d dea6 ab3d f8d3 a1bc 9630 643d
00000280: 77dc 053d 02bb 923c 8e16 4ebc 2ffc 8b3c
00000290: 1f28 14bd 5504 b3bc c19e 373c 79b8 1f3d
000002a0: 158c 5bbd 88c5 bdbd 99cd 453e 43a2 25bd
000002b0: eba6 5a3d e0dd ea3d b28f 2c3d c952 35ba
000002c0: ac34 82bd 70c0 973d bc94 873c 466a 573c
000002d0: 1553 9a3c c493 2dbd b51f aabd b80e 04bd
000002e0: ec6b 7a3d 8d30 9f3d 30b2 54bd 6525 62bd
000002f0: 35f9 e33c c757 75bc d45d a33d fb41 8f3d
00000300: bcf7 50bc 238d f0bc 8580 d03c a978 a8bc
00000310: 0aaa 8ebd 5738 babd 6ca2 6b3d 2f95 6bbd
00000320: 58e5 d23a f6f3 cf3d 8030 0bbd e964 9f3d
00000330: c33a bd3d 7c6a 9bbd d9ff 13bd e2d0 0d3d
00000340: 3192 c23a 31d2 933d a87f 8f3d bf05 99bc
00000350: 8fb5 b3bd acd4 38bc 7d5b c9bc 952f 123d
00000360: 31b9 833c 276f 0f3d 8b7e 9b3d f175 b63c
00000370: cdd1 a6bd dd3f 2d3d c064 81bd 16a2 273d
00000380: 771b 2fbd 21b7 143b c66c d03c f30e 2dbd
00000390: 3ce3 b4bd 98c7 9e3d c4ff 803c 31ff e43b
000003a0: 50f0 84bd 1825 f43c 758c 8d3d 4fca 913d
000003b0: c919 b53c 7c9c 3b3d 5b6d b53d 43da 8bbc
000003c0: 6430 9d3d 102a 04bd 5baf 18bd 09bf cb3d
000003d0: b056 bd3d ea9f 27bd 37d5 c8bd 5d55 873c
000003e0: 756b 04be ea20 e2bd 7ee7 893d c9da d4bd
000003f0: 7da6 bfbc cbab babd 8a91 8e3c ed79 9c3d
