results/Drone2/Drone/Drone-696849.onnx (onnx, 77263 bytes, 7 tensors)

action_model._continuous_distribution.log_sigma f4 [1, 4]
00000000: b758 69bd 421e 74bd 2b44 83bd 5b3b fcbc
-0.05696937 -0.05959917 -0.064094864 -0.030790022

action_model._continuous_distribution.mu.bias f4 [4]
00000000: 2d24 00bc 4058 0f3c e878 7dbb 299e 85bb
-0.007821125 0.008749068 -0.0038676802 -0.004077692

action_model._continuous_distribution.mu.weight f4 [4, 128]
00000000: c080 6f3c 8fff 2abb 1a8c 28bc c7f0 9a3b
00000010: 08a5 8dbc 0ffd dbbc 7169 863a 834d aa3a
00000020: c827 423d 4bfb afbc 67aa ec3b 8b23 2b3d
00000030: 1ecf 6b3b 5785 8dbb 3245 e93b fedf c9bc
00000040: 87d4 09bb 8b06 16bd 2e84 b63c 46d9 463b
00000050: 908b 86bc 5055 233d 13e8 c83c f36c f2bc
00000060: f4f1 9dbc 7685 af3c be30 b8bc c2b3 153b
00000070: 3a8b 9f3c 51f0 a23c a3e5 603c 1725 d7bc
00000080: 1b2e 333d 0118 afbb 6d9f 8dbc d121 bebc
00000090: 1068 94bc 4eaf 27bc c86d a53b d9bc c53c
000000a0: be2b d4bb 1b26 20bd d752 b93b d63e 993c
000000b0: deb5 2fbc ca60 543c ad4f eabb 0f39 523b
000000c0: 60d5 063b 2f2f 2d3c 305c 21bd 5423 e43b
000000d0: 541a b23c 2553 3c3b 9616 023d 9394 a43c
000000e0: 36a6 cabc 07df edbc 1abe a83c 160d 7ebc
000000f0: e6e8 afbc 8cff 7e3c 9878 653c c002 8a3b
00000100: 24e9 cebc dce7 873c b97b 463c 9766 cbbc
00000110: 538a 463c 3c38 0dbc ced3 b93c d554 97bb
00000120: 6d0c 9cbc 9b1f 443c 63dc 453d 7580 c0bc
00000130: 89c2 ef3b 9b13 3ebc c54e bf3a f5eb ad3b
00000140: abad 763c e328 89bc e2ff a93c 832f 423c
00000150: a4ad bb3c 3506 0d38 f596 fabc 568a a23a
00000160: daa4 2cbd 842d 7fbc 3b1b 0dbd 64cc a0bc
00000170: 4ec4 3cbb a0ba 4cbc e430 e43a af5d cc3c
00000180: dd33 5d3b 455f e83c 6361 9e3b 292a 00bd
00000190: 23bb b0bc e86d fcbc b1e8 2d3c 89bf 07bd
000001a0: a052 10ba 31c2 58bc b3a4 2ebd 7e3f 123c
000001b0: bcfe 4a3c 90ff 3dbc b803 a0bc 7fcd 24bd
000001c0: e20f e33b 57b3 193c d49f 433b 4bf5 f53b
000001d0: 8416 c43c bd95 72bc 0971 d23c e18b c33c
000001e0: afd2 063d 3ff3 033c e681 9bbc 2ec9 be3c
000001f0: 4ac3 8a3b 3d35 0a3c 57e2 523d c3dd 06bd
00000200: 74e1 dcbc 0b73 c9bc 1016 973a 80f7 e4bc
00000210: cfb0 efbb 6f41 bfbc 38d3 05bd 0b90 a9bc
00000220: f8a4 d5b9 aa7a bb3c 19d6 0abd fdd9 283d
00000230: f527 f63b ccb2 333b 99cf b437 fe7a 07bc
00000240: abb4 2c3d bcc3 583d 2b1c 45bc b257 4cbd
00000250: 07b3 ecbc d095 3bbc ee3a 20bc 8414 ad3c
00000260: 5cc5 4ebc c20e 853d 9324 00b9 a16c cabc
00000270: 11dc 8bbc ea4d aa3b 1638 0f3c 5e83 8abc
00000280: aa91 7fbb c79f 243c 5c66 463d 022a 14bd
00000290: b0e9 1b3c b514 85b9 aea2 4cbb 3d85 703b
000002a0: e7d6 c6bc d254 2c3d e15e 47bb 06bd 4a3c
000002b0: e2d2 073d 55b2 003c 37a7 68ba 0300 e6bc
000002c0: ee4b e03c 5a1a 423c 3569 033d 5157 5ebd
000002d0: ac77 3abb 55ab 9bbc cc81 a53a e3fa 403c
000002e0: d216 7ebc 4263 c13c e67d 22bb 6974 303d
000002f0: 417e fb3c 2095 923c bfd5 eebb 41e1 eb3c
00000300: 94c4 b83c 7599 37bd a875 df3c d6b6 0dbd
00000310: 7bba 25bc 1769 5f3a 9168 1cbc c031 b9ba
00000320: 0632 f6bb ec80 023c 18a8 643c 61b9 10bd
00000330: 837c 6bbb 3960 68bc 9dd0 6bbc af81 993c
00000340: 64ae 49bd d50c d3bb a5e3 893c 8af8 12bd
00000350: 79d2 3dbc fd58 23bd f7c9 a7bc 2aad dabc
00000360: 6fca d4bb 88a7 b53c ee47 1abd e783 8c3c
00000370: 3ea4 bb3c 0b3b 0fbc ac2e 833c c282 5d3c
00000380: a130 ff3b 6486 57bc 7593 c43c d94f d13b
00000390: 3f60 3ebd 9684 f6bc 12cc efbc 1a22 513d
000003a0: ce76 5c3c a1b7 813c 9482 9cbb 0634 ceb9
000003b0: c293 c83b 691a d9bc 1445 78bc 61c8 73bc
000003c0: 0450 77bc d152 9e3c 2d92 7dbc da0b 12bd
000003d0: a44f 6d3c ecf5 babc 27e4 ab38 b172 c5bc
000003e0: a334 03bd 4e4c bd3c 91d3 143c 5ad5 0dbd
000003f0: fe32 17bb d4bd 883b 36c1 603c b10d c7bb
0.014618099 -0.0026092266 -0.010287309 0.00472841 -0.017290607 -0.026854066 0.0010254813 0.0012993071
0.04740122 -0.02148213 0.007222462 0.041781943 0.0035981606 -0.004318874 0.0071188444 -0.02464294
-0.0021031217 -0.036627334 0.022279825 0.0030341907 -0.01642397 0.039876282 0.024524724 -0.029592967
-0.019280411 0.021425944 -0.02248418 0.002284274 0.019475568 0.019889982 0.013726625 -0.026262803
0.04374514 -0.0053434377 -0.017287934 -0.023209484 -0.018116027 -0.010234667 0.0050484873 0.024137901
-0.006474941 -0.03909884 0.005655627 0.01870672 -0.010724513 0.012962529 -0.0071506114 0.0032077467
0.0020573959 0.0105703315 -0.039394557 0.0069622193 0.02174107 0.0028736081 0.03175982 0.020090377
-0.024737459 -0.029037012 0.02059846 -0.01550605 -0.02147336 0.015563857 0.014005803 0.0042117536
-0.025257654 0.016590051 0.012114459 -0.024829192 0.01211794 -0.008619364 0.022684004 -0.004618267
-0.019048894 0.011970426 0.04830588 -0.023498753 0.0073168916 -0.011601354 0.0014595619 0.0053076693
0.015056054 -0.01674313 0.020751897 0.011852148 0.022909947 3.36228e-05 -0.03058956 0.0012400846
-0.042149402 -0.015574817 -0.034449797 -0.019628711 -0.002880353 -0.012495667 0.001740959 0.024947016
0.0033752837 0.02836574 0.0048333867 -0.031290207 -0.021573609 -0.030814126 0.01061456 -0.033141647
-0.0005505476 -0.013229893 -0.04263754 0.0089262705 0.012389835 -0.011596575 -0.019533023 -0.04023504
0.0069293836 0.009381137 0.0029849904 0.007506048 0.023936518 -0.014806208 0.025688665 0.02387041
0.032915767 0.0080536 -0.018982839 0.02328929 0.004234706 0.008435545 0.051485386 -0.032926332
-0.026962973 -0.02459099 0.0011526961 -0.027950048 -0.0073147784 -0.02334663 -0.032672137 -0.020698568
-0.00040749437 0.02288564 -0.033895586 0.041223515 0.0075120875 0.0027419804 2.1554342e-05 -0.00826907
0.042164486 0.05292104 -0.012030642 -0.04988832 -0.02889396 -0.011449292 -0.009779675 0.021127947
-0.012620296 0.064969555 -0.00012220656 -0.024710001 -0.01707271 0.0051972764 0.008741399 -0.016908344
-0.0038996735 0.0100478595 0.04843746 -0.036172874 0.009516165 -0.00025383165 -0.0031224894 0.003670051
-0.024272395 0.04207308 -0.0030421542 0.012374168 0.033160098 0.007855018 -0.00088750146 -0.028076177
0.027379956 0.011847103 0.032082755 -0.05428249 -0.0028452678 -0.019002596 0.0012627183 0.011778566
-0.0155083705 0.0236069 -0.002479428 0.043079767 0.030699851 0.017893374 -0.007288664 0.028793933
0.022554673 -0.044824082 0.027277783 -0.034598194 -0.010115261 0.00085224345 -0.009546415 -0.0014129207
-0.0075132875 0.007965308 0.013956092 -0.03533304 -0.003593237 -0.0141830975 -0.014392999 0.018738596
-0.049238577 -0.0064407387 0.016832182 -0.035881557 -0.011585825 -0.039879788 -0.020482047 -0.0266939
-0.0064938585 0.022174612 -0.037666254 0.01715274 0.022905465 -0.008742104 0.016013466 0.013519945
0.0077877794 -0.0131546 0.023996094 0.0063876924 -0.046478506 -0.030092519 -0.029272113 0.051057912
0.01345606 0.015834631 -0.0047763083 -0.00039330142 0.0061211297 -0.026501851 -0.015153188 -0.014879317
-0.015094761 0.0193266 -0.015476746 -0.035655834 0.01448432 -0.022822343 8.196412e-05 -0.02410254
-0.03203262 0.023107674 0.0090836445 -0.034627296 -0.0023071165 0.00417302 0.01371794 -0.00607463

network_body._body_endoder.seq_layers.0.bias f4 [128]
00000000: bfa3 5bbc 8631 48bc fe0f 173c 99b1 23bc
00000010: 72c1 bf3c 5bd1 1dbb d8b0 84bc 5354 e0ba
00000020: f975 9f3b 8bef d7bb f07a f63c 6839 073c
00000030: bcb1 20bb 923d 60bc a66e ecbb 4b8c c43c
00000040: c0f9 233b f4ba 70bc daae a7bb 32a2 57bc
00000050: 6f6c 43bc f364 203b 4ba5 b7ba 08bb 663c
00000060: 78f4 513b 666e 9cbc 2c63 9339 88f7 653c
00000070: 59f8 0abc 0dde 573c a73c c63c 2d2b e1bb
00000080: 3076 cf3b ea05 023c 6647 173b 676e 87bc
00000090: 66ae c3bb 75e5 bb3a ae49 a2bc 87ef 043c
000000a0: 9b57 6fbb 4a37 8bb8 5dfa 1dbc cae1 db3b
000000b0: fe34 14bb b895 e7bb 0fbc 783a 83c6 c53c
000000c0: 6171 183c c1d6 403b 681e aa3b a74d 78bb
000000d0: 261b 71bc 2a43 733b 3837 3b3c 7984 4cbc
000000e0: c845 083c bc02 3dba 0204 903b d08c 993b
000000f0: d365 f33c 361f b2bc 4e39 793c 9854 c338
00000100: 31e1 8a3b 6c8c 51bc c5c6 7d3b a315 a03b
00000110: 8d53 2cbb b028 17bc 61f2 283b 2f4b 1bbc
00000120: f6ea 30bc 186c d73c c137 093d 4ef8 11bc
00000130: 1c7e b1bb 68ca 083b 8b64 74bc c758 bebb
00000140: fab7 7abc 58f2 0abc 8750 c838 1d3e 673c
00000150: 0bfd c3ba e8ac 92bb 3fba 8d3c b1dc 2a3c
00000160: 705d 803a 46a6 78bc 9b9a 493b da58 19bc
00000170: cb7e 093d 9cc5 ccbc f696 63ba e9f2 d73c
00000180: 0733 05bc 9963 593c 408d 6cbc 1bf2 38bc
00000190: d4ff 7bbc 9e4a a8bb 9e53 b63c 1cd8 15b9
000001a0: d537 b3ba 6546 b13b 3162 6fba 5a93 bcbb
000001b0: a934 e6bb 586e 0d3b 25af 353b a678 febc
000001c0: ff76 8f3b e22c 863b f76d 89bc ea18 053c
000001d0: d6e3 ccbb 3394 383d 0081 363b ac31 b93b
000001e0: fa34 14bc d9a3 023b 82ed 123c 45a7 2eba
000001f0: 348b bcbb b632 83bc 0acf 033d 29da 14bc
-0.013405739 -0.012218839 0.009220121 -0.009991073 0.023407672 -0.0024081084 -0.016197607 -0.0017114974
0.0048663584 -0.006589835 0.030087918 0.008253433 -0.002452 -0.0136865545 -0.0072153388 0.023992678
0.0025020689 -0.014693011 -0.0051172795 -0.013161229 -0.011927708 0.0024474233 -0.0014011053 0.014082678
0.0032036584 -0.01909561 0.00028111914 0.014036067 -0.008482062 0.0131755 0.024198843 -0.006871602
0.0063312277 0.00793598 0.0023083328 -0.016532136 -0.0059717176 0.0014335351 -0.019810524 0.008113748
-0.0036520723 -6.638335e-05 -0.009642211 0.0067102658 -0.0022614594 -0.0070674084 0.0009488472 0.02414251
0.009304375 0.0029424878 0.005191613 -0.0037888081 -0.014715945 0.003711889 0.011426739 -0.012482756
0.008317418 -0.0007210185 0.004395009 0.0046859756 0.02971164 -0.021743398 0.015211416 9.3140814e-05
0.0042382707 -0.012789827 0.0038723212 0.004885392 -0.0026294917 -0.009226009 0.0025779235 -0.009478374
-0.010798207 0.02629666 0.033500437 -0.008909298 -0.0054166447 0.0020872597 -0.014916549 -0.005808923
-0.0153026525 -0.008480631 9.5517426e-05 0.01411393 -0.0014952732 -0.0044761784 0.017300723 0.0104285935
0.0009793472 -0.015176361 0.0030762318 -0.009359563 0.033568185 -0.024996571 -0.0008681858 0.026360946
-0.008129842 0.013268375 -0.0144379735 -0.011288191 -0.015380818 -0.005135848 0.022256669 -0.00014290254
-0.0013673255 0.005410003 -0.0009131758 -0.0057548704 -0.0070253205 0.0021580663 0.0027722802 -0.031063389
0.004378199 0.004094706 -0.016776068 0.008123616 -0.006252746 0.04506321 0.0027847886 0.0056516733
-0.009045834 0.0019934087 0.008967759 -0.00066624983 -0.005753899 -0.016015392 0.03217987 -0.009085217

network_body._body_endoder.seq_layers.0.weight f4 [128, 13]
00000000: 9897 1a3e 087d a03e 04ee 953c 1fd2 a8bd
00000010: 1aa4 0c3d 84f1 7f3e 0368 98be c0ed 8b3e
00000020: 9d1d 1ebe eb88 213f bce7 4f3e 6afc 243f
00000030: 5012 3e3d 8e5a 83be c2e0 43be 8a8d c9be
00000040: 6182 8b3e 6f4f a53d 64a2 413e cd40 c8bd
00000050: 255b 0dbe 3a98 11be e074 8bbf b66a 5ebe
00000060: 09ac 933e fcb5 00be b7aa 4fbe f21d 5d3e
00000070: e1cc 5c3e ff6a f53e 45bb 49be ac37 a93c
00000080: 7eb3 523d 29be c5bd 9cbf 543d d28c 993e
00000090: 34de d03d 491b bdbe 446d e1be a702 9a3d
000000a0: 3027 a7be f8ac c7bd 7392 763e 736d e03e
000000b0: 55ff e1bd 3582 12be 5493 34be fd80 4c3a
000000c0: 81c3 c7be 8fa7 373e 02e0 27bd cdba 633e
000000d0: a545 9fbe e2e5 3dbe a3d8 e9be d1b3 0fbe
000000e0: dedd d0be 1e07 a83e 7d15 ecbc ae70 96be
000000f0: 6ca8 cfbd 6008 adbe d8ed 25be e0a2 963c
00000100: 645a d03d 4d9d 8bbd 948f a23e de61 073e
00000110: 73d6 82bb da9a 443d 72b8 1abd 5756 d73e
00000120: c7be 053e 0fda 973e 78a6 b53d e234 213e
00000130: 11c1 2d3b 3c7b 9b3e 5bb1 583e de6e f73e
00000140: 8363 843e a90c 833e d7b3 31bd 9eab 583d
00000150: e0d0 ddbe f4f0 29be ebeb 113e 398d 8b3e
00000160: a140 b93e 5be6 133e 48d6 b93d 1c00 c9be
00000170: eb86 433e bded 8dbe 90fa 98bd 793e ec3d
00000180: 1e90 9fbe 07bd 423e bb41 44bd 74dc cd39
00000190: ca15 553e e08d 7e3e 82bd 92bd e004 83be
000001a0: ebd7 14be 92c0 06be 0375 103f 33ac 12be
000001b0: 679e 163d ea8a b9be 3abf 55be 7d5c 9cbd
000001c0: 5c49 febd d413 a6be c78a e2bd 358c 093e
000001d0: 561b 3c3e 346f c4be b9f4 40be 4aeb 1b3e
000001e0: 30b3 8b3d ee6e b13d 954d 8c3e e3f4 853e
000001f0: f5a0 ff3d bd16 ae3c bd90 4bbe 278a 1f3e
00000200: 6748 babe fa17 0ebd 7efa 2b3c c693 1cbe
00000210: 2baa 0d3e 5e61 77be 7bc3 7dbe 8098 9bbc
00000220: 8487 08bf 0698 89be dadf 123f 5731 4f3d
00000230: 4401 8b3e 9067 a8bc aef3 48be 2102 a33e
00000240: 94da 823e 65b2 883d c615 8bbe ff1f b33d
00000250: 0462 c63e 051c 6abe 469e 383d 9af0 6dbe
00000260: b7b3 14bf f321 d2be 44d2 db3e 0096 013f
00000270: 6e7a 353d 99ec ab3d 5f19 15bd adbd 18bf
00000280: b437 a3be b6ae 993e 4bd0 143f ef3b 213e
00000290: 152c 493f d8c2 33bd 1210 b5bb 1719 d6be
000002a0: 034d 2c3e 1955 ecbe a1bd 96be 473c e6be
000002b0: 99c6 5a3e 415d c33d 4ae8 1d3d 42cd 683e
000002c0: ccdd 353d fcf8 11be 9c82 283e cf74 653d
000002d0: d38b d3be b1ae 153e fc71 83bd a224 4d3e
000002e0: ec37 9f3c 4329 8b3d 228f 1cbd c1cd 9e3e
000002f0: b9b6 0ebc 661f 1a3f cf4f 9c3e 0aef cc3d
00000300: 122f 60be 1ff4 3ebb 0675 913d 45d1 10bf
00000310: 93f0 b9be d12f e33e 3f4c 18be a78f 05be
00000320: 4647 84be 574c 7fbe 266d 89be 92fa 9dbe
00000330: ec76 abbe 7190 073e d5a7 b53e 78f7 0f3f
00000340: 2d99 983d 8cab 283e a57d 9abd 5e02 8abe
00000350: a170 6c3e 08bf c9bd 9a4e 30bc 286c 33bd
00000360: 5261 963e eaa5 1c3d 6b1a 8a3e 237d 0abe
00000370: d6ff d3be 381e 893e a7f3 d6be 1b5b fe3e
00000380: 04b4 b3bb 9a14 a83c 1a2a 093d 99ed f9be
00000390: 9fd3 4b3d 505e 98be 499d fc3e f8ab cc3e
000003a0: 3c1f 6b3f 678f 9f3e cdd0 24be 48b4 653e
000003b0: 637f a8bd 3127 b9be ad58 de3c d399 383f
000003c0: d4b7 013f 39ac 85be 4c21 1dbe 852b e4bd
000003d0: 7662 093f de07 5a38 adac 67be f6e8 683e
000003e0: b244 27be d352 153f 11b2 df3e f3c8 8dbd
000003f0: 549e 6dbd 1d67 5dbd ccc1 43bc e552 90bd
0.15096891 0.3134539 0.018301971 -0.082432024 0.034336187 0.24994475 -0.29766855 0.27329826
-0.15440984 0.63099545 0.20303243 0.64447653 0.046404183 -0.25655025 -0.19128707 -0.39365798
0.2724791 0.080717914 0.18909603 -0.09777985 -0.138043 -0.14218226 -1.0895042 -0.21720394
0.2884219 -0.12569422 -0.20279966 0.21593454 0.2156253 0.47933194 -0.19700344 0.02065643
0.05144071 -0.09655411 0.051940545 0.2999025 0.10198632 -0.3693488 -0.44028676 0.07520037
-0.32647085 -0.09749788 0.24079303 0.43833503 -0.11035029 -0.14307483 -0.17634326 0.0007801203
-0.39016345 0.17935012 -0.040985115 0.22239228 -0.31107822 -0.18544725 -0.45673093 -0.14033438
-0.4079427 0.3281793 -0.02881884 -0.29382843 -0.10139546 -0.33795452 -0.16204011 0.018388212
0.10173491 -0.06817112 0.31750166 0.13220927 -0.0039928495 0.04799924 -0.037773557 0.4205806
0.13061057 0.29658553 0.08869642 0.1574283 0.0026512782 0.30367458 0.21161406 0.48326772
0.2585717 0.25595596 -0.0433844 0.052898042 -0.4332342 -0.16595823 0.14250152 0.27256182
0.3618212 0.14443342 0.09074074 -0.39257896 0.19094436 -0.27720442 -0.07469666 0.11535353
-0.3116464 0.1901742 -0.047914248 0.00039264897 0.20809093 0.24858809 -0.07165052 -0.25589657
-0.14535491 -0.13159397 0.56428546 -0.14323501 0.036772158 -0.36238796 -0.20873728 -0.07634828
-0.12416336 -0.32437003 -0.11061626 0.13432391 0.18369803 -0.3836609 -0.18843354 0.15226474
0.06821287 0.08663736 0.2740294 0.26163396 0.12481872 0.021251077 -0.19879432 0.15580045
-0.36383364 -0.034690835 0.010496734 -0.15290746 0.13834445 -0.24158236 -0.24781601 -0.018993616
-0.5333178 -0.26873797 0.5737282 0.050584164 0.27149403 -0.020557195 -0.19624206 0.31837562
0.25557387 0.06674651 -0.2716505 0.08746337 0.38746655 -0.22862251 0.045072816 -0.23236313
-0.58086723 -0.41041526 0.42933857 0.50619507 0.04430621 0.08394737 -0.03640115 -0.5966442
-0.31878436 0.30016106 0.5813033 0.15745519 0.7858289 -0.04388699 -0.0055255974 -0.41816017
0.16826253 -0.46158674 -0.2944155 -0.44967863 0.21364821 0.09539271 0.038551606 0.2273455
0.044400975 -0.14255136 0.16456074 0.0560196 -0.41317615 0.1461742 -0.06418225 0.20033506
0.019435845 0.067949794 -0.03822244 0.31016353 -0.008710557 0.6020416 0.3052964 0.100065306
-0.21892956 -0.0029137207 0.071023986 -0.5656932 -0.36316356 0.4437242 -0.14872836 -0.1304308
-0.25835627 -0.24931465 -0.26841086 -0.30855232 -0.33489168 0.13238694 0.35479608 0.5623698
0.07451091 0.1647169 -0.07543496 -0.2695493 0.2308984 -0.098508894 -0.010760928 -0.043804318
0.29371125 0.038244165 0.2697328 -0.13524298 -0.41406125 0.26780868 -0.41982767 0.49678883
-0.005484106 0.020517636 0.033487417 -0.48814085 0.049762364 -0.29759455 0.4933875 0.39974952
0.91844535 0.31164095 -0.16095276 0.22432053 -0.08227422 -0.36162713 0.027141893 0.7210972
0.50671124 -0.26107958 -0.15344733 -0.11141113 0.53665864 5.1982577e-05 -0.22624464 0.22745118
-0.16334799 0.58329505 0.4369054 -0.06923094 -0.05801232 -0.054053415 -0.01194806 -0.07047061

network_body._body_endoder.seq_layers.2.bias f4 [128]
00000000: 064d 8ebb 080b c1bb 5511 1e3b 22d5 11bc
00000010: 21e5 55bb 52ed 763b 9542 2639 bc45 03bc
00000020: 4475 5e3c 2cfd 9b3c 4f92 07bc 81bd adba
00000030: d0be 86ba bf15 c3b9 b3c0 4f3b 5039 8d3b
00000040: b5a7 d1ba 1772 3b3c 4e7c 1cbc 87ef 853c
00000050: d78e f8b9 b2b6 03bc 02a3 93bb 94b8 023c
00000060: d7f4 d1bb fba1 a03c ca4b ccbb 96a2 36bc
00000070: e37f 52bc ba59 183c c2cd 2abc b380 80ba
00000080: 14d1 5ebc ee1c 72bb 973b 763c 09fb e338
00000090: 28a6 2d3c 0ed2 d73b 0ced c0bb 6e70 baba
000000a0: 0dba 3dbc 960a 613b d27d adbb 93e3 c3b7
000000b0: af1d 83bb c7ec 17bc 7724 9bbc af62 17bb
000000c0: b4b7 503c 98f5 92bb 918d 7d3c ee7b e93b
000000d0: 4655 69bb 355c 20bc 33da e738 0edf 23bc
000000e0: ab2a 1dbb fa3a 28bb 6a68 debb 615e 353c
000000f0: a33d 293b 9b9d 57bb fa74 10bc c320 473c
00000100: 6526 313c 8cbc 28bc cb70 913a 1a58 a73a
00000110: 164e 4cbc f52f 533a c24c cdbc f7da 77bc
00000120: a6b4 1cbb 1a20 f83a cd93 3e3b 182f afba
00000130: 7adc 06ba dc93 c4bb d028 aebc e1e7 343b
00000140: d5fe b33c ad56 943a 5203 8abb 7e24 a439
00000150: cce9 2138 e3f7 8eba cdfd 9d3b 635a 96bb
00000160: ac46 d1bb 79c5 8d3b 4219 34bb 942d 78bc
00000170: 8fc0 8439 ddf4 d03b 794b 2c3c 5580 2bbc
00000180: 00fc 18bc b894 b7bb bece ad3b 1a0c 3f3c
00000190: aaee b33c e70c 733b 2588 15bc 5921 cd3b
000001a0: 03b2 5a39 b949 353c b2be 763b 6755 b23c
000001b0: 6e47 5dbb 732d f33b 4b01 c23b cd5d 8e3b
000001c0: 5871 a2bb 7e58 973b edf6 39bb c6ab 73bb
000001d0: 5845 f83b 3c62 e9bb af04 1cbc 2565 03bc
000001e0: ee7b 943b e1a9 bd3b 37d9 233c 9555 4dbc
000001f0: fa0b e73a 120a 03bc c6b2 56ba c79f 7e3b
-0.004342678 -0.0058912076 0.0024119217 -0.0089009125 -0.0032637792 0.0037678075 0.00015855797 -0.008012231
0.013577763 0.01904162 -0.008274629 -0.0013255329 -0.0010280255 -0.000372095 0.003170055 0.0043098107
-0.0015995415 0.011440775 -0.009551121 0.016349567 -0.0004740867 -0.008039163 -0.004505516 0.007978577
-0.006407361 0.019608488 -0.0062346207 -0.011147162 -0.012847873 0.009298736 -0.010425033 -0.000980398
-0.013599653 -0.0036943513 0.015028856 0.000108709624 0.010598697 0.0065863198 -0.005887633 -0.001422418
-0.0115800025 0.0034338585 -0.00529454 -2.3351784e-05 -0.0040013413 -0.009272761 -0.018938286 -0.0023099591
0.012739111 -0.0044848435 0.015475647 0.0071253693 -0.0035603805 -0.009787609 0.00011055581 -0.010001911
-0.002398173 -0.0025669918 -0.0067873495 0.011069865 0.0025824092 -0.0032900337 -0.008816952 0.012153807
0.010812377 -0.010298859 0.0011096237 0.0012767345 -0.012469789 0.00080561574 -0.025061015 -0.015127889
-0.0023911386 0.0018930465 0.0029079795 -0.0013365475 -0.0005144548 -0.0059990715 -0.021259695 0.002760403
0.0219721 0.0011317335 -0.0042118216 0.00031307706 3.860313e-05 -0.0010907616 0.004821515 -0.0045884117
-0.0063865986 0.004326519 -0.0027480875 -0.015147585 0.0002532047 0.006376846 0.010516041 -0.010467608
-0.009337425 -0.0056024455 0.0053041866 0.0116606 0.02196439 0.0037086548 -0.009126698 0.006260079
0.00020856415 0.01106494 0.0037650284 0.021769239 -0.00337645 0.0074211895 0.0059205643 0.004344678
-0.0049573593 0.0046187034 -0.002837594 -0.0037181242 0.007576626 -0.007122306 -0.009522601 -0.00801972
0.004531375 0.0057880734 0.0100005185 -0.012532611 0.0017627471 -0.007998006 -0.00081900915 0.003885256

network_body._body_endoder.seq_layers.2.weight f4 [128, 128]
00000000: bf34 493d 1e96 13bd cbbc 5ebd 596d 90bd
00000010: 5b11 18be 965a f83c f785 493d df80 2fbd
00000020: fdca 4b3e bb1d 813d cccd 9b3d 6cac 503e
00000030: 7a6c 30bc 1aaf 09bd c24f d23d 17f6 04bc
00000040: ce60 74bc 1672 63bd df21 563d 2f39 09be
00000050: f3bf f13c 6174 cfbc 25f0 263c 3c5f fd3c
00000060: 548c edbc 134e 363d c2ec b0bd 81b8 c8bd
00000070: f7cb afbb ee7d b9bd 2a1f ae3d 0685 4cbd
00000080: 56a5 ec3d 692c 2f3e da8a af3d 71a2 0abd
00000090: dc31 ee3d 0044 c13d e2b5 d23c d341 a6bc
000000a0: ffdb a5bd b4ed c8bd 5fdb a73c 6a7c 1e3e
000000b0: add8 81bd 9d10 c53d 3679 3cbd d91f a53c
000000c0: e50a be3d 7b8b a23c 0b4c 33bb e03a 38be
000000d0: 36dc 95bc 87ac 9c3a a267 023d 6a07 103e
000000e0: 7dcc 473d c76b db3a 74cf 7abc 441c 1bbe
000000f0: d47e a4bd 5c4d d03c 0744 4e3d cd9b 91bb
00000100: a4be a5bd 6077 c2bc 70aa 533d 27b6 373e
00000110: f270 19be 5048 363d bec5 26bc 2963 9a3d
00000120: 1d53 5a3d 2beb 28be e24b 933b 0611 ce3d
00000130: 5109 cebc fa6c 053d 305e afbc 2cde ddbc
00000140: c4c1 01be 746b 7d3c 59fb 2d3d 88bc 74bd
00000150: 0042 e0bd 1987 ad3c 753c 99bd 192c 0c3d
00000160: 3cd0 85bd cb78 0d3e 050b afbd e28d 813d
00000170: b8aa 70bd e22f c03d 359f a43d ffca c2bd
00000180: ae22 20bd 13db 5ebe 00f6 893d 142b 95bd
00000190: cb4a 09be 5c8b 00bd d498 fbbd bf80 243d
000001a0: 580d a83d 61a9 223d 525c 22be edc7 c4bd
000001b0: 7753 63bd f233 93bd f28b 20bd ef07 7e3b
000001c0: 254e 913d 1846 9f3a 48d2 07be 9f38 bf3d
000001d0: 8900 143d 5b6b 2bbd 87bc dd3d 87b5 cd3d
000001e0: c84c 733d 51a8 c13d f5ad bfbb 7f67 0a3e
000001f0: 04d4 acbd d500 b9bd 1a82 4f3d 443c fbbd
00000200: 2250 9fbd e078 d6bc 9c28 463e 1e5f 743e
00000210: 1b5f 0bbc 68cc 5dbd 50d3 95bd d024 013d
00000220: dcbb 213e 8c33 c7bd 82b6 443d a616 0cbe
00000230: d62e 97bd d5b4 3f3e 4404 4ebe faf3 a5bd
00000240: e576 76bc 5ad7 12bc 2acd 49bd 4a82 c1bc
00000250: ffa6 193d 9bb6 2abe ca2e a4bd 34bc 0b3e
00000260: 46f9 b53d e13e 113c d7ee 84bd b88d 23be
00000270: af53 ea3c bf9a e8bd 059f 8b3d b7b3 8e3d
00000280: 073d df3c f20d b33d 65d2 12be 9450 f93c
00000290: ca77 05be 4e8e 863d 3048 863c e6af ae3c
000002a0: 0c12 0fbd 09f4 7b3c 9515 453e a979 2ebd
000002b0: 5d15 d5bb 65bb c83d 6227 ba3d cd4c 7c3d
000002c0: 17e1 febc d785 e33d 4201 d23c 3958 023e
000002d0: f0c0 97bd 2f26 643d 0d85 e33d 0d00 7abd
000002e0: 7d33 4ebd be9b d6bd db1e 9cbd 929e b03d
000002f0: bcde 053e 0167 3db9 51d1 573d eb42 18bd
00000300: 3509 57bd 26b5 a83c a957 133e 63a9 153e
00000310: e70a 013e 087a ee3d cd8c 21be adf5 853c
00000320: ef13 7b3c c916 babd c3d9 a0bc 1fde 29bd
00000330: 0611 3dbd 8c25 f13d ccd0 0bbc 110b 22bd
00000340: 82ea 433d ddbb f3bd 1159 71bd ad87 173d
00000350: a81e e83d ebfd 26bc df59 2c3e a434 4bbe
00000360: 59ab 6dbc e90f 0e3c 5cbc f0bb 82ba 293d
00000370: fd2f 913d 9f54 6b3d 9e73 77b9 ea8c e7bc
00000380: c752 f83c cca5 ea3d f857 e53c 7755 f2bc
00000390: 905a 22bd b645 4eba 9078 003d 66f8 8abc
000003a0: 9cd9 9f3d a1f1 713c 8a4d 1a3e dc3e 33bd
000003b0: 87d7 c53d 4a9a cbbd 865d 11bd 6597 183e
000003c0: c5da 353e 2b04 163d 7d23 ac3d 6276 b8bd
000003d0: 0377 613c 7edc 293d 3604 91bc e6e1 fcbc
000003e0: 200a 82bd fdde 3c3a b1ad e03c d7a4 1d3e
000003f0: b338 113e 4133 2f3e e0c0 613d 51bf b23c
0.04912257 -0.036031835 -0.054379266 -0.070521064 -0.1485037 0.030316632 0.049200024 -0.04284751
0.19901653 0.06304499 0.07607612 0.20378274 -0.01076805 -0.033614255 0.10269119 -0.008115313
-0.014915658 -0.055528723 0.052278396 -0.1340072 0.029510474 -0.025324048 0.010189091 0.0309292
-0.028997578 0.04450805 -0.08638908 -0.09800816 -0.0053648907 -0.09057222 0.08502038 -0.04993155
0.11554973 0.17106785 0.08571406 -0.033846322 0.11630604 0.09436798 0.025721494 -0.02029506
-0.080986015 -0.09810963 0.020490346 0.15477148 -0.06340156 0.09622309 -0.046014033 0.020156788
0.09279422 0.0198419 -0.0027358558 -0.17991209 -0.018293481 0.0011953273 0.031837113 0.14065328
0.048779 0.0016740494 -0.01530825 -0.15147501 -0.08032003 0.025427513 0.050357845 -0.0044436217
-0.080930024 -0.023738563 0.051676214 0.1794058 -0.14984491 0.044502556 -0.010178981 0.075384445
0.05330192 -0.1649596 0.00449513 0.10061841 -0.025150927 0.03257463 -0.021407217 -0.027083479
-0.12671572 0.015467513 0.042476032 -0.05975011 -0.109500885 0.021182584 -0.074822344 0.034221742
-0.06533858 0.1381561 -0.08547024 0.0632589 -0.05875656 0.09384133 0.08038179 -0.09511375
-0.039095573 -0.21763258 0.06736374 -0.07283607 -0.13407438 -0.031382903 -0.12285009 0.040161844
0.0820567 0.039712314 -0.1585553 -0.09608445 -0.05549952 -0.07187642 -0.039195962 0.0038762053
0.07094983 0.0012151627 -0.1326381 0.093369715 0.036133323 -0.04185043 0.10826974 0.10044389
0.059399396 0.09455932 -0.0058495947 0.13516043 -0.08438876 -0.09033362 0.050661184 -0.12267354
-0.07778956 -0.026180685 0.19351429 0.2386441 -0.008506562 -0.054150015 -0.07315695 0.031529248
0.15794319 -0.09726629 0.048025616 -0.13680515 -0.0738198 0.18721326 -0.20118815 -0.081031755
-0.015042995 -0.008962477 -0.049267925 -0.023621697 0.037512776 -0.16671221 -0.08016737 0.13646013
0.08885436 0.008865089 -0.064908676 -0.1597203 0.028604357 -0.113576405 0.0681744 0.06967872
0.02725078 0.08742894 -0.14338072 0.03043393 -0.13033977 0.06570111 0.016391844 0.02132411
-0.03492932 0.015378007 0.19246514 -0.042596493 -0.006502791 0.09801368 0.09089543 0.06159668
-0.03111319 0.11109512 0.025635365 0.12728967 -0.07409847 0.055700477 0.11109362 -0.061035205
-0.05034207 -0.10478924 -0.07623073 0.08623995 0.13073248 -0.00018062817 0.052689854 -0.037173193
-0.052499015 0.02059419 0.14388908 0.14615397 0.12601815 0.11644369 -0.15776367 0.016352499
0.015324577 -0.09086377 -0.019635087 -0.041471597 -0.046158813 0.117747396 -0.008533668 -0.039561335
0.047831066 -0.119010665 -0.05892283 0.036994625 0.11333972 -0.010192375 0.16831158 -0.198443
-0.0145061845 0.008670785 -0.007346673 0.041437633 0.07089231 0.057453748 -0.00023598826 -0.028265435
0.030312909 0.114574045 0.027996048 -0.029581768 -0.03963715 -0.0007868664 0.031364977 -0.016964149
0.078051776 0.0147670815 0.15068641 -0.04376112 0.09660249 -0.09941538 -0.03548958 0.14901502
0.17759235 0.03662507 0.08405206 -0.09006955 0.013761285 0.041470043 -0.017702203 -0.030869436
-0.063495874 0.00072048587 0.027426573 0.15394913 0.14181785 0.17109396 0.05511558 0.021819742
