results/Drone2/Drone/Drone-3499950.onnx (onnx, 283599 bytes, 7 tensors)

action_model._continuous_distribution.log_sigma f4 [1, 4]
000000 9d 8c 7e be 25 22 6e be 79 d9 49 be 5f ff 94 be
       -0.24858327 -0.23255213 -0.19711865 -0.29101083

action_model._continuous_distribution.mu.bias f4 [4]
000000 1b 3a d1 bc 12 50 73 bc 43 5e 03 bd 0b 3a f7 bc
       -0.025540402 -0.014850633 -0.032072317 -0.030179044

action_model._continuous_distribution.mu.weight f4 [4, 256]
000000 dc e2 bd 3b 2c 74 60 3c 9b ee 88 3b 5a c5 26 bd
       0.005794866 0.0136995725 0.0041788346 -0.040715553
000010 9d 0b 52 3c 73 95 e1 3a 3c 2a 27 3d 4c 01 f8 39
       0.012820152 0.0017210677 0.040811762 0.00047303212
000020 85 81 26 3c e2 a8 53 bb cf 4d 91 3b 08 ab a0 bd
       0.010162716 -0.0032296707 0.0044343243 -0.078451216
000030 15 ef 48 3c 10 ac 9f 3c 14 08 c0 bc e5 1c 16 bc
       0.012264033 0.019491225 -0.023441352 -0.009162162
000040 61 84 02 bd e3 17 63 3d db e7 0a 3c 6f 23 7c 3c
       -0.031864528 0.055442702 0.00847813 0.015389307
000050 79 71 03 bc 5a f0 85 b7 af 02 e9 3b 21 d4 9e 3c
       -0.008022659 -1.5966758e-05 0.0071109156 0.01938826
000060 9f 69 4f 3c 03 c8 dd ba dc 26 e8 38 f7 64 fe 3b
       0.012659459 -0.001692057 0.0001106986 0.007763501
000070 d8 4c bf 3c fd 53 db 3c 8d 07 03 bb 6d 3d 03 bd
       0.023352072 0.026773447 -0.0019993514 -0.032041002
000080 8a b1 68 bc 5a b1 b3 3b 66 3c 60 3c 94 cc 74 bc
       -0.014202485 0.0054837884 0.013686275 -0.014941353
000090 91 7a 12 3d 93 0a e0 3c 43 a4 ff ba 20 3d e8 bc
       0.03576142 0.027348792 -0.001950391 -0.02834946
0000a0 4c 8a cc bc 40 10 21 bc 2c 01 b3 39 aa 02 ed 3b
       -0.024968289 -0.009830534 0.00034142414 0.0072329836
0000b0 2c 5f 91 bb 67 42 7f 3c 7a 59 53 3c 94 52 a5 bb
       -0.004436394 0.015579796 0.012899751 -0.0050452445
0000c0 7b 29 4e 3c e4 ed 56 ba 3b 23 63 3d 26 95 d2 bc
       0.012583132 -0.00081989006 0.05545352 -0.025705885
0000d0 66 3a a8 3c 0d a9 7f 3c 18 cc 4c 3c c3 4d 85 bc
       0.020535659 0.01560427 0.012499832 -0.016272431
0000e0 e5 4d 71 3c 2c 0e 2f 3c 24 3d 20 ba f4 93 55 3b
       0.014728044 0.010684531 -0.0006112626 0.0032589408
0000f0 33 05 d0 bc 0e 98 75 3c af f4 81 3c 92 a6 04 3d
       -0.025393104 0.014989866 0.015863745 0.032385416
000100 5b 1a 3b bc 7f c5 d8 3c 22 a2 0a 3c 31 89 13 3d
       -0.011419858 0.026461361 0.008461507 0.036019508
000110 8f a8 9a 3c 1c 7d 43 3d 51 91 a5 bb 58 f5 28 3b
       0.018879203 0.047726735 -0.0050527235 0.0025781002
000120 09 b3 ce 3a 0a 2b a7 3c 14 45 0b bc b9 9c 12 3c
       0.0015769909 0.020406265 -0.008500356 0.008948498
000130 4d b0 08 bc a5 0a 27 3b 33 95 be bb 2e e1 6b bb
       -0.008342815 0.0025488522 -0.005816126 -0.0035992372
000140 de eb ca bb bf 8c 01 bd b5 dd ed bc f8 b0 03 3b
       -0.0061926683 -0.031628367 -0.029036382 0.0020094495
000150 ca 6d 66 3c 76 ab e7 bb 4d 97 58 3d 1b c0 43 bb
       0.014064262 -0.0070700003 0.052878667 -0.0029869142
000160 e5 e8 d8 3c c1 20 da 3c ff 55 47 bc f7 38 a7 ba
       0.02647824 0.026626946 -0.012166499 -0.0012758066
000170 a9 29 00 3c 18 e0 63 3c 55 c9 ee 3a b0 0e e0 3a
       0.007822433 0.013908409 0.0018217961 0.0017094221
000180 14 32 6a bc 0c a8 84 bc d6 26 b3 bb c2 f3 5d 39
       -0.014294166 -0.016193412 -0.005467276 0.00021167009
000190 90 42 99 bc 2c 51 3d ba 3c 42 55 bd 7f 0a d9 bc
       -0.018708497 -0.00072218734 -0.05206512 -0.026494263
0001a0 9e 73 fb bb 99 c1 84 bb ab 8d 68 3c 56 0a ac 3c
       -0.0076736948 -0.004051399 0.0141939325 0.021001022
0001b0 bc c1 7b 3c 2c f4 10 3c 84 42 82 bc 46 16 c0 bb
       0.015366014 0.008847278 -0.015900858 -0.00586203
0001c0 11 c6 29 bb 6f df 71 3c be 80 63 bc 39 96 ae ba
       -0.002590541 0.014762743 -0.013885675 -0.0013319916
0001d0 5a 74 26 3d 0b 70 4e 3d a2 4c 87 3c 5d e6 ce bc
       0.040638305 0.05039982 0.016516034 -0.02525633
0001e0 1c 38 8d 3c 1d df 8e 3c 5c 29 89 3c 91 60 b8 3c
       0.01723867 0.017440373 0.016743354 0.022506984
0001f0 ff 86 23 3d 51 cc 36 3c d1 5f 43 3b e2 b5 16 bb
       0.039923664 0.011157111 0.002981175 -0.0022996594
000200 fa 14 ff 3c 98 a2 4e 3b 4e 2f 55 bb d5 2e de bb
       0.031137932 0.003153002 -0.0032529416 -0.006780485
000210 0c e6 36 3c 32 b9 d3 3b c9 54 e4 bc 88 da 0f bc
       0.011163246 0.006461286 -0.02787246 -0.008780129
000220 87 0c a1 3c ad 43 fb bc d0 7c be 3b be be 7b bc
       0.019659294 -0.030671919 0.0058132187 -0.015365301
000230 fd 81 1c 3d de ed 3b 3c 0f 8c 1a 3c 73 9f 75 3b
       0.038209904 0.011470286 0.009432807 0.0037479072
000240 5d 51 81 3c e3 a5 7a bc fb 5b db bb 48 30 7e 3c
       0.015785867 -0.01529834 -0.0066943145 0.015514441
000250 1a 5d 3a 3c 3c f5 14 3d c1 33 e6 3c 97 ba 04 bd
       0.011374736 0.036366686 0.02810085 -0.03240451
000260 9e 6b 19 bc 8a 7e 2d bc 93 15 ba bc 0a 7b f0 3c
       -0.009364037 -0.010589251 -0.022715366 0.029355545
000270 c9 cb cf bb 62 a4 a1 bb 82 1c 65 3b d0 55 07 3c
       -0.0063414318 -0.004932926 0.003495962 0.008260205
000280 5a 77 05 bd ea c8 dd bc 89 2f b4 bc 07 2c 28 3c
       -0.032584526 -0.027073342 -0.021995323 0.010264403
000290 1d 1d 2c bc 78 d6 a6 ba af 8d 95 3b 32 c8 13 3c
       -0.010504988 -0.0012728712 0.004564009 0.009019898
0002a0 6e 07 20 3c 1c c5 15 bd 0f ba 3f bc d2 3b e9 bc
       0.009767396 -0.03656493 -0.011702075 -0.028470907
0002b0 5c f4 8f 3c 81 6a 82 3c 12 b1 4c bb e4 58 1a ba
       0.017572574 0.015919926 -0.0031233472 -0.00058878795
0002c0 12 fb 6e bc 98 bf 7a 3c a1 0c 52 3c 73 4a 8e ba
       -0.014586227 0.015304469 0.012820394 -0.0010855928
0002d0 07 b6 b6 3a b9 a5 29 3b 94 95 64 3c 16 91 0e bd
       0.0013939746 0.0025886132 0.013951678 -0.034806333
0002e0 21 b9 aa 3c f2 1b 28 bd 3e aa 9e bb 77 ac 86 3c
       0.02084023 -0.041042276 -0.004842072 0.01643966
0002f0 10 c1 bd 3b 71 c0 c8 bc 06 c7 87 3c f1 58 00 bb
       0.005790837 -0.024505826 0.016574394 -0.0019584263
000300 b7 7d 4c 3d 4b ca 85 3c e9 48 d8 bb 16 c1 83 3c
       0.04992458 0.016331812 -0.0066004884 0.016083281
000310 eb 6e cc bc 9c ba d2 3a bf 41 61 bc 19 99 a0 bb
       -0.024955234 0.0016077342 -0.013748585 -0.004901063
000320 32 69 84 bb a8 ef cc 3c 43 4a 83 3b cf ba c1 bb
       -0.0040408606 0.02501662 0.0040066554 -0.005912162
000330 5a c5 af bc 05 a1 99 bc df fd 3c 3c 06 33 e5 3b
       -0.02145641 -0.018753538 0.011535137 0.006994608
000340 6d 6e 23 bc f0 ab ba 3b f3 86 3c bc 24 6e b7 bc
       -0.009975058 0.005696766 -0.011506784 -0.022391386
000350 9e b0 16 39 97 ea 4f 3d 1d af 33 bc db dd ac 3c
       0.0001437091 0.05076083 -0.010967043 0.021101883
000360 3f c3 81 bc e6 ee a1 3c 4f b5 b0 3c fc b5 14 3c
       -0.01584017 0.019767236 0.02157083 0.009076592
000370 20 82 80 bc 5b 8e 26 3d f2 41 3c bc 79 6e 22 3a
       -0.015687048 0.040663105 -0.011490332 0.0006196271
000380 1a a3 64 3d 38 9c ac 3c 06 9a 88 ba aa 03 8b 3b
       0.05581961 0.021070585 -0.0010421879 0.00424238
000390 a8 ca 86 bc c4 34 78 3d 2e 88 8c 3c 8c 8a 8e 3c
       -0.016454056 0.060597196 0.01715478 0.017400049
0003a0 16 49 81 3c ca 9c 06 bc 46 8e 99 bb e9 8d ab 3c
       0.01578192 -0.008216092 -0.00468615 0.020941691
0003b0 20 a5 4e bb 7c 73 68 3d 0e 91 74 bc cb b1 61 3c
       -0.0031531528 0.05675076 -0.014927162 0.013775299
0003c0 6e 78 a7 3c 0c 21 21 bb c4 60 19 3c 76 e8 91 3c
       0.020443168 -0.0024586348 0.00936145 0.017811041
0003d0 3b a3 2e 3c be 32 d2 3c 9e 1e 96 3b 03 29 2b b9
       0.010659034 0.025658961 0.0045812866 -0.00016323109
0003e0 b2 95 15 bb 0f 7a 0e bd be 3f c2 3b 22 f0 c1 3a
       -0.002282482 -0.034784373 0.005928009 0.0014796297
0003f0 e8 0e 15 bd 54 1b d7 bc c9 7c 2e 3c 13 9f 18 3c
       -0.03639117 -0.026258148 0.010649868 0.00931527

network_body._body_endoder.seq_layers.0.bias f4 [256]
000000 04 71 01 3d 78 2c 2f bd 39 45 99 3c c0 11 75 3d
       0.03160192 -0.042767018 0.018709766 0.05983138
000010 1b 23 db bc 03 8f ff bc 8d 59 da bc cb 30 83 3c
       -0.026750138 -0.031196123 -0.02665403 0.016014477
000020 bc fd 10 3d 1f c7 1f 3b de 51 dd 3b 2b fc fa bc
       0.03539823 0.002438016 0.006754144 -0.030637821
000030 b5 3b 0d bd cb 10 8b 3b f9 bc e1 bc 34 3b 26 3d
       -0.03448077 0.0042439452 -0.02755593 0.040583804
000040 3c 38 61 3c d3 b7 4a 3d 20 79 7f bd d4 38 d5 bc
       0.0137463175 0.049491715 -0.062371373 -0.026028074
000050 ea 85 82 bc 30 6f ed 3c 29 cc 02 3d f7 cc f4 3a
       -0.015932996 0.028983682 0.031932984 0.0018676807
000060 4b cf 8a bc 9c 7b 7f 3b 66 e0 29 bd 27 f5 97 3a
       -0.016944548 0.003898359 -0.04147377 0.0011593447
000070 62 f9 0d 3d 45 1b 06 3d f9 40 c7 3c 9d 63 2e 3c
       0.034661658 0.03274085 0.024322974 0.010643867
000080 db ef 84 3c d7 e6 04 3d e6 73 59 3c 1a c0 3a 3b
       0.016227653 0.03244671 0.013272261 0.002849585
000090 9a 9f 38 bb 12 ee cb 3c ba 9e aa 3c b8 96 92 3b
       -0.0028171302 0.024893794 0.02082764 0.0044735335
0000a0 84 fe 3b bc 63 e0 87 3c ba 6a 3f 3c d8 c0 8d 3d
       -0.0114742555 0.016586488 0.01168316 0.06921548
0000b0 cb 15 13 bd 10 0c 0a 3d fe 7c 83 3b 76 43 85 3c
       -0.035909455 0.03370291 0.004012703 0.01626752
0000c0 c6 1f fc bc 2f 41 2d bd 39 92 82 bc 0d 11 54 3c
       -0.03077687 -0.042298492 -0.015938865 0.012943518
0000d0 70 47 16 3c df 4b 0d 3d f8 60 2c 3b 66 de bd 3b
       0.009172305 0.034496184 0.0026302915 0.005794334
0000e0 2f 04 9b 3c 89 c0 fe 3c 5b c6 25 bd 59 d0 20 3b
       0.018922893 0.031097667 -0.04047237 0.0024538247
0000f0 b2 b6 0d bd f9 a3 29 3d 43 06 11 bd a6 31 c4 ba
       -0.03459806 0.041416142 -0.035406362 -0.001496841
000100 c0 00 a2 ba 5c 4e 6f 3b 75 ef 96 bc f1 c1 7e bd
       -0.0012359843 0.0036515212 -0.018424729 -0.062196676
000110 49 d6 15 bc 2e 37 10 bd ef d3 b9 3b 7d 00 41 bc
       -0.009145328 -0.035208873 0.0056710164 -0.011779902
000120 13 41 a7 bc b4 15 fb 3b 32 df b1 3c dc f6 19 3c
       -0.020416772 0.0076624993 0.021712873 0.009397235
000130 e0 4f b1 bc 2d 7e 0d ba a4 84 3a 3b d2 0b 54 3b
       -0.021644533 -0.0005397525 0.0028460408 0.0032355678
000140 d3 a4 5e bc 44 f7 11 bb 99 37 12 3d 25 a6 94 3d
       -0.013589102 -0.0022272626 0.035697553 0.07258252
000150 1d d9 d1 3c 24 ad e9 bb 05 3f aa bc c9 4c a9 bc
       0.025616223 -0.0071312357 -0.020782003 -0.020666497
000160 64 5a 19 3d 9d 9a f6 3b e4 5a 50 3b c5 93 2c 3c
       0.03743972 0.0075257556 0.0031792456 0.010533278
000170 a9 a6 b9 b9 6c ea 08 3d 2d 1c 69 bc 4c 99 1b 3d
       -0.0003541012 0.033426687 -0.014227909 0.037987992
000180 95 ef 64 3d f3 31 2e 3d d6 21 ec 3c 91 23 13 3d
       0.055892546 0.042528104 0.028824728 0.03592259
000190 0d 7c c0 bc 71 7c d6 3b e1 87 c5 bc c5 6b df 3d
       -0.023496652 0.0065455963 -0.024112644 0.10909227
0001a0 ac d0 5f bc fb fb 71 bd f3 83 96 3d 85 3c e4 3b
       -0.013660591 -0.059078198 0.07349386 0.0069652223
0001b0 a8 3f ba 3c 67 90 e5 3b 64 f9 81 3d 1a 94 21 3d
       0.022735432 0.0070057395 0.063463956 0.03944788
0001c0 52 76 64 3d d1 7a cb 3c ec 14 89 3d a3 e3 0a bd
       0.0557769 0.024838837 0.06693444 -0.033908498
0001d0 fc e3 ce bb 60 a3 e4 3c 3a 5e a4 bb ff d2 3c 3d
       -0.006313799 0.027909935 -0.0050161155 0.04609966
0001e0 f9 dd a1 3b 87 54 04 bd fd 97 6c bb f7 aa bf 3c
       0.0049397913 -0.032307174 -0.0036101334 0.023396952
0001f0 b5 41 f4 3c 98 23 08 bd c9 bf e8 bc 32 0a 25 bc
       0.029816488 -0.03323707 -0.028411763 -0.0100732315
000200 29 d5 e3 bc a7 8b ab bb 2f 58 0f bd 02 5e bb ba
       -0.027811604 -0.0052351537 -0.034996208 -0.0014294984
000210 5c 20 b8 bc bf b9 a9 bb d9 e8 8b bc c7 ed 85 bc
       -0.022476368 -0.0051796134 -0.017078804 -0.016348733
000220 b0 73 cb 3c 2e 1f 9e 3b 57 08 be bb 2e 1f 61 bd
       0.024835438 0.0048254943 -0.005799334 -0.054961376
000230 cb 17 9f 3d a1 8e 7d bc 1a 05 4c 3c 61 cc 10 bd
       0.0776821 -0.0154759 0.012452388 -0.03535116
000240 11 3a 0e bc 94 15 60 bb a4 89 1f 3c bf 0b 29 bb
       -0.008680836 -0.003419255 0.009737406 -0.0025794355
000250 b3 7c 05 bd 59 52 69 bb e9 9a 18 bc a7 8a 90 3b
       -0.032589626 -0.0035602062 -0.009314277 0.00441106
000260 77 b1 30 3d 9d 55 6b 3d 56 3f 64 3b e4 ea 39 3c
       0.043137994 0.057454694 0.003482779 0.011347506
000270 71 9e 16 bc 61 18 a4 bb 87 e5 ba bb be d9 5b 3d
       -0.009193049 -0.005007789 -0.0057036313 0.053674452
000280 c0 da 34 3c 2f 13 8c bc d9 d8 0c 3c 10 aa 04 bc
       0.011038482 -0.017098991 0.008596622 -0.008097187
000290 02 cf b3 bc fe a8 87 3d 9f 81 66 bc fa a4 90 3b
       -0.021949295 0.066240296 -0.01406899 0.004414198
0002a0 a8 d0 37 bc 0c e8 b7 bb b0 2c a9 bb 42 a4 20 bd
       -0.011219181 -0.005612379 -0.005162798 -0.03921915
0002b0 34 81 6f bc 6f 56 8a bb 7c b6 57 3c 95 56 1d bd
       -0.014618207 -0.0042217295 0.013166066 -0.03841265
0002c0 4e 4c fb bc d9 14 16 bd 09 32 67 bc 83 7b 91 bc
       -0.030676033 -0.036640976 -0.01411105 -0.01775909
0002d0 41 3e b8 bc f8 cf a9 bb 92 91 45 3c e8 01 0f 3b
       -0.022490622 -0.0051822625 0.012058632 0.0021821205
0002e0 c9 1d 17 3d 7a a2 cd 3a 6c 5b 7b 3d b5 86 7e bc
       0.03689364 0.001568868 0.061366484 -0.015535046
0002f0 59 53 51 3d 4c f7 3f 3d c7 f3 3b 3d 61 dc 88 3c
       0.051104877 0.0468667 0.04588678 0.016706647
000300 0f e8 30 bd 5a 5c 66 bc 52 ef f9 3c 0f 26 67 3b
       -0.04319006 -0.014060104 0.030509625 0.0035270487
000310 2c 19 f1 bc 3e 6c 5c bc 55 bc b6 3c e3 86 f0 bc
       -0.029430948 -0.013453541 0.0223066 -0.029361194
000320 e9 4d 4e bc a6 bd 9e bc b8 d9 cd bc 17 33 56 3c
       -0.012591817 -0.01937754 -0.02512823 0.013073704
000330 32 0a 86 3d ee 8b f0 3c f5 78 15 3c 83 60 f8 bc
       0.06544913 0.029363599 0.009123077 -0.030319458
000340 64 22 00 bd 29 cc 82 3c dc e2 bf 3b 1c 1c 97 3b
       -0.031282797 0.015966492 0.005855901 0.004611505
000350 f4 a9 30 3d c3 e7 82 bc db 91 f4 3b 58 f2 85 3c
       0.04313083 -0.015979653 0.0074636764 0.01635091
000360 34 ec b8 3b 29 f5 58 bc 35 d5 67 bc 06 4f a6 3c
       0.005643392 -0.0132420445 -0.014149954 0.020301353
000370 fb 9e e1 3b 71 da 55 bd ac fd a1 bc d8 4b a9 bc
       0.006885407 -0.052210275 -0.01977428 -0.020666048
000380 1f ec 25 bc 01 2b 49 bd 8e fa e0 bb 5b 62 8b 3d
       -0.010127096 -0.049113277 -0.006865806 0.06805869
000390 7a ae 73 bd 12 23 b1 3b a6 73 3f bd 20 36 50 3c
       -0.059492566 0.005405792 -0.04674115 0.012708217
0003a0 c8 72 66 bc 70 a8 0d bd a3 5a 91 bc 5e 45 13 3d
       -0.014065452 -0.034584463 -0.017743414 0.035954826
0003b0 32 89 07 3d 1b 29 c8 bc 05 33 60 3d fe 04 a0 bc
       0.033089824 -0.024433663 0.054736156 -0.01953363
0003c0 8c d0 f6 3c f3 ed 0a 3c e7 6e 4d 3c fc e3 5e 3d
       0.03012874 0.008479583 0.012538648 0.05441664
0003d0 21 9e 9e 3c 19 f0 e9 3c 5a ef 7f bc 58 3d 54 38
       0.019362511 0.02855687 -0.015621031 5.060187e-05
0003e0 b0 3b 60 bb 33 a8 1f ba 1b 95 5c 3d 19 9e 13 bd
       -0.0034215264 -0.0006090432 0.053853136 -0.036039446
0003f0 6c 7b 43 ba 55 6d 27 3d 68 d1 38 3d 6d 38 35 3c
       -0.0007457051 0.04087575 0.04512158 0.011060816

network_body._body_endoder.seq_layers.0.weight f4 [256, 13]
000000 7e 03 03 3e 3c a2 0e 3f ba b0 03 be 1e 2f 5c 3e
       0.12794301 0.557163 -0.12860385 0.21502349
000010 ce c7 12 be 56 30 ef 3d 59 e5 1a bf 30 8e b6 3d
       -0.14334032 0.11679141 -0.60506207 0.08913839
000020 ea e5 4d be fd c2 0d 3f 05 db 4d 3e 8c e3 2e 3f
       -0.20107237 0.55375654 0.2010308 0.6831596
000030 dd be af be c9 68 1c 3e 7c 28 d1 3d ca 41 c5 3e
       -0.34325305 0.15274347 0.102128 0.38526756
000040 04 27 95 bd d3 8a a0 3e 45 c3 40 bf bc 39 e4 3e
       -0.07282832 0.31355914 -0.7529796 0.44575298
000050 a6 df ab be e3 54 b3 be 8f 16 90 bc 4f 5b 66 3d
       -0.33569068 -0.350257 -0.017588882 0.056239422
000060 92 76 c2 be 65 dc e6 be 12 0b d8 3d 2e c4 18 bc
       -0.37981087 -0.45090023 0.105489865 -0.009324117
000070 44 68 d0 3e 78 0e 47 be ac 3e 68 3e fa dd 1c bd
       0.40704548 -0.19439113 0.22680157 -0.03829763
000080 50 1a 87 be e2 88 b1 3e 5f 4d 45 bf 9d 8b 29 3d
       -0.26387262 0.34674746 -0.77071184 0.04139291
000090 3a 31 88 bc 50 1d d4 3e 4d e3 14 be a7 c6 af bd
       -0.016625036 0.41428614 -0.14539833 -0.08582812
0000a0 8d 00 9d bd 25 43 a5 be 27 12 10 be aa f7 f5 bc
       -0.07666121 -0.3227779 -0.14069425 -0.030025322
0000b0 da bb 75 be 90 20 bd bc f1 58 3d bc d0 78 fe 3e
       -0.23997441 -0.023086816 -0.01155685 0.49701548
0000c0 95 48 a3 be ac 5d fa be b7 cc 40 3e eb 3b 44 be
       -0.31891313 -0.4889959 0.18828093 -0.19163482
0000d0 5a 69 29 3c 56 ac 2f 3f 33 64 35 be bb a0 c1 3e
       0.010340059 0.6862234 -0.17714004 0.3781794
0000e0 42 ec 46 be a0 5d e7 3d ec b2 91 3e 5b 6a b7 be
       -0.19426063 0.112971544 0.2845682 -0.3582333
0000f0 0a 88 fb bd 1f 85 ed be ee 6e 77 3e 77 1c dd bc
       -0.12281807 -0.46390626 0.2416341 -0.026991112
000100 d0 fd dd be 01 88 d3 be b4 7a 49 3e 8c e1 01 3c
       -0.43357706 -0.413147 0.19675714 0.00792731
000110 81 75 9c be 30 f0 b4 bd 59 69 53 3d 72 77 f7 3e
       -0.30558398 -0.08834875 0.05161414 0.48333317
000120 f6 53 c1 be b2 0a 08 3f a9 45 2b 3d 56 1f 30 bb
       -0.3775937 0.5314132 0.04181448 -0.0026874146
000130 83 0a 5c be 63 f6 d2 bc 53 8a a8 be 7e 16 ae 3e
       -0.21488385 -0.025752252 -0.32918033 0.34001535
000140 40 be 83 bc 97 d5 fb 3e 63 82 c9 3e 81 6e 68 3d
       -0.01608193 0.49186394 0.3935729 0.05674601
000150 15 59 a5 3e f6 08 24 be df 79 a1 3e 0c 93 16 3e
       0.32294527 -0.16019043 0.31538293 0.14704531
000160 72 b3 85 3d 35 c6 8b 3d dd ab 01 3f 61 be 90 3d
       0.06528367 0.06824914 0.5065287 0.07067562
000170 f9 45 a1 3e 16 c2 77 be 52 7d 24 3e 7b 4a 3d be
       0.31498697 -0.24195132 0.16063431 -0.18485443
000180 45 7d 90 be ad 70 c0 3e 4c 2d 9e 3d 8d 3c 46 be
       -0.28220573 0.37585965 0.077234834 -0.19359036
000190 11 d4 57 3e 35 88 1d be a9 1e c4 3c be 6a 76 3e
       0.2107699 -0.1538399 0.023940401 0.24064156
0001a0 16 55 c9 3e 5d 2c bd be 36 13 53 be f7 24 68 bd
       0.39322728 -0.3694791 -0.20612797 -0.056675877
0001b0 1b d9 17 bd 81 bb 1c 3c e4 57 8b be 3d a8 d5 be
       -0.037072282 0.009566189 -0.27215493 -0.41729918
0001c0 23 35 91 3e eb 5e fd 3e 8c 47 1a bf a6 25 2c bd
       0.28360853 0.4948648 -0.6026542 -0.04202809
0001d0 b7 70 f8 3d df 30 3d 3e cb 71 ca 3e 21 86 5f bd
       0.12130874 0.18475674 0.39539942 -0.054571275
0001e0 d2 a9 b3 3e cf d1 ce 3e 49 3e 10 be 65 22 73 bc
       0.350905 0.40394446 -0.1408626 -0.014839743
0001f0 c1 3a d8 3d 43 ab fd bd 99 ea bb 3e 96 59 b6 3e
       0.105580814 -0.12386181 0.3670242 0.35615224
000200 40 c8 27 3f 96 51 f4 3e ff 6c 5c be 65 85 27 be
       0.6553993 0.47718495 -0.21525954 -0.1635948
000210 34 8e 15 3f 66 cb e9 bd 93 99 66 3d 90 48 9f be
       0.5842011 -0.11415748 0.056298804 -0.31110048
000220 0a 2c a1 bd 3e c2 1b bd d5 31 c6 ba f8 2d 18 bf
       -0.07869728 -0.03802704 -0.0015121052 -0.5944514
000230 10 10 50 3e af 4d 7c be 04 d6 ca bd 14 11 de 3d
       0.20318627 -0.24639009 -0.099041015 0.10843101
000240 f4 98 64 be c0 3b 77 3e 6e 33 9d 3e 7b 83 13 3f
       -0.22323972 0.24143887 0.307033 0.576225
000250 a6 05 2a bd 42 59 89 3e 79 52 88 bd 75 98 84 be
       -0.041509293 0.2682591 -0.066563554 -0.25897565
000260 e8 23 99 be a1 74 4a bf f6 70 aa be f9 dc b7 bd
       -0.29910207 -0.7908421 -0.33289307 -0.08977694
000270 78 d6 21 bf b7 b9 9e be 11 92 d8 bd 94 81 c1 3e
       -0.6321788 -0.31001064 -0.10574735 0.37794173
000280 ed be a0 3e 49 2b 55 3e ce ef 44 3e 52 c1 9d be
       0.31395665 0.20817293 0.19232103 -0.30811554
000290 4e 56 8b 3d 70 20 28 be 1f c2 54 be 8b fe ac be
       0.06803571 -0.16418624 -0.20777176 -0.3378795
0002a0 e0 6e 36 bd 04 8c b0 3e 70 d3 5d 3d 31 b8 07 3f
       -0.044539332 0.34481823 0.05415672 0.5301543
0002b0 8a 1e da be 74 b5 ae be 52 46 16 bf 5a a7 61 3e
       -0.42601424 -0.34122813 -0.5870105 0.22036496
0002c0 36 fb 1d bf dd 86 3c be a4 7d 3c 3d ee 72 26 3d
       -0.6171144 -0.18410821 0.046018258 0.04063695
0002d0 26 26 bb be 68 69 77 3e 75 06 3d 3e eb a8 37 be
       -0.36552542 0.24161303 0.18459494 -0.17935531
0002e0 37 ad a0 3c 1b 43 11 bf 80 76 11 3f c2 b0 ad 3d
       0.019613845 -0.5674302 0.5682144 0.084809795
0002f0 d1 f7 ca be 08 c6 a1 be 17 f8 c7 3d a0 2b 5d 3e
       -0.39642194 -0.31596398 0.09764116 0.21598673
000300 cb fa bc be ca da 15 be 8b 95 fc 3c 1a db ba 3e
       -0.3691009 -0.14634243 0.030833026 0.36495286
000310 88 68 36 3d ee 52 a6 be f7 6c 39 be 8a 24 26 bd
       0.044533283 -0.32485145 -0.18107973 -0.04056219
000320 fa 31 20 3e aa ea 1a 3f 9f 22 0d 3e 3c 30 82 be
       0.15644065 0.6051432 0.13782738 -0.25427425
000330 f9 8e 10 3f 03 9e b6 bd 5c a6 90 3e 13 6f 39 3e
       0.5646816 -0.08916857 0.28251922 0.18108778
000340 d0 1b 32 bd 56 eb 49 be a6 7e 42 bd 5f 15 12 3e
       -0.043483555 -0.1971868 -0.047484063 0.14265965
000350 57 14 a5 be d2 40 0e bf 23 05 0d 3e 61 dd 1e 3e
       -0.3224208 -0.5556766 0.13771491 0.15514137
000360 5b fc e7 3d d6 8d 48 be 56 0e 9f be 2e 90 f4 3e
       0.1132743 -0.19585356 -0.31065625 0.4776625
000370 d1 c4 8e 3a 09 15 53 3e 78 16 8d 3e 87 32 44 3e
       0.0010892396 0.20613493 0.27556205 0.191599
000380 a5 52 09 3c aa f8 15 bf 5e 25 93 be 0f 56 a3 be
       0.00838152 -0.58582556 -0.28739446 -0.31901595
000390 b2 f2 59 3c da 15 8d be e6 9a 03 3e 13 36 24 be
       0.013302492 -0.27555734 0.12852058 -0.16036253
0003a0 06 9d 06 be 88 e8 79 bf e1 d8 50 3d 0f 2f dd 3e
       -0.13145837 -0.9762044 0.05098808 0.43199965
0003b0 13 19 e0 bc d4 71 75 3e 48 c6 d9 3e e0 e3 27 3e
       -0.027355706 0.23969203 0.4253409 0.16395521
0003c0 cc d2 13 3f 44 fd a3 be 81 d8 fa bd 06 b9 25 be
       0.57743526 -0.32029164 -0.12248326 -0.16183862
0003d0 7c 72 b5 bd 12 6c a7 be dc d9 2b 3e 27 eb 2d 3e
       -0.08859727 -0.3269964 0.16782326 0.16984235
0003e0 6f 1e a5 3e 5a f2 31 be 9e e7 04 3f 38 bb 8c bc
       0.3224978 -0.17377606 0.5191592 -0.017179117
0003f0 1b 99 78 3e c8 04 34 3e 37 d3 ca be 26 6e ba 3e
       0.24277155 0.17579949 -0.3961427 0.36412162

network_body._body_endoder.seq_layers.2.bias f4 [256]
000000 30 62 50 bc da 33 bf 3c 69 eb 77 bc d4 4c b2 3c
       -0.012718722 0.023340154 -0.01513181 0.02176515
000010 0c 8a 1b 3d fd a2 ab bc 1f 32 93 bc fa 20 cd bb
       0.03797345 -0.020951742 -0.017968236 -0.0062600346
000020 a0 ff cc bc b5 52 3f 3c 8d db 01 3c 76 b1 3a 3d
       -0.025024235 0.011677434 0.00792588 0.045579396
000030 51 bb cc bc ea 0f 50 3c 99 43 bb 3c 90 74 d4 bb
       -0.024991663 0.012699107 0.022859382 -0.006483622
000040 04 ec b3 3b 47 83 cb bc 9a b6 04 bd b8 75 eb bc
       0.0054907817 -0.024842871 -0.032400705 -0.028742656
000050 4d 81 92 3b 4e 29 b7 3c 3b 1c 06 bd a3 c8 8f bc
       0.0044709803 0.022358563 -0.032741766 -0.017551726
000060 d3 51 94 bb 16 db 68 b9 18 f0 bc ba ce 67 c1 bc
       -0.004526356 -0.0002220686 -0.0014414815 -0.023609068
000070 33 e8 07 bd 25 cc 55 bc e7 fb 60 3b 6d 59 3f bb
       -0.033180427 -0.01304916 0.0034329833 -0.002919759
000080 82 0a 73 3c 33 24 4a bc c8 62 2e bc a9 f0 c5 3c
       0.014834048 -0.012337732 -0.0106436685 0.024162607
000090 b7 50 5e bc 60 34 98 bc 11 77 f1 3b df ce 83 3c
       -0.013569049 -0.018579662 0.00736893 0.016089855
0000a0 56 9c 9c 3b 22 ad 14 3b 10 a6 75 bc f5 75 2a bc
       0.004779379 0.0022686203 -0.014993206 -0.0104041
0000b0 51 4f 08 3b 54 13 b9 3c 0e 19 d1 bc fd c4 92 bb
       0.002079923 0.022592224 -0.025524642 -0.0044790492
0000c0 e2 0e e8 ba f8 70 c6 bc ab 4d 0d 3c 11 d8 8c 3c
       -0.0017704631 -0.02422379 0.0086244745 0.017192872
0000d0 c0 7b 2f bc f6 f5 ae ba 40 53 fb bc 7b 02 cb 3a
       -0.010710657 -0.0013348449 -0.030679345 0.001548841
0000e0 e1 7c 35 3c f6 49 d8 3b f9 cb aa bc f4 80 86 bc
       0.011077137 0.0066006137 -0.020849215 -0.016418912
0000f0 51 88 ec bb 42 3a f5 bc 56 b6 23 bd 94 b7 b4 bc
       -0.0072183986 -0.029935006 -0.03996881 -0.022060193
000100 34 85 ee bb 1a 10 e0 bc 0c 8e 3a bd 8b bb 0d 3d
       -0.0072790626 -0.027351428 -0.045545623 0.034602683
000110 f4 cc a0 39 0f 4f 5b bb 28 82 e8 bc bd 7e d6 bc
       0.0003067028 -0.003346387 -0.028382376 -0.02618348
000120 04 c6 46 bc 24 05 c6 bc 97 9d f2 bb 04 b5 b0 bc
       -0.012132172 -0.024172373 -0.00740404 -0.02157069
000130 97 fe 07 3c c8 7b b2 3c e6 89 3a bc bc 49 58 bb
       0.008300445 0.02178754 -0.011385417 -0.0033002933
000140 83 bc 10 3d 4c 41 30 3c 4a 1e ed 3b 57 d7 86 3c
       0.03533603 0.0107577555 0.0072362768 0.016460104
000150 3a 12 0c 3c 10 8f 99 bc 79 42 35 bc d6 3a 1a 3c
       0.008549267 -0.018744975 -0.011063212 0.009413442
000160 0b 79 81 3c ed d9 58 bc d0 57 7d bb 57 5d 9c bb
       0.015804788 -0.013235551 -0.0038657077 -0.004771869
000170 34 4f fa bc 00 a3 13 3c 27 e9 62 bc 71 f7 b8 bc
       -0.030555345 0.00901103 -0.013849533 -0.022578927
000180 2f 95 57 3c 99 28 48 3c ba b3 cb 3c 0c 78 75 bb
       0.013158127 0.0122167105 0.024865974 -0.0037455587
000190 85 a4 af 3b e0 12 70 3b c0 f8 57 3c 92 b1 23 3d
       0.0053601884 0.0036632344 0.013181865 0.039964266
0001a0 96 94 ef bb 78 4a f5 bb e0 6f 0c bc f6 14 9b bb
       -0.007311414 -0.007485684 -0.008571595 -0.0047327233
0001b0 43 3f b8 bc 74 ce dd bb b5 a7 33 bc 92 d1 84 bc
       -0.022491103 -0.006768996 -0.010965277 -0.016213212
0001c0 73 eb af 3c 9a 07 72 bc f8 28 70 bc a6 62 ab bb
       0.021474576 -0.01477232 -0.014658205 -0.0052302657
0001d0 60 5c ca 38 2b cf f9 3a 14 a2 9c bc 68 18 8d 3c
       9.649317e-05 0.0019058933 -0.019120254 0.017223552
0001e0 78 0b 40 bc 12 6e a2 bc ad 64 03 bc ce a9 04 bc
       -0.011721484 -0.019827876 -0.008019608 -0.008097125
0001f0 3b 54 c6 ba 32 de c0 bc 08 13 56 bc 60 95 95 3c
       -0.0015131304 -0.023543451 -0.013066061 0.018259704
000200 d6 98 7a 3b 5f 79 d3 bc c7 05 8a 3c c2 56 ec bc
       0.003823807 -0.02581471 0.016848458 -0.028849963
000210 de 5e 72 ba 68 03 ca 3c 51 fc 34 3d 94 53 1a 3c
       -0.00092457037 0.024659827 0.04418594 0.009419341
000220 c2 25 26 3c f7 ef f3 3c 5d 42 8e 3c af c4 26 3c
       0.010140838 0.02977751 0.017365629 0.010178729
000230 08 30 b4 bc ae 9d de bb 42 14 8f bc 92 c1 52 bd
       -0.02199556 -0.006793699 -0.017465714 -0.051454134
000240 6a 8c 84 bc e0 28 8d 3b 67 76 6b bc ac b9 08 bc
       -0.016180236 0.004307851 -0.014371491 -0.008345049
000250 c7 a8 d9 3b 9a 45 13 bc 85 bd 99 bb 9d 00 82 3c
       0.0066424343 -0.008988762 -0.004691782 0.015869433
000260 82 dd 57 3c 42 cd 5c bc f3 76 f9 bc 1e 47 af bc
       0.01317537 -0.013476672 -0.030452227 -0.021396216
000270 c4 bf 9b 38 7a 0b 6b 3a ea d7 75 3c a4 f8 98 bc
       7.426695e-05 0.0008966249 0.015005091 -0.018673249
000280 59 cf 63 3c 7b 6c ff 3c ff 50 a7 3c 8e 73 60 bc
       0.013904416 0.031179657 0.020424364 -0.013699425
000290 96 91 b8 bc 92 5a ba 3a 80 0e 49 3c ea 52 88 3c
       -0.022530358 0.0014217666 0.0122715235 0.016641099
0002a0 59 ae 5e ba d9 8e aa 3c a5 9f c7 3c cf 6f b4 3b
       -0.0008494608 0.020820068 0.024368117 0.0055064927
0002b0 6e 8f 95 bc 49 25 9b ba b5 06 c8 bb 6f 1a 0c bd
       -0.01825687 -0.0011836673 -0.006104315 -0.034204897
0002c0 6e 93 95 3c 81 a5 53 bc 86 d0 04 bd 44 6b 72 bc
       0.018258777 -0.012917877 -0.032425426 -0.014796082
0002d0 1e ef ee bb e7 98 c2 bc 46 03 87 bc 93 7e 2b 3d
       -0.0072916886 -0.02375455 -0.016481053 0.041868757
0002e0 a3 97 c9 ba de 00 4c 3d 9a 5e f2 bb 21 83 e7 b9
       -0.0015380274 0.049805515 -0.0073965313 -0.00044157452
0002f0 9a fd 94 bc 84 07 19 3d f1 59 ef bb a7 93 8c bb
       -0.018187333 0.037360683 -0.007304423 -0.0042900625
000300 ad f8 e1 bc 17 1e a8 bc 54 85 da 3c 00 38 cf b9
       -0.027584398 -0.02052216 0.026674904 -0.0003952384
000310 51 dc df 3c 03 f2 dd 3c be 85 c0 bb f3 98 5e 3c
       0.027326735 0.02709294 -0.0058753183 0.013586271
000320 c9 d9 2f bd b3 be d8 bc 2c a6 1c 3c e4 09 a0 bc
       -0.042932305 -0.02645812 0.009561103 -0.019535966
000330 b1 47 75 3c 59 05 f8 3c 55 68 10 bd 1a 2a 34 bd
       0.014970706 0.030275987 -0.03525575 -0.043985464
000340 2b 37 cd 3b 6c 80 2b bc 9f 47 f2 3c a0 7f b8 3c
       0.00626268 -0.01046763 0.029575167 0.022521794
000350 a8 ad 28 3b d0 38 d9 3c 34 29 15 3c 18 02 4d bb
       0.0025738273 0.026516348 0.009104062 -0.0031281766
000360 19 2c 06 bd 3d 71 05 bc 13 3f 1e bd d2 57 1a bd
       -0.0327569 -0.008144674 -0.03863437 -0.03768141
000370 a4 61 94 3c c6 5a 62 3d 96 8a 89 3c 93 74 d9 bb
       0.018112965 0.05526235 0.016789716 -0.006636211
000380 5a 9a 28 3c 13 5c dc bc 1f cc 86 bc c9 7d da 3c
       0.0102907065 -0.026899373 -0.016454754 0.026671307
000390 7f 2f 90 3c f2 e9 6e bc 2f ef 0e bb b4 f8 40 ba
       0.017600773 -0.014582144 -0.0021810045 -0.00073612784
0003a0 57 6b 88 bc fb 7c 35 3c f6 76 bf bc 49 4b b5 bc
       -0.016652746 0.011077161 -0.023372155 -0.022130625
0003b0 10 b2 65 3c d9 06 39 3c 9f 05 4b bc cd f8 9f 3b
       0.014019504 0.0112931365 -0.012391477 0.0048819543
0003c0 3b 72 1a bd 3c 31 4c bc f9 42 e9 3a 42 fb ba 3c
       -0.037706595 -0.01246291 0.0017796449 0.022824887
0003d0 f7 f6 8b bc 87 a0 77 bc ea 76 9d bb 9a f4 95 3c
       -0.017085535 -0.015113956 -0.0048054354 0.018305112
0003e0 c6 ac a5 3c 20 bc 83 3c 15 26 c8 bb 9f 5d cc bb
       0.020223986 0.016080916 -0.0061080554 -0.0062367464
0003f0 91 f0 9d 3c 79 ce f8 3b 39 f7 7f bb f2 f5 bd 3c
       0.01927975 0.007592973 -0.0039057268 0.023188565

network_body._body_endoder.seq_layers.2.weight f4 [256, 256]
000000 b3 5d c4 bc 8d 09 04 bd 77 f2 77 3d 9e 0d dd 3d
       -0.02397046 -0.03223567 0.060533967 0.10793613
000010 06 73 9a 3c 4a 0c 27 3d 27 23 94 bc c9 67 07 bd
       0.018853676 0.040783204 -0.018083168 -0.03305796
000020 08 35 68 bc c7 56 d2 3b fb 0a 28 3d db 14 06 3d
       -0.0141728 0.006419036 0.041026097 0.032734733
000030 72 79 83 38 cd ef 37 bd 06 ed 95 bd 93 d7 40 bd
       6.269188e-05 -0.044906426 -0.07320599 -0.047080588
000040 c8 70 04 3d 4c 3a a4 3c e4 83 81 3c 43 bd f2 3c
       0.03233412 0.02004733 0.01580996 0.029631263
000050 e4 bd 43 bb 71 86 82 bd 98 47 88 3d 71 40 88 3c
       -0.0029867822 -0.06373299 0.066542804 0.01663229
000060 4f 22 44 3d 06 54 ba 3d 02 34 3f bc 6e e5 48 3d
       0.04788428 0.090980574 -0.0116701145 0.049046926
000070 d7 bc 04 bc a1 a7 e5 bc e0 38 8b 3d 47 1b 15 3c
       -0.008101664 -0.028034033 0.067979574 0.009100742
000080 09 d9 fa bd 7e f8 a6 bc 4d b6 d3 bc 2a 04 88 3c
       -0.122484274 -0.020382162 -0.025843764 0.016603548
000090 31 62 25 bd d9 b1 9e bd 5f e7 a6 bd d5 a7 84 bc
       -0.040376846 -0.077487655 -0.08149599 -0.01619331
0000a0 06 69 a6 3d aa 0b 4d 3d 48 74 26 bd 13 33 bb bc
       0.081255004 0.05005995 -0.04063824 -0.022851503
0000b0 b3 06 2c be ea d7 3a 3d 69 21 3d 3d c0 e1 91 bd
       -0.1679943 0.045616068 0.04617444 -0.071231365
0000c0 b1 dd d0 bd 06 91 31 3d 1a dc 13 bd 16 b8 87 3c
       -0.10198534 0.043351196 -0.036098577 0.016567271
0000d0 30 96 02 be f0 3f 3f 3d 76 d1 a1 bb a1 f5 b8 3c
       -0.12752604 0.046691835 -0.0049383 0.022578062
0000e0 46 a6 14 3e 7d 20 af bb 3b 9b 88 bc b9 44 f8 bd
       0.14516553 -0.005344449 -0.016675582 -0.12122483
0000f0 e2 0b b0 3c f8 d6 d9 3d 54 48 a8 3d 39 40 3b bc
       0.021490041 0.10636705 0.082169205 -0.011428886
000100 41 01 90 3d d3 da ef 3d a6 d0 ca bd a9 9b 50 3d
       0.07031489 0.11711659 -0.09903078 0.0509297
000110 00 77 f3 bd 01 9f a0 3d b0 07 a4 bd 31 89 3e bd
       -0.11887932 0.078428276 -0.08009279 -0.046517555
000120 84 f4 79 bd 43 3a 48 3d 12 4e c6 3b 3c be 91 bd
       -0.061024204 0.048883688 0.006051787 -0.071163625
000130 ac 36 fc bd 5c 1b 12 bd 19 14 fb bd 9a 53 a2 bc
       -0.12315115 -0.035670623 -0.12259693 -0.019815255
000140 86 22 58 3d 79 94 0f 3c d2 c0 aa 3d d2 c9 f2 39
       0.0527673 0.008763426 0.08337559 0.00046308205
000150 73 a2 ae bd de 35 94 bb 57 4c 55 bd ff a1 23 bb
       -0.085270785 -0.004523023 -0.052074756 -0.0024968383
000160 6b f2 85 3c 9e 05 f3 3c 7b 21 e1 3c 00 cb a2 bd
       0.016350945 0.029665764 0.027481785 -0.079488754
000170 50 28 d1 bd 17 2a 24 3d 52 d9 ee bc 77 cc d0 bd
       -0.10212767 0.040079203 -0.02915636 -0.101952486
000180 4b 57 01 bc 69 80 13 bd ff 05 51 3c b9 ea 46 bc
       -0.007894347 -0.036011133 0.012757777 -0.012140923
000190 fc 15 01 39 6e 13 cb 3c 86 b8 7d 3d 9c f7 63 3d
       0.00012310588 0.024789538 0.061943553 0.05565606
0001a0 a2 3b e3 3c 13 b7 f0 3c cb 67 07 bd 15 84 c1 3c
       0.027738396 0.029384172 -0.03305797 0.023622552
0001b0 13 83 9c bd b4 1c fd b9 9c a3 16 3d 33 87 03 bd
       -0.07642188 -0.00048277306 0.036777124 -0.032111358
0001c0 6d 8c 87 bc a6 22 0d 3d 26 a1 9f bc 1e c5 bd 3c
       -0.016546452 0.03445687 -0.019486021 0.023165282
0001d0 01 33 90 3b a8 a4 c6 3d ea 19 99 bd 75 65 ad 3c
       0.0044006114 0.096993744 -0.07475646 0.021166543
0001e0 b5 64 23 3e a0 8d 49 bd 47 44 f8 bd 7f 12 16 3d
       0.15956385 -0.04920733 -0.12122398 0.036638733
0001f0 2a fb ac 3d f5 7b 1a 3b c6 9a a3 3b 8b 6b 8d 3d
       0.08446343 0.002357242 0.0049928157 0.06905278
000200 88 24 b2 bb a8 fd 9c bd 75 29 d1 3c 03 ce 99 3d
       -0.005436484 -0.076655686 0.025532464 0.07509997
000210 da 5e 24 3e cd 23 c6 bc fa 43 63 3d 52 f0 9e bc
       0.16051808 -0.024186993 0.05548475 -0.019401703
000220 ed 56 90 bd 93 b6 ac bd 4b da 31 bd 84 26 4c bd
       -0.0704783 -0.08433261 -0.04342107 -0.04984142
000230 fd 30 2a 3d 0c 8e ce bc bf 8e 08 be 21 c8 e3 bd
       0.041550625 -0.025214218 -0.13335703 -0.11122156
000240 dd 19 87 3d 18 08 a2 bd a7 84 01 bd e9 56 0d 3b
       0.0659673 -0.079117 -0.031620648 0.0021566695
000250 28 86 7e 3d 91 6d 5c bd 3f 51 ce bc 42 8d 9e 3d
       0.06213966 -0.05381543 -0.025185226 0.077417865
000260 ce 37 3e be d5 d9 87 bc 5e 31 c9 3d 52 b5 f0 bc
       -0.18575975 -0.016583363 0.09823869 -0.029383335
000270 22 6e 99 3c a9 1e ed bd 3e b8 52 3c 42 3d 86 bc
       0.018729273 -0.115781136 0.01286131 -0.016386632
000280 c2 87 cb bc d4 ce 02 3e 7b 36 e5 bd ed 00 08 bd
       -0.024845008 0.12774211 -0.11192032 -0.033204008
000290 1d 47 38 3d 9f 3a c8 bd cc be 87 3d 21 b9 48 bd
       0.044989694 -0.09776806 0.066281885 -0.049004678
0002a0 97 15 51 bd cf 58 07 be 57 74 2d 3c 82 41 61 3d
       -0.05104598 -0.13217472 0.01058682 0.054994114
0002b0 98 69 7a 3c f1 c2 ac 3c 0f f9 a3 bd 35 3a b4 bc
       0.015283965 0.021089049 -0.080064885 -0.022000412
0002c0 a6 ed db bd 40 3b 04 3d 31 38 3c 3c f3 96 ac bd
       -0.10738687 0.032283068 0.011488006 -0.08427229
0002d0 bb 27 9b bd d7 93 9f bd cc c2 90 3d 10 fe 59 3d
       -0.07575937 -0.0779187 0.070684046 0.05322081
0002e0 d8 0d ea bb 45 84 27 bd 6e 57 7f 3d 28 28 b8 bd
       -0.0071427636 -0.040897626 0.06233924 -0.08992034
0002f0 f6 dc fa 3c d4 88 83 3b fa 13 0c 3d 83 ae 94 3d
       0.03062294 0.004014114 0.03419874 0.07259848
000300 d4 4f 00 bd 4a a9 ba bb 79 ee 94 3d d3 dd c1 3c
       -0.03132613 -0.0056964504 0.072720475 0.023665344
000310 7d 82 ef bd af 70 69 3c 26 e5 f0 3d 0c ab 59 3d
       -0.116948105 0.014248057 0.117624566 0.05314164
000320 00 17 7b bc 9a d2 d9 bd 51 6b 40 bd ef d6 f3 bd
       -0.015325308 -0.10635872 -0.046977345 -0.1190623
000330 fd 84 8d bc 0d d0 4a bd 01 e2 11 3d 2f 8f af 3b
       -0.017275328 -0.04951482 0.035615925 0.005357645
000340 f9 ca 60 3b 89 5e ab bd 9f 09 5f 3d 5b ab 30 bd
       0.0034300669 -0.083676405 0.054452535 -0.043132167
000350 94 69 95 3c bd 76 44 bd ba ea d2 bc c5 80 ad bd
       0.01823882 -0.0479648 -0.025746692 -0.084718265
000360 55 59 02 3e eb be 80 3d 62 f9 46 bd be 27 a7 3d
       0.1272939 0.06286415 -0.048577674 0.08161877
000370 1a 76 d9 bc 3f 08 f6 bd 7a 27 25 3e 12 a0 03 3d
       -0.026545573 -0.120132916 0.1612834 0.032135077
000380 e2 35 3e be 16 a6 e9 bd 14 8b d6 3c 27 79 12 3c
       -0.18575242 -0.114086315 0.026189364 0.008940018
000390 52 2a d2 3b 58 3a bf 3d f0 f3 f6 bc e9 72 5c bd
       0.0064137364 0.093373 -0.030145615 -0.053820524
0003a0 42 46 55 3d b6 f0 b8 bd b3 9a 67 bd cb ad 2f 3d
       0.052068956 -0.09030287 -0.056544017 0.04289035
0003b0 ef 8b 16 be 66 a5 13 bd fd 91 db bc a0 47 c5 3d
       -0.14701818 -0.036046408 -0.026803011 0.09632802
0003c0 cb c5 99 bd 11 5c c4 bd b5 79 1f 3d 7b 33 c5 bd
       -0.07508429 -0.09587873 0.03893443 -0.0962896
0003d0 18 f0 9c 3d 8e 62 52 3d c1 6c 3b bd 8f ae c7 3c
       0.07662982 0.05136352 -0.045758013 0.024375228
0003e0 91 bb be 3d ee 3a 0a bd bd b8 ed bd 3f 3d f3 bc
       0.09313119 -0.033747606 -0.11607502 -0.02969229
0003f0 45 cb 74 38 7f 7a 36 3b 1f 37 70 bd 38 a2 ad bc
       5.8363443e-05 0.002784401 -0.058646318 -0.021195516
