results/Drone2/Drone/Drone-2999969.onnx (onnx, 283599 bytes, 7 tensors)

action_model._continuous_distribution.log_sigma f4 [1, 4]
-0.22356193 -0.20265645 -0.19402888 -0.2773353
00000000: 6bed 64be 2c85 4fbe 82af 46be e4fe 8dbe

action_model._continuous_distribution.mu.bias f4 [4]
-0.023540003 -0.012460775 -0.026263941 -0.02295938
00000000: f7d6 c0bc 4728 4cbc 7a27 d7bc 4f15 bcbc

action_model._continuous_distribution.mu.weight f4 [4, 256]
0.009031623 0.0026065332 0.0046898862 -0.031479307 0.011955356 0.007709442 0.043170244 -0.0015946848
0.0042579137 0.0055484455 -0.00047607473 -0.071036555 0.010002369 0.016788526 -0.022141308 -0.005725206
-0.021685623 0.05227019 0.0063122394 0.013018426 -0.0002604972 0.0041457373 0.009124074 0.015858829
0.0129820835 -0.007449956 -0.0015973607 0.007375025 0.025966462 0.025142904 -0.01219916 -0.035584413
-0.01103768 0.006474725 0.015269386 -0.0072817467 0.024132326 0.042570688 -0.0056883465 -0.019587373
-0.015896881 -0.00426744 -0.00257842 -0.008407228 -0.0019207107 0.01878093 0.0072607053 0.00087500934
0.01853827 -0.0033464304 0.055805907 -0.014777758 0.019551856 0.011449249 0.00797021 -0.009045632
0.01618268 0.014009025 0.004633286 0.0011803758 -0.027855933 0.014699224 0.012810975 0.02686978
-0.017129324 0.02148781 0.0058943722 0.02707389 0.013281875 0.0533859 -0.0031183679 -0.001276355
-0.00010668259 0.02049154 -0.008510542 0.0031111669 -0.005446881 0.008074836 -0.00019485627 -0.0061348765
-0.004652674 -0.025281744 -0.022627056 0.0037285157 0.007595115 -0.008279451 0.039071526 0.0041980054
0.03432306 0.021260237 -0.013817533 -0.0066885143 0.0074668443 0.018325182 -0.003920634 0.0042185807
-0.011762566 -0.015772922 -0.0041876705 -0.0039843796 -0.0122894 0.008517756 -0.05544876 -0.02587888
-0.0047807386 -0.003924483 0.012171605 0.014690136 0.014633734 0.007726883 -0.012282497 -0.0044104634
-0.006000357 0.015124233 -0.0145974485 -0.0034207122 0.03387613 0.057562605 0.009300998 -0.018865284
0.020503297 0.012507225 0.0064368797 0.026019832 0.0296021 0.002519387 0.006238596 -0.003989474
0.030123554 -9.8339486e-05 -0.0046546822 -0.0036037895 0.009104953 0.011755297 -0.020225046 -0.0013281794
0.010356627 -0.02313516 0.004961732 -0.015010189 0.023420073 0.018240176 0.0062926314 0.004420299
0.0064145313 -0.015482269 -0.00886021 0.017806347 0.014207405 0.031601183 0.028816488 -0.028176537
-0.012077295 -0.010248631 -0.021428611 0.026194347 -0.010337817 -0.0044240863 -0.0025051704 0.0041870642
-0.01594713 -0.025720315 -0.01910506 0.0009388869 -0.010820453 0.00068701885 0.0042947377 -0.00036879463
0.0123019535 -0.038472563 -0.003835806 -0.022222523 0.02073416 0.008722784 -0.013588146 0.00042700462
-0.01737943 0.009601182 0.013890361 -0.0016238571 -0.0023574992 -0.0014439202 0.009360159 -0.040630125
0.0002928502 -0.03641467 -0.0042146 0.012034381 0.0060580713 -0.02109601 0.01812311 -0.013149697
0.05115339 0.01666296 -0.009852312 0.017261842 -0.031383034 -0.0040511475 -0.011471723 -0.01730304
-0.0044118906 0.020921038 0.0010704133 -0.006685585 -0.022808954 -0.017117197 0.012958679 0.00850275
-0.013177306 0.010967931 -0.0013885791 -0.025215305 0.012472085 0.04674384 -0.010538727 0.02254312
-0.020766163 0.015215076 0.018856358 0.0031990106 -0.011381237 0.030455245 -0.011972684 -0.001705379
0.0556049 0.01954749 -0.0013662425 -0.0033674007 -0.012644674 0.045658205 0.009396919 0.014011011
0.017065363 -0.0015233457 0.0017251568 0.024376864 -0.0028741385 0.041038666 -0.012181717 0.018262215
0.016985048 -0.0032086389 0.007886879 0.0073602344 0.019099282 0.023999799 -0.0006025428 -0.0021748673
-0.011420897 -0.030991178 0.01155849 -0.0007744012 -0.020546783 -0.016203659 0.0230274 0.0071528247
00000000: 5ff9 133c 5fd2 2a3b 9ead 993b 72f0 00bd
00000010: 66e0 433c 7d9f fc3b 48d3 303d be04 d1ba
00000020: f885 8b3b bccf b53b ab99 f9b9 9d7b 91bd
00000030: fae0 233c 1788 893c b061 b5bc 829a bbbb
00000040: 0ca6 b1bc 4419 563d e7d6 ce3b 3c4b 553c
00000050: 5893 88b9 f7d8 873b 247d 153c 60ea 813c
00000060: ceb2 543c c31e f4bb 885e d1ba 32aa f13b
00000070: 9eb7 d43c 7ef8 cd3c fcde 47bc f6c0 11bd
00000080: 63d7 34bc ee29 d43b 722c 7a3c b89b eebb
00000090: 28b1 c53c 9a5e 2e3d 4f65 babb b375 a0bc
000000a0: 2d3a 82bc e2d5 8bbb b6fa 28bb 78be 09bc
000000b0: 5bc0 fbba 77da 993c 36eb ed3b e260 653a
000000c0: 92dd 973c c94f 5bbb bc94 643d 691e 72bc
000000d0: 372b a03c a295 3b3c 7c95 023c 2134 14bc
000000e0: 8a91 843c 1c86 653c d2d2 973b d7b6 9a3a
000000f0: 2032 e4bc 04d5 703c 20e5 513c 031e dc3c
00000100: cc52 8cbc 3407 b03c 9425 c13b 10ca dd3c
00000110: 399c 593c 2cab 5a3d 885d 4cbb 5e4b a7ba
00000120: c8ba dfb8 e0dd a73c cd6f 0bbc b8e4 4b3b
00000130: c07b b2bb 514c 043c 5552 4cb9 1307 c9bb
00000140: 7575 98bb a91b cfbc 605c b9bc 1d5a 743b
00000150: 71e0 f83b 89a6 07bc 7709 203d 6c8f 893b
00000160: 5696 0c3d f329 ae3c ef62 62bc 532b dbbb
00000170: 6eac f43b b11e 963c a978 80bb 053c 8a3b
00000180: c7b7 40bc 3736 81bc ba38 89bb 668f 82bb
00000190: 7b59 49bc 0f8e 0b3c 3d1e 63bd f2ff d3bc
000001a0: bea7 9cbb f398 80bb 696b 473c e5ae 703c
000001b0: 54c2 6f3c cb31 fd3b 873c 49bc a685 90bb
000001c0: a59e c4bb a2cb 773c 232a 6fbc 072e 60bb
000001d0: b2c1 0a3d c4c6 6b3d 3763 183c 5e8b 9abc
000001e0: 88f6 a73c 1beb 4c3c 76ec d23b 8b27 d53c
000001f0: 1a80 f23c 4d1c 253b 236d cc3b 22ba 82bb
00000200: acc5 f63c 9c3b ceb8 4e86 98bb 8e2d 6cbb
00000210: f12c 153c 4a99 403c ffae a5bc 4e16 aeba
00000220: d8ae 293c f285 bdbc 0696 a23b 4ced 75bc
00000230: 74db bf3c 6c6c 953c 6b32 ce3b 28d8 903b
00000240: fd30 d23b 58a9 7dbc 6a2a 11bc 9ede 913c
00000250: 2dc6 683c 3e70 013d 8e10 ec3c 7bd2 e6bc
00000260: d9df 45bc e0e9 27bc 0e8b afbc 8795 d63c
00000270: f25f 29bc edf7 90bb c92d 24bb a433 893b
00000280: 8ea3 82bc 69b3 d2bc 3782 9cbc a21f 763a
00000290: 4548 31bc 0e19 343a dfba 8c3b c75a c1b9
000002a0: 228e 493c 6895 1dbd 2562 7bbb 020c b6bc
000002b0: afda a93c 02ea 0e3c d1a0 5ebc 97df df39
000002c0: 4e5f 8ebc 474e 1d3c 6694 633c 9ad7 d4ba
000002d0: 4680 1abb ec41 bdba 5a5b 193c c66b 26bd
000002e0: b089 9939 8d27 15bd a11a 8abb da2b 453c
000002f0: c982 c63b 8ad1 acbc eb76 943c d471 57bc
00000300: 3886 513d c380 883c 976b 21bc b568 8d3c
00000310: 7f8b 00bd 7dbf 84bb e5f3 3bbc 1bbf 8dbc
00000320: 9f91 90bb 9962 ab3c 1c4d 8c3a c012 dbbb
00000330: d8d9 babc 5d39 8cbc a450 543c 1e4f 0b3c
00000340: a1e5 57bc d6b2 333c fc00 b6ba 5490 cebc
00000350: b757 4c3c 7876 3f3d a0aa 2cbc 59ac b83c
00000360: cd1d aabc a748 793c a678 9a3c 7ea6 513b
00000370: 5e78 3abc 477d f93c 1429 44bc 0687 dfba
00000380: f7c1 633d 0f22 a03c 7e13 b3ba 9caf 5cbb
00000390: 9b2b 4fbc 1904 3b3d 89f5 193c 718e 653c
000003a0: a9cc 8b3c 00ab c7ba a81e e23a fdb1 c73c
000003b0: 0b5c 3cbb 2918 283d d395 47bc a49a 953c
000003c0: 3a24 8b3c 0748 52bb f837 013c 1f2e f13b
000003d0: 1976 9c3c 3a9b c43c f6f3 1dba 3888 0ebb
000003e0: b71e 3bbc 36e1 fdbc d25f 3d3c 2f01 4bba
000003f0: ba51 a8bc 89bd 84bc f5a3 bc3c 3e62 ea3b

network_body._body_endoder.seq_layers.0.bias f4 [256]
0.023103558 -0.038184036 0.012246561 0.051018618 -0.020608665 -0.026913697 -0.021979244 0.013604581
0.02609559 -0.0015199303 -0.0028937187 -0.017912215 -0.025185753 -0.0020728116 -0.030280732 0.027926687
0.014683586 0.037994143 -0.04987243 -0.01794564 -0.016639603 0.010513466 0.03257363 -0.0060190842
-0.019044226 0.006018151 -0.03486388 -0.002934991 0.031844024 0.030296488 0.023255719 -0.0013469153
0.009934038 0.029750329 0.015589087 0.0007294127 -0.0020759914 0.033134084 0.024558902 0.008116277
-0.010812852 0.01952862 0.016439445 0.07490353 -0.037566014 0.022328457 0.0016383023 0.010832721
-0.027778113 -0.032771517 -0.018469177 0.014203732 0.0075747347 0.027214946 -0.000554399 0.007542733
0.019557225 0.015140465 -0.026178092 0.0028936963 -0.037770316 0.030821422 -0.046183858 -0.01183859
0.0014452045 -0.0044061462 -0.013371428 -0.05277525 -0.009592772 -0.025303856 0.009250622 -0.015770039
-0.013067261 0.007069239 0.014629987 0.007863815 -0.015201349 0.0035655126 0.0075741336 0.0033343313
-0.0053039864 9.294791e-05 0.032003 0.05697867 0.020123322 2.0178957e-05 -0.019530987 -0.009791983
0.031203534 0.005029277 0.0028045536 0.009201733 0.0049227998 0.023777401 -0.00648377 0.03403195
0.044203635 0.043135155 0.022983896 0.027405892 -0.022248726 -0.0068490994 -0.014591878 0.09846901
-0.009159317 -0.0432353 0.057263047 0.0067103873 0.02262294 -0.008632392 0.064124316 0.033722237
0.0476196 0.021747267 0.06182273 -0.04693847 0.0008825488 0.012642614 -0.011063911 0.035633232
-1.9300462e-05 -0.027433556 -0.0052736476 0.022158856 0.019038858 -0.035163324 -0.029670916 -0.008335227
-0.01693562 -0.005555448 -0.02744917 -0.007924295 -0.02266667 -0.007450002 -0.014702667 -0.017609019
0.015391164 0.0030373822 0.0039969645 -0.046965584 0.06456024 -0.013702782 -0.00046005988 -0.028113052
-0.02141504 -0.0064682825 0.010918354 0.008228278 -0.025303848 -0.0011461455 -0.007935464 0.0064468174
0.01697113 0.047143616 0.0039444463 0.009973047 -0.012490901 -0.009141388 -0.004624953 0.03056378
0.011271831 -0.02760352 0.0067626704 -0.008599325 -0.01631497 0.07029741 -0.00840875 0.008699919
-0.006708464 -0.0006071644 -0.006956369 -0.028809225 -0.010127267 -0.006273164 0.006012237 -0.0337289
-0.0252199 -0.03379282 -0.009897115 -0.019924134 -0.014047301 -0.0031673696 0.014460704 -0.003247075
0.03481531 -0.0022137174 0.052671313 -0.013760728 0.054335233 0.04300577 0.043158777 0.014879931
-0.041909963 -0.011082679 0.031133626 -0.0038248613 -0.025628736 -0.0064501236 0.018320633 -0.02459026
-0.006317103 -0.012572794 -0.015861556 0.013223214 0.06130492 0.025472302 0.003987174 -0.026443703
-0.020572029 0.0060452786 0.01529486 -0.00012123564 0.030072594 -0.013507096 0.011670423 0.010266321
0.0048435046 -0.017219728 -0.020644678 0.022837048 0.01293683 -0.047400694 -0.014869875 -0.028024334
-0.015615943 -0.0382576 -0.0032683723 0.046610974 -0.055098988 0.0024752335 -0.035377048 0.010485911
-0.014488015 -0.024217242 -0.0172411 0.028575614 0.027438745 -0.022615932 0.03984969 -0.013431937
0.0216373 0.007383096 0.009239122 0.04597524 0.01727025 0.023876611 -0.019409997 0.005500653
-0.0012513882 -0.0048646093 0.039834328 -0.030064208 0.0024999909 0.027885161 0.041378397 0.008635148
00000000: ac43 bd3c dd66 1cbd cda5 483c e6f8 503d
00000010: 81d3 a8bc 1d7a dcbc d10d b4bc c0e5 5e3c
00000020: 6bc6 d53c 6638 c7ba 8ba4 3dbb a3bc 92bc
00000030: 5a52 cebc 02d8 07bb 4c0f f8bc 82c6 e43c
00000040: 6c93 703c bf9f 1b3d 0847 4cbd bc02 93bc
00000050: c74f 88bc ac40 2c3c ed6b 053d bd3b c5bb
00000060: a302 9cbc e933 c53b 6ecd 0ebd fa58 40bb
00000070: e16e 023d 5730 f83c c782 be3c fa8a b0ba
00000080: 60c2 223c f6b6 f33c 5f69 7f3c 0f36 3f3a
00000090: 5b0d 08bb 9bb7 073d c02f c93c 22fa 043c
000000a0: 6328 31bc 7cfa 9f3c 04ac 863c 0667 993d
000000b0: d2de 19bd 2bea b63c 4ebc d63a ba7b 313c
000000c0: ed8e e3bc 6d3b 06bd ac4c 97bc c5b6 683c
000000d0: 7b35 f83b e1f1 de3c 1655 11ba 0829 f73b
000000e0: 7936 a03c b70f 783c 7073 d6bc 2ba4 3d3b
000000f0: 0cb5 1abd 357d fc3c 492b 3dbd a5f6 41bc
00000100: 046d bd3a 6f61 90bb d513 5bbc dc2a 58bd
00000110: 012b 1dbc 084a cfbc ec8f 173c 2b30 81bc
00000120: 1118 56bc 13a5 e73b 9db2 6f3c 3bd7 003c
00000130: 140f 79bc 60ab 693b 7030 f83b cc84 5a3b
00000140: 10cd adbb 07ed c238 9415 033d 7762 693d
00000150: aad9 a43c fb45 a937 73ff 9fbc 8e6e 20bc
00000160: 8e9e ff3c a2cc a43b 9acc 373b dec2 163c
00000170: 704f a13b d3c8 c23c ce75 d4bb 1665 0b3d
00000180: df0e 353d 7dae 303d b948 bc3c 5282 e03c
00000190: f642 b6bc 696e e0bb c612 6fbc 1faa c93d
000001a0: f610 16bc 7f17 31bd a88c 6a3d cfe2 db3b
000001b0: be53 b93c e06e 0dbc 9c53 833d 5420 0a3d
000001c0: c50c 433d 5327 b23c d539 7d3d 8e42 40bd
000001d0: d95a 673a f722 4f3c 6845 35bc 27f4 113d
000001e0: 6de7 a1b7 56bc e0bc 90ce acbb 7d86 b53c
000001f0: 61f7 9b3c 6b07 10bd 6c10 f3bc 7a90 08bc
00000200: 92bc 8abc 7a0a b6bb 15dd e0bc e7d4 01bc
00000210: 74af b9bc 251f f4bb 74e3 70bc ca40 90bc
00000220: 392b 7c3c d10e 473b f8f8 823b fc5e 40bd
00000230: 2938 843d a281 60bc 3134 f1b9 584d e6bc
00000240: 986e afbc e3f3 d3bb e5e2 323c e6cf 063c
00000250: 044a cfbc 433a 96ba c003 02bc d33f d33b
00000260: 0a07 8b3c aa19 413d 6a40 813b fe65 233c
00000270: a3a6 4cbc c3c5 15bc eb8c 97bb e460 fa3c
00000280: 7cad 383c c720 e2bc 6499 dd3b 2fe4 0cbc
00000290: f9a6 85bc 17f8 8f3d dbc4 09bc 1b8a 0e3c
000002a0: add2 dbbb 1d2a 1fba 41f2 e3bb 5301 ecbc
000002b0: d6ec 25bc 1d8f cdbb 4d02 c53b 5127 0abd
000002c0: f799 cebc 576a 0abd 8227 22bc f037 a3bc
000002d0: a726 66bc a593 4fbb 97ec 6c3c e1cc 54bb
000002e0: 809a 0e3d 0414 11bb e0bd 573d ad74 61bc
000002f0: 9f8e 5e3d d126 303d 42c7 303d f4ca 733c
00000300: c8a9 2bbd 2094 35bc f20b ff3c 86aa 7abb
00000310: 5bf3 d1bc 8f5b d3bb 2715 963c 8371 c9bc
00000320: b3ff cebb 1ffe 4dbc 18f0 81bc 2ea6 583c
00000330: de1a 7b3d 4aab d03c d7a6 823b 77a0 d8bc
00000340: ac86 a8bc 7917 c63b 4b97 7a3c e33f feb8
00000350: cd5a f63c de4c 5dbc 4d35 3f3c 1234 283c
00000360: 43b6 9e3b 6310 8dbc 071f a9bc c314 bb3c
00000370: fff4 533c 3b27 42bd c7a0 73bc 4a93 e5bc
00000380: 03da 7fbc 00b4 1cbd 3032 56bb 26eb 3e3d
00000390: 7aaf 61bd 8737 223b 86e7 10bd 19cd 2b3c
000003a0: 245f 6dbc 3d63 c6bc 353d 8dbc 6817 ea3c
000003b0: 38c7 e03c 0c45 b9bc 6e39 233d a111 5cbc
000003c0: b540 b13c e6ed f13b b05f 173c 8950 3c3d
000003d0: 577a 8d3c e298 c33c b701 9fbc d23e b43b
000003e0: 9f05 a4ba 4d67 9fbb 5229 233d 3749 f6bc
000003f0: e3d6 233b 6c6f e43c 657c 293d 707a 0d3c

network_body._body_endoder.seq_layers.0.weight f4 [256, 13]
0.12778786 0.55247235 -0.12920788 0.2144571 -0.14993317 0.11944044 -0.48545712 0.07919709
-0.14214134 0.54544026 0.20172675 0.6912195 -0.34006822 0.15463986 0.10710509 0.38437438
-0.07166794 0.3187064 -0.7509669 0.47929272 -0.3240898 -0.27255267 -0.015302049 0.07283039
-0.37838814 -0.45269394 0.100676045 -0.012980525 0.40896794 -0.19759412 0.22029087 -0.04304792
-0.21091987 0.3405152 -0.671192 0.028616872 0.0028613433 0.41749337 -0.15676083 -0.090057805
-0.09092571 -0.30565783 -0.1374363 -0.04159223 -0.2313261 -0.019082341 -0.016340878 0.4408913
-0.32015955 -0.49565437 0.20384167 -0.18779106 0.01916372 0.6937536 -0.17873035 0.3820518
-0.1899424 0.11795914 0.28386998 -0.3431888 -0.09000063 -0.4488318 0.24824527 -0.021715026
-0.42330527 -0.41317856 0.1986179 0.0066923443 -0.3050577 -0.08458197 0.05650027 0.44888163
-0.3802167 0.5299779 0.04806838 0.002752536 -0.21366331 -0.033654653 -0.3304613 0.342809
-0.0071887947 0.4920514 0.39421576 0.0684126 0.27947092 -0.15889308 0.31723234 0.13792375
0.05031905 0.06482262 0.49665537 0.07447003 0.31616357 -0.23490474 0.169973 -0.18333705
-0.27509198 0.32678008 0.10599763 -0.20471108 0.21286146 -0.16289371 0.023486206 0.2510967
0.38553542 -0.39350238 -0.215176 -0.06391076 -0.059517235 -0.0021204834 -0.26544118 -0.41334218
0.2751047 0.48221862 -0.5976878 -0.0406857 0.11304926 0.18887627 0.39248 -0.051468015
0.36182347 0.3982942 -0.14176123 -0.029922426 0.09430366 -0.09596141 0.36248878 0.35075924
0.6550532 0.47477722 -0.21829195 -0.1650467 0.58030087 -0.1181827 0.056047738 -0.31085256
-0.052825227 -0.037532516 0.020923989 -0.5992794 0.19907197 -0.24265315 -0.09486329 0.102004275
-0.21452363 0.23278272 0.30227357 0.5850081 -0.044443343 0.27656722 -0.052953128 -0.30459422
-0.28734434 -0.787418 -0.33425742 -0.099872224 -0.63188094 -0.30978513 -0.11074885 0.37931535
0.31499374 0.20960133 0.1417736 -0.31752053 0.07716769 -0.16004683 -0.20195046 -0.3408475
-0.048512597 0.34623733 0.0478768 0.5282488 -0.42367074 -0.3453277 -0.59132266 0.22300832
-0.611569 -0.18443064 0.059023116 0.040732592 -0.35489184 0.26998073 0.18790992 -0.17559217
0.018685149 -0.5661124 0.572266 0.07650243 -0.34112972 -0.3207058 0.102242365 0.20774727
-0.37398067 -0.1477786 0.03645857 0.37498644 0.03505903 -0.31752202 -0.17768487 -0.046339735
0.17044492 0.5300246 0.15271473 -0.20870659 0.54876 -0.08024911 0.27379847 0.1922908
-0.038420618 -0.19470066 -0.0494745 0.15278402 -0.3243407 -0.5583971 0.1268956 0.1488581
0.099409394 -0.19451332 -0.31344432 0.4795411 0.016733605 0.19949132 0.26701707 0.19508946
-0.0007906613 -0.59490454 -0.2855482 -0.2892567 0.023269622 -0.28974688 0.14501016 -0.15406154
-0.10644178 -0.96793085 0.036395326 0.43738437 -0.02911404 0.23802896 0.43251982 0.16639571
0.516911 -0.32184023 -0.110433854 -0.16590475 -0.098893814 -0.33303154 0.15264979 0.17167673
0.32902342 -0.18229099 0.5246086 -0.0089339595 0.23733447 0.124461144 -0.39380673 0.3512031
00000000: d2da 023e d46e 0d3f 124f 04be a49a 5b3e
00000010: 1588 19be 309d f43d d68d f8be 1532 a23d
00000020: 808d 11be f9a1 0b3f 7591 4e3e c3f3 303f
00000030: 6c1d aebe e959 1e3e ea59 db3d b8cc c43e
00000040: a4c6 92bd 7c2d a33e 5e3f 40bf db65 f53e
00000050: 19ef a5be 068c 8bbe 72b5 7abc 1928 953d
00000060: 17bc c1be 80c7 e7be 3e2f ce3d 45ac 54bc
00000070: 3f64 d13e 1d56 4abe ee93 613e 0453 30bd
00000080: 61fb 57be 0258 ae3e 3dd3 2bbf ee6d ea3c
00000090: 6085 3b3b b1c1 d53e e985 20be 3a70 b8bd
000000a0: 4237 babd 2f7f 9cbe 1abc 0cbe 9d5c 2abd
000000b0: c0e0 6cbe 9252 9cbc 4edd 85bc 81bc e13e
000000c0: f4eb a3be 69c6 fdbe dfbb 503e 4d4c 40be
000000d0: 3cfd 9c3c d699 313f 1705 37be 4b9c c33e
000000e0: 4380 42be 9094 f13d 6857 913e 71b6 afbe
000000f0: 4052 b8bd 48cd e5be 0234 7e3e b6e3 b1bc
00000100: 78bb d8be 248c d3be 7e62 4b3e 744b db3b
00000110: 8630 9cbe 5039 adbd d46c 673d d0d3 e53e
00000120: c3ab c2be a2ac 073f 5ae3 443d e463 343b
00000130: 8eca 5abe 76d9 09bd 3932 a9be a984 af3e
00000140: fb8f ebbb 29ee fb3e a6d6 c93e e81b 8c3d
00000150: d016 8f3e deb4 22be 476c a23e e23b 0d3e
00000160: 591b 4e3d b9c1 843d 9d49 fe3e be83 983d
00000170: 31e0 a13e de8a 70be 670d 2e3e b5bc 3bbe
00000180: dbd8 8cbe b84f a73e 4915 d93d c89f 51be
00000190: 5bf8 593e 9ccd 26be 2566 c03c bf8f 803e
000001a0: e664 c53e 2579 c9be 1957 5cbe a5e3 82bd
000001b0: 58c8 73bd cff7 0abb e8e7 87be 96a1 d3be
000001c0: 86da 8c3e 5ce5 f63e 1102 19bf 0ca6 26bd
000001d0: 5f86 e73d c868 413e 23f3 c83e 20d0 52bd
000001e0: ed40 b93e 38ed cb3e db29 11be e01f f5bc
000001f0: 4722 c13d 6a87 c4bd 2198 b93e b796 b33e
00000200: 91b1 273f 0016 f33e ed87 5fbe 0102 29be
00000210: 998e 143f c509 f2bd 5092 653d 1128 9fbe
00000220: 445f 58bd b2bb 19bd c968 ab3c 606a 19bf
00000230: 86d9 4b3e 117a 78be af47 c2bd 9ee7 d03d
00000240: 15ac 5bbe 985e 6e3e 9ac3 9a3e 17c3 153f
00000250: 390a 36bd 389a 8d3e 61e5 58bd c6f3 9bbe
00000260: cc1e 93be 3a94 49bf ca23 abbe cf89 ccbd
00000270: f3c2 21bf 289c 9ebe 4bd0 e2bd 9f35 c23e
00000280: dc46 a13e bba1 563e 192d 113e 0d92 a2be
00000290: 180a 9e3d 51e3 23be 1acc 4ebe 9083 aebe
000002a0: 25b5 46bd 0546 b13e 771a 443d 503b 073f
000002b0: 5feb d8be cbce b0be ec60 17bf 4b5c 643e
000002c0: c98f 1cbf 63db 3cbe 39c2 713d 38d7 263d
000002d0: 62b4 b5be ea3a 8a3e 756b 403e 6fce 33be
000002e0: 9911 993c beec 10bf 0680 123f 4ead 9c3d
000002f0: 8ea8 aebe 8d33 a4be 7264 d13d b3bb 543e
00000300: 657a bfbe 4653 17be 9555 153d 39fe bf3e
00000310: 0f9a 0f3d 3f92 a2be 06f3 35be bcce 3dbd
00000320: 1d89 2e3e b1af 073f 4061 1c3e 2eb7 55be
00000330: 897b 0c3f a559 a4bd 502f 8c3e e1e7 443e
00000340: f05e 1dbd 9c5f 47be c6a5 4abd 6a73 1c3e
00000350: fc0f a6be 1df3 0ebf ecf0 013e 426e 183e
00000360: 2797 cb3d 802e 47be c67b a0be 6986 f53e
00000370: ea14 893c 7447 4c3e 76b6 883e 88c5 473e
00000380: 6244 4fba aa4b 18bf 6033 92be 7419 94be
00000390: ef9f be3c b459 94be 8b7d 143e 4fc2 1dbe
000003a0: 26fe d9bd 51ca 77bf 4413 153d d8f0 df3e
000003b0: 9180 eebc ddbd 733e 3d73 dd3e a363 2a3e
000003c0: 4754 043f 3ec8 a4be 252b e2bd efe2 29be
000003d0: d788 cabd 1c83 aabe 3a50 1c3e 06cc 2f3e
000003e0: c275 a83e 7daa 3abe c04c 063f be5f 12bc
000003f0: cf07 733e 7ce5 fe3d 09a1 c9be e5d0 b33e

network_body._body_endoder.seq_layers.2.bias f4 [256]
-0.018041875 0.017008184 -0.013297084 0.020482872 0.033136725 -0.025968315 -0.013625081 -0.002255084
-0.023466034 0.009916293 0.008435948 0.03683551 -0.02523773 0.013978112 0.012982231 -0.018202856
0.0068299337 -0.023014717 -0.030324265 -0.02915928 0.006116562 0.015064056 -0.030387968 -0.01543557
-0.006295636 0.001815378 0.0014324136 -0.025451403 -0.029554974 -0.0056212866 0.012984503 -0.00015633748
0.007191226 -0.009254486 4.1935567e-05 0.014285739 -0.011661657 -0.008746176 0.010534299 0.0044603893
0.005897535 -0.00095522037 -0.014324588 -0.005010236 0.0020864771 0.021856075 -0.021684606 -0.0057765185
0.0042604897 -0.020399017 0.011103104 0.010615795 -0.0015830079 -0.0053721233 -0.026313197 0.0035803292
0.008146136 0.007364554 -0.014629512 -0.019539338 -0.002468171 -0.02478338 -0.03832558 -0.015540068
0.0009769141 -0.028760241 -0.041961033 0.02225195 -0.0040460452 0.0039741425 -0.022234306 -0.023235118
-0.009160571 -0.010757433 -0.008454615 -0.02245313 0.011199756 0.019332085 -0.011173056 0.0017556064
0.027750699 0.012684437 0.008568755 0.014813322 0.013035196 -0.016037159 -0.015278914 0.007275776
0.0101131825 -0.016887143 -0.00588126 -0.005099927 -0.027635613 0.0052944073 -0.010991202 -0.021752497
0.005552866 0.006378656 0.020247536 -0.00024831184 0.011387442 -0.0026383395 0.009651196 0.0317491
-0.007838524 -0.009780909 -0.0002862202 -0.012920243 -0.02597763 -0.0024214399 -0.014924898 -0.012449285
0.019508163 -0.011055496 -0.0067145503 -0.0050386777 0.0053106924 0.007026644 -0.015486648 0.012258685
-0.003561981 -0.017971223 0.0035971492 -0.01212801 -0.004750873 -0.022586515 -0.011325861 0.004825937
0.00044249097 -0.024375074 0.0172099 -0.026153415 -0.0022724946 0.018041968 0.041838925 0.0055458373
-0.0022452509 0.022609992 0.00757579 0.007148285 -0.018335884 -0.012919877 -0.014192795 -0.040662944
-0.011424127 -0.0010127282 -0.010773789 -0.013559375 0.008193482 -0.01078705 -0.0034903367 0.0144829275
0.013813624 -0.007137442 -0.022942027 -0.016010031 -0.0005940331 0.00051106536 0.019725397 -0.014668351
0.0025689327 0.028627755 0.016002264 -0.015351547 -0.017623082 -0.005964235 0.00386498 0.010849721
0.00075801206 0.02237791 0.020631975 0.006954173 -0.013576973 -0.007520261 -0.002673186 -0.030106798
0.009854594 -0.012428328 -0.030547053 -0.02261246 -0.005079938 -0.019993737 -0.017295338 0.037034173
0.010074933 0.043722812 -0.010127956 -0.006139667 -0.012602298 0.029120678 -0.00015056603 -0.007875782
-0.0187225 -0.0117848115 0.029911695 -0.0056895767 0.025528979 0.020072285 -0.011877109 0.014369201
-0.03894813 -0.02669101 -0.0030064224 -0.021411777 0.016767459 0.024365572 -0.027136212 -0.035313398
0.004503245 -0.0040900484 0.023240253 0.018998064 0.0061618723 0.023002356 0.0033239 0.0016763615
-0.02351125 -0.0049250037 -0.030936593 -0.033526417 0.014891773 0.05327043 0.014625678 -0.0018381204
0.01172649 -0.022931326 -0.009621497 0.014243182 0.013052823 -0.013679569 -0.00824004 -0.002520166
-0.015434143 0.012034138 -0.024968877 -0.016595988 0.008562411 0.0022326508 -0.0056715105 -0.0038963144
-0.032448895 -0.012634992 -0.0028823558 0.013497968 -0.0075579514 -0.009244686 -0.008730906 0.02216753
0.027050847 0.016804943 -0.0037241983 -0.00031795574 0.006637187 0.014593741 -0.0021160685 0.014744047
00000000: 8ecc 93bc bf54 8b3c 03dc 59bc b2cb a73c
00000010: 60ba 073d 81bb d4bc bb3b 5fbc 08ca 13bb
00000020: d73b c0bc f377 223c ee36 0a3c d5e0 163d
00000030: 5bbf cebc 7304 653c 6cb3 543c 281e 95bc
00000040: a3cd df3b 5c89 bcbc 986a f8bc 71df eebc
00000050: 716d c83b 3bcf 763c 30f0 f8bc 79e5 7cbc
00000060: 9f4b cebb faf1 ed3a d3bf bb3a 767f d0bc
00000070: 461d f2bc c532 b8bb f4bc 543c 86ee 23b9
00000080: 60a4 eb3b 21a0 17bc f9e3 2f38 bb0e 6a3c
00000090: 8910 3fbc 1f4c 0fbc 0d98 2c3c 7528 923b
000000a0: 1c40 c13b c167 7aba adb1 6abc e82c a4bb
000000b0: 47bd 083b 830b b33c eaa3 b1bc f348 bdbb
000000c0: 949b 8b3b d71b a7bc cbe9 353c dfed 2d3c
000000d0: ee7c cfba a308 b0bb c68e d7bc f5a3 6a3b
000000e0: 5f77 053c 5b52 f13b 9fb0 6fbc f610 a0bc
000000f0: 0ac1 21bb 8406 cbbc 49fb 1cbd c59b 7ebc
00000100: cc0b 803a 999a ebbc 55df 2bbd b949 b63c
00000110: b094 84bb 8639 823b b824 b6bc 9357 bebc
00000120: 3816 16bc f23f 30bc 3a85 0abc a0ef b7bc
00000130: 2e7f 373c 525e 9e3c 320f 37bc 601c e63a
00000140: 6f55 e33c 63d2 4f3c f763 0c3c 93b3 723c
00000150: 9391 553c 5c60 83bc 6954 7abc a269 ee3b
00000160: c3b1 253c e856 8abc 96b7 c0bb 4a1d a7bb
00000170: 1564 e2bc b57c ad3b 7114 34bc 4b32 b2bc
00000180: d1f4 b53b 0b04 d13b 29de a53c da2f 82b9
00000190: 6592 3a3c fee7 2cbb 0d20 1e3c 580b 023d
000001a0: 276d 00bc 1b40 20bc d30f 96b9 6daf 53bc
000001b0: 0acf d4bc 05b1 1ebb 8f87 74bc 16f8 4bbc
000001c0: 95cf 9f3c 1c22 35bc bb05 dcbb 7e1b a5bb
000001d0: 5105 ae3b c33f e63b b6bb 7dbc a7d8 483c
000001e0: 2070 69bb 6338 93bc 26be 6b3b 90b4 46bc
000001f0: 36ad 9bbb 5b07 b9bc 1b90 39bc e522 9e3b
00000200: 22fe e739 3cae c7bc c7fb 8c3c b03f d6bc
00000210: 22ee 14bb c0cc 933c 4b5f 2b3d dbb9 b53b
00000220: 0f25 13bb 9738 b93c 553e f83b 293c ea3b
00000230: 2335 96bc e4ad 53bc e688 68bc 308e 26bd
00000240: 432c 3bbc 85bd 84ba 8c84 30bc 2428 5ebc
00000250: f43d 063c 2bbc 30bc 22be 64bb cd49 6d3c
00000260: 8a52 623c 34e1 e9bb ebf0 bbbc 7827 83bc
00000270: e3b8 1bba 04f9 053a 2897 a13c 8653 70bc
00000280: 8a5b 283b c184 ea3c 2e17 833c 0e85 7bbc
00000290: 485e 90bc a16f c3bb 9b4b 7d3b 07c3 313c
000002a0: 54b5 463a e151 b73c 6304 a93c d5df e33b
000002b0: f471 5ebc 866c f6bb 9e30 2fbb 88a2 f6bc
000002c0: 2a75 213c 30a0 4bbc d03d fabc c43d b9bc
000002d0: 9c75 a6bb e8c9 a3bc f4ae 8dbc 25b1 173d
000002e0: 5511 253c b116 333d baef 25bc 422f c9bb
000002f0: de79 4ebc 7d8e ee3c 43e1 1db9 6d09 01bc
00000300: ee5f 99bc 1515 41bc 5f09 f53c a16f babb
00000310: 2622 d13c a26e a43c 3598 42bc cc6c 6b3c
00000320: 1388 1fbd 1ba7 dabc 6607 45bb c067 afbc
00000330: e95b 893c 4f9a c73c c34c debc c8a4 10bd
00000340: f58f 933b d005 86bb 5862 be3c d4a1 9b3c
00000350: 88e9 c93b 706f bc3c cad5 593b 5cb9 db3a
00000360: aa9a c0bc ed61 a1bb bd6e fdbc ff52 09bd
00000370: a0fc 733c 1832 5a3d 8aa0 6f3c 16ed f0ba
00000380: 7720 403c 7ada bbbc 7ca3 1dbc 3c5c 693c
00000390: 82db 553c 4520 60bc 3c01 07bc 5f29 25bb
000003a0: 7ddf 7cbc d52a 453c 888b ccbc 4ff4 87bc
000003b0: 5b49 0c3c aa51 123b 14d8 b9bb 4f59 7fbb
000003c0: 22e9 04bd ff02 4fbc e8e5 3cbb 9526 5d3c
000003d0: b1a8 f7bb 0677 17bc 130c 0fbc ae98 b53c
000003e0: bd99 dd3c 85aa 893c ae11 74bb 4cb3 a6b9
000003f0: c37c d93b 961a 6f3c bdad 0abb 0491 713c

network_body._body_endoder.seq_layers.2.weight f4 [256, 256]
-0.01984122 -0.034592807 0.05643732 0.10582489 0.021274881 0.03627478 -0.014998185 -0.028824909
-0.01905898 0.0127040865 0.031726085 0.03397057 -0.0028256653 -0.058806513 -0.077566 -0.04088969
0.035997093 0.017467 0.01689897 0.03360914 -0.0017500998 -0.050623655 0.07176351 0.014836726
0.03172657 0.09011759 -0.018549269 0.045787126 -0.009388548 -0.026381455 0.06679689 -0.0009926133
-0.119018786 -0.026738482 -0.03691698 0.0075614164 -0.04299733 -0.07614009 -0.078251764 -0.020328723
0.0845104 0.047591593 -0.033759184 -0.026675943 -0.17207326 0.058257014 0.044931557 -0.06325181
-0.107403874 0.04298908 -0.03210605 0.018393116 -0.12652248 0.043425363 -0.009151931 0.016100528
0.12329776 0.00031875668 -0.01770255 -0.1188959 0.01493716 0.10575598 0.08016046 0.00038858104
0.0688144 0.12084662 -0.08693859 0.045723893 -0.12533234 0.09753065 -0.07294086 -0.043670014
-0.0540996 0.052557267 -0.0069749695 -0.070142694 -0.11830248 -0.03432736 -0.13011345 -0.018585904
0.052011687 0.0076732347 0.08407683 0.0058511677 -0.08712956 -0.008302966 -0.048556242 -0.0111328745
0.018724823 0.031105574 0.026613442 -0.07507125 -0.09511215 0.03349285 -0.038415086 -0.10481627
0.007577729 -0.046855383 0.0070250784 -0.0016961934 0.00022523034 0.02398887 0.06457608 0.046668224
0.03609445 0.026950292 -0.02860813 0.028670978 -0.077892244 -0.0076061715 0.0364624 -0.03229886
-0.014693393 0.036446843 -0.030833019 0.020307448 0.016597576 0.09195399 -0.07025516 0.018574622
0.1557632 -0.052542556 -0.12158653 0.032836143 0.077151716 0.004897006 0.007920021 0.06512908
-0.0062752557 -0.07412124 0.026745034 0.0725725 0.16093501 -0.020570166 0.05585379 -0.0195346
-0.070128664 -0.07009628 -0.039390814 -0.0529336 0.039213017 -0.025482466 -0.13616988 -0.10970427
0.06713704 -0.080976434 -0.031262558 0.0036344908 0.06153601 -0.054155707 -0.028338028 0.08083919
-0.18203458 -0.015245872 0.09715067 -0.025291717 0.00881495 -0.12386491 0.010780959 -0.008881841
-0.016981775 0.13390054 -0.115481175 -0.034760367 0.028239068 -0.11138116 0.06456028 -0.044369146
-0.048732206 -0.13516259 0.011527007 0.05499931 0.021179944 0.02368407 -0.07406208 -0.030956231
-0.103115804 0.031265784 0.00595083 -0.08707767 -0.07598778 -0.088444576 0.06800518 0.05328359
-0.006669915 -0.039079286 0.060345132 -0.08942428 0.026001548 0.010500625 0.036725044 0.07554428
-0.038532883 -0.0058349515 0.076800935 0.03592941 -0.119974665 0.0097192945 0.11261002 0.04949478
-0.02392919 -0.10807774 -0.043356758 -0.111244984 -0.02858563 -0.035504032 0.017890316 0.0026722145
0.0036501118 -0.089704186 0.059429485 -0.03822918 0.008189388 -0.047779314 -0.022673873 -0.08946399
0.12682386 0.05771637 -0.052917413 0.08412679 -0.028961733 -0.12096433 0.14970402 0.031147504
-0.19766492 -0.11191181 0.0277592 0.0028927305 0.0054971743 0.089077175 -0.022125272 -0.04740577
0.055169743 -0.09227769 -0.05250758 0.042675007 -0.1446625 -0.035602197 -0.022786554 0.09614742
-0.06933642 -0.097933665 0.04593542 -0.08930445 0.06875179 0.05449559 -0.038667887 0.019268068
0.09244045 -0.03544052 -0.11173708 -0.039904788 -0.00052833155 0.008465644 -0.061178435 -0.010063021
00000000: 0e8a a2bc 30b1 0dbd d22a 673d b8ba d83d
00000010: a948 ae3c dd94 143d f3ba 75bc 3722 ecbc
00000020: 9421 9cbc cd24 503c 36f3 013d b924 0b3d
00000030: cc2e 39bb 19df 70bd ecda 9ebd f37b 27bd
00000040: b071 133d f416 8f3c b56f 8a3c bda9 093d
00000050: 9b63 e5ba c05a 4fbd bff8 923d bd15 733c
00000060: b8f3 013d 928f b83d a3f4 97bc 488b 3b3d
00000070: 6dd2 19bc ec1d d8bc cfcc 883d 931a 82ba
00000080: 1fc0 f3bd a90a dbbc 4236 17bd c2c5 f73b
00000090: f81d 30bd 56ef 9bbd 7642 a0bd 6c88 a6bc
000000a0: ca13 ad3d 67ef 423d 1247 0abd 8287 dabc
000000b0: f933 30be e89e 6e3d 270a 383d 2a8a 81bd
000000c0: 90f6 dbbd 5115 303d a281 03bd 29ad 963c
000000d0: 1c8f 01be cbde 313d fbf1 15bc 41e5 833c
000000e0: 8983 fc3d cc1e a739 f004 91bc b27f f3bd
000000f0: fdba 743c 9796 d83d 2b2b a43d 77ba cb39
00000100: 90ee 8c3d 6f7e f73d dc0c b2bd fa48 3b3d
00000110: 1f57 00be 26be c73d 0562 95bd 54df 32bd
00000120: 8b97 5dbd 4a46 573d 498e e4bb f9a6 8fbd
00000130: 9248 f2bd d99a 0cbd 763c 05be 7741 98bc
00000140: 350a 553d c26f fb3b 7930 ac3d 27bb bf3b
00000150: fc70 b2bd 2a09 08bc e9e2 46bd a966 36bc
00000160: cd64 993c 1ed1 fe3c 6f04 da3c f5be 99bd
00000170: 29ca c2bd cc2f 093d 2359 1dbd eaa9 d6bd
00000180: 994e f83b 6eeb 3fbd a132 e63b ce52 deba
00000190: cf2b 6c39 4f84 c43c 7740 843d 2e27 3f3d
000001a0: c6d7 133d dcc6 dc3c 995b eabc 66df ea3c
000001b0: f885 9fbd 313d f9bb 9959 153d cf4b 04bd
000001c0: 8fbc 70bc 4949 153d 8795 fcbc ce5b a63c
000001d0: a4f7 873c 6052 bc3d f0e1 8fbd ce29 983c
000001e0: 6380 1f3e dd36 57bd 5c02 f9bd 317f 063d
000001f0: b801 9e3d 1077 a03b fac2 013c 6562 853d
00000200: a9a0 cdbb e0cc 97bd 6718 db3c e4a0 943d
00000210: 26cc 243e c482 a8bc f2c6 643d 0707 a0bc
00000220: 9e9f 8fbd a38e 8fbd 4358 21bd e7d0 58bd
00000230: d49d 203d 9bc0 d0bc 1e70 0bbe a2ac e0bd
00000240: 257f 893d f9d6 a5bd 2b0d 00bd a330 6e3b
00000250: 2f0d 7c3d 60d2 5dbd 2725 e8bc 048f a53d
00000260: 4667 3abe d2c9 79bc eef6 c63d 9330 cfbc
00000270: 946c 103c e3ac fdbd 9fa2 303c 2485 11bc
00000280: 5d1d 8bbc 391d 093e 6581 ecbd e360 0ebd
00000290: 9e55 e73c ce1b e4bd 2e38 843d 6cbc 35bd
000002a0: 6c9b 47bd 1068 0abe c6db 3c3c f546 613d
000002b0: 9081 ad3c 1805 c23c dcad 97bd ec97 fdbc
000002c0: 612e d3bd 8d10 003d 2eff c23b c755 b2bd
000002d0: 7b9f 9bbd 6e22 b5bd 4d46 8b3d e53f 5a3d
000002e0: 4d8f dabb 9a11 20bd 752c 773d 1424 b7bd
000002f0: 3301 d53c d00a 2c3c 006d 163d f6b6 9a3d
00000300: a8d4 1dbd 1f33 bfbb cf49 9d3d b82a 133d
00000310: 47b5 f5bd ad3d 1f3c 15a0 e63d 0abb 4a3d
00000320: 2607 c4bc dd57 ddbd db96 31bd 69d4 e3bd
00000330: 692c eabc ad6c 11bd b68e 923c 5220 2f3b
00000340: b736 6f3b d4b6 b7bd 556c 733d 3396 1cbd
00000350: c82c 063c 3eb4 43bd 8fbe b9bc e538 b7bd
00000360: 1dde 013e 0068 6c3d eebf 58bd ab4a ac3d
00000370: 2841 edbc 26bc f7bd 034c 193e 0d29 ff3c
00000380: ac68 4abe 0532 e5bd 4367 e33c f793 3d3b
00000390: a421 b43b 186e b63d 0f40 b5bc 8d2c 42bd
000003a0: abf9 613d 16fc bcbd 3012 57bd fdcb 2e3d
000003b0: 6822 14be 9cd3 11bd deaa babc f0e8 c43d
000003c0: 4100 8ebd 7291 c8bd c726 3c3d 40e5 b6bd
000003d0: bdcd 8c3d c536 5f3d 3862 1ebd 11d8 9d3c
000003e0: 6b51 bd3d 142a 11bd 69d6 e4bd 3473 23bd
000003f0: bb7f 0aba 7cb3 0a3c 3d96 7abd 5fdf 24bc
