results/Drone2/Drone/Drone-3999965.onnx (onnx, 283599 bytes, 7 tensors)

action_model._continuous_distribution.log_sigma f4 [1, 4]
0	0xbe8cee7d	-0.27525702
1	0xbe8ae5e8	-0.2712853
2	0xbe6e2fa3	-0.2326036
3	0xbea0a5e6	-0.3137657

action_model._continuous_distribution.mu.bias f4 [4]
0	0xbca7db0f	-0.020490197
1	0xbc55adb8	-0.013041906
2	0xbcf01172	-0.029305194
3	0xbd0b53ff	-0.03401565

action_model._continuous_distribution.mu.weight f4 [4, 256]
0	0x3b5cf664	0.0033716196
1	0x3c911c81	0.017713787
2	0x3bd4e5ab	0.006497105
3	0xbd1a8001	-0.03771973
4	0x3ca1a123	0.019730156
5	0xbc3fbd74	-0.011702884
6	0x3d0d84fc	0.034550652
7	0xb8fefb29	-0.00012158446
8	0x3c251c7d	0.010077593
9	0xbc425f1e	-0.011863498
10	0x3b102ce0	0.0021999404
11	0xbdae9702	-0.08524896
12	0x3c1b0b69	0.00946317
13	0x3ca0376b	0.019557675
14	0xbcbc33eb	-0.022973975
15	0xbc86d212	-0.016457591
16	0xbd14f950	-0.036370575
17	0x3d447978	0.047967404
18	0x3b6cddab	0.0036142867
19	0x3ca145f3	0.019686675
20	0xbb99795c	-0.0046836566
21	0xbbebb3e2	-0.0071930746
22	0x3b7e91c4	0.0038844207
23	0x3c235689	0.009969362
24	0x3c49d8ae	0.012319727
25	0xbbd73338	-0.006567385
26	0xbbb75430	-0.0055947527
27	0x3c4aaced	0.01237033
28	0x3ca53b22	0.020169798
29	0x3cefa62b	0.02925404
30	0xbb0eaddf	-0.0021771116
31	0xbd202f73	-0.03910775
32	0xbca4ac20	-0.020101607
33	0xba4c8f27	-0.0007803314
34	0x3bb17c45	0.0054164254
35	0xbc0a3f72	-0.008437978
36	0x3d198304	0.03747846
37	0x3cf25bdf	0.029584823
38	0xbbb00811	-0.0053720553
39	0xbd026cfa	-0.03184221
40	0xbcbb6561	-0.02287549
41	0xbc898ea7	-0.016791655
42	0x3a9b5001	0.0011849405
43	0x3c80dc06	0.015729915
44	0xbba6b35f	-0.0050873007
45	0x3d0e5b09	0.034754787
46	0x3c8d41c8	0.017243281
47	0xbc361a0a	-0.011114607
48	0x3c218ad0	0.009859756
49	0x3ad4cdab	0.001623561
50	0x3d6f2229	0.058382187
51	0xbd0475a1	-0.032338742
52	0x3c7a6edb	0.015285219
53	0x3c994014	0.018707313
54	0x3c8e066e	0.01733705
55	0xbcd847d8	-0.026401445
56	0x3c83d12f	0.016090957
57	0x3c1f2a3b	0.009714658
58	0xbc1db800	-0.009626389
59	0x3b0ee30c	0.002180281
60	0xbcbaf8a9	-0.022823649
61	0x3c23cccf	0.009997561
62	0x3c54d577	0.012990347
63	0x3cd50b46	0.026006352
64	0xbc50da80	-0.012747407
65	0x3c93b545	0.018030772
66	0x3baceb57	0.005277078
67	0x3d8f84a1	0.07007719
68	0x3caa6663	0.020800775
69	0x3d65d8f7	0.056115117
70	0xbc0c290d	-0.008554709
71	0xbabcf502	-0.001441628
72	0x3aa3fe6f	0.001251174
73	0x3c98c889	0.01865031
74	0xbc113615	-0.008862992
75	0xbbce1bf7	-0.0062899548
76	0xbc5562ca	-0.013024041
77	0xbb42a229	-0.0029698706
78	0xbc1baccf	-0.00950165
79	0xbaab130a	-0.0013051939
80	0xbb8d2adc	-0.0043080878
81	0xbd0f63a4	-0.035007134
82	0xbccf71a3	-0.02532274
83	0xbab566df	-0.0013839862
84	0x3c3ba4bf	0.011452853
85	0xbc23125f	-0.0099531105
86	0x3d4aa4eb	0.049473684
87	0xbc362438	-0.011117034
88	0x3cdca9f2	0.026936505
89	0x3cb2e8c8	0.021839514
90	0xbc1beb56	-0.009516558
91	0xbbdf4179	-0.006813225
92	0x3b919236	0.0044424785
93	0x3c31b85a	0.0108471755
94	0x3bb022c1	0.0053752367
95	0xbb18ab23	-0.0023295365
96	0xbb5a882a	-0.003334532
97	0xbcb8521a	-0.022500087
98	0xbb20a46b	-0.0024512063
99	0xbbc95750	-0.0061444417
100	0xbca7328e	-0.020409849
101	0xbc11a4ee	-0.00888942
102	0xbd664776	-0.056220494
103	0xbcf5d6a5	-0.030009577
104	0xbbe8e983	-0.007107915
105	0xbc118078	-0.008880727
106	0x3c748148	0.014923401
107	0x3b6c97ca	0.0036101216
108	0x3a4c2cf9	0.0007788684
109	0x3beb6a95	0.0071843364
110	0xbca994e3	-0.020700878
111	0xbba32bc6	-0.0049795834
112	0xbb8d0b5b	-0.004304332
113	0x3bc7eb74	0.0061010662
114	0xbc3e2369	-0.011605122
115	0x3b3112ed	0.0027019337
116	0x3d1a8999	0.03772888
117	0x3d26247f	0.04056215
118	0x3b93e89b	0.0045138127
119	0xbcf60102	-0.030029777
120	0x3c303652	0.0107551385
121	0x3c0fd03d	0.008777675
122	0x3c6ed959	0.014578187
123	0x3d0759aa	0.033044495
124	0x3d380619	0.04492769
125	0x3b67cfd7	0.0035371685
126	0x3ba15638	0.004923608
127	0x39b4049b	0.00034335707
128	0x3d12264f	0.035681065
129	0x39effc5b	0.00045773652
130	0x3a0bfef6	0.00053404213
131	0x3b5baf2e	0.0033521163
132	0x3c50215c	0.012703266
133	0x3bf006ab	0.0073250136
134	0xbcfa1489	-0.03052737
135	0xbcda0899	-0.026615428
136	0x3d312189	0.043244872
137	0xbcf23bd8	-0.029569551
138	0x3bb829c3	0.0056202128
139	0xbc79f818	-0.015256904
140	0x3d2af6d6	0.041739307
141	0x3c96d898	0.018413827
142	0x3c47c5b2	0.01219313
143	0x3ad39698	0.0016142903
144	0x3bfdce9d	0.0077455775
145	0xbc91e720	-0.017810404
146	0xbb95a20b	-0.004566436
147	0x3c5533bb	0.013012822
148	0x3c614ff7	0.013751975
149	0x3cfffb25	0.031247685
150	0x3d00edae	0.03147667
151	0xbd07f744	-0.033194795
152	0xbc5ef42e	-0.013608022
153	0xbc41ae55	-0.011821349
154	0xbc901404	-0.01758767
155	0x3cbfa96e	0.02339622
156	0xbc021dfb	-0.007941718
157	0xbc0a41fc	-0.008438583
158	0x3bb9c2fa	0.005668995
159	0x3c237692	0.009977
160	0xbcde3776	-0.027126055
161	0xbcd1fbb7	-0.025632722
162	0xbc9ea719	-0.019366788
163	0x3bab8551	0.0052343984
164	0xbc39dc9f	-0.011344104
165	0xbc69fef3	-0.014281976
166	0x3beb0056	0.007171671
167	0x3b5ef99f	0.0034023297
168	0x3c8cf40f	0.01720622
169	0xbceed01b	-0.029151967
170	0xbcb360b0	-0.02189669
171	0xbcd7278f	-0.02626398
172	0x3cc471a4	0.02397997
173	0x3bbad513	0.00570167
174	0x3b63d5da	0.0034764917
175	0xbbd7c76a	-0.0065850513
176	0xbc78840f	-0.015168204
177	0x3c96ecea	0.018423516
178	0x3c7161f7	0.014732829
179	0xbc0d1d3a	-0.008612925
180	0xb90c0db9	-0.00013356553
181	0x38999883	7.324016e-05
182	0x3c38df5f	0.011283725
183	0xbd12231a	-0.035678007
184	0x3cc15d5f	0.023604093
185	0xbcf75444	-0.030191548
186	0xbc70aa6c	-0.014689069
187	0x3c40179d	0.01172438
188	0x3c250f89	0.010074505
189	0xbd1c2b24	-0.03812708
190	0x3c80637b	0.015672436
191	0xbb4eb02d	-0.0031538114
192	0x3d2fe566	0.04294338
193	0x3c71e0e9	0.014763095
194	0xbbe468a2	-0.006970481
195	0x3cc710da	0.024300028
196	0xbce564d3	-0.028002178
197	0x3c3c5205	0.011494164
198	0xbcbefb41	-0.023313167
199	0xbc777dc6	-0.01510567
200	0xbc98b1c8	-0.01863946
201	0x3cce6100	0.025192738
202	0xbbae0c68	-0.0053115375
203	0xbba22d2a	-0.0049492316
204	0xbcb0a384	-0.021562345
205	0xbce52f91	-0.027976783
206	0x3c395b30	0.011313245
207	0x3bd3ddb2	0.006465637
208	0xbb84fceb	-0.0040584705
209	0x3b26a04e	0.002542514
210	0xbc392496	-0.011300227
211	0xbcf54b9c	-0.02994328
212	0xbbad6c34	-0.00529244
213	0x3d8571b7	0.0651583
214	0xbc1118d5	-0.008856018
215	0x3cc525d1	0.024065884
216	0xbcfd763b	-0.030940166
217	0x3c93e6e0	0.018054426
218	0x3c90f41c	0.017694525
219	0x3c428483	0.011872414
220	0xbc10d028	-0.008838691
221	0x3d299952	0.041405983
222	0xba9ef5e7	-0.0012127728
223	0x3a5af97c	0.0008353216
224	0x3d5d87a2	0.054084428
225	0x3ce20798	0.027591512
226	0xbc6b4e36	-0.014361909
227	0x3c3f5058	0.01167687
228	0xbc86d8d4	-0.016460814
229	0x3d6f6d7c	0.05845402
230	0x3d05f4b2	0.032704063
231	0x3c6f5f9e	0.014610199
232	0x3bb4591f	0.005503788
233	0xbc27be40	-0.01023823
234	0xbc197c73	-0.00936805
235	0x3d026efa	0.031844117
236	0xbbb103a8	-0.005402047
237	0x3d78da73	0.060755204
238	0xbcc93cf5	-0.0245652
239	0x3cae0a22	0.021245066
240	0x3c75727f	0.014980911
241	0xbc17a9e1	-0.009256811
242	0x3bba51b9	0.0056860116
243	0x3c5c7033	0.013454485
244	0xbbb0ccbd	-0.0053955005
245	0x3cab71f3	0.020928359
246	0xbb317c6a	-0.0027082213
247	0x39f573a8	0.00046816212
248	0xbb2c2c38	-0.0026271474
249	0xbd08a09f	-0.033356305
250	0x3c85d7c4	0.016338237
251	0x3b30d5aa	0.0026982822
252	0xbd4a0ffa	-0.049331643
253	0xbca3c336	-0.019990545
254	0xbb97910e	-0.004625446
255	0x3c081e28	0.008307971

network_body._body_endoder.seq_layers.0.bias f4 [256]
0	0x3d2b9a5b	0.04189525
1	0xbd12f46e	-0.035877638
2	0x3cf9338c	0.030420087
3	0x3d6a5e50	0.05721885
4	0xbce62c48	-0.028097287
5	0xbccb50b1	-0.02481875
6	0xbd10845f	-0.03528249
7	0x3ccfb94a	0.025356907
8	0x3d88e868	0.06684953
9	0x3acc2e3f	0.0015577747
10	0x3c369f29	0.011146345
11	0xbd299d8f	-0.041410025
12	0xbd11ed49	-0.035626683
13	0x3c8754ea	0.016519982
14	0xbcca3939	-0.024685489
15	0x3d591965	0.053002734
16	0x3cb3ea5f	0.021962343
17	0x3d4601a4	0.04834141
18	0xbd811e18	-0.06304568
19	0xbd0d1546	-0.034444116
20	0xbc8d95e2	-0.017283384
21	0x3cf10113	0.029419458
22	0x3cec0d6a	0.02881499
23	0x3c9c8f18	0.019111201
24	0xbbb4cdf8	-0.0055177175
25	0x3c176257	0.009239755
26	0xbd10dd02	-0.03536702
27	0xbb814344	-0.0039447863
28	0x3cfb79e2	0.030697767
29	0x3d07a90a	0.033120193
30	0x3cd9fee6	0.026610803
31	0x3c8ecef3	0.017432665
32	0x3cddcb50	0.027074486
33	0x3d47c5e1	0.048772696
34	0x3bc2214c	0.0059243795
35	0x3c2c2542	0.01050693
36	0x3b86ef57	0.004117887
37	0x3ca3de7b	0.020003548
38	0x3ce926a1	0.028460803
39	0xb99d9fb4	-0.00030064362
40	0xbb335aea	-0.0027367421
41	0x3ce17de7	0.027525855
42	0x3cba9d12	0.022779975
43	0x3d8fbe99	0.070187755
44	0xbc97fe92	-0.018554006
45	0x3d6c8bb4	0.05775042
46	0x3c13ced3	0.009021479
47	0x3cc17aaf	0.02361807
48	0xbce1f89b	-0.027584365
49	0xbd665959	-0.056237552
50	0xbc6cf4a5	-0.014462625
51	0x3bf8a5a4	0.0075881053
52	0x3c90c79b	0.017673304
53	0x3d1f7080	0.038925648
54	0x3bd9ace8	0.0066429265
55	0x3c56c9bf	0.013109623
56	0x3d04c922	0.032418378
57	0x3d5b5858	0.053551048
58	0xbd2dd2cb	-0.042437356
59	0x3b88690d	0.0041629137
60	0xbcfd6e6e	-0.030936446
61	0x3d4eafaf	0.050460514
62	0xbabaf15a	-0.0014262602
63	0x3b54afaf	0.0032453348
64	0x3be92a53	0.007115641
65	0x3c521bb3	0.012823987
66	0xbc53cf4b	-0.01292784
67	0xbd9c2a92	-0.07625307
68	0xbcc5edba	-0.024161208
69	0xbd187110	-0.0372172
70	0x3c4a2eca	0.012340257
71	0xbca1fe55	-0.019774595
72	0xbc85e4c0	-0.016344428
73	0x3b7b4fb8	0.0038347077
74	0x3c905ace	0.017621424
75	0x3bea833d	0.007156758
76	0xbc679b3c	-0.014136132
77	0x3bae011b	0.0053101904
78	0x3bd1eb8e	0.006406254
79	0x3c264cf5	0.010150184
80	0xbc8c0442	-0.017091874
81	0xbbe93c54	-0.0071177874
82	0x3d26824f	0.040651616
83	0x3dcbb100	0.099458694
84	0x3d059030	0.03260821
85	0xbaaa6b94	-0.0013002031
86	0xbc71a8bd	-0.014749703
87	0xbc856fc5	-0.016288647
88	0x3d4f74ea	0.050648607
89	0x3c8f9c75	0.01753066
90	0xba22b02b	-0.00062060606
91	0x3bb1308c	0.0054073986
92	0xbbdb5fc9	-0.006694768
93	0x3d0dc2e1	0.03460968
94	0xbcaf3271	-0.021386357
95	0x3d55daf9	0.05221078
96	0x3d92392a	0.071398094
97	0x3d0ae944	0.033913866
98	0x3c9d434c	0.019197129
99	0x3d07d878	0.033165425
100	0xbcc003dc	-0.02343934
101	0x3c9f0298	0.019410416
102	0xbcd7eeeb	-0.026359042
103	0x3de9f0da	0.11422892
104	0xbc856fa5	-0.016288588
105	0xbd973396	-0.07382886
106	0x3db6d71f	0.0892775
107	0xbc01087f	-0.007875561
108	0x3cbdbc8f	0.0231612
109	0x3be8f1a8	0.007108886
110	0x3d4ec605	0.050481815
111	0x3d538c69	0.051647577
112	0x3d90cfbf	0.070708744
113	0x3cdb88f5	0.026798705
114	0x3d9e6d2c	0.07735667
115	0xbbbc1669	-0.005739976
116	0xbc74276e	-0.014901979
117	0x3ca4acaa	0.020101864
118	0x3be16f2e	0.0068797087
119	0x3d563a7b	0.052301865
120	0x3c0d673a	0.008630568
121	0xbd2d09f1	-0.04224581
122	0xbc2f0497	-0.010682247
123	0x3ccf1ff4	0.025283791
124	0x3d013c59	0.031551693
125	0xbd0254f7	-0.03181931
126	0xbcc0082c	-0.023441397
127	0xbc6205b1	-0.013795302
128	0xbd0a2503	-0.033726703
129	0xbb2c06a3	-0.0026249073
130	0xbd175c53	-0.03695328
131	0xba6e883a	-0.0009099279
132	0xbcc80a68	-0.024419025
133	0xbbcb3e74	-0.0062025134
134	0xbc94fa0b	-0.018185636
135	0xbc903d84	-0.017607458
136	0x3d120a49	0.03565434
137	0x3cafdf20	0.021468699
138	0xbca29a4a	-0.019848961
139	0xbd2d83ba	-0.042361952
140	0x3db6cb9c	0.08925554
141	0xbca2747f	-0.01983094
142	0x3c97beb6	0.018523555
143	0xbcf25c9b	-0.029585173
144	0xbc4374db	-0.011929716
145	0x3bcbd22c	0.006220123
146	0x3bed0f63	0.0072345003
147	0x3adf8678	0.0017053625
148	0xbcda2280	-0.026627779
149	0x3b27314d	0.0025511563
150	0xbc788689	-0.015168794
151	0xba02b34a	-0.00049858226
152	0x3d29afae	0.041427307
153	0x3d801acf	0.06255113
154	0x3ba43384	0.005011024
155	0x3c649ed2	0.013953881
156	0xbc832758	-0.016009971
157	0xbbee2645	-0.0072677457
158	0xbc08a31c	-0.00833967
159	0x3d75c1e1	0.05999935
160	0x3c3243eb	0.010880451
161	0xbc9e873b	-0.019351592
162	0xbb2abf05	-0.0026053798
163	0xbc5335f1	-0.012891279
164	0xbcc9d567	-0.024637891
165	0x3da96c3a	0.08272596
166	0xbcc4d942	-0.024029378
167	0x3c045812	0.008077638
168	0xbc5c421f	-0.013443499
169	0xbbe94807	-0.007119182
170	0xbc1f4836	-0.009721806
171	0xbd4a4604	-0.04938318
172	0xbc7763cb	-0.015099476
173	0xb9ad5cea	-0.00033066358
174	0x3c91f834	0.017818548
175	0xbd5088a5	-0.050911564
176	0xbd2d4577	-0.042302575
177	0xbd275850	-0.040855706
178	0xbc704a97	-0.014666221
179	0xbc644404	-0.013932232
180	0xbccc28da	-0.024921823
181	0x3b9622bd	0.004581778
182	0x3c61c4bb	0.013779814
183	0x3bbf4315	0.005836854
184	0x3d45c5f2	0.04828448
185	0x3b317dc3	0.0027083016
186	0x3d89da14	0.06731048
187	0xbc80a7e0	-0.015705049
188	0x3d872324	0.065984994
189	0x3d4b5258	0.049639076
190	0x3d554abe	0.052073233
191	0x3c48cf9c	0.012256529
192	0xbd1ced13	-0.03831203
193	0xbcbb1108	-0.02283527
194	0x3ce545a6	0.027987313
195	0x3c24bed7	0.010055265
196	0xbcdffac0	-0.027341247
197	0xbc6218a6	-0.013799822
198	0x3c846f80	0.016166449
199	0xbd129443	-0.035785925
200	0xbcb448b3	-0.022007322
201	0xbcc0a312	-0.023515258
202	0xbcd2db4b	-0.025739333
203	0x3c94141b	0.018075993
204	0x3d7f5402	0.062335975
205	0x3d21faf5	0.039545972
206	0x3c8df09e	0.01732665
207	0xbd08a7a0	-0.033362985
208	0xbd2f285e	-0.042763107
209	0x3d0873fb	0.033313733
210	0x3bc6f1e0	0.006071314
211	0x3bd1d379	0.0064033833
212	0x3d54eae8	0.051981837
213	0xbcb6769d	-0.022273356
214	0x3ba9eda2	0.0051857987
215	0x3cb98cc1	0.022650125
216	0x3c6bf1ed	0.014400941
217	0xbc107364	-0.008816574
218	0xbc0dfbf8	-0.008666031
219	0x3cb42b1c	0.021993212
220	0xbc1f322a	-0.00971655
221	0xbd59f3dd	-0.05321108
222	0xbca88806	-0.020572674
223	0xbc8511d4	-0.016243853
224	0xbc6a0516	-0.014283439
225	0xbd452739	-0.04813311
226	0xbb458cbd	-0.00301437
227	0x3dcbfd5b	0.09960433
228	0xbd82e45f	-0.063912146
229	0x3c87ac7a	0.016561735
230	0xbd318f97	-0.04334983
231	0x3b8be74f	0.0042695175
232	0xbb4c87a6	-0.0031208782
233	0xbcf38b00	-0.029729366
234	0xbcf4dd68	-0.029890731
235	0x3d10d387	0.03535798
236	0x3d1bab9a	0.03800545
237	0xbd017c45	-0.031612653
238	0x3d849f85	0.064757384
239	0xbcaec510	-0.021334201
240	0x3d160010	0.036621153
241	0x3c7c828e	0.015411986
242	0x3cac532e	0.021035757
243	0x3d730829	0.059333954
244	0x3cd651e7	0.026162101
245	0x3d23cd1e	0.039990537
246	0xbc81e66a	-0.01585694
247	0x3b2185c1	0.0024646374
248	0xbb996647	-0.004681382
249	0x3b4b7ed1	0.003105093
250	0x3d921a0c	0.07133874
251	0xbd149b3e	-0.036280863
252	0x3bf1ba8b	0.007376974
253	0x3d6190bb	0.055069666
254	0x3d33a93b	0.043862563
255	0x3cb92650	0.022601277

network_body._body_endoder.seq_layers.0.weight f4 [256, 13]
0	0x3e09a7e9	0.13442959
1	0x3f0f8a1f	0.5607013
2	0xbe020255	-0.12696202
3	0x3e600e39	0.21880426
4	0xbe0c08ff	-0.13675307
5	0x3df4e4c1	0.11957694
6	0xbf429984	-0.76015496
7	0x3e1aa11a	0.15100518
8	0xbe81de93	-0.25365123
9	0x3f101169	0.56276566
10	0x3e4ba608	0.19887555
11	0x3f2f4008	0.6845708
12	0xbea323bb	-0.31863198
13	0x3e1b47b3	0.1516407
14	0x3dd4a031	0.103821166
15	0x3ec5f268	0.38661504
16	0xbd9c0989	-0.07619006
17	0x3ea0ba8b	0.3139232
18	0xbf3f1454	-0.74640393
19	0x3ee2e43e	0.4431476
20	0xbea9c5d1	-0.33158734
21	0xbede29c4	-0.4339124
22	0xbbb77720	-0.0055989176
23	0x3d028d56	0.03187307
24	0xbec1f784	-0.37884152
25	0xbee1a327	-0.44069788
26	0x3de0d47c	0.10978028
27	0xbb86f505	-0.004118564
28	0x3ecc6ed3	0.39928302
29	0xbe3fbd6f	-0.18724607
30	0x3e6f32a8	0.23359168
31	0xbd3e1792	-0.046409197
32	0xbeb3579c	-0.35027778
33	0x3ec1811e	0.3779382
34	0xbf65f06f	-0.8982
35	0x3d6dcb4d	0.05805521
36	0xbd496708	-0.049170524
37	0x3ed3a4e4	0.4133674
38	0xbe02f5b9	-0.12789048
39	0xbdbacc93	-0.09121051
40	0xbda6fff1	-0.08154286
41	0xbea2bf42	-0.31786543
42	0xbe139aeb	-0.14414565
43	0xbd18cca9	-0.037304554
44	0xbe72b0a6	-0.23700199
45	0xbbfe0d37	-0.00775304
46	0xbc3496ca	-0.011022279
47	0x3f1478bc	0.57996726
48	0xbea1d779	-0.31609705
49	0xbef3d9c8	-0.4762709
50	0x3e48a8bd	0.19595619
51	0xbe488a63	-0.1958404
52	0x3b95dadd	0.0045732097
53	0x3f2ec127	0.6826348
54	0xbe391d3a	-0.18077555
55	0x3ebe82c1	0.37209132
56	0xbe4a997b	-0.1978511
57	0x3de6e341	0.11273814
58	0x3ea05523	0.31314954
59	0xbeba9af0	-0.36446333
60	0xbe4d33a8	-0.20039237
61	0xbee9a86f	-0.45636317
62	0x3e6b44df	0.22975491
63	0xbcd5217e	-0.026016947
64	0xbee0515d	-0.43812075
65	0xbecfcb33	-0.40584716
66	0x3e54b4e0	0.20772123
67	0xba88c2a5	-0.0010433985
68	0xbe9b639c	-0.30349433
69	0xbda12f95	-0.07870404
70	0x3d489a8f	0.048975524
71	0x3f037fb5	0.5136674
72	0xbec16471	-0.37771943
73	0x3f107618	0.56430197
74	0x3d0f7f11	0.03503329
75	0x3c8608c8	0.01636161
76	0xbe689bcd	-0.22715683
77	0xbd1310a6	-0.03590455
78	0xbeabda35	-0.33564916
79	0x3eaacfa4	0.33361542
80	0xbc84f33e	-0.016229268
81	0x3efe1c6b	0.49631056
82	0x3ec695e9	0.38786247
83	0x3d5aac96	0.053387247
84	0x3ead9ed4	0.3391024
85	0xbe30a8cd	-0.17251892
86	0x3ea4f2cb	0.32216486
87	0x3e0cabc4	0.13737398
88	0x3da5da15	0.080982365
89	0x3d97f42c	0.07419619
90	0x3f024615	0.50888187
91	0x3d7900d0	0.06079179
92	0x3ea30895	0.31842485
93	0xbe6b1780	-0.22958183
94	0x3e1b5af9	0.15171422
95	0xbe39b42e	-0.1813514
96	0xbe8df694	-0.27727187
97	0x3eeffd53	0.4687296
98	0x3dc6e633	0.09711876
99	0xbe748147	-0.2387744
100	0x3e666def	0.22502874
101	0xbe196d52	-0.14983109
102	0x3cbaf6d4	0.022822775
103	0x3e61ef96	0.22064051
104	0x3ed86e93	0.4227186
105	0xbea84245	-0.3286306
106	0xbe5e8eb5	-0.21734126
107	0xbce54b97	-0.027990146
108	0x3790cf7e	1.7262759e-05
109	0xbb7cefa8	-0.0038594995
110	0xbeb2b478	-0.34903312
111	0xbed460b8	-0.4148004
112	0x3eb0693e	0.34455293
113	0x3f0278e3	0.5096571
114	0xbf1bea11	-0.6090403
115	0xbd760af5	-0.060069043
116	0x3e13ee56	0.14446387
117	0x3e48931e	0.19587371
118	0x3ec96899	0.39337614
119	0xbd76fe34	-0.06030102
120	0x3eb69870	0.35663176
121	0x3ecf570b	0.40496096
122	0xbe10454b	-0.14088933
123	0xbce5491f	-0.027988968
124	0x3e143fbd	0.14477439
125	0xbe293482	-0.16523936
126	0x3ec1c56e	0.3784594
127	0x3eb10de2	0.34580904
128	0x3f2837f2	0.65710366
129	0x3eeeac3a	0.46615773
130	0xbe5b5341	-0.21418478
131	0xbe2bd3ec	-0.1678006
132	0x3f16424f	0.5869493
133	0xbde3bd0e	-0.11120044
134	0x3d560927	0.052254822
135	0xbe9ebd3a	-0.31003743
136	0xbdf1dd30	-0.11809766
137	0xbd32b488	-0.0436292
138	0xbcd4bfec	-0.025970422
139	0xbf1827ed	-0.5943592
140	0x3e5e83b1	0.21729924
141	0xbe7b3dfd	-0.24535365
142	0xbde617fb	-0.11235043
143	0x3dd539c5	0.10411409
144	0xbe64c65a	-0.2234129
145	0x3e74445f	0.23854207
146	0x3e978c4e	0.2959923
147	0x3f12e2bc	0.5737722
148	0xbd496b83	-0.049174797
149	0x3e6e2c61	0.23259117
150	0xbdb04212	-0.08606352
151	0xbe7e61cd	-0.24841996
152	0xbea35420	-0.3190012
153	0xbf4a1b5d	-0.78948003
154	0xbeadfa9d	-0.33980265
155	0xbd888b66	-0.06667213
156	0xbf22965d	-0.63510686
157	0xbe99a6c6	-0.3001005
158	0xbddedbbd	-0.108817555
159	0x3ebc68ab	0.36798605
160	0x3ea49396	0.3214385
161	0x3e5265fd	0.20546718
162	0x3e812973	0.25226936
163	0xbe9f5d89	-0.3112605
164	0x3d8fddb7	0.070247106
165	0xbe2ff18e	-0.1718199
166	0xbe47dd6a	-0.19518057
167	0xbeb2075f	-0.3477125
168	0xbd22ca9b	-0.039744
169	0x3eb90b28	0.36141324
170	0x3d863ada	0.06554194
171	0x3f04a16a	0.518088
172	0xbed864ef	-0.42264506
173	0xbea6e553	-0.32596835
174	0xbf16fe00	-0.58981323
175	0x3e751f2b	0.23937671
176	0xbf1cb9a7	-0.61220783
177	0xbe5523c8	-0.2081443
178	0x3d1c0d91	0.038098875
179	0x3d1cb67a	0.03825996
180	0xbec30536	-0.38089913
181	0x3e629174	0.22125798
182	0x3e3f6bcb	0.18693464
183	0xbe3efdc1	-0.18651487
184	0x3cd38e8b	0.025824806
185	0xbf102bbb	-0.5631673
186	0x3f0fc17e	0.5615462
187	0x3dbd0367	0.092291646
188	0xbeec1eaa	-0.46117145
189	0xbe9ed195	-0.31019273
190	0x3dc20ac4	0.0947471
191	0x3e62f070	0.22162032
192	0xbebf3f13	-0.3735281
193	0xbe0f2643	-0.1397944
194	0x3d2b9460	0.04188955
195	0x3eb62b29	0.35579804
196	0x3d662c97	0.056194868
197	0xbe9dd984	-0.30830014
198	0xbe3f013b	-0.18652813
199	0xbce40eaa	-0.027839024
200	0x3e2c1299	0.1680397
201	0x3f3d2544	0.7388499
202	0x3e1a3c59	0.15062083
203	0xbebd87d8	-0.37017703
204	0x3f136d65	0.575888
205	0xbde48bd0	-0.111594796
206	0x3e8db334	0.27675784
207	0x3e1eb79a	0.15499726
208	0xbd326e88	-0.043562442
209	0xbe474dff	-0.19463347
210	0xbd2e06e1	-0.04248703
211	0x3e14a4fb	0.1451606
212	0xbea380d6	-0.31934232
213	0xbf0ebdbd	-0.5575827
214	0x3e573402	0.21015933
215	0x3e2a86d0	0.1665299
216	0x3dea1ea3	0.11431625
217	0xbe3e9af3	-0.18613796
218	0xbe9c490e	-0.30524486
219	0x3ef34314	0.47512114
220	0xbbe9c57a	-0.0071341367
221	0x3e566cba	0.20939913
222	0x3e8f77f3	0.28021201
223	0x3e4a6fa6	0.19769153
224	0x3cefc441	0.029268386
225	0xbf1440c5	-0.5791133
226	0xbe90f89e	-0.2831468
227	0xbeb093b1	-0.3448768
228	0x3cd094eb	0.025461635
229	0xbe6f2c57	-0.23356758
230	0x3dcf1ca2	0.10112883
231	0xbe33cf59	-0.17559566
232	0xbe15d17f	-0.14630698
233	0xbf785d3d	-0.9701727
234	0x3d58e0b1	0.052948657
235	0x3edc6081	0.43042377
236	0xbcb3c848	-0.021946087
237	0x3e79e3c9	0.244033
238	0x3eda0dd0	0.42588663
239	0x3e28ff8f	0.16503738
240	0x3f26f9eb	0.65225095
241	0xbeb25186	-0.34827822
242	0xbdf6b5de	-0.12046407
243	0xbe26a7df	-0.16274975
244	0xbdb228dc	-0.086991996
245	0xbea6aa1a	-0.32551652
246	0x3e24a3a4	0.16078049
247	0x3e24b3c9	0.16084208
248	0x3ea5944d	0.32339707
249	0xbe33c499	-0.17555465
250	0x3f012127	0.5044121
251	0xbc8f76a1	-0.017512621
252	0x3e6e0b16	0.23246416
253	0x3e59852f	0.21242212
254	0xbed6f46a	-0.41983348
255	0x3ed3c7e7	0.4136345

network_body._body_endoder.seq_layers.2.bias f4 [256]
0	0xbc4c2073	-0.012458908
1	0x3cd0b7cb	0.025478264
2	0xbc9945d2	-0.01871005
3	0x3caa66bc	0.02080094
4	0x3d206c5f	0.03916585
5	0xbcd78e40	-0.026312947
6	0xbc823812	-0.015895877
7	0xbbee8c6b	-0.0072799227
8	0xbcb553bf	-0.02213466
9	0x3c471f10	0.012153402
10	0x3b1eb74e	0.0024218145
11	0x3d56df37	0.052458968
12	0xbcf704f9	-0.030153738
13	0x3c9055a7	0.017618967
14	0x3ca82351	0.020524653
15	0xbbaae7b8	-0.0052156113
16	0x3c67bb2e	0.014143748
17	0xbc9c2854	-0.019062199
18	0xbcff090f	-0.03113225
19	0xbce9fcd9	-0.02856295
20	0x3bcb0787	0.0061959657
21	0x3caa9961	0.02082509
22	0xbd145b68	-0.036219984
23	0xbc7ebd63	-0.015548083
24	0xbbb81a43	-0.005618365
25	0xb63a5711	-2.776684e-06
26	0x3c314e93	0.010821956
27	0xbc83eab9	-0.016103135
28	0xbcf61333	-0.030038452
29	0xbb23754a	-0.0024941736
30	0x3b81d893	0.0039625852
31	0xbc1efdde	-0.009704081
32	0x3c63d18a	0.0139049385
33	0xba934f7f	-0.0011238902
34	0xbc5d3b48	-0.013502903
35	0x3cbf5f70	0.023360938
36	0xbb7357b6	-0.0037131137
37	0xbcb25a6b	-0.02177163
38	0x3b7f9b2e	0.0039002406
39	0x3cc9df34	0.024642564
40	0xba5d4a63	-0.00084415654
41	0x3c0a0cf3	0.008425939
42	0xbc18373a	-0.009290511
43	0xbc1b5749	-0.00948126
44	0x3c463881	0.0120984325
45	0x3cf5062e	0.029910173
46	0xbca838c8	-0.020534888
47	0x3b2080c5	0.0024490815
48	0xbbb009ba	-0.0053722532
49	0xbcf35954	-0.02970568
50	0x3b0079a0	0.0019603744
51	0x3d045dd5	0.032316048
52	0xbc2db9eb	-0.010603408
53	0xb9fa3691	-0.0004772437
54	0xbcc8b7b6	-0.024501663
55	0x3bf50646	0.0074775545
56	0x3c8b9588	0.017039075
57	0x3bbaabae	0.0056967353
58	0xbca835d6	-0.020533483
59	0xbb0512fb	-0.0020305503
60	0xbc311e2d	-0.010810417
61	0xbd18b375	-0.03728052
62	0xbd1063f1	-0.03525156
63	0xbcf99c35	-0.030469993
64	0xbc24272f	-0.010019108
65	0xbceb5fcd	-0.028732205
66	0xbd2493fe	-0.0401802
67	0x3d272a09	0.040811572
68	0x3b253dd7	0.0025213861
69	0x3b44d939	0.0030036701
70	0xbcc9406b	-0.02456685
71	0xbcd02d97	-0.025412364
72	0xbc0a5a58	-0.008444391
73	0xbccce357	-0.025010748
74	0xbb9b3471	-0.004736476
75	0xbca22089	-0.019790905
76	0x3c1a6aca	0.009424875
77	0x3cc197a1	0.023631873
78	0x3b7db47a	0.0038712309
79	0xbb866357	-0.0041011977
80	0x3d18911a	0.037247755
81	0x3c0652cf	0.008198454
82	0x3b86be82	0.004112066
83	0x3c8d81b7	0.017273767
84	0x3c0a39dc	0.008436646
85	0xbc99fee0	-0.018798292
86	0xbc26f62d	-0.010190529
87	0x3bf6e736	0.0075348867
88	0x3cb3eccb	0.021963498
89	0xbc8562b4	-0.016282417
90	0xbc185d2e	-0.0092995595
91	0xbc11a3bb	-0.008889134
92	0xbcd60b87	-0.026128544
93	0x3c808270	0.015687197
94	0xbc5d93d3	-0.013524014
95	0xbcc1ae5b	-0.02364271
96	0x3c4b81fb	0.0124211265
97	0x3ca25afb	0.019818773
98	0x3cdcc357	0.026948614
99	0xbc128468	-0.008942701
100	0x3ae71fe7	0.0017633409
101	0x3c297489	0.010342726
102	0x3c9a9d4b	0.018873831
103	0x3d2d0736	0.042243205
104	0xbc5648f0	-0.013078913
105	0xbc1a052d	-0.009400648
106	0xbc358ead	-0.01108138
107	0xbc298474	-0.010346521
108	0xbcbd4e1d	-0.023108536
109	0xbc3c6535	-0.011498739
110	0xbc1258c4	-0.008932296
111	0xbc8e0eb2	-0.017340992
112	0x3c9fa754	0.019488968
113	0xbcde901f	-0.027168332
114	0xbc905c76	-0.017622214
115	0xba594c09	-0.0008289223
116	0x3c65e48f	0.014031543
117	0xbbdf09a2	-0.0068065682
118	0xbce2b0d5	-0.02767221
119	0x3cd4acaf	0.025961248
120	0xbc30833a	-0.010773474
121	0xbccd7449	-0.025079863
122	0x3966453d	0.00021960303
123	0xbc4f8289	-0.012665399
124	0x3b4f206f	0.0031605025
125	0xbcdf1e77	-0.027236206
126	0xbc813d81	-0.015776398
127	0x3cb79402	0.022409443
128	0x3ba490a7	0.0050221267
129	0xbc7b2169	-0.01532779
130	0x3c69503d	0.014240322
131	0xbcf1d82f	-0.02952203
132	0x3a4ef254	0.0007894386
133	0x3ccb79d6	0.02483837
134	0x3d4b0bd7	0.04957184
135	0x3c20e2ae	0.00981967
136	0x3cba0d2a	0.022711355
137	0x3cd3fd01	0.025877478
138	0x3c92eb94	0.017934598
139	0x3be56829	0.0070009422
140	0xbcff3c10	-0.03115657
141	0xbba122a1	-0.004917458
142	0xbc8fd2fc	-0.01755666
143	0xbd5c8558	-0.053838104
144	0xbc9e172b	-0.019298157
145	0x3bc2475c	0.005928917
146	0xbc659d8a	-0.014014611
147	0xbc7310e4	-0.01483557
148	0x3c7a0a2f	0.015261217
149	0xbc0f51bc	-0.008747514
150	0xbbd992f2	-0.0066398317
151	0x3c22bf18	0.009933256
152	0x3c7642d3	0.015030581
153	0xbc8a9695	-0.016917506
154	0xbcefa4b2	-0.029253338
155	0xbc6303dd	-0.013855902
156	0xbbb9328d	-0.005651778
157	0x3c04b405	0.008099561
158	0x3c903649	0.01760401
159	0xbc7c9175	-0.015415539
160	0x3c6c0d74	0.014407504
161	0x3cc986ab	0.024600348
162	0x3c63a23c	0.01389366
163	0xbc460b29	-0.012087622
164	0xbca16688	-0.019702211
165	0xbc644166	-0.013931608
166	0x3c817d57	0.015806837
167	0x3c3285c4	0.01089615
168	0x3b8d3dbb	0.0043103374
169	0x3c58e2db	0.01323768
170	0x3cb021ce	0.021500494
171	0x3b84b375	0.0040497133
172	0xbc560e8a	-0.01306499
173	0x3b2a0090	0.0025940277
174	0xbba860ac	-0.0051384773
175	0xbd050ee1	-0.032484893
176	0x3c53879a	0.012910748
177	0xbb32acdd	-0.002726368
178	0xbcef7a75	-0.029233197
179	0xbc986a79	-0.018605458
180	0xbc23d3d6	-0.009999236
181	0xbcb55588	-0.022135511
182	0xbcb5b73b	-0.022182098
183	0x3d2a473b	0.041571837
184	0xbc06dda2	-0.008231552
185	0x3d605cd6	0.054776035
186	0x3b9d318c	0.004797166
187	0xbabbd293	-0.0014329724
188	0xbc9bc9d2	-0.019017134
189	0x3d44ce25	0.048048157
190	0xbc0c8b99	-0.008578205
191	0xbb9db0c7	-0.0048123333
192	0xbca1fa3f	-0.019772647
193	0xbc813adc	-0.015775137
194	0x3cd9855f	0.026552854
195	0xbaaabaf5	-0.0013025688
196	0x3cd7a1f6	0.026322346
197	0x3cdfa4af	0.027300207
198	0x3b47f83f	0.0030512956
199	0x3c22330b	0.009899865
200	0xbd3c9cec	-0.04604809
201	0xbcb62971	-0.022236558
202	0x3c6e01c5	0.014526789
203	0xbc84df8c	-0.016219877
204	0x3c185fcf	0.009300186
205	0x3d2da679	0.04239509
206	0xbd18302e	-0.037155323
207	0xbd3d6e73	-0.04624791
208	0x3c04ae8c	0.008098256
209	0xbc48abae	-0.012247963
210	0x3cf8b096	0.03035764
211	0x3cd00f29	0.025397854
212	0x3c7d748d	0.015469682
213	0x3d0a04a6	0.03369584
214	0x3b6745f3	0.0035289496
215	0x3a96880e	0.0011484639
216	0xbcfd3fef	-0.030914275
217	0xbbecc335	-0.007225419
218	0xbd247065	-0.04014625
219	0xbd109fc7	-0.035308626
220	0x3c8532ca	0.01625957
221	0x3d7e33a8	0.062060982
222	0x3c70c05d	0.0146943005
223	0xbbedd104	-0.0072575826
224	0x3b9489b6	0.004533018
225	0xbcc07b68	-0.023496345
226	0xbc964160	-0.01834172
227	0x3cadce2b	0.021216473
228	0x3c26f5ab	0.010190408
229	0xbca82bac	-0.020528637
230	0x3bbe1090	0.0058003142
231	0x39054091	0.00012707921
232	0xbcb6fde9	-0.02233787
233	0x3c101f6b	0.008796553
234	0xbced1f89	-0.028945701
235	0xbc615ab7	-0.013754538
236	0x3c292e13	0.010325926
237	0x3c81160a	0.01575758
238	0xbca3ed16	-0.020010512
239	0x3c5cb3de	0.013470618
240	0xbd253693	-0.04033525
241	0xbc49677a	-0.012292737
242	0x3b13ffce	0.0022582891
243	0x3cd2e800	0.025745392
244	0xbc9c68a0	-0.019092858
245	0xbc91f64f	-0.017817644
246	0xbc2be933	-0.010492611
247	0x3c96c126	0.018402647
248	0x3c841bd5	0.016126553
249	0x3c91332a	0.017724592
250	0xbbc44aca	-0.005990361
251	0xbc11f238	-0.008907847
252	0x3cbe2503	0.023211008
253	0x3b2ac2f9	0.0026056154
254	0x3b0533c0	0.0020325035
255	0x3cc096f4	0.02350948

network_body._body_endoder.seq_layers.2.weight f4 [256, 256]
0	0xbcefd0b0	-0.029274315
1	0xbd090117	-0.033448305
2	0x3d73374e	0.059378915
3	0x3dd8a91f	0.10579132
4	0x3c80e10f	0.015732316
5	0x3d2c42c3	0.042055856
6	0xbcc76e03	-0.02434445
7	0xbd155025	-0.036453385
8	0xbc29ed51	-0.010371522
9	0xbade2590	-0.001694845
10	0x3d3603ea	0.044437326
11	0x3ce91987	0.028454555
12	0xbb8725dd	-0.0041243867
13	0xbd32f6df	-0.043692466
14	0xbd9bf502	-0.07615091
15	0xbd4f1488	-0.05055669
16	0x3d078ead	0.03309505
17	0x3cea4d4d	0.028601313
18	0x3c39c9ad	0.011339587
19	0x3cc25851	0.023723753
20	0xbbc108a1	-0.005890921
21	0xbd95c6c3	-0.073133014
22	0x3d7df943	0.062005293
23	0x3c6f3ca6	0.014601862
24	0x3d4c1950	0.049828827
25	0x3dafef14	0.085905224
26	0xbc904b5a	-0.017614055
27	0x3d39085f	0.045174
28	0xbc1e2076	-0.009651294
29	0xbd01a72c	-0.03165357
30	0x3d857be2	0.065177694
31	0x3c9de25b	0.019272974
32	0xbe04e403	-0.12977605
33	0xbcd5d374	-0.026101805
34	0xbd0d772c	-0.03453748
35	0x3c7cef40	0.015437901
36	0xbd31af5d	-0.04338013
37	0xbda3d413	-0.07999434
38	0xbdb1e238	-0.08685726
39	0xbce684bb	-0.028139463
40	0x3d9a88d3	0.075456284
41	0x3d6a091f	0.057137605
42	0xbd40345f	-0.046924945
43	0xbb4576ca	-0.0030130618
44	0xbe2c53d5	-0.16828854
45	0x3d470d6c	0.048596784
46	0x3d1f68f1	0.03891844
47	0xbd8d3da4	-0.06896523
48	0xbdd4c2ce	-0.103887185
49	0x3d209329	0.039202843
50	0xbd302ca7	-0.043011334
51	0x3d04ea83	0.03245021
52	0xbe06b810	-0.13156152
53	0x3d3d9aed	0.046290327
54	0xbbed822e	-0.0072481846
55	0x3ccf1c7a	0.025282133
56	0x3e152352	0.14564255
57	0xbc0227d6	-0.007944068
58	0xbcab6ad7	-0.020924969
59	0xbdf7e29e	-0.12103771
60	0x3cb9c410	0.022676498
61	0x3ddd3dca	0.10802801
62	0x3daa5a19	0.08317966
63	0xbc84e11d	-0.016220624
64	0x3d887cff	0.06664466
65	0x3de938d0	0.11387789
66	0xbdc0f79c	-0.09422228
67	0x3d4a31bd	0.04936384
68	0xbdf4968a	-0.119427755
69	0x3dbba7be	0.09162854
70	0xbda77567	-0.081766896
71	0xbd579553	-0.05263264
72	0xbd7e83f0	-0.062137544
73	0x3d3b4b40	0.04572606
74	0x39c15586	0.00036875549
75	0xbd9da4a4	-0.07697418
76	0xbe05b9af	-0.13059114
77	0xbd193e49	-0.037412915
78	0xbdf529df	-0.11970877
79	0xbccf973a	-0.025340665
80	0x3d3dffc8	0.04638651
81	0x3ba10248	0.004913602
82	0x3da48483	0.08033087
83	0xbbd62b9d	-0.006535961
84	0xbdba524d	-0.09097729
85	0xbbd14946	-0.0063869087
86	0xbd6ba080	-0.05752611
87	0x3b6335b7	0.0034669468
88	0x3cc97b97	0.024595065
89	0x3cd40ca3	0.025884932
90	0x3ca77872	0.020443175
91	0xbdb14302	-0.08655359
92	0xbddee520	-0.10883546
93	0x3cf88b30	0.030339807
94	0xbd1862f6	-0.03720375
95	0xbdd70409	-0.104988165
96	0xbc38f6c4	-0.011289302
97	0xbd22c4c8	-0.039738446
98	0x3c3f0544	0.01165897
99	0xbcb5095b	-0.022099188
100	0xbb49f56e	-0.0030816454
101	0x3ce729a1	0.028218092
102	0x3d63cc74	0.055614904
103	0x3d78fe48	0.060789376
104	0x3cc08d55	0.023504892
105	0x3cd6e06c	0.02623006
106	0xbce4f727	-0.027949883
107	0x3c8dd0ad	0.017311418
108	0xbd945470	-0.07242668
109	0xbaf228a1	-0.0018475243
110	0x3cebd54e	0.028788235
111	0xbd213f0a	-0.03936676
112	0xbca1db66	-0.019757938
113	0x3cefdc26	0.02927978
114	0xbc722ee9	-0.014781692
115	0x3c5ba2e6	0.013405537
116	0x3c4c3605	0.012464051
117	0x3db353a9	0.08756191
118	0xbd99e946	-0.075151965
119	0x3cae54e4	0.021280713
120	0x3e1c5122	0.15265325
121	0xbd604a28	-0.05475822
122	0xbe02ce96	-0.12774119
123	0x3d0f8881	0.03504229
124	0x3db0a130	0.08624494
125	0xbb46cc6d	-0.003033425
126	0x3aae0616	0.001327696
127	0x3d87059f	0.06592869
128	0xbc390f83	-0.011295202
129	0xbda4b0ab	-0.08041509
130	0x3c96e0a3	0.018417662
131	0x3d8f99f4	0.07011786
132	0x3e216cb7	0.15764128
133	0xbcf4e25a	-0.02989309
134	0x3d530205	0.051515598
135	0xbcda9cfe	-0.026686188
136	0xbd761e02	-0.06008721
137	0xbdb7e98a	-0.08980091
138	0xbd5217d5	-0.05129226
139	0xbd4022ce	-0.046908192
140	0x3d175763	0.036948573
141	0xbced2eff	-0.028953074
142	0xbe01100e	-0.1260378
143	0xbde520e7	-0.11187916
144	0x3d714633	0.058904838
145	0xbda4ba66	-0.08043365
146	0xbd0b28b1	-0.033974353
147	0x3bdbc54e	0.00670687
148	0x3d819a63	0.06328275
149	0xbd8a3fd2	-0.06750454
150	0xbced32cd	-0.028954888
151	0x3d91060a	0.0708123
152	0xbe4bc7fd	-0.19900508
153	0xbb9f37c6	-0.0048589436
154	0x3dcba9e5	0.09944514
155	0xbd12aafd	-0.0358076
156	0x3ca6197e	0.020275827
157	0xbdea5653	-0.11442246
158	0x3b73051b	0.00370819
159	0xbcba5671	-0.022746297
160	0xbd103fa3	-0.03521694
161	0x3dec9c08	0.11553198
162	0xbdebd101	-0.11514474
163	0xbd1a8d03	-0.037732136
164	0x3d2d8920	0.0423671
165	0xbdc10f70	-0.094267726
166	0x3d819a0d	0.06328211
167	0xbd629dac	-0.05532615
168	0xbd668061	-0.056274775
169	0xbe09e06a	-0.13464513
170	0x3c91dcb9	0.017805444
171	0x3d504c4a	0.050854005
172	0x3c265084	0.010151032
173	0x3ca9dad6	0.020734232
174	0xbda7de18	-0.08196658
175	0xbcbb8995	-0.022892753
176	0xbde5ef03	-0.112272285
177	0x3ceb14ca	0.028696436
178	0x3c3113e3	0.010807964
179	0xbdb3c7d8	-0.087783515
180	0xbd98a049	-0.07452447
181	0xbd8d0fe0	-0.068877935
182	0x3d8b66e8	0.06806737
183	0x3d5013ff	0.05080032
184	0xbc38c977	-0.011278502
185	0xbd3d43f6	-0.04620739
186	0x3d775d45	0.060391683
187	0xbdc142d9	-0.09436578
188	0x3d0083b3	0.0313756
189	0x3b134a91	0.0022474865
190	0x3cf73f67	0.0301816
191	0x3d8987dc	0.06715366
192	0xbd079dd4	-0.0331095
193	0xbc33b4ac	-0.0109683685
194	0x3d8a55bb	0.06754633
195	0x3c8fcb5e	0.017553028
196	0xbde1ed86	-0.11031632
197	0x3c91b496	0.017786305
198	0x3dd59e24	0.104305536
199	0x3d4b9ad9	0.04970822
200	0xbc5a9e00	-0.013343334
201	0xbdde4c65	-0.10854415
202	0xbd6005b7	-0.05469295
203	0xbdfbdb99	-0.12297744
204	0xbc9b6c04	-0.018972404
205	0xbcfb9603	-0.03071118
206	0x3d07c842	0.033149965
207	0x3b492843	0.0030694164
208	0x39dbc2e7	0.0004191615
209	0xbda5572d	-0.08073268
210	0x3d5f6426	0.05453887
211	0xbd4cd33c	-0.050006136
212	0x3cfbceb2	0.030738208
213	0xbd5157f7	-0.05110928
214	0xbcfb43c7	-0.030671967
215	0xbdb85f0e	-0.09002505
216	0x3df9ef1d	0.1220381
217	0x3d9170cc	0.071015924
218	0xbd2ee987	-0.042703178
219	0x3d9c3e12	0.076290265
220	0xbcf2ca59	-0.029637503
221	0xbdfbfb87	-0.123038344
222	0x3e1e4c0e	0.154587
223	0x3d058e65	0.0326065
224	0xbe457a2e	-0.19284889
225	0xbdf4ab9a	-0.11946793
226	0x3cbc5f1c	0.02299457
227	0x3b5d75cc	0.0033792136
228	0x3b4cde59	0.003126046
229	0x3dc34b51	0.0953585
230	0xbd11db65	-0.03560962
231	0xbd7371ba	-0.05943463
232	0x3d41f24e	0.04735022
233	0xbdc40840	-0.09571886
234	0xbd7a8187	-0.061158683
235	0x3d222997	0.039590444
236	0xbe1b86b0	-0.15188098
237	0xbd23ee36	-0.040022098
238	0xbcd8a1b6	-0.026444297
239	0x3dbf2581	0.09333325
240	0xbda620fe	-0.081117615
241	0xbdcc7f99	-0.09985275
242	0x3d168854	0.036751106
243	0xbdc2c024	-0.09509304
244	0x3d973c70	0.073845744
245	0x3d88010d	0.066408254
246	0xbd54f17e	-0.051988117
247	0x3cf16ee0	0.029471815
248	0x3db71f72	0.089415446
249	0xbd0dd334	-0.034625247
250	0xbde1cafc	-0.11025044
251	0xbcb5c1b6	-0.022187095
252	0xbb06dad0	-0.00205772
253	0x3b5bf9fd	0.0033565753
254	0xbd81c281	-0.06335927
255	0xbd04cfec	-0.032424852
