results/Drone2/Drone/Drone-2499872.onnx (onnx, 283599 bytes, 7 tensors)

action_model._continuous_distribution.log_sigma f4 [1, 4]
-0.20213583 -0.1799179 -0.18355684 -0.25007433
00000000: b2fc 4ebe 663c 38be 53f6 3bbe be09 80be

action_model._continuous_distribution.mu.bias f4 [4]
-0.0140073635 -0.0075478363 -0.019724334 -0.022990257
00000000: 247f 65bc d753 f7bb ed94 a1bc 1056 bcbc

action_model._continuous_distribution.mu.weight f4 [4, 256]
0.0054495228 0.0024151786 0.0022209906 -0.029634349 0.017760264 0.0049270545 0.046386637 0.002231948
-0.0017878752 0.013185348 0.0011095841 -0.061901193 0.009483253 0.02182107 0.0013554485 -0.012632065
-0.020856837 0.038056772 0.001811456 0.010319827 0.0009313039 0.005930071 0.0073059066 0.01799338
0.013702959 -0.013184505 -0.00020216971 0.0045899567 0.024590736 0.013817559 -0.011795108 -0.028370239
-0.009172335 0.00073462015 0.0134459 -0.011874476 0.015543536 0.03177983 -0.0075755594 -0.013494467
-0.019257858 -0.0117106205 -0.004803371 -0.012550244 0.0013967381 0.023670457 0.00011732346 -0.0019430248
0.021582088 -0.004901278 0.0537575 -0.010528587 0.022811636 0.008582564 0.0074370955 -0.0060865646
0.017467048 0.0148092145 -0.0011384913 0.0020516359 -0.02924447 0.011201482 0.016803572 0.020663636
-0.023305103 0.019991288 0.0056761885 0.035133388 0.012029555 0.036860015 -0.00787574 -0.008489761
-0.0014491477 0.0036222944 -0.0068926746 0.0027855549 -0.015110234 0.005877054 -0.005629931 -0.008516412
-0.008919085 -0.020737033 -0.023638273 0.00985041 0.0054122303 -0.014137724 0.035363436 0.0017852475
0.029579205 0.019827174 -0.0153123485 -0.0067751245 0.013213512 0.01826781 -0.00843362 -0.0029796718
-0.015067357 -0.014321909 -0.005711732 -0.008265931 -0.013195373 -0.0076546394 -0.059308775 -0.025179973
-0.003085445 -0.0032249265 0.011078189 0.011945751 0.0077210357 0.00392896 -0.010474081 -0.0037635725
-0.010127882 0.0058737155 -0.015737558 -0.0050329347 0.035177976 0.052754253 -0.0138784135 -0.013478111
0.011624107 0.010559304 -0.003894075 0.018524773 0.030986004 -0.0025722214 0.0027204365 -0.0048862225
0.0311572 -0.005399392 -0.0049381456 -0.0029256078 0.008044103 0.0032625753 -0.018971162 -0.010714296
0.005372557 -0.022976475 0.00898785 -0.017892715 0.019329762 0.01519828 0.0047749886 0.005493315
0.0015597342 -0.019459102 -0.0070529827 0.01286217 0.016188651 0.026256949 0.03112374 -0.027757863
-0.014050888 -0.008749698 -0.012547778 0.011150033 -0.01291837 -0.008648507 -0.014242067 5.480549e-05
-0.020776477 -0.026922174 -0.021461485 0.0024967517 -0.013630254 -0.0048590302 0.007872574 -0.0034470656
0.011276347 -0.040792532 -0.0007933357 -0.026204264 0.020765236 0.0049750055 -0.013536572 -0.0011723115
-0.01573795 0.0020558706 0.0047169733 -0.0087086 -0.0011211929 -0.0049344907 0.008146994 -0.032368414
-0.0059610037 -0.045676056 -0.009581319 0.009837036 0.011319537 -0.020264208 0.020427926 -0.015875181
0.037058167 0.0097325165 -0.018270142 0.023569768 -0.022312853 -0.006973033 -0.015684206 -0.018242046
-0.005171271 0.014512834 -0.0005649336 -0.013579875 -0.027442845 -0.014475932 0.0072583742 0.0041307486
-0.011670467 0.008511542 0.008490228 -0.030487016 0.008616567 0.049066678 -0.013753078 0.01779915
-0.0036434068 -0.0017684988 0.011863723 0.0064694346 -0.011361369 0.038397964 -0.014451321 -0.0050061336
0.033243142 0.017801713 -0.011233387 -0.0038640823 -0.012665326 0.043659076 0.00929874 0.008149052
0.011576857 0.004727267 0.0006602346 0.016381515 0.003382693 0.02877919 -0.017830016 0.00084604067
0.008622289 -0.009202929 0.0070065227 0.0016913217 0.0030041991 0.012290804 -0.0048715603 -0.004483922
-0.014622921 -0.028081637 0.0121276295 -0.0070916363 -0.019375386 -0.014075053 0.028313609 0.0052589574
00000000: e991 b23b f947 1e3b 0a8e 113b bcc3 f2bc
00000010: f97d 913c 2173 a13b eaff 3d3d e045 123b
00000020: 2357 eaba 5c07 583c 776f 913a 1b8c 7dbd
00000030: a55f 1b3c 1ac2 b23c 4ea9 b13a b9f6 4ebc
00000040: f5db aabc 6be1 1b3d 616e ed3a 7e14 293c
00000050: bf22 743a 0b51 c23b 6366 ef3b da66 933c
00000060: 6082 603c d203 58bc 85fd 53b9 5967 963b
00000070: 8372 c93c 0b63 623c 4540 41bc b468 e8bc
00000080: 9047 16bc 8693 403a 314c 5c3c 2a8d 42bc
00000090: 51aa 7e3c 912b 023d 663c f8bb e617 5dbc
000000a0: a8c2 9dbc e7dd 3fbc 9965 9dbb 8a9f 4dbc
000000b0: c112 b73a 8ce8 c13c 8e0b f638 18ad feba
000000c0: ebcc b03c e69a a0bb d330 5c3d 1880 2cbc
000000d0: 78df ba3c e29d 0c3c e1b2 f33b ce71 c7bb
000000e0: 0e17 8f3c 59a2 723c 6e39 95ba bd74 063b
000000f0: 1992 efbc 6c86 373c a5a7 893c c946 a93c
00000100: 58ea bebc c5c4 a33c 52ff b93b 07e8 0f3d
00000110: 9c17 453c 87fa 163d 3f09 01bc a318 0bbc
00000120: 54f1 bdba 0464 6d3b f2db e1bb db8d 363b
00000130: ea90 77bc 4d94 c03b 497b b8bb 6c88 0bbc
00000140: 5b21 12bc b6e0 a9bc 0da5 c1bc 9d63 213c
00000150: 1459 b13b eaa1 67bc 40d9 103d f7fe e93a
00000160: 1750 f23c 996c a23c a5e0 7abc dd01 debb
00000170: 7c7d 583c 60a6 953c 2b2d 0abc 9946 43bb
00000180: 13dd 76bc 71a6 6abc 7b29 bbbb d46d 07bc
00000190: 6831 58bc c5d3 fabb c2ed 72bd 3b46 cebc
000001a0: 2d35 4abb 4a59 53bb 4b81 353c 1cb8 433c
000001b0: be00 fd3b 81be 803b 7b9b 2bbc 45a6 76bb
000001c0: 6aef 25bc 4c78 c03b 0dec 80bc 51eb a4bb
000001d0: c816 103d d814 583d 4962 63bc 4bd3 5cbc
000001e0: 0a73 3e3c ee00 2d3c bd33 7fbb 44c1 973c
000001f0: 5cd6 fd3c b792 28bb 5a49 323b 9b1c a0bb
00000200: 623d ff3c 62ed b0bb 2bd0 a1bb 8ebb 3fbb
00000210: 6acb 033c eed0 553b 6969 9bbc 048b 2fbc
00000220: 460c b03b 2939 bcbc c641 133c be93 92bc
00000230: 7359 9e3c 3502 793c 8277 9c3b 4401 b43b
00000240: ff6f cc3a b268 9fbc b51c e7bb dabb 523c
00000250: 109e 843c d018 d73c 37f7 fe3c 7564 e3bc
00000260: b235 66bc e55a 0fbc 3295 4dbc a1ae 363c
00000270: 92a7 53bc 78b2 0dbc 8f57 69bc f2de 6538
00000280: 6e33 aabc e48b dcbc ffcf afbc 8ba0 233b
00000290: 6e51 5fbc 8038 9fbb f8fb 003c 2ae8 61bb
000002a0: 6dc0 383c 1216 27bd dcf7 4fba 53aa d6bc
000002b0: db1b aa3c 5f05 a33b 80c8 5dbc 3fa8 99ba
000002c0: e0ec 80bc c9bb 063b d790 9a3b 84ae 0ebc
000002d0: fef4 92ba 82b1 a1bb f87a 053c be94 04bd
000002e0: 8654 c3bb d116 3bbd f7fa 1cbc 852b 213c
000002f0: 9475 393c 2001 a6bc 7758 a73c ab0c 82bc
00000300: 4eca 173d 2275 1f3c 44ab 95bc 6315 c13c
00000310: 72c9 b6bc 0a7e e4bb 2a7c 80bc 5870 95bc
00000320: c473 a9bb 3dc7 6d3c 0d18 14ba 207e 5ebc
00000330: d1cf e0bc 762c 6dbc a8d7 ed3b 3b5b 873b
00000340: 7d35 3fbc ff73 0b3c 991a 0b3c e8bf f9bc
00000350: 802c 0d3c 24fa 483d 9754 61bc 86cf 913c
00000360: 39c6 6ebb f9cc e7ba 1060 423c 8dfd d33b
00000370: 0925 3abc 2f47 1d3d 3cc5 6cbc 7e0a a4bb
00000380: f629 083d e6d4 913c 3d0c 38bc 8b3c 7dbb
00000390: 3a82 4fbc dcd3 323d be59 183c 9a83 053c
000003a0: dcac 3d3c 31e7 9a3b 9813 2d3a 8732 863c
000003b0: 2cb0 5d3b 56c2 eb3c 4110 92bc d4c8 5d3a
000003c0: 8044 0d3c e2c7 16bc f996 e53b 57af dd3a
000003d0: 19e2 443b 5e5f 493c 9ca1 9fbb dded 92bb
000003e0: fa94 6fbc 760b e6bc f7b2 463c f560 e8bb
000003f0: 21b9 9ebc 0d9b 66bc f1f1 e73c 5553 ac3b

network_body._body_endoder.seq_layers.0.bias f4 [256]
0.01896477 -0.03188129 0.0040447353 0.045385994 -0.020833666 -0.025324184 -0.019051893 0.0077366834
0.031943124 -0.0038211828 -0.0020585847 -0.008639391 -0.020167885 -0.0028635291 -0.026420273 0.020959362
0.013315239 0.040304143 -0.052611336 -0.01568626 -0.016571445 0.0029161002 0.033139963 -0.00019527289
-0.020255346 0.009244778 -0.03781986 -0.007918283 0.03801435 0.033173334 0.037597798 -0.0026557187
0.007478445 0.03398094 0.018336942 -0.0028183525 -0.006299675 0.03253762 0.025839932 0.009482998
-0.007619796 0.023498053 0.009877819 0.071220234 -0.025606025 0.01911555 -0.009671043 0.007924619
-0.026587868 -0.022814231 -0.016884316 0.022662954 0.00022965379 0.021393249 -0.0076431525 0.006695126
0.013985485 0.003166255 -0.028364135 0.005760483 -0.03474294 0.019992922 -0.04128387 -0.008672329
-0.004208129 -0.008893903 -0.015949465 -0.04561457 -0.009190307 -0.020509282 0.019535167 -0.013700672
-0.0154529875 0.0044792076 0.021583302 0.0108492905 -0.015321219 0.009403878 0.0133253215 -0.0056842742
-0.011302403 5.215661e-06 0.03128542 0.05834838 0.018492239 -0.0045743366 -0.018350126 -0.017366815
0.03301707 0.0014544502 0.015642686 0.010321379 0.005067316 0.02382572 -0.007570064 0.036174875
0.031173749 0.037081875 0.022292737 0.021335207 -0.015008887 -0.0041568913 -0.012806532 0.09503416
-0.0064776004 -0.039489035 0.043030024 0.0026197413 0.013398367 -0.014004442 0.061774123 0.0298973
0.031647228 0.021568844 0.06286202 -0.03807214 0.005183963 0.008027173 -0.00942486 0.020930568
0.012957697 -0.027997958 -0.002458811 0.028108958 0.019690512 -0.029839298 -0.025359036 -0.009789681
-0.015279293 0.0021277068 -0.023592543 -0.010739126 -0.022189355 -0.0031253241 -0.02454038 -0.014624608
0.018853387 0.0049226284 0.0008915338 -0.038707647 0.049297493 -0.0118233645 0.004535432 -0.023965798
-0.015088132 -0.0103288265 0.01017778 0.015217524 -0.024511771 1.7020631e-05 -0.010601845 0.00890644
0.006664058 0.04248513 0.0025049122 0.009792551 -0.014373156 -0.012403483 0.00584844 0.02495471
0.00840956 -0.033376902 0.0075895 -0.002015099 -0.019594528 0.06320697 -0.009587219 -0.0021617084
-0.0034722164 0.0043658917 -0.010139536 -0.019881075 -0.0054467125 0.0022525657 0.0070521915 -0.036138102
-0.02136723 -0.024963567 -0.010376511 -0.012049985 -0.0052344757 0.0056323837 0.013895934 0.002308172
0.030005932 0.0036641287 0.052051153 -0.0070103556 0.04628286 0.04560924 0.04279247 0.010376142
-0.044322893 0.0009796432 0.031147573 -0.00393746 -0.026422769 -0.005208628 0.016136717 -0.024836233
-0.005458384 -0.011900688 -0.0033102199 0.01129893 0.05670138 0.018140104 -0.0050558215 -0.015277542
-0.013185356 0.00199962 0.013599561 0.0016102293 0.027863793 -0.0065900236 0.006962576 0.0049004396
0.008468472 -0.02176087 -0.024421811 0.020914854 0.012468592 -0.03884668 -0.015179755 -0.034314763
-0.011281118 -0.026550902 -0.0034674273 0.032571495 -0.046976004 -0.0035760105 -0.036896665 0.008899327
-0.017820701 -0.023344109 -0.0103846425 0.019384691 0.025878314 -0.026688261 0.029714197 -0.009634982
0.027577126 0.0056105834 0.012272446 0.047762733 0.017434034 0.014692069 -0.015801087 -0.009690561
-0.00037506316 -0.00011178631 0.03006725 -0.023897972 0.0035446906 0.025835654 0.032738164 0.009536677
00000000: 015c 9b3c f595 02bd b389 843b aae6 393d
00000010: 5dab aabc aa74 cfbc b712 9cbc 0184 fd3b
00000020: cbd6 023d cf6c 7abb 52e9 06bb 3b8c 0dbc
00000030: 1f37 a5bc 0caa 3bbb 546f d8bc f8b2 ab3c
00000040: 2928 5a3c f515 253d fc7e 57bd 7980 80bc
00000050: d7c0 87bc 0b1c 3f3b c5bd 073d 2bc2 4cb9
00000060: 8aee a5bc 6977 173c ffe8 1abd b0bb 01bc
00000070: efb4 1b3d c3e0 073d 2600 1a3d 910b 2ebb
00000080: be0d f53b 992f 0b3d 5b37 963c 1cb4 38bb
00000090: 816d cebb 2b46 053d 44ae d33c 945e 1b3c
000000a0: 7baf f9bb fd7e c03c 93d6 213c eadb 913d
000000b0: bac3 d1bc 3798 9c3c 4b73 1ebc 43d6 013c
000000c0: cdce d9bc e9e4 babc fa50 8abc a9a7 b93c
000000d0: 38cf 7039 e540 af3c 6973 fabb ca62 db3b
000000e0: 6023 653c f280 4f3b e75b e8bc 6fc2 bc3b
000000f0: 9d4e 0ebd 32c8 a33c 4619 29bd 6216 0ebc
00000100: 58e4 89bb bcb7 11bc 74a8 82bc 58d6 3abd
00000110: f192 16bc 1503 a8bc 3708 a03c c978 60bc
00000120: 872e 7dbc 51c6 923b 77cf b03c 39c1 313c
00000130: da05 7bbc b912 1a3c 7352 5a3c 2643 babb
00000140: b72d 39bc 3002 af36 2425 003d b6fe 6e3d
00000150: 097d 973c 51e4 95bb 0153 96bc da44 8ebc
00000160: e83c 073d 40a3 be3a 1725 803c 001b 293c
00000170: ba0b a63b 282e c33c 4d0e f8bb 1b2c 143d
00000180: 1760 ff3c 2ae3 173d 429f b63c 2cc7 ae3c
00000190: d6e7 75bc 8836 88bb 7dd2 51bc 45a1 c23d
000001a0: 0d42 d4bb 41bf 21bd 4040 303d f7af 2b3b
000001b0: d384 5b3c e372 65bc dd06 7d3d 2feb f43c
000001c0: 86a0 013d 25b1 b03c cebd 803d 88f1 1bbd
000001d0: 3cde a93b 6784 033c ba6a 1abc 9576 ab3c
000001e0: 854c 543c f95b e5bc 0124 21bb c244 e63c
000001f0: ff4d a13c 8b71 f4bc c1bd cfbc e664 20bc
00000200: 0056 7abc ff70 0b3b 2645 c1bc 29f3 2fbc
00000210: 73c6 b5bc 3dd2 4cbb e808 c9bc 0d9c 6fbc
00000220: 6b72 9a3c 004e a13b d2b5 693a e98b 1ebd
00000230: 2bec 493d c9b6 41bc f69d 943b ec53 c4bc
00000240: 3634 77bc 3d3a 29bc b4c0 263c ec52 793c
00000250: e9cc c8bc 87c7 8e37 5cb3 2dbc 51ec 113c
00000260: 2c5e da3b e304 2e3d 7429 243b f070 203c
00000270: 637d 6bbc fa37 4bbc 45a4 bf3b d26d cc3c
00000280: 40c8 093c 38b6 08bd 57b1 f83b c00f 04bb
00000290: b484 a0bc a872 813d b613 1dbc 73ab 0dbb
000002a0: 208e 63bb c10f 8f3b 4c20 26bc a3dd a2bc
000002b0: 567a b2bb c89f 133b 1216 e73b 8c05 14bd
000002c0: 540a afbc 6580 ccbc 3e02 2abc 4d6d 45bc
000002d0: f785 abbb dc8f b83b c6ab 633c b344 173b
000002e0: 00cf f53c e121 703b 9733 553d 20b7 e5bb
000002f0: 1993 3d3d c1d0 3a3d 2847 2f3d b200 2a3c
00000300: ec8b 35bd 5f67 803a 3229 ff3c cf05 81bb
00000310: 9074 d8bc 23ad aabb 2631 843c 5b75 cbbc
00000320: 3edc b2bb 1afb 42bc 46f0 58bb 261f 393c
00000330: b53f 683d 8e9a 943c 4eab a5bb a84e 7abc
00000340: 6407 58bc 0f0c 033b b1d0 5e3c 540e d33a
00000350: 9c42 e43c 20f1 d7bb 5226 e43b de93 a03b
00000360: 59bf 0a3c da43 b2bc 4010 c8bc a155 ab3c
00000370: 1149 4c3c b21d 1fbd 82b4 78bc a38d 0cbd
00000380: 70d4 38bc 4781 d9bc c73d 63bb b069 053d
00000390: e969 40bd 805b 6abb f520 17bd 7cce 113c
000003a0: b8fc 91bc 253c bfbc 5924 2abc a5cc 9e3c
000003b0: c2fe d33c 57a1 dabc 306b f33c 0bdc 1dbc
000003c0: 6de9 e13c fcd8 b73b 5f12 493c dba2 433d
000003d0: d2d1 8e3c 01b7 703c 4871 81bc 29c5 1ebc
000003e0: 20a4 c4b9 d16e eab8 984f f63c aec5 c3bc
000003f0: 0a4e 683b 4ba5 d33c 7418 063d b93f 1c3c

network_body._body_endoder.seq_layers.0.weight f4 [256, 13]
0.13155411 0.5553097 -0.1317838 0.21905123 -0.14740539 0.1257063 -0.394783 0.04667503
-0.10435294 0.5364756 0.20083642 0.68460435 -0.36591578 0.15311284 0.1075299 0.38009936
-0.06512887 0.32104963 -0.7514745 0.5382888 -0.3289357 -0.24618411 -0.018809143 0.07839492
-0.37657425 -0.4447143 0.101817355 -0.015167099 0.40754578 -0.20009924 0.21945545 -0.04605964
-0.13370562 0.3248754 -0.6191881 0.019319693 0.023009488 0.4171967 -0.16916378 -0.09038391
-0.10160715 -0.2991948 -0.14133936 -0.052709263 -0.22408156 -0.05563248 -0.04703374 0.38014495
-0.30877665 -0.50782436 0.22123219 -0.18739998 0.016233452 0.6949246 -0.18720436 0.38940984
-0.18514371 0.11445692 0.31143352 -0.35444072 -0.05764613 -0.45402017 0.25334647 -0.024789656
-0.4121058 -0.42034754 0.19939679 -0.00029859837 -0.31620684 -0.08350505 0.051758166 0.41743183
-0.40327993 0.5223841 0.059383407 -0.012104897 -0.21353239 -0.028736379 -0.33207318 0.3417364
-0.0010852566 0.48333842 0.39277664 0.07670467 0.24018127 -0.16193037 0.33096507 0.13968262
0.052326515 0.06502475 0.49649897 0.074540816 0.32135206 -0.24043459 0.16187057 -0.17850627
-0.28117362 0.28726572 0.12485354 -0.19336197 0.21005344 -0.148277 0.0133218765 0.25953063
0.38605267 -0.39184704 -0.20575844 -0.05280063 -0.05760556 -0.0025993963 -0.26867458 -0.41754496
0.23605749 0.48928687 -0.60442615 -0.039180648 0.0997411 0.18538679 0.39329812 -0.061070763
0.36605257 0.39902237 -0.14281718 -0.05185172 0.087039925 -0.060413502 0.35379857 0.3657966
0.6505967 0.47009787 -0.21461296 -0.16590545 0.58308643 -0.11300037 0.05519206 -0.30490297
-0.0472415 -0.012986069 0.045853555 -0.59909666 0.20530057 -0.24359062 -0.110492244 0.11089515
-0.21467924 0.23789148 0.30660507 0.5846373 -0.040705703 0.29464456 -0.047677353 -0.34752768
-0.27395397 -0.78638065 -0.3268589 -0.107174866 -0.63059974 -0.30830404 -0.098321654 0.37761858
0.31872758 0.21646091 0.12459778 -0.3111101 0.07250303 -0.15263858 -0.19772203 -0.3387587
-0.04531329 0.35272643 0.05267578 0.52652895 -0.41981214 -0.34210062 -0.5887995 0.1997973
-0.60314655 -0.19041704 0.05177907 0.044657107 -0.35669094 0.27282473 0.17401949 -0.17356011
0.020045886 -0.5707303 0.57224053 0.07817523 -0.3204172 -0.3116312 0.11094777 0.20836295
-0.3718748 -0.15106405 0.02730649 0.37639254 0.030908523 -0.31701717 -0.17025878 -0.049832206
0.18087143 0.47269106 0.15012571 -0.18675137 0.53979987 -0.081725486 0.26985008 0.20185922
-0.04426324 -0.18708575 -0.05640947 0.14594302 -0.31782654 -0.55977076 0.09188506 0.14716634
0.06295244 -0.19191675 -0.32050872 0.4851427 0.01825046 0.19536461 0.27185845 0.2090864
-0.0037663686 -0.5955004 -0.2760468 -0.28023303 0.009082384 -0.30177444 0.15658206 -0.16741243
-0.090452105 -0.97878754 0.041138317 0.4378997 -0.024602495 0.23514228 0.43485048 0.16715592
0.48632103 -0.33851838 -0.12657978 -0.17436962 -0.100011654 -0.33801255 0.1666036 0.1691822
0.33212602 -0.18026769 0.5147383 -0.0041717123 0.24301443 0.09379293 -0.38354963 0.30738342
00000000: 1fb6 063e c728 0e3f 55f2 06be f74e 603e
00000010: 70f1 16be 27b9 003e ff20 cabe 512e 3f3d
00000020: ffb6 d5bd 7756 093f 10a8 4d3e 3b42 2f3f
00000030: 5059 bbbe 9dc9 1c3e a338 dc3d 629c c23e
00000040: 4962 85bd 9e60 a43e a260 40bf 4bcd 093f
00000050: 436a a8be b017 7cbe a215 9abc 848d a03d
00000060: 57ce c0be 98b1 e3be 9e85 d03d 6d7f 78bc
00000070: d7a9 d03e d1e6 4cbe eeb8 603e 08a9 3cbd
00000080: 20ea 08be 1256 a63e 1c83 1ebf 5544 9e3c
00000090: 657e bc3c ce9a d53e 4539 2dbe 331b b9bd
000000a0: 6917 d0bd 1030 99be 44bb 10be abe5 57bd
000000b0: a375 65be e2de 63bd 73a6 40bd 5ca2 c23e
000000c0: f917 9ebe c700 02bf b18a 623e c8e5 3fbe
000000d0: 04fc 843c 94e6 313f 80b2 3fbe ba60 c73e
000000e0: 5096 3dbe 6468 ea3d 3774 9f3e 4179 b5be
000000f0: 591e 6cbd 5575 e8be a1b6 813e ad13 cbbc
00000100: 88ff d2be cb37 d7be ac2e 4c3e 328d 9cb9
00000110: dde5 a1be b204 abbd 5f00 543d a0b9 d53e
00000120: b57a cebe f7ba 053f 043c 733d 9e53 46bc
00000130: 3ca8 5abe 8e68 ebbc 7f05 aabe 13f8 ae3e
00000140: 2b3f 8eba 2278 f73e 051a c93e 5717 9d3d
00000150: 14f2 753e 13d1 25be 4174 a93e f608 0f3e
00000160: 5454 563d b22b 853d 1d35 fe3e dba8 983d
00000170: 4288 a43e 7c34 76be 66c1 253e 59ca 36be
00000180: fdf5 8fbe 7e14 933e 36b3 ff3d ae00 46be
00000190: 4018 573e edd5 17be 0044 5a3c 33e1 843e
000001a0: b2a8 c53e 2da0 c8be 57b2 52be 7945 58bd
000001b0: cff3 6bbd a25a 2abb b78f 89be 74c8 d5be
000001c0: 0eb9 713e cf83 fa3e acbb 1abf e37b 20bd
000001d0: 1045 cc3d 09d6 3d3e 5f5e c93e 5625 7abd
000001e0: 3e6b bb3e a94c cc3e ab3e 12be 7862 54bd
000001f0: fd41 b23d 2674 77bd 1625 b53e b149 bb3e
00000200: 818d 263f abb0 f03e 80c3 5bbe 1ee3 29be
00000210: 2745 153f bd6c e7bd 1211 623d 3e1c 9cbe
00000220: 4e80 41bd 85c3 54bc f0d0 3b3d 665e 19bf
00000230: 503a 523e d26f 79be c249 e2bd ff1c e33d
00000240: e0d4 5bbe d399 733e 57fb 9c3e caaa 153f
00000250: 06bb 26bd a7db 963e 5449 43bd 26ef b1be
00000260: b243 8cbe 3e50 49bf 0d5a a7be 7f7e dbbd
00000270: fc6e 21bf 07da 9dbe dd5c c9bd 3957 c13e
00000280: 4330 a33e eea7 5d3e 1f2d ff3d d349 9fbe
00000290: 787c 943d 4a4d 1cbe a577 4abe c871 adbe
000002a0: 6e9a 39bd 8f98 b43e 8fc2 573d 9aca 063f
000002b0: 9ef1 d6be d027 afbe 90bb 16bf aa97 4c3e
000002c0: d067 1abf affc 42be 4a16 543d 5fea 363d
000002d0: 32a0 b6be afaf 8b3e 2a32 323e beb9 31be
000002e0: 4537 a43c 621b 12bf 5b7e 123f 561a a03d
000002f0: b90d a4be 208e 9fbe 9638 e33d 195d 553e
00000300: 6066 bebe 89b0 1abe dcb1 df3c 86b6 c03e
00000310: df33 fd3c 1350 a2be 5158 2ebe db1c 4cbd
00000320: 5c36 393e 9004 f23e 8eba 193e c03b 3fbe
00000330: 5330 0a3f b15f a7bd ca29 8a3e 2fb4 4e3e
00000340: 5f4d 35bd 6893 3fbe 9e0d 67bd 1672 153e
00000350: 29ba a2be 234d 0fbf 3c2e bc3d c6b2 163e
00000360: 35ed 803d d385 44be b819 a4be a064 f83e
00000370: fd81 953c a90d 483e 0831 8b3e bf1a 563e
00000380: 2ed5 76bb b772 18bf 0256 8dbe b47a 8fbe
00000390: 48ce 143c 2e82 9abe 0c57 203e 2a6e 2bbe
000003a0: f43e b9bd d291 7abf a780 283d 6434 e03e
000003b0: 2c8b c9bc 23c9 703e b9a4 de3e ec2a 2b3e
000003c0: 12ff f83e 4852 adbe 219e 01be f38d 32be
000003d0: e9d2 ccbd fb0f adbe 229a 2a3e 193e 2d3e
000003e0: 6c0c aa3e 1898 38be e4c5 033f dcb2 88bb
000003f0: c6d8 783e 8216 c03d 9e60 c4be 5c61 9d3e

network_body._body_endoder.seq_layers.2.bias f4 [256]
-0.016053727 0.014862396 -0.011194153 0.016344627 0.031199448 -0.024095569 -0.0122221885 0.0005316566
-0.021845397 0.010586283 0.008243863 0.020489512 -0.016152771 0.015995232 0.0043087965 -0.015137036
0.0034497764 -0.023914061 -0.02828477 -0.026643993 0.002219773 0.014094949 -0.028181123 -0.008905161
0.00089167326 0.0033825005 0.0038857595 -0.016721107 -0.028223632 -0.0012008612 0.01764532 0.001704507
0.010072447 0.0013237972 -0.0024465118 0.010589213 -0.024999695 -0.011000207 0.010137855 8.568075e-06
0.005936957 0.0005418942 -0.01733325 -0.0022142157 0.004316178 0.017318714 -0.014414203 -0.0062739244
0.004639873 -0.017707476 0.011360653 0.0013985876 -0.0026842363 -0.0013556202 -0.021941818 0.0043706833
0.0114188455 0.010919559 -0.022396585 -0.019292744 -0.0019463935 -0.017487558 -0.02703202 -0.015618779
-0.004641441 -0.019503573 -0.041215498 0.022449408 0.007135948 -0.0042946464 -0.01711668 -0.021217624
-0.007551414 -0.003189143 -0.011131711 -0.018427417 0.015181796 0.014954136 -0.015703017 0.002377808
0.022246916 0.008264581 0.0055518257 0.020176217 0.011583185 -0.017649643 -0.011707029 0.002912071
0.0049766167 -0.004348057 -0.011033661 -0.0030808803 -0.0213421 -0.0044112923 -0.016988788 -0.017432997
0.0030947234 0.00016064454 0.01756207 -0.0054668174 0.0065826294 -0.0048762443 0.0070089893 0.029118603
-0.0069314414 -0.009855083 -0.004217982 -0.0072663836 -0.021010676 -0.002162875 -0.013952273 -0.0056305467
0.019813698 -0.010066421 -0.010379959 -0.008874014 0.00065798545 0.016384006 -0.008538195 0.008677111
-0.0026941304 -0.01585751 0.0021806764 -0.008396785 0.0061968174 -0.022778949 -0.008984157 0.0030328706
0.0047383937 -0.026831802 0.01486236 -0.022243788 0.0028313345 0.015745405 0.03810325 0.0051995898
0.0071017593 0.018699994 0.007901194 0.0008106374 -0.0105855325 0.0004072975 -0.014905477 -0.034539293
-0.008167398 -0.0011973797 -0.008280706 -0.0098205935 0.007638555 -0.002948993 0.0046215616 0.009758449
0.011039784 -0.0072349627 -0.022888754 -0.018190732 0.0026679914 0.00064249075 0.0125413565 -0.006228272
-0.0036016342 0.029185493 0.008844701 -0.015297469 -0.0157747 0.012536097 0.0018491453 0.008289395
0.003144867 0.010465695 0.016153794 0.0039941766 -0.008272142 -0.005455359 -0.0025112992 -0.025021615
0.0067318534 -0.024390416 -0.02647663 -0.024570003 0.0015583887 -0.01591985 -0.012580393 0.029801374
0.015833445 0.035033148 -0.008840582 -0.0020543558 -0.0072295596 0.020958437 0.0052942033 -0.007934668
-0.022487214 -0.015631923 0.0286628 -0.0056585646 0.01990557 0.016687527 -0.0106774485 0.0127429655
-0.02521411 -0.018117568 0.008319109 -0.022652134 0.017312955 0.01281315 -0.031439353 -0.032471597
0.0014028942 0.006226742 0.022154626 0.018537441 0.0025388286 0.02746293 0.0032208024 0.007524877
-0.02538076 -0.010153218 -0.030411994 -0.02437109 0.006387001 0.05362144 0.012044298 -0.0060415883
-0.0037824197 -0.0194064 -0.009633311 0.010646386 0.0072439853 -0.007933713 -0.0077311094 -0.00028395082
-0.012646826 0.008874351 -0.025725726 -0.021897338 0.01046779 -0.0050931596 -0.0013785574 -0.009204461
-0.03246914 -0.015019919 0.00090635277 0.015807929 -0.016128987 -0.009322514 -0.011292766 0.023122564
0.019494433 0.011034413 -0.0028563738 -0.002532992 -0.0014396473 0.010134497 -0.006147719 0.01608538
00000000: 1b83 83bc 6881 733c ae67 37bc 2be5 853c
00000010: fc95 ff3c 1264 c5bc 933f 48bc df5e 0b3a
00000020: 1ef5 b2bc 1772 2d3c 4411 073c 9fd9 a73c
00000030: d152 84bc 6f08 833c ce30 8d3b 5501 78bc
00000040: a515 623b 6ce7 c3bc 76b5 e7bc 8144 dabc
00000050: 9c79 113b 80ee 663c 19dc e6bc f4e6 11bc
00000060: 2ebf 693a f1ac 5d3b 3aa8 7e3b b4fa 88bc
00000070: 3f35 e7bc 3766 9dba eb8c 903c c469 df3a
00000080: e806 253c 4383 ad3a a855 20bb 617e 2d3c
00000090: 29cc ccbc 363a 34bc 3f19 263c 9abf 0f37
000000a0: ce8a c23b e70d 0e3a 76fe 8dbc 601c 11bb
000000b0: ba6e 8d3b fadf 8d3c 8d29 6cbc 7e95 cdbb
000000c0: 130a 983b 450f 91bc 0822 3a3c d050 b73a
000000d0: 03ea 2fbb 11af b1ba 54bf b3bc f337 8f3b
000000e0: 1c16 3b3c f3e7 323c 0b79 b7bc d10b 9ebc
000000f0: 211e ffba 1142 8fbc 4172 ddbc e8e5 7fbc
00000100: 3b17 98bb f5c5 9fbc 95d1 28bd d2e7 b73c
00000110: acd4 e93b 1bba 8cbb 4838 8cbc 95d0 adbc
00000120: da71 f7bb f100 51bb c861 36bc 18f5 96bc
00000130: 11bd 783c 3102 753c 9da3 80bc 00d5 1b3b
00000140: 2a3f b63c 2a68 073c 17ec b53b 9848 a53c
00000150: 66c7 3d3c fc95 90bc d7ce 3fbc 72d8 3e3b
00000160: e312 a33b 257a 8ebb 87c6 34bc 98e8 49bb
00000170: a1d5 aebc 9a8c 90bb 122c 8bbc a5cf 8ebc
00000180: d8d0 4a3b b172 2839 55de 8f3c fd22 b3bb
00000190: 19b3 d73b e7c8 9fbb aaab e53b 238a ee3c
000001a0: 2521 e3bb 3777 21bc ff36 8abb d81a eebb
000001b0: 951e acbc 05bf 0dbb 1398 64bc 7380 b8bb
000001c0: 5650 a23c a1ed 24bc b410 2abc 5064 11bc
000001d0: a87c 2c3a c037 863c c9e3 0bbc 712a 0e3c
000001e0: 0290 30bb 9ce7 81bc aee9 0e3b ab92 09bc
000001f0: ac0e cb3b eb9a babc 4932 13bc 20c3 463b
00000200: 8744 9b3b 5ece dbbc 4281 733c 9b38 b6bc
00000210: e98d 393b 82fc 803c 2712 1c3d 5261 aa3b
00000220: e0b5 e83b bb30 993c 0274 013c f480 543a
00000230: f16e 2dbc 8c8a d539 1a36 74bc 1379 0dbd
00000240: 8dd0 05bc 65f1 9cba ccab 07bc 8ee6 20bc
00000250: d84c fa3b e443 41bb 7870 973b e7e1 1f3c
00000260: 36e0 343c 4413 edbb 3281 bbbc bb04 95bc
00000270: 78d9 2e3b d36c 283a 437a 4d3c 8816 ccbb
00000280: 6509 6cbb 6a16 ef3c 5de9 103c 3ca2 7abc
00000290: f239 81bc 3464 4d3c 055f f23a 3ed0 073c
000002a0: 1d1a 4e3b 4e78 2b3c f654 843c 95e1 823b
000002b0: e187 07bc dec2 b2bb 9c94 24bb 21fa ccbc
000002c0: e196 dc3b 69ce c7bc 84e5 d8bc 0847 c9bc
000002d0: d942 cc3a 586a 82bc fe1d 4ebc 0322 f43c
000002e0: 24b5 813c eb7e 0f3d 17d8 10bc 5fa2 06bb
000002f0: f1e5 ecbb 07b1 ab3c ff7a ad3b 6900 02bc
00000300: 1b37 b8bc 850e 80bc 40ce ea3c 7b6b b9bb
00000310: 0211 a33c 48b4 883c 77f0 2ebc dfc7 503c
00000320: d28d cebc 4b6b 94bc df4c 083c f890 b9bc
00000330: e6d3 8d3c 3fee 513c 8dc6 00bd f000 05bd
00000340: 51e1 b73a b309 cc3b 9e7d b53c d5db 973c
00000350: 7a62 263b f0f9 e03c 1914 533b 3e93 f63b
00000360: 50eb cfbc af59 26bc 9322 f9bc e1a5 c7bc
00000370: 0c4a d13b 28a2 5b3d 7355 453c 84f8 c5bb
00000380: 79e2 77bb 2cfa 9ebc 09d5 1dbc 2e6e 2e3c
00000390: f45e ed3b 67fc 01bc 3f55 fdbb 3cdf 94b9
000003a0: a234 4fbc ba65 113c c2be d2bc 0c62 b3bc
000003b0: 1881 2b3c 85e4 a6bb b6b0 b4ba 4fce 16bc
000003c0: 5cfe 04bd 1b16 76bc 4e98 6d3a a17f 813c
000003d0: f020 84bc 75bd 18bc 4b05 39bc 886b bd3c
000003e0: cab2 9f3c afc9 343c 0032 3bbb 8e00 26bb
000003f0: 8cb2 bcba 290b 263c ce72 c9bb 7dc5 833c

network_body._body_endoder.seq_layers.2.weight f4 [256, 256]
-0.015925083 -0.037120424 0.061559074 0.11064152 0.02040544 0.03714495 -0.01575406 -0.02896523
-0.0076814904 0.013729613 0.03271509 0.0330584 -0.005253548 -0.054199833 -0.07544824 -0.031587094
0.03892994 0.018768387 0.016696787 0.0342588 -0.0036494683 -0.05236546 0.075484045 0.017369928
0.031668212 0.09249192 -0.015454113 0.04846586 -0.007824076 -0.026242321 0.070823096 -0.00094701885
-0.117109954 -0.027783535 -0.03361556 0.009547374 -0.035560336 -0.07535458 -0.08497639 -0.017566841
0.08677298 0.047974832 -0.02651572 -0.031238776 -0.16697992 0.06156658 0.047562327 -0.062598325
-0.10272539 0.042416517 -0.02905432 0.013909097 -0.12695688 0.046593208 0.0009765708 0.0117774205
0.12644644 0.0061605647 -0.01774623 -0.11925282 0.016093763 0.10646529 0.084533945 0.0047605154
0.07041895 0.12882371 -0.08799773 0.045166675 -0.123546086 0.09637586 -0.066654496 -0.040714167
-0.048204407 0.05269685 -0.004262956 -0.07068134 -0.115702935 -0.026890038 -0.12475415 -0.013941375
0.059517626 0.0075954525 0.0854865 0.015602033 -0.08091161 -0.011977732 -0.047062747 -0.014102109
0.019660916 0.03276168 0.029478066 -0.06794683 -0.09437431 0.03467642 -0.038866 -0.10394956
0.01338168 -0.0374191 0.0052525057 0.0038402614 -7.382309e-05 0.023053031 0.064797536 0.046381164
0.04112813 0.027105095 -0.027284244 0.02803208 -0.07901435 -0.0046975715 0.04197571 -0.029581588
-0.007550064 0.0342635 -0.021930043 0.02358458 0.014432604 0.0878835 -0.067360654 0.017963313
0.16069913 -0.054354478 -0.120678306 0.03583263 0.07763252 0.005808922 0.008451459 0.06567995
-0.0036481244 -0.07483695 0.024530992 0.07481711 0.1621767 -0.018527033 0.053986136 -0.018338809
-0.06828392 -0.06552749 -0.041040547 -0.048831772 0.049553055 -0.025796263 -0.13669808 -0.10833212
0.07023756 -0.08365018 -0.031411953 0.0022005679 0.06438348 -0.04899932 -0.029123051 0.08229116
-0.17820755 -0.018378446 0.09776588 -0.025830409 0.006957174 -0.12125355 0.012024292 -0.0066075767
-0.016496532 0.13418376 -0.116818786 -0.03485584 0.03569669 -0.11267424 0.067723915 -0.044756256
-0.04815829 -0.13360602 0.00861185 0.055483878 0.021737352 0.021692965 -0.07193971 -0.029848026
-0.10267006 0.032484345 0.006377289 -0.08794283 -0.07232617 -0.088089734 0.070446126 0.055187393
-0.0024790808 -0.038341094 0.055382296 -0.0889705 0.031360082 0.018480057 0.03613096 0.07681986
-0.035043973 -0.0051009445 0.076136075 0.039704047 -0.12144813 0.01169248 0.11394009 0.04959477
-0.022234147 -0.10243252 -0.040236656 -0.106251135 -0.023548251 -0.037139006 0.01893613 0.0015093908
0.0039928104 -0.08921849 0.06613931 -0.031910483 0.004244818 -0.04711584 -0.02197385 -0.08492932
0.13392815 0.060415793 -0.054433722 0.08401267 -0.024287434 -0.120319776 0.15523997 0.030455535
-0.19237085 -0.108394705 0.02754472 0.0043104733 0.006306936 0.091603346 -0.019408057 -0.045592695
0.05838124 -0.09107478 -0.049197555 0.04595447 -0.14528874 -0.03661709 -0.02183409 0.095903195
-0.0650004 -0.09819638 0.046977222 -0.08903408 0.07041334 0.051079165 -0.037783563 0.018443283
0.09310317 -0.03432006 -0.109491915 -0.036312785 0.0026785778 0.012864959 -0.060037076 -0.0076204813
00000000: 5275 82bc 960b 18bd 5e25 7c3d 0598 e23d
00000010: 4f29 a73c 4e25 183d a90e 81bc 7d48 edbc
00000020: 03b5 fbbb 2cf2 603c 4200 063d 3f68 073d
00000030: f425 acbb a500 5ebd 9b84 9abd 7861 01bd
00000040: 0075 1f3d 29c0 993c b3c7 883c f552 0c3d
00000050: eb2b 6fbb 2a7d 56bd 6197 9a3d 614b 8e3c
00000060: 87b6 013d 676c bd3d 3f33 7dbc 2384 463d
00000070: 8e30 00bc 23fa d6bc b30b 913d 5c41 78ba
00000080: 58d7 efbd 4c9a e3bc 78b0 09bd 976c 1c3c
00000090: b7a7 11bd 8153 9abd 1a08 aebd 56e8 8fbc
000000a0: 08b6 b13d 4281 443d 7f37 d9bc 76e8 ffbc
000000b0: c9fc 2abe 3d2d 7c3d b7d0 423d 8d33 80bd
000000c0: b061 d2bd f1bc 2d3d 5303 eebc fbe2 633c
000000d0: fc00 02be 85d8 3e3d 4700 803a 15f6 403c
000000e0: 2d7b 013e 90de c93b 8b60 91bc d33a f4bd
000000f0: 11d7 833c 790a da3d 2220 ad3d 19fe 9b3b
00000100: cf37 903d 5dea 033e 2738 b4bd b100 393d
00000110: bb05 fdbd b560 c53d 2782 88bd e6c3 26bd
00000120: fc71 45bd a7d8 573d 44b0 8bbb 61c1 90bd
00000130: a9f5 ecbd 7f48 dcbc 1b7f ffbd 5d6a 64bc
00000140: c1c8 733d 46e3 f83b 8c13 af3d ab9f 7f3c
00000150: fcb4 a5bd 403e 44bc dec4 40bd 880c 67bc
00000160: ee0f a13c 1d31 063d fc7b f13c b527 8bbd
00000170: 5147 c1bd dd08 0e3d f431 1fbd 82e3 d4bd
00000180: d53e 5b3c c544 19bd 361d ac3b e5ac 7b3b
00000190: 78d1 9ab8 b6d9 bc3c 92b4 843d 2dfa 3d3d
000001a0: f875 283d 810b de3c 3583 dfbc 88a3 e53c
000001b0: 47d2 a1bd 16ee 99bb b9ee 2b3d 1655 f2bc
000001c0: 8766 f7bb e257 0c3d a2a6 b3bc 7334 c13c
000001d0: bb76 6c3c 44fc b33d 62f4 89bd cc27 933c
000001e0: 508e 243e cda2 5ebd 3026 f7bd 3cc5 123d
000001f0: ccfd 9e3d c558 be3b fd77 0a3c 3683 863d
00000200: 5f15 6fbb 1d44 99bd 38f5 c83c b739 993d
00000210: a611 263e 01c6 97bc 9120 5d3d 453b 96bc
00000220: 71d8 8bbd 4733 86bd 221a 28bd d303 48bd
00000230: 25f8 4a3d af52 d3bc 95fa 0bbe 3bdd ddbd
00000240: b6d8 8f3d c950 abbd d2a9 00bd 6737 103b
00000250: 7cdb 833d 83b3 48bd 7793 eebc 4588 a83d
00000260: 0a7c 36be 658e 96bc 7a39 c83d 4b9a d3bc
00000270: 01f9 e33b c853 f8bd 8901 453c 5f84 d8bb
00000280: bc23 87bc 7867 093e b03e efbd ffc4 0ebd
00000290: b136 123d c0c1 e6bd d6b2 8a3d 5652 37bd
000002a0: a141 45bd 04d0 08be b818 0d3c 1043 633d
000002b0: 8812 b23c 72b5 b13c 2055 93bd d983 f4bc
000002c0: ae44 d2bd 4e0e 053d 94f8 d03b 5f1b b4bd
000002d0: be1f 94bd 6468 b4bd 0f46 903d 2d0c 623d
000002e0: 1378 22bb 8d0b 1dbd 8cd8 623d 2a36 b6bd
000002f0: 6e73 003d 7d63 973c 0ffe 133d bb53 9d3d
00000300: 458a 0fbd d325 a7bb 3bed 9b3d b6a0 223d
00000310: ccb9 f8bd d191 3f3c 6c59 e93d e323 4b3d
00000320: 6324 b6bc 24c8 d1bd 31cf 24bd 329a d9bd
00000330: 43e8 c0bc 121f 18bd f11f 9b3c c0d6 c53a
00000340: 1fd6 823b 2fb8 b6bd 0c74 873d 91b4 02bd
00000350: 1d18 8b3b 8afc 40bd 8102 b4bc 6cef adbd
00000360: 7624 093e 8d76 773d e5f5 5ebd d60e ac3d
00000370: 71f6 c6bc 376a f6bd 3af7 1e3e e37d f93c
00000380: ddfc 44be 0bfe ddbd 77a5 e13c df3e 8d3b
00000390: 6aaa ce3b 899a bb3d a5fd 9ebc 68bf 3abd
000003a0: 2b21 6f3d 6a85 babd 6083 49bd c13a 3c3d
000003b0: 92c6 14be cdfb 15bd 68dd b2bc e568 c43d
000003c0: ee1e 85bd 2f1b c9bd 306b 403d 8057 b6bd
000003d0: df34 903d 6338 513d f0c2 1abd 5e16 973c
000003e0: e0ac be3d 3193 0cbd 4c3d e0bd b7bc 14bd
000003f0: 148b 2f3b 8dc7 523c 70e9 75bd 3bb5 f9bb
