results/Drone2/Drone/Drone-13999740.onnx (onnx, 283599 bytes, 7 tensors)

action_model._continuous_distribution.log_sigma f4 [1, 4]
-0.35492983 -0.43778464 -0.28870958 -0.31508243
00000000: 5db9 b5be 4f25 e0be bed1 93be 7c52 a1be

action_model._continuous_distribution.mu.bias f4 [4]
-0.03819034 -0.027410123 -0.022343919 -0.058832772
00000000: 796d 1cbd 328b e0bc 980a b7bc a2fa 70bd

action_model._continuous_distribution.mu.weight f4 [4, 256]
0.074569404 0.018742047 0.021023633 -0.102992505 0.08797846 -0.011670105 0.07271718 0.121453375
0.043057278 -0.009968703 0.029792935 -0.114928514 0.04017355 0.068177335 -0.12517783 0.02926982
-0.06539379 0.07898496 0.052419625 0.061607186 0.0104836635 0.011144028 0.010176988 0.041952994
0.040582497 -0.006367292 -0.0012394163 0.011528469 0.028812837 0.05721824 0.037372865 -0.057467368
-0.07761148 -0.037560213 0.018679256 -0.0788965 0.08631839 0.100660264 -0.023432553 -0.056855988
-0.04320941 -0.033205643 -0.010211419 0.011770774 -0.021704607 0.103035085 0.03109233 -0.0104273055
0.07616834 0.042020865 0.05145408 -0.07256152 0.028432583 0.028243996 0.06094966 -0.05548209
0.025694624 0.07319588 -0.016911587 -0.0029304055 -0.06099382 0.06484363 0.020786809 0.10625567
-0.024346434 0.12770739 0.031152682 0.15888578 0.09450444 0.060228575 0.008137843 0.032267705
-0.05620679 0.085763045 -0.027918113 0.038544454 -0.009186641 0.0497501 -0.014770815 0.025518537
0.037238907 -0.022291707 -0.045257673 0.0455758 0.00804611 0.028089192 0.043145016 -0.023533301
0.044158727 0.031312026 -0.03012929 0.0050645424 -0.0037467892 0.042301208 0.0760987 -0.027929256
0.030154238 -0.033501044 0.023701997 -0.0024450002 -0.0278828 0.026295854 -0.0013694346 -0.07512227
-0.078760594 -0.030714868 -0.040229145 0.029169999 0.04378054 0.043603078 -0.03477374 0.021141475
0.020744877 0.07292462 -0.06311964 0.042042952 0.034385495 0.17406105 0.09612374 -0.07724883
0.007474171 0.07034781 -0.0089117475 0.09331011 0.08556502 -0.051264275 0.012644197 0.009593849
0.021908285 0.021937521 0.026990121 0.026264636 0.03888646 0.00096176413 -0.024371754 -0.0057710065
0.058422048 -0.05224399 0.025367783 -0.027034882 0.058994103 0.043906767 -0.013395302 0.04951673
0.025386358 -0.037491996 0.015443446 0.11806411 0.046576925 0.047786076 0.0034542019 -0.045116063
0.021339195 0.033735394 -0.0031067443 0.03557781 0.045577515 -0.04117019 -0.0068139005 0.02829846
-0.03876711 -0.030417211 -0.12247434 -0.02161218 -0.01231045 -0.094817415 0.029736008 0.021344276
0.054276727 0.019643752 -0.020142706 -0.04815287 0.040937208 0.002688929 0.026373014 0.0005674735
-0.079659164 0.05131531 0.016775796 0.027289972 0.018294154 0.0025975637 0.13008115 -0.09458248
0.071581766 -0.070751145 -0.07212186 0.07025863 0.08255287 -0.07959402 0.029946215 -0.0040739025
0.08437087 0.03395024 0.019706795 0.050667316 -0.005608181 0.020466577 -0.045034148 -0.1269243
0.039898165 0.024812626 0.013192508 -0.029892536 -0.01148292 -0.051285885 0.008535793 0.028832333
0.010455094 -0.03867443 0.032318704 -0.021925801 -0.050237406 0.07456312 0.006755377 0.010987421
0.015389962 0.049061283 0.06617504 0.01643328 0.009682943 0.06823477 0.023818022 -0.0021278164
0.14183289 0.04463277 0.043323938 0.0033839126 -0.010625279 0.055851124 0.094467066 0.018210238
0.058560256 0.026894165 0.03994413 0.05239751 -0.043786716 0.091716714 0.0694791 0.054092977
0.13575494 0.057526637 0.018553872 0.0540002 0.052278236 0.12691365 0.071666956 0.031930875
0.031023845 -0.030620644 0.07987089 -0.08313128 -0.0916071 -0.042636573 -0.018820733 0.05650427
00000000: d8b7 983d ec88 993c c139 ac3c bced d2bd
00000010: 0d2e b43d f833 3fbc bfec 943d 8cbc f83d
00000020: d45c 303d c553 23bc 5010 f43c a45f ebbd
00000030: 058d 243d 8fa0 8b3d 9e2e 00be 43c7 ef3c
00000040: 2eed 85bd dec2 a13d f6b5 563d d157 7c3d
00000050: acc3 2b3c 7195 363c 62bd 263c e7d6 2b3d
00000060: d539 263d b7a4 d0bb e973 a2ba e7e1 3c3c
00000070: e608 ec3c ac5d 6a3d 4a14 193d e762 6bbd
00000080: c5f2 9ebd bdd8 19bd 3d05 993c 7d94 a1bd
00000090: b2c7 b03d f826 ce3d a0f5 bfbc d3e1 68bd
000000a0: 5afc 30bd a402 08bd cc4d 27bc 34da 403c
000000b0: dccd b1bc 0f04 d33d 58b5 fe3c 4ad7 2abc
000000c0: 26fe 9b3d 121e 2c3d 83c1 523d 229b 94bd
000000d0: 73eb e83c f45f e73c 5aa6 793d 3041 63bd
000000e0: 887d d23c b9e7 953d 2b8a 8abc 0c0c 40bb
000000f0: a8d4 79bd bdcc 843d 1949 aa3c 939c d93d
00000100: 2c72 c7bc bac5 023e e933 ff3c f4b2 223e
00000110: 8b8b c13d 3db2 763d 9654 053c 242b 043d
00000120: 1739 66bd 89a4 af3d 87b4 e4bc cae0 1d3d
00000130: 9183 16bc c3c6 4b3d 4a01 72bc 400c d13c
00000140: d387 183d 199d b6bc 1c60 39bd b1ad 3a3d
00000150: d5d3 033c 4e1b e63c d4b8 303d e9c8 c0bc
00000160: c8df 343d 0a41 003d b3d1 f6bc 76f4 a53b
00000170: b18c 75bb 0844 2d3d a3d9 9b3d e5cb e4bc
00000180: 0506 f73c 6438 09bd b12a c23c 4c3c 20bb
00000190: 786a e4bc 676a d73c 9a7e b3ba b4d9 99bd
000001a0: 3c4d a1bd bf9d fbbc 51c7 24bd ecf5 ee3c
000001b0: 3953 333d 2499 323d e96e 0ebd e330 ad3c
000001c0: 29f1 a93c 8159 953d df44 81bd 3b35 2c3d
000001d0: ced7 0c3d 0f3d 323e 86dc c43d a234 9ebd
000001e0: e4e9 f43b 8312 903d 9402 12bc 5f19 bf3d
000001f0: b73c af3d 7dfa 51bd 9b29 4f3c 852f 1d3c
00000200: 0179 b33c 51b6 b33c 631a dd3c ef28 d73c
00000210: 6947 1f3d e61e 7c3a 46a7 c7bc b61a bdbb
00000220: f54b 6f3d cbfd 55bd 19d0 cf3c 4278 ddbc
00000230: cda3 713d 95d7 333d f877 5bbc 0ed2 4a3d
00000240: 0df7 cf3c 3591 19bd 8206 7d3c 99cb f13d
00000250: 72c7 3e3d 55bb 433d e45f 623b 9fcb 38bd
00000260: 89cf ae3c 202e 0a3d 859a 4bbb 0aba 113d
00000270: 7daf 3a3d 13a2 28bd 2447 dfbb 2cd2 e73c
00000280: 43ca 1ebd 842d f9bc d4d3 fabd 070c b1bc
00000290: c5b1 49bc a22f c2bd ee98 f33c 31da ae3c
000002a0: 4651 5e3d efeb a03c 5102 a5bc f23b 45bd
000002b0: c6ad 273d be38 303b 380c d83c 80c2 143a
000002c0: 5824 a3bd 0130 523d 656d 893c 388f df3c
000002d0: 9fdd 953c e33b 2a3b fe33 053e 76b4 c1bd
000002e0: 7699 923d fae5 90bd a0b4 93bd c2e3 8f3d
000002f0: 7b11 a93d 3102 a3bd c451 f53c 5f7e 85bb
00000300: a2ca ac3d 680f 0b3d 2570 a13c 8888 4f3d
00000310: d5c4 b7bb 86a9 a73c ba75 38bd 72f8 01be
00000320: 426c 233d d943 cb3c 6425 583c 31e1 f4bc
00000330: db22 3cbc 2611 52bd b6d9 0b3c c931 ec3c
00000340: d84b 2b3c 1469 1ebd 9e60 043d bd9d b3bc
00000350: bdc5 4dbd 8db4 983d 365c dd3b 9504 343c
00000360: 2e26 7c3c 7cf4 483d c886 873d 169f 863c
00000370: 35a5 1e3c acbe 8b3d 031e c33c d672 0bbb
00000380: a43c 113e dad0 363d 7174 313d a2c4 5d3b
00000390: a615 2ebc 26c4 643d f377 c13d a32d 953c
000003a0: e1dc 6f3d 2751 dc3c 759c 233d c59e 563d
000003b0: b359 33bd f9d5 bb3d 0f4b 8e3d 9990 5d3d
000003c0: 5803 0b3e 0da1 6b3d 4afe 973c 502f 5d3d
000003d0: b421 563d a7f5 013e 20c6 923d f3c9 023d
000003e0: b825 fe3c 25d8 fabc 5993 a33d bc40 aabd
000003f0: 819c bbbd b0a3 2ebd f02d 9abc 0571 673d

network_body._body_endoder.seq_layers.0.bias f4 [256]
0.118772745 -0.036372956 0.12222298 0.050803315 -0.065591365 -0.07207927 -0.06882834 0.054787967
0.056366082 0.13083994 -0.05383965 -0.10884464 -0.16965559 -0.08143626 -0.011927401 0.098778985
-0.029009005 -0.0040097646 -0.010473605 -0.06495865 -0.052726477 0.06965318 0.107621096 0.09753481
0.028183814 0.033476967 -0.084373556 -0.05085755 0.06513176 0.09744405 0.04541523 -0.085186504
0.13547398 0.1380879 -0.050047625 -0.13816002 0.06365726 -0.0028004076 -0.08765413 -0.07030297
-0.046124704 0.10348715 0.15686615 0.05945054 -0.029903995 0.11865813 -0.08330866 0.0857181
-0.01027222 -0.08238398 0.018963538 -0.02151741 0.02808664 0.115664124 0.08545162 -0.022399282
0.07302574 0.11682075 -0.02617599 0.08049005 -0.14459363 0.13179646 0.11504627 -0.09230437
0.041864652 0.116614714 -0.080735765 -0.1275497 -0.06718899 -0.15135227 0.059260238 0.008266561
-0.1420219 0.06224469 0.037768662 0.084110096 -0.11467347 -0.014063175 -0.030964859 0.05413918
-0.0014615495 -0.15948053 0.1195579 0.18809584 0.0025886986 -0.0010899887 -0.034948096 0.035681646
0.04514863 0.07089611 -0.07326849 0.029939152 -0.020494282 0.10353496 -0.10134314 0.10528481
0.16642432 -0.14354798 -0.051616807 -0.13403061 0.014959731 0.13908798 0.027411012 0.18263784
-0.029400975 -0.24389876 0.16896208 -0.033372063 0.022565754 -0.092541404 -0.0028941932 0.09484585
0.15165167 0.122110926 0.052838366 0.060197834 -0.00743957 0.010214312 -0.00080658647 0.07142955
-0.032757193 -0.15365203 -0.15321301 0.05654983 0.006291448 -0.03398376 -0.08988836 0.008311304
-0.025388062 -0.020677362 -0.06426363 -0.0100618 0.044132587 0.018830739 0.028564593 -0.1314059
0.071239315 -0.0011793207 -0.27613348 -0.04651313 0.17318937 0.029666992 0.04866291 0.0019014057
-0.015922314 0.045391638 -0.09573361 0.04575609 0.026421381 0.03876703 -0.025021119 -0.039936006
0.04600976 0.040972307 -0.00049356936 0.09128599 -0.11740332 0.03365554 -0.19702695 0.1617101
-0.15490088 0.008209238 -0.078445494 -0.083773755 -0.17736761 0.13728605 -0.013249143 0.035922028
0.06184231 -0.015033591 -0.015637757 -0.089118995 0.05481547 0.026352564 0.08117358 -0.033496313
-0.16816033 -0.07118502 -0.08958953 0.024508366 0.07366696 0.053556398 0.03405689 0.0022422392
0.12060229 0.033567235 0.06620652 0.021623388 0.08852712 0.069864795 0.12974292 -0.022864345
-0.012916976 -0.11121359 -0.011756209 -0.11944505 -0.08818401 -0.08249275 0.044680953 -0.103346124
-0.13117857 -0.035231896 -0.12264727 0.084450334 0.072705925 0.056124046 0.073620126 -0.046286926
-0.15694937 0.087355174 -0.038438708 0.012501051 0.061461713 -0.012362072 0.018420158 0.08505613
0.026920276 0.06625606 -0.03964479 0.025528347 0.021122 -0.12494873 -0.005136165 0.0074391044
-0.0863568 -0.04213546 -0.013199339 0.18063806 -0.13254973 0.053505447 -0.1477744 0.030586902
0.06788973 0.0034763084 -0.12056348 0.010668863 0.09564937 -0.15302247 0.14723453 -0.021069808
0.110045165 0.105134845 0.037020165 0.06051769 0.06107512 0.12952298 -0.11556129 -0.032955296
0.01591948 -0.04090322 0.15334783 -0.00024351798 0.037948925 0.10256468 0.05581353 -0.045605704
00000000: 203f f33d cffb 14bd 0b50 fa3d 2317 503d
00000010: c454 86bd 4c9e 93bd dff5 8cbd 5969 603d
00000020: 1fe0 663d e8fa 053e f786 5cbd f0e9 debd
00000030: 32ba 2dbe 0ec8 a6bd 256b 43bc a34c ca3d
00000040: 4ba4 edbc 5864 83bb 7c99 2bbc 0a09 85bd
00000050: b8f7 57bd 54a6 8e3d 7368 dc3d 55c0 c73d
00000060: bee1 e63c 251f 093d 0bcc acbd 0250 50bd
00000070: cd63 853d bf90 c73d 5205 3a3d 4376 aebd
00000080: b1b9 0a3e ea66 0d3e bdfe 4cbd d279 0dbe
00000090: bd5e 823d 0b87 37bb 0284 b3bd 01fb 8fbd
000000a0: 42ed 3cbd 12f1 d33d 85a1 203e 6982 733d
000000b0: 39f9 f4bc 0903 f33d bb9d aabd f98c af3d
000000c0: d04c 28bc efb8 a8bd 6c59 9b3c 4845 b0bc
000000d0: f415 e63c 50e1 ec3d 4201 af3d b37e b7bc
000000e0: 858e 953d b83f ef3d 086f d6bc f8d7 a43d
000000f0: 5a10 14be a7f5 063e 619d eb3d 130a bdbd
00000100: 457a 2b3d b2d3 ee3d cb58 a5bd 639c 02be
00000110: 629a 89bd 17fc 1abe ddba 723d 7870 073c
00000120: 306e 11be 4af4 7e3d 50b3 1a3d ea41 ac3d
00000130: edd9 eabd 3b69 66bc 04aa fdbc 0bc1 5d3d
00000140: 7791 bfba dd4e 23be c6da f43d 329c 403e
00000150: 28a7 293b f4dd 8eba bc25 0fbd eb26 123d
00000160: c5ed 383d fb31 913d ca0d 96bd f442 f53c
00000170: a0e3 a7bc 230a d43d fe8c cfbd 909f d73d
00000180: 236b 2a3e 3efe 12be 256c 53bd 523f 09be
00000190: a919 753c 146d 0e3e 0f8d e03c 6a05 3b3e
000001a0: 50da f0bc 99c0 79be 6504 2d3e 25b1 08bd
000001b0: d1db b83c 5986 bdbd 81ac 3dbb 8a3e c23d
000001c0: 934a 1b3e 4b15 fa3d 0b6d 583d 0192 763d
000001d0: a3c7 f3bb ee59 273c 1a71 53ba a849 923d
000001e0: 682c 06bd f556 1dbe dfe3 1cbe cba0 673d
000001f0: 7e28 ce3b 8e32 0bbd 6317 b8bd 232c 083c
00000200: a0fa cfbc 9263 a9bc a69c 83bd 3fda 24bc
00000210: 5fc4 343d ec42 9a3c 4b00 ea3c 458f 06be
00000220: ebe5 913d 7093 9aba 5e61 8dbe 8d84 3ebd
00000230: 8e58 313e 3108 f33c c252 473d 9738 f93a
00000240: 836f 82bc 95ec 393d fc0f c4bd bd6a 3b3d
00000250: a771 d83c 2dca 1e3d 17f9 ccbc f093 23bd
00000260: bb74 3c3d 94d2 273d e162 01ba 26f4 ba3d
00000270: 2771 f0bd 64da 093d 6fc1 49be 5597 253e
00000280: 569e 1ebe 0a80 063c 08a8 a0bd 9391 abbd
00000290: db9f 35be b794 0c3e ef12 59bc fa22 133d
000002a0: 5d4e 7d3d 734f 76bc c11a 80bc 0584 b6bd
000002b0: 3086 603d 55e1 d73c 553e a63d 6e33 09bd
000002c0: 3932 2cbe 74c9 91bd b77a b7bd c5c5 c83c
000002d0: b4de 963d f45d 5b3d 3d7f 0b3d 88f2 123b
000002e0: 55fe f63d cc7d 093d 4997 873d 8823 b13c
000002f0: b54d b53d 4615 8f3d 54db 043e 024e bbbc
00000300: b9a1 53bc f3c3 e3bd 1d9d 40bc 9b9f f4bd
00000310: d199 b4bd f5f1 a8bd 6003 373d 22a7 d3bd
00000320: ad53 06be 524f 10bd 7e2e fbbd 4cf4 ac3d
00000330: d8e6 943d 54e2 653d 26c6 963d 5c97 3dbd
00000340: 56b7 20be 45e7 b23d e871 1dbd 35d1 4c3c
00000350: 47bf 7b3d 4a8a 4abc dfe5 963c e931 ae3d
00000360: e987 dc3c 42b1 873d 9362 22bd d320 d13c
00000370: 0b08 ad3c 1fe5 ffbd 464d a8bb bbc3 f33b
00000380: d5db b0bd 3b96 2cbd 0a42 58bc 2ff9 383e
00000390: 1ebb 07be 8728 5b3d 2c52 17be 6291 fa3c
000003a0: c509 8b3d c7d2 633b fce9 f6bd 74cc 2e3c
000003b0: d1e3 c33d ecb1 1cbe a6c4 163e 979a acbc
000003c0: 5c5f e13d f050 d73d 75a2 173d 66e1 773d
000003d0: e829 7a3d aca1 043e 66ab ecbd 22fc 06bd
000003e0: 9269 823c 238a 27bd 3707 1d3e dc58 7fb9
000003f0: 5570 1b3d 6e0d d23d ba9c 643d 0ccd 3abd

network_body._body_endoder.seq_layers.0.weight f4 [256, 13]
0.11520673 0.53444237 -0.14582984 0.20172548 -0.15937865 0.1007364 -1.3486985 0.25258565
-0.51988477 0.64296854 0.18456045 0.7044243 -0.26707202 0.14888078 0.113656454 0.39268997
-0.08283568 0.32621214 -0.7362208 0.6017278 -0.46337298 -0.8187049 0.0026454479 -0.026606182
-0.36279103 -0.43286777 0.13756394 -0.00080753316 0.3639341 -0.15889646 0.23782983 -0.07562414
-0.62311983 0.3945473 -1.5918915 0.1572082 -0.07450199 0.44575635 -0.104534805 -0.06898486
-0.0711826 -0.30065674 -0.13116188 -0.027977994 -0.22038732 0.07275596 0.22239189 1.0881015
-0.33340558 -0.44284084 0.2020511 -0.18152986 -0.048239276 0.682391 -0.12907313 0.321705
-0.19846024 0.1655121 0.69977385 -0.5394 -0.44034362 -0.506313 0.22053307 -0.020993777
-0.4307569 -0.3720155 0.2434251 -0.007345707 -0.272603 -0.042169303 0.037242133 0.8072469
-0.26215115 0.810849 -0.040740732 0.075807855 -0.21850154 -0.06727589 -0.3487167 0.3213812
-0.038011517 0.4805239 0.37532523 0.03461742 0.43744284 -0.16060823 0.48300365 0.09978287
0.0877966 0.038675778 0.44336933 0.042798772 0.31682265 -0.2103255 0.13843746 -0.18228145
-0.25645372 0.9156678 -0.097769655 -0.51601034 0.25967094 -0.15839121 0.031320527 0.21425427
0.44151545 -0.2755671 -0.20426653 -0.014255081 0.05250037 0.014965235 -0.80352545 -0.2794692
0.47066322 0.49735495 -0.585091 -0.04476071 0.16953558 0.19120197 0.35837334 -0.04534364
0.3526324 0.37001416 -0.12643948 -0.09879142 0.16070777 -0.45327345 0.5137327 0.35932973
0.6308016 0.4135743 -0.19807938 -0.14522693 0.58214515 -0.096055984 0.07319204 -0.31803423
-0.26173094 -0.13283792 -0.046404716 -0.7020882 0.27593517 -0.25998855 -0.118712775 0.13473132
-0.17264336 0.256063 0.32270122 0.6231833 -0.029023856 0.043730352 0.05058416 -0.5578639
-0.38314316 -0.76633024 -0.35641974 -0.035303198 -0.61202604 -0.29726946 -0.11380416 0.3935418
0.32506785 0.19821191 0.4822683 -0.18708163 -0.037543807 -0.30075353 -0.20049007 -0.32942855
-0.065123335 0.36777338 0.081730604 0.5250058 -0.41129428 -0.3123851 -0.58647174 0.42183712
-0.70702547 -0.23585135 -0.077936664 0.053800605 -0.3901054 0.17111626 0.2016471 -0.19394723
0.048489362 -0.5500587 0.5538813 0.11764393 -0.932917 -0.44914237 0.11062063 0.23723693
-0.3667944 -0.15028316 0.08708337 0.33934075 0.057536907 -0.3005081 -0.1962353 -0.02526636
0.17963375 1.4189117 -0.0141947465 -0.72345924 0.61846894 -0.13217705 0.29503664 0.11369893
-0.055791344 -0.18531278 -0.001004369 0.13068052 -0.30702063 -0.5167304 0.39378852 0.11025914
0.054111756 -0.24067774 -0.3230513 0.46890777 -0.015162716 0.17327099 0.27705443 0.24616763
-0.0050149397 -0.5827559 -0.23995164 -0.3712089 -0.04373404 -0.1823488 0.025824822 -0.17587857
-0.16345432 -0.8824862 0.02693087 0.4121711 -0.023929184 0.2189338 0.406784 0.1570082
1.0920291 -0.3754091 -0.21366802 -0.1061849 -0.10470391 -0.28198594 0.11444995 0.15532999
0.32944953 -0.18205819 0.4922793 -0.011639803 0.22244723 0.3422866 -0.39936334 0.74736875
00000000: 82f1 eb3d 37d1 083f 6b54 15be 2091 4e3e
00000010: 2834 23be e34e ce3d 27a2 acbf e852 813e
00000020: 2b17 05bf 9699 243f 6afd 3c3e 2755 343f
00000030: aabd 88be 3474 183e b7c4 e83d a90e c93e
00000040: c1a5 a9bd 4705 a73e f778 3cbf d50a 1a3f
00000050: 393f edbe a596 51bf 405f 2d3b 35f5 d9bc
00000060: bfbf b9be d8a0 ddbe 90dd 0c3e a2b0 53ba
00000070: 9255 ba3e c1b5 22be aa89 733e d4e0 9abd
00000080: c884 1fbf 1b02 ca3e 1ac3 cbbf 30fb 203e
00000090: 8094 98bd 2d3a e43e 5816 d6bd ef47 8dbd
000000a0: 2fc8 91bd aeef 99be 4d4f 06be 1b32 e5bc
000000b0: 37ad 61be 1401 953d b3ba 633e e946 8b3f
000000c0: 23b4 aabe 09bc e2be 7ce6 4e3e f7e2 39be
000000d0: 8c96 45bd 2db1 2e3f bf2b 04be 85b6 a43e
000000e0: 2939 4bbe 017c 293e 6124 333f 1e16 0abf
000000f0: b874 e1be bb9d 01bf 6cd3 613e 24fb abbc
00000100: 2b8c dcbe d178 bebe 6e44 793e 42b4 f0bb
00000110: 9f92 8bbe b8b9 2cbd 358b 183d bca7 4e3f
00000120: ad38 86be cd93 4f3f c1df 26bd 2641 9b3d
00000130: debe 5fbe f1c7 89bd ff8a b2be 148c a43e
00000140: f7b1 1bbd 3b07 f63e a12a c03e ffca 0d3d
00000150: 82f8 df3e 7c76 24be 414c f73e f65a cc3d
00000160: b4ce b33d 7e6a 1e3d 4e01 e33e c44d 2f3d
00000170: 9436 a23e 915f 57be 8dc2 0d3e fda7 3abe
00000180: e74d 83be 3469 6a3f 753b c8bd 4119 04bf
00000190: 97f3 843e 4e31 22be f449 003d 7965 5b3e
000001a0: 500e e23e 2217 8dbe 3f2b 51be 258e 69bc
000001b0: a10a 573d bf30 753c d8b3 4dbf 9616 8fbe
000001c0: c5fa f03e 4fa5 fe3e 86c8 15bf 0257 37bd
000001d0: bc9a 2d3e 73ca 433e b67c b73e 41ba 39bd
000001e0: 3c8c b43e 7f72 bd3e 5a79 01be 2853 cabd
000001f0: 9490 243e 7513 e8be fc83 033f 11fa b73e
00000200: 377c 213f 03c0 d33e 52d5 4abe 5eb6 14be
00000210: 7707 153f 00b9 c4bd b5e5 953d 62d5 a2be
00000220: 9901 86be aa06 08be df12 3ebd 0dbc 33bf
00000230: 6047 8d3e 381d 85be af1f f3bd 02f7 093e
00000240: 6cc9 30be b11a 833e 1839 a53e f188 1f3f
00000250: 70c3 edbc 991e 333d 5631 4f3d 2bd0 0ebf
00000260: 572b c4be 382e 44bf a67c b6be 169a 10bd
00000270: bdad 1cbf b433 98be 2812 e9bd 507e c93e
00000280: 4b6f a63e 10f8 4a3e dfeb f63e 5492 3fbe
00000290: 89c7 19bd 5efc 99be 454d 4dbe dcaa a8be
000002a0: 625f 85bd cb4c bc3e 6062 a73d c866 063f
000002b0: 2a95 d2be f1f0 9fbe 0323 16bf 09fb d73e
000002c0: 9fff 34bf 0483 71be 429d 9fbd 065e 5c3d
000002d0: e5bb c7be 1a39 2f3e 947c 4e3e 1a9a 46be
000002e0: c89c 463d a6d0 0cbf 2acb 0d3f 4def f03d
000002f0: a6d3 6ebf fdf5 e5be 128d e23d 3dee 723e
00000300: 7acc bbbe d4e3 19be c458 b23d 12be ad3e
00000310: d2ab 6b3d 33dc 99be e8f1 48be 66fb cebc
00000320: e9f1 373e e69e b53f 1591 68bc a034 39bf
00000330: fb53 1e3f 6c59 07be 0b0f 973e fcda e83d
00000340: 7785 64bd a2c2 3dbe 08a5 83ba 1dd1 053e
00000350: cf31 9dbe 7248 04bf a69e c93e 8bcf e13d
00000360: 4aa4 5d3d 3a74 76be fb66 a5be ae14 f03e
00000370: 0a6d 78bc f36d 313e 14da 8d3e 5e13 7c3e
00000380: 5d54 a4bb 7e2f 15bf e2b5 75be 180f bebe
00000390: 7722 33bd a5b9 3abe 948e d33c 8319 34be
000003a0: 9260 27be 9eea 61bf 219e dc3c 1708 d33e
000003b0: 2307 c4bc 2f30 603e fe45 d03e c2c6 203e
000003c0: 9cc7 8b3f 9f35 c0be cacb 5abe 7877 d9bd
000003d0: 016f d6bd 7660 90be bc64 ea3d d30e 1f3e
000003e0: 9cad a83e 766d 3abe 080c fc3e dfb4 3ebc
000003f0: 35c9 633e 3040 af3e 5a79 ccbe 8f53 3f3f

network_body._body_endoder.seq_layers.2.bias f4 [256]
-0.01426965 9.907981e-05 -0.07028401 0.14081627 0.09333679 0.0019239142 0.019319376 0.02296053
-0.03877133 0.051158596 0.093023315 0.09736006 -0.020533567 0.067960136 0.11740593 -0.055634685
0.061229788 -0.05617181 -0.014760816 -0.008017912 0.0507588 0.05298951 -0.036638267 -0.026091201
0.0068560382 0.03946853 0.04496076 -0.03615185 -0.051003587 -0.008907011 -0.043067146 0.074103214
0.105170675 0.069819145 0.09329676 0.070711784 -0.07794846 0.036512412 0.04329467 0.06801269
0.09841275 0.047491997 0.04580891 -0.051462743 0.070592046 0.07971793 0.0034928957 -0.0008325257
0.021295112 -0.028601458 -0.05927493 0.07579038 0.053098846 -0.046059586 0.01180676 -0.0070380843
0.011362063 0.06614816 -0.007932711 0.050092977 0.06805315 -0.06566131 -0.002660807 -0.008200814
-0.017164297 0.020206442 -0.009170778 0.07722397 0.022678647 -0.054819927 -0.06562872 -0.041085474
0.06405627 -0.030216137 0.031504765 -0.0198761 0.014307047 0.045136753 0.06867437 -0.011800029
0.061634023 0.031887084 -0.016701888 0.09566995 -0.040598355 0.0021784797 -0.033270925 0.085310586
-0.055612657 -0.070664726 0.06612232 -0.05112184 0.014448567 0.08398577 -0.08659611 0.025629278
-0.041855272 0.06327002 0.03153968 0.022191973 0.08637701 0.010560842 -0.029571429 0.07634185
0.06818277 0.018193 0.045674674 0.003170583 -0.051737003 -0.010006704 0.023345137 -0.031215748
0.042167503 -0.005810603 0.08625323 0.009714258 0.049542204 0.0035681075 -0.0025263291 0.07109821
0.011838186 -0.041860554 0.009962074 -0.0066115432 -0.069109276 0.05038517 -0.078591175 -0.051818833
0.054761175 -0.006284171 0.020980757 -0.02348271 0.02839986 0.053685304 0.10000733 0.046757564
-0.010528821 -0.01062281 -0.04449597 0.07025179 -0.06134316 0.04245143 -0.08272599 -0.032101322
-0.08906742 0.04388795 0.03085954 -0.0036403334 0.07318089 0.032905217 -0.0016460493 0.010906922
0.060202852 0.03915445 -0.029833307 0.028350433 -0.0002504243 0.12352005 0.030383836 -0.02214587
0.041413058 0.13459292 0.13914506 0.01996656 -0.03697927 -0.01729361 0.06914274 -0.053436656
0.052996356 -1.6637316e-05 0.09089257 -0.055559367 -0.049591135 0.019725937 -0.019403504 -0.026097938
0.10014969 0.0117333215 -0.05201574 -0.031257167 0.0034241288 -0.04389178 0.026261235 0.12121884
-0.029309107 0.09571987 0.095385 0.014113532 0.002453203 0.09081166 -0.05530373 -0.041689787
-0.03638897 -0.07266564 -0.03314713 0.011082091 0.05567067 0.04073691 0.055066776 0.12308668
-0.05468835 -0.10242938 0.07107687 0.056654148 0.06681043 0.087874874 -0.020776529 -0.014310141
0.053190164 0.041079886 0.08855191 0.0084294295 0.11505619 0.068130314 0.049561862 -0.032610998
-0.07234528 0.012905415 -0.041001435 -0.033419374 0.060909618 0.1139239 0.070735164 0.041596893
0.030317258 -0.021777602 0.011059515 0.07229805 -0.036946185 -0.048277937 0.036592446 0.00048956537
0.038813256 0.07276304 -0.06940361 -0.0047229 0.07177332 0.0059956885 -0.020739086 0.0729498
0.006035212 -0.02695692 -0.009770773 0.05291344 -0.008351591 -0.025356315 -0.00958714 -0.023433702
-0.061592504 0.07507132 0.044204332 0.08523682 0.07984737 -0.028877605 0.013847686 -0.07271333
00000000: 40cb 69bc 11c9 cf38 10f1 8fbd 2432 103e
00000010: 5c27 bf3d d92b fc3a ab43 9e3c b917 bc3c
00000020: b0ce 1ebd ad8b 513d 0283 be3d b664 c73d
00000030: 0336 a8bc af2e 8b3d 8572 f03d 32e1 63bd
00000040: 16cc 7a3d 6914 66bd 59d7 71bc 8f5d 03bc
00000050: 76e8 4f3d 870b 593d 0212 16bd 37bd d5bc
00000060: 9ea8 e03b c1a9 213d c628 383d f613 14bd
00000070: 23e9 50bd b6ee 11bc 2d67 30bd 6dc3 973d
00000080: b963 d73d 57fd 8e3d 5f12 bf3d 57d1 903d
00000090: 71a3 9fbd 0a8e 153d c055 313d 3d4a 8b3d
000000a0: a08c c93d f886 423d 20a2 3b3d 99ca 52bd
000000b0: 9092 903d 2743 a33d 11e9 643b db3d 5aba
000000c0: 1673 ae3c 9b4d eabc 45ca 72bd fd37 9b3d
000000d0: 2d7e 593d faa8 3cbd 2471 413c bb9f e6bb
000000e0: f227 3a3c b078 873d 34f8 01bc 4b2e 4d3d
000000f0: 735f 8b3d 7079 86bd ef60 2ebb b55c 06bc
00000100: 249c 8cbc fb87 a53c 0841 16bc 9a27 9e3d
00000110: 92c8 b93c dc8a 60bd 5a68 86bd 3e49 28bd
00000120: ef2f 833d d587 f7bc 240b 013d 34d3 a2bc
00000130: 1b68 6a3c 51e1 383d 26a5 8c3d e954 41bc
00000140: f573 7c3d 089c 023d 66d2 88bc 9bee c33d
00000150: 764a 26bd d3c4 0e3b 1847 08bd 51b7 ae3d
00000160: 19ca 63bd abb8 90bd 246b 873d 2265 51bd
00000170: afb9 6c3c bb00 ac3d 4d59 b1bd 7ef4 d13c
00000180: 6f70 2bbd b693 813d c02f 013d f1cb b53c
00000190: 6ee6 b03d 6207 2d3c c83f f2bc 1e59 9c3d
000001a0: 68a3 8b3d 7d09 953c 5e15 3b3d 8ec9 4f3b
000001b0: 2eea 53bd 29f3 23bc 4d3e bf3c 2bb8 ffbc
000001c0: d5b7 2c3d df66 bebb 89a5 b03d 8d28 1f3c
000001d0: c4ec 4a3d e9d6 693b c590 25bb f09b 913d
000001e0: f3f4 413c f975 2bbd f837 233c a5a5 d8bb
000001f0: 2a89 8dbd ae60 4e3d 69f4 a0bd fc3f 54bd
00000200: 414d 603d 72eb cdbb d6df ab3c d05e c0bc
00000210: d3a6 e83c 1fe5 5b3d a5d0 cc3d dc84 3f3d
00000220: 1381 2cbc 4b0b 2ebc 6841 36bd 2ce0 8f3d
00000230: f742 7bbd 8de1 2d3d 3e6c a9bd ad7c 03bd
00000240: fb68 b6bd dac3 333d 25cd fc3c a992 6ebb
00000250: dddf 953d 9fc7 063d 40c0 d7ba f2b2 323c
00000260: 4497 763d 6b60 203d fb64 f4bc 2b3f e83c
00000270: 614b 83b9 14f8 fc3d 86e7 f83c 416b b5bc
00000280: bda0 293d bad2 093e 0b7c 0e3e e990 a33c
00000290: 9377 17bd 54ab 8dbc b59a 8d3d 65e0 5abd
000002a0: b512 593d 5d90 8bb7 e225 ba3d 3892 63bd
000002b0: 1320 4bbd 4a98 a13c 19f4 9ebc 58cb d5bc
000002c0: 481b cd3d 1e3d 403c 750e 55bd 8407 00bd
000002d0: 5967 603b dec7 33bd cd21 d73c 9541 f83d
000002e0: a719 f0bc c708 c43d 3659 c33d 723c 673c
000002f0: ebc5 203b 77fb b93d 2a86 62bd e9c2 2abd
00000300: 9a0c 15bd b9d1 94bd 49c5 07bd a991 353c
00000310: ee06 643d bfdb 263d b38d 613d df14 fc3d
00000320: e400 60bd 7fc6 d1bd c090 913d 2e0e 683d
00000330: e8d3 883d bef7 b33d 8a33 aabc 1575 6abc
00000340: eedd 593d 6243 283d b45a b53d 971b 0a3c
00000350: 94a2 eb3d e887 8b3d 6101 4b3d 1c93 05bd
00000360: c329 94bd 3c71 533c 1ff1 27bd c1e2 08bd
00000370: 5d7c 793d ef50 e93d 99dd 903d 8161 2a3d
00000380: e65b f83c f166 b2bc f832 353c 0011 943d
00000390: e254 17bd 16bf 45bd f6e1 153d 2d56 003a
000003a0: a6fa 1e3d ca04 953d 7b23 8ebd 8fc2 9abb
000003b0: e4fd 923d 7b77 c43b 04e5 a9bc b466 953d
000003c0: 07c3 c53b c2d4 dcbc 9815 20bc c3bb 583d
000003d0: 1dd5 08bc 0cb8 cfbc 6113 1dbc 09f8 bfbc
000003e0: 6c48 7cbd febe 993d 9a0f 353d a490 ae3d
000003f0: 0587 a33d ba90 ecbc 68e1 623c baea 94bd

network_body._body_endoder.seq_layers.2.weight f4 [256, 256]
-0.028961614 -0.07902195 0.047669627 0.003372835 -0.02351304 0.012828596 0.03899229 -0.038121343
-0.0568753 0.06465437 0.0018469294 -0.006692174 -0.045724608 -0.06967166 -0.083937556 -0.019541658
-0.025773386 -0.024929529 0.043292582 0.03746491 -0.075912185 -0.09787681 0.08520822 -0.03676521
0.021429436 0.059389677 -0.013058512 -0.0021900868 -0.026741328 -0.035973024 0.064236306 -0.028365692
-0.08813843 -0.023028066 -0.028946001 -0.05136701 -0.027425665 -0.1324353 -0.12730025 -0.0994939
0.116329044 0.000471224 -0.011142779 -0.039206892 -0.27677467 0.058069903 0.04158428 -0.12183313
-0.13529079 -0.025984343 -0.0102397315 -0.038289506 -0.111196384 0.0060354373 -0.06334944 -0.013979942
0.11559643 -0.012710776 -0.0108495075 -0.16540968 -0.024155796 0.05910094 0.10061346 -0.06515649
0.041516803 0.10164352 -0.10229689 -0.025180427 -0.10805259 0.059513845 -0.14964566 -0.034318283
-0.04530331 -0.0006338073 -0.04780096 -0.075204484 -0.09708795 -0.087758206 -0.17993052 0.005332005
0.027057234 -0.067044064 0.10415574 -0.007908036 -0.11435397 -0.051140916 -0.120481275 0.00701855
-0.04274863 0.0053847088 0.026012972 -0.13847311 -0.04949122 0.025618086 -0.062207628 -0.10958669
-0.014550791 -0.050364595 0.03108394 -0.06175411 0.018399034 -0.040172532 0.07932957 -0.008238596
0.027716937 0.011088506 -0.07753261 0.06376328 -0.08707562 -0.018066043 0.011467383 -0.037810028
0.0034878245 -0.034944348 -0.06156883 0.030872323 0.022286912 0.08567545 -0.13400146 -0.008709838
0.11299211 -0.13409609 -0.12710011 -0.04261487 0.05043754 0.044471644 -0.010029471 0.06918551
-0.08832098 -0.091900855 -0.017005088 -0.006579685 0.14423558 -0.047503404 0.017629016 -0.094264545
-0.10991718 -0.07040227 -0.079004094 -0.086117685 0.03405069 -0.012087488 -0.1917191 -0.104630046
0.07551337 -0.14466213 -0.12607457 -0.009607331 -0.0039178305 -0.108004384 0.0021123718 0.07094709
-0.21052559 -0.037710633 0.07423566 0.005264795 -0.027434474 -0.11766591 -0.01609947 0.021458233
-0.05505232 0.07248132 -0.10932134 -0.04129861 -0.05491192 -0.12188603 0.026395507 -0.0839222
-0.06588675 -0.118564546 -0.0538584 -0.013462994 0.012490894 -0.024992896 -0.14720906 -0.02985755
-0.20483087 -0.02633808 -0.04753586 -0.091988765 -0.11385632 -0.117016 0.013812789 -0.016382637
-0.10243025 -0.013186903 0.02657059 -0.10911426 0.016875776 -0.041906845 -0.0075840186 0.05637298
-0.11928435 -0.041795917 -0.011058495 0.06634103 -0.12563907 -0.009707772 0.12801665 0.015080504
-0.029942187 -0.08174764 -0.14369781 -0.13074304 -0.081415184 -0.055732515 0.019923555 -0.050186045
-0.053560488 -0.108607 0.03870074 -0.056991532 0.007288147 -0.07829373 0.039377306 -0.08009395
0.104083076 0.032167394 -0.12198868 0.04233876 -0.0147052705 -0.20763847 0.13685799 0.014865436
-0.28332368 -0.15567727 -0.046204504 0.008877226 -0.044461243 0.08773006 -0.042096727 -0.11192866
0.056184445 -0.18328846 -0.06346887 -0.05844302 -0.13743067 -0.030394584 -0.053647824 0.115746595
-0.11746926 -0.11021303 0.041025072 -0.12429419 0.076818265 0.054001797 -0.07424768 -0.005467138
0.11140064 -0.09642102 -0.1291233 -0.120118245 -0.009753317 -0.010380937 -0.059279248 -0.1253765
00000000: e840 edbc 43d6 a1bd 3a41 433d c80a 5d3b
00000010: 6b9e c0bc 082f 523c 61b6 1f3d 2025 1cbd
00000020: 13f6 68bd 8369 843d ab14 f23a 064a dbbb
00000030: ba49 3bbd 04b0 8ebd 74e7 abbd d415 a0bc
00000040: b522 d3bc 0339 ccbc 9053 313d ce74 193d
00000050: d977 9bbd a373 c8bd a681 ae3d 1e97 16bd
00000060: c98c af3c 9742 733d 5ef3 55bc 8f87 0fbb
00000070: a110 dbbc 7358 13bd 538e 833d 2b5f e8bc
00000080: ec81 b4bd 5ba5 bcbc 2a20 edbc 3766 52bd
00000090: caab e0bc 1f9d 07be ff5a 02be 75c3 cbbd
000000a0: ec3d ee3d 9d0e f739 3490 36bc 6897 20bd
000000b0: 69b5 8dbe b5da 6d3d 4754 2a3d a683 f9bd
000000c0: ab89 0abe 1edd d4bc 8cc4 27bc 75d5 1cbd
000000d0: eeba e3bd ebc4 c53b 5abd 81bd 200c 65bc
000000e0: d2bd ec3d dc40 50bc 22c2 31bc 2861 29be
000000f0: 60e2 c5bc d413 723d 6e0e ce3d c470 85bd
00000100: 860d 2a3d 7a2a d03d 0881 d1bd 2f47 cebc
00000110: ad4a ddbd cac4 733d b63c 19be 5491 0cbd
00000120: f78f 39bd 1726 26ba f0ca 43bd cf04 9abd
00000130: 0cd6 c6bd 93ba b3bd b53f 38be 1ab8 ae3b
00000140: 22a7 dd3c 664e 89bd 9b4f d53d b590 01bc
00000150: 6a32 eabd 2379 51bd e3be f6bd ddfb e53b
00000160: 3019 2fbd 3672 b03b 2819 d53c e5cb 0dbe
00000170: 4eb7 4abd 05dd d13c 6dcd 7ebd fd6e e0bd
00000180: 7166 6ebc 1b4b 4ebd bfa3 fe3c e1f1 7cbd
00000190: 92b9 963c f48b 24bd 8b77 a23d 2dfb 06bc
000001a0: a10e e33c 91ac 353c 6bc9 9ebd 5396 823d
000001b0: b454 b2bd 3dff 93bc b1e1 3b3c b0de 1abd
000001c0: fc93 643b ce21 0fbd 992f 7cbd f4e7 fc3c
000001d0: 0b93 b63c 9c76 af3d ae37 09be b5b3 0ebc
000001e0: 6868 e73d 7c50 09be 8826 02be ee8c 2ebd
000001f0: 9897 4e3d e627 363d a652 24bc 22b1 8d3d
00000200: a1e1 b4bd 8436 bcbd 414e 8bbc 669a d7bb
00000210: 7eb2 133e ee92 42bd ba6a 903c c50d c1bd
00000220: 421c e1bd 112f 90bd e6cc a1bd 785e b0bd
00000230: bc78 0b3d 990a 46bc 0352 44be 4748 d6bd
00000240: c1a6 9a3d 4f22 14be b119 01be 1168 1dbc
00000250: 2561 80bb 6731 ddbd b86f 0a3b b54c 913d
00000260: 0594 57be 7776 1abd de08 983d 4d84 ac3b
00000270: 43be e0bc d3fa f0bd 09e3 83bc 2dc9 af3c
00000280: 8b7e 61bd 1671 943d dee3 dfbd bb28 29bd
00000290: 52eb 60bd 629f f9bd 643b d83c 67df abbd
000002a0: a2ef 86bd f8d1 f2bd a09a 5cbd e493 5cbc
000002b0: 9ba6 4c3c e7bd ccbc f9bd 16be d297 f4bc
000002c0: 2fbf 51be f5c2 d7bc f6b4 42bd 9b64 bcbd
000002d0: 812d e9bd 16a6 efbd 094f 623c e134 86bc
000002e0: f3c6 d1bd e10d 58bc 91aa d93c 4c77 dfbd
000002f0: 113f 8a3c 83a6 2bbd 5c83 f8bb 5be7 663d
00000300: 5a4b f4bd 3232 2bbd b12e 35bc cedd 873d
00000310: 87a7 00be 590d 1fbc cc16 033e 3814 773c
00000320: 5149 f5bc 4f6b a7bd 8525 13be 81e1 05be
00000330: 01bd a6bd c747 64bd b936 a33c e28f 4dbd
00000340: 3e62 5bbd 596d debd ab84 1e3d f46f 69bd
00000350: 69d1 ee3b 7758 a0bd 194a 213d 4c08 a4bd
00000360: 8229 d53d f5c1 033d 33d5 f9bd 686b 2d3d
00000370: 60ee 70bc 2e9f 54be 8024 0c3e 288e 733c
00000380: cd0f 91be dd69 1fbe ef40 3dbd c971 113c
00000390: fe1c 36bd d1ab b33d 9e6d 2cbd da3a e5bd
000003a0: a921 663d f8af 3bbe f8fb 81bd f361 6fbd
000003b0: a0ba 0cbe 10fe f8bc d2bd 5bbd 8d0c ed3d
000003c0: b993 f0bd 5eb7 e1bd e809 283d f48d febd
000003d0: e552 9d3d fd30 5d3d 2b0f 98bd ad25 b3bb
000003e0: 0526 e43d 6278 c5bd e638 04be 8e00 f6bd
000003f0: 60cc 1fbc ce14 2abc ccce 72bd b262 00be
