results/Drone2/Drone/Drone-8999776.onnx (onnx, 283599 bytes, 7 tensors)

action_model._continuous_distribution.log_sigma f4 [1, 4]
0	0xbe985506	-0.29752368
1	0xbeb65102	-0.3560868
2	0xbe8c742d	-0.27432385
3	0xbe82c8db	-0.25543866

action_model._continuous_distribution.mu.bias f4 [4]
0	0xbd06cb7b	-0.032908898
1	0xbcf4c465	-0.029878804
2	0xbd0c12c9	-0.034197602
3	0xbd70c723	-0.05878366

action_model._continuous_distribution.mu.weight f4 [4, 256]
0	0x3d5c865a	0.053839065
1	0x3cda2a56	0.026631515
2	0x3d039377	0.032123055
3	0xbdc01984	-0.09379867
4	0x3d90b8f6	0.070665285
5	0x3ca74991	0.020420821
6	0x3d3f0165	0.04663219
7	0x3d863f17	0.06555002
8	0x3cbff07c	0.023430102
9	0xbb656773	-0.0035004287
10	0x3cbf93ef	0.02338597
11	0xbdda1cd2	-0.10650028
12	0x3d20923c	0.03920196
13	0x3d72b667	0.059255984
14	0xbde45563	-0.11149099
15	0x3d001f02	0.03127957
16	0xbd6dd057	-0.058060016
17	0x3d9b0ae6	0.07570438
18	0x3d27d52d	0.040974785
19	0x3d4d4da6	0.05012288
20	0xba1811bb	-0.0005800982
21	0x3c1b1e10	0.009467617
22	0x3cdd2c49	0.026998656
23	0x3ce12563	0.027483648
24	0x3cc025e3	0.023455566
25	0xbc074610	-0.00825645
26	0xbb7d9c24	-0.0038697803
27	0x3d2e73b0	0.042590797
28	0x3cf9bfa7	0.030486895
29	0x3d37d87d	0.044884194
30	0x3d0f759d	0.035024274
31	0xbd3753a7	-0.04475751
32	0xbd570dec	-0.05250351
33	0xbcb49288	-0.022042528
34	0x3ca02d63	0.019552892
35	0xbd69cbb9	-0.05707905
36	0x3d8f918f	0.07010185
37	0x3dc3e04a	0.09564264
38	0xbc9a678e	-0.018848207
39	0xbd4cf887	-0.0500417
40	0xbc39064b	-0.011293004
41	0xbd134a55	-0.03595956
42	0xbc61b600	-0.013776302
43	0x3c888f9f	0.016670046
44	0xbc5d2b19	-0.013499045
45	0x3dc43279	0.095799394
46	0x3cbf3e93	0.023345267
47	0x3ca235aa	0.01980098
48	0x3d6ae230	0.057344615
49	0x3c856e8c	0.016288064
50	0x3d15344b	0.036426824
51	0xbd7ec6b4	-0.062201217
52	0x3cc1936a	0.023629863
53	0x3d25cbd9	0.040477607
54	0x3cf6db7c	0.030133955
55	0xbcfad7c2	-0.03062046
56	0x3cabb7cf	0.02096167
57	0x3d154661	0.03644407
58	0xbc632b99	-0.013865375
59	0x3a082091	0.0005192841
60	0xbcf9ae4a	-0.030478615
61	0x3d37e277	0.044893708
62	0x3cf2b2d0	0.02962628
63	0x3d88068d	0.066418745
64	0xbc1b89d5	-0.009493311
65	0x3d81ba10	0.06334317
66	0x3cd0b908	0.025478855
67	0x3e11efeb	0.14251678
68	0x3d8bc97e	0.06825541
69	0x3da67b9b	0.081290446
70	0x3b925f62	0.004466937
71	0x3ce5eec7	0.02806796
72	0xbcff9f75	-0.031203965
73	0x3dab833d	0.08374641
74	0xbd0731b3	-0.03300638
75	0x3d1face1	0.03898323
76	0x3a56cbe8	0.00081938365
77	0x3c9f0a84	0.019414194
78	0x39cb3eee	0.00038766064
79	0x3c968e4a	0.018378396
80	0x3cacfd69	0.02111693
81	0xbcbaf538	-0.022822008
82	0xbbe607dc	-0.00701998
83	0x3cc1484d	0.023594046
84	0x3c33656a	0.010949472
85	0x3cd96f68	0.02654238
86	0x3d4a252a	0.04935185
87	0xbc9c556a	-0.019083697
88	0x3d36c05d	0.044617046
89	0x3d27d475	0.0409741
90	0xbc7b9a67	-0.015356637
91	0x3b4d5262	0.0031329622
92	0x3c4455fd	0.011983392
93	0x3d2d6767	0.04233494
94	0x3da3bc26	0.07994871
95	0xbcb0d39d	-0.02158528
96	0x3c7007b0	0.01465027
97	0xbcfb0743	-0.030643111
98	0x3c9a4d9e	0.018835839
99	0x3bdefef5	0.0068052956
100	0xbcce3b60	-0.025174797
101	0x3d12e05f	0.03585851
102	0xbc9fd5e3	-0.019511169
103	0xbd8d3d35	-0.0689644
104	0xbd172d57	-0.036908474
105	0xbc225932	-0.009908961
106	0xbcfbf947	-0.030758513
107	0x3d20c2a9	0.039248142
108	0x3d000e8a	0.031263866
109	0x3d4b68e2	0.04966057
110	0xbd0ccba8	-0.03437391
111	0x3c3ca9f4	0.011515129
112	0x3c887d2f	0.016661255
113	0x3d91d333	0.07120361
114	0xbd5941b4	-0.053041175
115	0x3cbe3525	0.0232187
116	0x3d05147d	0.032490242
117	0x3df5946a	0.11991198
118	0x3dbf6ca7	0.09346896
119	0xbd8b63b0	-0.06806123
120	0x3bc233f9	0.005926606
121	0x3d3f4ea6	0.046705864
122	0x3ab9203f	0.001412399
123	0x3d91d840	0.071213245
124	0x3d835ecf	0.06414568
125	0xbd410088	-0.047119647
126	0x3cd98590	0.026552945
127	0x3c2e90b9	0.010654622
128	0x3d1401a0	0.036134362
129	0x3d036a9c	0.032084092
130	0x3cb768b2	0.02238879
131	0x3cba834a	0.022767682
132	0x3d258359	0.040408466
133	0x3c0cba49	0.008589336
134	0xbcd55636	-0.026042085
135	0x3b9f7dc3	0.004867287
136	0x3d6898fc	0.056786522
137	0xbcfa90d7	-0.030586643
138	0x3cddfa9a	0.027097035
139	0xbca93919	-0.02065711
140	0x3d16c239	0.03680632
141	0x3d1d66e4	0.038428202
142	0x3a7ef3f3	0.00097256823
143	0x3ccec52c	0.025240503
144	0x3cbcffcd	0.023071194
145	0xbcf002ee	-0.029298272
146	0x3d17a0f7	0.037018742
147	0x3d877b98	0.066153705
148	0x3d423dc5	0.04742219
149	0x3cf922fd	0.030412192
150	0x3c8fbeba	0.017547
151	0xbd26dcc4	-0.040737882
152	0x3c9cb575	0.019129494
153	0x3c2a20a8	0.010383762
154	0xbc586ded	-0.013209802
155	0x3cb1330f	0.021630792
156	0x3d3dc8c9	0.04633406
157	0xbd237e34	-0.03991528
158	0x3bbc53cd	0.0057472945
159	0x3d016aee	0.031596117
160	0xbd222780	-0.03958845
161	0xbc88ef9e	-0.01671582
162	0xbdc1b47f	-0.09458255
163	0xbc8fe4c0	-0.017565131
164	0x3c368ac2	0.011141481
165	0xbda476f3	-0.080305
166	0x3d0eed9f	0.034894582
167	0x3be93d3b	0.007117895
168	0x3d243327	0.040087845
169	0xbc18722a	-0.009304563
170	0xbc206994	-0.009790797
171	0xbc90dfa7	-0.01768477
172	0x3d0ae381	0.03390837
173	0x3cd1793b	0.025570503
174	0x3c9402f7	0.01806782
175	0x3aed862e	0.0018121654
176	0xbd723302	-0.059130676
177	0x3d2c6d69	0.04209653
178	0x3c9e495b	0.019322088
179	0x3ccd6076	0.02507041
180	0x3ca4abc0	0.020101428
181	0x3a2ee09c	0.00066710426
182	0x3da8cb76	0.08241932
183	0xbda0af97	-0.07845991
184	0x3d8757a4	0.06608513
185	0xbd5fc057	-0.05462679
186	0xbd61218e	-0.05496364
187	0x3d35efa7	0.044418003
188	0x3d2cf0bc	0.04222177
189	0xbd93730d	-0.071996786
190	0x3d09e27b	0.033663254
191	0x3c6bd89d	0.014394906
192	0x3d9997e8	0.07499677
193	0x3d326684	0.043554798
194	0x3c84a024	0.016189642
195	0x3d0b9bf8	0.03408429
196	0xbc461d09	-0.012091883
197	0x3ca18716	0.019717734
198	0xbd12ce7f	-0.03584146
199	0xbd9fc838	-0.078018606
200	0x3c73111e	0.014835624
201	0x3d09553b	0.033528548
202	0x3b5b9f97	0.003351187
203	0xbc9a262c	-0.01881703
204	0xbc6e5a03	-0.014547828
205	0xbd392bbb	-0.04520772
206	0x3c9f92fe	0.019479271
207	0x3d1ca2f4	0.03824134
208	0x3c416846	0.011804646
209	0xbc8845e3	-0.016634887
210	0x3c8c1347	0.017099036
211	0xbb9b7cb2	-0.0047450894
212	0xbcde1717	-0.02711062
213	0x3d836824	0.064163476
214	0x3be53723	0.006995098
215	0xbc057681	-0.008145929
216	0x3c3ea310	0.011635557
217	0x3c64c31a	0.013962531
218	0x3d17b67b	0.03703926
219	0x3bd56b9f	0.0065130736
220	0x3aa53c3f	0.0012606456
221	0x3d7acac2	0.06122852
222	0x3c95585a	0.018230606
223	0x3b07988f	0.0020690297
224	0x3e1cab8d	0.15299816
225	0x3d2f8f04	0.042861
226	0x3d070a38	0.03296873
227	0xbbc545a3	-0.0060202642
228	0x3c26c2fc	0.010178324
229	0x3d7500d7	0.059815254
230	0x3db5d8f7	0.088792734
231	0x3bfc53b3	0.0077004074
232	0x3d239690	0.03993851
233	0x3c5ca8ed	0.013468009
234	0x3ba06895	0.0048952796
235	0x3d774ad3	0.060374092
236	0xbca052be	-0.019570705
237	0x3db87972	0.09007539
238	0x3d4ad013	0.04951484
239	0x3d2d3daf	0.042295154
240	0x3e088759	0.13332881
241	0x3cab379d	0.020900542
242	0x3c25805f	0.010101407
243	0x3d383113	0.044968676
244	0x3cd41748	0.025890008
245	0x3d740467	0.05957451
246	0x3cdfdce9	0.027327018
247	0x3cd95e9e	0.026534375
248	0x3cbf1487	0.023325218
249	0xbd12b8de	-0.035820834
250	0x3d549505	0.05189993
251	0xbd19e9e6	-0.03757658
252	0xbdb17922	-0.086656824
253	0xbc9804c7	-0.018556966
254	0xbbed5ccd	-0.0072437287
255	0x3d47085f	0.048591968

network_body._body_endoder.seq_layers.0.bias f4 [256]
0	0x3dd80d7a	0.105494455
1	0xbd1bf3aa	-0.038074173
2	0x3dc9b8a5	0.09849671
3	0x3d80f9e8	0.06297666
4	0xbd5609db	-0.052255493
5	0xbd498e32	-0.049207874
6	0xbd3c6bb7	-0.046001162
7	0x3d4cd799	0.050010297
8	0x3d71be5e	0.05901944
9	0x3dcfb141	0.101412304
10	0xbca5a439	-0.020219909
11	0xbd9c6acd	-0.07637558
12	0xbdd8b57e	-0.10581492
13	0xbd6d0cd1	-0.05787355
14	0xbc0c35d4	-0.0085577555
15	0x3db1642f	0.08661687
16	0xbc20cf0f	-0.009814992
17	0x3c667e35	0.014068176
18	0xbce888ad	-0.028385485
19	0xbd7fcd44	-0.062451616
20	0xbd34b00d	-0.044113208
21	0x3d7b8fb4	0.061416343
22	0x3dbbc712	0.09168829
23	0x3d9a5797	0.07536238
24	0x3d132192	0.035920687
25	0x3ccd66f0	0.025073498
26	0xbd52348d	-0.051319648
27	0xbd1cb4c3	-0.038258325
28	0x3d7c47f3	0.061592054
29	0x3d9c9f30	0.0764755
30	0x3d22eb28	0.039775044
31	0xbd34c74b	-0.044135373
32	0x3dfdfb7d	0.12401483
33	0x3df4d6b2	0.119550124
34	0xbcde1dce	-0.027113821
35	0xbd5492e6	-0.051897906
36	0x3d4ff4f0	0.0507707
37	0x3c5bb965	0.013410901
38	0xbd49d807	-0.049278285
39	0xbd228ab0	-0.039683044
40	0xbcf1fa2d	-0.029538238
41	0x3d980e97	0.07424658
42	0x3e01a286	0.12659654
43	0x3d93c2f5	0.072149195
44	0xbc697ae1	-0.014250488
45	0x3dd850e7	0.10562306
46	0xbd0bbb40	-0.034114122
47	0x3da27b43	0.079336666
48	0xbc2fa67f	-0.010720848
49	0xbdb2a093	-0.08722033
50	0x3c5089f8	0.012728207
51	0xbb9fb548	-0.0048739053
52	0x3c2e94fd	0.010655639
53	0x3dc187d1	0.09449733
54	0x3d8a0271	0.06738747
55	0xbcd8f197	-0.026482387
56	0x3d8905c0	0.0669055
57	0x3dd5ad8c	0.10433492
58	0xbd4287d8	-0.047492832
59	0x3d8c87ee	0.06861864
60	0xbdb383b5	-0.087653555
61	0x3dd9730e	0.10617648
62	0x3dab412f	0.08362042
63	0xbd5fd6b9	-0.054648135
64	0x3d0b26e3	0.033972632
65	0x3dd6d0aa	0.10489018
66	0xbd2b39c5	-0.04180314
67	0xbde423ef	-0.11139666
68	0xbd6d60c2	-0.057953604
69	0xbdcba62c	-0.09943804
70	0x3d2676f0	0.04064077
71	0xbc118f15	-0.008884211
72	0xbdca031e	-0.09863876
73	0x3d4f81a4	0.050660744
74	0x3c906b01	0.017629148
75	0x3d674ef5	0.056471784
76	0xbda77780	-0.0817709
77	0xbc16afb7	-0.009197167
78	0xbbb1598d	-0.0054122866
79	0x3d1bb608	0.038015395
80	0xbb4f93af	-0.003167372
81	0xbdbe431f	-0.09290146
82	0x3deabf0c	0.114622205
83	0x3e2862a3	0.16443877
84	0x3c6f6e4d	0.0146137
85	0xbb85d0b0	-0.0040837154
86	0xbd1479b2	-0.03624887
87	0x3d2fd4f3	0.042927694
88	0x3d827567	0.06370049
89	0x3d900a92	0.07033266
90	0xbd051dd8	-0.032499164
91	0x3c89325d	0.016747648
92	0xbc230e5f	-0.009952157
93	0x3dcdee92	0.10055269
94	0xbd7e42bb	-0.062075358
95	0x3dcd6592	0.100291386
96	0x3e10ec30	0.14152598
97	0xbd8036dd	-0.06260464
98	0xbcf7eaa4	-0.030263253
99	0xbd38b43a	-0.045093752
100	0xbb8ef456	-0.004362623
101	0x3de39f72	0.11114396
102	0x3c5e78a4	0.013578568
103	0x3e2e448b	0.17018335
104	0xbc123b80	-0.008925319
105	0xbe2b5c1f	-0.1673436
106	0x3e11001e	0.14160201
107	0xbc712ebb	-0.014720614
108	0x3c884f3c	0.016639344
109	0xbd30e495	-0.043186743
110	0x3c8dcaf7	0.017308695
111	0x3dcb94f3	0.09940519
112	0x3e056382	0.1302624
113	0x3dd6e680	0.10493183
114	0x3d7b2e6f	0.06132358
115	0x3d51400f	0.05108648
116	0xbc625928	-0.013815202
117	0x3c4a4f6e	0.012348039
118	0x3c9dc5b0	0.019259304
119	0x3db82cfa	0.089929536
120	0xbcb1acc2	-0.021688823
121	0xbde5fb3b	-0.11229559
122	0xbdba3312	-0.09091772
123	0x3d57d443	0.052692663
124	0x3ceb7016	0.02873997
125	0xbd566bad	-0.05234878
126	0xbd83e4b0	-0.06440103
127	0x3c6c735a	0.014431799
128	0xbcb85026	-0.022499155
129	0xbc7190ec	-0.014744025
130	0xbd36cd0b	-0.044629138
131	0x3a0bfd3a	0.0005340163
132	0x3cb149fe	0.021641728
133	0x3c8247a1	0.015903296
134	0x3c803af7	0.015653117
135	0xbdb064c5	-0.0861297
136	0x3da9de9a	0.08294411
137	0x3c2ce8bc	0.010553535
138	0xbe462db9	-0.1935338
139	0xbd592563	-0.05301417
140	0x3e20c62f	0.15700601
141	0x3b93b0b0	0.004507147
142	0x3d3b3626	0.045705937
143	0x3b865b78	0.0041002594
144	0xbc8da93a	-0.017292608
145	0x3d1b512c	0.03791921
146	0xbd66fe3b	-0.056394797
147	0x3d048dda	0.032361843
148	0x3bd37e76	0.0064542843
149	0x3c2dd1f5	0.01060914
150	0xbd028ae3	-0.031870734
151	0xbcac821d	-0.021058137
152	0x3d89c49a	0.06726952
153	0x3d568a1c	0.052377805
154	0x3baa6a50	0.0052006617
155	0x3da39211	0.07986844
156	0xbd8ecfa7	-0.069732
157	0x3c3cb560	0.011517853
158	0xbddfedae	-0.10934006
159	0x3e1b6b0c	0.15177554
160	0xbdbf1ac1	-0.09331275
161	0x3c8f2217	0.01747231
162	0xbd125906	-0.03572943
163	0xbd452910	-0.048134863
164	0xbe015ec0	-0.126338
165	0x3e016338	0.12635505
166	0xbbd38e9a	-0.0064562084
167	0x3d160112	0.036622114
168	0x3d246c73	0.040142488
169	0xbbf1598c	-0.007365411
170	0xbbb18f5b	-0.0054187006
171	0xbdb40bde	-0.08791326
172	0x3d243727	0.04009166
173	0x3d0958db	0.033532005
174	0x3d8519ef	0.06499087
175	0xbd2aba1d	-0.041681398
176	0xbddc559a	-0.10758515
177	0xbd82a19e	-0.06378482
178	0xbd1c66fc	-0.03818415
179	0x3c7b6508	0.015343912
180	0x3d5d11a2	0.053971894
181	0x3ca2fba3	0.01989538
182	0x3cf8e044	0.030380376
183	0xb8cbef92	-9.724418e-05
184	0x3dd05229	0.10171921
185	0x3d0aca25	0.033884186
186	0x3da90819	0.08253498
187	0x3cc1e6e5	0.02366967
188	0x3dadcf41	0.08486796
189	0x3d9a3175	0.075289644
190	0x3de03f8a	0.10949619
191	0x3b2e6d90	0.0026615597
192	0xbc2323b9	-0.009957247
193	0xbd8f874f	-0.0700823
194	0x3c40e0e0	0.011772364
195	0xbd8a30e7	-0.06747609
196	0xbd57edd5	-0.05271705
197	0xbd447b42	-0.04796911
198	0x3d0e53b2	0.034747787
199	0xbd9d6543	-0.0768533
200	0xbddb0b1c	-0.10695478
201	0xbd373de7	-0.04473677
202	0xbdba3a0c	-0.09093103
203	0x3d97c9fc	0.07411572
204	0x3da2c5d6	0.079478905
205	0x3d7c7904	0.061638847
206	0x3d754321	0.059878472
207	0xbd4f5cde	-0.050625674
208	0xbdfb3b9c	-0.12267229
209	0x3d91f28f	0.071263425
210	0xbd0362e1	-0.03207672
211	0x3c5eec67	0.013606167
212	0x3d75df0c	0.060027167
213	0xbc54c5af	-0.012986585
214	0x3c58f66f	0.013242348
215	0x3d9e3abc	0.077260464
216	0x3c884c2b	0.016637882
217	0x3d405d62	0.046964057
218	0xbc1a4ac7	-0.009417242
219	0x3cbe4a25	0.023228714
220	0x3c3dd9aa	0.01158754
221	0xbdef305d	-0.116791464
222	0xbb66659d	-0.003515578
223	0x3aab3e96	0.0013064917
224	0xbd55d604	-0.052206054
225	0xbd0ffbdb	-0.035152297
226	0xbca0a863	-0.019611543
227	0x3e1f2cd6	0.15544447
228	0xbddb5d72	-0.10711183
229	0x3d567577	0.052358117
230	0xbdcaa1f7	-0.098941736
231	0x3d099864	0.033592597
232	0x3d2c500c	0.042068526
233	0x3b1208c0	0.0022283047
234	0xbda212b4	-0.079137236
235	0x3cf7431f	0.030183373
236	0x3dafc468	0.085823834
237	0xbdec1d48	-0.115290225
238	0x3e131c35	0.14366229
239	0xbc7fe6d3	-0.015618998
240	0x3dc5d5f7	0.09659951
241	0x3d944317	0.07239359
242	0x3d20369c	0.03911458
243	0x3d8b5d12	0.06804861
244	0x3d7da50c	0.06192498
245	0x3dce7bad	0.10082183
246	0xbdadc147	-0.0848413
247	0xb9caca3b	-0.00038679116
248	0x3c3750c0	0.011188686
249	0xbb1a1bb6	-0.0023515052
250	0x3e03d2be	0.1287336
251	0xbc8fff2d	-0.017577732
252	0x3cb21811	0.021739991
253	0x3dba1a28	0.0908702
254	0x3d5e62ea	0.05429355
255	0xbc90a7cb	-0.017658135

network_body._body_endoder.seq_layers.0.weight f4 [256, 13]
0	0x3df48c94	0.11940876
1	0x3f0a7fc0	0.5410118
2	0xbe11359b	-0.14180605
3	0x3e52deb9	0.20592774
4	0xbe1c7a96	-0.15281138
5	0x3dd68c83	0.10476019
6	0xbfa2bddd	-1.2714192
7	0x3e6a7295	0.22895272
8	0xbef6e204	-0.4821931
9	0x3f206bde	0.6266459
10	0x3e44534d	0.19172402
11	0x3f359dce	0.70943916
12	0xbe894024	-0.26806748
13	0x3e0c5e68	0.13707888
14	0x3dd60b85	0.10451416
15	0x3ec5327d	0.38515082
16	0xbdc1d171	-0.09463776
17	0x3ea25702	0.31707007
18	0xbf3e6720	-0.74376106
19	0x3f15ff46	0.5859264
20	0xbec2e200	-0.3806305
21	0xbf39015e	-0.7226771
22	0xb9f17337	-0.00046052944
23	0xbc705281	-0.014668108
24	0xbeb1ab68	-0.34701085
25	0xbee61f22	-0.44945627
26	0x3e07b8ba	0.13254061
27	0x39081c64	0.00012980547
28	0x3ebce7dd	0.36895648
29	0xbe27da96	-0.16391978
30	0x3e747f1f	0.23876618
31	0xbd9097d0	-0.07060206
32	0xbf16f380	-0.589653
33	0x3ec28b4a	0.37996894
34	0xbfbf6b95	-1.4954706
35	0x3e072408	0.13197339
36	0xbdb11971	-0.08647431
37	0x3ee6b36d	0.45058766
38	0xbdeb248c	-0.1148158
39	0xbd9e7ed5	-0.07739035
40	0xbd8c855f	-0.06861376
41	0xbea004fb	-0.312538
42	0xbe0eeac7	-0.13956748
43	0xbcd02708	-0.025409237
44	0xbe6dd79d	-0.23226781
45	0x3c40c051	0.011764602
46	0x3d75ca96	0.060007654
47	0x3f763cb6	0.9618639
48	0xbea40b5f	-0.32039925
49	0xbee5a09f	-0.44849107
50	0x3e4a6e7e	0.19768712
51	0xbe48b67c	-0.19600862
52	0xbd2e444d	-0.042545605
53	0x3f2f239e	0.6841372
54	0xbe1e6521	-0.15468265
55	0x3ea7a0d8	0.32739902
56	0xbe496f62	-0.19671395
57	0x3e0f429e	0.13990256
58	0x3f2052ca	0.62626326
59	0xbeed3ebd	-0.46336928
60	0xbec98afe	-0.39363855
61	0xbef9f1ec	-0.48817384
62	0x3e6ec142	0.2331591
63	0xbcb4e14e	-0.02208009
64	0xbee48a33	-0.44636688
65	0xbec6730d	-0.38759652
66	0x3e5ca40c	0.21546954
67	0xbb3ad1ef	-0.0028506478
68	0xbe938cd8	-0.28818393
69	0xbd8f9daa	-0.07012494
70	0x3d2af48a	0.041737117
71	0x3f3b67d8	0.7320533
72	0xbeb7ac86	-0.35873812
73	0x3f43153d	0.7620428
74	0xbc0c286f	-0.008554562
75	0x3d511d12	0.051053114
76	0xbe5ed50e	-0.21760961
77	0xbd70b0bd	-0.0587623
78	0xbeafdd7e	-0.34348673
79	0x3eab3865	0.33441463
80	0xbd098670	-0.033575475
81	0x3ef8b4c0	0.485754
82	0x3ec6d6f3	0.38835868
83	0x3d1ff688	0.03905347
84	0x3ed3d6e3	0.41374883
85	0xbe4c7f03	-0.19970326
86	0x3ee2ba95	0.44282976
87	0x3e04d86f	0.12973188
88	0x3dafa178	0.085757196
89	0x3d492960	0.049111724
90	0x3ef50c2d	0.47860852
91	0x3d1e9ce7	0.038723852
92	0x3ea309c7	0.31843397
93	0xbe64ecd7	-0.22355972
94	0x3e09967d	0.13436313
95	0xbe3901b6	-0.18067059
96	0xbe8a14a6	-0.26968879
97	0x3f53ccc8	0.82734346
98	0x3c25a481	0.010110022
99	0xbeeb4a96	-0.45955342
100	0x3e836498	0.25662684
101	0xbe23d07d	-0.159975
102	0x3ce5c2e9	0.028047042
103	0x3e4d968f	0.20076965
104	0x3ede5757	0.4342601
105	0xbe9c68cc	-0.30548704
106	0xbe6139b9	-0.21994676
107	0xbcb03435	-0.02150927
108	0x3cb8fbe9	0.022581058
109	0xba3b7cea	-0.00071520975
110	0xbf39ed88	-0.7262807
111	0xbec32813	-0.38116512
112	0x3ed1cb46	0.40975398
113	0x3efed08e	0.4976849
114	0xbf173527	-0.5906548
115	0xbd3172e0	-0.043322444
116	0x3e23b849	0.15988268
117	0x3e421976	0.18955025
118	0x3eb8cda2	0.36094385
119	0xbd686d46	-0.056744836
120	0x3eb3b398	0.35097957
121	0x3ebec378	0.37258506
122	0xbe0d2607	-0.13784038
123	0xbe025a3f	-0.12729739
124	0x3e16c7c3	0.1472464
125	0xbec25fa9	-0.37963608
126	0x3ef9d96a	0.48798686
127	0x3eb9e3ca	0.36306602
128	0x3f298394	0.662164
129	0x3ed9a784	0.42510617
130	0xbe51930a	-0.20466247
131	0xbe265568	-0.16243517
132	0x3f14c936	0.58119524
133	0xbdd23473	-0.1026391
134	0x3d654ea7	0.05598321
135	0xbea3516e	-0.31898063
136	0xbe7826cd	-0.24233551
137	0xbdd944c0	-0.10608816
138	0xbd718b74	-0.058970883
139	0xbf268e6f	-0.65061086
140	0x3e843a71	0.25825837
141	0xbe886612	-0.26640373
142	0xbdf5150d	-0.11966906
143	0x3e11175e	0.1416907
144	0xbe4bd070	-0.19903731
145	0x3e81593a	0.25263387
146	0x3ea8c955	0.32966104
147	0x3f18c791	0.59679514
148	0xbd04ee4d	-0.032453824
149	0x3da580e9	0.08081228
150	0xbcdd52de	-0.027017053
151	0xbee2ffc8	-0.4433577
152	0xbeaed834	-0.34149325
153	0xbf4778fd	-0.7791899
154	0xbea25a55	-0.31709543
155	0xbd38db36	-0.04513093
156	0xbf21504d	-0.63013154
157	0xbe9cacbe	-0.30600542
158	0xbdeb542d	-0.11490665
159	0x3ec03916	0.37543553
160	0x3ea1f63c	0.31633174
161	0x3e49d6f2	0.19710901
162	0x3ed5da0d	0.41767922
163	0xbe8b6b40	-0.27230263
164	0x3d49a1ba	0.0492265
165	0xbe6c9863	-0.23105006
166	0xbe5e2d2d	-0.2169692
167	0xbea4c4a5	-0.32181278
168	0xbd6f864b	-0.05847768
169	0x3ebf314d	0.373423
170	0x3d91834a	0.071051195
171	0x3f05b7db	0.52233666
172	0xbecfb0a5	-0.40564457
173	0xbea568d4	-0.3230654
174	0xbf16d1fc	-0.5891416
175	0x3ebda2cf	0.37038276
176	0xbf305e8d	-0.68894273
177	0xbe4533ca	-0.19258037
178	0xbd7afd14	-0.06127651
179	0x3d6a883b	0.057258826
180	0xbec6876f	-0.38775203
181	0x3e3640eb	0.17798202
182	0x3e49d8b9	0.1971158
183	0xbe49b72b	-0.1969878
184	0x3d3268c3	0.04355694
185	0xbf0df990	-0.5545893
186	0x3f0d03b9	0.55083805
187	0x3de6d55c	0.11271164
188	0xbf4e2c50	-0.80536366
189	0xbebeb3b3	-0.37246475
190	0x3dc9749a	0.09836693
191	0x3e72abd4	0.2369836
192	0xbec4554d	-0.3834633
193	0xbe18974a	-0.14901462
194	0x3da67fbe	0.08129834
195	0x3eae9072	0.34094578
196	0x3d8db333	0.06918945
197	0xbe9d268e	-0.30693477
198	0xbe474ce5	-0.19462927
199	0xbc5f0b74	-0.0136135705
200	0x3e315ce8	0.17320597
201	0x3fa73059	1.306163
202	0x3da928be	0.08259724
203	0xbf3073db	-0.6892678
204	0x3f1b87f4	0.60754323
205	0xbdfcb996	-0.12340085
206	0x3e962cbd	0.29331008
207	0x3deeaa32	0.11653556
208	0xbd11a7ee	-0.03556054
209	0xbe41f600	-0.18941498
210	0xbc998c69	-0.01874371
211	0x3e1a889c	0.15091175
212	0xbe9f4b9e	-0.3111238
213	0xbf08d30f	-0.5344705
214	0x3ed16fc2	0.40905577
215	0x3e22765a	0.1586546
216	0x3d8e1970	0.069384456
217	0xbe5e310e	-0.216984
218	0xbe9d5928	-0.30732083
219	0x3ee06c44	0.438326
220	0xbcbc7c3c	-0.023008458
221	0x3e3184bc	0.1733579
222	0x3e934315	0.28762117
223	0x3e6091e6	0.21930656
224	0xbba17a0e	-0.00492788
225	0xbf127ad0	-0.57218647
226	0xbe889bab	-0.26681265
227	0xbeb94df4	-0.36192286
228	0xbcf600c4	-0.030029662
229	0xbe5fc807	-0.21853648
230	0x3d292e33	0.041303825
231	0xbe39d000	-0.18145752
232	0xbe2b0b95	-0.16703637
233	0xbf69cf46	-0.913319
234	0x3d00cf6d	0.031447817
235	0x3edc422f	0.43019244
236	0xbd11de37	-0.03561231
237	0x3e64d049	0.2234508
238	0x3ed98018	0.4248054
239	0x3e14d030	0.14532542
240	0x3f7badcc	0.9831207
241	0xbec0bddc	-0.3764485
242	0xbe4aca69	-0.19803776
243	0xbdff6bed	-0.12471757
244	0xbdca53be	-0.09879254
245	0xbe93da93	-0.28877696
246	0x3e0bd2b7	0.136546
247	0x3e278aec	0.16361588
248	0x3ea78b29	0.32723358
249	0xbe3c642a	-0.18397585
250	0x3f00251c	0.50056624
251	0xbc630196	-0.013855359
252	0x3e61d286	0.22052965
253	0x3e9ee355	0.31032816
254	0xbedaa08f	-0.4270062
255	0x3f23bdc4	0.63961434

network_body._body_endoder.seq_layers.2.bias f4 [256]
0	0xbd432009	-0.047637973
1	0xbc572025	-0.013130222
2	0xbd30a277	-0.04312369
3	0x3de18941	0.11012507
4	0x3dab06e2	0.08350922
5	0xbc87b9d2	-0.016568098
6	0xbb7861cd	-0.003790009
7	0x3cddb460	0.027063549
8	0xbd904234	-0.07043877
9	0x3d070bad	0.03297012
10	0x3d711b00	0.05886364
11	0x3da0a606	0.078441665
12	0xbc2f1640	-0.010686457
13	0x3d4776d5	0.04869731
14	0x3de0553c	0.10953757
15	0xbd96bd95	-0.07360379
16	0x3d1d1c7c	0.038357243
17	0xbd694112	-0.05694682
18	0xbd4ad99d	-0.04952394
19	0xbcaf6b93	-0.0214136
20	0x3d026deb	0.031843107
21	0x3d1f1812	0.038841315
22	0xbd68ff53	-0.05688412
23	0xbd25c4e4	-0.040470973
24	0x3c1f6945	0.009729688
25	0x3c5a7dd0	0.01333566
26	0x3d181614	0.03713043
27	0xbd8624f5	-0.06550018
28	0xbd6662bc	-0.056246504
29	0xbbad106c	-0.0052814987
30	0xbcbac865	-0.022800634
31	0x3ce21c05	0.027601251
32	0x3d981219	0.07425327
33	0x3d04777c	0.03234051
34	0x3dab96c7	0.08378368
35	0x3d31f02c	0.043441936
36	0xbd30a851	-0.04312927
37	0x3c0aadc1	0.008464278
38	0x3ac3dd43	0.001494326
39	0x3d62d365	0.055377383
40	0x3d3c17fa	0.045921303
41	0x3cef7ebe	0.02923524
42	0x3d0f04ad	0.03491657
43	0xbd13465e	-0.03595578
44	0x3d18be46	0.037290834
45	0x3d896e82	0.06710531
46	0xbc2c48c5	-0.0105153965
47	0xbcd0ce32	-0.025488947
48	0x3b67e6e9	0.0035385436
49	0xbd739bc6	-0.05947473
50	0xbcec7db0	-0.028868526
51	0x3d674f75	0.05647226
52	0x3cad0e22	0.021124903
53	0xbd1f9d3d	-0.038968313
54	0xbca5a8f6	-0.020222168
55	0xbcbc8949	-0.023014681
56	0x3c92ae46	0.017905366
57	0x3d4bec57	0.049785938
58	0xbcadf1aa	-0.021233398
59	0x3d0762a7	0.033053067
60	0x3d576d34	0.05259438
61	0xbdb593e7	-0.08866101
62	0xbcc21a01	-0.02369404
63	0xbd5de2e0	-0.054171443
64	0xbd3113b3	-0.043231677
65	0xbb9f7f89	-0.0048674983
66	0xbd065027	-0.032791283
67	0x3d932f64	0.071867734
68	0x3c91884a	0.017765183
69	0xbd240aa0	-0.040049195
70	0xbd5d5a3f	-0.054041144
71	0xbd9af5ce	-0.07566415
72	0x3d06a4e8	0.03287211
73	0xbd3b271c	-0.045691594
74	0x3be4574d	0.006968415
75	0xbca88dc0	-0.020575404
76	0x3bc74a8d	0.006081885
77	0x3cfddce9	0.030989127
78	0x3d22dcbe	0.039761297
79	0xbd069c45	-0.032863874
80	0x3d3ce690	0.04611832
81	0x3ca6f30a	0.020379562
82	0xbcc9759f	-0.024592219
83	0x3d914587	0.070933394
84	0xbd5f76bb	-0.05455659
85	0xbc3635ab	-0.011121194
86	0xbcd542f2	-0.026032899
87	0x3d7f7f2b	0.062377136
88	0xbc4d2f0a	-0.012523422
89	0xbd6cd2e2	-0.0578183
90	0x3d5bf0a3	0.053696286
91	0xbd2bf09e	-0.041977517
92	0xbc4ff842	-0.012693467
93	0x3d70514d	0.058671284
94	0xbd659431	-0.05604953
95	0x3b875cec	0.00413095
96	0xbc6ea047	-0.01456458
97	0x3d15db67	0.03658619
98	0x3d04f881	0.032463554
99	0xbbcb8b59	-0.00621168
100	0x3d74d44a	0.059772767
101	0xbc76fa80	-0.015074372
102	0xbd00fff2	-0.03149409
103	0x3d85a1cb	0.06525
104	0x3d27be48	0.04095295
105	0x3c24a51d	0.010049132
106	0x3c99c2ef	0.01876971
107	0xbc947f7a	-0.018127192
108	0xbda24308	-0.079229414
109	0xbd7a1d31	-0.061062995
110	0x3c7cb0b3	0.015422988
111	0xbcce9fbe	-0.025222655
112	0x3d0b2d80	0.03397894
113	0xbd023e81	-0.03179789
114	0x3d80b09b	0.06283685
115	0xbc40b07e	-0.011760829
116	0x3c111817	0.008855841
117	0xbc915742	-0.017741803
118	0xbc7e7cf5	-0.015532722
119	0x3d750e62	0.05982817
120	0x3c07e16c	0.008293491
121	0xbd888ff3	-0.06668081
122	0xbbb4db5b	-0.0055193133
123	0xbd10586e	-0.035240583
124	0xbd14bdc9	-0.036313806
125	0x3d235080	0.039871693
126	0xbd9dacb4	-0.07698956
127	0xbcd62e56	-0.026145142
128	0x3d536e89	0.051619086
129	0xbccf6b5b	-0.025319746
130	0x3c9dfbe5	0.019285152
131	0xbd14698b	-0.036233466
132	0x3b357e37	0.0027693638
133	0x3d42cfec	0.04756157
134	0x3d985e09	0.07439811
135	0x3c829b4c	0.015943192
136	0x3b66d874	0.003522423
137	0x3a260fe0	0.0006334763
138	0xbc521a4c	-0.0128236525
139	0x3d656529	0.056004677
140	0xbdb1528a	-0.08658321
141	0x3d0b169f	0.03395712
142	0xbd85f077	-0.06540006
143	0xbd8d393b	-0.068956815
144	0xbd97792b	-0.07396158
145	0x3d0737cb	0.033012193
146	0xbb75b72f	-0.003749322
147	0xbc9f2481	-0.019426586
148	0x3d75ab3e	0.059977762
149	0xbc62ac54	-0.013835032
150	0xbbbdc225	-0.005790966
151	0x3bf5b22b	0.007498046
152	0x3d43d2b2	0.047808357
153	0x3c1bdec9	0.009513565
154	0xbd0456c5	-0.032309312
155	0xbad8e2a7	-0.001654704
156	0xbcd41398	-0.02588825
157	0x3de038c2	0.10948326
158	0x3cf604ff	0.03003168
159	0xbca51df7	-0.02015589
160	0x3d16cd07	0.036816623
161	0x3dff65cb	0.12470587
162	0x3df3024a	0.11865671
163	0x3b3a3475	0.0028412614
164	0xbd01dd28	-0.03170505
165	0xbc83b135	-0.01607571
166	0x3d588998	0.052865595
167	0xbca709b2	-0.020390365
168	0x3cf07e0c	0.029356979
169	0xbb52b283	-0.0032149858
170	0x3d8e122e	0.06937061
171	0xbd0c12a5	-0.03419747
172	0xbd4163ff	-0.047214504
173	0x38da5351	0.00010410569
174	0xbc450347	-0.012024707
175	0xbccb9667	-0.02485199
176	0x3dac6bb3	0.084189795
177	0xbc9b16d0	-0.018931776
178	0xbd8cdab6	-0.06877653
179	0xbd1ac3a2	-0.037784226
180	0xba95a7f3	-0.0011417851
181	0xbd39131e	-0.045184247
182	0x3ba253b4	0.004953826
183	0x3dc1a4f4	0.094552904
184	0xbd987746	-0.074446246
185	0x3d9a8451	0.075447686
186	0x3d891d74	0.06695071
187	0xbc202985	-0.009775524
188	0xbcdb0b18	-0.026738688
189	0x3d99c6b9	0.075086065
190	0xbd7d3c6d	-0.061825205
191	0xbd67616e	-0.0564894
192	0xbc6adb0d	-0.014334452
193	0xbd349a08	-0.04409221
194	0xbc27a34c	-0.010231804
195	0xbc07e0e4	-0.008293364
196	0x3d2d424a	0.042299546
197	0x3d24d8ba	0.04024575
198	0x3d1b93a6	0.037982605
199	0x3dbe8d2f	0.093042724
200	0xbd96f0b3	-0.073701285
201	0xbdc1650c	-0.09443101
202	0x3d46a741	0.04849935
203	0x3c9ce1af	0.019150583
204	0x3d121d21	0.03567231
205	0x3d8521b1	0.06500567
206	0xbca1aa57	-0.019734545
207	0xbd331f43	-0.043730985
208	0x3ce31cb2	0.027723644
209	0x3c6e5999	0.014547729
210	0x3d93c19b	0.07214662
211	0x3c93f6e9	0.018062072
212	0x3dc5cce2	0.09658219
213	0x3d590c4f	0.052990254
214	0x3d166fb0	0.036727607
215	0xbce17645	-0.027522216
216	0xbd7684f3	-0.060185384
217	0xbcbb6cf5	-0.022879103
218	0xbd841b2e	-0.064504966
219	0xbd16472f	-0.03668898
220	0x3d899c4f	0.067192666
221	0x3dbaaf88	0.09115511
222	0x3d3ccf02	0.046095856
223	0x3c6d8d67	0.014499045
224	0x3cb67cd2	0.022276316
225	0xbca72afa	-0.020406235
226	0xbc574a7f	-0.01314032
227	0x3d7a1e2e	0.061063938
228	0xbc49c237	-0.012314371
229	0xbd0961d6	-0.03354057
230	0x3d0dd1fa	0.034624077
231	0xbc4a3e49	-0.0123439515
232	0x3c5954eb	0.013264875
233	0x3d66c558	0.056340545
234	0xbd40e667	-0.04709473
235	0xbd210b92	-0.039317675
236	0x3d251d9c	0.04031144
237	0x3c8553dd	0.01627534
238	0xbd259bc3	-0.04043175
239	0x3d0fd7d0	0.035117924
240	0xbc2cdc6c	-0.0105506
241	0xbd398943	-0.04529692
242	0xbcabb7f3	-0.020961737
243	0x3d42b856	0.047539078
244	0xbd140450	-0.036136925
245	0xbd7f7935	-0.06237145
246	0xbd3c464f	-0.04596549
247	0xbd3f5de3	-0.046720397
248	0xbd4ee79d	-0.050513852
249	0x3d473d4a	0.048642434
250	0x3cf9bcbc	0.030485503
251	0x3d0e422a	0.034731068
252	0x3d6a9090	0.05726677
253	0xbca860b1	-0.020553919
254	0x3b0b2d98	0.0021236893
255	0xbcd0f964	-0.025509544

network_body._body_endoder.seq_layers.2.weight f4 [256, 256]
0	0xbd3b84f5	-0.045781095
1	0xbd4a859f	-0.049443837
2	0x3d643588	0.055715114
3	0x3da251cb	0.07925757
4	0x3b7e016c	0.0038758172
5	0x3cfdd057	0.030983133
6	0xbc355552	-0.011067705
7	0xbd798d37	-0.06092569
8	0xbd20436a	-0.03912679
9	0x3c38cf0d	0.0112798335
10	0x3ce4755f	0.027887998
11	0x3c77b3c7	0.015118546
12	0xbc4d2bc8	-0.012522645
13	0xbd923e98	-0.07140845
14	0xbd8f77c5	-0.07005266
15	0xbd7e9651	-0.06215507
16	0x3d1fb81a	0.038993932
17	0xbbae0bc3	-0.0053114607
18	0x3c49fca0	0.012328297
19	0x3c0b56c2	0.008504571
20	0xbd0ebc92	-0.034847803
21	0xbdc27b14	-0.094961315
22	0x3d4f3bf1	0.050594274
23	0xbb2522b3	-0.0025197684
24	0x3c504ebf	0.012714087
25	0x3d8d45a5	0.06898049
26	0xbc7cf641	-0.015439571
27	0x3d591dca	0.053006925
28	0xbcfc146d	-0.030771459
29	0xbd691a31	-0.056909744
30	0x3cfe9e51	0.03108135
31	0xb9814e75	-0.00024663252
32	0xbe0466e3	-0.12929873
33	0xbd0d9f03	-0.034575474
34	0xbd0addf4	-0.033903077
35	0xbca5c5c1	-0.020235898
36	0xbd4154c9	-0.047199998
37	0xbdec7edf	-0.11547636
38	0xbdc46a5c	-0.09590599
39	0xbcf2febd	-0.029662484
40	0x3d9dfea1	0.07714582
41	0x3cfc3ca1	0.030790629
42	0xbd499dbe	-0.0492227
43	0xbc7ce4c2	-0.0154353995
44	0xbe522754	-0.20522815
45	0x3ce7b507	0.028284563
46	0x3d3bdde3	0.045865905
47	0xbdd6b105	-0.104829825
48	0xbddac436	-0.106819555
49	0x3d1de6f3	0.03855033
50	0xbd5458f8	-0.05184266
51	0x3cb121d7	0.021622581
52	0xbe159d15	-0.14610703
53	0x3d3c957b	0.046040993
54	0xbc65b6ac	-0.014020603
55	0x3cb753e0	0.022378862
56	0x3e0cef78	0.13763225
57	0xbc79af28	-0.015239514
58	0xbc5053d8	-0.012715302
59	0xbe0cd4a4	-0.13752991
60	0x39b641b0	0.00034762686
61	0x3dd4b10a	0.1038533
62	0x3d8310e3	0.06399705
63	0xbd077272	-0.033068128
64	0x3d46313e	0.048386805
65	0x3dc6414f	0.096804254
66	0xbdc2cff2	-0.09512319
67	0x3d0bd908	0.034142524
68	0xbe16d72d	-0.1473052
69	0x3dcf44ad	0.10120521
70	0xbde48250	-0.11157668
71	0xbd045a82	-0.032312877
72	0xbd303c4a	-0.043026246
73	0x3cb5e9e0	0.022206247
74	0xb95bf4ab	-0.00020976613
75	0xbdeaf7aa	-0.114730194
76	0xbdee5ffa	-0.116394
77	0xbd223312	-0.039599486
78	0xbe0ebb94	-0.13938743
79	0xbd464d3a	-0.048413493
80	0x3cf98439	0.030458556
81	0xbd03085a	-0.031990387
82	0x3d95e731	0.07319487
83	0xbc2773b7	-0.01022046
84	0xbdc5b00e	-0.096527204
85	0xbd02b511	-0.03191096
86	0xbdb79baa	-0.089652374
87	0xbc9b6140	-0.01896727
88	0x3c953559	0.018213915
89	0x3ceaf748	0.028682366
90	0x3cf9f59f	0.03051263
91	0xbe0fb8da	-0.14035359
92	0xbdb4a958	-0.08821362
93	0x3d364705	0.044501323
94	0xbc62bab0	-0.013838455
95	0xbe0a4a42	-0.1350489
96	0xbc78e668	-0.015191652
97	0xbd660f64	-0.05616702
98	0xbc9dfcd6	-0.0192856
99	0xbd785470	-0.0606274
100	0x3b8692e5	0.0041068667
101	0x3ab3efe6	0.0013728112
102	0x3d7647e1	0.060127143
103	0x3d260777	0.040534463
104	0x3cf78c07	0.030218137
105	0x3c9285a7	0.017885996
106	0xbd5900e3	-0.05297936
107	0x3cc0b3c2	0.023523215
108	0xbd984f5b	-0.07437011
109	0x3ba92752	0.005162158
110	0xbcbd9789	-0.023143547
111	0xbd4c49d0	-0.04987508
112	0xbcf9fc1e	-0.030515727
113	0x3c9efc98	0.019407555
114	0xbcec58a3	-0.028850859
115	0xbb91ed22	-0.0044533173
116	0x3bfe709d	0.0077648894
117	0x3cfb56a4	0.030680962
118	0xbd9fae14	-0.07796875
119	0x3ca81944	0.02051986
120	0x3e0d463b	0.13796322
121	0xbd89fe31	-0.06737936
122	0xbe2cb3a7	-0.16865407
123	0x3d26a5a2	0.040685304
124	0x3da4bab3	0.080434225
125	0x3bee7b92	0.0072779143
126	0xbca2a67d	-0.019854778
127	0x3d7e9323	0.06215204
128	0xbccb85b4	-0.024844028
129	0xbdc945e6	-0.09827785
130	0x3c6a3548	0.01429493
131	0x3d7773b9	0.060413096
132	0x3e166449	0.14686693
133	0xbcfb29cb	-0.030659577
134	0x3c4d1f33	0.0125196455
135	0xbd4baf5a	-0.049727775
136	0xbd2bda8a	-0.041956462
137	0xbdc35615	-0.09537903
138	0xbd62a213	-0.055330347
139	0xbd2c6b76	-0.04209467
140	0x3d1e9459	0.038715694
141	0xbcd645d8	-0.026156351
142	0xbe0823e0	-0.13294935
143	0xbe0187ef	-0.12649511
144	0x3d519996	0.05117186
145	0xbdc5ffbe	-0.096679196
146	0xbdb10dc5	-0.086452045
147	0xbbb57dba	-0.0055386694
148	0x3d668eb4	0.056288436
149	0xbdab0cec	-0.08352074
150	0xbc5a240f	-0.013314261
151	0x3d969afb	0.07353779
152	0xbe7d5137	-0.24738012
153	0xbcacf516	-0.02111296
154	0x3ddb19c2	0.10698272
155	0xbcff1ec7	-0.031142605
156	0xbc6a887f	-0.01431477
157	0xbdefb0e9	-0.11703665
158	0x3b9aa677	0.004719551
159	0xbca6d645	-0.020365844
160	0xbd388dd6	-0.04505714
161	0x3d8353d6	0.06412475
162	0xbdfe2084	-0.124085456
163	0xbc9f45c1	-0.019442441
164	0xbb811280	-0.003938973
165	0xbdd4b7a7	-0.103865914
166	0x3d2ede74	0.042692617
167	0xbd52d38a	-0.05147127
168	0xbdaacaaf	-0.0833944
169	0xbe085476	-0.1331347
170	0x3b9e6cb9	0.004834738
171	0x3d21b1e0	0.039476275
172	0xbbe82a49	-0.007085119
173	0x3d115294	0.035479143
174	0xbdfc178d	-0.123091795
175	0xbc939dc4	-0.018019564
176	0xbdf223cd	-0.11823235
177	0x3d01af2f	0.03166121
178	0xbbc0ab77	-0.005879815
179	0xbde5d5aa	-0.11222394
180	0xbd7c4154	-0.06158574
181	0xbdb551cf	-0.088534944
182	0x3d2fb6ae	0.042898826
183	0x3cbb073f	0.022830604
184	0xbcd66802	-0.026172642
185	0xbd336bfa	-0.043804146
186	0x3d4be91c	0.049782857
187	0xbdd6c258	-0.10486287
188	0x3cac5f6a	0.02104159
189	0xbbbdfc20	-0.005797878
190	0xbbb22f93	-0.0054378
191	0x3d8d2728	0.06892234
192	0xbd877250	-0.066136
193	0xbca87158	-0.020561859
194	0x3d365ed9	0.044524048
195	0x3cde19cb	0.027111908
196	0xbe04d0bf	-0.12970255
197	0x3cb78614	0.0224028
198	0x3de4ce69	0.11172182
199	0x3d31c9e7	0.04340544
200	0xbccb5a77	-0.02482341
201	0xbdd55b84	-0.10417846
202	0xbddf943d	-0.10916946
203	0xbe1d3751	-0.15353133
204	0xbd1550cd	-0.03645401
205	0xbd0a105f	-0.03370702
206	0x3ce4befd	0.027923102
207	0x3bf3da23	0.0074417754
208	0xbc99962a	-0.018748362
209	0xbdb42c98	-0.08797568
210	0x3d300a30	0.042978466
211	0xbd8307f8	-0.06398004
212	0xbb92d32a	-0.004480739
213	0xbd8f70fc	-0.07003972
214	0xbcb5c6e4	-0.022189565
215	0xbdbbc2a2	-0.09167983
216	0x3dcacb30	0.09902036
217	0x3d4b5e1d	0.0496503
218	0xbd875966	-0.06608848
219	0x3d956051	0.072937615
220	0xbd399c51	-0.04531509
221	0xbe1e1456	-0.15437445
222	0x3e1d420d	0.15357228
223	0x3cf088d7	0.029362125
224	0xbe5e2d17	-0.21696888
225	0xbdf00072	-0.11718835
226	0x3bc44462	0.005989597
227	0xbb912ad2	-0.0044301534
228	0x3b8c8543	0.004288347
229	0x3ddc8629	0.107677765
230	0xbd3a115f	-0.045426723
231	0xbdea535c	-0.11441681
232	0x3d4dfe98	0.050291628
233	0xbdd0880c	-0.10182199
234	0xbd19c7a3	-0.037543904
235	0x3cd0b0da	0.025474954
236	0xbe312b4d	-0.17301674
237	0xbcd19438	-0.025583372
238	0xbd3cc2b2	-0.046084113
239	0x3dd33d33	0.10314407
240	0xbda5f39b	-0.08103105
241	0xbe21f2df	-0.15815304
242	0x3cba8385	0.022767792
243	0xbdfc8f1d	-0.12331984
244	0x3d268dfc	0.04066275
245	0x3d3556f4	0.044272378
246	0xbd85bb2e	-0.06529842
247	0x3c89024e	0.016724732
248	0x3da98cf7	0.0827884
249	0xbd80f731	-0.06297148
250	0xbde460e1	-0.11151291
251	0xbd4a5157	-0.049393978
252	0xbbaa2c39	-0.00519326
253	0xbbb8f382	-0.005644263
254	0xbdb74c28	-0.089500725
255	0xbdbcec2f	-0.09224736
