results/Drone2/Drone/Drone-15499380.onnx (onnx, 283599 bytes, 7 tensors)

action_model._continuous_distribution.log_sigma f4 [1, 4]
00000000: 9f59 afbe 7f8a e7be 540c 9abe 8fc2 a8be
-0.34248063 -0.45222852 -0.3008753 -0.32960936

action_model._continuous_distribution.mu.bias f4 [4]
00000000: 928f 1bbd 3972 e9bc 62a8 babc 530e 7bbd
-0.037978716 -0.028496848 -0.02278537 -0.061292958

action_model._continuous_distribution.mu.weight f4 [4, 256]
00000000: eedc 9f3d f762 d83b 032f da3c 0234 d8bd
00000010: bde6 b53d 32f9 6f3a 8b79 b23d ce42 043e
00000020: e46c 373d 59ec f4bb 9e80 003d d3c0 f0bd
00000030: 53b2 073d 1096 8f3d e43d 09be b3de a73c
00000040: 620f 86bd 6390 983d 4f0d 2c3d 407f 5e3d
00000050: 644d 8d3b 6835 4b3c 9140 b7bb 8763 303d
00000060: 4e25 ff3c 5de8 2339 2e4f 023b d25d c93c
00000070: 5e20 d43c 614b 4f3d d14a 263d 6ea2 95bd
00000080: d8ae 9ebd 81f3 31bd 22bb 873c d35e acbd
00000090: fe55 953d 8163 d43d 666d 10bd d91a 75bd
000000a0: 37a1 68bd 2d47 23bd b3e9 8abc 0702 83b8
000000b0: 3c0b b0bc 1dc2 d93d e40b ff3c 6a68 4dbc
000000c0: e6f8 693d 25e3 ee3c 94d3 763d 2a60 99bd
000000d0: de7f 133d 7009 023c e787 a03d fd14 90bd
000000e0: ae90 ca3c 00fb 913d fb9d 83bc c9d8 bf3a
000000f0: 689d 78bd 5e6d 853d a072 8a3c 7b4c d83d
00000100: c576 00bd 6f3b 0d3e 2c0c 0d3d 1b49 263e
00000110: 91cd ba3d 96b3 783d 73f4 abb8 847a cf3c
00000120: d08b 6ebd c613 9e3d 533e ecbc 082f f23c
00000130: bd8f 72bc 7f46 9e3d 3a65 15bc c336 873c
00000140: 84b8 303d 172c d1bc 24d9 3fbd e0f3 433d
00000150: e72b 63bc 199d 253d f45a 2d3d ce88 85bc
00000160: 87d6 203d 23e4 9f3c 0e40 0cbd 005f f7ba
00000170: bd66 45bb 2c19 2f3d 71b0 ac3d b6f3 97bc
00000180: 6162 dd3c 71b0 0dbd a725 c73c 241c 86bc
00000190: a14d 0dbd dedd a63c e684 bb3b 58dd 9ebd
000001a0: 7ba0 98bd 2893 3dbc 40b8 57bd 59d5 c13c
000001b0: c3b4 0a3d 83e7 323d 3135 0cbd 4096 9d3c
000001c0: 1981 b83b 5eb1 ad3d a3c1 96bd c281 343d
000001d0: 46ea 503d 28e2 333e bc5d 9b3d 1b5d 9dbd
000001e0: 68e3 d53b fc6c 8d3d 0187 63bc ce9a bb3d
000001f0: 3dbf bb3d 7d49 62bd 9cfa 423c 0909 1f3a
00000200: 2915 133d 8fa9 b63c 8899 943c 592d 9a3c
00000210: 048c 7d3d 9eea 54bb 52c7 b6bc 90b9 a43a
00000220: c5fa 7c3d 8414 89bd e2cd ad3c fbc5 c2bc
00000230: ef3c 943d 93a3 313d d731 b7bc 6116 5d3d
00000240: fa4c b53c bf79 1dbd 60ee c23c 3b32 e23d
00000250: 55d0 2d3d 633a 1d3d 7825 c3ba 4f35 3fbd
00000260: 0a74 c13c d0fd c73c fe4e 5bbb ae36 193d
00000270: e01d 003d 7e77 5bbd 1810 09b9 d681 0f3d
00000280: af6a 1ebd 1e61 1bbd 854e 05be 8ff8 b3bc
00000290: 6ad4 68bc 7d41 c2bd 9bba e13c 1c2f 273c
000002a0: b30c 423d 2c89 893b 3305 f5bc adf7 5dbd
000002b0: 3cf2 2d3d 8cfe 353b 06de 9a3c 080d e3bb
000002c0: daff a1bd 5467 693d c291 833c f503 e03c
000002d0: be18 923c d437 ab3b dd7e fd3d 408b d5bd
000002e0: bbb1 903d 43da 9bbd 7631 9bbd 4689 9f3d
000002f0: 9347 a33d f575 aabd a613 a83c e0a1 67bc
00000300: 9b0c a63d 049f cc3c 2882 463c f069 063d
00000310: 8735 1fbc 7f6f 733c 2b6e 3fbd bb07 fabd
00000320: 4fa0 a93d 672c 3e3c 4f7c 3e3c 75ae 08bd
00000330: 173c 03bd 983d 57bd 639e 1e3c 824a 1d3d
00000340: a0f7 d63b b4ea 01bd 4157 0b3d 1f4c fbbc
00000350: 7ce7 6dbd 8713 983d bb62 2b3c 13f5 483b
00000360: e229 a83c 217d 3f3d 088e 7f3d 26dd 9d3c
00000370: 9617 823b c23f 893d fd05 e73b d5ce bdb9
00000380: f195 ea3d 717e 1e3d c419 263d 67cb 9f3b
00000390: c6eb 56bc c39d 3b3d 3287 c23d c016 db3c
000003a0: 9508 693d 21c7 093d a4eb 143d c000 443d
000003b0: 6ddf 36bd 2b7e b03d a7a7 783d 305f 503d
000003c0: eeae 073e 5e1f 2a3d 8893 c13c b84c 4b3d
000003d0: 297b 7b3d 4093 f43d e781 9c3d 6c0e 583d
000003e0: a62d 953c 2344 15bd 6b39 b03d e322 aabd
000003f0: ebea bebd 14bc 2fbd 9312 b1bc 6bd4 403d
0.07805811 0.0066035944 0.026633745 -0.10556795 0.088819005 0.00091542595 0.08714589 0.12916109
0.04478158 -0.007474464 0.03137266 -0.11755528 0.033129048 0.07011044 -0.13402516 0.020491933
-0.06545903 0.074494146 0.04200488 0.054320574 0.004312204 0.01240287 -0.0055924137 0.043063667
0.031145718 0.00015631453 0.001988362 0.02458087 0.02589434 0.050608996 0.040598694 -0.07306372
-0.077481925 -0.043445114 0.016568724 -0.08416524 0.07291792 0.10370541 -0.03526058 -0.059840057
-0.05679437 -0.0398628 -0.01695714 -6.2469444e-05 -0.021489732 0.10632727 0.0311336 -0.012537101
0.057122134 0.029161045 0.06026037 -0.07489045 0.036010616 0.00793682 0.07838421 -0.07035253
0.024727192 0.071279526 -0.016066542 0.001463675 -0.06069699 0.06515001 0.01690036 0.105614625
-0.031363267 0.13792203 0.034435436 0.16238825 0.0912124 0.06071814 -8.1994476e-05 0.025326975
-0.058238804 0.07718615 -0.028838312 0.029563442 -0.014804778 0.0772829 -0.009118373 0.016505605
0.043144718 -0.025533719 -0.04683794 0.04784 -0.013865448 0.040433023 0.042323068 -0.016300585
0.03926709 0.019517964 -0.034240775 -0.0018872917 -0.0030121051 0.042748615 0.08432091 -0.018548828
0.02702445 -0.034592096 0.024309946 -0.01637084 -0.03449786 0.020369466 0.00572263 -0.07757062
-0.07452484 -0.011570729 -0.05266595 0.023661302 0.033863794 0.043677818 -0.034230415 0.019236684
0.005630624 0.08481096 -0.07361152 0.04406906 0.05100467 0.1756674 0.07586238 -0.07683774
0.006527353 0.06905553 -0.013887168 0.09160386 0.09167335 -0.055245865 0.01190057 0.0006066715
0.03590885 0.022297649 0.018139616 0.018820452 0.061901107 -0.0032488476 -0.02231184 0.0012567509
0.06176259 -0.06693366 0.021216337 -0.023776045 0.07238185 0.043368887 -0.022362633 0.05397642
0.022131432 -0.038446184 0.023795307 0.11044737 0.04243501 0.03838576 -0.0014888486 -0.0466817
0.023614902 0.02441302 -0.003346383 0.037405662 0.03127849 -0.053580754 -0.00013071334 0.03503593
-0.03867596 -0.037934415 -0.13018234 -0.021969108 -0.0142108 -0.09485147 0.0275548 0.010204103
0.047375392 0.0041972604 -0.029909706 -0.05419128 0.04246734 0.002777013 0.018904697 -0.0069290437
-0.07910128 0.056983307 0.016060714 0.027345637 0.017834064 0.005225161 0.12377713 -0.104269505
0.070651494 -0.076099895 -0.07577793 0.07789855 0.07972636 -0.0832328 0.020517182 -0.014137715
0.08107873 0.024978168 0.012115993 0.032815874 -0.009717352 0.014858126 -0.046735924 -0.12208506
0.082825296 0.011607266 0.011626317 -0.0333695 -0.032039728 -0.052548975 0.009681317 0.038401134
0.006560281 -0.03171797 0.03401876 -0.030675946 -0.05808209 0.074255995 0.010460551 0.0030663654
0.020527784 0.04675019 0.06239131 0.01927049 0.003970097 0.06701614 0.0070502744 -0.0003620299
0.1145438 0.038694803 0.040551916 0.0048765424 -0.013117736 0.04580475 0.09498443 0.026744246
0.05689295 0.03363717 0.036357537 0.047852278 -0.04464667 0.08617815 0.06070676 0.050872028
0.13250324 0.04153382 0.023629919 0.04963371 0.06139675 0.11942148 0.076419644 0.05274813
0.018210243 -0.036441933 0.086047016 -0.08307435 -0.09322151 -0.042903975 -0.021615302 0.047077578

network_body._body_endoder.seq_layers.0.bias f4 [256]
00000000: 46d6 f23d 137c 17bd 579e fa3d 8a7f 513d
00000010: 339f 98bd a178 91bd 3a10 90bd f355 693d
00000020: a8be 6a3d 2dac f93d 2f72 69bd ac61 dcbd
00000030: 70ec 33be 72f5 aebd 8251 2fbc 1b0b d23d
00000040: 5c8d 0dbd 9cf8 7cbc f711 14bc b477 83bd
00000050: a182 71bd 2dba 963d eef4 d73d ad7e ca3d
00000060: 19e1 f83c 41de f13c e162 adbd 8639 47bd
00000070: bf8e 823d efca d33d 2b97 4e3d 262b c3bd
00000080: bf21 093e e133 0e3e 17be 57bd b44f 14be
00000090: e3e4 823d 4a9f 7cbb 0f0b bfbd 5ffa a6bd
000000a0: 22f0 61bd dffa cf3d 642d 213e b1fb 4c3d
000000b0: 254f e2bc 87fa f93d 6580 abbd d514 ae3d
000000c0: ecd2 d0bb af16 abbd 3ed0 973c 39c5 bfbc
000000d0: 22f1 f33c 07df e13d 6619 bc3d 1759 bbbc
000000e0: 7b6b 9b3d 27f6 f63d 882b f8bc 0469 b23d
000000f0: 2403 13be 3a5b 0b3e bbf4 f03d ba26 cbbd
00000100: 716d 2d3d bd2c fc3d 3667 a9bd fd14 0abe
00000110: a1a7 96bd f81d 1fbe 2fc6 753d e7fc a63b
00000120: 40bf 1abe 97d8 723d b8e5 3a3d 134c b53d
00000130: dd15 eabd 493f 79bc 344c 09bd 3ebb 663d
00000140: e94d a13b 9c80 3abe a9ae f63d c01a 453e
00000150: b604 823b 2af5 f7ba fba9 13bd 6c7e 1e3d
00000160: cee1 273d 6b7e 8f3d 70d2 9ebd 1636 123d
00000170: 4093 dbbc 0911 da3d 1706 d3bd c184 d63d
00000180: 46b2 2d3e ce38 1dbe 5d47 42bd 2573 0ebe
00000190: 266b 2b3c ef31 0e3e 1252 083d 471e 3f3e
000001a0: b766 03bd 2998 80be c7e8 2c3e 4d12 13bd
000001b0: d17c 963c b3c4 c1bd 0cd1 c8bb d902 bf3d
000001c0: 24ae 1c3e 7a72 ff3d 9f0b 363d 0c64 843d
000001d0: 9cac 80bb d784 803c 1e2e 25bb 1c26 8d3d
000001e0: 2762 f6bc cf45 22be aa04 2bbe bf43 803d
000001f0: c840 e03b f12c 1cbd 9319 c7bd a037 b73b
00000200: f4fa e0bc cf00 e0bc 5896 7ebd 54a4 d7bc
00000210: 0bb7 3c3d ead1 9f3c edc7 bf3c bb10 05be
00000220: b1e5 8f3d 340d 05bb cd6d 94be 222d 68bd
00000230: 40f0 353e f67e d73c 49f0 203d e0c5 823b
00000240: 58fa b4bc 86fd 533d cb25 d9bd 0ae4 4a3d
00000250: 7eea bd3c 0dc5 353d 9799 e1bc 8cf1 3dbd
00000260: d4c9 3d3d 3849 0c3d f065 fe3a 38f6 bd3d
00000270: b79d 00be a6ee 103d 3c76 54be eee8 243e
00000280: 73fe 27be 53f5 893b b1da a3bd 4a9d a4bd
00000290: 5e88 3ebe 0fcf 113e e0af 90bc 054c 1b3d
000002a0: 7b01 8b3d 912a a8bc e491 bfbc 8d36 b1bd
000002b0: 235c 733d bd8b e63c 71dd af3d 9af4 0dbd
000002c0: 0ec6 3dbe 66be 9abd c21e d1bd 9b80 e33c
000002d0: 1572 943d 6cd2 733d aa14 173d 4ef4 8f3b
000002e0: fa93 033e e110 053d d694 8c3d 6e09 b63c
000002f0: 91bd b13d 9e1c 8e3d db8b 0b3e 5066 e8bc
00000300: f088 9ebc 7dc5 0bbe eb2d 2fbc 901e 0abe
00000310: a017 cbbd 6f59 a7bd 8429 293d 2a81 d8bd
00000320: 2564 04be 218f 10bd bf2d 00be bade b03d
00000330: d7d6 913d c046 683d 48ec 9d3d eb60 49bd
00000340: fc63 22be b225 bb3d 6910 35bd fac8 133c
00000350: 5ac8 653d 2b35 23bc 22ed 773c ab7a b03d
00000360: 18e2 053d 6f60 883d b068 55bd 3777 753c
00000370: ee6d af3c c6f6 fcbd b142 fdbb b670 333c
00000380: 37af b5bd 2191 38bd b4c7 c5bc 9d37 3a3e
00000390: 5ba5 08be 2ce9 643d 8b00 22be 2284 df3c
000003a0: 034d 873d 7076 f438 08ae 02be 9338 103c
000003b0: 3aad cd3d a6df 1cbe 4e87 1b3e 7fa4 afbc
000003c0: 56d8 ea3d eefb e73d f196 1f3d 6f1a 723d
000003d0: b350 823d d5d2 043e 8e8e f9bd 7786 2dbd
000003e0: d240 6c3c eb64 2fbd e286 213e 43fa 90bb
000003f0: 236d ee3c 9765 cb3d 0fb1 5e3d 1bc3 58bd
0.11857276 -0.03698356 0.12237232 0.05114702 -0.0745224 -0.07103086 -0.07034345 0.056966733
0.05731073 0.12191043 -0.05699366 -0.10760817 -0.17570662 -0.08542909 -0.010700585 0.102560245
-0.03455864 -0.0154401325 -0.009037486 -0.06419316 -0.058962468 0.07359729 0.105447635 0.09887443
0.030380772 0.029524924 -0.08466125 -0.048638843 0.06374883 0.10341441 0.050437134 -0.09529714
0.1339178 0.13886978 -0.05267152 -0.1448353 0.06391313 -0.0038547092 -0.09328281 -0.08153223
-0.05516065 0.10155272 0.15739971 0.05004472 -0.02762563 0.122059874 -0.08374099 0.08500067
-0.0063728 -0.08353936 0.018531915 -0.023409473 0.029778067 0.11028867 0.09184532 -0.02286963
0.0758886 0.120586686 -0.030294195 0.087114364 -0.14356667 0.13609019 0.11765429 -0.09919496
0.0423407 0.12313221 -0.08271639 -0.13484569 -0.073561914 -0.15538776 0.060003456 0.0050960663
-0.15112019 0.059288587 0.045629233 0.08852401 -0.11429951 -0.015212842 -0.03351994 0.05633091
0.0049226177 -0.18213123 0.120450325 0.19248486 0.0039678467 -0.0018917669 -0.036050778 0.038694784
0.04098683 0.07006534 -0.077549815 0.03569611 -0.026803613 0.106477804 -0.10303896 0.104745395
0.16962537 -0.153537 -0.04743134 -0.13911112 0.010462558 0.13886236 0.033281393 0.18663894
-0.03208038 -0.2511609 0.16885673 -0.035906125 0.018370064 -0.094613455 -0.006128436 0.09326715
0.15300804 0.124730065 0.044444676 0.06464395 -0.0039268266 0.015688343 -0.002520449 0.068920344
-0.0300761 -0.15846942 -0.16700998 0.062629215 0.00684366 -0.038128797 -0.09721675 0.005591348
-0.027463414 -0.027344136 -0.062155098 -0.026323475 0.046073 0.019509275 0.023410762 -0.12994663
0.07026232 -0.002030206 -0.2899002 -0.056683667 0.1776743 0.026305657 0.039291654 0.0039908737
-0.02209203 0.05175545 -0.106029116 0.04953388 0.023183104 0.044377375 -0.027539058 -0.046372935
0.046335056 0.034249514 0.0019409042 0.09275478 -0.12560163 0.035383843 -0.20748228 0.1610448
-0.16405658 0.004210153 -0.080006965 -0.08037813 -0.18606707 0.14239143 -0.017661989 0.037914295
0.06787392 -0.02052811 -0.023384996 -0.08652983 0.05941404 0.028142804 0.085871585 -0.0346571
-0.18532583 -0.07555847 -0.10210945 0.027771285 0.07248322 0.059526846 0.03688494 0.004393137
0.12849417 0.0324868 0.06864326 0.022221293 0.08678735 0.06939052 0.1362757 -0.028369099
-0.019352406 -0.13649555 -0.0106921 -0.13488221 -0.099166155 -0.08171355 0.041299358 -0.10571511
-0.12928827 -0.03529275 -0.12517451 0.08636232 0.071210556 0.056708097 0.07711083 -0.049164694
-0.15858454 0.09138049 -0.044205103 0.0090200845 0.056099273 -0.009961407 0.01513222 0.08617147
0.032686323 0.06659018 -0.05210179 0.014982036 0.021414723 -0.12351756 -0.0077288975 0.010952165
-0.0887131 -0.04506028 -0.024143077 0.18185277 -0.13344328 0.055886433 -0.1582052 0.027284686
0.06606486 0.00011656887 -0.127617 0.008802551 0.10042806 -0.1531969 0.15188333 -0.021440743
0.11467044 0.11327349 0.03896231 0.05910724 0.063630484 0.12971051 -0.12185393 -0.042364564
0.014419751 -0.042820852 0.1577411 -0.004424365 0.029104775 0.09931486 0.054368075 -0.052920442

network_body._body_endoder.seq_layers.0.weight f4 [256, 13]
00000000: b892 e63d fdcf 073f 294a 16be bde1 4b3e
00000010: 0439 27be 8463 cc3d 8f02 afbf e280 823e
00000020: 39d4 06bf fea0 243f 911c 393e 195f 333f
00000030: 79be 8abe 375a 1b3e fbb5 fa3d 3475 c83e
00000040: add9 a3bd 9b81 ab3e afc5 3cbf 9f70 1c3f
00000050: 8de4 f4be 72d6 55bf 11b1 953a 0bd2 90bc
00000060: 8509 bebe 1b24 d8be 6e23 0a3e 2992 16bb
00000070: 02b6 b93e e36f 25be 0c03 723e 4d5f 9dbd
00000080: 1f44 20bf 89e9 d73e b8c4 cdbf 0b7f 223e
00000090: 6d4e 9cbd ec60 e23e 0220 debd fa45 7bbd
000000a0: fb6a 87bd 028e 9bbe d4f9 fcbd 43bd bbbc
000000b0: eee9 64be c06b 963d 26a5 7e3e 2dad 8c3f
000000c0: 9469 acbe aa14 e3be 26d1 493e a1c2 3fbe
000000d0: 80fd 46bd f89f 2f3f d60d 00be 9789 a43e
000000e0: 107e 47be e999 2d3e 2556 353f 9753 0dbf
000000f0: f636 e6be 019c 04bf 77c5 5c3e c578 9abc
00000100: a243 d9be adce bdbe d593 743e 114c e9bb
00000110: 7be8 8abe ab7b 3fbd 4878 193d d79d 503f
00000120: b73f 80be 16f6 543f 7627 23bd 505d a63d
00000130: 7618 5ebe d1ac 82bd 694e b4be afcb a03e
00000140: e507 41bd d043 f43e 3c6a bc3e 0cea d03c
00000150: 33bc d23e ce71 30be 7fdf fc3e 4495 c33d
00000160: 58c4 aa3d 2e28 033d 5151 dd3e 6c1d 163d
00000170: 9dba a03e 0aa3 5abe 6576 073e d09f 3dbe
00000180: 9def 84be 3d2f 723f dd17 abbd 4645 07bf
00000190: 31d5 863e 3c8d 25be 323e cb3c 19f3 593e
000001a0: 7fa7 e13e e749 8cbe 85a0 4abe 0d65 76bc
000001b0: 8674 5d3d 50ee ae3c 95aa 58bf 68a4 92be
000001c0: 2914 fa3e be39 fe3e c857 16bf 6833 31bd
000001d0: cca4 3b3e 0f42 403e 8608 b43e 2b1d 35bd
000001e0: 1dc8 b23e 4ffe b93e 1652 00be 23c3 a2bd
000001f0: 877a 2a3e 295b e8be 012b 023f d90e b63e
00000200: 9780 203f 12cb cf3e acb6 4fbe 5b4e 18be
00000210: 12b3 143f c27b cebd c7b5 8e3d 3b7e a3be
00000220: a7b7 8bbe 5b8c 1fbe 58f3 0dbd 83a2 33bf
00000230: 5f93 8a3e cfbe 81be 0630 f7bd e682 0d3e
00000240: dc0d 39be 27a9 853e 0aff a63e e277 1d3f
00000250: b8db c4bc a5a4 7d3d e90a 8e3d 6d7f 15bf
00000260: 19d1 c3be d86b 44bf b5d1 b6be ff33 03bd
00000270: e347 1cbf e0c4 94be 875d e1bd 194a ca3e
00000280: 1fde a93e 5fd2 4e3e 284a 023f c829 1cbe
00000290: c93c 60bd 8688 a0be deba 47be 2d95 acbe
000002a0: d4b5 6fbd 823f bd3e 0607 b23d 87ba 043f
000002b0: 73a2 d1be c147 9dbe 44cf 17bf 4411 e73e
000002c0: 519c 34bf 7b76 77be 0c71 a3bd f331 533d
000002d0: 8060 c5be b7c5 2c3e 2232 533e 570f 4bbe
000002e0: c3ee 463d 3aa3 0bbf dcad 0c3f 6318 f13d
000002f0: 4a47 73bf 548e fdbe b05e e73d 49ec 753e
00000300: 48b9 babe f316 1bbe 0db0 b13d e7f2 ab3e
00000310: 29f5 5d3d c1a2 9abe 6d88 4cbe b768 eabc
00000320: fa64 363e caa3 b93f 605c e6bb fcc4 3abf
00000330: 2cbb 1f3f f7f5 06be b4f4 973e d9bf ea3d
00000340: 3b25 59bd ad14 46be e6d1 b1b9 33a9 083e
00000350: eb5a a1be d11c 04bf 0e71 c93e e9b0 e63d
00000360: 2691 823d a9c3 79be 2abb aabe 4e0a f03e
00000370: 3701 56bb 1139 2a3e 8048 873e 5d5b 853e
00000380: b678 45bc 4978 18bf 8712 67be 0345 bfbe
00000390: fc66 5bbd 04c7 38be f713 913c 0a68 3abe
000003a0: ca54 25be 94c5 5fbf 3660 db3c 5322 d43e
000003b0: 17b8 cabc 6308 603e 3a60 d13e aef0 1f3e
000003c0: 763a 8e3f 7b8a babe e677 63be 1145 dbbd
000003d0: a552 c4bd 1b11 90be 4374 cb3d b4a2 1a3e
000003e0: 6982 ae3e b93c 42be fdd5 f93e c3b5 83b9
000003f0: f2f9 5b3e 405f a73e 6eb0 d3be b47e 443f
0.11258453 0.5305174 -0.14676727 0.19910331 -0.16330343 0.099799186 -1.3672656 0.25488955
-0.52667576 0.64308155 0.18077303 0.7006698 -0.27098444 0.15171133 0.12241741 0.3915192
-0.08000503 0.3349732 -0.7373914 0.61109346 -0.4783062 -0.8353034 0.0011420568 -0.017678281
-0.37116638 -0.42215046 0.13490078 -0.0022975302 0.36271673 -0.16155963 0.23633975 -0.07684193
-0.62603945 0.4217036 -1.6075659 0.15868776 -0.07632146 0.4421457 -0.10845949 -0.06134603
-0.06612202 -0.3038178 -0.123523384 -0.022917395 -0.22354862 0.073447704 0.24867687 1.0990349
-0.336743 -0.44351703 0.1970869 -0.18726589 -0.0485816 0.6860347 -0.12505278 0.32136223
-0.19481683 0.16953243 0.7083457 -0.5520567 -0.44963807 -0.51800543 0.21559702 -0.018856416
-0.42434412 -0.37071744 0.23884518 -0.0071196635 -0.27130494 -0.0467488 0.037468225 0.81490844
-0.2504861 0.83188 -0.039832555 0.08123267 -0.21689019 -0.06380618 -0.35216072 0.31405398
-0.04712667 0.47707987 0.367998 0.025502227 0.4115921 -0.17230913 0.49389264 0.095499545
0.08338231 0.03202074 0.43226102 0.036649153 0.31392375 -0.21351257 0.13228758 -0.18517995
-0.2596406 0.9460333 -0.08354161 -0.5284008 0.26334527 -0.16167158 0.02480993 0.2128414
0.44073102 -0.27400133 -0.19787796 -0.015038741 0.054066204 0.02135387 -0.8463529 -0.28641057
0.48843506 0.4965343 -0.58727694 -0.043261915 0.18324584 0.187752 0.35162753 -0.04421727
0.349183 0.36326835 -0.12531313 -0.079473756 0.16648303 -0.4538205 0.5084687 0.35558203
0.6269621 0.40584618 -0.20284528 -0.1487364 0.5808574 -0.10082199 0.06968265 -0.31932244
-0.27288553 -0.15580885 -0.0346559 -0.7016985 0.2706556 -0.25340888 -0.120697066 0.13819465
-0.18071693 0.26105615 0.32616454 0.6151105 -0.024030551 0.061924595 0.06935675 -0.5839756
-0.38245466 -0.76727057 -0.3570687 -0.03203201 -0.6104719 -0.29056454 -0.11004167 0.39509657
0.33177277 0.20197438 0.50894403 -0.15250313 -0.05474547 -0.3135416 -0.19504878 -0.33707562
-0.058523014 0.36962515 0.08692746 0.5184712 -0.4094425 -0.30718806 -0.5930064 0.4513036
-0.7055102 -0.2416629 -0.07980546 0.051561307 -0.38550186 0.16872297 0.20624593 -0.1983007
0.048567545 -0.5454594 0.5495279 0.117722295 -0.95030653 -0.4952265 0.11297357 0.24015917
-0.36469483 -0.15145473 0.08676157 0.33583757 0.05418888 -0.30202296 -0.19973917 -0.028614385
0.17811957 1.450311 -0.007030055 -0.72956824 0.62394977 -0.13179766 0.2967888 0.11462373
-0.05301402 -0.19343825 -0.00033916457 0.13345794 -0.31514677 -0.5160647 0.39344066 0.11264212
0.06375341 -0.24391045 -0.3334592 0.46882862 -0.0032654533 0.16623332 0.264225 0.26046267
-0.0120527055 -0.5955854 -0.22565661 -0.3735734 -0.05356501 -0.18044668 0.017709715 -0.1820375
-0.16145626 -0.87410855 0.026779275 0.41432437 -0.024745984 0.218782 0.40893728 0.15619156
1.1111591 -0.36433777 -0.22213706 -0.10706533 -0.09586076 -0.2813805 0.099342845 0.15101129
0.3408387 -0.18968476 0.48796073 -0.0002512169 0.21482065 0.32689857 -0.41345543 0.76755834

network_body._body_endoder.seq_layers.2.bias f4 [256]
00000000: 3b76 85bc 6cf8 97b8 93e3 a5bd d1c0 123e
00000010: 5735 c93d 61b6 e03a f9b7 b23c 859a da3c
00000020: 21d8 0dbd 9d90 4d3d b632 cc3d 0a62 ce3d
00000030: dc72 04bd 8adf 8f3d fc8b ee3d 9282 5cbd
00000040: aa05 833d 1835 69bd cf92 69bc bb17 9abb
00000050: 5aa4 433d 34f3 553d c6ba a8bc ee7c 8cbc
00000060: 2eeb 5d3c 79d8 203d 6576 4b3d 0f40 37bd
00000070: f276 61bd 522e b1bb 6e9b 83bd 08c1 973d
00000080: 6d48 df3d 6311 973d 871f bd3d 1396 963d
00000090: ebce bbbd 409e 193d 2786 223d a92a 9a3d
000000a0: a15c cd3d 4646 503d e810 2c3d d512 6fbd
000000b0: e5a5 893d d8f1 a63d f41a c03b 251e 3abb
000000c0: e651 003d a205 d7bc f77b 89bd ec5f a33d
000000d0: b7a4 623d 9eb9 6bbd e556 9f3c 725a bc3b
000000e0: 8c69 383c edc7 8d3d 12b7 78bb 22f9 503d
000000f0: 036b 883d d0d5 79bd 2c9e 59bc e271 ebbb
00000100: caad 47bc 01cc 973c 2eda 06bc 3088 a93d
00000110: a029 e83c 567c 88bd 5075 24bd 6d53 26bd
00000120: 3c5d 883d ea0b d6bc ccd9 023d 0a46 f3bc
00000130: 8350 0c3c 83d0 683d 4bf6 9a3d 12fc 1ebc
00000140: 3ff3 843d bc90 073d cccd 63bc fbaa ce3d
00000150: 51d2 45bd 4e96 2e3b c356 10bd 9b58 a93d
00000160: d066 41bd d728 96bd 5a8b 843d 5f2d 65bd
00000170: ef9f 933c 06c5 b33d 5858 d6bd cf4c f33c
00000180: c634 25bd 7ec1 833d 83d9 f73c 58c9 b83c
00000190: ba7c af3d 4932 713c 2d42 13bd aaab 9d3d
000001a0: 74d1 8d3d d692 dd3c 9dcc 303d 941d 8eb8
000001b0: 8103 40bd 9ab0 2dbc 9d33 c53c dbdf 05bd
000001c0: 2488 173d 66cc fd3a 207d bb3d eabc 3c3c
000001d0: 726c 703d 6e54 223c edc2 2f39 bf50 963d
000001e0: 1c1e 653c ff1b 21bd f1fb cc3b 3aa9 c53b
000001f0: 0c32 9dbd 7fa1 533d b290 a2bd 6afc 4fbd
00000200: 7f7a 713d 7116 6d3b 25ec a43c 19d4 d3bc
00000210: 8202 1f3d dc2a 563d 51d5 c53d c91b 2f3d
00000220: 0d66 cbbb 75b9 c139 9f7e 1fbd ca4b 963d
00000230: 0452 6abd abb6 2e3d 490b a3bd e980 eabc
00000240: effc a6bd 99e4 3c3d 40f0 f13c ad95 1e3c
00000250: 6b14 a13d cf47 0b3d fe1e 16bc 0dec ff3b
00000260: d159 813d bb2f 233d 17b1 12bd 578a 053d
00000270: 95f1 2c3a 784d 003e bd06 2f3d 5e97 acbc
00000280: 805f 1e3d 82a0 0a3e d8d1 103e 1e92 703c
00000290: 4378 26bc 024c 86bc db56 903d 2fef 8dbd
000002a0: b2c5 4e3d b9c5 d23b 1287 c73d 5e36 0dbd
000002b0: b7fd 7cbd 74a7 003d b6c1 edbc fad1 e0bc
000002c0: ca09 cf3d 8d39 953c 6d17 2dbd 6a77 25bd
000002d0: edfc 003c e101 3abd 8c45 d13c b8b8 ff3d
000002e0: 4e93 e8bc 5f3d d13d ffc8 d23d 388c cf3c
000002f0: d035 2f3c 43c8 c23d fe80 0abd 0a8f b4bc
00000300: 9ec8 22bd b330 4cbd 2ec4 11bd 41fb a53c
00000310: 3226 6d3d 1913 323d a0ad 693d aa85 ff3d
00000320: 43e7 33bd 6ee3 e2bd 76b4 983d a0c4 6f3d
00000330: 89e6 843d bd7e ba3d 1e5f cabc 1083 78bc
00000340: 0112 553d fc9a 143d 6a97 bc3d 53a4 203c
00000350: a169 f83d 318e 913d 6aae 443d bcd0 15bd
00000360: 8156 77bd a015 4b3c b69e 16bd 5d1e 14bd
00000370: 6753 7e3d b0c0 f03d ed2f 883d f238 2e3d
00000380: fa69 0d3d fc3f babc c261 5e3c e2cd 863d
00000390: a4c7 12bd e8fc 3abd 9637 103d 7c74 533c
000003a0: a50c 313d 4848 9c3d 0f5b 8dbd 8811 2ebc
000003b0: bb72 8a3d 4dab a6bb a886 83bc 4924 a23d
000003c0: fc8c e13b 49be b1bc 75d0 4bbc b6fc 603d
000003d0: 9ec1 3ebc fc7a acbc 6f1f 1dbc 251d bdbc
000003e0: a72f 50bd 94fe 9f3d 7318 623d 5dab b73d
000003f0: 596b b23d aa96 fcbc d613 993c 23a1 97bd
-0.016291728 -7.246513e-05 -0.08100047 0.14331366 0.09824627 0.0017144197 0.02181624 0.026685009
-0.034629945 0.050186742 0.0997061 0.10077293 -0.0323361 0.070250586 0.11647794 -0.05383546
0.06397565 -0.0569354 -0.014256193 -0.004702536 0.04776416 0.05223389 -0.020596873 -0.017149415
0.013544841 0.039268944 0.049673457 -0.044738825 -0.055045076 -0.005407133 -0.0642613 0.07409865
0.10902486 0.07376363 0.09234529 0.07352843 -0.09170326 0.037504435 0.03967872 0.07527668
0.10027433 0.050848268 0.04200831 -0.05836757 0.06721095 0.08151597 0.005862588 -0.0028399315
0.031328104 -0.026247803 -0.067130975 0.0797728 0.055332866 -0.057550065 0.019450614 0.0057480866
0.011255633 0.069228984 -0.0037950915 0.05101884 0.06661036 -0.060994923 -0.01328234 -0.0071852067
-0.012187431 0.018529894 -0.008230729 0.08277929 0.02834016 -0.0666434 -0.04015094 -0.040606905
0.06658408 -0.026128728 0.03194599 -0.029696483 0.008564117 0.056839477 0.07566508 -0.009703653
0.06491708 0.033097014 -0.013904046 0.10091206 -0.048296276 0.0026639882 -0.035238992 0.08268853
-0.04721719 -0.07332008 0.06471892 -0.055951472 0.018020598 0.087778136 -0.10466069 0.029699711
-0.04033353 0.0643339 0.030255085 0.022556946 0.085687116 0.014721462 -0.035951782 0.07698758
0.06924716 0.027047556 0.043163884 -6.776597e-05 -0.04687834 -0.010601187 0.024072463 -0.03268419
0.03699507 0.0019363284 0.09154725 0.01151965 0.05869717 0.009907825 0.00016761916 0.0733962
0.013984229 -0.03933334 0.0062556197 0.0060321363 -0.07675561 0.051667687 -0.07937755 -0.05077783
0.058954712 0.0036176706 0.020132134 -0.025857972 0.03882075 0.052286968 0.096598275 0.042751107
-0.0062072338 0.00036950005 -0.038939115 0.07338674 -0.057207122 0.042654675 -0.07961137 -0.028625922
-0.08153712 0.046116445 0.029533505 0.00967924 0.078652225 0.03400403 -0.009162663 0.007810122
0.06315959 0.03984044 -0.035813417 0.032602634 0.0006597278 0.12529552 0.042731036 -0.021068271
0.038665295 0.13537791 0.14142549 0.014683275 -0.010160509 -0.016393665 0.07047816 -0.06930386
0.050481506 0.006432262 0.097425595 -0.034475677 -0.0617654 0.031409696 -0.029023033 -0.027443875
0.10109289 0.018215919 -0.04225867 -0.040397085 0.007872802 -0.045411948 0.025545858 0.12486404
-0.028390553 0.10216784 0.10292243 0.025335416 0.010693982 0.09510853 -0.033814423 -0.022040863
-0.039742105 -0.04985113 -0.035587482 0.020261409 0.057897754 0.043475244 0.057050347 0.12476666
-0.04392172 -0.11078535 0.07456295 0.058537126 0.064892836 0.09106205 -0.024703559 -0.0151679665
0.052019123 0.036280617 0.092085674 0.009804803 0.12129522 0.07107199 0.048017897 -0.036576018
-0.06038523 0.0123952925 -0.036772452 -0.03616177 0.062091257 0.11755502 0.06649766 0.042534776
0.034524895 -0.022735588 0.013573112 0.06582238 -0.035834923 -0.045651346 0.03520926 0.01290619
0.04322495 0.07630974 -0.06902134 -0.010624297 0.06760164 -0.0050863386 -0.01605542 0.07917077
0.0068832617 -0.02169718 -0.012439837 0.054928504 -0.011642842 -0.021054737 -0.009590014 -0.023085186
-0.050826695 0.07812229 0.055199098 0.08968232 0.08711881 -0.030833561 0.018686216 -0.07403781

network_body._body_endoder.seq_layers.2.weight f4 [256, 256]
00000000: cf0b cfbc 80b9 a0bd bb4a 8e3d 0871 373c
00000010: b92d 39bd bb5c 733c 2e0c 1a3d 7c3c 2fbd
00000020: 0a06 8cbd 1477 813d be80 f13a 98ec 70bc
00000030: d236 39bd 6d21 e6bd 9db3 9fbd 8674 6fbc
00000040: 2c89 bdbc f234 0abd ffa4 193d 5bae 9e3c
00000050: 3908 8fbd f3f0 f2bd a8e5 953d e5de 10bd
00000060: fec2 0e3c 4a06 343d 3f99 87bc 5dbb 33bc
00000070: c7e3 22bd 7303 f5bc f5bf 643d a73b 14bd
00000080: f4ca b6bd 5c71 22bd bf84 f7bc e8cd 84bd
00000090: c3e8 39bd 2702 12be bdd9 25be 39ec c5bd
000000a0: f178 cd3d b579 d73c d020 7fbc 3bff 3cbd
000000b0: e4db 8fbe 912d 763d 42e7 cd3c 2651 f1bd
000000c0: f47f 04be b184 a9bc 8a87 8abc 1475 93bc
000000d0: 7b84 e8bd 7371 cf3c 96c1 8cbd fa1c dbbc
000000e0: 97f5 f33d 867a 83bb eec8 95bc 9a16 34be
000000f0: 2a6c dbbc c303 993d a4a1 de3d 5739 afbd
00000100: ce06 293d 4cfa dd3d b3e6 e5bd ccc4 9dbc
00000110: 9d03 e4bd 67fa 1c3d 2365 11be 7e99 d3bc
00000120: a9dc 98bd f5ed 253c 9bcc 57bd 36e6 99bd
00000130: 2c9c fabd a2d5 b6bd 64d2 3abe 8d78 2c3c
00000140: 59ad a73c ae6d 9fbd 4eff bb3d 2554 40bb
00000150: 4614 f0bd 74e0 82bd 0cf2 0cbe b9f8 09bb
00000160: cf00 febc e348 073c b804 8a3c aade 13be
00000170: 85eb 61bd 136a bf3c 957f 7fbd 022e ffbd
00000180: ae8a 61bc d8ce 99bd 9ad7 0c3d 6858 a6bd
00000190: 1211 be3c 72e0 eabc d41e 6d3d d45d 573c
000001a0: 4371 f83c f05f afbc 8fd3 8dbd 5fb8 473d
000001b0: 8298 c4bd b277 06bd 347f 2cbb 8a82 f2bc
000001c0: 9854 883b a90f 06bd 5dab 68bd 97c0 b83c
000001d0: 5390 103d f232 9d3d 4f5d f5bd 301a c7bb
000001e0: a360 c13d 49e3 19be a15e 1dbe e316 f8bc
000001f0: e9e7 543d c7cb 193d 2920 f4bc 0fa7 8a3d
00000200: ab1e 91bd aba3 e3bd 5f8f 36bc 6170 d4bb
00000210: bd90 213e 0e52 f8bc ddaf 323c 1558 d5bd
00000220: 7324 cdbd 30c8 9cbd 28d8 a7bd c23a 90bd
00000230: e653 213d e01d b339 d368 36be 5490 e5bd
00000240: 750e 5e3d 7894 12be cef5 06be a2ba 583c
00000250: e313 1ebb c27f 07be 0efb 16bc b86d 943d
00000260: 0dc2 60be 20ca 2ebd edc9 843d bdb8 d2ba
00000270: 68c5 1cbd 8e34 ecbd 78c5 fbbc af2b 8a3c
00000280: 0fe0 acbd 0a72 903d b39f 05be fcd4 11bd
00000290: 3bf9 adbd c6c9 fdbd dcd4 b93c 7852 a5bd
000002a0: e2b7 95bd c4f0 e2bd 3789 5cbd 81ee fabc
000002b0: 9e56 923c 3399 72bc 2ea8 26be 3b75 e3bc
000002c0: 3c9e 4cbe 5e6b e5bc dd91 38bd edff e6bd
000002d0: dca1 d0bd efd8 c3bd 3dff c739 400d 853c
000002e0: 6426 e1bd ba95 bfbc 6052 a13c abf7 d5bd
000002f0: 47d0 5e3b 8cc9 51bd 2c72 15bc dc29 183d
00000300: 8131 f5bd 24b5 12bd 4901 dabb 589c 583d
00000310: 883b 02be 4f22 993b 1388 ea3d 9329 3d3c
00000320: e9f0 e7bc 92f8 babd ac9d 22be be33 13be
00000330: 5f59 bcbd c203 64bd 4dd5 a23c 4fc9 26bd
00000340: e58c 16bd 4fd7 c2bd 8418 8f3c bbe0 81bd
00000350: 5f6c 31bc 9aef bfbd ed9e 063d c5ef 9ebd
00000360: 4f00 df3d b790 c83c 1ac2 03be 47d7 793d
00000370: 21c4 b4bc a8a4 5bbe cd0f fe3d 8b26 bb3c
00000380: b24b 96be 132a 19be 86b2 2ebd 7150 bc3c
00000390: 4566 37bd ed7a 953d b1cc 85bd a719 07be
000003a0: 6b92 a03d 24ff 32be 5324 a6bd 8dae 60bd
000003b0: 6f30 07be a263 82bd 6f62 cfbc 749a fe3d
000003c0: f20e e3bd 8d66 eabd 63e7 a93c c495 13be
000003d0: 083a 8b3d 81de 873d 328d c7bd 83f4 3fbb
000003e0: 076c eb3d a5a2 d5bd 1982 f0bd b2d3 ebbd
000003f0: 4c81 f7ba 61b2 78bc 4a2f 6dbd ec8b 05be
-0.025274185 -0.07847881 0.069478475 0.011196382 -0.04520962 0.014853652 0.03760927 -0.04278229
-0.06837089 0.063215405 0.0018425209 -0.014704846 -0.045218296 -0.11236844 -0.077979304 -0.014615184
-0.023136698 -0.0337419 0.03751087 0.019370249 -0.0698399 -0.11862364 0.07319194 -0.03536882
0.008713482 0.04395131 -0.016552566 -0.010969964 -0.039768007 -0.029908871 0.055847127 -0.0361897
-0.08925429 -0.03965889 -0.030214665 -0.06484586 -0.045387994 -0.14258634 -0.16196342 -0.096641965
0.10032833 0.026303152 -0.015571788 -0.046141844 -0.2809745 0.06010205 0.025134686 -0.11783056
-0.12939435 -0.020693155 -0.016910333 -0.018000163 -0.11353394 0.025322651 -0.06872861 -0.026747216
0.11912077 -0.0040124087 -0.018284287 -0.17586747 -0.026784975 0.074714206 0.10870674 -0.085558586
0.041266255 0.10838756 -0.11225643 -0.01925888 -0.11133502 0.03832474 -0.14198737 -0.025830027
-0.074639626 0.010127534 -0.05268536 -0.075146124 -0.12236819 -0.08927466 -0.1824432 0.010526788
0.0204684 -0.077845916 0.09179555 -0.002934703 -0.11722617 -0.06390467 -0.13764209 -0.0021052791
-0.031006245 0.008257124 0.016847953 -0.14440408 -0.05515625 0.02336601 -0.06237753 -0.12459947
-0.013765974 -0.075101554 0.0343853 -0.08122331 0.0232015 -0.028671477 0.057890728 0.013144929
0.030327445 -0.021408051 -0.06925117 0.048759814 -0.09599401 -0.032828994 -0.0026320936 -0.029603262
0.004160475 -0.03272978 -0.05680405 0.022552771 0.03529389 0.07675733 -0.11980688 -0.00607612
0.0944226 -0.15028109 -0.1536813 -0.03028435 0.05197898 0.037547853 -0.029800491 0.06770145
-0.070859276 -0.111152016 -0.011142581 -0.006483123 0.1577787 -0.030312564 0.010906187 -0.10417191
-0.10016718 -0.0765537 -0.081955254 -0.07042457 0.039386652 0.000341638 -0.17813425 -0.11209169
0.054213006 -0.14314449 -0.13179705 0.0132280905 -0.002412074 -0.1323233 -0.00921513 0.0724749
-0.21949024 -0.04267323 0.06483827 -0.0016076785 -0.0382742 -0.115334615 -0.030733809 0.016866533
-0.08441173 0.07053001 -0.13049202 -0.03560351 -0.084948026 -0.12392001 0.022684507 -0.0807237
-0.073104635 -0.11081079 -0.053841796 -0.030631306 0.017863568 -0.014807033 -0.16275093 -0.02776586
-0.19982237 -0.028005298 -0.04506098 -0.11279283 -0.10187122 -0.09562861 0.00038146405 0.01624167
-0.109936506 -0.023386825 0.0196926 -0.104476295 0.0033998655 -0.0512176 -0.009121459 0.037149295
-0.11972333 -0.03581728 -0.0066529852 0.052883476 -0.12718022 0.0046732794 0.11451735 0.011545557
-0.028313117 -0.09129442 -0.1588046 -0.14375207 -0.09196734 -0.055667646 0.0198771 -0.040719327
-0.03675546 -0.09513723 0.017467745 -0.06341692 -0.01082906 -0.09371872 0.032866407 -0.07760576
0.10888731 0.024483068 -0.12867013 0.06099632 -0.022066178 -0.2144953 0.124053575 0.022845527
-0.29354626 -0.14957456 -0.042650722 0.022987576 -0.044775266 0.07298837 -0.065331824 -0.1319338
0.07840427 -0.17480141 -0.08112397 -0.054853965 -0.1320207 -0.0636666 -0.025315491 0.12431803
-0.11086835 -0.11445341 0.020740217 -0.144126 0.06798178 0.06634236 -0.09743728 -0.0029290027
0.11495214 -0.104314126 -0.11743564 -0.11514987 -0.0018883138 -0.015179248 -0.057906426 -0.13041657
