results/Drone2/Drone/Drone-7999488.onnx (onnx, 283599 bytes, 7 tensors)

action_model._continuous_distribution.log_sigma f4 [1, 4]
-0.30466822 -0.33890307 -0.28722605 -0.2850721
00000000: 79fd 9bbe b484 adbe 4b0f 93be f8f4 91be

action_model._continuous_distribution.mu.bias f4 [4]
-0.02684215 -0.026870416 -0.031555984 -0.05526027
00000000: 12e4 dbbc 591f dcbc d940 01bd 9858 62bd

action_model._continuous_distribution.mu.weight f4 [4, 256]
0.050485108 0.020866008 0.0351716 -0.07923841 0.069020994 0.016556034 0.03547975 0.0307929
0.014581651 -0.0055342517 0.01677722 -0.111710705 0.018031057 0.058660105 -0.10593832 0.020240787
-0.059201628 0.06515581 0.027457751 0.05153669 -0.00058237533 0.009721026 0.019840227 0.010497156
0.03574023 -0.00871397 -0.0025435733 0.03346083 0.024063623 0.04327538 0.031439055 -0.032300267
-0.046660006 -0.018041201 0.018216137 -0.055381186 0.05585564 0.07605544 -0.014178511 -0.05306633
-0.027195333 -0.035856936 -0.022653379 0.0065142764 -0.012586286 0.091873445 0.022822598 0.0104137575
0.045313094 0.00732834 0.040490128 -0.06390749 0.022889301 0.04415344 0.013842196 -0.017685737
0.01830041 0.030946521 -0.011391514 -0.0029534216 -0.011240027 0.03504836 0.03430359 0.050058816
-0.016505718 0.043092456 0.027072215 0.13997619 0.05559554 0.06522228 0.009362434 0.011912796
-0.029417878 0.06209664 -0.030955464 0.014917003 -0.00060249266 0.018044211 -0.0021791903 0.0112813385
0.021677792 -0.022144964 -0.018821834 0.022326697 0.0067597697 0.005030353 0.04821472 -0.0112589365
0.03289993 0.029343871 -0.004968892 -0.0021237577 0.009113178 0.040018443 0.049374923 -0.028697498
0.016738642 -0.030336982 0.013986646 -0.0032288032 -0.024263017 0.01713146 -0.022675693 -0.067902066
-0.026546542 -0.0031929275 -0.011468621 0.024601202 0.02658084 0.040946368 -0.03100887 0.01352193
0.0072075683 0.054272167 -0.035721663 0.013619853 0.032114398 0.091498785 0.07196435 -0.07213535
0.002805504 0.02690605 0.010151875 0.060999822 0.053167954 -0.040950324 0.014796025 0.010627746
0.027796194 0.01646516 0.019325474 0.020174814 0.03476262 0.008567867 -0.025923884 -0.0026903388
0.055447925 -0.022852741 0.022513675 -0.028302033 0.035546694 0.037019778 0.010431821 0.012174096
0.015892494 -0.025496805 0.022107882 0.053650726 0.04845123 0.03106208 0.014621173 -0.038790036
0.01453695 -0.0016120818 -0.017294096 0.016559867 0.0334664 -0.04079256 0.007613788 0.024905087
-0.040202376 -0.018868735 -0.07802264 -0.019576242 0.0055766385 -0.08254675 0.031392135 0.008826869
0.030822752 -0.014982451 -0.014222233 -0.027544573 0.038206615 0.02743151 0.022651436 -0.00054219115
-0.0470504 0.035716627 0.005285244 0.029817212 0.0052773217 -0.010564737 0.05486615 -0.074362844
0.05066099 -0.057786535 -0.048250042 0.041155435 0.031042242 -0.070267804 0.025956528 0.00085711747
0.07454235 0.03881496 0.008399108 0.020678714 -0.01608924 0.017811205 -0.035625868 -0.041598305
-0.002259239 0.02507118 0.001198814 -0.019138988 0.001071225 -0.04694833 0.013625539 0.02890668
0.012774706 -0.012894896 0.017647337 -0.004467454 -0.033611983 0.0613702 0.007935839 0.004444944
0.009184549 0.00047760663 0.03401567 0.011063543 -0.006700015 0.057788957 0.018289905 0.0024139946
0.12229534 0.039680716 0.014511392 -0.0012819098 0.0046312627 0.062997974 0.08438844 0.008076089
0.030420035 0.01504043 0.010366442 0.035658292 -0.011455823 0.08108903 0.030453483 0.03595309
0.11401182 0.014429662 0.002521552 0.039588943 0.01830925 0.042703167 0.014793413 0.008178782
0.011169121 -0.032311663 0.05156111 -0.021027759 -0.08749656 -0.028356988 -0.00886648 0.033676896
00000000: 79c9 4e3d 31ef aa3c 1810 103d bf47 a2bd
00000010: e15a 8d3d 85a0 873c 3753 113d 6441 fc3c
00000020: e1e7 6e3c ab58 b5bb 6170 893c 95c8 e4bd
00000030: deb5 933c 9445 703d 31f6 d8bd 02d0 a53c
00000040: 687d 72bd 6970 853d 14ef e03c 2318 533d
00000050: 8caa 18ba f044 1f3c f987 a23c 43fc 2b3c
00000060: 5964 123d 0ac5 0ebc 14b2 26bb 390e 093d
00000070: 1321 c53c 8641 313d 3dc6 003d 494d 04bd
00000080: 901e 3fbd 24cb 93bc 023a 953c 62d7 62bd
00000090: e2c8 643d f4c2 9b3d fc4c 68bc 145c 59bd
000000a0: bfc8 debc b9de 12bd 9493 b9bc b675 d53b
000000b0: b636 4ebc 2528 bc3d 75f6 ba3c 779e 2a3c
000000c0: 399a 393d 9222 f03b fad8 253d eee1 82bd
000000d0: 5882 bb3c 3dda 343d 61ca 623c aee1 90bc
000000e0: beea 953c 8f83 fd3c 79a3 3abc 318e 41bb
000000f0: 1728 38bc de8e 0f3d ec81 0c3d 790a 4d3d
00000100: 0037 87bc b781 303d 8dc6 dd3c eb55 0f3e
00000110: 26b8 633d 4293 853d e564 193c e32d 433c
00000120: c3fd f0bc 0c59 7e3d 5096 fdbc 7266 743c
00000130: 99f0 1dba 74d1 933c bfd0 0ebb 5dd5 383c
00000140: a095 b13c 5b69 b5bc 3f30 9abc 7ae6 b63c
00000150: 0f81 dd3b a9d5 a43b cc7c 453d 6777 38bc
00000160: 14c2 063d 8f62 f03c 16d2 a2bb be2e 0bbb
00000170: 704f 153c 61ea 233d 5c3d 4a3d 0417 ebbc
00000180: 7a1f 893c 4385 f8bc 3f28 653c 549a 53bb
00000190: 3cc3 c6bc 4757 8c3c 60c2 b9bc 3d10 8bbd
000001a0: 2278 d9bc 6f40 51bb e2e6 3bbc 7688 c93c
000001b0: 10c0 d93c 61b7 273d 5006 febc 168b 5d3c
000001c0: 772d ec3b 7e4c 5e3d e150 12bd ce25 5f3c
000001d0: 638a 033d b763 bb3d 0c62 933d b3bb 93bd
000001e0: 8cdc 373b 146a dc3c 0d54 263c f3da 793d
000001f0: a4c6 593d 87bb 27bd 076b 723c ff1f 2e3c
00000200: d8b4 e33c f1e1 863c 7550 9e3c a745 a53c
00000210: 4063 0e3d 3d60 0c3c 535e d4bc 6550 30bb
00000220: 5d1d 633d ac35 bbbc 996e b83c aad9 e7bc
00000230: 6999 113d 0da2 173d 3bea 2a3c dc75 473c
00000240: fa30 823c adde d0bc 971b b53c ddc0 5b3d
00000250: cc74 463d e775 fe3c a58d 6f3c 4de2 1ebd
00000260: 632c 6e3c 7d4c d3ba 59ac 8dbc 8fa8 873c
00000270: 1014 093d 1916 27bd 157d f93b c105 cc3c
00000280: 3fab 24bd 9b92 9abc 55ca 9fbd 5b5e a0bc
00000290: 3cbc b63b 450e a9bd 0a95 003d 929e 103c
000002a0: ff7f fc3c f478 75bc 5e04 69bc 28a5 e1bc
000002b0: 8a7e 1c3d 0cb8 e03c 818f b93c d521 0eba
000002c0: ecb7 40bd 994b 123d d72f ad3b 3a43 f43c
000002d0: 62ed ac3b b817 2dbc 54bb 603d 8c4b 98bd
000002e0: e681 4f3d 93b1 6cbd d6a1 45bd 9a92 283d
000002f0: 4d4c fe3c 91e8 8fbd c9a2 d43c 2eb0 603a
00000300: a9a9 983d 6ffc 1e3d 6a9c 093c 6866 a93c
00000310: 95cd 83bc cee8 913c 6eec 11bd fc62 2abd
00000320: be0f 14bb 1362 cd3c 8621 9d3a 5ec9 9cbc
00000330: 5968 8c3a e44c 40bd a73d 5f3c b4cd ec3c
00000340: 004d 513c 1d45 53bc 2691 903c b863 92bb
00000350: b8ac 09bd 525f 7b3d 5205 023c e5a6 913b
00000360: ca7a 163c 4767 fa39 0454 0b3d dd43 353c
00000370: cd8b dbbb 1db4 6c3d b6d4 953c 1c34 1e3b
00000380: fb75 fa3d 3f88 223d 31c1 6d3c c105 a8ba
00000390: d9c1 973b 1505 813d d9d3 ac3d 9351 043c
000003a0: 7033 f93c 236c 763c 02d8 293c 6e0e 123d
000003b0: 34b1 3bbc 0112 a63d 9579 f93c 8c43 133d
000003c0: 077f e93d 646a 6c3c 9f40 253b 0428 223d
000003d0: 48fd 953c 84e9 2e3d 1260 723c 4c00 063c
000003e0: b0fe 363c 3c59 04bd be31 533d 6842 acbc
000003f0: 6531 b3bd ea4c e8bc b644 11bc c9f0 093d

network_body._body_endoder.seq_layers.0.bias f4 [256]
0.0975224 -0.029604167 0.09547881 0.064484075 -0.047118932 -0.03641204 -0.045363255 0.051217347
0.07173073 0.079700984 -0.0034425417 -0.059556924 -0.08251444 -0.032706797 -0.006596713 0.08194359
6.7135225e-05 0.033559106 -0.04961479 -0.058001686 -0.032997385 0.056059387 0.07591951 0.07204388
0.04085176 0.025836488 -0.040604293 -0.027505891 0.055972658 0.069930345 0.037063412 -0.0145655
0.10977384 0.10884324 -0.015493968 -0.02227475 0.049611483 0.020083807 -0.020758172 -0.028081708
-0.005981856 0.07319484 0.109822094 0.078489356 -0.0117215775 0.1008403 -0.014373876 0.07758474
-0.009260705 -0.08022742 0.011489937 -0.0042852703 0.008614711 0.08562186 0.05752697 -0.017874526
0.06311328 0.10198995 -0.04212427 0.057598818 -0.07265894 0.0994418 0.08032525 -0.031320818
0.032795005 0.0897879 -0.017214324 -0.098704524 -0.042934217 -0.07977755 0.038775574 -0.0035248187
-0.07287637 0.0442431 0.014159516 0.04500925 -0.06880784 0.008966075 0.003965243 0.03737156
-0.006621035 -0.042820476 0.10099899 0.16380164 0.02714917 0.008772228 -0.032664545 0.045326345
0.0606996 0.06606563 -0.021114744 0.012181012 -0.01357759 0.08474228 -0.040072106 0.10015149
0.13112469 -0.034396123 -0.02853154 -0.011029041 0.0019083183 0.107940026 0.012101014 0.16025048
0.0006387354 -0.12079743 0.13369343 -0.009406102 0.0140185645 -0.018865453 0.024331907 0.095260836
0.123907395 0.09470153 0.077081874 0.04860143 -0.01879578 0.008499881 0.01735734 0.09005805
-0.0113393385 -0.083126664 -0.06257101 0.0500313 0.031310953 -0.051069476 -0.04733172 0.020958558
-0.026419846 -0.004192905 -0.02495038 0.008446077 0.013396187 0.009834036 0.013150497 -0.057432204
0.080992065 0.015819175 -0.14669456 -0.048132725 0.15127131 0.0023691198 0.04577962 0.002853821
-0.01611945 0.03541247 -0.036515314 0.024926035 0.0019592065 0.008321244 -0.034831103 -0.020251932
0.063715436 0.059939202 0.0006250219 0.071760684 -0.05444412 0.013923126 -0.07853694 0.14044401
-0.050580934 0.015899077 -0.01807065 -0.045947853 -0.08694366 0.12020474 -0.004008575 0.03686312
0.03178366 -0.0061730994 -0.0051811743 -0.07953997 0.02782439 0.029995501 0.05495505 -0.039226282
-0.08507339 -0.058396433 -0.0254609 0.014226232 0.052119583 0.011827016 0.02760542 0.0027486295
0.09372306 0.029483406 0.08422708 0.013230907 0.08330983 0.069964156 0.10124894 0.014821002
-0.0060190978 -0.050058823 0.028327627 -0.04362242 -0.04704535 -0.035496555 0.0247287 -0.063432425
-0.07726097 -0.047691062 -0.07317145 0.064801656 0.080404855 0.063963495 0.056424964 -0.04148656
-0.1023067 0.06668774 -0.020316469 0.017575985 0.061448544 -0.014842675 0.0060443245 0.07431789
0.01879503 0.042363297 0.00033858162 0.023545656 0.0065181064 -0.10083826 0.005465684 -0.0039142366
-0.035169777 -0.037895065 -0.009622804 0.15200038 -0.094987005 0.060504254 -0.08262587 0.03349836
0.042311456 0.002459294 -0.068475 0.036190238 0.08544317 -0.09700812 0.13236478 -0.021006318
0.08134607 0.056281246 0.038749177 0.075530335 0.059644483 0.093586385 -0.056725368 0.011084989
0.010775623 0.00507808 0.120824404 -0.022035176 0.015894912 0.089262374 0.04951641 -0.004163691
00000000: d3b9 c73d 7084 f2bc 658a c33d 3a10 843d
00000010: c8ff 40bd cb24 15bd d2ce 39bd 48c9 513d
00000020: 90e7 923d 453a a33d 449c 61bb f6f1 73bd
00000030: 55fd a8bd 90f7 05bd 3d29 d8bb 0ad2 a73d
00000040: f3ca 8c38 4675 093d e138 4bbd 2d93 6dbd
00000050: 4428 07bd 879e 653d b07b 9b3d be8b 933d
00000060: 2d54 273d 0ba7 d33c b050 26bd 0954 e1bc
00000070: 9643 653d a437 8f3d cecf 173d 23a4 6ebc
00000080: 1bd1 e03d 34e9 de3d 69da 7dbc 8979 b6bc
00000090: 6935 4b3d cc86 a43c 0b0d aabc 9c0b e6bc
000000a0: 7203 c4bb 2de7 953d 68ea e03d 07bf a03d
000000b0: dc0b 40bc 5c85 ce3d 6880 6bbc c0e4 9e3d
000000c0: 36ba 17bc 464e a4bd 4a40 3c3c 746b 8cbb
000000d0: b824 0d3c 845a af3d 66a1 6b3d 996d 92bc
000000e0: 8941 813d 1be0 d03d 808a 2cbd bdec 6b3d
000000f0: 36ce 94bd 24a8 cb3d 9181 a43d 424a 00bd
00000100: 0e54 063d b8e2 b73d 0e05 8dbc 9925 cabd
00000110: cadb 2fbd 6a62 a3bd 23d3 1e3d a500 67bb
00000120: 3540 95bd 4138 353d 51fd 673c 9f5b 383d
00000130: 20eb 8cbd 72e6 123c dfee 813b ec12 193d
00000140: 44f5 d8bb 8664 2fbd 8fd8 ce3d 9ebb 273e
00000150: f067 de3c 64b9 0f3c 42cb 05bd 1ea8 393d
00000160: 25a0 783d 6b4d 873d d4f8 acbc de92 473c
00000170: 8a74 5ebc 5c8d ad3d a622 24bd 391c cd3d
00000180: 8d45 063e f3e2 0cbd faba e9bc 27b3 34bc
00000190: 8920 fa3a a90f dd3d 5543 463c b418 243e
000001a0: cf70 273a a564 f7bd eee6 083e 0d1c 1abc
000001b0: 1fae 653c b98b 9abc b553 c73c 1d18 c33d
000001c0: 29c3 fd3d e0f2 c13d 1add 9d3d 4b12 473d
000001d0: 9cf9 99bc 1643 0b3c fb30 8e3c 5b70 b83d
000001e0: a2c8 39bc 503e aabd 3b25 80bd 9fed 4c3d
000001f0: ea3f 003d 3a2e 51bd e8de 41bd 48b1 ab3c
00000200: 6f6e d8bc a364 89bb bd64 ccbc 6a61 0a3c
00000210: ae7b 5b3c f01e 213c 2f75 573c 083e 6bbd
00000220: 2bdf a53d 3797 813c 1937 16be d226 45bd
00000230: dee6 1a3e 3c43 1b3b 6983 3b3d 2c07 3b3b
00000240: f00c 84bc ab0c 113d 1591 15bd af31 cc3c
00000250: 0866 003b d455 083c 0fab 0ebd 61e7 a5bc
00000260: 3d7d 823d cf82 753d 82d8 233a 44f7 923d
00000270: cc00 5fbd d31d 643c fad7 a0bd 8ed0 0f3e
00000280: f42d 4fbd c83e 823c e608 94bc d133 3cbd
00000290: 850f b2bd e72d f63d 5d5a 83bb c8fd 163d
000002a0: 952f 023d b647 cabb d7c6 a9bb dae5 a2bd
000002b0: faef e33c 20b9 f53c 8c18 613d bdab 20bd
000002c0: f53a aebd 1931 6fbd 6193 d0bc 2415 693c
000002d0: 587b 553d 1ac6 413c c324 e23c 5a22 343b
000002e0: e0f1 bf3d 2f87 f13c 3f7f ac3d 72c6 583c
000002f0: 589e aa3d 5e49 8f3d 9b5b cf3d cad3 723c
00000300: da3b c5bb 7b0a 4dbd 570f e83c 6cad 32bd
00000310: a0b2 40bd d664 11bd d893 ca3c dce8 81bd
00000320: 003b 9ebd b457 43bd eada 95bd bbb6 843d
00000330: 4dab a43d 4bff 823d dd1d 673d d0ed 29bd
00000340: 2d86 d1bd 9593 883d b96e a6bc 83fb 8f3c
00000350: 78b1 7b3d b12e 73bc 780f c63b fa33 983d
00000360: 09f8 993c 2385 2d3d a883 b139 d2e2 c03c
00000370: d795 d53b 4a84 cebd 7b19 b33b ff42 80bb
00000380: 2f0e 10bd db37 1bbd f7a8 1dbc fda5 1b3e
00000390: 8c88 c2bd 4fd3 773d c137 a9bd 9435 093d
000003a0: c74e 2d3d 1b2c 213b 9f3c 8cbd 373c 143d
000003b0: d4fc ae3d 31ac c6bd a28a 073e 7115 acbc
000003c0: c598 a63d 2a87 663d 75b7 1e3d a6af 9a3d
000003d0: c64d 743d 38aa bf3d dc58 68bd d09d 353c
000003e0: 3d8c 303c 0666 a63b c972 f73d 1d83 b4bc
000003f0: 0c36 823c 31cf b63d b8d1 4a3d 926f 88bb

network_body._body_endoder.seq_layers.0.weight f4 [256, 13]
0.11885257 0.5443434 -0.13545775 0.20537144 -0.14947917 0.11110822 -1.2354121 0.21704598
-0.47125667 0.61774373 0.18894137 0.70898914 -0.27543813 0.13221425 0.10370053 0.3835114
-0.09950209 0.31625623 -0.74539924 0.5695705 -0.3626422 -0.69427514 0.007141785 -0.0065307515
-0.35445756 -0.44916064 0.12970893 -0.0029311415 0.37227777 -0.16675146 0.23570521 -0.06728043
-0.5782486 0.35950398 -1.468703 0.12743004 -0.08574845 0.447263 -0.1155122 -0.08462319
-0.068959 -0.3111751 -0.14680016 -0.02575448 -0.23090556 0.0054741856 0.047626797 0.9395628
-0.3176442 -0.45194548 0.19530804 -0.19659841 -0.038962204 0.6806989 -0.1556575 0.33098185
-0.20015258 0.13892798 0.5903335 -0.4521413 -0.36385018 -0.48499528 0.24210145 -0.029757693
-0.44411588 -0.39274436 0.21942933 0.001337744 -0.29333174 -0.066165164 0.045925427 0.7256165
-0.33896443 0.7603584 0.008072275 0.04051621 -0.22146675 -0.059811607 -0.34508675 0.33445027
-0.03686637 0.48415378 0.3883943 0.035762776 0.39779463 -0.1882537 0.41375855 0.12913452
0.09660006 0.050029997 0.48454547 0.04834058 0.3164206 -0.21972175 0.14397945 -0.18268445
-0.2658507 0.7708655 0.027750408 -0.43930367 0.25492847 -0.16211262 0.035197176 0.19609395
0.42386478 -0.3074421 -0.22174166 -0.03190468 0.020626053 -0.002509904 -0.678981 -0.39668962
0.39485165 0.5102768 -0.5906153 -0.050812725 0.1634101 0.19463667 0.37780198 -0.056339603
0.3560651 0.38944465 -0.13743526 -0.12705171 0.1577177 -0.36362624 0.4678841 0.35361516
0.66898006 0.4322039 -0.20415157 -0.16633773 0.582176 -0.10212864 0.05208092 -0.31799966
-0.23024763 -0.107283205 -0.030525727 -0.6206956 0.23634788 -0.2561549 -0.10871579 0.12941314
-0.20719121 0.24970719 0.31738502 0.588641 -0.03538049 0.0657546 -0.050953563 -0.38672784
-0.32540816 -0.7841978 -0.32462966 -0.060410924 -0.6353225 -0.31297565 -0.116422415 0.370245
0.30936193 0.19559337 0.40477493 -0.25906006 0.06313949 -0.20766316 -0.2254718 -0.3164544
-0.06796829 0.37421653 0.06610944 0.52699953 -0.40485138 -0.32800698 -0.5844787 0.36620098
-0.67520505 -0.16632688 -0.031912446 0.044044197 -0.38512906 0.18216021 0.19834402 -0.19196749
0.039741874 -0.5533611 0.5558593 0.10889681 -0.7680592 -0.37034756 0.11574971 0.24432641
-0.38893142 -0.14187022 0.086837135 0.34530985 0.06783573 -0.30684826 -0.19026548 -0.01496732
0.17329247 1.2566061 0.095987394 -0.6716548 0.60306746 -0.12701228 0.29804406 0.114522815
-0.034554724 -0.18372309 -0.032323584 0.15191758 -0.30543196 -0.54804873 0.4019841 0.1537252
0.09103759 -0.20783886 -0.31664604 0.4313687 -0.017763678 0.1798433 0.28375217 0.20698655
0.0015577637 -0.5760552 -0.2791301 -0.3616199 0.003723996 -0.21600726 0.06346172 -0.18023127
-0.16192544 -0.91868514 0.031185377 0.43023 -0.037388943 0.22318873 0.42484304 0.14354935
0.94641125 -0.36510813 -0.18394828 -0.14654344 -0.09444375 -0.30052003 0.1429215 0.1592141
0.3313706 -0.18389791 0.4961641 -0.009718181 0.22060758 0.29355443 -0.41837594 0.6077885
00000000: fa68 f33d 175a 0b3f 70b5 0abe e44c 523e
00000010: 1111 19be b58c e33d fc21 9ebf 4d41 5e3e
00000020: 8e48 f1be 7424 1e3f d979 413e 5080 353f
00000030: 3a06 8dbe 2c63 073e f260 d43d 9b5b c43e
00000040: c0c7 cbbd 56ec a13e 7cd2 3ebf 5fcf 113f
00000050: 3dac b9be 04bc 31bf a305 ea3b eaff d5bb
00000060: 767b b5be 62f8 e5be 6bd2 043e 6518 40bb
00000070: 319b be3e e5c0 2abe b55c 713e 52ca 89bd
00000080: 1a08 14bf e810 b83e 76fe bbbf 057d 023e
00000090: e29c afbd a8ff e43e a991 ecbd ec4e adbd
000000a0: 603a 8dbd 5852 9fbe c852 16be 0ffb d2bc
000000b0: 8272 6cbe cc60 b33b 5114 433d 3087 703f
000000c0: 43a2 a2be 6665 e7be d5fe 473e 1851 49be
000000d0: d596 1fbd 4842 2e3f ae64 1fbe 7476 a93e
000000e0: ccf4 4cbe 2343 0e3e 1920 173f 117f e7be
000000f0: 924a babe 4d51 f8be 71e9 773e 68c6 f3bc
00000100: 2863 e3be ca15 c9be 15b2 603e 3d57 af3a
00000110: 942f 96be 9a81 87bd 4d1c 3c3d 01c2 393f
00000120: bf8c adbe d9a6 423f 9341 043c 53f4 253d
00000130: 2ec8 62be 04fd 74bd 36af b0be 113d ab3e
00000140: 3101 17bd 01e3 f73e 9edb c63e fd7b 123d
00000150: bdab cb3e 94c5 40be 29d8 d33e d73b 043e
00000160: 41d6 c53d 41ec 4c3d 5816 f83e c600 463d
00000170: e201 a23e bdfe 60be 596f 133e a211 3bbe
00000180: 951d 88be 7157 453f d354 e33c 69ec e0be
00000190: fc85 823e da00 26be ea2a 103d dacc 483e
000001a0: ce04 d93e 0d69 9dbe 3f10 63be 7bae 02bd
000001b0: f8f7 a83c 347d 24bb b3d1 2dbf e71a cbbe
000001c0: ff29 ca3e 80a1 023f 9032 17bf 0121 50bd
000001d0: fa54 273e d64e 473e 436f c13e 5bc4 66bd
000001e0: 2a4e b63e 4a65 c73e d4bb 0cbe d819 02be
000001f0: c080 213e 382d babe 818e ef3e 0c0d b53e
00000200: 4742 2b3f d449 dd3e 1c0d 51be 7054 2abe
00000210: 7d09 153f d228 d1bd ce52 553d dad0 a2be
00000220: 09c6 6bbe 4cb7 dbbd 1711 fabc e8e5 1ebf
00000230: 2e05 723e bc26 83be 62a6 debd e184 043e
00000240: ef29 54be 3eb3 7f3e 4a80 a23e 2db1 163f
00000250: 22eb 10bd 59aa 863d afb4 50bd 3101 c6be
00000260: e69b a6be 30c1 48bf dc35 a6be 7271 77bd
00000270: 7fa4 22bf 583e a0be e06e eebd c190 bd3e
00000280: b064 9e3e a149 483e a93e cf3e 85a3 84be
00000290: 474f 813d a7a5 54be 14e2 66be 5006 a2be
000002a0: f532 8bbd 4f99 bf3e 6364 873d 71e9 063f
000002b0: ae48 cfbe 88f0 a7be 65a0 15bf b27e bb3e
000002c0: 3dda 2cbf 9851 2abe a0b6 02bd b067 343d
000002d0: a32f c5be 3588 3a3e b21a 4b3e 2093 44be
000002e0: 60c8 223d 13a9 0dbf cc4c 0e3f 4a05 df3d
000002f0: 879f 44bf 329e bdbe 2f0e ed3d b430 7a3e
00000300: 0522 c7be 6d46 11be abd7 b13d 74cc b03e
00000310: 76ed 8a3d 371b 9dbe f4d4 42be 7d39 75bc
00000320: 9573 313e 78d8 a03f 0a95 c43d 92f1 2bbf
00000330: a162 1a3f 820f 02be 3b99 983e f08a ea3d
00000340: 4189 0dbd e821 3cbe bc65 04bd 4890 1b3e
00000350: 9461 9cbe ec4c 0cbf dcd0 cd3e 246a 1d3e
00000360: ea71 ba3d b6d3 54be 6e1f a2be 5cdc dc3e
00000370: 2285 91bc d828 383e f747 913e 48f4 533e
00000380: e02d cc3a 5b78 13bf 24ea 8ebe 3e26 b9be
00000390: 490e 743b 0231 5dbe 38f8 813d 8c8e 38be
000003a0: c8cf 25be f32e 6bbf 7a78 ff3c 1b47 dc3e
000003b0: 2625 19bd 968b 643e 0785 d93e 9afe 123e
000003c0: 0248 723f 74ef babe f05c 3cbe 7c0f 16be
000003d0: ba6b c1bd c3dd 99be 045a 123e 0509 233e
000003e0: 68a9 a93e bc4f 3cbe 3909 fe3e 0139 1fbc
000003f0: f4e6 613e c44c 963e 5f35 d6be 0798 1b3f

network_body._body_endoder.seq_layers.2.bias f4 [256]
-0.042397007 -0.0045416304 -0.030210646 0.08386854 0.07579513 -0.02688052 -0.012511299 0.026433831
-0.079024054 0.028424013 0.047198538 0.073086545 -0.012973744 0.043796934 0.09486903 -0.087307155
0.032704476 -0.059837278 -0.0738365 -0.02572535 0.027560335 0.0333888 -0.08310611 -0.046532564
-0.0015656085 0.012426415 0.03605671 -0.066352725 -0.068287134 0.006313852 -0.014381101 0.0043339254
0.056680452 0.015766382 0.072003536 0.038630128 -0.023018142 -0.009578959 -0.0029793535 0.049725316
0.032731943 0.017988013 0.033306632 -0.023375284 0.03403657 0.061427798 -0.016480993 -0.05199576
-0.009668696 -0.07504041 -0.02004335 0.050746378 0.007412715 -0.0330408 -0.025274478 -0.026330255
0.021480763 0.034719385 -0.018521706 0.032490976 0.03582884 -0.07118659 -0.022034883 -0.075610906
-0.041440144 -0.032900903 -0.034153216 0.065230645 0.012386098 -0.029015474 -0.047140174 -0.09617905
0.021360781 -0.049841136 0.006664061 -0.0365187 0.009029434 0.028599331 0.027700162 -0.030834932
0.04415674 0.023633897 -0.010910522 0.0540428 -0.038808573 -0.019037679 -0.019064898 0.04655957
-0.00015815906 -0.048312068 0.038607445 -0.028529162 -0.017019928 0.05266685 -0.05660863 -0.005558686
-0.0028417276 0.034629636 0.034471516 -0.02707207 0.042477895 -0.03375692 -0.031188218 0.060750876
0.029262228 -0.010738998 0.008661074 -0.03312307 -0.074702255 -0.06785171 0.014351743 -0.028802242
0.025927758 -0.034251012 0.046415318 -0.0069430964 0.009545892 -0.03766041 -0.024468444 0.05950104
0.0007010064 -0.081708714 -0.007086139 -0.037308846 -0.019419149 0.022800563 -0.07632529 -0.012114973
0.046279855 -0.051193845 0.018788073 -0.04175881 0.0010220847 0.048026565 0.06969501 0.006487488
0.008838939 0.007091076 -0.0062296554 0.042898096 -0.07165582 0.03259674 -0.044995844 -0.07975044
-0.05312352 0.027260376 -0.014430165 -0.034304492 0.048487324 -0.025494404 -0.005682643 0.0058176126
0.039754998 -0.011883018 -0.025083069 -0.014432551 -0.040502887 0.096878394 0.022374505 -0.011951574
0.035027143 0.10911736 0.09365188 0.0038997945 -0.05073483 -0.019912302 0.04767753 -0.0030877572
0.023629155 -0.005519744 0.06156653 -0.012987248 -0.049933594 -0.012868499 -0.008425589 -0.021582512
0.07416538 -0.023912903 -0.07159839 -0.037286945 -0.014996729 -0.042636402 -0.02644119 0.08058501
-0.07050508 0.06382825 0.05956869 -0.015352481 -0.042825192 0.068882845 -0.077059284 -0.048010252
-0.007981461 -0.036570173 0.0024924583 -0.017750239 0.0391833 0.047202013 0.03693282 0.06958244
-0.087184064 -0.08463026 0.04065265 0.008619922 0.021871652 0.05989319 -0.019851187 -0.05607037
0.026071424 -0.00568479 0.064023286 0.016657613 0.07954134 0.047904857 0.039036423 -0.02081624
-0.0625313 -0.027695829 -0.057777733 -0.047916014 0.06344829 0.08260311 0.025479903 0.013517552
0.0066356244 -0.015701948 -0.023062818 0.055541325 -0.021650305 -0.022810364 0.031103956 -0.032167062
-0.011889738 0.03777056 -0.040570416 -0.04905806 0.031163193 0.027694706 -0.048523583 0.025851974
-0.018413173 -0.07158248 -0.018942341 0.05137958 -0.04095375 -0.0787645 -0.048404306 -0.05088812
-0.06897118 0.036328677 0.02549279 0.02030553 0.05483524 -0.02241497 0.004782745 -0.0072082994
00000000: 7ca8 2dbd f5d1 94bb 517c f7bc 45c3 ab3d
00000010: 7a3a 9b3d 8934 dcbc 31fc 4cbc c38b d83c
00000020: 5dd7 a1bd 7ad9 e83c 4153 413d 66ae 953d
00000030: d48f 54bc 6a64 333d b24a c23d 18ce b2bd
00000040: 21f5 053d ef17 75bd 9737 97bd f8bd d2bc
00000050: 36c6 e13c b2c2 083d 8933 aabd ee98 3ebd
00000060: 1b35 cdba 2a98 4b3c 33b0 133d f0e3 87bd
00000070: 20da 8bbd 6ee4 ce3b b69e 6bbc 9a03 8e3b
00000080: c329 683d 8028 813c 9776 933d a03a 1e3d
00000090: 8b90 bcbc 11f1 1cbc 4241 43bb c6ac 4b3d
000000a0: ee11 063d 995b 933c 896c 083d 867d bfbc
000000b0: ee69 0b3d b79b 7b3d 2603 87bc 82f9 54bd
000000c0: 7369 1ebc c9ae 99bd f431 a4bc 6fdb 4f3d
000000d0: 5ce6 f23b ca55 07bd 6c0c cfbc 8cb2 d7bc
000000e0: 6df8 af3c ea35 0e3d d5ba 97bc 4215 053d
000000f0: 43c1 123d 46ca 91bd 8082 b4bc e4d9 9abd
00000100: 24bd 29bd 19c3 06bd 3ee4 0bbd a597 853d
00000110: 0fef 4a3c dcb1 edbc 0e16 41bd 86f9 c4bd
00000120: cefc ae3c 3826 4cbd 325e da3b a294 15bd
00000130: 31f0 133c 2549 ea3c 73eb e23c 8a99 fcbc
00000140: b3dd 343d e09b c13c 0cc2 32bc fc5b 5d3d
00000150: bdf5 1ebd e8f4 9bbc fd2d 9cbc 3fb5 3e3d
00000160: 80d7 25b9 e0e2 45bd d722 1e3d fdb5 e9bc
00000170: 606d 8bbc 32b9 573d 73de 67bd a325 b6bb
00000180: 473c 3abb ced7 0d3d 0132 0d3d 3fc6 ddbc
00000190: 4dfd 2d3d b244 0abd 6f7e ffbc e9d5 783d
000001a0: 57b7 ef3c 9ff2 2fbc 2de7 0d3c 0eac 07bd
000001b0: 7ffd 98bd d6f5 8abd 9323 6b3c aef2 ebbc
000001c0: 7366 d43c ca4a 0cbd fd1d 3e3d ea82 e3bb
000001d0: 5f66 1c3c cd41 1abd 0c72 c8bc 5db7 733d
000001e0: bec3 373a e656 a7bd d832 e8bb 29d1 18bd
000001f0: e814 9fbc 3fc8 ba3c 6f50 9cbd e17d 46bc
00000200: f28f 3d3d a3b0 51bd 72e9 993c 490b 2bbd
00000210: 79f7 853a 81b7 443d 42bc 8e3d fe94 d43b
00000220: 32d1 103c 425c e83b 2322 ccbb eab5 2f3d
00000230: 49c0 92bd 2984 053d 904d 38bd 3354 a3bd
00000240: 0c98 59bd 2751 df3c 806c 6cbc de82 0cbd
00000250: a59a 463d a4d9 d0bc 7735 babb aca1 be3b
00000260: 23d6 223d fdb0 42bc 027b cdbc 8276 6cbc
00000270: 5be6 25bd 2e68 c63d bd4a b73c 89d0 43bc
00000280: 9f78 0f3d ec78 df3d 8fcc bf3d b293 7f3b
00000290: 53cf 4fbd 201f a3bc 8449 433d f85b 4abb
000002a0: ee91 c13c f8de b4bb 302d 7c3d 77c8 54bc
000002b0: 2b87 4cbd 66d6 52bc 7b0b 0abc cfcd b0bc
000002c0: 05e4 973d fee4 c3bc 2da2 92bd 32ba 18bd
000002d0: d7b4 75bc 82a3 2ebd 329b d8bc c109 a53d
000002e0: f864 90bd 63b8 823d 4cfe 733d f988 7bbc
000002f0: 7869 2fbd 7312 8d3d 42d1 9dbd 66a6 44bd
00000300: acc4 02bc 9bca 15bd 8358 233b f368 91bc
00000310: ab7e 203d e656 413d de46 173d 3d81 8e3d
00000320: 8f8d b2bd a152 adbd 6583 263d 933a 0d3c
00000330: 2e2c b33c 9052 753d f59e a2bc 0baa 65bd
00000340: bd93 d53c 7a47 babb a41e 833d 8c75 883c
00000350: 92e6 a23d e237 443d a8e4 1f3d d286 aabc
00000360: 6910 80bd 5de2 e2bc 58a8 6cbd 9543 44bd
00000370: 2df1 813d d22b a93d 3bbb d03c b978 5d3c
00000380: a76f d93b 5fa1 80bc 3cee bcbc 4d7f 633d
00000390: fb5b b1bc cddc babc b9cd fe3c 9cc1 03bd
000003a0: 2dcd 42bc 4db5 1a3d 2a2d 26bd 1bf1 48bd
000003b0: f449 ff3c 02e0 e23c aac0 46bd 85c7 d33c
000003c0: 39d7 96bc d699 92bd f82c 9bbc 6573 523d
000003d0: 1fbf 27bd 484f a1bd 9843 46bd 1070 50bd
000003e0: c340 8dbd 61cd 143d 41d6 d03c c857 a63c
000003f0: eb9a 603d 999f b7bc 93b8 9c3b 9933 ecbb

network_body._body_endoder.seq_layers.2.weight f4 [256, 256]
-0.0398903 -0.038797323 0.06270471 0.07636943 0.004457417 0.03215358 -0.023379557 -0.060768194
-0.036357544 0.0012746847 0.035950046 0.0233829 -0.013881536 -0.067444414 -0.07530241 -0.06386104
0.043336216 0.0005022314 0.011374533 0.013673338 -0.028038999 -0.09095101 0.05047585 0.0037546009
0.0067039086 0.075354874 -0.007144041 0.046959125 -0.02260092 -0.06010025 0.027814511 0.006685816
-0.12680578 -0.027419778 -0.027114626 -0.012825442 -0.040828466 -0.11984655 -0.092895985 -0.029512323
0.08025918 0.036643434 -0.04198238 -0.00784391 -0.2026838 0.036077693 0.05208816 -0.09667008
-0.10086957 0.044858884 -0.054049574 0.024417924 -0.14077939 0.05123762 -0.009980305 0.027392643
0.14285302 -0.014163505 -0.011717967 -0.13011022 0.0073625403 0.10940004 0.055297095 -0.032731667
0.051255997 0.10287066 -0.09147584 0.03824171 -0.14605944 0.10648439 -0.11147941 -0.037190843
-0.0420064 0.026368938 0.0021497775 -0.12090575 -0.1174638 -0.03842616 -0.13309312 -0.05755519
0.032198034 -0.024000928 0.08074966 -0.011135297 -0.08975187 -0.035093807 -0.0830783 -0.008380635
0.018965425 0.027150117 0.03713647 -0.15036646 -0.10009423 0.050745755 -0.01622634 -0.1263469
-0.022301659 -0.048255544 -0.024004405 -0.053233515 0.005634266 0.009162887 0.058213014 0.045100156
0.03484889 0.020038495 -0.04750287 0.019303562 -0.06865674 0.009555515 -0.020746514 -0.046498533
-0.022032393 0.025530145 -0.022765366 0.0019265459 0.0135282455 0.024998704 -0.08774221 0.026478278
0.14231704 -0.0626455 -0.16501328 0.043596834 0.086881466 0.007342869 -0.013965783 0.0670043
-0.020121124 -0.09198064 0.01921933 0.056393836 0.14522131 -0.036067057 0.020697584 -0.05374061
-0.048356432 -0.08985284 -0.05004585 -0.049300242 0.039450694 -0.025759492 -0.12781894 -0.117834665
0.055136263 -0.10033302 -0.082470275 -0.0062843296 0.059856184 -0.08202089 -0.020069899 0.06517377
-0.24354722 -0.013987899 0.11240083 -0.036388177 -0.0067731915 -0.11102459 0.01065742 -0.030133054
-0.04946407 0.062958084 -0.13507818 -0.027534705 -0.00465261 -0.10145818 0.04986498 -0.058964178
-0.08105511 -0.1383722 0.010846188 0.04185092 -0.007820642 0.025526853 -0.116268575 -0.025451083
-0.11225786 0.03042083 -0.00070332177 -0.1083466 -0.064992435 -0.08665296 0.049778912 0.028130408
-0.023880418 -0.04792174 0.056179002 -0.10932546 0.028535765 -0.0025005017 -0.0054150517 0.07224004
-0.07249054 -0.018527541 0.05623527 0.030675745 -0.12198841 0.028576953 0.11904691 0.04354553
-0.019588277 -0.098869376 -0.10863477 -0.15532757 -0.030222876 -0.027930394 0.033245903 0.010534382
-0.016341565 -0.08359348 0.043531097 -0.060005005 0.003915934 -0.06399324 -0.037808184 -0.085547835
0.0931328 0.05775612 -0.06576333 0.07559751 -0.042210095 -0.14889057 0.1599114 0.01964099
-0.22005442 -0.11229686 0.016018389 -0.008727795 0.00525006 0.11127219 -0.04405565 -0.10780786
0.051115334 -0.10248647 -0.035714827 0.031210085 -0.17837243 -0.023262244 -0.05237967 0.09860033
-0.0833538 -0.16777451 0.031411916 -0.11757101 0.026761707 0.052318748 -0.0628236 0.023190148
0.08636753 -0.05554091 -0.1096924 -0.046232764 -0.007231534 0.0020703569 -0.09054317 -0.09323749
00000000: 0364 23bd f1e9 1ebd 546b 803d 9367 9c3d
00000010: 860f 923b 79b3 033d 7c86 bfbc 12e8 78bd
00000020: a6eb 14bd 5213 a73a 5b40 133d 7f8d bf3c
00000030: 626f 63bc 4c20 8abd 2638 9abd 94c9 82bd
00000040: 5181 313d 2ea8 033a 405c 3a3c 2306 603c
00000050: 0bb2 e5bc 8644 babd c4bf 4e3d c00f 763b
00000060: 76ac db3b a853 9a3d 8f18 eabb 3658 403d
00000070: 9125 b9bc ae2b 76bd 42db e33c b114 db3b
00000080: 60d9 01be 719f e0bc 7e1f debc cd21 52bc
00000090: c03b 27bd 1c72 f5bd 4040 bebd d4c3 f1bc
000000a0: ed5e a43d 6d17 163d b7f5 2bbd be83 00bc
000000b0: 588c 4fbe 34c6 133d 655a 553d f7fa c5bd
000000c0: b594 cebd f3bd 373d 1663 5dbd 1908 c83c
000000d0: 7928 10be 8ade 513d 6f84 23bc 8966 e03c
000000e0: 1048 123e 0c0e 68bc b7fc 3fbc 9d3b 05be
000000f0: 7741 f13b 210d e03d 357f 623d a411 06bd
00000100: cff1 513d daad d23d af57 bbbd 57a3 1c3d
00000110: 9b90 15be 7d14 da3d 514f e4bd 6d55 18bd
00000120: e70e 2cbd ac03 d83c 48e3 0c3b 6f9d f7bd
00000130: dc90 f0bd c064 1dbd 9049 08be febe 6bbd
00000140: 16e2 033d 989d c4bc 1460 a53d d270 36bc
00000150: d4cf b7bd 86be 0fbd f524 aabd ee4e 09bc
00000160: 615d 9b3c ec69 de3c 691c 183d aaf9 19be
00000170: 34fe ccbd c8da 4f3d 1aed 84bc 1561 01be
00000180: f8b1 b6bc 9ba7 45bd e3a4 c4bc 630b 5abd
00000190: a69f b83b ef1f 163c c570 6e3d f1ba 383d
000001a0: b6bd 0e3d c527 a43c 5f92 42bd 8122 9e3c
000001b0: e89b 8cbd bc8e 1c3c 98f4 a9bc 3f75 3ebd
000001c0: 477d b4bc 9824 d13c 6f7e babc 2784 fc3a
000001d0: 93a5 5d3c 15ca cc3c 30b2 b3bd f9e8 d83c
000001e0: 8fbb 113e 494c 80bd 3ef9 28be 9892 323d
000001f0: e9ee b13d 739c f03b bdd0 64bc 8d39 893d
00000200: 0ed5 a4bc 5960 bcbd db71 9d3c 39fd 663d
00000210: e5b4 143e 0dbb 13bd fb8d a93c 1d1f 5cbd
00000220: 6511 46bd c404 b8bd e1fc 4cbd 0def 49bd
00000230: 0d97 213d 9205 d3bc f8e2 02be 4d53 f1bd
00000240: 90d6 613d 667b cdbd 2de6 a8bd c7ec cdbb
00000250: c22b 753d 92fa a7bd a169 a4bc d379 853d
00000260: 7164 79be 802d 65bc 6832 e63d c50b 15bd
00000270: a6f1 ddbb dc60 e3bd 769c 2e3c 98d9 f6bc
00000280: d69a 4abd 2bf0 803d ef51 0abe 7690 e1bc
00000290: ec74 98bb 4ec9 cfbd 393f 4c3d 6c84 71bd
000002a0: 3900 a6bd 71b1 0dbe 36b4 313c df6b 2b3d
000002b0: 2622 00bc b11d d13c 381e eebd ca7e d0bc
000002c0: 73e7 e5bd 1b35 f93c 205f 38ba d2e4 ddbd
000002d0: c11a 85bd 1b77 b1bd f9e4 4b3d be71 e63c
000002e0: dea0 c3bc 9649 44bd f41b 663d 07e6 dfbd
000002f0: d6c3 e93c 75df 23bb bf70 b1bb 96f2 933d
00000300: ec75 94bd 12c7 97bc f456 663d b34b fb3c
00000310: 0fd5 f9bd 371a ea3c dece f33d cc5c 323d
00000320: 9877 a0bc 077c cabd e87b debd 310e 1fbe
00000330: f795 f7bc 48ce e4bc db2c 083d 6798 2c3c
00000340: bfde 85bc 0f33 abbd aa4d 323d cfc7 75bd
00000350: 3c51 803b e30e 83bd c1dc 1abd b433 afbd
00000360: 69bc be3d ae91 6c3d edae 86bd ded2 9a3d
00000370: 7ee4 2cbd c576 18be d0bf 233e 24e6 a03c
00000380: f255 61be e5fb e5bd ff38 833c 07ff 0ebc
00000390: b208 ac3b ade2 e33d b273 34bd 5eca dcbd
000003a0: 505e 513d 6de4 d1bd b649 12bd 4bac ff3c
000003b0: 43a7 36be 7690 bebc 118c 56bd f8ee c93d
000003c0: 66b5 aabd 15cd 2bbe c8a9 003d 12c9 f0bd
000003d0: 5e3b db3c 2f4c 563d a9a9 80bd 44f9 bd3c
000003e0: 76e1 b03d de7e 63bd 69a6 e0bd 915e 3dbd
000003f0: 81f6 ecbb d3ae 073b b36e b9bd 4cf3 bebd
