results/Drone4/Drone/Drone-999849.onnx (onnx, 810629 bytes, 11 tensors)

action_model._continuous_distribution.log_sigma f4 [1, 4]
0	0xbe2d1988	-0.1690427
1	0xbe245146	-0.16046628
2	0xbe1dca68	-0.15409243
3	0xbde03134	-0.10946885

action_model._continuous_distribution.mu.bias f4 [4]
0	0xbc9a2975	-0.018818596
1	0xbc1aa342	-0.009438338
2	0xbc682059	-0.0141678685
3	0xbc99ef22	-0.018790785

action_model._continuous_distribution.mu.weight f4 [4, 256]
0	0x3c33d897	0.010976932
1	0xbcbccaa8	-0.023045853
2	0xbd29b54e	-0.04143267
3	0xbcd49e3a	-0.025954355
4	0x3d28aca0	0.041180253
5	0xbcea9aa0	-0.028638184
6	0xbc8d37f1	-0.017238589
7	0x3c94b284	0.01815153
8	0xbcadbd2e	-0.021208372
9	0x3c4ea558	0.012612663
10	0xbcd48e10	-0.025946647
11	0xbcbf611d	-0.023361737
12	0xbc94f92e	-0.018185224
13	0x3cb09b88	0.021558538
14	0x3c13f182	0.009029748
15	0xb7a6cda3	-1.98845e-05
16	0x3bf060ab	0.0073357425
17	0x3cbc19fd	0.02296161
18	0x3ceab518	0.028650805
19	0x3d093072	0.033493467
20	0xbb47b9c1	-0.0030475708
21	0xbc171bec	-0.009222966
22	0xbcce4f5e	-0.02518433
23	0xbc6970f1	-0.014248119
24	0xbbf302f2	-0.0074161226
25	0xbbe4d5f1	-0.0069835116
26	0x3d10ae67	0.035322573
27	0xbcf8561b	-0.030314496
28	0x3c9b3b2b	0.018949112
29	0xbb45db8d	-0.0030190677
30	0xbc12661d	-0.0089354785
31	0xbc2517dc	-0.010076489
32	0x3bff49de	0.007790788
33	0xbcc8ed3a	-0.024527181
34	0x3c178ff5	0.009250631
35	0x3ae606cc	0.0017549633
36	0x3c173a8a	0.009230265
37	0xbd097e02	-0.033567436
38	0xbc39d726	-0.011342799
39	0x3cb5062a	0.022097666
40	0xbcc7633a	-0.024339307
41	0xbc6419e7	-0.013922191
42	0x3cca3f87	0.024688495
43	0xbcbefebd	-0.023314828
44	0xbcded721	-0.02720219
45	0x3d00e208	0.03146556
46	0xbb264562	-0.0025370945
47	0xbc69e463	-0.014275643
48	0xbc59b90c	-0.0132887475
49	0x3cf9ca3f	0.030491946
50	0xbd1f4dd2	-0.038892575
51	0x3c152629	0.009103336
52	0x3c944b9c	0.01810246
53	0x3cdac422	0.026704852
54	0xbaff828e	-0.0019493864
55	0xbcbe94c3	-0.023264294
56	0x3c59807b	0.013275261
57	0xbcef75ec	-0.029231034
58	0xbcb0f747	-0.021602286
59	0xbced7457	-0.02898614
60	0xbc6d55f7	-0.014485828
61	0x3b204e8c	0.002446088
62	0xbb8eeb65	-0.0043615573
63	0xbc48237d	-0.012215492
64	0xbb14d832	-0.002271187
65	0x3c4263f2	0.011864649
66	0x3d1e6fa3	0.038680684
67	0x3d11c641	0.03558946
68	0x3c52c525	0.012864386
69	0x3cbb7e63	0.022887414
70	0x3cb11fae	0.021621551
71	0x3b0beb05	0.00213498
72	0x3ac7d355	0.0015245477
73	0xbc54eeb5	-0.012996365
74	0x3c063bc4	0.00819296
75	0x3be6bf73	0.0070418655
76	0x3be8f290	0.007108994
77	0x3c68a69a	0.014199877
78	0xbcfd7dbc	-0.030943744
79	0x3ca85db4	0.020552494
80	0x3d1366fa	0.035986878
81	0xbca389cf	-0.019963173
82	0x3d0b4c92	0.03400857
83	0xbc9fd9ef	-0.019513099
84	0xbaf13027	-0.0018401191
85	0x3b22f0ff	0.0024862883
86	0x3cc318ad	0.023815477
87	0x3c5bf37f	0.013424753
88	0x3baff641	0.005369932
89	0xbc808533	-0.015688514
90	0xbb7e3165	-0.0038786766
91	0xbc774fc3	-0.0150947
92	0x3b941a04	0.004519703
93	0xbce5229e	-0.027970608
94	0xbd150cb2	-0.03638906
95	0xba97c61f	-0.001157943
96	0x3d0592d4	0.03261073
97	0xbbea69db	-0.0071537322
98	0xbc8ab868	-0.016933635
99	0xbca21315	-0.01978449
100	0xbc07f7c0	-0.008298814
101	0x3c72ddca	0.014823386
102	0x3c8c206a	0.0171053
103	0x3b6118e5	0.0034347114
104	0xbc8f9f7a	-0.017532099
105	0x3cb8c979	0.022557007
106	0x3d4eb85d	0.05046879
107	0x3c28be47	0.010299272
108	0x3b6ee758	0.003645381
109	0xba400e30	-0.0007326333
110	0xbc7139b9	-0.014723235
111	0xbaa27adc	-0.0012396234
112	0x3d0efa9a	0.03490696
113	0x3b0ec336	0.0021783835
114	0xbc3e9583	-0.011632326
115	0xbc933df0	-0.01797387
116	0xbc39ca94	-0.011339802
117	0xbc53cfbf	-0.0129279485
118	0xbc39a16d	-0.011329991
119	0xbbb7cc13	-0.0056090443
120	0x3d0b4343	0.033999693
121	0x3c3a49cd	0.011370135
122	0x3c6932c5	0.014233296
123	0x3a00a268	0.0004907013
124	0x3bfc2229	0.007694502
125	0xbac0ca5f	-0.0014708749
126	0xbb5270dd	-0.0032110729
127	0x3cf587db	0.029972007
128	0xbbcaa81d	-0.0061845914
129	0xbd25df51	-0.040496174
130	0xbb89df33	-0.0042075156
131	0x3cd6b1e6	0.026207875
132	0xbd00dbc4	-0.031459585
133	0xbd242e18	-0.04008302
134	0xbcf9af55	-0.030479113
135	0xbbb8260f	-0.0056197713
136	0x3ba5a223	0.0050547286
137	0x3cc604f4	0.024172284
138	0xbd03d47d	-0.032185066
139	0x3cb4dfa2	0.022079293
140	0x3c9fbe09	0.019499796
141	0x3c144f51	0.009052114
142	0x3ce0d038	0.027443036
143	0x3a47b11c	0.0007617639
144	0x3c1d7d50	0.009612396
145	0x3c5f944e	0.013646198
146	0x3d09888d	0.03357749
147	0x3c978c8f	0.01849964
148	0x3c69b14f	0.014263465
149	0x3b17984c	0.0023131547
150	0xbc89385c	-0.016750507
151	0xbc56d0b1	-0.013111279
152	0xbcaa39d8	-0.020779535
153	0xbc4b7eca	-0.012420366
154	0x3c5798ee	0.01315902
155	0xbcbcd425	-0.023050377
156	0xbcde1b03	-0.02711249
157	0xbb8f5c56	-0.004375021
158	0x3c274def	0.010211452
159	0xbc17eda9	-0.009272971
160	0x3cc5882a	0.02411278
161	0x3c538d9c	0.01291218
162	0x3cd00251	0.02539173
163	0x3cb8163a	0.022471536
164	0xbc678b82	-0.014132382
165	0x3ce0be0d	0.027434373
166	0x3c87c204	0.016572006
167	0xbc469d01	-0.012122394
168	0x3c595538	0.013264947
169	0xbc7de48c	-0.015496384
170	0xbc03348b	-0.008008133
171	0xbce93c31	-0.028471084
172	0xbae3d916	-0.0017383422
173	0xbbbf07b6	-0.0058297766
174	0x3d30539e	0.043048494
175	0x3c35d030	0.011096999
176	0xbc2dffd8	-0.01062008
177	0xbc9176f2	-0.017756913
178	0x3bedc68b	0.007256334
179	0xbc0ad609	-0.0084738815
180	0x3c9863ab	0.018602213
181	0xbcc39520	-0.02387482
182	0x3cbd33cf	0.023095993
183	0x3c70ed3c	0.014704999
184	0x3abf1293	0.0014577679
185	0xbccba67e	-0.024859663
186	0xbb3d0947	-0.002884464
187	0xbcf1e258	-0.029526874
188	0xbd04b89e	-0.032402627
189	0xbc1f560e	-0.009725107
190	0x3c0928c3	0.008371535
191	0x3c015de3	0.0078959195
192	0x3c041a54	0.008062918
193	0x3c486c15	0.0122328
194	0xbc1d9bc7	-0.00961966
195	0xbcbe4b86	-0.023229372
196	0xbabc920b	-0.0014386786
197	0xbbb5db08	-0.005549792
198	0x3a8b088d	0.0010607407
199	0x3c90a75c	0.017657928
200	0xbc9e1920	-0.01929909
201	0xbb227f9a	-0.0024795295
202	0xbc82afd4	-0.015952982
203	0x3c8a13ad	0.016855085
204	0xbcd4eb0d	-0.025990987
205	0xbac01f11	-0.0014657696
206	0xbb8aef1a	-0.004239929
207	0x3cad3851	0.021145018
208	0x3d037087	0.032089736
209	0xbc86b78d	-0.016444946
210	0xbc22cc96	-0.009936472
211	0xbcccb846	-0.024990212
212	0xbc39c5ee	-0.011338694
213	0x3c5eb3ce	0.013592673
214	0xbd026095	-0.03183039
215	0x3c9822f2	0.01857135
216	0xbc8dbb45	-0.017301211
217	0x3d05d100	0.03267002
218	0x3ab519c0	0.0013816878
219	0xbc58b324	-0.013226304
220	0x3c0bbfd7	0.008529625
221	0x3c326d83	0.010890367
222	0x3c447582	0.011990907
223	0xbb3f3f7c	-0.0029182127
224	0xbc43f416	-0.01196005
225	0x3c36cc5d	0.011157122
226	0x3c3b2022	0.011421235
227	0x3be02eee	0.006841532
228	0xbba9e9f2	-0.005185359
229	0xbc85f56f	-0.016352383
230	0x3b32a1da	0.0027257116
231	0xbaf9934f	-0.0019041094
232	0xbc3c83e7	-0.011506057
233	0x3b042aa7	0.0020167024
234	0xbd57e773	-0.05271096
235	0xbba0ff2c	-0.0049132314
236	0xbcdcb02c	-0.026939474
237	0xbb4cb804	-0.0031237612
238	0x39181b08	0.0001450592
239	0xbb9f05a3	-0.004852967
240	0xbca4fa59	-0.020138906
241	0x39598ef9	0.00020747994
242	0xbc8ef61f	-0.017451344
243	0x3d0b095a	0.033944465
244	0x3c66500d	0.0140571715
245	0xbc88defd	-0.016707892
246	0xbcc85092	-0.024452481
247	0x3c37a2e6	0.011208272
248	0x3cc3960a	0.023875255
249	0xbc38b78a	-0.011274228
250	0xbb7e8e73	-0.003884223
251	0xbcc8d250	-0.024514347
252	0xb9a30b08	-0.00031098002
253	0xbc7d96fb	-0.015477891
254	0x3bf656e8	0.0075176843
255	0xbd14e7f8	-0.036354035

network_body._body_endoder.seq_layers.0.bias f4 [256]
0	0x3d48074c	0.048835084
1	0xbc9b5ef4	-0.018966176
2	0xbd3af8f8	-0.04564759
3	0x3db7a04d	0.08966122
4	0xbd4b4c59	-0.049633358
5	0xbd2e7606	-0.042593025
6	0xbc3ec764	-0.011644218
7	0xbd070c0b	-0.03297047
8	0xbbe010e8	-0.006837953
9	0xbd44054c	-0.047856614
10	0xbcda5604	-0.026652344
11	0xbcd76940	-0.026295304
12	0x3c91adbb	0.017783036
13	0xbcbdd027	-0.023170544
14	0x3c9bb107	0.019005312
15	0x3a792024	0.00095033855
16	0xbb00df80	-0.0019664466
17	0x3d8c175d	0.06840394
18	0x3b1a5ed0	0.0023555048
19	0xbbc3bc36	-0.005973364
20	0x3cb6d125	0.022316525
21	0x3cee330a	0.029077072
22	0xbcfd99a9	-0.03095706
23	0xbc02941e	-0.007969884
24	0x3c3e518e	0.011616124
25	0x3c41c591	0.011826889
26	0x3d5703ff	0.052494045
27	0xbd4fb533	-0.050709914
28	0xbd3b9aee	-0.04580205
29	0xbb2f5f3a	-0.002675964
30	0xbd647f0e	-0.05578523
31	0x3d0c3b10	0.034236014
32	0x3aa09f05	0.0012254423
33	0x3cbddd72	0.023176882
34	0xbc12219d	-0.008919147
35	0xbc4ad71f	-0.01238039
36	0x3b1414ce	0.0022595408
37	0x3c080ae8	0.0083033815
38	0x3d37b356	0.044848762
39	0xbb5b7dfc	-0.003349184
40	0xbd010257	-0.031496372
41	0xbcbfd4fc	-0.023416989
42	0xbce751d2	-0.028237257
43	0xbcd95d9d	-0.026533896
44	0xbcdb701b	-0.026786854
45	0xbd3f6c30	-0.046734035
46	0xbb049322	-0.00202293
47	0xbb880c45	-0.0041518533
48	0xbc816e53	-0.015799677
49	0xbcc721ee	-0.024308171
50	0xbc922fd2	-0.017845068
51	0x3d818336	0.063238546
52	0xbc006de7	-0.007838703
53	0x3c8dddaf	0.017317621
54	0xbca130cf	-0.019676594
55	0x3d937f11	0.0720197
56	0x3c4ed3b9	0.012623721
57	0x3c64b6c0	0.013959587
58	0xbc39f999	-0.011351013
59	0x3d401c40	0.04690194
60	0x3c828e44	0.015936978
61	0xbcc3b019	-0.02388768
62	0xbcb9494d	-0.02261796
63	0x3ab7c68c	0.0014020964
64	0xbcd7793a	-0.026302923
65	0xbcdbc510	-0.026827365
66	0x3d482218	0.04886064
67	0xbd46df0d	-0.04855256
68	0x3db9082a	0.0903476
69	0xbd4ca411	-0.049961153
70	0x3c7209f1	0.014772878
71	0x3d0e8d5b	0.034802776
72	0x3c45ac76	0.012065044
73	0x3af8fd50	0.0018996391
74	0xbd079f23	-0.03311075
75	0xbc73f9c1	-0.014891089
76	0xbc59dd7d	-0.013297436
77	0xbc51edeb	-0.012813072
78	0x3b80157d	0.0039088116
79	0xbd07a6ae	-0.033117943
80	0xbbbe6771	-0.005810671
81	0x3d00c6d2	0.03143961
82	0x3bc93fdd	0.0061416463
83	0x3d6e7e79	0.058226082
84	0x3c5f6f75	0.013637413
85	0x3d2ff287	0.0429559
86	0xbd2437bc	-0.040092215
87	0x3bd63ad9	0.006537777
88	0x3cbbeb8e	0.02293947
89	0xbca5356a	-0.020167071
90	0x3bd678d1	0.006545164
91	0xbca2420b	-0.019806882
92	0x3ca7c3c3	0.020479089
93	0x3d660565	0.05615749
94	0xbc333e7b	-0.0109401895
95	0xb9f50dd5	-0.00046740347
96	0x3c9746e9	0.01846643
97	0xbd11fa59	-0.03563914
98	0x3b1ddb6d	0.0024087087
99	0xbc9c2dcd	-0.019064808
100	0x3cb508ad	0.022098863
101	0x3c5b2e03	0.013377669
102	0xbd55a456	-0.052158676
103	0xba0a2653	-0.0005269993
104	0xbc6659ba	-0.014059478
105	0xbca41164	-0.020027824
106	0x3c8879ca	0.016659636
107	0xbccb8b93	-0.024846828
108	0x3c9812a9	0.018563585
109	0xbc908977	-0.017643673
110	0x3cafcf52	0.021461163
111	0x3b15149e	0.0022747885
112	0xbcf47e76	-0.029845458
113	0x3c822647	0.015887393
114	0xbb367d16	-0.0027845553
115	0xbd1098c6	-0.035301946
116	0xbd21f11a	-0.039536573
117	0xbd05922a	-0.032610096
118	0xbc721bc2	-0.014777126
119	0xbd032a31	-0.03202266
120	0xbc018fc8	-0.007907815
121	0xbc7f199d	-0.0155700715
122	0x3cf62a0f	0.030049352
123	0xbbc50ce7	-0.006013501
124	0x3ccdf52e	0.025141325
125	0xbc1bb62f	-0.009503885
126	0x3bac9109	0.005266313
127	0xbbae7b31	-0.005324744
128	0xbce0acfc	-0.027426235
129	0x3b0d0af8	0.002152143
130	0x3c88eafa	0.016713608
131	0xbbf193e9	-0.0073723686
132	0x3cbe3e44	0.02322305
133	0x3c128536	0.008942893
134	0x3d2ad9f0	0.041711748
135	0xbcaf0e52	-0.021369133
136	0x3d05f2a6	0.03270211
137	0xbceb25fc	-0.028704636
138	0x3c0a72f0	0.008450255
139	0xbb971589	-0.0046107215
140	0x3caf3ab4	0.021390297
141	0xbce242ba	-0.027619708
142	0xbc91c8ff	-0.017796038
143	0x3bcde763	0.006283687
144	0xbd3f41a9	-0.046693478
145	0x3cd4ba2c	0.02596768
146	0xbc020ea3	-0.00793806
147	0x3d146ba9	0.036235485
148	0xbd044457	-0.032291736
149	0xbcea7d80	-0.028624296
150	0x3d41ca14	0.047311857
151	0xbcf288c8	-0.029606238
152	0xbc00bde8	-0.007857777
153	0x3c3fda50	0.011709765
154	0xbd02f410	-0.031971037
155	0xbc40add0	-0.01176019
156	0xbce73387	-0.028222812
157	0x3cd5012e	0.02600154
158	0x3b9ccd35	0.004785205
159	0xbd2a5d2b	-0.04159276
160	0xbcbde4b5	-0.023180345
161	0x3c263e92	0.010146754
162	0xbcd7dfbc	-0.026351802
163	0x3cc06f9b	0.023490718
164	0xbd265c91	-0.040615622
165	0xba2dedfd	-0.0006634889
166	0x3d671e1b	0.056425195
167	0x3ac63836	0.0015122953
168	0x3b87a63f	0.004139691
169	0xbc3c0df7	-0.011477939
170	0x3b80a5e5	0.003926026
171	0x3c95ce1f	0.018286763
172	0x3c9ba3de	0.018999036
173	0x3c819e20	0.01582247
174	0x3d1a9fd3	0.037750077
175	0x3c90d5b4	0.017680027
176	0xbcca6e24	-0.024710722
177	0xbc61ca14	-0.013781089
178	0xba033372	-0.00050049194
179	0xbcd5b435	-0.026086906
180	0xbc8dda99	-0.01731615
181	0xba30683a	-0.0006729398
182	0xbcbcfb27	-0.023068978
183	0xbc78195e	-0.015142767
184	0xbc9e7e2c	-0.019347273
185	0xbd619878	-0.055077046
186	0x3ce21421	0.027597489
187	0xbc65e8da	-0.014032567
188	0xbd0a7e7d	-0.033812035
189	0xbd3d20a0	-0.04617369
190	0x3c29befa	0.010360474
191	0x3cea5fef	0.028610198
192	0xbcabb963	-0.020962423
193	0xbc7f2927	-0.015573776
194	0xbc942f9c	-0.018089108
195	0xbd1a7b44	-0.03771521
196	0x3c0d3111	0.008617655
197	0x3c0d3737	0.008619121
198	0x3d042d3e	0.03226971
199	0xbc195f72	-0.009361135
200	0x3d33336f	0.043750223
201	0xbb96690d	-0.0045901597
202	0xbcc75204	-0.0243311
203	0xbc69236f	-0.014229639
204	0xbd17c368	-0.03705159
205	0xbd21d4e4	-0.03950967
206	0xbd662bd7	-0.056194153
207	0xbce557cf	-0.027995972
208	0xbd494d81	-0.04914618
209	0xbcbf56a1	-0.023356738
210	0x3b418d72	0.002953377
211	0xbd15ed26	-0.036603115
212	0xbce8a8c2	-0.028400782
213	0x3b5b8347	0.0033494995
214	0x3d210df5	0.03931995
215	0xbccb05cf	-0.024783043
216	0x3c034b63	0.008013579
217	0x3cb0e3b1	0.021592947
218	0x3cbc82ac	0.023011528
219	0x3c129687	0.008947021
220	0x3c6d80ad	0.014496011
221	0xbc0dbfd3	-0.0086516915
222	0xbc9cdc88	-0.019148126
223	0x3d9c4021	0.07629419
224	0x3ba9944b	0.0051751486
225	0x3d139d82	0.036038883
226	0x3b0176e9	0.0019754714
227	0x3d0ad43a	0.0338938
228	0x3c0b258b	0.008492838
229	0x3d205aa8	0.039148957
230	0x3d186bf6	0.037212335
231	0x3cc60af1	0.02417514
232	0x3c95debf	0.01829469
233	0xbcde57c4	-0.02714146
234	0xbd7ab942	-0.061211832
235	0xbb13b067	-0.0022535564
236	0xbd51d6bc	-0.051230177
237	0x3b851ece	0.00406251
238	0xbce8add0	-0.028403193
239	0xbb44018c	-0.0029908149
240	0xbd7982a8	-0.06091562
241	0xbb65f779	-0.0035090132
242	0xbcb172d3	-0.021661198
243	0xbbe4ca70	-0.0069821402
244	0xbcc053c1	-0.023477437
245	0xbc3621c0	-0.011116445
246	0x3c3f040b	0.011658679
247	0x3a85fc38	0.0010222262
248	0xbb561c01	-0.00326705
249	0xbcad30f1	-0.021141501
250	0xbd5423f2	-0.051792093
251	0xbc6b0595	-0.014344593
252	0x3c43fb71	0.011961804
253	0x3a98acdc	0.0011648196
254	0xbc3c55a5	-0.011495029
255	0xbcc641e9	-0.02420135

network_body._body_endoder.seq_layers.0.weight f4 [256, 13]
0	0x3c5f29d0	0.013620809
1	0xbee57cb2	-0.44821697
2	0xbd7ca664	-0.06168212
3	0x3e62fa7e	0.22165868
4	0x3e665e0c	0.22496814
5	0x3d12474d	0.03571253
6	0x3e32ac92	0.17448643
7	0x3ec7b963	0.39008626
8	0xbf14d18d	-0.5813225
9	0x3e4ae2a3	0.19813018
10	0x3f38c9f2	0.72183144
11	0x3e0b919b	0.13629763
12	0xbeba1e42	-0.3635121
13	0x3e3a1b05	0.1817437
14	0xbede1d6e	-0.43381828
15	0xbd3a4185	-0.04547264
16	0x3e0d9e12	0.1382983
17	0xbd976f2c	-0.07394251
18	0xbe6cab8c	-0.23112315
19	0xbecb4c0e	-0.39706463
20	0x3c4ee0fe	0.0126268845
21	0x3eeeec03	0.46664438
22	0xbe43c07a	-0.19116393
23	0xbd40136b	-0.04689352
24	0xbe186a81	-0.14884378
25	0x3e68f4ab	0.22749583
26	0xbf3840ac	-0.7197368
27	0xbeab489a	-0.33453828
28	0x3e04eaac	0.12980145
29	0x3efe0d3a	0.49619466
30	0x3ec32032	0.381105
31	0x3efc697f	0.49299237
32	0x3ef6a9eb	0.48176512
33	0x3eda74e4	0.42667305
34	0x3e7ada83	0.24497418
35	0x3e59d411	0.21272303
36	0x3ed93f4a	0.42431098
37	0x3d4ba5e4	0.049718753
38	0xbcb1ae4b	-0.021689555
39	0x3dec82b6	0.11548369
40	0x3e32d96a	0.1746575
41	0xbc9ea00b	-0.019363424
42	0x3df89cf7	0.12139314
43	0xbe8b7b9b	-0.2724274
44	0xbe9e85bc	-0.30961406
45	0xbef2bbed	-0.47409
46	0xbead8191	-0.33887914
47	0xbf3b5620	-0.7317829
48	0x3ec51d74	0.38499033
49	0x3e1c2ad1	0.15250708
50	0x3ecf4b5f	0.4048719
51	0xbed57087	-0.41687414
52	0x3d78dd61	0.060758
53	0x3e35f105	0.17767723
54	0xbdb0c13a	-0.08630605
55	0xbe7ee4bf	-0.24891947
56	0xbe99bc32	-0.30026394
57	0xbebf756a	-0.37394267
58	0xbed3822b	-0.41310248
59	0xbeadae8d	-0.33922234
60	0xbe8daac4	-0.27669346
61	0x3e10cd59	0.14140834
62	0xbc39a26b	-0.011330227
63	0x3e3f8735	0.18703921
64	0x3ca03c90	0.019560128
65	0xbd2c2b92	-0.04203374
66	0x3d9649ab	0.0733827
67	0xbe93811f	-0.2880945
68	0xbdb8455d	-0.08997605
69	0x3ece5aff	0.403038
70	0xbea107f4	-0.3145138
71	0x3dae7797	0.08518904
72	0x3e42e283	0.1903172
73	0x3e72ff95	0.2373031
74	0xbed61dd9	-0.41819647
75	0xbe10bbe5	-0.14134176
76	0x3e0dbb79	0.13841046
77	0xbe35fd75	-0.17772467
78	0xbea439a4	-0.32075226
79	0xbe92db8a	-0.2868312
80	0xbe5b317b	-0.21405594
81	0x3eb7cf11	0.35900167
82	0xbdd2801c	-0.10278341
83	0x3f2ad6b5	0.66733867
84	0xbdc476f5	-0.09593002
85	0xbdda8b9d	-0.1067116
86	0xbea546cf	-0.32280585
87	0x3d51cdff	0.051221844
88	0x3e56f7f7	0.20993029
89	0x3eddb62a	0.43303043
90	0xbe9577fe	-0.2919311
91	0xbf11f7f8	-0.57018995
92	0xbe7ed514	-0.2488597
93	0xbe55db25	-0.20884378
94	0x3e8e45b4	0.27787554
95	0xbe0f32b4	-0.13984185
96	0xbe2af3c5	-0.16694553
97	0xbefe6257	-0.49684402
98	0xbd28bb1e	-0.041194074
99	0x3e758ab6	0.23978695
100	0xbe760a6f	-0.24027418
101	0xbdde5118	-0.10855311
102	0x3e99c4ea	0.30033046
103	0xbe042f04	-0.1290856
104	0xbe5939e4	-0.2121349
105	0x3ec1c3b6	0.37844628
106	0x3c28466d	0.010270697
107	0x3e8ea13c	0.27857387
108	0xbd8e7aea	-0.06957038
109	0xbf1d861d	-0.61532766
110	0x3eaa7f81	0.33300403
111	0x3dccfdc6	0.10009341
112	0x3e28101d	0.16412397
113	0xbf121e18	-0.5707717
114	0x3d67b625	0.05657019
115	0x3ea30ccf	0.3184571
116	0x3f1c29d9	0.61001354
117	0xbf00169c	-0.500345
118	0xbda23afd	-0.07921407
119	0xbe2191c9	-0.15778269
120	0xbda7bbbe	-0.08190106
121	0x3dd13a17	0.10216158
122	0x3daf39a8	0.08555919
123	0xbcbb3305	-0.022851476
124	0x3e908f4a	0.2823432
125	0x3e16e605	0.14736183
126	0x3e194f35	0.14971621
127	0x3dd28d1d	0.102808215
128	0x3995ac80	0.00028548017
129	0x3e748be2	0.23881486
130	0x3e8f501a	0.279908
131	0x3e5d3e4c	0.21605796
132	0xbde03130	-0.10946882
133	0xbe529720	-0.20565462
134	0x3d5ed31f	0.05440056
135	0xbe8c1e81	-0.27367023
136	0xbe8a59d4	-0.27021658
137	0xbe9700ce	-0.294928
138	0x3dd46bcd	0.10372124
139	0x3dd43d9e	0.10363315
140	0xbce0c990	-0.027439862
141	0xbef16369	-0.47146156
142	0x3eca9f4b	0.39574656
143	0xbeb4dead	-0.35326138
144	0x3d8dc605	0.06922535
145	0x3d9c1b87	0.07622438
146	0x3c10fc87	0.00884927
147	0xbe056273	-0.13025837
148	0x3e5adeb1	0.21374013
149	0x3c8246ed	0.01590296
150	0x3ea88bf6	0.32919282
151	0x3eb135aa	0.34611255
152	0xbedf72cc	-0.4364227
153	0xbde0bddd	-0.109737135
154	0xbdb82c51	-0.08992828
155	0xbe2b8add	-0.16752191
156	0xbeb2234a	-0.34792548
157	0x3d3b90ed	0.04579251
158	0xbea815ef	-0.32829234
159	0x3eafffa9	0.3437474
160	0x3e539c31	0.20665051
161	0x3ebcd999	0.36884764
162	0x3e0d466e	0.13796398
163	0x3f1b5e08	0.60690355
164	0x3cc5a95c	0.024128608
165	0x3e132e46	0.1437312
166	0x3ddd8ffb	0.10818478
167	0x3f2d7d62	0.67769444
168	0xbeb6a5ea	-0.35673457
169	0x3e13debf	0.1444044
170	0x3e544ac4	0.20731646
171	0xbe3bcd02	-0.18339923
172	0x3d7324cf	0.059361275
173	0x3d3e7af3	0.046503972
174	0x3cceb37f	0.025232075
175	0xbdcda8b9	-0.10041947
176	0xbec4828e	-0.38380855
177	0x3ed4d78d	0.41570702
178	0xbea63232	-0.3246017
179	0x3f068740	0.52550125
180	0xbe3cefe0	-0.1845088
181	0x3eefe22c	0.46852243
182	0x3db070b5	0.08615247
183	0xbdd4cd79	-0.10390753
184	0xbe9e3e5d	-0.30906954
185	0xbf12dda5	-0.5736945
186	0x3f051dd5	0.51998645
187	0x3ecce400	0.400177
188	0x3e1c5803	0.15267949
189	0xbda88276	-0.082280084
190	0x3cd3b02f	0.025840847
191	0x3e89c41b	0.2690743
192	0xbf1f7157	-0.6228232
193	0x3e2ba4dc	0.16762108
194	0x3e105ee1	0.14098693
195	0xbe495bb5	-0.1966389
196	0x3e19366f	0.14962171
197	0x3e91c139	0.2846773
198	0x3ef9cd61	0.48789504
199	0xbe7122d5	-0.23548444
200	0xbe95f2ba	-0.29286748
201	0xbdb6a832	-0.089187995
202	0x3dddfcce	0.10839234
203	0xbe90f1eb	-0.2830957
204	0xbe1e1467	-0.1543747
205	0x3ec07b1f	0.37593934
206	0xbc12a059	-0.008949363
207	0x3e0abecf	0.1354935
208	0x3e0895bd	0.1333837
209	0x3e47c07a	0.19507018
210	0xbdb5e9f4	-0.08882514
211	0x3dd7fcf7	0.10546296
212	0x3e52c2e2	0.20582154
213	0xbc666a66	-0.014063453
214	0xbdf35ff8	-0.11883539
215	0x3e60645f	0.21913289
216	0xbeec6ee1	-0.46178344
217	0xbd987ce5	-0.07445697
218	0x3da7667a	0.08173843
219	0x3e48dcaf	0.19615434
220	0xbe87edf7	-0.2654874
221	0x3e84c016	0.259278
222	0xbc12351d	-0.008923796
223	0xbeb31336	-0.34975594
224	0x3d0c7278	0.034288853
225	0x3d7486a7	0.059698727
226	0x3f0a14a7	0.5393776
227	0x3e82047f	0.25394055
228	0x3e43b89e	0.19113395
229	0xbd2f953d	-0.042866934
230	0x3eb43c97	0.35202476
231	0x3efdbfdf	0.4956045
232	0x3e844ab5	0.25838247
233	0x3eeab55e	0.45841497
234	0x3eabfe69	0.33592537
235	0x3dd342dd	0.103154875
236	0xbe13ea61	-0.14444877
237	0x3ef1994d	0.47187272
238	0x3e590b9d	0.21195836
239	0xbe0a1cf7	-0.13487612
240	0x3f5b16ad	0.85581475
241	0x3ed9b475	0.4252049
242	0xbe27ce4c	-0.1638729
243	0xbf29b2a5	-0.66288215
244	0x3d66fd84	0.056394115
245	0x3eef3f76	0.46728104
246	0x3ddac4bb	0.106820546
247	0xbdacd2a1	-0.08438612
248	0x3e90dc36	0.28293008
249	0xbef84896	-0.4849288
250	0xbe25466a	-0.16140142
251	0x3edac5b6	0.42728966
252	0xbe8746ee	-0.26421303
253	0xbe35c5da	-0.17751256
254	0xbdd0822b	-0.101810776
255	0xbe8496c3	-0.25896272

network_body._body_endoder.seq_layers.2.bias f4 [256]
0	0xbc91c0e6	-0.017792176
1	0xbc05cc51	-0.008166389
2	0xbce37b76	-0.027768832
3	0x3d2f99e8	0.042871386
4	0x3bd20823	0.0064096614
5	0xbbf6e8f0	-0.0075350925
6	0xbc655003	-0.013996127
7	0xbcdd8816	-0.02704243
8	0xbc8462c8	-0.016160384
9	0x3c1dea5f	0.009638398
10	0x3bf86686	0.007580581
11	0xbc9aa65b	-0.018878153
12	0xbc87baa7	-0.016568495
13	0xbc2a9700	-0.010411978
14	0xbd396d94	-0.045270517
15	0xbc787153	-0.015163737
16	0xbb007265	-0.0019599434
17	0x3c2ec709	0.010667571
18	0xbcc940ce	-0.024567034
19	0xbb8519dc	-0.0040619206
20	0xbc59fe9c	-0.0133053325
21	0xbc82b708	-0.015956417
22	0x3be50fc6	0.0069904057
23	0xbca96f19	-0.020682858
24	0xbd4823c8	-0.04886225
25	0xbd0a242b	-0.0337259
26	0x3cb4d2fb	0.02207326
27	0x3d202360	0.039096236
28	0xbba07a3e	-0.004897385
29	0xbb2b6a78	-0.002615599
30	0xbb01f4ae	-0.0019829678
31	0xba99fef3	-0.0011748954
32	0x3b832656	0.0040023727
33	0xbbe0c433	-0.0068593263
34	0xbc72b23b	-0.014813001
35	0xbd3ee383	-0.04660369
36	0x3a8e8439	0.0010873146
37	0xbc96b56c	-0.018397056
38	0x3c600641	0.013673366
39	0x3b4da249	0.0031377247
40	0xbcab2181	-0.02089
41	0xbccc7c70	-0.02496168
42	0xbcad05e6	-0.021120977
43	0x3ce5a900	0.028034687
44	0xbc57eb6d	-0.0131786885
45	0x3bcab34d	0.006185925
46	0xbb8747f0	-0.0041284487
47	0xba9cf3cb	-0.0011974511
48	0xbca89a3f	-0.020581363
49	0xbb82d59b	-0.003992749
50	0xbc906b2d	-0.01762923
51	0xbb1f910e	-0.0024347934
52	0xbc6f8aff	-0.014620542
53	0x3ab3c43b	0.0013715097
54	0xbc715b0b	-0.014731179
55	0xbc95cbf2	-0.018285725
56	0xbcb58315	-0.022157231
57	0x3c457b69	0.012053349
58	0xbd0ae6d1	-0.03391153
59	0xbc6de0b3	-0.0145189045
60	0xbb82b5e5	-0.0039889687
61	0xbc23b261	-0.009991259
62	0x3cb6029c	0.022218041
63	0x3bd30c13	0.0064406483
64	0xba8a8427	-0.0010567949
65	0xba05e13b	-0.00051071093
66	0x3bacffc9	0.0052795154
67	0xbccac1c7	-0.024750603
68	0x3c9a34b2	0.018823955
69	0xbc90f0cf	-0.017692951
70	0x3c15fa6e	0.009153945
71	0xbc486f76	-0.012233606
72	0x3c497a87	0.012297279
73	0x3c1865be	0.009301601
74	0x3c3aa5c2	0.011392059
75	0xbc11f154	-0.008907635
76	0xbc801586	-0.015635263
77	0x3b72dee4	0.0037059123
78	0xbc12790d	-0.008939994
79	0xbc0113a2	-0.007878216
80	0x3ab99dbc	0.0014161388
81	0xbcf133b9	-0.029443609
82	0xbb393821	-0.0028262215
83	0x3b820808	0.0039682426
84	0x3d0b67df	0.034034606
85	0xbc280df4	-0.010257233
86	0xbcfc1ffc	-0.03077697
87	0xbc9f588e	-0.019451406
88	0xbbed66b0	-0.0072449073
89	0x3ad7e83a	0.0016472407
90	0x3a33ae77	0.00068543054
91	0xbcc7c35e	-0.02438515
92	0x3d1520cb	0.036408227
93	0x3c99f008	0.018791214
94	0xbc3bdcca	-0.011466214
95	0x3b97e5f3	0.0046355664
96	0xbb4feb8f	-0.0031726097
97	0xbcfcdcdf	-0.030867038
98	0x3bc662e3	0.0060542687
99	0xbb44832c	-0.002998541
100	0xbc438058	-0.011932455
101	0x3d07b98b	0.033135932
102	0xbc79e6f5	-0.015252818
103	0xbc29d73c	-0.010366257
104	0xbcb34983	-0.021885639
105	0xbb9a0caf	-0.004701219
106	0xbc2fe5c9	-0.010735937
107	0xbc7d77aa	-0.015470425
108	0xbc8b724c	-0.017022274
109	0x3be21018	0.006898891
110	0xbc86d8c0	-0.016460776
111	0xbc22cedc	-0.009937014
112	0xbc24250b	-0.010018597
113	0xbb1bb1f4	-0.0023757191
114	0xbb9ce65e	-0.004788204
115	0x3b8d00d2	0.0043030763
116	0xbc6e8054	-0.014556963
117	0xbc9c7595	-0.019099036
118	0x3b4d8a24	0.0031362856
119	0xbc3891af	-0.011265202
120	0x3c58f153	0.01324113
121	0x3cd9e11b	0.026596596
122	0xbc18e412	-0.00933172
123	0xbc38e6b3	-0.011285472
124	0xbce987fd	-0.028507227
125	0x3c961f00	0.018325329
126	0x3c3935e8	0.011304356
127	0x3ad53f0b	0.0016269399
128	0x3c81ff0f	0.015868692
129	0xbc60f0ad	-0.013729257
130	0x3c85ea92	0.016347203
131	0xbc69ec95	-0.014277597
132	0xbc99d2b6	-0.018777233
133	0xbbeb8d73	-0.007188493
134	0xbd0273e6	-0.03184881
135	0xbaf19af2	-0.0018433018
136	0xbb8162a0	-0.0039485246
137	0x3c758813	0.014986056
138	0xbb4b338d	-0.0031006068
139	0xbc178325	-0.009247576
140	0xbcb0638c	-0.021531843
141	0x3bc9de1b	0.0061605102
142	0xbd086890	-0.033302844
143	0x3c18d781	0.009328724
144	0x3bf840aa	0.007576068
145	0x3bf55fd4	0.0074882302
146	0xbd30ecbd	-0.04319452
147	0xbccb9b54	-0.02485434
148	0xb8bfb93d	-9.142093e-05
149	0xbc82bc0b	-0.015958806
150	0x3c1557b7	0.009115151
151	0xbbfa254a	-0.0076338397
152	0xbc901b71	-0.01759121
153	0xbc5eecd7	-0.013606272
154	0xbb8aa404	-0.004230978
155	0x3b10d7f5	0.0022101377
156	0x3cef50c2	0.029213313
157	0xbc432e3a	-0.011912877
158	0x3b9ff2d3	0.004881242
159	0x3b0e7f22	0.0021743258
160	0xbb67743d	-0.0035317086
161	0xbbce68fd	-0.0062991367
162	0x3ba9e73f	0.0051850374
163	0x3bb3a680	0.005482495
164	0x3c260045	0.0101319
165	0x3c8795e3	0.016550964
166	0xba790c23	-0.00095004047
167	0x3c9f7eaf	0.019469587
168	0x3b7754d1	0.0037739764
169	0x3bcc9446	0.0062432615
170	0xbc740b23	-0.014895233
171	0x3b5b8388	0.0033495147
172	0xbcb3a1f6	-0.021927815
173	0x3cacea2d	0.021107757
174	0xbc07a357	-0.008278689
175	0x3c862132	0.01637325
176	0x3c9ddc31	0.019270035
177	0xbbfef551	-0.007780709
178	0xbc308b73	-0.010775435
179	0x3c688fb5	0.014194419
180	0x3b7d2573	0.0038627058
181	0x3cbf153f	0.02332556
182	0xbb9d3205	-0.0047972226
183	0x3d246467	0.040134814
184	0xbbe718bf	-0.0070525105
185	0xb9d9e02e	-0.00041556492
186	0xbb2d903d	-0.0026483678
187	0xbbb57ac2	-0.0055383155
188	0xbcd26976	-0.025685053
189	0xbc1b8ce9	-0.009494045
190	0x3bea7f40	0.0071562827
191	0x3cbbba05	0.02291585
192	0x3cf95938	0.03043805
193	0xbd0fd137	-0.035111632
194	0xbca81ba5	-0.020520994
195	0x3aa71a8f	0.0012749004
196	0xbc3e0e38	-0.01160007
197	0xbbf2e77e	-0.00741285
198	0xbcd8a9e7	-0.026448203
199	0xbce5f722	-0.028071944
200	0xbbc509ce	-0.0060131317
201	0x3c7afa8b	0.015318523
202	0xba5eb63a	-0.0008495782
203	0xbce0834b	-0.027406355
204	0xbcab911a	-0.020943213
205	0xbca1cd6f	-0.019751279
206	0xba43b510	-0.000746564
207	0x3c58764c	0.013211798
208	0xbcfa5e40	-0.03056252
209	0x3c822be8	0.015890077
210	0x3a7f4bf6	0.0009738797
211	0xbc0c3c75	-0.008559336
212	0xbb4e5c01	-0.0031487944
213	0x3ca8da75	0.02061198
214	0x3c6c180c	0.01441003
215	0xbc90bbf6	-0.017667752
216	0xbc2463ee	-0.010033591
217	0xbc08ce8a	-0.008350024
218	0xbb0656e8	-0.0020498578
219	0x3d049cd8	0.03237614
220	0xbc0f7d3b	-0.008757885
221	0xbc541e11	-0.0129466215
222	0xbc321d0a	-0.010871181
223	0x3b7351ad	0.003712754
224	0x3d039006	0.032119773
225	0x3cfff318	0.031243846
226	0xbbbf6387	-0.005840722
227	0x3baba15d	0.005237742
228	0xbc544490	-0.0129558
229	0xbcaf9474	-0.021433093
230	0xbcd2bd7f	-0.025725124
231	0x3c975023	0.01847083
232	0xbd3c6689	-0.045996223
233	0xbcf7bff0	-0.03024289
234	0xbc5e7444	-0.013577525
235	0xbc82c0b4	-0.015961029
236	0xbc2345a8	-0.009965338
237	0x3cd6e645	0.026232848
238	0xbca69abc	-0.020337455
239	0xbd1f0603	-0.038824093
240	0xbc6450f4	-0.013935316
241	0x3ac69e31	0.0015153346
242	0xbc752869	-0.014963248
243	0x3cf539e3	0.02993483
244	0xbc1db574	-0.009625781
245	0xbc66207c	-0.014045831
246	0xbc4d2bb9	-0.012522631
247	0xbb9c5960	-0.0047713965
248	0xbc399a88	-0.011328347
249	0xbae1605a	-0.0017194853
250	0xbc660f3e	-0.01404172
251	0x3c08f341	0.0083587775
252	0x3b9b0014	0.004730234
253	0x3be26397	0.0069088447
254	0xbc158f72	-0.009128438
255	0xbc2bcfa4	-0.010486517

network_body._body_endoder.seq_layers.2.weight f4 [256, 256]
0	0x3cef7051	0.029228361
1	0xbca56948	-0.020191804
2	0x3d037290	0.032091677
3	0xbb05544a	-0.002034443
4	0x3d912d2d	0.07088695
5	0x3d45ba5b	0.048273426
6	0x3cabc605	0.020968447
7	0xbd28c664	-0.041204825
8	0x3d5a2dd8	0.053266376
9	0x3bbef830	0.005827926
10	0xbd864658	-0.06556386
11	0x3d368f4c	0.044570252
12	0x3d609a02	0.054834373
13	0xbd87cb29	-0.066305466
14	0x3d219a21	0.03945363
15	0x3d5bbde8	0.053647906
16	0xbd0b5338	-0.03401491
17	0xbde65fd9	-0.1124875
18	0xbd96a650	-0.0735594
19	0xbdd31635	-0.1030697
20	0xbd2192fb	-0.039446812
21	0xbd241826	-0.040062092
22	0x3dec2ac7	0.11531597
23	0x3d6cb5da	0.057790615
24	0x3d956fb7	0.072966985
25	0x3c9d66a6	0.019213986
26	0xbd7ae77a	-0.06125591
27	0x3d1ba023	0.037994515
28	0x3cdcba25	0.02694423
29	0x3d90723d	0.07053039
30	0xbc0ec294	-0.008713383
31	0xbce04b2f	-0.0273796
32	0xbcb00af0	-0.02148959
33	0x3c3dc8f3	0.011583555
34	0xbc8ba22e	-0.017045107
35	0xbe1263e4	-0.14295918
36	0x3cd5622d	0.02604779
37	0xbdc4cf99	-0.096099086
38	0xbc080124	-0.008301053
39	0x3dd989da	0.10621996
40	0xbcf52f9a	-0.029929925
41	0xbd57cdb4	-0.05268641
42	0xbab543e8	-0.0013829442
43	0xbc8dd125	-0.017311642
44	0x3d396ea4	0.04527153
45	0xbdb9757b	-0.09055611
46	0x3dbcc5a9	0.09217388
47	0xbcab78ed	-0.020931685
48	0x3d705b2a	0.05868069
49	0x3c07fb7c	0.008299705
50	0xbcec48a1	-0.028843226
51	0x3bba72b5	0.0056899437
52	0xbbd35e19	-0.0064504263
53	0x3d406016	0.046966635
54	0xbd06b1ab	-0.03288428
55	0xbdf717f7	-0.12065118
56	0xbe22c876	-0.15896782
57	0x3d70fa52	0.058832474
58	0xbd1072aa	-0.035265602
59	0xbe027c48	-0.12742722
60	0x3d6a1afe	0.057154648
61	0x3dc6bd6d	0.09704099
62	0x3b6b6312	0.0035917205
63	0x3ce0057c	0.027346365
64	0x3c09f3a3	0.008419904
65	0xbca4ceaf	-0.020118086
66	0xbcf34940	-0.029698014
67	0xbd8f0b55	-0.06984583
68	0xbc376a09	-0.011194714
69	0x3d5862e0	0.05282867
70	0x3dc91d59	0.09820051
71	0xbda5384d	-0.08067379
72	0x3b09d5ee	0.0021032053
73	0xbd046578	-0.03232333
74	0x3d37be89	0.044859443
75	0x3d046f97	0.032332983
76	0xbd5cd3af	-0.053912815
77	0xbc7c096e	-0.015383108
78	0xbc89a8a3	-0.016804045
79	0x3c6ecfd6	0.014575919
80	0x3db204da	0.086923316
81	0x3d9e2799	0.077223964
82	0xbd458d74	-0.048230603
83	0x3bcfbe61	0.0063398336
84	0xbd51e113	-0.051240038
85	0xbc8522dd	-0.016251976
86	0xbb80f033	-0.003934884
87	0xbd89b17d	-0.06723306
88	0xbd46d6b5	-0.048544604
89	0xbc17274b	-0.009225677
90	0x3c5d33bb	0.013501103
91	0xbdb3d836	-0.08781473
92	0x3dae2e51	0.08504928
93	0x3db3677f	0.08759975
94	0x3dc22713	0.09480109
95	0x3d071e59	0.032987926
96	0x3d496c0c	0.049175307
97	0xbd57974c	-0.052634522
98	0xbc4e9abd	-0.012610135
99	0xbd0f5cbf	-0.03500056
100	0xbde42089	-0.11139018
101	0x3d8486d5	0.0647103
102	0x3ae5f616	0.0017544653
103	0x3d430de5	0.047620673
104	0x3da449d3	0.08021893
105	0x3d1d8326	0.03845515
106	0xbd060f7b	-0.032729607
107	0x3dd3b4d8	0.103372276
108	0xbd0609ec	-0.032724306
109	0x3cf20819	0.029544877
110	0x3ca24602	0.019808773
111	0xbe24b88b	-0.16086023
112	0x3bd6638c	0.0065426286
113	0xbd92a7ad	-0.07160888
114	0xbd38930f	-0.04506212
115	0x3d352f8b	0.044234794
116	0x3dfdbb53	0.12389245
117	0x3d8fcdf0	0.07021701
118	0xbca8c1bc	-0.020600192
119	0xbdd5ea04	-0.104450256
120	0x3d56d1ed	0.052446295
121	0xbdeb9a9a	-0.11504097
122	0x3d297df6	0.04137989
123	0x3c078112	0.008270519
124	0x3d090f2d	0.03346174
125	0x3d5a0801	0.05323029
126	0xbd99877a	-0.07496543
127	0x3c2b6897	0.010461948
128	0xbc5d0952	-0.013490992
129	0xbddba63e	-0.107250676
130	0xbd22bae6	-0.03972902
131	0x3bfbdab2	0.0076859826
132	0x3c7695d9	0.015050375
133	0xbdcf728a	-0.101292685
134	0x3de1192c	0.10991129
135	0xbd8f1060	-0.06985545
136	0xbd8b7c1e	-0.06810783
137	0x3ccafae3	0.024777835
138	0xbdb34212	-0.08752836
139	0xbd655658	-0.055990547
140	0xbdf7395f	-0.120714895
141	0x3dbe270f	0.092847936
142	0xbc84cecc	-0.01621189
143	0x3c87d4c1	0.016580941
144	0x3d00a704	0.03140928
145	0xbcd8c6b2	-0.026461933
146	0xbd59af39	-0.05314562
147	0x3cda14af	0.02662119
148	0x3d9104b3	0.070809744
149	0xbd229e68	-0.03970185
150	0xbc594bdf	-0.013262718
151	0x3d8a57a2	0.06754996
152	0x3d5b5758	0.053550094
153	0x3d161baf	0.036647495
154	0xbcf3a499	-0.029741572
155	0x3c40fe77	0.011779419
156	0x3d8dc0f8	0.069215715
157	0xbc6d8519	-0.014497065
158	0x3c01c98a	0.007921586
159	0xbc089513	-0.008336323
160	0x3c46bf0e	0.012130512
161	0xbdefae2a	-0.11703141
162	0x3d0f99c3	0.035058748
163	0xbc39e509	-0.01134611
164	0x3ceff788	0.029292837
165	0x3d75975f	0.05995881
166	0x3da13f36	0.07873385
167	0x3dcb7118	0.0993368
168	0x3d0286e3	0.03186692
169	0x3db525ef	0.08845126
170	0x3a453112	0.00075222657
171	0xbd6a063c	-0.05713485
172	0xbda439c4	-0.080188304
173	0x3c8c8d86	0.017157327
174	0x3d5999d1	0.053125206
175	0x3cc1ee7e	0.023673292
176	0x3d793f89	0.060851607
177	0xbd9acfbd	-0.07559154
178	0x3d600edf	0.054701682
179	0xbd18559b	-0.037191015
180	0x3c4392be	0.0119368415
181	0x3c81ca44	0.015843518
182	0xbc671903	-0.014105084
183	0xbd9811cc	-0.074252695
184	0xbd66e961	-0.05637491
185	0x3c7e264f	0.015512063
186	0xbdee690c	-0.1164113
187	0x3db0d083	0.086335205
188	0x3c99794c	0.018734597
189	0xbd5c8069	-0.0538334
190	0xbd4667c7	-0.048438814
191	0x3c32360b	0.010877143
192	0xbd105d53	-0.03524525
193	0x3d152d95	0.036420424
194	0x3d3733bd	0.044727076
195	0x3d3a677b	0.045508843
196	0xbdfddd57	-0.12395733
197	0x3e416207	0.1888505
198	0xbbf9a364	-0.0076183546
199	0xbcc200a3	-0.023681944
200	0x3d1a54b8	0.03767845
201	0xbd1f3b9c	-0.038875207
202	0xbc5723e8	-0.013131119
203	0x3be1fc78	0.0068965517
204	0x3d780d00	0.060559273
205	0xbcb2f282	-0.021844152
206	0x3cb31189	0.021858947
207	0xbd2ec204	-0.042665496
208	0xbd5983b3	-0.053104114
209	0x3c09597f	0.008383154
210	0xbc92293b	-0.017841926
211	0x3cc5cba3	0.024144953
212	0x3cc9fc42	0.024656419
213	0xbd69a1f9	-0.057039235
214	0xbdc094d1	-0.094033845
215	0x3c20c4d6	0.009812554
216	0xbc25cb61	-0.01011929
217	0x3d8f5f1f	0.07000565
218	0x3c1c5764	0.00954232
219	0x3d37be9a	0.044859506
220	0xbd785e41	-0.060636763
221	0x3dad2613	0.08454528
222	0x3d66fb08	0.056391746
223	0xbd5a9daa	-0.053373016
224	0x3e0f758f	0.14009689
225	0xbd639fa9	-0.055572186
226	0x3d859c7f	0.0652399
227	0xbd766263	-0.060152423
228	0xbd2531f3	-0.04033084
229	0x3d013109	0.031540904
230	0xbd3f0424	-0.04663481
231	0x3e0a2723	0.13491492
232	0xbcc0191e	-0.023449477
233	0xbdb9cec5	-0.09072641
234	0xbc475adb	-0.012167658
235	0x3d772107	0.06033423
236	0xbdda9aa3	-0.10674026
237	0xbdf8bb4c	-0.12145099
238	0x3c328996	0.010897061
239	0xbd529bbe	-0.05141806
240	0xbca4f3ea	-0.020135839
241	0x3cf9c0a0	0.030487359
242	0x3b4be07a	0.003110914
243	0xbd39cfcd	-0.04536419
244	0xb8244e32	-3.9173472e-05
245	0x3d08407c	0.033264622
246	0xbd39d1fb	-0.04536627
247	0xbd5592a4	-0.0521418
248	0x3bc136a9	0.0058964086
249	0xbb068ce2	-0.002053075
250	0x3d6fabe2	0.05851353
251	0x3b8035d1	0.0039126654
252	0xbcaad7de	-0.020854887
253	0xbcccd409	-0.02500345
254	0x3e153c16	0.14573702
255	0xbe15f7dd	-0.14645334

network_body._body_endoder.seq_layers.4.bias f4 [256]
0	0xbbacad65	-0.0052696937
1	0x3b6ecb2f	0.0036437025
2	0x3b98eb36	0.004666711
3	0xbc01758e	-0.007901562
4	0xbc9564dc	-0.01823657
5	0xbcc62cf9	-0.024191367
6	0xbb65fdf9	-0.0035094006
7	0xbbf6976a	-0.007525374
8	0xbc3f796e	-0.011686666
9	0xbc050169	-0.008118012
10	0xb97fc1b2	-0.00024390852
11	0xbc073a13	-0.008253592
12	0xbb4ac38a	-0.0030939304
13	0x3b39c7af	0.002834778
14	0xbc20af41	-0.009807409
15	0xbcdbad05	-0.0268159
16	0xbcba92b1	-0.022775026
17	0xbce7f1d0	-0.028313547
18	0xbc31874d	-0.010835481
19	0xbcfe0953	-0.031010306
20	0xbcbd0966	-0.02307577
21	0xbd033189	-0.032029662
22	0xbc816b9b	-0.01579838
23	0xbd1d3d3f	-0.038388487
24	0xbbcbb919	-0.0062171337
25	0x3d24f7af	0.040275272
26	0xbd2e6161	-0.042573337
27	0x3bd925e6	0.0066268323
28	0x397bc8f0	0.0002401208
29	0x3b5f571e	0.0034079025
30	0x3be29bb7	0.0069155353
31	0xbc14064f	-0.009034707
32	0x3c7bc5b3	0.015366959
33	0xbc80958b	-0.015696308
34	0xbcb5cbe6	-0.022191953
35	0xbc0c462c	-0.008561652
36	0xbca08fa3	-0.019599741
37	0xbc7b9fbc	-0.015357908
38	0xbb81fecb	-0.0039671413
39	0xbc9bda56	-0.01902501
40	0x3c40ba1b	0.011763121
41	0xbcbfe609	-0.023425119
42	0x3cd03913	0.02541784
43	0x3c96ef5f	0.018424688
44	0xbc95c7fa	-0.018283833
45	0xbd4c2fd4	-0.0498503
46	0x3c4bb81d	0.012434033
47	0xbc44b286	-0.012005454
48	0xbbb78c7f	-0.0056014652
49	0xbc30c0b3	-0.010788131
50	0xbb83ef55	-0.0040263333
51	0xbcf0f871	-0.029415341
52	0xbcc81403	-0.024423605
53	0xbc4fd5b2	-0.012685226
54	0xbc792abb	-0.015207942
55	0xbbf0d695	-0.007349799
56	0x3c1de831	0.009637878
57	0x3c7f12f7	0.015568486
58	0x3c11c85d	0.008897868
59	0xbc6ff365	-0.014645432
60	0xbb8bdf3e	-0.004268556
61	0xbcb04cbb	-0.021520963
62	0xbd17c8ff	-0.03705692
63	0x3b828e3d	0.0039842413
64	0xbc92b2b4	-0.017907478
65	0x3c0969e0	0.008387059
66	0xbc6021f4	-0.01367997
67	0x3d055ffc	0.03256224
68	0xbc85a18a	-0.01631238
69	0xbd098207	-0.03357127
70	0xbc097c5f	-0.008391469
71	0xbcc95434	-0.024576284
72	0xbbd94685	-0.006630721
73	0xbcb2bc84	-0.021818407
74	0x3c538b4a	0.012911627
75	0xba8ed8dc	-0.0010898369
76	0xbc341814	-0.010992069
77	0xbcb212b0	-0.021737427
78	0xbcec11b1	-0.02881703
79	0x3c4487b4	0.011995245
80	0xbbc57fc1	-0.0060271923
81	0xbcaf5dab	-0.021406969
82	0xbb5d61df	-0.003378026
83	0xbca7660e	-0.020434406
84	0xbd0acb55	-0.03388532
85	0xbc7963f7	-0.015221587
86	0xbb4a12a0	-0.0030833855
87	0xbcc36ea4	-0.023856468
88	0x3ccef1a3	0.025261706
89	0x399ecace	0.0003028721
90	0xb9c52548	-0.00037602545
91	0x3bf0ae85	0.007345023
92	0x3cc29eec	0.02375742
93	0x3ce1ef69	0.02757998
94	0xbbd5695e	-0.006512805
95	0x3d20a369	0.03921834
96	0x3c7c81d0	0.015411809
97	0xbc86748d	-0.016412998
98	0x3ca1db14	0.019757785
99	0x3c6b6904	0.014368299
100	0x3c5f2f02	0.013622047
101	0x3c517869	0.012785056
102	0xbc787930	-0.015165612
103	0xbc08fcc3	-0.008361044
104	0xbc9b5dc5	-0.018965611
105	0xbc699f4b	-0.01425917
106	0x3adffc8e	0.0017088817
107	0xbc300942	-0.010744395
108	0xbcd40d5b	-0.025885275
109	0xbca1dd06	-0.019758713
110	0xbc540485	-0.012940531
111	0xbca0bee7	-0.01962228
112	0x3c4f10a6	0.012638247
113	0xbc90b53e	-0.017664548
114	0xbae8d8df	-0.0017764828
115	0xbce0a4d6	-0.02742235
116	0xbc94350a	-0.018091697
117	0x3cc80bdd	0.02441972
118	0xba928cc3	-0.0011180866
119	0xbb98509d	-0.0046482817
120	0xbc7d3ed6	-0.015456876
121	0xbbd9929a	-0.0066397907
122	0xbb9de635	-0.0048187026
123	0xbc73531d	-0.014851359
124	0x3ce4158f	0.027842311
125	0xbc51da68	-0.01280842
126	0xbcce2259	-0.025162863
127	0x3be228c6	0.006901833
128	0xbd0a53fe	-0.033771507
129	0x3c8894ef	0.01667258
130	0xbbb2610b	-0.0054436973
131	0xbc2777f3	-0.010221469
132	0x3b100da8	0.0021980796
133	0xbd2505e2	-0.040288813
134	0xbc31a370	-0.010842189
135	0xbc9681b8	-0.018372402
136	0x3bf0885b	0.0073404736
137	0xbbccf9c8	-0.006255362
138	0xbc68832a	-0.014191428
139	0x3d13adc5	0.03605439
140	0x3d00382c	0.03130357
141	0xbcfc37e1	-0.030788364
142	0xbb924c0a	-0.004464631
143	0xbca53d90	-0.020170957
144	0xbc4cc462	-0.012497993
145	0x38fa358d	0.000119309036
146	0xbb053e0a	-0.0020331168
147	0x393516b8	0.00017269969
148	0xbc03ec66	-0.008051967
149	0x3c3a1a2b	0.011358778
150	0x3bd645f2	0.0065391
151	0xbc148079	-0.009063833
152	0x3c2ff39e	0.010739235
153	0xbbe2ce8c	-0.006921595
154	0xbcce3bc3	-0.025174981
155	0x3c788a19	0.015169644
156	0xbc4f5603	-0.012654784
157	0x3c29a7b4	0.010354925
158	0x3c7abb11	0.015303389
159	0xbca4a1f4	-0.020096757
160	0xbd1a20aa	-0.037628807
161	0xbbded617	-0.006800424
162	0x3c1f070c	0.00970627
163	0xbc076993	-0.008264917
164	0x3c99a419	0.018755006
165	0xbca635c9	-0.020289319
166	0x3cad85fd	0.021182055
167	0x3a9393eb	0.0011259293
168	0xbb6c41fa	-0.0036050067
169	0xbcae44f3	-0.021273112
170	0xbcd4dfa1	-0.02598554
171	0x3c1570c3	0.009121123
172	0x3934f36a	0.00017256816
173	0x3c4df11b	0.012569691
174	0xbc6624ce	-0.014046861
175	0xbc28dce7	-0.0103065735
176	0xbc9c1e17	-0.019057317
177	0x3bf768ca	0.0075503336
178	0xbc83cd5d	-0.016089136
179	0x3c875657	0.016520662
180	0xbca102d5	-0.01965467
181	0xbbb64ee7	-0.005563605
182	0xbb976ffb	-0.0046215034
183	0x3c2c22a9	0.0105063105
184	0xbced1d03	-0.028944498
185	0x3b9f3190	0.004858203
186	0xbbffa02d	-0.007801077
187	0x3ce559d0	0.027996927
188	0xbd103205	-0.035203952
189	0xbcb2e7f5	-0.021839121
190	0x3bb83713	0.0056217997
191	0xbbb03c6e	-0.0053782975
192	0xbbee6f36	-0.007276441
193	0x3a5ebaeb	0.0008496481
194	0xbb2cc5d2	-0.0026363027
195	0x3c0eb8da	0.008711064
196	0xbbff499d	-0.007790758
197	0xbd179bbf	-0.037013765
198	0xbcf50dc2	-0.029913787
199	0xbcc8cc21	-0.024511399
200	0x3be2ebf7	0.006925102
201	0x3bc422cc	0.0059855934
202	0xbcf3b34b	-0.02974858
203	0xbd87bfbd	-0.06628368
204	0xbcd16727	-0.025561882
205	0x3c90cf66	0.01767702
206	0xbc9af944	-0.018917687
207	0xbcf9610b	-0.030441782
208	0x38532f2e	5.035026e-05
209	0xbcb6ee38	-0.022330388
210	0xbc7b6fdf	-0.015346496
211	0xbc02ed5c	-0.007991161
212	0xbc887491	-0.016657146
213	0xbcc49c1a	-0.024000216
214	0x3c699515	0.014256735
215	0xbcaccf14	-0.021094836
216	0xbd023df9	-0.031797383
217	0x3cad8796	0.021182816
218	0xbd15ad96	-0.036542498
219	0x3b9f5632	0.00486257
220	0xbc315d48	-0.010825463
221	0xbcd48db3	-0.025946474
222	0xbb722e72	-0.0036953953
223	0xbc33c747	-0.010972804
224	0xbca84de1	-0.020544948
225	0x3ab2604d	0.0013609022
226	0xbb43cb6f	-0.0029875895
227	0xbb394408	-0.002826931
228	0xbc9da663	-0.019244378
229	0xbcf62b6a	-0.030049998
230	0xbaae3e05	-0.001329363
231	0xbc5f7521	-0.013638766
232	0x3c86fcd8	0.016477987
233	0xbc906804	-0.017627724
234	0xbc670819	-0.014101052
235	0xbc00f680	-0.00787127
236	0xbc0daec0	-0.008647621
237	0xbc3941e5	-0.011307214
238	0xbca654a0	-0.020304024
239	0xbc9cca1c	-0.019139342
240	0xbc04990e	-0.008093132
241	0xbca628e3	-0.020283168
242	0x3894d8c7	7.097568e-05
243	0x396e9a02	0.00022754821
244	0xbb9fdbc7	-0.0048784944
245	0xbd061da0	-0.032743096
246	0xbbdd106a	-0.0067463415
247	0xbb310bb7	-0.002701504
248	0xbb8b8cd7	-0.004258733
249	0xba48069f	-0.0007630381
250	0x3c8fb55d	0.017542535
251	0xbcddb1fa	-0.027062405
252	0xbc390d4e	-0.011294676
253	0xbc9a53a2	-0.018838707
254	0x3c7d9453	0.015477258
255	0xbcca6856	-0.024707954

network_body._body_endoder.seq_layers.4.weight f4 [256, 256]
0	0x3e02b4ad	0.12764235
1	0xbdd519d0	-0.10405314
2	0xbd398f83	-0.04530288
3	0x3e097ae9	0.13425793
4	0x3ca1ff4e	0.01977506
5	0x3ccac0a2	0.024750058
6	0x3d7128bb	0.058876734
7	0x3d68db63	0.05684985
8	0xbd7d70a2	-0.061874993
9	0xbccc4515	-0.024935285
10	0xbcbea03b	-0.023269763
11	0x3d31c4c9	0.04340056
12	0xbe398c8c	-0.1812002
13	0x3d4e445e	0.05035817
14	0x3d9a9e62	0.075497404
15	0x39b92af5	0.00035317955
16	0xbe0be445	-0.13661297
17	0xbbd1c13c	-0.006401209
18	0x3ab8aec7	0.0014090174
19	0x3d861108	0.06546217
20	0x3d1cd3f5	0.038288075
21	0xbd7e4409	-0.062076602
22	0x3c86b944	0.016445763
23	0x3c15f4a8	0.009152569
24	0xb9e618ef	-0.00043887596
25	0xbc93bce5	-0.018034408
26	0x3da56d1d	0.08077452
27	0x3d1396c8	0.036032468
28	0xbda8d8bf	-0.08244466
29	0xbd44cf26	-0.048049115
30	0x3cd0d5e4	0.025492616
31	0xbda5e759	-0.08100767
32	0x3bd5ded5	0.006526808
33	0xbd1d64a2	-0.03842605
34	0xbde7bd03	-0.11315348
35	0xbc7f81fc	-0.0155949555
36	0xbd301817	-0.042991724
37	0x3e06f533	0.13179474
38	0xbd7414e8	-0.05959025
39	0x3c9c0130	0.019043535
40	0x3d3c268c	0.0459352
41	0x3c9bdc4e	0.019025948
42	0x3b84e0dd	0.004055126
43	0xbdc43552	-0.095804825
44	0x3b6675bb	0.0035165388
45	0x3d37a56b	0.04483549
46	0xbd6a2b2c	-0.05717008
47	0xbb2414e5	-0.0025036868
48	0x3c5e8426	0.013581311
49	0xbda48b86	-0.080344245
50	0x3d54a6b3	0.05191679
51	0xbd383b97	-0.044978704
52	0x3d99f4ea	0.07517417
53	0xbcae0849	-0.021244185
54	0x3c6d0f10	0.014468923
55	0xbd89a0b7	-0.06720107
56	0x3e045b5e	0.12925479
57	0x3db70b6f	0.08937728
58	0xbd8a3363	-0.067480825
59	0x3cc33267	0.023827745
60	0x3d51d048	0.051224023
61	0xbda7f1c5	-0.08200411
62	0xbd860232	-0.065433875
63	0x3d18d205	0.037309665
64	0xbd096b34	-0.033549502
65	0x3d0c0893	0.034187865
66	0x3d503f20	0.05084145
67	0x3dd9ae1c	0.10628912
68	0x3de888a0	0.11354184
69	0x3d972a7d	0.07381151
70	0x3dd0a23f	0.10187196
71	0x3cd3bd7f	0.025847195
72	0x3d864480	0.06556034
73	0xbdfdb01e	-0.12387107
74	0x3d06bd5d	0.032895435
75	0x3dae4b0c	0.08510408
76	0x3d5607d0	0.052253544
77	0xbdb88d6c	-0.09011349
78	0x3d9486f4	0.07252303
79	0x3db8c180	0.09021282
80	0x3cbe670d	0.023242498
81	0x3b019339	0.001977159
82	0xbd253a2f	-0.04033869
83	0xbd6b69c6	-0.05747392
84	0x3e05efb6	0.13079724
85	0x3ca89241	0.020577552
86	0x3a9bf96a	0.0011899893
87	0x3d37de42	0.044889696
88	0x3dd81703	0.10551264
89	0x3ce00771	0.027347298
90	0x3ce28d65	0.027655313
91	0x3d92db33	0.07170715
92	0x3d3c6ab5	0.0460002
93	0x3d4d5ee4	0.050139323
94	0xbdaa5bf1	-0.08318318
95	0x3d3da297	0.046297636
96	0xbc9719fe	-0.018445011
97	0x3d532466	0.051548384
98	0xbd34f155	-0.044175465
99	0x3cb4ee12	0.022086177
100	0xbce33c8e	-0.027738836
101	0x3d7a898b	0.061166327
102	0xbc26ed83	-0.010188463
103	0x3c66c57e	0.014085172
104	0xbc9a88dc	-0.018864088
105	0xbd6119b0	-0.054956138
106	0x3cf55231	0.029946418
107	0xbda84488	-0.08216196
108	0xbb7faf58	-0.0039014425
109	0xbde7e14a	-0.11322267
110	0x3dbe526f	0.09293067
111	0xbd1d8ea1	-0.0384661
112	0x3e23a29c	0.1598
113	0xbd3630c3	-0.044480097
114	0x3c8c5e4e	0.017134812
115	0xbda2e742	-0.07954265
116	0x3d85c87e	0.065323815
117	0x3d7d9149	0.061906133
118	0x3d0e9f46	0.034819864
119	0xbd0f214f	-0.034943875
120	0x3cdf05cf	0.02722445
121	0xbcdcef71	-0.026969643
122	0xbe114fb2	-0.14190558
123	0xbb4cb4df	-0.0031235737
124	0xbde0cb5f	-0.1097629
125	0x3dafd85f	0.085861914
126	0xbdab4369	-0.08362467
127	0x3e2dcd23	0.16972785
128	0xbe0566dd	-0.1302752
129	0xbd294c00	-0.041332245
130	0x3d8350a6	0.06411867
131	0x3b8e0242	0.0043337652
132	0x3df893a7	0.121375374
133	0xb9e88a1b	-0.00044353385
134	0x3d057779	0.03258464
135	0xbb9d4158	-0.0047990493
136	0xbd637e8c	-0.055540606
137	0x3d8be7e5	0.0683134
138	0x3da8e879	0.08247466
139	0x3c3f85c2	0.011689605
140	0xbdd5b62c	-0.10435137
141	0x3d8afd3d	0.067865826
142	0xbb592e7d	-0.0033139281
143	0xbc76b24a	-0.015057156
144	0x3dad1838	0.08451885
145	0xb9532fe5	-0.0002014037
146	0x3d53f7dd	0.051750053
147	0xbd15c747	-0.036567
148	0xbdf14331	-0.11780394
149	0xbca6b59f	-0.020350276
150	0x3c7a7eee	0.015289051
151	0x3c4c952e	0.012486739
152	0xbac40394	-0.001495468
153	0x3df9c237	0.12195247
154	0xbc4102fa	-0.011780495
155	0xbb8488d9	-0.004044634
156	0x3bcfbe67	0.0063398364
157	0xbac2fccd	-0.0014876366
158	0xbd092c51	-0.03348953
159	0x3dc3ae76	0.0955476
160	0x3cf611bc	0.030037753
161	0xbd9f3d32	-0.07775344
162	0x3c97a334	0.018510439
163	0xbd3b4c6a	-0.04572717
164	0xbd199482	-0.037495144
165	0xbda55d4c	-0.080744356
166	0xbd1e3a20	-0.03862965
167	0xbda06cbe	-0.07833241
168	0x3d8cee63	0.06881406
169	0x3ceb8058	0.028747723
170	0xbd4c8995	-0.049935896
171	0x3e1e9532	0.15486601
172	0xbd8fc9f0	-0.070209384
173	0x3d07bac7	0.03313711
174	0xbce56d57	-0.028006239
175	0xbceed91b	-0.029156258
176	0xbdb9aa64	-0.090657026
177	0x3d18c1dd	0.037294257
178	0xbd61daf0	-0.055140436
179	0x3d0b0a2b	0.033945244
180	0x3c4b8e1a	0.012424016
181	0xba86782a	-0.00102592
182	0xbc7f302c	-0.01557545
183	0x3c87e70f	0.01658967
184	0x3c7cf9be	0.015440403
185	0x3bf0c1ee	0.007347337
186	0x3d99aa2b	0.0750316
187	0xbd3423ba	-0.043979384
188	0xbd7748a9	-0.06037203
189	0x3e263599	0.16231383
190	0xbc4983a8	-0.012299456
191	0xbc97f231	-0.018548103
192	0xbda31dcd	-0.079646684
193	0xbd8cc5b9	-0.0687365
194	0x3c8e72b1	0.017388673
195	0x3d676015	0.056488115
196	0x3cf6f302	0.030145172
197	0xbdd4bdce	-0.10387765
198	0x3de3a584	0.11115554
199	0x3b115221	0.0022174197
200	0x3c5c4784	0.013444785
201	0x3d9ffa91	0.078114636
202	0x3d90cfe9	0.07070906
203	0xbcc2b3b1	-0.023767324
204	0x3d3a64e9	0.04550639
205	0x3c4cb61b	0.012494589
206	0x3d3b19a8	0.045678765
207	0x3d40a0a1	0.047028188
208	0x3c124382	0.008927228
209	0x3d492d03	0.049115192
210	0xbde08832	-0.10963477
211	0x3d223963	0.03960551
212	0x3a84644c	0.0010100692
213	0xbd576639	-0.05258772
214	0xbd33ea07	-0.043924358
215	0xbca2ee28	-0.019888952
216	0xbd082d1d	-0.03324615
217	0xbd64dd77	-0.055875268
218	0xbd18dda4	-0.037320748
219	0x3d2cb237	0.042162146
220	0x3d14e0ca	0.036347188
221	0x3df205c6	0.118175074
222	0xbd2b7fd8	-0.04186997
223	0x3d7948c8	0.060860425
224	0x3baff0b3	0.0053692698
225	0x3e0c2e61	0.13689567
226	0x3d2ea661	0.04263914
227	0xbd918f3f	-0.071074
228	0x3b2c913f	0.002633169
229	0x3d82b9f6	0.063831255
230	0xbd576aef	-0.052592214
231	0x3c0ee8f9	0.008722537
232	0x3dbc3685	0.09190086
233	0xbd08ed6d	-0.033429552
234	0xbc1d46ae	-0.009599371
235	0xbd14213a	-0.0361645
236	0x3c441386	0.011967545
237	0x3dc103c1	0.09424544
238	0x3dceb2c6	0.10092692
239	0x3b85efff	0.0040874477
240	0xbca39a56	-0.019971054
241	0x3da85f70	0.08221328
242	0xbd8b6739	-0.068067975
243	0xbda12883	-0.07869055
244	0xbd5d05d4	-0.053960636
245	0xbdc7a054	-0.09747377
246	0x3d522c3b	0.051311713
247	0x3ded75d5	0.1159474
248	0x3bfeab20	0.0077718645
249	0xbd196192	-0.037446566
250	0x3d802274	0.062565714
251	0x3db227d8	0.08699006
252	0x3bda6c8e	0.0066657728
253	0xbd8cdc89	-0.06878001
254	0x3bec0a46	0.007203373
255	0xbdb78ed5	-0.0896279
