results/Drone4/Drone/Drone-499939.onnx (onnx, 810629 bytes, 11 tensors)

action_model._continuous_distribution.log_sigma f4 [1, 4]
00000000: 74e4 b1bd d6fa d9bd fb0f c7bd cb6e 97bd
-0.08686152 -0.10643546 -0.09719845 -0.07394179

action_model._continuous_distribution.mu.bias f4 [4]
00000000: 18d7 61bc 0abf b6bb 0303 4fbc 2438 62bc
-0.0137841925 -0.005576973 -0.012634995 -0.01380733

action_model._continuous_distribution.mu.weight f4 [4, 256]
00000000: b2e6 8d3c de51 61bc f759 92bc cea1 7ebc
00000010: 85c1 ac3c a8d8 15bc 33df ddbb af1a 143d
00000020: 35cf a7bc b676 193a f51b 9cbc cec0 aebc
00000030: 0ca1 1ebb e309 a03b e561 db3b 5b95 3a3b
00000040: 7790 963c be0c 293c 3c4c b93c 2625 243d
00000050: 2c0f 4a3b 4b4d 9cbb 19b8 b3bc 12f8 c3bc
00000060: abca 80bc 0eb2 1b3c 8d1f 043d 7457 b8bc
00000070: 819f 783c 3784 30bc 5166 26bc 303d 00bc
00000080: 9912 b13b c64b 5cbc 07be c03b dbe3 9dbb
00000090: faf2 103c acbb a2bc 1bcc ed3b 77e7 873c
000000a0: 3588 53bc c57f 79bc 6bee 9a3c 0e0e 85bc
000000b0: efcc 38bc 4d8c d53c 5b12 97bb a67f 43bc
000000c0: 91f9 83bc 7cdf 033d 876f e7bc 8915 ca3b
000000d0: 1b88 253b 9a04 ca3c 4ee5 4d3c 31d4 3cbc
000000e0: 3a1f a53c 750d 26bc 2579 3fbc f4c7 10bd
000000f0: 17e5 acbb d728 ad3b 61e7 4b3b a320 b4bc
00000100: 6903 0d3a f64c 7d3c 3489 143d 440a fb3c
00000110: 081b 293b 497d 9f3c f679 823c 18f4 2b3c
00000120: 179b b139 b45c 84bc 58f3 733c f343 103c
00000130: 59e5 0d3c 674d 623c ffd5 acbc 6553 953c
00000140: 8ade bc3c c562 b7bc aed3 943c a258 a0bc
00000150: e0fb 1a3b 9ec3 c93b ac2f 8f3c ceda 4f3c
00000160: d42c b23c cc55 8ebc 1206 d4bb d916 9dbc
00000170: fc53 a83b c0d0 10bd 28e6 e0bc 9cdf a33b
00000180: ad1a ed3c 1c85 4cbc 4474 a7bc 6597 10bc
00000190: 5ad9 2dbc dfba dbba e84b 0b3c 3c72 f7bb
000001a0: 4aaa 3fbc 490d d03c 7a35 263d cfbf 11bb
000001b0: 6913 39bb 3773 bdba 6546 28bc 84fd d6bb
000001c0: a5b2 573c 090a 3abc cf88 e2bb 082e 33bc
000001d0: b9ea c7bb d25a 3dbc e4ba ccbb 6a3e 33bb
000001e0: 0e50 a63c 246d 8e3c 5053 f33b 11b7 083c
000001f0: ed71 633c b73d 2b3b 78d5 caba 9012 a83c
00000200: dcdf 67bc 3f08 c3bc 6afe adbb ff44 8a3c
00000210: 62dc 0fbd 3c48 e3bc 9818 6bbb c1f0 073c
00000220: 9e07 5e3c d5b7 b13c ee42 dabc 2f78 443c
00000230: b1dd 783b 24b1 183c c1b7 a03c 4d86 57bb
00000240: 8285 8338 21a5 d73b 3bba 073d 89f1 623c
00000250: ee67 a13c f05a 123c bb4c 7fbc 35f2 4fbc
00000260: e3ed 37bc 3137 e5bc 2c1f 2a3c 7737 02bc
00000270: 037b 65bc 7d92 fbba 9f64 9b3c 84d6 85bc
00000280: 6546 ab3c 79d5 be3c 15d2 913c a5e3 ab3c
00000290: d653 4fbb 3300 bc3c 26b6 413c 4c83 f1bb
000002a0: d0db c33b 90b8 1abc f387 64bc 5e85 ebbc
000002b0: 651c 753c 42fe a33b 1bb9 2a3d 5c30 c8ba
000002c0: c1dc e53a 117b 063b ffc1 223c ec94 e0bb
000002d0: 1c29 9f3c a0b3 d5bc d16e 8c3c 3472 8a3c
000002e0: 7dd4 dbbb 6606 75bc 05b1 123c 42e6 92bc
000002f0: bd61 90bc af83 613a 0eb8 723c 83be d03b
00000300: f7a5 7c3c 8264 463c 34ea 01bb 3d10 c4bc
00000310: 0ffd 87bb dcf1 fbbb 55d4 5c3c f2cb 9f3c
00000320: 0739 69bc 0a8f aabb c303 7fbb f2e6 eb3c
00000330: 58fa d7bc 2fd8 ecba 908f 553b f5af ee3c
00000340: 8478 ed3c bc77 18bc d7d9 87bc 54bd a3bc
00000350: 6692 c1b9 d2fb c33c dfc2 81bc 20c6 8f3c
00000360: d957 92bc 2d77 0b3d 3fbe 34ba 8c84 96bc
00000370: bd04 293c ae1e 02bb ac14 b83c 0b20 0d3c
00000380: 1734 74bc a0ea c43b c6b2 ca3a f928 6e3c
00000390: 39df 4f3b c5d6 6ebc 362e a1ba 4883 f1bb
000003a0: 92ef 39bc 47f9 a5b8 d527 13bd ab4d 17bc
000003b0: 65cd 99bb 1d23 86bc b938 4b3b 2c82 8fb7
000003c0: 520b 88bc 2688 86bb 2c6b 52bc 6835 cb3c
000003d0: 7ff0 1b3c 9fc0 6cbc 789d 6dbb 8ba0 8a3b
000003e0: 661f a93c 42e9 1e3c a4e1 3cbb 37ff aebc
000003f0: a770 413b 978d 4ebc 5d7a 83bb 5b72 1fbd
0.017321918 -0.013752429 -0.017865164 -0.015541507 0.021088371 -0.009145893 -0.006770992 0.03615826
-0.020484546 0.0005854176 -0.0190563 -0.02133217 -0.0024204878 0.004883991 0.0066950195 0.002847037
0.018379433 0.010317979 0.02261936 0.04007449 0.0030831797 -0.004769956 -0.02193837 -0.023922
-0.01572164 0.009502901 0.03225665 -0.022502638 0.015174747 -0.01077371 -0.01015623 -0.007827088
0.0054038283 -0.0134458 0.005882028 -0.0048184223 0.008846993 -0.01986488 0.0072569973 0.016589863
-0.012910892 -0.015228217 0.018912515 -0.016242053 -0.011279329 0.026067877 -0.0046103424 -0.011932289
-0.016110213 0.032195553 -0.028251423 0.006167118 0.0025258127 0.024660397 0.0125668775 -0.0115252
0.020156492 -0.010135044 -0.011686598 -0.03534694 -0.005276333 0.0052844095 0.0031113254 -0.021988219
0.00053792313 0.015460243 0.03626366 0.030644543 0.0025803465 0.01946892 0.015927296 0.010495208
0.00033875622 -0.016157486 0.014889561 0.008805263 0.008660638 0.0138123995 -0.021098135 0.018228242
0.023055334 -0.022385964 0.018167343 -0.019573513 0.0023648664 0.0061573526 0.017478786 0.012686444
0.021749891 -0.017374896 -0.00647045 -0.019175934 0.005136965 -0.03535533 -0.027453497 0.0050010215
0.028943384 -0.012482908 -0.020441182 -0.008825158 -0.010610903 -0.0016764066 0.008501984 -0.0075514596
-0.011698315 0.02539696 0.040578343 -0.002223957 -0.002824033 -0.0014453892 -0.01027069 -0.006560983
0.013165151 -0.011354932 -0.0069132815 -0.010936268 -0.006100979 -0.011557298 -0.006247865 -0.0027350434
0.020301845 0.017386027 0.007425703 0.008344428 0.0138821425 0.0026129314 -0.0015474996 0.020516664
-0.014152493 -0.023807643 -0.0053098695 0.016878603 -0.035122283 -0.027744405 -0.0035872813 0.008297146
0.013551621 0.021694103 -0.026643243 0.011991545 0.0037973935 0.009319577 0.01961887 -0.0032886446
6.2714345e-05 0.006580964 0.033136588 0.013851532 0.019702878 0.008932814 -0.015582259 -0.012692024
-0.01122615 -0.027980419 0.0103834085 -0.007947794 -0.014006379 -0.0019193437 0.018968878 -0.01633764
0.02090759 0.023295151 0.01780037 0.020982573 -0.0031635663 0.022949314 0.011823213 -0.007370388
0.0059771314 -0.009443417 -0.013948428 -0.028750118 0.014960383 0.005004675 0.041680437 -0.0015273201
0.0017537103 0.002052013 0.009933948 -0.0068536904 0.019428782 -0.026086628 0.017142685 0.01690016
-0.00670868 -0.014955139 0.008953338 -0.017932061 -0.01762473 0.0008602691 0.01481439 0.006370367
0.0154204285 0.012108924 -0.0019823434 -0.023933524 -0.00415004 -0.007688744 0.013478358 0.019506428
-0.014234788 -0.00520504 -0.0038912154 0.028796647 -0.02636449 -0.0018069799 0.003258679 0.029136637
0.02898813 -0.009305891 -0.016583366 -0.01998774 -0.00036920904 0.023923788 -0.015839992 0.017550528
-0.017864155 0.0340492 -0.0006894804 -0.01837375 0.010316071 -0.0019854712 0.022470795 0.008613597
-0.014904997 0.006009415 0.0015464656 0.014536136 0.0031718744 -0.014577572 -0.0012297097 -0.0073703863
-0.011348622 -7.9142446e-05 -0.03592666 -0.009234826 -0.0046936744 -0.016374165 0.003100915 -1.7107544e-05
-0.01660696 -0.0041055856 -0.012842935 0.02480574 0.009517788 -0.014450221 -0.0036257189 0.004230564
0.020644855 0.009699168 -0.0028821016 -0.02136193 0.002951661 -0.012607 -0.0040123896 -0.038927417

network_body._body_endoder.seq_layers.0.bias f4 [256]
00000000: 7694 f93c e91f 8dbb 4804 fbbc 988e 943d
00000010: 699d ccbc 64d4 0dbd 7224 2bbc 13f0 ebbc
00000020: d5dc cbbb c901 b9bc 009c d0bc 893e 3dbb
00000030: f64e 9f3c 3d82 37bc 766f 223c 387b 643c
00000040: a681 323c fc3d 583d 1094 d63b 5d63 a23b
00000050: e711 ce3c b985 283d 4673 05bc 7b78 67bb
00000060: 5125 9f3c 7ffb a73b 05ed 123d c6a4 d6bc
00000070: e464 36bc 1091 76bc 620b c3bc 4bca e93c
00000080: 11b3 623b d98f 2c3c 2f18 853c b0ba 19bc
00000090: 02a7 fb3b 1701 cf3b f126 0f3d 95f6 d0bb
000000a0: 16a7 a7bb e228 51bc c04a f2bc dc22 b1bc
000000b0: caca 43bc 7219 f5bc 2e48 47bb 2147 8abb
000000c0: 4579 7fbc b38d 8ebb 3da5 14bc a8d4 b03c
000000d0: f262 2e3a 9108 803c 8407 bcbb 1d2c 883d
000000e0: 0e6b 163c cabf 963c 491d bbbb 1dd7 043d
000000f0: b29c 223a 43c5 7bbc 8448 9fbc 49b9 14bc
00000100: caa7 abbc ad64 2abc 0880 543d c94e f2bc
00000110: 98ed 8e3d 53cf eebc e094 87ba 5fae cd3c
00000120: 247d df3c 9172 0c3c 39df 4abc 12ec 95bc
00000130: 0c91 01bb 8d24 09bd d493 283b be1a 9bbc
00000140: d0ed 1c3c 00bd c13c 9c0f 19bc 64d2 343d
00000150: 6a3a 873c 8faa f33c 3f7b 14bd 0225 263c
00000160: 7e26 333c 35d7 b5bc 325c 153c d53c bcbc
00000170: a767 a43c 2a7e f63c c469 d6bc 9562 313c
00000180: b67a 2b3c 0fc3 a9bc e104 3ebb 446b b8bc
00000190: 4ddb 2a3c 845e 1e3c 8f75 05bd 113e be3b
000001a0: c554 be3b 185b b3bb 5e41 c53b 606d 11bc
000001b0: acd8 bb3c e94c 80bc 4e04 263c e9a0 96ba
000001c0: 861a 95bc aae2 123c f856 823b 6a4e a1bc
000001d0: b334 b1bc a20d 0cbd 31dd 13bc 7b0a 0bbd
000001e0: afd5 65bb bd27 39bc 296b 033d eb9d 4c39
000001f0: ee46 993c ca12 4cbb 1408 8b3b 8840 c2bb
00000200: dc54 09bc ad63 083b b321 a53c 9d84 43bc
00000210: 5bd1 743b 2d5b ac3a a0f7 193d 001a 83bc
00000220: 645c 063d 7ad9 64bc 6f61 cfbb 0a0b 74bc
00000230: 4699 8d3c 2787 9fbc 6cda 8abc c355 a53c
00000240: 57ed 21bc f29b f03b a307 2d3b 48f4 0c3d
00000250: 094e a9bc 4164 abbc 6b58 883c 044c a2bc
00000260: 5f08 9fbc 02ea 0f3c d403 2dbc cad3 53bc
00000270: 6924 3fbc 8d05 9d3c 2aa2 4bbc aad5 bbbc
00000280: 175c 43bb 8fce ad3c 6fb3 1fbc 1add 2d3c
00000290: b67e 11bd b22f b4ba 5b63 eb3c 453a 57bb
000002a0: 9fbb d03b 7471 fdba d022 0438 f2ba 543c
000002b0: 906b 333c 8c75 973c f511 a33c db95 5e3c
000002c0: eb25 f0bb e699 24bc 9561 92bc b7d0 47bc
000002d0: fac3 e3bb 4baf 73ba 8ad5 a7bc 62c4 33bc
000002e0: 4723 b5bb ac74 bebc 41a3 3d3c 5545 4abb
000002f0: 1bdd 8bbc 5ca5 ebbc 5c68 9d3b 1dd6 3e3c
00000300: 39b0 4cbc fc3c 1abc 80e9 83bc c453 ddbc
00000310: db5f 04bb 856d e83a 6a6d 643c c000 8cbc
00000320: 3091 de3c 0a45 f63b 7f72 61bc 687d 7fbc
00000330: 5a90 0bbd 3322 e8bc 6f1a 0cbd d81a a0bc
00000340: 0c5e 62bc ca7e c1bc 5a39 86bb 7c15 43bc
00000350: ab91 71bc 327b 2d3c d763 213d 77b8 8abc
00000360: d218 b2bb bcce 053d d8b2 993c 1e9b 91bb
00000370: 6ae1 a3bb f081 9dbc 275d cbbb ab21 573d
00000380: 39fa b03b 41fd 443c 9e80 983b 4fff 1e3c
00000390: e1ea 493c 29e8 f03c d905 023d 71f2 79bb
000003a0: 79a1 623c fcf9 a1bc e6da dfbc a36f b13a
000003b0: 538f e3bc 7d0f 7e3b dd69 76bc f8e5 37bc
000003c0: d5fa 45bd 0bcd 20bc e1be 54bb 64f0 14bb
000003d0: f70a 08bc f436 3fbc 1015 9a3c 15d5 963c
000003e0: b2e1 bbb8 1afb dfbb 7b08 e5bc 4a48 963a
000003f0: 3856 7c3c b196 17bc 163f 9c3a ea15 97bc
0.0304663 -0.0043067825 -0.03064169 0.0725376 -0.024977403 -0.03462638 -0.010445701 -0.028801
-0.0062213936 -0.022583859 -0.025465012 -0.0028876385 0.019446831 -0.011200485 0.00991427 0.013945393
0.010895168 0.052793488 0.006548412 0.0049556927 0.02515502 0.041143153 -0.008145159 -0.0035319615
0.019426974 0.005126416 0.03587057 -0.026201617 -0.011132453 -0.015049234 -0.023809139 0.028538844
0.0034591595 0.010532343 0.016246883 -0.009382889 0.007679821 0.0063172686 0.034949247 -0.006377051
-0.0051163537 -0.012766095 -0.02957666 -0.021623068 -0.011950204 -0.02991936 -0.0030408013 -0.004219905
-0.015592878 -0.004350388 -0.009072599 0.021585777 0.0006652317 0.015629085 -0.0057382006 0.06649039
0.009180797 0.018401999 -0.005710278 0.03243171 0.0006203159 -0.015366855 -0.019443758 -0.009077379
-0.020954031 -0.01039998 0.051879913 -0.029578583 0.06978911 -0.029151594 -0.0010344051 0.02510756
0.027281351 0.008572237 -0.012382322 -0.018301044 -0.0019770293 -0.033482123 0.0025722878 -0.01893365
0.009578183 0.023649693 -0.0093421005 0.044145957 0.016507346 0.029744415 -0.03625035 0.010140659
0.01093447 -0.022197345 0.009116219 -0.022978226 0.020068957 0.030089457 -0.02617348 0.010826726
0.010466268 -0.020722894 -0.0028994607 -0.022512086 0.010428262 0.009666089 -0.032582816 0.0058057387
0.005808445 -0.0054735057 0.0060197553 -0.008876175 0.022930466 -0.015661674 0.010132862 -0.0011492047
-0.018201124 0.008965174 0.0039776526 -0.019690711 -0.021631574 -0.03419269 -0.009024904 -0.03394554
-0.0035069992 -0.011300978 0.032084618 0.00019513785 0.01871058 -0.003113913 0.0042429063 -0.005928103
-0.008382048 0.0020811365 0.02015767 -0.011933473 0.003735623 0.0013149731 0.03758967 -0.016003609
0.032802954 -0.013967866 -0.0063287537 -0.01489521 0.017285 -0.019473625 -0.016949855 0.020182496
-0.009883246 0.007342809 0.0026402257 0.034412652 -0.020667093 -0.020921828 0.016643723 -0.019811638
-0.019413171 0.008783819 -0.010559995 -0.012928912 -0.011666396 0.019167686 -0.0124288 -0.022929031
-0.0029809528 0.021216659 -0.00974737 0.010611797 -0.03552123 -0.0013747124 0.0287339 -0.0032841128
0.0063700224 -0.001933618 3.1503674e-05 0.012984024 0.010950938 0.018488668 0.019906024 0.013585533
-0.007328739 -0.010046458 -0.017868796 -0.012195758 -0.0069508525 -0.0009295835 -0.020487566 -0.010972114
-0.005527887 -0.023248993 0.011574567 -0.003086408 -0.017073205 -0.028765373 0.0048037004 0.011647728
-0.012493187 -0.009413954 -0.016102552 -0.027017482 -0.0020198736 0.0017732835 0.013942102 -0.017090201
0.02716884 0.0075155543 -0.013760208 -0.015593864 -0.03407321 -0.02833662 -0.034204897 -0.01954405
-0.013816368 -0.023620028 -0.0040961923 -0.011906978 -0.014744203 0.010588454 0.039401855 -0.016933663
-0.0054350877 0.03266786 0.018762037 -0.0044435402 -0.0050012367 -0.019226998 -0.006206173 0.052522343
0.0054009226 0.012023271 0.0046540042 0.009704425 0.012324066 0.029407578 0.031743858 -0.003813889
0.013832443 -0.019772522 -0.027326059 0.0013537299 -0.027778303 0.0038766556 -0.015039888 -0.011224262
-0.048334915 -0.009814511 -0.0032462406 -0.0022726292 -0.0083033955 -0.011670817 0.018808872 0.018412152
-8.958894e-05 -0.0068353536 -0.027958145 0.0011465636 0.0154014155 -0.009252236 0.0011920657 -0.018443067

network_body._body_endoder.seq_layers.0.weight f4 [256, 13]
00000000: 42a6 033c 9915 efbe 46e7 4cbd a619 4c3e
00000010: 5a44 4a3e ad46 0b3d 7584 733e eda9 de3e
00000020: 19fe 07bf 6042 393e 2343 3b3f 61e1 123e
00000030: eb1e b7be d596 443e 82b8 ddbe bb43 10bd
00000040: 590c f43d a7d5 4fbd 6e5b 67be ecc6 d1be
00000050: 41d3 393c 808d e63e f0a2 21be 83b2 18bd
00000060: 6b10 0abe 0391 563e a426 38bf 0afb a5be
00000070: c475 043e 9c05 ff3e f2b8 c73e 5078 003f
00000080: 47c9 e03e adff d23e 113d 873e 8ae1 6b3e
00000090: 06a6 da3e 5141 1f3d 1272 3bbc 47f6 cb3d
000000a0: 58cd 223e 536f 8fbc 51c7 cb3d 4602 9abe
000000b0: d6dd 9dbe a67c acbe 6278 90be 74a4 22bf
000000c0: 9121 be3e 7069 243e e620 cd3e 5795 d1be
000000d0: c4bb 8f3d ec32 593e 4151 c5bd 0445 7ebe
000000e0: 2b94 89be 39ab c4be 89c9 a8be b257 abbe
000000f0: f227 8cbe f125 1e3e 2325 b9bc c4df 283e
00000100: ac4b 503d 0636 18bd d6f8 9e3d c406 93be
00000110: 5fde bcbd 3b6e cf3e 4906 a6be 8342 d13d
00000120: 1aa9 4e3e bab8 0c3e 038b d2be b90e f8bd
00000130: 477a 103e 54e9 24be c063 9abe ba44 9ebe
00000140: 7ad6 65be 65fe b93e ef3e e9bd 9132 2a3f
00000150: 5b3d c0bd f784 7fbd 58da 8cbe d374 7c3d
00000160: e1ec 4f3e 8307 ec3e 666f 88be 4321 13bf
00000170: 4b23 79be 7158 56be 2e7d 873e fd99 06be
00000180: 6e7d 2dbe b64a ebbe b78a 77bc e3ef 893e
00000190: eae9 6bbe e69a a6bd b508 9e3e 77c8 02be
000001a0: b70d 63be e5ba c33e 29d7 a83a 0981 863e
000001b0: ac31 8bbd 9fa2 1dbf c6a3 843e 72a2 be3d
000001c0: c7cd 2d3e 2cbb 13bf 2a33 613d a54f 9b3e
000001d0: 8d8a 1d3f a181 04bf 5c1d a4bd 280e 14be
000001e0: 816c 48bd 2fbc c53d ee5c b23d 4589 d8bc
000001f0: 7aff 973e fadb 113e 7611 283e b45a bc3d
00000200: d88a 7d3b f2fe 713e 6e02 973e f7a9 513e
00000210: 9b90 e3bd 4d1f 49be dac7 413d 4846 8fbe
00000220: 983f bcbe 87f7 82be 37c2 173e df72 f63d
00000230: f61a e0bc 7529 ecbe aae0 c43e 0ad0 b7be
00000240: 7d85 a23d 693e ac3d f35b 9ebc 8ca9 03be
00000250: fb3e 6a3e f800 84bb 1021 8d3e 9baf 9c3e
00000260: a8b7 d2be f8d4 d8bd 6ab9 c0bd 50e0 27be
00000270: 8d69 b2be d247 5a3d 48dc a8be 09de a53e
00000280: f47d 603e e1e1 c83e d0b9 3d3e dbe1 243f
00000290: 920e bb3d 74a3 053e 8ed3 ea3d 0ff4 273f
000002a0: 0ec6 b8be 1302 293e 4747 5b3e e924 4ebe
000002b0: b845 d63d f830 5f3d 5a95 b43c 44a0 00be
000002c0: 69d1 c6be a9f1 d63e c803 96be 3138 f23e
000002d0: 568b 44be 91e3 e83e 4a4f 903d 725a d7bd
000002e0: eebb 9cbe 0aae 14bf 3337 033f 3e70 d63e
000002f0: 143b c43d e50c bebd 60fd 0cbd a1f5 773e
00000300: 0474 1abf 534d 293e 1570 0f3e 822c 44be
00000310: ebd6 2c3e 9ba7 953e 6c55 f63e 4a74 6ebe
00000320: 9600 94be 30c7 6fbd 9fd1 f93d e0b6 6cbe
00000330: ba1d 1bbe 789a c33e d7cf 2fbc dfc3 193e
00000340: ca61 063e ec9a 533e 14c2 debd 2e2d e03d
00000350: a240 623e 0988 7a3b ebaa dcbd ccc0 7a3e
00000360: 7b31 e1be 15bd 74bd 6674 843d 0db7 443e
00000370: 613e 83be dd59 7e3e 84c4 0dbd 2cc9 afbe
00000380: cfe6 ab3c 87cc 343d 6186 093f e25a 393e
00000390: 2d01 6a3e ca63 a43c 9214 ad3e f5f2 fc3e
000003a0: 8b2b 853e 48f4 e83e 099a ae3e bd13 bf3d
000003b0: 18cd 0bbe 95a4 ed3e 1d77 523e 83ae 07be
000003c0: 71c9 563f b8d2 ee3e fb5e d4bd f4c5 25bf
000003d0: fd0f 393d 4714 f43e 51a4 d63d dee9 8fbd
000003e0: d723 943e af1b f9be e178 22be ed9d de3e
000003f0: b92e 98be b456 02be 123e b0bd 3c68 57be
0.008035244 -0.46696165 -0.050025247 0.19931659 0.19752637 0.03400295 0.23780997 0.43489018
-0.531221 0.18091726 0.7314932 0.14343788 -0.35765776 0.19198163 -0.4330483 -0.035220843
0.11916418 -0.050740864 -0.22593471 -0.40972078 0.011341871 0.4502983 -0.15784812 -0.037279617
-0.13482825 0.20953755 -0.7193396 -0.3241809 0.12935549 0.49808967 0.3900829 0.5018358
0.43903562 0.4121069 0.26413777 0.23035255 0.4270479 0.03888065 -0.011440771 0.09959083
0.15898645 -0.017509138 0.09950126 -0.3007986 -0.3083331 -0.3368885 -0.28216845 -0.63532186
0.37134984 0.16055846 0.40064162 -0.4093425 0.07018235 0.21210831 -0.096346386 -0.24831015
-0.26870856 -0.38411883 -0.3296626 -0.33465344 -0.27374226 0.15444161 -0.022600716 0.1649161
0.050853416 -0.037160896 0.077623054 -0.287161 -0.092221014 0.40513787 -0.3242667 0.10217764
0.20181695 0.13742343 -0.41121683 -0.12112183 0.14109145 -0.16104633 -0.30154228 -0.3091181
-0.22445098 0.363269 -0.11388957 0.6648341 -0.093867026 -0.062382665 -0.27510333 0.06163485
0.20305206 0.4609948 -0.2664749 -0.5747263 -0.2432987 -0.20932175 0.26462692 -0.1314468
-0.16942379 -0.45955437 -0.015108756 0.26940832 -0.2303845 -0.08135013 0.30866018 -0.12771784
-0.221732 0.38228527 0.0012881506 0.2627032 -0.067965835 -0.61576265 0.259062 0.09308328
0.16973029 -0.57707477 0.054980434 0.303342 0.61539537 -0.517603 -0.08013412 -0.14458525
-0.048931602 0.09655034 0.08709131 -0.026432643 0.296871 0.1424407 0.16412911 0.09196988
0.0038687494 0.2363241 0.2949404 0.20474993 -0.11111566 -0.19640847 0.047309734 -0.27983308
-0.36767268 -0.25579473 0.14820181 0.12033629 -0.027356606 -0.4612538 0.38452655 -0.3590091
0.07935617 0.08410341 -0.019330954 -0.12857646 0.22875588 -0.004028436 0.27564287 0.30602726
-0.41155744 -0.105874956 -0.09410365 -0.16394162 -0.34846154 0.05329115 -0.3298056 0.32395962
0.21923047 0.39234832 0.18527913 0.6440713 0.091336384 0.13050634 0.11466132 0.6560678
-0.36088604 0.16504698 0.21413909 -0.20131268 0.104625165 0.05449006 0.022043873 -0.12561136
-0.38831642 0.41981247 -0.2929976 0.47308496 -0.19193777 0.4548612 0.07046373 -0.10515298
-0.3061213 -0.5807806 0.512561 0.4188251 0.09581581 -0.09279803 -0.034421325 0.24214794
-0.60333276 0.16533403 0.140076 -0.19157603 0.1687886 0.29229435 0.48112047 -0.23286548
-0.28906697 -0.05853957 0.12198185 -0.23116636 -0.15148059 0.38203788 -0.010730705 0.15016125
0.13123241 0.20664567 -0.10876861 0.10946117 0.22094968 0.0038228056 -0.107747875 0.24487609
-0.43983063 -0.059750635 0.06467514 0.19210453 -0.2563353 0.24838968 -0.03461124 -0.3433317
0.020984082 0.044140365 0.5372067 0.18101075 0.22852011 0.020067114 0.33804756 0.49404112
0.26009783 0.45498872 0.34101894 0.09329937 -0.13652456 0.4641463 0.2055325 -0.13250165
0.83901125 0.4664514 -0.103696786 -0.6475518 0.045181263 0.4767172 0.104805596 -0.070270285
0.28933594 -0.48653933 -0.15866424 0.43479863 -0.29723147 -0.12728387 -0.08605589 -0.21035856

network_body._body_endoder.seq_layers.2.bias f4 [256]
00000000: 8865 79bc b598 17bc 13d1 fcbb 27b7 e23c
00000010: 8bb9 ddbb 6f1b 53bb a49d 31b9 bfd1 4dbc
00000020: c3ad 8fbc a758 54ba 4706 143c 5547 d9bc
00000030: 4685 1bbb 7ca3 e1ba cdbf 11bd 9ce5 91bb
00000040: 498c e7bb 37cf 263b ab7b e7ba 1b31 9b3a
00000050: 1843 94bc ae94 a3bc 8ee0 02bc 4f20 5dbc
00000060: 3431 e1bc 94cf ccbc 1ad1 073c 9864 193d
00000070: ed14 ddba f873 bb3b 3d12 a239 31e2 3bbc
00000080: 040f ea3b 813d 18bc 0f22 96bc a120 bebc
00000090: c3e8 71bb 9365 63bc 7436 d03c 6a82 2d3c
000000a0: 9217 243a 8e29 acbc d761 a8bc 50d5 af3c
000000b0: 428b 11bc 2e87 7d3b 718a 52bb 3c56 61bb
000000c0: 4353 92bc c4ef 2dbb 3f2d 83bc e831 c2bb
000000d0: 5c60 febb 2eb7 623c 13e1 54bc ccbf 8aba
000000e0: 0fa3 36bc 4d84 cd3b 6a23 abbc c17d 9ebc
000000f0: f395 123b 6c19 67bc ed6a 523c bf9c 653c
00000100: 32b7 81bc f72b 633c dfe2 f13b e6ef 96bc
00000110: 079d 6e3c b350 cdbc 900d e63a b98c b6bc
00000120: a935 f73a dccf 6e3b 3974 9c3c c56c f9bb
00000130: e5d2 fbbb 8313 873b 564e c1bc 4ed2 d83b
00000140: d4b6 c3bb 61e3 93bc f09f 86bb 2234 983c
00000150: a851 433c 3ff3 03bc 1cf3 cfbc ebe4 aabb
00000160: b7ea 013c 4d84 10bb 7345 dc3b 3e60 50bb
00000170: 0661 943c 054b 563c 3a14 56bc 0924 253b
00000180: b26d 013b bdaf 6dbc f9d0 873c d591 6fbc
00000190: 9dec 22bc b0a7 e23c 92cb 1fbc b1bf 1bbb
000001a0: f62f a1bb d087 583a 18c3 dbbb e090 3dbb
000001b0: 9c00 09bc 52fa 433b d64a 5abb 5d4a ccbb
000001c0: ac25 1d3b 1793 a0bb 8507 24ba 5bd1 f63b
000001d0: df0a 393b 14b2 72bc 6530 ae3b bded 92bb
000001e0: 90b5 913c e55e 563c 750a afb8 71ad 753b
000001f0: a0d6 a2bc e259 683c b487 393c 5bb0 5d3c
00000200: eb88 6a3c 96c4 67bc c92d 583c 2028 c1bb
00000210: 3aaf 3dbc a66c 7f3a 7f84 eabc 5dbd 233c
00000220: f622 8fbc 8a0e c23b 3419 9d3b 66a8 8c3b
00000230: e1c7 5bbc ac14 c6ba 25e3 efbc 5b06 2c3c
00000240: b232 4e3c 3da1 8c3c d70e efbc ed27 e1bb
00000250: 1a68 313c 0216 3fbc ff0b 103c 30c7 0abc
00000260: 96ed 15bc 9e7f 11bc f1c9 a7bc 9e46 4f38
00000270: f0d2 6f3c 4c45 15bc 2cf4 17bb 0bef 66bc
00000280: 2030 febb 7d9f a5bb 34d4 103c 93fb 003c
00000290: e6b5 283c 5fbb a33c 7a3d 09bc d51a 803c
000002a0: cf97 903b fda6 7b3b c3f8 9abc 47ad 333c
000002b0: c7d8 80bc 56a7 a13c 123d b6ba 22e7 393c
000002c0: 2e32 f83c b3e1 7f3b 1314 06bc ab86 0c3c
000002d0: 597f fdba 939d 9b3c b98c 6dbc 99eb 083d
000002e0: 9c85 7a3b c7fc 13bb e0cc 0dbc d244 073c
000002f0: 77cc 8abc 0a73 15bc b62c 9d3c 3e5b b63c
00000300: d52b ea3c 706c 85bc 384e 3cbc c688 a93b
00000310: 3b83 3bbc 71dd b4bb e4f6 aebc 917d 5fbc
00000320: c787 a83a 37c3 ce3b 8344 a1bb 8d11 81bc
00000330: 401e e6bc f59f 87bc aff0 d5bc 5d67 8c3c
00000340: e8ac aebc c820 cf39 b524 06bc 6ed8 da3a
00000350: 25f4 523b fbcf aa3c dd24 353c 8586 f1bb
00000360: 5d24 82bc 2869 f8bb 21e0 9a3b 6eea af3c
00000370: d6eb 8e3a 9ecc a5bc 0e12 8bbb b013 533c
00000380: 4263 fe3c 4173 b53c 1151 b73b e738 edbb
00000390: fb7d 3bbc b319 1dbc f504 97bc ffca f93b
000003a0: 871a e2bc 24af 89bc 462e 0bbb 93ba 24bc
000003b0: 9c52 13bc 0349 593c 60a2 a4bc b071 ebbc
000003c0: b4c8 38bc a44a 1e3c e699 20bc 1eae be3c
000003d0: 55d6 a3bb fb6a e53a 5ad7 22bc 7878 22bb
000003e0: d3ff ff3a b846 d9ba feba 1eba f8c3 213c
000003f0: 2ade 6a3c f729 393b a1d8 28bb 3a31 9fbc
-0.015221961 -0.009252717 -0.0077153533 0.027675224 -0.006766503 -0.0032212397 -0.00016938761 -0.012562214
-0.01753891 -0.00081003684 0.0090347 -0.026523272 -0.002373056 -0.001721486 -0.035583306 -0.0044524204
-0.007066284 0.00254531 -0.0017660757 0.0011840196 -0.018098399 -0.019968357 -0.007988108 -0.0134964725
-0.027489282 -0.025001325 0.0082896 0.03744945 -0.0016867198 0.0057206117 0.00030912636 -0.011467502
0.0071429033 -0.009292007 -0.018326787 -0.023208918 -0.0036912418 -0.013879198 0.02541659 0.010590175
0.0006259616 -0.021015909 -0.020554466 0.02146402 -0.008883299 0.003868531 -0.0032125975 -0.0034383675
-0.017861968 -0.0026540617 -0.016012786 -0.0059263594 -0.007762952 0.013837619 -0.012993115 -0.0010585724
-0.011147275 0.006271875 -0.02089091 -0.019347074 0.0022367209 -0.014105182 0.012842876 0.014014422
-0.015834425 0.0138654625 0.0073817815 -0.01842494 0.014563805 -0.025062894 0.0017551649 -0.022283899
0.0018860596 0.0036439812 0.019098388 -0.0076118433 -0.0076850527 0.004122199 -0.023596924 0.006616867
-0.0059727225 -0.018052759 -0.0041084215 0.018579546 0.011921324 -0.0080536 -0.025384478 -0.0052152774
0.007929496 -0.0022051514 0.006722146 -0.0031795646 0.01811267 0.0130794095 -0.013066346 0.002519848
0.0019749221 -0.014507231 0.016579138 -0.014622171 -0.009944108 0.02766785 -0.009753125 -0.002376538
-0.0049190475 0.0008259984 -0.0067066066 -0.0028925464 -0.008361962 0.0029903841 -0.0033308766 -0.0062344507
0.0023978753 -0.004900347 -0.0006257224 0.0075322813 0.002823524 -0.014812965 0.0053158277 -0.004483907
0.017786771 0.013084148 -8.346598e-05 0.0037487412 -0.019877732 0.014181586 0.011323858 0.013530816
0.01431487 -0.014145991 0.01319451 -0.005894676 -0.011577422 0.0009743668 -0.028627632 0.009993878
-0.017472725 0.0059221433 0.004794264 0.0042925356 -0.013414354 -0.0015112362 -0.029283116 0.010499562
0.012585329 0.017166728 -0.02918188 -0.0068712146 0.010828042 -0.011662962 0.008791923 -0.008470342
-0.009150883 -0.008880524 -0.020482035 4.9418413e-05 0.014637694 -0.00911076 -0.002318631 -0.014095078
-0.007757202 -0.005054413 0.008839656 0.00787248 0.010297274 0.019986806 -0.008376474 0.015637795
0.0044126282 0.0038399093 -0.018917447 0.0109666055 -0.015728367 0.019733112 -0.0013903698 0.01134661
0.030297365 0.003904444 -0.008183497 0.008577029 -0.0019340321 0.018996036 -0.014498883 0.03342781
0.003822661 -0.0022581087 -0.008654803 0.008256154 -0.0169432 -0.009121666 0.019186359 0.022260305
0.028585354 -0.016287059 -0.011493258 0.0051737754 -0.011444862 -0.005519562 -0.021357961 -0.013640777
0.0012857848 0.0063098925 -0.0049214973 -0.01575544 -0.028090596 -0.016555766 -0.026115743 0.017139131
-0.021322682 0.0003950654 -0.008187463 0.0016696581 0.0032188979 0.020851126 0.011056152 -0.0073707723
-0.01588648 -0.007580895 0.0047264253 0.02147409 0.0010904025 -0.02023917 -0.0042440956 0.012883112
0.03105319 0.022149684 0.0055943807 -0.0072394493 -0.01144361 -0.009588647 -0.01843498 0.007623076
-0.02760054 -0.016807146 -0.0021237298 -0.010054248 -0.008991864 0.013262036 -0.020096958 -0.028740734
-0.01127832 0.00966135 -0.009802317 0.023276385 -0.0049999156 0.0017503196 -0.009939039 -0.0024791043
0.0019531198 -0.0016576862 -0.00060550857 0.009873383 0.014335195 0.0028253773 -0.0025763887 -0.019432653

network_body._body_endoder.seq_layers.2.weight f4 [256, 256]
00000000: f2b9 d03c f4a7 b8bc c116 0c3d bf3f 06bc
00000010: 58c0 8f3d cd12 573d 3136 a23c 0b6f 48bd
00000020: b54e 5b3d 633b 453c eaad 6cbd 7085 483d
00000030: 7e68 763d c5ab 5bbd 7390 653d c59c 163d
00000040: c444 eabc 2cd7 ecbd 902c 81bd eec1 bebd
00000050: d1c4 1abd e557 0dbd e10e f63d 70ce 303d
00000060: e5cc 6a3d 1f2a 9d3c 99f7 69bd c1f1 363d
00000070: 0917 b73c fbc6 983d 772b 81bc ce3d cebc
00000080: 0a1f 84bc 961f 883c 18fc 8ebc 9bfd 09be
00000090: acde 9d3c 8f26 d0bd d903 13bb 899c e93d
000000a0: 8695 19bd 7be0 15bd 4b46 bd3b ebe2 fcbb
000000b0: 4586 3a3d 32ee a8bd 89e6 a93d a719 a6bc
000000c0: c13f 923d 26f2 983c cb21 b0bc 5e5d 0f3c
000000d0: 5e40 ccbc ea70 5e3d 75b7 15bd f7bf f8bd
000000e0: 1afb 28be 4df9 733d 5f11 cbbc 8115 efbd
000000f0: 1490 413d cfb9 d83d 4138 f73a 2cad 2d3d
00000100: c860 e63a a212 a8bc 4cd5 28bd 0f3a 7abd
00000110: d45d 23bc 9761 7a3d 4530 a83d 8813 90bd
00000120: 9676 6abb ef85 2abd 8dfd b13c 2cd2 213c
00000130: cb85 45bd 6dce 71bc 21ef 0abd eac4 943c
00000140: a64a cc3d ed72 b53d c019 44bd 25e4 98ba
00000150: 95b6 1bbd b81a f0bb 33e4 133c 96d7 6dbd
00000160: 5e5c 1fbd 345d a4bc 29ef 6e3c b775 b1bd
00000170: 07ce b13d ad14 773d 0798 b73d 1532 0b3d
00000180: ee31 7d3d 5f6f 24bd 1592 54bb 70d1 26bd
00000190: 94f5 c0bd 2b45 9c3d e7ee f83b 950f 463d
000001a0: 536e a73d 2916 3b3d fbb3 1dbd 7b43 d53d
000001b0: 5539 ddbc 725c 383d 0496 883c 7fea 30be
000001c0: f9e5 2f3c b426 81bd 9075 61bd cc01 463d
000001d0: 9b04 fd3d 315a 9b3d 7647 20bc ba52 d8bd
000001e0: 7785 823d 7b0a d7bd ddfa 493d e83b c2ba
000001f0: c8a7 1d3d 89ca 5d3d c5fc afbd 701b 7f3b
00000200: bf5c 68bc bfdd c6bd 68d2 04bd cec5 4cbc
00000210: 5cb8 9a3c ece0 d1bd 0432 d13d 2d2b 97bd
00000220: 73f5 8dbd 6ce9 a63c 7e54 a3bd 630e 4abd
00000230: 5a56 eebd f22d b53d d4b3 adbc d6c0 ae3c
00000240: 96b7 a33c 6b83 d7bc 1565 85bd deed 9d3c
00000250: c78c 773d cfbe 5bbd 5838 5dbc 47d4 8c3d
00000260: 1392 713d 7aef 243d 03ef 58bd acf9 5cbb
00000270: 5404 9b3d 1095 11bc fc68 4e3c 393e 00bc
00000280: 8ef0 963c 24c3 f2bd 710e 033d d231 473b
00000290: 736e 373d be4b 6f3d 7954 b53d 7e5a cd3d
000002a0: 216a f63c e951 a93d 7acc 113b 332b 53bd
000002b0: c2d5 abbd aac8 7c3c 7bf9 2c3d 5674 093c
000002c0: df9f 5d3d adf5 9bbd c964 3c3d c296 32bd
000002d0: d723 823c 6bd8 fabb 3aae c3bc b665 89bd
000002e0: 7393 2bbd 0e1a 913c b9d2 c7bd 9eaa ac3d
000002f0: d8c7 c33c fa37 4cbd 2307 59bd 06a0 d539
00000300: c478 c2bc 9ef4 4c3d cb48 a83c f5d2 143d
00000310: b59c 03be cc1b 393e a96b 1dbc 642a 36bc
00000320: 2f35 e03c b3f9 50bd 05a8 1fbc 736e fb3b
00000330: a530 3c3d 8354 d1bb 15b1 ca3c 12fb 0ebd
00000340: b4f5 38bd 49d2 c53b a827 debc a1e0 013d
00000350: 471e 0f3d f433 78bd c76b bfbd 5e31 683c
00000360: 45cb f1bb 710f 973d f734 c43c 9d21 1a3d
00000370: 702e 91bd 7d86 963d ed36 483d 59af 4cbd
00000380: 37b2 0c3e da74 6dbd 05e4 523d a00e 82bd
00000390: 991a 7abd 691f ab3c 88a5 65bd f06a 133e
000003a0: 9fa9 d8bb 4982 a0bd 2461 7abb 1b73 4a3d
000003b0: 403b cebd 43e3 f3bd 216b 423c 126b 2ebd
000003c0: f87f 44bc 3e49 193d bd48 633c 1b64 24bd
000003d0: b5f1 ed3b b7e3 353d 61d2 4ebd 421f 6abd
000003e0: 47a3 b93b dfdf 0dba b88d 753d 1c03 703a
000003f0: 4bdc 30bc cfb1 7dbc b88d 0c3e 705b 0cbe
0.02547929 -0.022541024 0.034201387 -0.008193909 0.070191085 0.052508164 0.019801231 -0.048934024
0.053541858 0.012038085 -0.057783045 0.04895538 0.060158245 -0.05363061 0.05604596 0.0367706
-0.028597243 -0.11564478 -0.06307328 -0.09314333 -0.037785355 -0.03450765 0.12014557 0.043165624
0.05732431 0.019185124 -0.057120893 0.04466415 0.022349851 0.074598275 -0.015767796 -0.025175955
-0.016128082 0.016616624 -0.017454192 -0.13475649 0.019271217 -0.101636045 -0.0022432713 0.1140681
-0.037496112 -0.036591034 0.005776202 -0.0077174804 0.045538206 -0.08248557 0.08295924 -0.020275904
0.07141066 0.018670153 -0.021500489 0.008750288 -0.024933036 0.054306902 -0.03655191 -0.121459894
-0.16502038 0.059563924 -0.024788557 -0.116740234 0.047256544 0.10582315 0.001886137 0.042401478
0.001757645 -0.020516697 -0.04121904 -0.061090525 -0.009971101 0.061128225 0.08212332 -0.07034975
-0.003577625 -0.041631635 0.021727348 0.009876769 -0.048223298 -0.014758688 -0.033919457 0.018160302
0.099751756 0.08859811 -0.04787612 -0.0011664672 -0.03801592 -0.007327404 0.009026575 -0.058066927
-0.038906448 -0.020063974 0.014583387 -0.086650304 0.08681875 0.060322452 0.08964544 0.03398331
0.061815195 -0.040145274 -0.0032435704 -0.04072708 -0.0942184 0.0763038 0.0075968388 0.048354704
0.081753395 0.04567543 -0.03850172 0.104132615 -0.027004877 0.045010038 0.016673096 -0.17276953
0.010735982 -0.0630621 -0.055043757 0.048341557 0.12354394 0.07585562 -0.009782663 -0.10562654
0.06373113 -0.10500046 0.049311507 -0.0014818879 0.038490087 0.05414823 -0.08593134 0.0038926266
-0.014182269 -0.097102635 -0.03242722 -0.012498332 0.018886738 -0.102479786 0.10214618 -0.07381282
-0.06931581 0.020374976 -0.079751 -0.049330126 -0.11637564 0.08846654 -0.021203913 0.021332186
0.019985002 -0.026307782 -0.065134205 0.019278463 0.06043699 -0.053648766 -0.013502203 0.06876426
0.058977198 0.040267445 -0.052962314 -0.0033718152 0.07569185 -0.008885637 0.012598272 -0.007827335
0.018425252 -0.11853626 0.031996194 0.0030394685 0.044783067 0.058421843 0.088540025 0.10027026
0.030079903 0.08267576 0.0022247122 -0.05155487 -0.083903804 0.015428701 0.04223011 0.008389553
0.054107543 -0.07615218 0.045994554 -0.043600805 0.01588623 -0.0076551936 -0.023886789 -0.06708853
-0.041888665 0.01771262 -0.09756989 0.0843098 0.023899004 -0.04985807 -0.05298532 0.00040745753
-0.023739226 0.050037973 0.020542523 0.036333997 -0.12852748 0.1807701 -0.009608188 -0.011118505
0.02736911 -0.05101938 -0.009744649 0.0076730787 0.04594483 -0.0063882484 0.024742642 -0.034907408
-0.045156196 0.006037031 -0.027118519 0.031708363 0.034940984 -0.06059642 -0.09346729 0.014171926
-0.007378968 0.07375992 0.023951037 0.037629712 -0.070889354 0.0734987 0.048880506 -0.049971912
0.13739859 -0.057972766 0.051486988 -0.06350446 -0.06106052 0.020889001 -0.056066066 0.14396262
-0.0066120173 -0.0783735 -0.0038204873 0.04942618 -0.10069895 -0.11908581 0.011866362 -0.04258258
-0.011993401 0.037423365 0.013872323 -0.04013453 0.0072614797 0.04440662 -0.0504936 -0.057158716
0.005665216 -0.00054120825 0.059949607 0.0009155737 -0.010794709 -0.015484287 0.13725936 -0.13706756

network_body._body_endoder.seq_layers.4.bias f4 [256]
00000000: c9a9 f5bb 8dc4 043c 77a4 673b f30a d6bb
00000010: 7efc eabc 8f9c 55bc 77c0 753b 28da 02bc
00000020: 6b34 93bc 7df1 ecbb c232 9939 6b42 1bbc
00000030: d517 8e3a a39f 4fbc 1fe3 85bb a221 8dbc
00000040: 9b43 86bc f111 80bc c667 8c3a 53c6 75bc
00000050: 48a8 86bc 2476 0abd bf26 4fb9 37ba 89bc
00000060: 9ba1 91b9 189d 803c 9b88 cabc a9e4 e83a
00000070: 2da3 8a3b 943a 0b3c 4894 b43b 2025 65bb
00000080: 5972 333c 7e2e dabb d63b e7bb 81ff 8e3b
00000090: db62 b1bc 922d 723b f957 03bb a0a5 c8bb
000000a0: 2384 813c f922 59bc 9ba6 a03c cdbd 2a3c
000000b0: e1b6 90bc 4c4d 0dbd ce37 8b3c 7c1b b5ba
000000c0: 0ae7 23bc 8592 b0bb 8106 3f3b 1b87 d8bc
000000d0: 7657 f3bb 1691 2cbb 831b 4cbc 46cf fbbb
000000e0: 1f97 d23b edc7 4f3c cbc2 9a3b 7989 4cbc
000000f0: d0c2 4ebc f2fd e7bc 20b9 e4bc fa40 4c3c
00000100: bdc4 34bc dd01 b03c 4013 07bb b309 d43c
00000110: 4bb5 7bbc 6d43 8fbc 91be 77bc 2d92 82bc
00000120: 665d 87bb d45b 8ebc d32a 693c d7e7 763a
00000130: b0a2 0abc 4619 bdbc 85ff 95bc 1daf 463c
00000140: d216 42bc 9c05 a4bc 4655 0c3b e9bf febb
00000150: 8f3f 7bbc 3e4d 24bc 0bb4 babb 15de 51bc
00000160: 7996 913c baaf 053b b4e3 77ba 7896 303c
00000170: e392 883c 66d0 f73b 689e 2cbb 57c9 143d
00000180: 7f8c 0c3c f94a 53bc 78c1 793c 01aa 433c
00000190: a669 4a3c e384 443b 4354 67bc faae 8ebc
000001a0: 9cae 01bc 1726 e7bb a3b9 b7bb a58c 983a
000001b0: bd8c a1bc 9cb4 2abc 3692 463b acb7 6f3b
000001c0: 2597 8e3c c25d 9fbc 78b8 04bc a2d8 b8bc
000001d0: 02e3 c5bc 9788 d33c 54bd 7ab8 6c40 dabb
000001e0: aeb9 6fbc 4a3a 05bc 7d0f af3b 81d8 94bb
000001f0: 4dbc 6d3c 32ef feba 27f4 89bc 370e c43a
00000200: f7be 3fbc 0e85 c13b ff8a 773a c13a 933a
00000210: 0ead 22bb 07b4 9fbc b9e4 903b 62eb 1fbc
00000220: 77cd 103c 8b21 0fbc bfe9 98bc 9700 e63c
00000230: 0ab8 c73c 8191 94bc 2aac afbb a2f3 2fbb
00000240: cb1d a2bc c6e3 c43b 81fa 10bb 9c81 873b
00000250: a87e 08bc 5871 543c c2db 803c d9cf 91bc
00000260: 4eb0 823c 6592 29bc 6ee1 7dbc 744c 9e3b
00000270: 5b8d 39bb bcf8 5e3b 9c34 613c feb0 91bc
00000280: 6cc8 bbbc 0b22 4abb 958a e13b 2fa0 8ebb
00000290: c299 c93b b540 87bc 680f d53c 0b52 643c
000002a0: 1bed 813b a9bb 6d3a 3b2a 11bc 0f6a eb3b
000002b0: 40f7 c53b 16ad 80bc 2c1d dcbb 0272 443b
000002c0: aaa1 24bc 5fb2 2d3c c767 79bc 295d 1c3c
000002d0: d6e8 d7bb cbf8 51bb 2916 70bb 7c25 d33b
000002e0: 9476 79bc 7bce 13ba 2833 8dbb ea85 c53c
000002f0: b266 04bd 5c85 ddbb 1da6 0c3c 5e28 e3bb
00000300: 069d 87bb 68e4 c63b 97a6 64ba 42a4 c2ba
00000310: df9b c3bb 2c29 83bc 95a4 efbb 0958 a9bc
00000320: ad1d 503c b22d 7abb 64c1 9fbc 31f2 50bd
00000330: 1e95 97bc b720 b73c 4756 06bc 0bad a7bc
00000340: 9645 d13b be69 25bc 7e9e 45bb d28d bcbb
00000350: 916e 0cbc f84d 38bc 5c5f 1f3c 5b5d 49bc
00000360: fb84 6fbc fc94 133c ba01 6bbc 4ada 093a
00000370: f745 10bc a5c9 82bc 6712 463a c97c 21bc
00000380: aefe 1bbc 0017 1c3c a02b 733a 2a72 56bc
00000390: c036 10bc 735e a0bc 0318 d63b c4be e3bb
000003a0: 79e1 673c ad21 daba 5af7 45bc 1723 5c3b
000003b0: 176b c03a 6949 61bb 5523 65bc 3f74 16bd
000003c0: 5d94 ae39 8517 17bc 09e7 87bb fafd e63b
000003d0: d3f7 45bc ee13 cebc 0543 44bc 3da0 2e3a
000003e0: 6be8 9dba f7c4 bdba d666 7f3c 6d11 80bc
000003f0: 9d0f 79bc 05c9 61bc 8920 943c 6348 2cbb
-0.0074970466 0.008103502 0.0035345831 -0.006532067 -0.02868485 -0.013037815 0.0037498751 -0.007986583
-0.01796933 -0.007230936 0.00029220252 -0.0094762845 0.0010840843 -0.012672338 -0.004085913 -0.017227951
-0.016389659 -0.015633555 0.0010712079 -0.015000897 -0.016437665 -0.033804074 -0.00019755492 -0.016812427
-0.0002777696 0.015699908 -0.024723342 0.0017768341 0.004230878 0.008497853 0.0055108406 -0.0034964755
0.010952556 -0.0066583743 -0.0070566935 0.0043639545 -0.021653583 0.0036953432 -0.002004145 -0.0061232597
0.015810078 -0.013252967 0.019610694 0.010421229 -0.017665328 -0.034497544 0.016994383 -0.0013817395
-0.0100038145 -0.0053885602 0.0029148164 -0.02643161 -0.0074261976 -0.0026331595 -0.012457731 -0.007684621
0.0064267064 0.012681943 0.004722928 -0.012483948 -0.012619689 -0.028319333 -0.027920306 0.0124666635
-0.011033234 0.021485263 -0.002061084 0.025883531 -0.015363048 -0.017488206 -0.015121118 -0.015938843
-0.004131007 -0.017377771 0.0142314015 0.0009418702 -0.008461639 -0.02308334 -0.018310318 0.012126711
-0.011846261 -0.020022206 0.0021413132 -0.0077743423 -0.015334978 -0.010028182 -0.0056977323 -0.012809296
0.017771946 0.002039893 -0.00094562327 0.010778062 0.016671604 0.007562685 -0.0026339535 0.036324825
0.008578419 -0.012896293 0.01524388 0.011942388 0.01235429 0.0029986433 -0.014119211 -0.01741742
-0.007915165 -0.007054101 -0.0056068464 0.0011638595 -0.01972043 -0.010419037 0.003029955 0.0036577983
0.017406056 -0.019453887 -0.008100621 -0.022564236 -0.024156097 0.025821967 -5.978097e-05 -0.0066605117
-0.014631672 -0.008131573 0.0053424225 -0.004542411 0.014510226 -0.0019449948 -0.016840054 0.001495785
-0.011703244 0.005905754 0.0009443014 0.001123272 -0.0024822387 -0.019495023 0.004421797 -0.0097607095
0.008838049 -0.008736025 -0.018666146 0.028076453 0.024379749 -0.018135788 -0.0053610997 -0.0026848097
-0.019789597 0.006008598 -0.0022121968 0.0041353237 -0.008330978 0.012966476 0.015729789 -0.017799305
0.01595321 -0.010349845 -0.015495641 0.0048308913 -0.0028313014 0.003402277 0.013745453 -0.017784592
-0.022922717 -0.0030843045 0.0068829753 -0.0043525915 0.0061523626 -0.016510347 0.026008323 0.013935576
0.0039650328 0.0009068796 -0.008860166 0.007184274 0.0060414374 -0.015707534 -0.0067173447 0.002997518
-0.010048309 0.010601609 -0.015222496 0.0095436955 -0.0065890355 -0.0032039161 -0.0036634302 0.0064436775
-0.015226025 -0.0005638373 -0.004309077 0.024111707 -0.0323245 -0.0067602824 0.008584526 -0.0069323024
-0.0041385917 0.0060697086 -0.00087223336 -0.0014849978 -0.005969509 -0.016010843 -0.007313321 -0.020671861
0.012702388 -0.003817421 -0.019501396 -0.05101222 -0.018503722 0.022354467 -0.008199281 -0.020468256
0.006386469 -0.010096012 -0.0030154283 -0.005754211 -0.008571283 -0.011249058 0.009727325 -0.012290324
-0.014619107 0.009007689 -0.014343673 0.0005258663 -0.008805743 -0.015965292 0.0007555843 -0.009856411
-0.00952117 0.009526968 0.0009276215 -0.013088742 -0.008802116 -0.019576287 0.006533624 -0.0069502313
0.014152878 -0.0016642116 -0.012082899 0.003359025 0.0014680353 -0.0034376031 -0.013985475 -0.036731955
0.00033298405 -0.009221916 -0.0041474146 0.0070493193 -0.012083012 -0.025155988 -0.011978869 0.00066614506
-0.0012047415 -0.0014478256 0.015588483 -0.01563331 -0.015201476 -0.013780837 0.01808192 -0.0026288263

network_body._body_endoder.seq_layers.4.weight f4 [256, 256]
00000000: e1b4 fb3d ae6a b5bd 1a1a 51bd fd73 dd3d
00000010: 870a a03c 16ca ff3c 7f66 473d 1a65 583d
00000020: 3c4b 5cbd 7781 c1bc 9d85 05bd 0042 663d
00000030: 2d4c 16be b956 123d 5054 913d 437d b4bc
00000040: e444 e7bd 1e9c ccba 4ebb 49bc 9f44 823d
00000050: 89cd 2c3d 6eeb 85bd 772a f23c a863 a43c
00000060: 5ed0 8fba fa92 13bd 827f 713d 7088 053d
00000070: 16b6 9abd 1be6 7cbd 8e54 b63c 86d3 a5bd
00000080: 7934 39bc 0979 e9bc 6378 e4bd c229 10bc
00000090: e968 6ebd f7d8 f93d c86a 81bd 42b2 943c
000000a0: 47c2 0a3d b810 203c d0a2 1ebc ab8e cdbd
000000b0: 4617 c3bc f035 193d 5ef2 76bd d3c3 dfbb
000000c0: 0da8 6e3b aedf aabd 179a 583d 78c1 37bd
000000d0: 21b4 853d e7ef c9ba 94be b83c 6742 abbd
000000e0: ddee 083e 36c8 9a3d 2f14 7abd caff 873c
000000f0: c89b 373d efcc 8abd 57f9 40bd 5eb3 e43c
00000100: 01a5 28bc 8538 003d 9759 3d3d b768 d23d
00000110: 6e6c d63d 36a5 a83d fc95 c03d d809 1c3d
00000120: 9084 2d3d 3f76 06be c4eb da3c d286 b03d
00000130: d7b4 643d a68c cdbd a920 3e3d 7f0c bc3d
00000140: 01e4 f8bb bd5d 4d3c 5355 12bd 3396 7ebd
00000150: cfc1 d93d fe29 293d 2ffd c03b 27fd 343d
00000160: 0bcf b33d d34d 583c 291b ca3c 27d0 943d
00000170: f18b e93c 6eb2 543c 00c9 91bd cdcc 0f3d
00000180: 041b 86bc 5895 653d beb4 6bbd 1a9d 1c3d
00000190: db9f c7bc 4901 603d f1fa 533c dbc6 d33c
000001a0: 187a 66bc b206 92bd d6f7 903c 358d adbd
000001b0: 020d 4bba f346 babd fcb1 c83d 7df2 79bd
000001c0: 51fe 1a3e 7168 13bd 6725 b03b 8a9c 7abd
000001d0: 3658 6a3d 2a42 893d 6a20 e73c 3170 01bd
000001e0: 54e0 8b3c 8736 25bd 00d1 0ebe d502 8abb
000001f0: 5dac cabd 015b 7f3d 192b 84bd 2957 113e
00000200: 39d1 09be 0162 23bd 0a17 7b3d d8e8 e43b
00000210: 3781 ff3d cc03 0bbc 05cc b13c 171b 5dbb
00000220: c923 34bd 1756 393d 1bc0 8e3d fdac 5b3c
00000230: 3146 abbd b562 553d 6662 bf3c 678b aebc
00000240: 3bee 853d c582 0cbd 8e9e 4a3d 8a16 2dbd
00000250: ab38 d3bd 845f b6bc 9234 5dbc bc67 ae3c
00000260: bea0 24bb d7a7 fa3d 382a c6bc 42ee cfbc
00000270: 5e87 08bc edcc 6a3c 924f a5bc c349 a73d
00000280: a765 7b3c 23f2 afbd ea41 1e3c dfea 68bd
00000290: d754 54bd b9d4 92bd 152f 23bd 3f55 8dbd
000002a0: 1968 723d d81a 92bc e073 4dbd 6c11 093e
000002b0: cf3e 4fbd f25e 263c c0aa e7bc d962 23bd
000002c0: 073e babd 03be d93c eb68 3dbd c334 ff3c
000002d0: 9706 0ebc b8b9 bcbb dffe b6bc 1b74 f2ba
000002e0: 1dfd 613c 358f 02bb 6bc5 8b3d 1235 04bd
000002f0: 7501 2dbd 2571 253e df65 7cbc 038e 31bc
00000300: 1c4f d2bd 2ece f0bc 5452 ba3c e89e 873d
00000310: bc36 013d 3b2c dcbd 4948 de3d 6c96 ac39
00000320: 4cc2 953c 9d28 973d 03e5 843d d9cb 01bd
00000330: 42b9 7a3d 51c6 943c 01ef 9e3d 5928 4f3d
00000340: 5d93 123c 8de9 9a3d be0a f2bd 9797 123d
00000350: 90d8 c13a 0e04 6abd 7924 46bd 8557 5fbc
00000360: a9fc 17bd a552 93bd ea20 49bd 8b0e d63c
00000370: cbb7 f73c a1b6 ef3d fe7d aabc 0d87 8f3d
00000380: fb79 9abc 731f 093e 3fd4 253d 856d 97bd
00000390: 9248 a93b 60b8 a83d 4c32 00bd a757 bcbb
000003a0: 39ec d83d 21a9 08bd 9e3a 723a 6b55 5fbd
000003b0: 1276 0c3c e0d3 d53d e24b d03d 7b29 0e3c
000003c0: 2626 39bc 73af b23d e306 92bd a32b c2bd
000003d0: c296 3ebd 1f4a bbbd 907f 203d eede d33d
000003e0: 0efa 743c 5514 3ebd f8c4 443d 851d b13d
000003f0: 6f98 e83b 49a0 66bd 8ad4 963b 0e0f 80bd
0.12290359 -0.08858238 -0.051050283 0.10813139 0.01953627 0.031224292 0.048681732 0.052830793
-0.053782687 -0.023621304 -0.032598127 0.056215286 -0.14677496 0.035727236 0.070961595 -0.022032386
-0.11292437 -0.0015610491 -0.012312723 0.06360745 0.0421882 -0.06539045 0.029561264 0.020067051
-0.0010972132 -0.03602884 0.05895949 0.03260082 -0.075542614 -0.061742883 0.022257116 -0.080969855
-0.011304014 -0.028500097 -0.111557744 -0.008799018 -0.05820552 0.12199586 -0.06319195 0.018151406
0.033876684 0.009769611 -0.009682372 -0.100369774 -0.023814809 0.037404954 -0.060289733 -0.006828764
0.0036416084 -0.08343445 0.052881327 -0.04486224 0.065284975 -0.001540658 0.022551812 -0.083622746
0.13372369 0.075577185 -0.061054405 0.016601462 0.0448263 -0.06777369 -0.04711279 0.02791756
-0.010293246 0.0313039 0.046228018 0.10273879 0.104699 0.082346365 0.09403607 0.038095325
0.04236275 -0.13131045 0.02672375 0.08619465 0.055836525 -0.10036592 0.046417866 0.09182071
-0.0075955396 0.012534556 -0.035725903 -0.06215496 0.10632669 0.041299812 0.005889557 0.044186737
0.08779725 0.0132021485 0.024671154 0.072662644 0.028509112 0.012981994 -0.07118416 0.035107423
-0.016370304 0.05605063 -0.057545416 0.03823576 -0.024368217 0.054688726 0.012938247 0.025851658
-0.014067195 -0.07130183 0.017696302 -0.08474199 -0.0007745774 -0.09095564 0.09799573 -0.06102227
0.15136077 -0.035988275 0.0053755525 -0.061184444 0.05721303 0.06702073 0.028213698 -0.031601135
0.017074741 -0.040335204 -0.13946915 -0.0042117634 -0.09896157 0.062342647 -0.06453533 0.14193405
-0.13458718 -0.039888386 0.06130127 0.006985765 0.12475818 -0.008484792 0.02170373 -0.003373807
-0.04397944 0.045248117 0.06970235 0.013407943 -0.08362997 0.052096087 0.02336235 -0.021306707
0.065395795 -0.0343044 0.049467616 -0.042257823 -0.10313543 -0.022262342 -0.013501303 0.021289699
-0.0025120224 0.12239044 -0.024190053 -0.025382165 -0.008333055 0.014331085 -0.020179544 0.08168366
0.01534406 -0.08591106 0.00965927 -0.056864616 -0.051838722 -0.0716948 -0.039839823 -0.06901025
0.059181307 -0.017835066 -0.050159335 0.13385552 -0.05059701 0.010154473 -0.028279662 -0.03988919
-0.09093862 0.026579862 -0.046242636 0.031153088 -0.008668563 -0.005759444 -0.022338329 -0.0018497737
0.013793257 -0.0019921784 0.06824764 -0.032277174 -0.042237718 0.16156442 -0.015405147 -0.010837081
-0.10268995 -0.02939519 0.022744335 0.06622106 0.03154634 -0.10750624 0.10853631 0.0003291847
0.018281125 0.07380793 0.06488993 -0.031688545 0.061211832 0.01816097 0.0776043 0.050575588
0.008946267 0.075640775 -0.11818455 0.0357891 0.0014789272 -0.057132773 -0.048374627 -0.013631706
-0.03710619 -0.071934976 -0.049103655 0.026129982 0.030239007 0.117047556 -0.02081203 0.07008181
-0.018856993 0.13390903 0.040485617 -0.07393936 0.0051661218 0.08238292 -0.031297967 -0.0057477537
0.10591931 -0.03336442 0.0009240302 -0.05452482 0.008573072 0.104408026 0.101707235 0.008676882
-0.011300599 0.087248705 -0.0713022 -0.09480979 -0.046530493 -0.09144997 0.039184153 0.10345255
0.014952196 -0.04640611 0.048039407 0.086482085 0.0070982496 -0.056305204 0.0046029733 -0.062528715
