results/Drone4/Drone/Drone-4335220.onnx (onnx, 810629 bytes, 11 tensors)

action_model._continuous_distribution.log_sigma f4 [1, 4]
-0.14375117 -0.15492904 -0.21884024 -0.04933886
00000000: 8233 13be b8a5 1ebe a817 60be 8b17 4abd

action_model._continuous_distribution.mu.bias f4 [4]
0.009183814 0.015332965 0.01562665 -0.0064445757
00000000: b577 163c 1e37 7b3c 7603 803c 052d d3bb

action_model._continuous_distribution.mu.weight f4 [4, 256]
0.051252488 -0.057244547 -0.056517527 -0.052497666 0.055397112 -0.05167486 -0.017857645 0.053587105
-0.040778033 0.023311209 -0.070500985 -0.047166742 -0.037734848 0.03405849 -0.009673861 -0.025571514
-0.013189451 -0.022198161 -0.024598546 0.050518114 -0.0012355528 -0.03587982 -0.059991542 0.043711264
0.020075452 -0.044478778 0.03870893 -0.053571545 0.02481921 -0.017284287 -0.061769843 -0.018751075
0.024180226 -0.022112401 -0.00516661 -0.024325682 -0.0125038335 -0.056925166 0.00091807195 0.023466472
-0.025683276 -0.045938216 -0.00930572 -0.01155192 -0.02832843 0.03654593 -0.0037623462 -0.014279734
0.018250505 -0.01677069 -0.07021917 -0.01997627 -0.017239843 -0.0101525085 0.05603651 -0.03597376
-0.005240916 -0.031351183 -0.055687446 -0.038537137 -0.017450115 -0.005688191 -0.012844474 -0.018179322
0.00028708676 0.001605371 0.03539267 0.029794017 -0.0034174346 -0.0030178353 0.046111625 -0.028688075
-0.0276785 -0.007735191 0.015958147 0.0008262984 0.013643349 -0.024793534 -0.058214795 -0.0018754192
0.015473566 -0.017637322 0.013342021 -0.028062051 -0.0011906985 -0.0024549677 -0.0071403435 0.0060907644
-0.008824321 -0.012887686 0.002275067 0.0008796771 -0.01364539 -0.027495809 -0.07175409 -0.023019169
0.064936526 0.01640163 -0.010909928 -0.023777103 -0.007980935 -0.01930467 -0.010133922 -0.0037862842
0.033514015 0.054738633 0.03672866 -0.004144635 0.01635068 -0.0075024543 -0.0153812785 -0.018069107
0.069942385 0.0017526997 -0.0044033825 -0.023113104 -0.026688982 -0.02868638 -0.028801193 -0.0039735246
0.0023342483 0.025651557 -0.03165724 -0.007593736 0.038970005 -0.013717926 0.003984835 0.05243344
-0.037822258 -0.007364385 -0.005045112 0.015082467 -0.06525804 -0.06407996 -0.04914493 -0.0075450097
-0.014725432 0.03025877 -0.04289018 0.02798205 0.017764237 0.036181428 0.018603595 0.0021570008
0.038991507 -0.0017862336 0.04879832 0.047887 0.014196889 -0.0035821795 -0.008829684 -0.052046414
-0.04075164 -0.01816495 0.012891233 -0.037280835 -0.047355164 0.012475995 -0.00964087 0.0033630177
0.03555638 0.026126588 0.0108823525 0.007576101 -0.027177 -0.011640113 0.010694582 -0.024197591
0.0042064777 -0.030869542 -0.010551433 0.0045697456 0.0020684362 0.009656065 0.04625452 0.014280707
0.0015009582 -0.019986253 -0.0030058506 0.019091206 0.0026898226 -0.056743275 0.028450385 -0.017656974
-0.020272361 -0.049356863 -0.00968722 -0.027474213 -0.021352842 -0.007115574 0.016221385 0.011128682
0.018375441 0.03930942 -0.041310463 -0.025864333 -0.020398334 -0.016515194 0.0044707884 0.02989284
-0.019896058 0.016697407 0.0014637735 0.006549133 -0.028906144 -0.006844415 0.010517717 -0.03360474
0.013159598 -0.03131218 -0.0064412626 -0.049993437 -0.010714035 0.039583433 -0.03745105 0.0046672504
-0.03993774 0.05982393 0.012624233 -0.026864648 0.04723251 -0.028204374 -0.0058804755 -0.0008206763
-0.041395474 0.007652411 0.0020810124 -0.0045913938 -0.02417042 -0.03292942 -0.019958664 -0.015871588
-0.032132406 -0.012330774 -0.078031205 -0.0073281154 -0.09112851 -0.0047358675 -0.02923303 0.0061747786
0.014645208 0.0017078031 -0.03762981 0.033636212 -0.011453034 -0.033028483 -0.020558821 0.06300927
-0.0056405594 -0.057870783 -0.026281897 -0.02866004 0.011342106 -0.006012222 -0.010067435 -0.04857741
00000000: 21ee 513d 4279 6abd ec7e 67bd cb07 57bd
00000010: 15e8 623d 05a9 53bd 324a 92bc 277e 5b3d
00000020: de06 27bd 26f7 be3c d262 90bd ea31 41bd
00000030: db8f 1abd ea80 0b3d 1d7f 1ebc 5a7b d1bc
00000040: 9118 58bc ebd8 b5bc e482 c9bc 15ec 4e3d
00000050: 46f2 a1ba b8f6 12bd b1b9 75bd 950a 333d
00000060: 4675 a43c 612f 36bd 418d 1e3d d66d 5bbd
00000070: a851 cb3c c797 8dbc 6002 7dbd db9b 99bc
00000080: 9c15 c63c 1125 b5bc aa4c a9bb a746 c7bc
00000090: e1dc 4cbc 5d2a 69bd c4aa 703a c23c c03c
000000a0: bc65 d2bc b629 3cbd 0577 18bc 4444 3dbc
000000b0: 0611 e8bc 2fb1 153d b291 76bb 8cf5 69bc
000000c0: 1582 953c b062 89bc 11cf 8fbd 46a5 a3bc
000000d0: 923a 8dbc b556 26bc 8a86 653d 3959 13bd
000000e0: fdbb abbb 196a 00bd 8518 64bd 1ed9 1dbd
000000f0: 8bf3 8ebc 0164 babb a171 52bc cdec 94bc
00000100: 2284 9639 506b d23a e8f7 103d 9512 f43c
00000110: 0af7 5fbb e0c6 45bb 8bdf 3c3d 4103 ebbc
00000120: 06be e2bc 7c77 fdbb a9ba 823c f29b 583a
00000130: 5a88 5f3c cf1b cbbc a372 6ebd a0d0 f5ba
00000140: d784 7d3c 257c 90bc 7e98 5a3c 63e2 e5bc
00000150: 3611 9cba 86e3 20bb 8bf9 e9bb 0995 c73b
00000160: e393 10bc df26 53bc 4a19 153b 229a 663a
00000170: ea90 5fbc e43e e1bc cff3 92bd b292 bcbc
00000180: 71fd 843d b65c 863c 8ebf 32bc 33c8 c2bc
00000190: 78c2 02bc d424 9ebc c008 26bc 4f23 78bb
000001a0: fe45 093d 9e35 603d cb70 163d b8cf 87bb
000001b0: dcf1 853c 26d7 f5bb c201 7cbc aa05 94bc
000001c0: f43d 8f3d d8ba e53a 404a 90bb b157 bdbc
000001d0: daa2 dabc b3ff eabc 7bf0 ebbc 5734 82bb
000001e0: 30fa 183b 3723 d23c 06ab 01bd e0d4 f8bb
000001f0: 039f 1f3d 27c1 60bc 3893 823b 72c4 563d
00000200: 83eb 1abd f050 f1bb 7851 a5bb 741c 773c
00000210: 02a6 85bd 5b3c 83bd 324c 49bd 213c f7bb
00000220: f042 71bc 3de1 f73c 9dad 2fbd 9d3a e53c
00000230: 4e86 913c fa32 143d 9166 983c 785c 0d3b
00000240: 8fb5 1f3d 0e20 eaba bfe0 473d 2925 443d
00000250: 119a 683c 00c3 6abb 61aa 10bc 9f2e 55bd
00000260: 31eb 26bd a9ce 94bc c035 533c cab3 18bd
00000270: 7df7 41bd 1e68 4c3c bdf4 1dbc 1366 5c3b
00000280: 91a3 113d 6d07 d63c e54b 323c f140 f83b
00000290: 4da2 debc 2cb6 3ebc 5438 2f3c 073a c6bc
000002a0: 7ed6 893b 1fe2 fcbc ebdf 2cbc cebd 953b
000002b0: 9a8e 073b 7934 1e3c 6175 3d3d a0f9 693c
000002c0: cdbb c43a 36ba a3bc cefd 44bb 2965 9c3c
000002d0: bc47 303b a36b 68bd c810 e93c 5ca5 90bc
000002e0: 3912 a6bc 6c2a 4abd 25b7 1ebc 9a11 e1bc
000002f0: 28ec aebc c329 e9bb b6e2 843c 1355 363c
00000300: 1888 963c ea02 213d 2935 29bd 70e1 d3bc
00000310: 681a a7bc df4a 87bc b17f 923b d4e1 f43c
00000320: 0ffd a2bc 00c9 883c 17dc bf3a 1c9a d63b
00000330: 94cc ecbc 1d47 e0bb 8152 2c3c 20a5 09bd
00000340: 5b9b 573c 3341 00bd 3a11 d3bb ebc5 4cbd
00000350: eb89 2fbc 3d22 223d 4666 19bd bcef 983b
00000360: c195 23bd f009 753d dfd5 4e3c 4013 dcbc
00000370: e076 413d dc0c e7bc 01b1 c0bb a722 57ba
00000380: 4d8e 29bd 13c1 fa3b 9861 083b 6773 96bb
00000390: 0b01 c6bc 00e1 06bd 5a80 a3bc 2205 82bc
000003a0: 459d 03bd 0407 4abc d3ce 9fbd b020 f0bb
000003b0: 96a1 babd 562f 9bbb 1b7a efbc cc55 ca3b
000003c0: 74f2 6f3c 5dd8 df3a b721 1abd 20c6 093d
000003d0: 82a5 3bbc e048 07bd f96a a8bc 010b 813d
000003e0: 71d4 b8bb ea09 6dbd 224d d7bc 76c8 eabc
000003f0: 3ed4 393c 2c02 c5bb e2f1 24bc 1bf9 46bd

network_body._body_endoder.seq_layers.0.bias f4 [256]
0.069835566 -0.04745551 -0.009410263 0.1427759 0.008693681 -0.028234325 -0.09091814 -0.03924964
-0.05053718 -0.045963094 -0.07965436 -0.03246003 0.044168565 -0.019347966 0.014236436 -0.03030894
0.023190493 0.081075154 0.0038337195 -0.026999919 0.050974138 0.05163756 -0.07487257 -0.057793386
0.038884092 -0.028790237 0.09671421 -0.08766569 -0.08537873 -0.051074527 -0.17582403 0.053278826
-0.07018832 0.021772241 -0.08272089 -0.050554212 -0.073287115 -0.0616121 0.071597196 -0.092666015
-0.04646347 -0.040955823 -0.059829727 -0.04962805 -0.11756307 -0.094966285 -0.037908234 0.009175216
0.008381416 -3.354855e-05 -0.041020233 0.084034674 -0.09356903 -0.035083868 -0.07994552 0.10272805
-0.08902782 0.051695004 0.018393243 0.053388268 0.01720845 -0.083561555 -0.01877722 0.0042830417
-0.11622684 -0.11556426 0.08511898 -0.1341588 0.08468765 -0.060985293 0.09727123 0.0739668
-0.015366797 0.08861914 -0.13979974 -0.06071148 -0.046573773 0.07235238 0.07120469 -0.029739019
0.016792733 -0.043247048 -0.013960399 0.0903546 0.025225867 0.12409815 -0.051351327 0.03390412
0.06620156 -0.014509162 -0.0013110522 0.019324018 0.022018468 0.043723814 -0.011212963 -0.023580272
0.04463496 -0.04336339 0.0004898455 0.016549623 0.026193168 -0.027517816 -0.052003495 0.010323103
-0.105272956 -0.009988906 -0.0523332 -0.052184325 0.0575088 -0.020344764 0.05932292 -0.03063382
-0.15666178 -0.07036631 0.01990616 -0.033809587 -0.0548031 -0.0039343983 -0.04002516 -0.03442104
0.0017203706 -0.015434674 0.0880316 0.05224337 0.0123290485 -0.067984134 -0.056906298 -0.0125326505
-0.012134457 -0.043335058 0.03946245 -0.0866027 0.06907353 0.1067747 0.04770282 -0.071132764
0.042613782 -0.082369246 -0.046586603 -0.014070811 -0.021430535 -0.09485657 0.033864886 0.0023848629
-0.059912317 -0.010309105 -0.03097275 0.08265674 -0.1370032 -0.12171734 0.07729396 -0.08660755
0.0038630874 0.033852637 -0.092239484 -0.0752737 -0.057730824 0.037704706 0.024412967 -0.1039068
-0.0055746054 0.02699415 -0.033238463 0.043691974 -0.010139521 -0.018452846 0.046067014 -0.04143885
-0.023128487 -0.023778493 -0.049914747 0.029484773 0.049909327 -0.057887834 0.07470688 -0.03156166
-0.07091556 -0.0021007569 -0.08140877 -0.11999496 -0.0034264638 -0.07819947 -0.14387761 -0.011905509
-0.09920991 -0.1439655 0.038085036 -0.032336406 -0.113760896 -0.046719514 -0.004700184 0.12774137
-0.024932487 -0.07482604 -0.13108443 -0.07204401 0.021071788 0.022122845 0.0075774547 -0.0604253
-0.034533545 0.121107854 -0.045010053 -0.052430395 -0.058890782 -0.042660758 -0.101023614 -0.011234808
-0.076718375 -0.06771183 -0.035606146 -0.010982675 -0.077477716 0.002554209 0.053423498 -0.08025829
-0.024026126 0.017701352 0.06469416 -0.002252552 0.05637743 -0.08146428 -0.09309803 0.12938294
-0.07078591 0.02956592 -0.04668018 0.006509409 0.00062875083 0.0681909 0.07244148 0.045403995
0.03969373 -0.03725 -0.073505595 -0.012576337 -0.1098112 0.0074546165 -0.0361534 -0.00634317
-0.089493945 -0.02251072 -0.081170134 -0.01961852 -0.08073737 -0.144003 0.056029093 -0.06913087
-0.04264582 -0.06455414 -0.09146927 -0.03599571 -0.0775569 0.016202085 -0.07692754 -0.021938184
00000000: f305 8f3d b560 42bd 812d 1abc d833 123e
00000010: f16f 0e3c ac4b e7bc 4a33 babd 3bc4 20bd
00000020: 1300 4fbd cc43 3cbd d321 a3bd cff4 04bd
00000030: 19ea 343d a07f 9ebc f13f 693c 744a f8bc
00000040: fdf9 bd3c bb0a a63d 243f 7b3b ef2e ddbc
00000050: 42ca 503d e881 533d ca56 99bd c2b8 6cbd
00000060: ed44 1f3d 81d9 ebbc 1a12 c63d 128a b3bd
00000070: 0bdb aebd 8633 51bd 370b 34be e63a 5a3d
00000080: e5be 8fbd b35b b23c 9269 a9bd ef11 4fbd
00000090: 8e17 96bd f85c 7cbd 8da1 923d aec7 bdbd
000000a0: 7b50 3ebd 4bc1 27bd 0410 75bd c846 4bbd
000000b0: e8c4 f0bd af7d c2bd aa45 1bbd a553 163c
000000c0: 3552 093c 7bb6 0cb8 d504 28bd 5f1a ac3d
000000d0: 1fa1 bfbd 1ab4 0fbd 7aba a3bd 1563 d23d
000000e0: 3854 b6bd 24be 533d 6dad 963c a8ad 5a3d
000000f0: bcf8 8c3c 5222 abbd afd2 99bc c258 8c3b
00000100: 5608 eebd f4ac ecbd dc52 ae3d ed60 09be
00000110: b870 ad3d b7cb 79bd 2336 c73d e87b 973d
00000120: 05c5 7bbc f47d b53d aa27 0fbe 9aac 78bd
00000130: 24c4 3ebd 7c2d 943d c4d3 913d 3e9f f3bc
00000140: ea90 893c d123 31bd 28ba 64bc d50b b93d
00000150: 7aa6 ce3c 2c27 fe3d c555 52bd 0cdf 0a3d
00000160: af94 873d d6b7 6dbc 9dd7 abba 674d 9e3c
00000170: 1360 b43c be17 333d 93b6 37bc 6a2b c1bc
00000180: 26d3 363d cf9d 31bd fa68 003a 1393 873c
00000190: 0e93 d63c 0b6d e1bc 9e01 55bd 3b22 293c
000001a0: 5999 d7bd 82a8 23bc 565b 56bd 3bbf 55bd
000001b0: 598e 6b3d 10aa a6bc 97fc 723d c7f3 fabc
000001c0: f26b 20be 361c 90bd 3e12 a33c ec7b 0abd
000001d0: 3779 60bd 20ec 80bb 6cf1 23bd 14fd 0cbd
000001e0: 0f7e e13a b7e1 7cbc e949 b43d 25fd 553d
000001f0: c7ff 493c 443b 8bbd 9416 69bd bf55 4dbc
00000200: 9acf 46bc 1a80 31bd 61a3 213d c25c b1bd
00000210: 6c76 8d3d b2ac da3d 0864 433d 0eae 91bd
00000220: ca8b 2e3d 35b1 a8bd 98d1 3ebd 4289 66bc
00000230: 178f afbc 2944 c2bd e8b5 0a3d 5c4b 1c3b
00000240: 9e66 75bd 85e7 28bc 91ba fdbc f047 a93d
00000250: 914a 0cbe f146 f9bd 4c4c 9e3d 4d5f b1bd
00000260: da2b 7d3b 10a9 0a3d 0ee8 bcbd 1929 9abd
00000270: 2877 6cbd 4070 1a3d b4fd c73c 17cd d4bd
00000280: 2eab b6bb d622 dd3c 0e25 08bd 5bf6 323d
00000290: 3c20 26bc 6c2a 97bc c4b0 3c3d c9bb 29bd
000002a0: f477 bdbc 1dcb c2bc 6873 4cbd 0d8a f13c
000002b0: b96d 4c3d cb1b 6dbd ecff 983d cd46 01bd
000002c0: 2d3c 91bd daac 09bb a4b9 a6bd ebbf f5bd
000002d0: 868e 60bb 0b27 a0bd a754 13be 530f 43bc
000002e0: 912e cbbd b16b 13be 0eff 1b3d 2e73 04bd
000002f0: 79fb e8bd f65c 3fbd 0004 9abb a2ce 023e
00000300: 373f ccbc 653e 99bd ff3a 06be cf8b 93bd
00000310: be9e ac3c f83a b53c 4c4c f83b 8580 77bd
00000320: 0c73 0dbd 6507 f83d 765c 38bd 41c1 56bd
00000330: 7637 71bd 0cbd 2ebd 78e5 cebd 3312 38bc
00000340: 861e 9dbd 80ac 8abd c0d7 11bd adf0 33bc
00000350: a3ac 9ebd 8464 273b 99d2 5a3d 755e a4bd
00000360: 70d2 c4bc 6d02 913c 5f7e 843d 8d9f 13bb
00000370: 05ec 663d bfd6 a6bd 2eaa bebd f67c 043e
00000380: 34f8 90bd 3a34 f23c b733 3fbd e14c d53b
00000390: c1d2 243a aca7 8b3d 335c 943d 8af9 393d
000003a0: e595 223d 7593 18bd 1a8a 96bd fb0c 4ebc
000003b0: b2e4 e0bd db45 f43b 9615 14bd 5eda cfbb
000003c0: 9a48 b7bd 6768 b8bc 873c a6bd 05b7 a0bc
000003d0: a259 a5bd 8675 13be c37e 653d 7c94 8dbd
000003e0: 62ad 2ebd f634 84bd 3e54 bbbd 3d70 13bd
000003f0: 27d6 9ebd 3cba 843c 308c 9dbd b5b7 b3bc

network_body._body_endoder.seq_layers.0.weight f4 [256, 13]
-0.0022105186 -0.4051865 -0.070159085 0.2374333 0.24572192 0.015345478 0.26434618 0.3651691
-0.91792196 0.22075012 0.6624769 0.15441526 -0.35576823 0.19020389 -0.39978415 -0.07331649
0.115904205 -0.04478909 -0.21530534 -0.55690867 0.0041773077 0.56576496 -0.2182629 -0.014900766
-0.15794809 0.21237676 -0.69006324 -0.29991376 0.120249264 0.46605253 0.4109868 0.46498355
0.99421626 0.36194125 0.5088389 0.2502722 0.46362126 0.052297834 -0.106853634 0.09125078
0.22672041 -0.012623286 0.082192585 -0.19607909 -0.26890293 -1.0250819 -0.28364456 -1.5190737
0.43382007 0.037729774 0.35138685 -0.34391904 0.07289926 0.24625279 -0.09216394 -0.22696625
-0.22395873 -0.3643641 -1.1487671 -0.2893543 -0.6608256 0.19956937 -0.08296344 0.14412813
0.10792781 -0.02582936 0.0739142 -0.26523957 -0.06315156 0.41181707 -0.29880646 0.45916378
0.17134838 0.96599317 -0.40101552 -0.026157582 0.14672741 -0.23735692 -0.27998194 -0.32077047
-0.19044185 0.32342207 -0.10911953 0.6005044 0.22971955 -0.13846387 -0.25282642 -0.044549663
0.17702243 0.38648075 -0.29727656 -0.5187682 -0.27440795 -0.23385012 0.2821096 -0.10297052
-0.13120736 -0.8220893 -0.060067393 0.19431111 -0.2489776 -0.096546575 0.27655047 -0.13713115
-0.21480894 0.3424699 0.035230484 0.23774889 -0.09995193 -0.5363228 0.43182847 0.24185388
-0.15357813 -0.592273 0.031712953 0.2971219 0.60012716 -0.44635174 -0.1131439 -0.14107335
-0.03491962 0.07017643 0.062477224 -0.47193116 0.20753099 0.44083905 0.16321366 0.14094055
0.060105916 0.22010733 0.26981023 0.24515375 -0.07339163 -0.18495958 0.057777576 -0.24670668
-0.26043513 -0.30500576 -0.034241106 0.06948081 -0.111134194 -0.4899327 0.38255832 -0.34112516
0.052017853 0.07220327 0.027271384 -0.15332189 0.1945011 0.034870043 0.30757818 0.7039769
-0.44933495 -0.058059167 -0.07779535 -0.18083598 -0.30157614 0.04858905 -0.30706674 0.31129727
0.21228537 0.33335462 0.459374 0.6365709 0.21379432 0.17476934 0.102131054 0.67081136
-0.355306 0.14012451 0.2203916 -0.16037561 0.07762204 0.056149974 0.059780553 -0.30875158
-0.46766785 0.78947824 -0.32440686 0.5183075 -0.1702467 0.48464513 0.115551375 -0.11059179
-0.31803903 -0.5495138 0.48232216 0.3696191 0.48549518 -0.022569126 0.047130935 0.2893223
-0.6198522 0.19267116 0.1365409 -0.15432833 0.13375467 0.2665293 0.4280428 -0.2545778
-0.27894822 -0.46381468 0.24936809 -0.69618505 -0.17579037 0.35159725 -0.028614782 0.18132092
0.10734457 0.18680781 -0.08600976 0.052657366 0.19325659 -0.02439146 -0.2368122 0.32603312
-1.441607 -0.036846433 -0.009239057 0.20082852 -0.18828055 0.19953941 -0.061058864 -0.32954234
-0.003408479 0.038451202 0.5156333 0.45026416 0.18116672 -0.20306534 0.36987126 0.4886122
0.30620164 0.39028633 0.33895624 0.092269026 -0.12319496 0.43191388 0.20532112 -0.12918217
1.3751523 0.44919857 -0.331331 -0.67484426 0.07338737 0.46576777 0.022168545 -0.068903014
0.28424764 -0.4765061 -0.17320538 0.4068777 -0.23305249 -0.5702891 -0.09823034 -0.8366717
00000000: 59de 10bb 9b74 cfbe 91af 8fbd b721 733e
00000010: 879e 7b3e 9a6b 7b3c 6258 873e 72f7 ba3e
00000020: effc 6abf 520c 623e 1698 293f 091f 1e3e
00000030: 4127 b6be cfc4 423e 82b0 ccbe f526 96bd
00000040: 2f5f ed3d c474 37bd 0179 5cbe 9191 0ebf
00000050: cce1 883b f9d5 103f 4f80 5fbe 5822 74bc
00000060: 25bd 21be 4b79 593e fca7 30bf 4c8e 99be
00000070: 3f45 f63d 709e ee3e dd6c d23e 5312 ee3e
00000080: f584 7e3f 5d50 b93e 4443 023f ae23 803e
00000090: c45f ed3e 4136 563d 14d6 dabd b0e1 ba3d
000000a0: 6529 683e e6d1 4ebc 9654 a83d f5c8 48be
000000b0: a5ad 89be e235 83bf dc39 91be 0271 c2bf
000000c0: aa1d de3e 898a 1a3d fae8 b33e 2816 b0be
000000d0: 354c 953d b129 7c3e 73c0 bcbd d769 68be
000000e0: 7055 65be ee8d babe cd0a 93bf 3f26 94be
000000f0: de2b 29bf ea5b 4c3e bce8 a9bd 5396 133e
00000100: 4109 dd3d 1898 d3bc 5460 973d 7bcd 87be
00000110: 9b55 81bd b0d9 d23e 29fd 98be 8417 eb3e
00000120: f375 2f3e 544b 773f e851 cdbe 6d48 d6bc
00000130: b63f 163e b10d 73be cb59 8fbe 073c a4be
00000140: 3003 43be 9497 a53e 0f7a dfbd a8ba 193f
00000150: 9a3b 6b3e 79c9 0dbe 7772 81be b579 36bd
00000160: 5e45 353e cee0 c53e a234 98be fecd 04bf
00000170: 337f 8cbe 6876 6fbe ab70 903e 35e2 d2bd
00000180: 395b 06be 7274 52bf 3a09 76bd 7ef9 463e
00000190: fcf3 7ebe 36ba c5bd 0698 8d3e 1c6c 0cbe
000001a0: e0f6 5bbe 3758 af3e d74d 103d 7274 733e
000001b0: 99b3 ccbd 734c 09bf 9f18 dd3e 8ba8 773e
000001c0: 9643 1dbe 349f 17bf 71e5 013d 5d20 983e
000001d0: efa1 193f 3788 e4be fdb7 e7bd 8875 10be
000001e0: e007 0fbd a9b8 8f3d 1ee8 7f3d f6a0 f1be
000001f0: 0183 543e a8b5 e13e 7b21 273e b852 103e
00000200: 9f31 763d d163 613e 9124 8a3e 9609 7b3e
00000210: 5a4e 96bd 0b66 3dbe 2ea8 6c3d ada0 7cbe
00000220: c157 85be b729 9cbe 6740 0cbd f44b 8e3d
00000230: 539a e3bd 75d8 fabe afde c33e f5a7 aebe
00000240: ac10 553d 4fdf 933d 3d68 df3c 6a00 1dbe
00000250: 4c2b 473e e4d3 0e3d e37a 9d3e d537 343f
00000260: 3b0f e6be 73cf 6dbd 2b53 9fbd 112d 39be
00000270: 3068 9abe 5005 473d da37 9dbe 5b62 9f3e
00000280: 5661 593e 75ad aa3e 1233 eb3e 4ff6 223f
00000290: e6ec 5a3e bcf6 323e 162a d13d 4bba 2b3f
000002a0: abea b5be cd7c 0f3e 56ae 613e 8139 24be
000002b0: 4ef8 9e3d 84fd 653d 74dc 743d b014 9ebe
000002c0: 2972 efbe 3f1b 4a3f a818 a6be cdaf 043f
000002d0: 2755 2ebe 6823 f83e 33a6 ec3d f37d e2bd
000002e0: 03d6 a2be f0ac 0cbf eef2 f63e b73e bd3e
000002f0: d392 f83e e3e2 b8bc 5e0c 413d 0d22 943e
00000300: a2ae 1ebf 974b 453e 61d1 0b3e 3f08 1ebe
00000310: fcf6 083e 8776 883e 6d28 db3e 0558 82be
00000320: 4dd2 8ebe 1e79 edbe 595a 7f3e 2f39 32bf
00000330: 6402 34be 8e04 b43e 8c69 eabc 31ac 393e
00000340: 78d7 db3d 8c4a 3f3e e325 b0bd 40af 573d
00000350: 0ee5 453e 99d0 c7bc e67e 72be d0ed a63e
00000360: 9486 b8bf 49ec 16bd 6a5f 17bc fea5 4d3e
00000370: 9ecc 40be 0f54 4c3e dc18 7abd c6b9 a8be
00000380: ca60 5fbb 027f 1d3d 8b00 043f 0689 e63e
00000390: c583 393e 5cf0 4fbe c45f bd3e 612b fa3e
000003a0: 76c6 9c3e 9cd3 c73e ac8b ad3e 8bf7 bc3d
000003b0: a44d fcbd d123 dd3e b33f 523e 5548 04be
000003c0: fe04 b03f 5bfd e53e 38a4 a9be 98c2 2cbf
000003d0: 1e4c 963d 1d79 ee3e cf9a b53c 061d 8dbd
000003e0: e888 913e 9cf8 f3be c05c 31be 4652 d03e
000003f0: 50a5 6ebe 77fe 11bf fd2c c9bd 1e30 56bf

network_body._body_endoder.seq_layers.2.bias f4 [256]
-0.06624358 -0.007145604 -0.065405846 0.05376759 -0.02538903 -0.04430823 -0.042662524 -0.0627616
-0.07384104 -0.035514183 0.011045226 -0.08780565 -0.09688302 -0.036530443 -0.06711778 -0.04701161
-0.021770455 0.05280539 -0.051421624 -0.013776155 -0.034164526 -0.04328151 -0.043748137 -0.063424475
-0.11497165 -0.08443836 -0.015933694 0.0037468171 -0.03191591 -0.00039692794 -0.029031847 -0.055833723
-0.016584212 -0.0058596395 -0.05732997 -0.087019354 0.010306894 0.025205702 -0.036563694 -0.06388019
-0.058714144 -0.05765206 -0.07546523 0.039067894 -0.013147894 0.005596429 -0.036277607 -0.040827688
-0.06789038 -0.03554053 -0.01294266 -0.028038407 -0.10299972 0.015711527 -0.058917776 -0.0608679
-0.059005093 -0.0059123095 -0.05706948 -0.026100378 -0.02390607 -0.036838382 0.016506756 0.035287112
-0.02799996 -0.022658654 -0.015235267 -0.07416332 0.052055657 -0.05408971 0.035819415 -0.03696446
-0.0015915073 -0.031632774 -0.0092915725 -0.075708285 -0.040430944 -0.0091539705 0.004509979 -0.007079331
0.007751125 -0.04109792 -0.036120992 -0.010327581 0.0011737922 -0.04176981 -0.066500306 -0.027736288
0.014010414 -0.0014981596 -0.037028383 -0.065330096 0.03109675 0.019253239 -0.07704917 0.032599214
-0.08285928 -0.0737486 0.002108232 -0.02149258 -0.045928426 0.03244871 -0.04171766 -0.05768168
-0.07692689 0.015829632 -0.06723022 -0.07523492 0.01402478 -0.0012619883 -0.019476071 -0.02624158
-0.050433256 -0.04826773 -0.055604957 -0.07193288 -0.05689824 -0.030514644 -0.06603212 -0.04222819
0.024124958 0.035201147 -0.0033116722 -0.010344795 -0.053624693 0.026384117 0.015912069 -0.023308521
-0.03191397 -0.043620568 0.023294847 -0.022926267 -0.080931045 -0.014499994 -0.06515186 -0.057541482
-0.04868257 0.0005918413 -0.02127803 -0.071385086 -0.02686458 -0.043739032 -0.08662523 -0.04840071
0.015463598 -0.027029851 -0.0930517 -0.07841562 -0.024691835 -0.038710974 -0.009035091 -0.08339385
-0.09991155 -0.07551429 -0.05771148 -0.025016457 0.050193332 -0.009277549 0.025582576 -0.02947445
0.0017762237 -0.024346147 0.028882015 0.025679715 0.036868468 -0.0069333822 0.018914565 -0.038156833
-0.04547106 0.029918024 -0.013184001 0.0075906445 -0.080799446 0.020127825 -0.030389747 0.016182138
0.039716937 -0.026405385 -0.06877542 -0.020084742 -0.0756506 0.024506655 -0.058283817 0.07970805
-0.077463984 -0.021180037 -0.078407235 -0.06813012 -0.08478558 0.046816934 -0.052807115 0.0047204043
0.013438786 -0.09536089 -0.05239411 -0.007876952 -0.019373946 -0.028580716 -0.03794573 -0.057686027
0.017328326 0.036179744 -0.01502376 -0.027640814 -0.067082785 -0.042292375 -0.04232062 0.01763379
-0.075841345 -0.011209372 -0.040704377 -0.044283472 -0.01137979 0.017664278 0.0057025235 -0.021564756
-0.014732066 -0.0455971 -0.013059506 0.03862781 -0.0019536917 -0.010850589 -0.025899837 -0.039275885
0.049339328 0.044295605 -0.027057935 -0.03129424 -0.033430506 -0.07738394 -0.06407388 0.025544256
-0.011828784 -0.09184837 -0.04845441 -0.04167459 -0.024392754 -0.021265877 -0.08110083 -0.066166826
-0.005507534 -0.0077343164 -0.05148358 0.057883415 0.01898679 -0.041391324 -0.07093627 0.016550997
-0.06910262 0.027972968 -0.06710462 -0.0073268698 0.0058305073 -0.024913559 -0.063958056 0.00977632
00000000: b7aa 87bd ac25 eabb 80f3 85bd 683b 5c3d
00000010: a8fc cfbc 8c7c 35bd e6be 2ebd 2789 80bd
00000020: f939 97bd 5277 11bd 09f7 343c 73d3 b3bd
00000030: 9b6a c6bd f2a0 15bd 0c75 89bd 3f8f 40bd
00000040: f457 b2bc 774a 583d 7b9f 52bd 62b5 61bc
00000050: 1af0 0bbd f447 31bd 3f31 33bd b1e4 81bd
00000060: 4276 ebbd 05ee acbd 6187 82bc 298d 753b
00000070: 42ba 02bd c41a d0b9 32d4 edbc e7b1 64bd
00000080: 9ddb 87bc 3802 c0bb d5d2 6abd 3437 b2bd
00000090: 3fde 283c 307c ce3c d0c3 15bd 9ed3 82bd
000000a0: 3e7e 70bd 9124 6cbd 848d 9abd a805 203d
000000b0: 446a 57bc 4062 b73b d497 14bd ef3a 27bd
000000c0: 1d0a 8bbd f292 11bd 730d 54bc cdb0 e5bc
000000d0: 84f1 d2bd 76b5 803c c453 71bd 9e50 79bd
000000e0: 53af 71bd 0cbc c1bb b0c1 69bd 76d0 d5bc
000000f0: aad6 c3bc d8e3 16bd 2d39 873c 3889 103d
00000100: 2c60 e5bc a49e b9bc 579d 79bc f0e2 97bd
00000110: 5038 553d 2c8d 5dbd 61b7 123d 0c68 17bd
00000120: 209a d0ba 5e91 01bd ae3b 18bc f20c 9bbd
00000130: eb9a 25bd 89fa 15bc 72c8 933b bcf9 e7bb
00000140: 26fd fd3b 4b56 28bd 9bf3 13bd 0435 29bc
00000150: eed9 993a d216 2bbd 5031 88bd 3637 e3bc
00000160: ef8b 653c e55d c4ba 13ab 17bd c9cb 85bd
00000170: 9dbe fe3c f8b8 9d3c f5cb 9dbd c186 053d
00000180: 20b2 a9bd 8209 97bd 432a 0a3b 3511 b0bc
00000190: 721f 3cbd f0e8 043d 23e0 2abd a043 6cbd
000001a0: d88b 9dbd 25ad 813c ffaf 89bd c414 9abd
000001b0: 31c8 653c 4d69 a5ba 488c 9fbc 95f8 d6bc
000001c0: 1a93 4ebd 62b4 45bd 06c2 63bd 8c51 93bd
000001d0: 210e 69bd d9f9 f9bc d93b 87bd 77f7 2cbd
000001e0: b4a1 c53c 142f 103d a408 59bb 377d 29bc
000001f0: 91a5 5bbd 8123 d83c 075a 823c 83f1 bebc
00000200: 39b8 02bd 7bab 32bd d6d4 be3c decf bbbc
00000210: 2dbf a5bd 6291 6dbc 576e 85bd 9eb0 6bbd
00000220: 6067 47bd cc25 1b3a 434f aebc 5832 92bd
00000230: 1c13 dcbc b327 33bd 9268 b1bd d33f 46bd
00000240: 085b 7d3c b56d ddbc e491 bebd 5e98 a0bd
00000250: 8846 cabc 668f 1ebd eb07 14bc 65ca aabd
00000260: 6d9e ccbd 3ca7 9abd df62 6cbd 50ef ccbc
00000270: 8697 4d3d dc00 18bc 8d92 d13c 6774 f1bc
00000280: 2dd0 e83a 9271 c7bc fa99 ec3c 445e d23c
00000290: 6403 173d 6d31 e3bb b8f2 9a3c 574a 1cbd
000002a0: dd3f 3abd a516 f53c b501 58bc f1ba f83b
000002b0: 2e7a a5bd 1ce3 a43c ebf3 f8bc 6790 843c
000002c0: 3aae 223d 1b50 d8bc 21da 8cbd c288 a4bc
000002d0: b4ee 9abd 2ec2 c83c 03bb 6ebd f93d a33d
000002e0: 70a5 9ebd c281 adbc f993 a0bd ce87 8bbd
000002f0: 10a4 adbd 1dc3 3f3d 464c 58bd 9fad 9a3b
00000300: 5b2e 5c3c 924c c3bd 359b 56bd 550e 01bc
00000310: 1cb6 9ebc 1b22 eabc fb6c 1bbd 2f48 6cbd
00000320: 22f4 8d3c 3631 143d 3726 76bc fd6e e2bc
00000330: b362 89bd c53a 2dbd 6358 2dbd bd74 903c
00000340: b552 9bbd 84a7 37bc a2b9 26bd 9662 35bd
00000350: 4c72 3abc adb4 903c 3cdc ba3b 92a8 b0bc
00000360: c35e 71bc 06c4 3abd 8af7 55bc 3238 1e3d
00000370: 8209 00bb abc6 31bc e52b d4bc c0df 20bd
00000380: 0918 4a3d 4f6f 353d 9aa8 ddbc 642e 00bd
00000390: 6dee 08bd 797b 9ebd 2b39 83bd 3042 d13c
000003a0: 84cd 41bc 001b bcbd 2278 46bd fab2 2abd
000003b0: 50d3 c7bc c735 aebc 3118 a6bd 7982 87bd
000003c0: 8b78 b4bb 2670 fdbb 72e0 52bd 2917 6d3d
000003d0: 2f8a 9b3c f389 29bd 0947 91bd f595 873c
000003e0: ad85 8dbd 9127 e53c 266e 89bd 3d16 f0bb
000003f0: d70d bf3b 8517 ccbc 71fc 82bd dc2c 203c

network_body._body_endoder.seq_layers.2.weight f4 [256, 256]
-0.030923374 -0.030305445 0.027977623 -0.08096105 0.060268465 0.016085496 -0.0018298409 -0.11288139
0.04610718 0.007857493 -0.03182446 0.048995066 0.006656926 -0.0145675205 0.0352558 -0.011945007
-0.0027159753 -0.14931898 -0.1531691 -0.11511151 -0.050216977 -0.06529473 0.10724125 0.056363706
0.047156863 -0.0020629538 -0.07634143 0.027495466 0.005239091 0.08229852 -0.015336456 0.011820521
-0.010032314 0.026973035 -0.02971147 -0.15501732 0.01930268 -0.13319758 0.0024424829 0.11938225
-0.065081574 -0.037009384 0.012398629 -0.029017812 -0.0016060118 -0.13336945 0.11278309 -0.07563029
0.0921296 -0.037955172 -0.0033275245 -0.02088079 -0.02367446 0.027947493 -0.026475029 -0.15173282
-0.15847754 0.010926892 -0.1037867 -0.10953265 0.031589564 0.094573334 0.008357462 -0.004105795
-0.053580504 0.011608072 -0.08286034 -0.051891137 0.017969731 0.03383792 0.08273137 -0.09868436
0.00081331056 -0.08619105 0.0037788053 0.024105355 -0.06111958 -0.02330375 -0.016661298 0.014221725
0.08175925 0.055605233 -0.05513583 0.013082747 -0.0778405 -0.01404911 -0.024613237 -0.11459217
-0.03926217 -0.019707192 0.013094942 -0.14962794 0.07253908 0.05938555 0.075944826 -0.011358958
0.07583564 -0.057342213 -0.022157485 -0.0417528 -0.1481242 0.052848894 -0.0013410624 0.011654212
0.08961277 0.04369199 -0.025974587 0.11231485 -0.055365264 0.009537935 -0.009499318 -0.2519482
-0.0025240863 -0.05791612 -0.13714473 0.072480224 0.14408316 0.054028668 -0.019523947 -0.18299764
0.05376792 -0.09421556 0.0014067789 -0.08161364 0.018567264 0.045008793 -0.10635119 0.007168605
-0.06071 -0.09399615 -0.10932921 -0.03340961 -0.010079402 -0.13124648 0.020654118 -0.07315812
-0.14693215 0.04536188 -0.06679759 -0.042363465 -0.13978182 0.080327965 -0.004588181 -0.01641231
-0.029520663 -0.05025426 -0.11193351 -0.060883753 0.038982138 -0.09049587 -0.05056201 0.042470038
0.055101752 0.012570252 -0.08157638 -0.028149018 0.08383492 -0.0014192291 0.0014401111 -0.0015356655
0.0026785675 -0.13010931 0.072273105 -0.038706474 -0.01750333 0.060579978 0.07506251 0.114452094
-0.00017116718 0.11998868 -0.011347688 -0.07252923 -0.122561015 -0.01518396 -0.024104282 -0.00329426
0.04294509 -0.085180566 0.023356289 -0.0782761 0.006179345 -0.036850154 -0.069821745 -0.08631196
-0.0796714 -0.014645191 -0.1356406 0.07595396 0.015595995 -0.069834344 -0.012908956 -0.043728456
-0.08441993 0.059782945 -0.011247767 -0.021299878 -0.14638677 0.21689233 -0.00789042 0.006957728
-0.017721023 -0.0025006474 -0.03517175 0.02814779 0.038298443 -0.011079778 0.017983874 -0.044185087
-0.07071149 -0.030904997 -0.0041037207 0.03707543 0.03136059 -0.14264046 -0.14555669 0.01824024
-0.007247872 0.074817486 -0.050899316 0.08072821 -0.11917847 0.09109655 0.033229142 -0.08422035
0.14990254 -0.083445504 0.08075735 -0.11412007 -0.090269536 0.040403403 -0.090666436 0.148318
-0.017520968 -0.089111425 0.015812555 0.045701824 -0.116359405 -0.10239753 0.060753185 -0.09035377
-0.0227967 0.025794828 -0.03252121 -0.060083397 -0.0017888988 0.06989635 -0.07536999 -0.05187752
-0.062558986 -0.0053275456 0.055877384 0.020659704 -0.05818607 -0.021280726 0.16534959 -0.13886914
00000000: 0453 fdbc 2043 f8bc 5431 e53c e8ce a5bd
00000010: 11dc 763d bbc5 833c 46d7 efba 5c2e e7bd
00000020: e2da 3c3d b7bc 003c 5d5a 02bd 0daf 483d
00000030: 5822 da3b 9cac 6ebc 6368 103d feb4 43bc
00000040: 81fe 31bb 13e7 18be 5cd8 1cbe 95bf ebbd
00000050: 51b0 4dbd 3eb9 85bd 4da1 db3d a1dd 663d
00000060: 8e27 413d 9f32 07bb e558 9cbd 2c3e e13c
00000070: aeac ab3b 208c a83d c245 7bbc dcaa 413c
00000080: 935e 24bc 8ef6 dc3c 7865 f3bc dcbc 1ebe
00000090: a720 9e3c f264 08be 1012 203b ae7e f43d
000000a0: 7d49 85bd 2797 17bd 9f23 4b3c c3b6 edbc
000000b0: d080 d2ba 0092 08be d2fa e63d 0ee4 9abd
000000c0: 72ae bc3d e276 1bbd 9912 5abb 310e abbc
000000d0: f1f0 c1bc 24f2 e43c 29e2 d8bc d95f 1bbe
000000e0: f047 22be b506 333c 1f8e d4bd a752 e0bd
000000f0: 0f64 013d aaaf c13d bced 083c e889 86bb
00000100: 3b77 5bbd c82f 3e3c afb2 a9bd cd8b 54bd
00000110: 4235 933c a199 0a3d 116f a93d 071b cabd
00000120: 5934 553a ef84 b0bd d5a5 773b 9878 c53c
00000130: 8658 7abd 82e7 bebc 467d 88bc 3d02 693c
00000140: 6571 a73d 50c2 633d 1cd6 61bd 0559 563c
00000150: d76a 9fbd 3d2e 66bc b3a1 c9bc 4daf eabd
00000160: 5fd1 20bd fa70 a1bc 2b8c 563c 1138 19be
00000170: 5f8f 943d 433e 733d f688 9b3d ec1a 3abc
00000180: b74f 9b3d abdf 6abd 9d83 b5bc fc04 2bbd
00000190: dfad 17be 1578 583d 96c6 afba 4ff1 3e3c
000001a0: e686 b73d 5ff6 323d a8c8 d4bc 5405 e63d
000001b0: b0c6 62bd 0045 1c3c 07a3 1bbc 5bff 80be
000001c0: 246b 25bb 7439 6dbd ab6f 0cbe 8370 943d
000001d0: 898a 133e 2a4d 5d3d aff0 9fbc bc63 3bbe
000001e0: c03b 5c3d 16f4 c0bd ab63 b83a 0d25 a7bd
000001f0: 601a 983c 245b 383d a7ce d9bd 9ee6 ea3b
00000200: 0dab 78bd 0e81 c0bd fee7 dfbd 84d8 08bd
00000210: 1324 25bc 7a65 06be d332 a93c edd3 95bd
00000220: 6275 16be 61cd 393d 2dcd 88bd 5085 2dbd
00000230: f722 0fbe fd82 a43d 7458 96bb 1c73 86bc
00000240: 51d5 f1bc 69d7 4dbd 653d e5bd 3e61 79bd
00000250: bcab 1f3d e655 b9bd 1c1a 4fbd 10f5 2d3d
00000260: 60b2 613d 75f3 4d3c 8411 a7bd c598 e6bc
00000270: a4b1 ab3d 6d05 baba 1cc2 bc3a 6248 c9ba
00000280: e88a 2f3b 603b 05be ec03 943d ae8a 1ebd
00000290: 2563 8fbc b622 783d 60ba 993d dc65 ea3d
000002a0: 577b 33b9 a0bc f53d a7eb 39bc 348a 94bd
000002b0: 4501 fbbd 25c6 78bc 5876 c5bc 83e4 57bb
000002c0: 31e7 2f3d 2673 aebd b055 bf3c 384f a0bd
000002d0: 1a7c ca3b 30f0 16bd b4fe 8ebd 53c4 b0bd
000002e0: c22a a3bd 62f2 6fbc 5fe5 0abe c08d 9b3d
000002f0: 5886 7f3c 4f05 8fbd 1680 53bc 9c1c 33bd
00000300: 5be4 acbd f6de 743d 8e48 38bc 157d aebc
00000310: 6ae6 15be 0619 5e3e d246 01bc a7fd e33b
00000320: ae2b 91bc e7e1 23bb 4110 10bd 3296 e63c
00000330: d4de 1c3d f587 35bc eb52 933c 6cfb 34bd
00000340: 30d1 90bd 7a2c fdbc 8178 86bb 68dc 173d
00000350: f673 003d 5710 12be d00c 15be 8e6c 953c
00000360: 8f7f edbb e939 993d cd7b 50bd d554 a53d
00000370: d713 f4bd d490 ba3d 481b 083d b87b acbd
00000380: 0d80 193e 7ae5 aabd 1c64 a53d c9b7 e9bd
00000390: 3cdf b8bd 0a7e 253d 53af b9bd ace0 173e
000003a0: 2288 8fbc 0d80 b6bd 5589 813c d631 3b3d
000003b0: d74d eebd ccb5 d1bd 55d8 783d 660b b9bd
000003c0: 25c0 babc ad4f d33c f634 05bd 021a 76bd
000003d0: 7c79 eaba d125 8f3d 955b 9abd 867d 54bd
000003e0: ed1e 80bd b192 aebb afdf 643d 8a3e a93c
000003f0: 8454 6ebd eb54 aebc 6751 293e b633 0ebe

network_body._body_endoder.seq_layers.4.bias f4 [256]
-0.0040688035 0.011892765 -0.017766016 -0.0040869284 -0.044892017 -0.049159113 -0.0034137699 -0.0100523
-0.059410892 -0.004339676 -0.013317976 0.0026585513 -0.058457617 0.002034608 -0.008979069 -0.11109129
-0.018207062 -0.030502733 0.032761537 -0.055057213 -0.03247771 -0.097090445 0.026994215 -0.050064586
0.014272137 0.05058948 -0.09520686 0.0071272263 -0.004936933 0.010499959 -0.01788682 -0.007266303
0.03001524 -0.039475042 -0.06471728 -0.020107288 -0.045625478 -0.011796508 0.017098125 -0.0102697695
0.010075791 -0.026713716 0.026288083 0.02546286 -0.035831455 -0.027979314 0.0030830125 -0.01905719
-0.041250333 -0.025393402 -0.025535008 -0.036224317 -0.026117716 -0.0031269344 -0.024430884 -0.033891346
-0.011362462 0.022403928 -0.0033149794 -0.021227112 -0.01626534 -0.031716917 -0.040044308 -0.02963152
-0.042238202 -0.0401254 -0.055748623 -0.0018811947 -0.048073933 -0.04774149 -0.0125931855 -0.008433705
-0.038708687 -0.07363515 -0.018949585 0.032290738 -0.04075695 -0.012736959 -0.07180037 -0.02981067
-0.029148228 -0.072149664 -0.012366185 -0.024678295 -0.04669894 -0.034518603 -0.017675431 -0.03655731
0.06789505 -0.0073642367 -0.00017163462 -0.013574819 0.019771108 0.014258888 -0.011719428 0.057019196
0.007578617 -0.007485934 0.048513863 0.035093017 0.017555546 0.019776521 0.010352133 -0.04520507
0.0063113556 -0.021355484 -0.0034712355 -0.03569696 -0.0223986 -0.06388629 -0.01776873 -0.04329163
0.021705497 -0.07428475 -0.03141841 -0.07279031 -0.030615177 0.026620425 0.02615335 -0.0012470131
-0.065938115 -0.035432488 0.0010765245 -0.062065613 0.013139894 0.012968809 -0.05970756 0.040221654
-0.07517574 0.016953977 -0.034128502 -0.011456349 -0.011732616 -0.06262017 -0.04634406 -0.041366436
-0.01918761 -0.016216774 0.013037228 0.048416857 0.0153707415 -0.06780937 -0.02465427 -0.04835364
-0.023807056 0.019504754 -0.07036645 -0.045059673 -0.023798786 0.0431016 0.014619028 0.0010333736
-0.02201818 -0.019778838 0.016927714 0.0016156356 -0.030691834 0.03265416 0.009294332 -0.041006975
-0.07195492 -0.02131093 0.011358543 -0.03227524 0.0075650536 -0.01166838 -0.0064930194 0.0060122125
-0.0019787713 -0.08002018 -0.07846748 0.017682195 -0.0920143 -0.03024554 -0.046057504 -0.02630986
-0.0017951569 -0.029315187 -0.06482821 -0.016393257 -0.02579091 -0.0120838 -0.012398944 -0.008520219
-0.066078044 -0.00211269 0.028019737 -0.0008927983 -0.04550447 -0.034115348 0.015417707 -0.03027317
-0.04364577 0.0014858731 -0.019193137 -0.0018005341 -0.03285755 -0.04155503 -0.025799923 -0.009646646
-0.0052431547 0.010176804 -0.06278461 -0.14456774 -0.061525144 0.02609093 -0.06949694 -0.057674862
-0.014289171 -0.046758696 -0.015719537 -0.06512515 -0.03241774 -0.061318472 0.022040563 -0.046148214
-0.10353086 0.027757006 -0.07649871 0.019933222 0.001122058 -0.020218212 -0.0026718588 -0.014352761
-0.034459934 -0.013592277 -0.047038995 0.002836583 -0.042295087 -0.05761768 -0.015852228 -0.017256038
-0.009117027 -0.02133005 -0.0005080448 -0.008700369 -0.02415199 -0.037590485 -0.08665436 0.026860295
0.014471143 -0.02640237 -0.014395888 0.0043139625 0.008457494 -0.04583065 -0.007332161 0.0084663555
-0.023585036 -0.01934212 0.0067435163 -0.04328643 -0.038922593 -0.05555069 0.00537507 -0.08641257
00000000: 9953 85bb dfd9 423c 098a 91bc a4eb 85bb
00000010: b1e0 37bd 115b 49bd 8eb9 5fbb 67b2 24bc
00000020: d658 73bd d733 8ebb a433 5abc 173b 2e3b
00000030: 4171 6fbd 0f57 053b f21c 13bc d583 e3bd
00000040: fa26 95bc dee0 f9bc f630 063d ac83 61bd
00000050: 5907 05bd 5bd7 c6bd f922 dd3c 8610 4dbd
00000060: aed5 693c ea36 4f3d d0fb c2bd 828b e93b
00000070: ffc5 a1bb 0508 2c3c 6187 92bc 2b1a eebb
00000080: 85e2 f53c 95b0 21bd 7e8a 84bd 0ab8 a4bc
00000090: c8e1 3abd 2446 41bc 5e11 8c3c 8942 28bc
000000a0: ee14 253c b9d6 dabc 1b5a d73c 7d97 d03c
000000b0: 01c4 12bd e034 e5bc 5e0c 4a3b d31d 9cbc
000000c0: 1cf6 28bd d305 d0bc cb2e d1bc f35f 14bd
000000d0: d2f4 d5bc 41ed 4cbb 4723 c8bc a7d1 0abd
000000e0: 9f29 3abc 7188 b73c 2040 59bb 7be4 adbc
000000f0: e43e 85bc 99e9 01bd 8005 24bd cdbd f2bc
00000100: f701 2dbd 885a 24bd ab58 64bd 6b92 f6ba
00000110: 2ce9 44bd 958c 43bd a653 4ebc 862d 0abc
00000120: 008d 1ebd 07ce 96bd 293c 9bbc 4b43 043d
00000130: c2f0 26bd aeae 50bc 130c 93bd 8235 f4bc
00000140: 44c8 eebc 34c3 93bd 8a9b 4abc 232a cabc
00000150: 6347 3fbd 6163 0dbd 11cc 90bc 1ebd 15bd
00000160: 8f0c 8b3d b24f f1bb d1f8 33b9 eb68 5ebc
00000170: 05f7 a13c 1c9e 693c d802 40bc f68c 693d
00000180: 0c56 f83b 914c f5bb 79b6 463d b2bd 0f3d
00000190: a6d0 8f3c 5f02 a23c fe9b 293c f428 39bd
000001a0: 7dcf ce3b b2f1 aebc ab7d 63bb fa36 12bd
000001b0: 457d b7bc d1d6 82bd ba8f 91bc 9052 31bd
000001c0: bacf b13c 9a22 98bd 97b0 00bd 1613 95bd
000001d0: aecc fabc 1413 da3c 8d3f d63c d172 a3ba
000001e0: 900a 87bd a821 11bd 2b1a 8d3a 8338 7ebd
000001f0: b648 573c 217b 543c ea8f 74bd 76bf 243d
00000200: bdf5 99bd 11e3 8a3c 54ca 0bbd 69b3 3bbc
00000210: 293a 40bc 013f 80bd 45d3 3dbd da6f 29bd
00000220: 562f 9dbc 0ad9 84bc 199a 553c c150 463d
00000230: 90d5 7b3c a4df 8abd c0f7 c9bc 770e 46bd
00000240: 0407 c3bc 6fc8 9f3c 491c 90bd 7e90 38bd
00000250: acf5 c2bc 4e8b 303d a684 6f3c 4472 873a
00000260: 785f b4bc 3b07 a2bc fdab 8a3c bcc3 d33a
00000270: 716d fbbc 5ec0 053d 4147 183c eef6 27bd
00000280: 1a5d 93bd 4294 aebc 2f19 3a3c 0b33 04bd
00000290: 45e4 f73b bc2c 3fbc 65c3 d4bb 1802 c53b
000002a0: 46ae 01bb 9fe1 a3bd 8fb3 a0bd 40da 903c
000002b0: fe71 bcbd 7fc5 f7bc cba6 3cbd c787 d7bc
000002c0: 784b ebba 6726 f0bc a7c4 84bd 274b 86bc
000002d0: 7547 d3bc 21fb 45bc f124 4bbc 6398 0bbc
000002e0: ed53 87bd 0e75 0abb a689 e53c ae0a 6aba
000002f0: e562 3abd 89bc 0bbd 8d9a 7c3c 70ff f7bc
00000300: e8c5 32bd a1c1 c23a ed3a 9dbc e6ff ebba
00000310: a395 06bd 9b35 2abd 5c5a d3bc f70c 1ebc
00000320: c5ce abbb 9cbc 263c 3895 80bd 9109 14be
00000330: ca01 7cbd a5bc d53c 6954 8ebd 7a3c 6cbd
00000340: 211d 6abc 0c86 3fbd 42c6 80bc 5660 85bd
00000350: 77c8 04bd 1429 7bbd 698e b43c e905 3dbd
00000360: fd07 d4bd a962 e33c 5bab 9cbd ff4a a33c
00000370: 0512 933a aaa0 a5bc 5a1a 2fbb d827 6bbc
00000380: dc25 0dbd 24b2 5ebc f6ab 40bd f7e5 393b
00000390: 9d3d 2dbd 8400 6cbd 88dc 81bc 895c 8dbc
000003a0: 955f 15bc 5bbc aebc 4f2e 05ba fe8b 0ebc
000003b0: 65da c5bc 7bf8 19bd d777 b1bd 1f0a dc3c
000003c0: 5f18 6d3c c849 d8bc bbdc 6bbc 245c 8d3b
000003d0: 4d91 0a3c ebb8 3bbd a042 f0bb 78b6 0a3c
000003e0: 6835 c1bc 5e73 9ebc b7f8 dc3b 1d4d 31bd
000003f0: 4c6d 1fbd 1f89 63bd 5b21 b03b 13f9 b0bd

network_body._body_endoder.seq_layers.4.weight f4 [256, 256]
0.11602169 -0.07352889 -0.005455497 0.064515986 0.0027062348 0.023860775 0.0638555 0.08139052
-0.10668768 -0.0352136 -0.016764302 0.07417895 -0.18963356 0.038927693 0.07083921 0.020777728
-0.12634574 0.022406112 0.005799596 0.07829394 0.076705724 -0.05441881 0.012156302 0.041562453
0.036844857 -0.07059768 0.054052036 0.034339532 -0.0927576 -0.06005231 0.079720855 -0.0971647
0.008132777 -0.021956103 -0.17367133 -0.036661014 -0.075049005 0.1185484 -0.07188537 0.05354506
0.07946946 0.03501274 0.031774905 -0.1017782 0.006756316 0.077765 -0.021471541 0.0060610967
-0.0010268741 -0.05552531 0.017851515 0.020976659 0.10576204 -0.021887213 0.022425067 -0.06929657
0.12989652 0.11377692 -0.13880706 0.12421098 0.070461206 -0.11378253 0.009054314 -0.006243543
0.02759713 0.08102105 0.07904301 0.10490127 0.1303077 0.10755822 0.060937993 0.03825494
0.071895055 -0.11253439 0.084726274 0.06750073 0.069214106 -0.11623509 0.059698574 0.089255854
0.09083096 -0.012783129 -0.04698663 -0.104389764 0.15296268 0.020676393 0.07537822 0.13627219
0.04016579 -0.03883812 0.04037831 0.09304181 0.050609674 0.05939077 -0.024599623 0.013298882
-0.008997095 0.065108806 -0.01938503 -0.0025285424 0.010340328 0.11725464 -0.013275488 -0.026332017
-0.002768863 -0.0596266 0.05793357 -0.103789195 0.026914634 -0.15476167 0.11175981 -0.04851933
0.22741635 -0.023267807 -0.028889759 -0.12134214 0.09237988 0.08364286 0.035541587 -0.07013498
0.037398573 -0.018264942 -0.1383458 -0.0068380213 -0.13050525 0.13148545 -0.12502635 0.17476465
-0.15343587 -0.017477892 0.08068139 -0.022256691 0.10994514 -0.00363816 0.04289672 0.012693607
-0.1069134 0.04497834 0.092370585 -0.0399621 -0.18056348 0.08315031 -0.010581949 -0.028430268
0.07606968 -0.049616717 0.06961467 -0.013044013 -0.105101824 -0.009669777 -0.002956008 0.01172416
0.009003052 0.1378869 0.005717368 0.0061564934 0.028124006 -0.04433648 -0.040522832 0.1302338
0.08998087 -0.05268832 0.028486958 -0.08967072 -0.056851666 -0.13596638 -0.042389534 -0.09547424
0.12813628 -0.0023174037 -0.07451579 0.1192505 -0.09262899 0.0017713854 -0.043830693 -0.008393127
-0.10970937 0.07587935 -0.049650915 0.049724925 0.0045621847 0.030797143 -0.0077304575 0.0147868935
-0.011275316 0.011384228 0.13873456 -0.06425158 -0.033401817 0.14217149 -0.04348653 -0.013181452
-0.07998573 -0.041822948 0.014477972 0.04979053 0.019306617 -0.10442993 0.12152411 0.0017392406
0.010237876 0.05750406 0.10764803 0.07249858 0.15296422 -0.00784913 0.07049139 0.0049064904
0.012295522 0.004159732 -0.07269381 0.027288789 0.050560877 -0.00013546423 -0.063747406 -0.048810102
-0.1014281 -0.02118458 0.024374971 0.052136276 -0.008057194 0.14829086 -0.12587662 0.08426231
-0.008945596 0.14803264 0.031225186 -0.07331579 0.006632594 0.070917584 -0.049780924 -0.014573043
0.11220828 -0.0266129 0.047806922 -0.026362399 -0.0011973677 0.13711989 0.14432237 0.0123223495
0.026300685 0.087106235 -0.038970225 -0.12189164 -0.10296751 -0.0802952 0.05253023 0.11390788
0.010760582 -0.043973524 0.07034451 0.13858269 0.011343835 -0.0603289 0.058061432 -0.06540363
00000000: c89c ed3d 5196 96bd 07c4 b2bb f520 843d
00000010: 165b 313b ac77 c33c acc6 823d 13b0 a63d
00000020: 127f dabd 233c 10bd 4a55 89bc 22eb 973d
00000030: 4d2f 42be a572 1f3d 2614 913d 0e36 aa3c
00000040: c760 01be 068d b73c 8a0a be3b 9358 a03d
00000050: e417 9d3d 42e6 5ebd 3a2b 473c 643d 2a3d
00000060: a2ea 163d 8495 90bd ab65 5d3d 9ca7 0c3d
00000070: b2f7 bdbd 69f9 75bd b044 a33d 49fe c6bd
00000080: 573f 053c 49dd b3bc e6d6 31be dc29 16bd
00000090: 4bb3 99bd 81c9 f23d a338 93bd 1152 5b3d
000000a0: e2c0 a23d 8569 0f3d 6726 023d 1771 d0bd
000000b0: 1664 dd3b 4243 9f3d 16e5 afbc 2a9c c63b
000000c0: 2d98 86ba 826e 63bd 573d 923c 3ed7 ab3c
000000d0: c599 d83d d04c b3bc c6b4 b73c 5ceb 8dbd
000000e0: 9803 053e e003 e93d 7023 0ebe 5462 fe3d
000000f0: f74d 903d d106 e9bd 8c58 143c a296 ccbb
00000100: 6013 e23c 5dee a53d 4de1 a13d 7ad6 d63d
00000110: 626f 053e 7c47 dc3d 1e9a 793d 36b1 1c3d
00000120: b73d 933d 6e78 e6bd f884 ad3d d33d 8a3d
00000130: 20c0 8d3d aa0c eebd 7e86 743d c6cb b63d
00000140: 9505 ba3d 5470 51bc 0d75 40bd 4dca d5bd
00000150: 40a2 1c3e 8a61 a93c e55f 9a3d f08a 0b3e
00000160: e284 243d b814 1fbd ba63 253d b48c be3d
00000170: 174c 4f3d bc43 733d 2685 c9bc 8ee3 593c
00000180: 8d68 13bc c457 853d 5bcd 9ebc e7b5 25bb
00000190: 7b6a 293c 3323 f03d 6f81 59bc 3eb6 d7bc
000001a0: d075 35bb 063b 74bd c04b 6d3d 6e8f d4bd
000001b0: 147c dc3c d879 1ebe 54e2 e43d 34bc 46bd
000001c0: d5df 683e 219c bebc 37aa ecbc 3a82 f8bd
000001d0: aa31 bd3d f34c ab3d 0e94 113d eea2 8fbd
000001e0: 3f2f 193d 5ca0 95bc 85aa 0dbe 7b11 e0bb
000001f0: 2ba3 05be 1fa4 063e e806 00be 81f5 323e
00000200: 4b1e 1dbe cc2d 8fbc 493c a53d aa53 b6bc
00000210: eb2a e13d 326e 6ebb 79b4 2f3d d9f8 4f3c
00000220: 6af5 dabd 353b 383d ca2c bd3d 4daf 23bd
00000230: a2e5 38be b64a aa3d e95f 2dbc 98e6 e8bc
00000240: 6cca 9b3d e63a 4bbd 2392 8e3d 8eb6 55bc
00000250: a03f d7bd fc6d 1ebc 96b9 41bb b116 403c
00000260: 8981 133c 3932 0d3e c258 bb3b 69bc c93b
00000270: 5164 e63c 2b9a 35bd 45fb 25bd 025c 053e
00000280: e447 b83d b5cf 57bd 7b5d e93c 48a5 b7bd
00000290: 4bdd 68bd c53a 0bbe a6a0 2dbd 0088 c3bd
000002a0: 2836 033e 95df 17bb bc9b 98bd 9b39 f43d
000002b0: 45b4 bdbd d52d e83a d087 33bd 5383 09bc
000002c0: 4eaf e0bd a266 9b3d c25e 4bbd 5dac 4b3d
000002d0: 617e 953b 4a4a fc3c c74f fdbb ba44 723c
000002e0: 1abc 38bc ea84 3a3c 6f10 0e3e 5596 83bd
000002f0: 58d0 08bd 6795 113e ef1e 32bd 04f7 57bc
00000300: 8fcf a3bd 8a4e 2bbd 0435 6d3c 28f1 4b3d
00000310: e928 9e3c 5cdf d5bd a2e1 f83d 3bf7 e33a
00000320: c4bc 273c 6189 6b3d 9276 dc3d 237a 943d
00000330: a7a2 1c3e a399 00bc ca5d 903d a0c6 a03b
00000340: 2873 493c 5c4e 883b 7ee0 94bd bd8c df3c
00000350: ec18 4f3d 670b 0eb9 008e 82bd 1aed 47bd
00000360: 89b9 cfbd 498b adbc 05ae c73c d98c 553d
00000370: 5202 04bc 8fd9 173e cde5 00be b891 ac3d
00000380: 8d90 12bc de95 173e f6cb ff3c 9726 96bd
00000390: 3b56 d93b 3d3d 913d 15e7 4bbd c6c3 6ebc
000003a0: 74cd e53d 4c03 dabc 31d1 433d f5f5 d7bc
000003b0: fef0 9cba 2869 0c3e 3ec9 133e aee3 493c
000003c0: 8974 d73c c164 b23d 3e9f 1fbd 53a2 f9bd
000003d0: a1e0 d2bd cf71 a4bd f029 573d 8948 e93d
000003e0: 274d 303c 951d 34bd c810 903d 9fe8 0d3e
000003f0: 7edb 393c 701b 77bd d3d1 6d3d 57f2 85bd
