results/Drone3/Drone/Drone-8999797.onnx (onnx, 810629 bytes, 11 tensors)

action_model._continuous_distribution.log_sigma f4 [1, 4]
000000 9e 3b 79 bf 3c a5 70 bf d6 db 74 bf 84 71 6b bf
       -0.97356594 -0.9400213 -0.95647943 -0.91970086

action_model._continuous_distribution.mu.bias f4 [4]
000000 4b 56 da 3c d5 72 0d bc a5 88 b5 3c ea 2d c2 bc
       0.026652476 -0.008633335 0.022159884 -0.023703534

action_model._continuous_distribution.mu.weight f4 [4, 256]
000000 d3 94 5d 3d b6 37 7a bc 1b ff 0f bd 9e a4 53 bd
       0.054097008 -0.015272072 -0.035155397 -0.051670663
000010 45 23 27 bd 60 a4 98 b9 8f 55 d9 bc fa b8 08 bd
       -0.04080512 -0.00029114168 -0.026530055 -0.033379532
000020 32 43 08 3c 0b f6 be 3a 66 ca 7d bc 70 f5 97 3c
       0.008316802 0.0014569176 -0.01549015 0.01854965
000030 39 bf 3a 3d 9b 77 37 bc 0e bf 82 39 d8 64 04 bd
       0.04559252 -0.01119795 0.0002493788 -0.032322735
000040 ac bd 18 bd 74 6e 74 3c 4e b0 03 3c ec 66 ff 3c
       -0.03729026 0.014918912 0.00803764 0.031177007
000050 86 ca 80 ba 1b a6 c6 ba 48 2b 83 3c 55 5b 1b bd
       -0.0009825982 -0.0015155704 0.016011849 -0.037928898
000060 47 26 11 3d 42 5d a9 bc 8f 56 73 3b 6c ad 27 bd
       0.035436895 -0.020674352 0.003713045 -0.040936872
000070 4a 3a a7 3c 74 0c 89 bd 9f c7 1c bc 2c 8d 87 bc
       0.020413537 -0.06691828 -0.009569078 -0.016546808
000080 da 9f aa 3c 1e 76 fa 3c cc 49 8a bc fd 8b 79 bd
       0.020828176 0.0305739 -0.016880892 -0.06092452
000090 f5 2f 90 3d 9a 39 76 3c 53 4f e8 3b 7b 4e 7f bb
       0.07040397 0.015028382 0.0070895343 -0.003895669
0000a0 48 78 9d 3c 5c 09 d0 bc 71 78 c5 3c 72 b8 76 bc
       0.019222394 -0.025395088 0.024105283 -0.015058624
0000b0 fa 80 76 bd 9d 55 93 bd 7c 2e 07 3d 41 f0 8b bd
       -0.060181595 -0.07194064 0.033003315 -0.06832934
0000c0 fd 88 e2 3c 51 69 9a bc 62 be 10 bd d5 39 28 bd
       0.027653212 -0.018849047 -0.035337813 -0.041070778
0000d0 89 e2 48 bd e6 9f 6d 3c 11 58 21 3d 71 80 60 bd
       -0.049044166 0.014503455 0.039390627 -0.05480999
0000e0 bb 09 5b bd 76 9f 2c bd 71 52 db bd 68 df 1f 3a
       -0.053476077 -0.04214426 -0.10709084 0.0006098659
0000f0 f6 bf 97 3c 1c 02 9c 3c f1 ad 4b 3d 7f 41 1d 3d
       0.018524151 0.019043975 0.04972643 0.03839254
000100 64 9d 2a bd c1 ce bc bd 16 1d 5c bd 03 84 9e 3c
       -0.041654006 -0.09219123 -0.053738676 0.019350057
000110 db 18 31 3d d3 0c 10 ba 4d 42 9d bb 39 18 61 bd
       0.043236595 -0.0005495075 -0.0047991634 -0.05495474
000120 c2 78 49 bd 95 4c 1b bc 13 80 d1 3c 22 ac 2c 3c
       -0.04918743 -0.009478708 0.025573766 0.010539087
000130 73 5c 02 3d df c3 6d bd 66 13 a3 bc 2a 93 bc 3b
       0.031826448 -0.058048125 -0.01990671 0.005754848
000140 48 da b6 bc 73 27 07 bd ae 37 ad bc 7b 7b 75 bb
       -0.022320881 -0.032996606 -0.021144714 -0.0037457633
000150 aa e9 ef bc a0 b4 18 3d e2 4d 13 bd 7f 64 b3 3d
       -0.029286224 0.037281632 -0.035962947 0.087594025
000160 d2 a1 42 ba 12 50 68 bd 74 04 57 bc 60 43 09 3d
       -0.0007424626 -0.056716986 -0.01312362 0.03351152
000170 38 50 a6 3d b9 fd 70 bc f0 9b 0b bd 0d 13 28 bd
       0.08120769 -0.01470893 -0.03408426 -0.041033793
000180 3b a1 22 bd af 00 2d 3d 88 a7 15 bd 0a b1 e9 bc
       -0.039704543 0.04223698 -0.036536723 -0.028526802
000190 81 2c 62 bd 2e 99 51 bd 79 32 45 3d 71 77 05 bd
       -0.055218223 -0.051171474 0.048143838 -0.03258461
0001a0 e3 de c5 3b f1 2f 10 3d 3b 29 4b 3d 75 04 3d 3d
       0.006038533 0.03520197 0.049599867 0.04614683
0001b0 ef da 39 bd d3 ae 6c bd 96 48 14 bd 2d a7 c8 bc
       -0.045374807 -0.057783913 -0.036202036 -0.024493778
0001c0 ae 40 c9 3c f2 d0 ab bc 0a 03 11 bd a9 98 e2 39
       0.024566974 -0.020973656 -0.03540329 0.0004321982
0001d0 29 5a 21 3c 35 30 01 bd 6d 27 cc bc 4b da a9 bc
       0.009848156 -0.031540114 -0.024921143 -0.020733973
0001e0 36 5e 9c bc 69 0f 56 bd 46 cf b9 bc 82 9d 9b 3c
       -0.019087892 -0.05226079 -0.022681843 0.018996004
0001f0 1b ae 43 3d 12 cd ad 3b 8f 87 ea 3a 78 34 a5 bd
       0.04777346 0.0053039873 0.0017893183 -0.08066648
000200 d0 97 85 bd 72 60 a1 bc 6f f6 bd bc 73 47 30 bb
       -0.065230966 -0.019699309 -0.023188798 -0.0026898056
000210 3c a7 c3 bc 41 45 29 3c 31 75 54 bd 28 7b 6b bd
       -0.023883455 0.010331453 -0.051869575 -0.057490498
000220 c9 d7 27 3d 2a 3f fd bc 24 76 75 3d 68 bb be bd
       0.040977273 -0.030913908 0.05992712 -0.09313089
000230 d0 6d 45 bd cc 64 f1 bc 80 c1 56 bc ac 68 08 3d
       -0.04820043 -0.029467009 -0.013107657 0.033302948
000240 91 ed e8 bc fc d5 7d bd a4 5a 3f bd 86 2b e6 bc
       -0.028433593 -0.06197165 -0.0467173 -0.028096925
000250 ca 79 45 bd 52 d8 df bb cb f9 52 bc c8 5e 30 bd
       -0.04821185 -0.0068312073 -0.012876938 -0.04305914
000260 c2 ce 38 3b 5a 12 6b 3c 12 4d 8c 3c ac 3a 4e 3c
       0.002819941 0.014347637 0.017126594 0.012587231
000270 2e d5 28 bd 03 7e 35 bc a6 2c 5d 3c 15 49 4f bd
       -0.04121893 -0.011077407 0.013499415 -0.050606806
000280 6c bd 1b bd 07 13 7c 3d 81 e3 48 bd da 0f 6e bd
       -0.038022444 0.061541583 -0.04904509 -0.058120586
000290 83 f3 78 3c f9 11 fd bc 2d bf 31 3d bb eb 25 3d
       0.0151947765 -0.03089236 0.04339521 0.040508013
0002a0 b1 9a 67 bd c3 f8 e9 bc df fb 40 bd b3 8a 3c bd
       -0.05654401 -0.028561002 -0.047115203 -0.04603071
0002b0 12 dd b1 3d b2 27 f4 bb 87 56 a5 bc 40 18 b1 3c
       0.08684744 -0.007451021 -0.020182861 0.021618009
0002c0 b4 e9 07 3c 47 a4 e1 3c b0 80 94 3c 84 93 f5 3c
       0.008295465 0.027544154 0.01812777 0.029977567
0002d0 e1 ca 9e 3b 36 82 d2 3c 91 62 ee 3a f5 21 2c 3d
       0.0048459624 0.025696855 0.0018187334 0.04202457
0002e0 31 ab 5e bc 2e de 05 bd 65 d0 e2 3b 64 1b 76 bd
       -0.01359062 -0.03268259 0.006921815 -0.060084715
0002f0 d1 2c 8d bc ab 77 2f bc 79 9b 66 3c 83 3e 73 3c
       -0.017233284 -0.010709683 0.0140751535 0.014846447
000300 bb 1f 52 bd 85 b7 90 3c e2 a7 98 3c e4 e8 77 bd
       -0.05129979 0.017665634 0.01863474 -0.060524836
000310 cb 78 8a bc 22 95 77 bb 81 c4 23 bd d1 ea 14 3c
       -0.016903302 -0.00377781 -0.039982323 0.009089188
000320 46 a7 4c bd c1 a7 2c 3c 68 20 46 bc 6d d5 fd bc
       -0.049964212 0.0105380425 -0.012092687 -0.030985558
000330 bc 0f cc 3c 11 4e 9f bc f2 3f 3f bd 0c 13 aa bc
       0.024909846 -0.019446405 -0.046691842 -0.020761035
000340 3c 36 2c bc 76 76 d1 bc 6b 1a 57 bd 25 fe 12 bd
       -0.010510977 -0.025569182 -0.05251543 -0.035886902
000350 1a 6b 6c 3c a2 63 5e 3b 4c cf a2 bc 78 60 c9 bc
       0.014429832 0.0033933898 -0.019874237 -0.024582133
000360 83 59 8c bd ee 90 12 3d 4d fa 47 bc 3e fd 1f 3d
       -0.068530105 0.035782747 -0.012205672 0.03905987
000370 f1 30 d6 bc fc 09 9a bc 57 c6 91 37 97 14 94 bc
       -0.026146384 -0.018803589 1.7377706e-05 -0.018076224
000380 8f e0 31 bd 61 a0 1a bd 0f 32 ae 3b bf c5 09 bb
       -0.043427046 -0.037750605 0.005316026 -0.0021022407
000390 af 8b 35 3d ad 3d b4 ba 13 c2 ba 3c 25 11 91 3d
       0.044322666 -0.0013751291 0.02279762 0.07083348
0003a0 15 56 43 bd d2 fc f6 bc cf 86 e4 3c b9 d3 cc bc
       -0.047689516 -0.030149851 0.027896313 -0.025003301
0003b0 14 02 b9 bc ca a3 f0 ba bd d5 15 bd e0 c2 0d bd
       -0.022583999 -0.001835936 -0.03658079 -0.034609675
0003c0 d2 01 ce bb 36 41 5b 3c bc c6 d2 bb c7 ea 86 b9
       -0.006286838 0.013382247 -0.0064323824 -0.00025733394
0003d0 0d 14 ef 3c 41 bb ba 3c 2c 11 8e 3c 48 dc 3f 3d
       0.029184366 0.022794368 0.017342173 0.046840936
0003e0 e4 31 f7 3c 12 9b 4d bc 60 92 55 bd a9 dc d5 bb
       0.030175157 -0.012549179 -0.052141547 -0.006526549
0003f0 ff d3 b7 3c 27 11 3e ba 7c c6 85 bc 9e 9b 8e bd
       0.022439955 -0.00072504807 -0.016329996 -0.069632754

network_body._body_endoder.seq_layers.0.bias f4 [256]
000000 73 97 ad 3d a0 3b df bd 93 9e f0 3d 63 45 36 bd
       0.08476152 -0.109000444 0.11748996 -0.044499766
000010 80 51 af bd 6c 28 8c bd d0 a4 05 bd e4 eb 45 bd
       -0.08560467 -0.06843647 -0.03262788 -0.048320666
000020 1d 65 da bd f8 bd ca bb 57 21 e6 bd c6 b3 87 bd
       -0.10663817 -0.006187197 -0.11236828 -0.06626086
000030 b2 87 8e bb 8d fb e0 bd 85 6c fc b9 46 14 f8 3b
       -0.0043496722 -0.109854795 -0.0004814604 0.007570776
000040 59 e4 e8 3d 8a d5 bc bd 2a 3d 06 bb 6e b2 ef bd
       0.11371679 -0.09220417 -0.0020483234 -0.11703955
000050 da 18 21 3b 13 e2 9c bd dc 08 25 bd 81 3e 92 bd
       0.0024581463 -0.07660308 -0.040291652 -0.07140828
000060 81 93 f2 3a ef 44 a2 bc 22 39 22 bd 22 0a 30 3c
       0.0018507094 -0.01980826 -0.039605267 0.010744603
000070 2a 5b 5c bd c8 78 4e be 42 e3 32 bc 07 a7 34 bc
       -0.05379788 -0.20163262 -0.01091844 -0.011026151
000080 9c bc 00 bd d2 3e e4 bd 88 13 66 bd 40 f3 d9 bd
       -0.031429872 -0.111447945 -0.05617097 -0.106420994
000090 bf 33 71 bd 47 53 d6 bd 86 cc e1 bd d7 4e c5 bd
       -0.05888724 -0.10465103 -0.11025338 -0.09634178
0000a0 34 0b cb bc 8a d0 a8 bd fc 02 b5 bc 49 40 44 3d
       -0.024785616 -0.08242901 -0.02209615 0.04791287
0000b0 80 c0 9d bd 30 b1 c1 bd fd a9 9b 3c 10 22 b7 bd
       -0.07702732 -0.09457624 0.019001955 -0.08942044
0000c0 2f 55 b8 3d 2b f0 1a bd cf 12 3e be 7f 05 d4 bd
       0.090006225 -0.0378267 -0.18561862 -0.10352611
0000d0 bc ad a7 bd c2 b5 4f 3d 41 03 89 bd 1b c7 26 be
       -0.08187434 0.050710447 -0.06690074 -0.1628689
0000e0 eb 94 d6 bd 1c e6 4c bd c7 63 a9 bc 56 1e 46 bd
       -0.104776226 -0.050024137 -0.02067746 -0.048368774
0000f0 71 89 2a be 6d c4 85 bd f7 2c cc bd 96 82 98 bd
       -0.16653992 -0.06531606 -0.09969514 -0.07446782
000100 d1 93 be bd d3 cb ae bd a3 7e 6f bd 8e 5a 57 3d
       -0.093055375 -0.0853497 -0.05847038 0.052576594
000110 d8 a9 11 be ae 30 d5 bc 01 e6 57 bc 98 fa c1 bd
       -0.14224946 -0.026024189 -0.013177396 -0.09471625
000120 64 14 60 bd 9b df fd 3c a5 78 f2 bd 3d 6b 4a bc
       -0.054706946 0.030990412 -0.11839417 -0.012354669
000130 d3 60 be bd 52 8a 22 bd 9f 2a f0 bd fe 23 2b be
       -0.092958115 -0.039682694 -0.11726879 -0.16712949
000140 c4 92 6f bd 45 91 8a 3d 67 b5 97 bd ac fa c9 3d
       -0.058489576 0.06765989 -0.074076466 0.09862265
000150 b6 12 23 bd 08 e1 fe bd 90 bc ea bd b4 d0 d8 bd
       -0.039812766 -0.12445265 -0.11461747 -0.10586682
000160 2f 36 c6 bd b8 ea 0f be 12 de c5 bd 23 57 24 bd
       -0.096783035 -0.14054382 -0.09661497 -0.040122163
000170 f9 d1 13 3e ef 7d 75 3c 13 e4 ac 3c 57 cd 0a be
       0.14435567 0.014983638 0.021104848 -0.13554893
000180 07 dc 63 bd dd 23 ba bd eb a4 c3 bd a8 6d 41 3d
       -0.055629756 -0.09088872 -0.0955294 0.047223717
000190 20 fc 39 bd 94 c3 47 bd 21 ce f5 bd 8a 8a ce bd
       -0.04540646 -0.048770502 -0.120022066 -0.10085018
0001a0 d2 c5 8b 3c 52 1c d7 bd ad 8f 23 3b b8 60 0f 3e
       0.017062102 -0.105034485 0.0024957464 0.14001739
0001b0 43 56 40 3c ec 08 ee 3b 4f 17 67 bd fc 24 65 bd
       0.011739316 0.007264247 -0.056418713 -0.055943474
0001c0 1d 2d 1b be 5a 03 a4 3d 13 ff 4c 3d d4 7a a2 bd
       -0.15153928 0.08008452 0.050047945 -0.07933584
0001d0 17 67 e3 bd 3d 88 91 bc 40 3b 0f be 1a 97 18 be
       -0.11103647 -0.017765159 -0.13987446 -0.1490139
0001e0 df 5e 4f 3c 7a cd d5 bd 03 c8 c5 bd 9f c7 8c bd
       0.012656896 -0.10439582 -0.0965729 -0.06874012
0001f0 46 e4 8b bd 5d 74 f0 3b 43 31 96 bc 13 cc 2f bd
       -0.06830649 0.0073380903 -0.018334037 -0.04291923
000200 78 c1 50 3d 4a 7e 1d bd b2 34 23 bd 94 ee c5 3c
       0.050965756 -0.038450517 -0.039845176 0.024161614
000210 98 51 16 bc 1f 35 c8 bd cb ba 6d 3d 42 44 d9 bd
       -0.009174727 -0.09775757 0.058039468 -0.10608722
000220 80 c7 de 3d e8 46 f9 bd 99 02 0b be a0 e6 01 3d
       0.10877895 -0.121717274 -0.1357521 0.03171408
000230 74 54 f9 bd e7 a0 d7 3d 7f d1 da bc 55 b4 0a be
       -0.12174311 0.105287366 -0.026711224 -0.13545354
000240 01 76 fe bd 9d 27 0a 3c 9d 5f ea bd 39 0b 64 be
       -0.12424851 0.008432296 -0.11444018 -0.22269906
000250 31 91 0f bd 25 93 25 bd 20 d3 9f bb 0c e2 b4 3c
       -0.035050575 -0.04042353 -0.004877463 0.022080444
000260 a1 a0 56 3d ca 45 8d 3d 63 97 ca bb df ee 6f bc
       0.05239928 0.06898077 -0.0061825975 -0.014644354
000270 c1 bb 0f 3d c2 25 9c bd d1 44 e2 bc 84 68 8e bc
       0.035091165 -0.07624389 -0.027620705 -0.017383821
000280 b9 75 a8 3d e6 bd ef 3d ef 42 8e bd 82 45 14 3d
       0.08225579 0.11706142 -0.0694636 0.0361991
000290 95 5d b4 bd a7 45 8e ba a6 8c 96 bd bc 95 62 bd
       -0.08806912 -0.0010854498 -0.07351045 -0.05531858
0002a0 ce fa 54 bc 6e 4c 3e 3d 22 08 67 bd ec 71 12 bd
       -0.01299925 0.046459608 -0.05640424 -0.035753176
0002b0 d3 ef be bc dc 74 98 b9 8e 75 a2 3d 6c 15 42 bd
       -0.023307716 -0.00029078766 0.07932578 -0.04738371
0002c0 4a cb 47 bd f7 2d 4c be ed 7e 32 3d e6 ef d4 bd
       -0.048777856 -0.19939409 0.043578077 -0.103973195
0002d0 56 9d 1e be fc f7 2c bd 6f 2a c4 bd 5f e6 f9 bc
       -0.15489706 -0.042228684 -0.09578406 -0.030505357
0002e0 f2 cc aa bd 3c 5c f9 3c 65 ce 0a be 3f 86 73 bd
       -0.083398715 0.030439489 -0.13555296 -0.0594542
0002f0 a6 28 36 bd e7 65 cd 3d 20 54 e7 bd ca 09 f3 3b
       -0.04447236 0.10029202 -0.112953424 0.0074169384
000300 df 5b 84 bd 07 47 55 bb 9d 18 95 bd 4a 9b 27 bd
       -0.064628355 -0.0032543556 -0.07280085 -0.04091958
000310 d6 21 52 bd 9b d7 2d bd 6d 40 3c bd d6 35 cf bc
       -0.0513018 -0.042441946 -0.04595988 -0.025294226
000320 b5 8c fc 3b 8b 9a 86 3d 78 0f bf bd c3 03 00 be
       0.0077072033 0.065724455 -0.09329122 -0.12501435
000330 c1 3a 5f bd 8f 36 bc bd 22 16 b1 bd e3 de 17 be
       -0.05449939 -0.09190094 -0.086467996 -0.14831118
000340 fe 59 98 bd 9e 11 5b bc f6 6e e7 3c 0d 8c 55 bd
       -0.0743904 -0.0133708995 0.028251152 -0.052135516
000350 88 a0 a7 bd 4b a4 0c bd 37 57 c1 bd ea 53 d3 bc
       -0.08184916 -0.03433637 -0.09440463 -0.02579685
000360 d5 0a 3a bd e3 b4 70 3d 22 1d a2 bd 7c 7c 9f bd
       -0.045420486 0.058766257 -0.07915713 -0.077874154
000370 12 f1 35 be 4a 8b 1c 3d 95 58 5d 3d 46 51 56 bc
       -0.17767742 0.038218774 0.054039557 -0.013080901
000380 eb b7 d3 bd f0 8d 15 bd e0 2e 80 bd e9 41 91 bd
       -0.10337814 -0.036512315 -0.06258941 -0.070926495
000390 ef d9 d9 bd 5b 50 45 bc 58 57 d5 3d 1b 0b 8e 3d
       -0.10637271 -0.012043084 0.1041705 0.06935712
0003a0 bb a0 e1 bd 70 e6 fe bc 73 6a 66 bd 74 85 bb bc
       -0.11016985 -0.03111574 -0.05625386 -0.022890784
0003b0 d6 36 6a 3b bc bf 11 3c 69 21 88 bd c0 3d 68 3d
       0.0035738251 0.008895811 -0.066469975 0.056699514
0003c0 b5 fb 6e bb bb 4c b0 3d 28 75 6f 3c 60 ec d0 3c
       -0.0036465947 0.08608385 0.014615335 0.025503337
0003d0 0f 2a 03 3d a8 ec 0c be 41 e2 0c bd b8 d5 d4 bd
       0.032022532 -0.13762152 -0.03439546 -0.10392326
0003e0 ba dd e2 bc f2 a8 df bc 30 8f aa bd 13 20 33 bd
       -0.027693618 -0.02730224 -0.08328092 -0.04373176
0003f0 b6 8d 80 3c 99 a3 8a bd 85 3b 03 bd 70 92 38 bd
       0.015692573 -0.06769485 -0.032039184 -0.04506153

network_body._body_endoder.seq_layers.0.weight f4 [256, 13]
000000 8d db 8c 3e 0f 23 75 be 97 09 44 be 59 2a f2 bd
       0.27511254 -0.23939155 -0.19144283 -0.118244834
000010 06 8d 06 3e bc 44 7e 3e cd ac 41 3f 8c a6 10 be
       0.13139734 0.24830908 0.756543 -0.14126033
000020 fd fb 7f bf 28 b1 7c 3f e7 0e 0e be 1b c8 93 bd
       -0.9999388 0.9870782 -0.13872872 -0.072159015
000030 7b 0a 2a 3f 1b bc 09 3e 54 68 4d 3e 00 de eb 3d
       0.6642224 0.13450663 0.2005933 0.115169525
000040 36 eb 6b be 76 e8 29 bd 2a 0c 0f bd 7a 58 86 3e
       -0.23038945 -0.041481458 -0.03492371 0.26239377
000050 a9 47 d0 bc b9 23 8d be 54 98 00 3d 97 1c 15 3e
       -0.025424795 -0.27566317 0.03139527 0.14561687
000060 14 5c b6 bb 48 8f 25 3f a0 9c 2b bd 48 39 bc 3d
       -0.005565176 0.64671755 -0.041897416 0.09190613
000070 b1 7a cb be e4 c6 55 bd 3e 93 59 bd d2 f5 04 3e
       -0.39742044 -0.05219163 -0.053118937 0.12984398
000080 b5 06 ef 3f 67 e0 00 3f 84 6d d5 3d 09 5c 15 3f
       1.8673922 0.5034241 0.10421279 0.5834356
000090 60 b4 2b be b4 50 1d 3f 30 ab d2 3d d5 4d 57 3e
       -0.16768026 0.6145127 0.10286558 0.21025784
0000a0 13 15 02 bf 1e b1 1c be 25 b8 4c bd 65 8c 07 3e
       -0.50813407 -0.1530194 -0.0499803 0.1323715
0000b0 56 cc 03 be 7d e1 7b bd 46 79 02 bd d1 9a 0f 3e
       -0.12870917 -0.06149434 -0.031853937 0.14023902
0000c0 a9 69 54 bd c4 0e ec 3c 90 ef d8 be 46 ed 4b bd
       -0.051858578 0.028815635 -0.42370272 -0.04978683
0000d0 e4 e5 a6 be c3 47 cb be d9 b9 07 3e 4b 14 39 3f
       -0.32597268 -0.39703187 0.13254489 0.7229659
0000e0 66 81 bf be 45 30 a0 3e 83 1d 49 3e c4 ea a0 3e
       -0.3740341 0.31286827 0.19640164 0.31429112
0000f0 48 d7 12 3e 6a 40 e1 be 58 80 e9 bd d7 fb da be
       0.14339936 -0.43994457 -0.11401433 -0.42770264
000100 4f 08 df 3d 76 07 e9 bc 07 7b 02 bd a8 92 07 3b
       0.108902566 -0.02844594 -0.03185561 0.002068678
000110 bb 8f 67 be 8b e3 26 3e 1f ad 7b 3e 27 d2 70 bf
       -0.22613423 0.16297738 0.24577759 -0.9407067
000120 f7 38 70 be 00 14 7e bb ad af 26 bd 0c 2b be bc
       -0.2345923 -0.0038769245 -0.04069488 -0.023213886
000130 c8 4e 56 3e 33 87 8d be f6 60 c8 bb 08 a1 8d be
       0.2092849 -0.2764221 -0.0061150743 -0.2766192
000140 11 31 01 bf ca fa 5e 3e 71 67 b3 bd a1 9e ee bd
       -0.50465494 0.21775356 -0.08759964 -0.1165135
000150 b2 35 0f bf 49 03 bb 3e 19 18 64 be 04 2d d0 3e
       -0.5594131 0.36525944 -0.22274818 0.40659344
000160 eb 82 28 3d a2 68 4c 3e a9 4c 86 be f8 d6 40 3e
       0.041140478 0.19961789 -0.26230362 0.18832004
000170 71 02 5c bf 4b 3f bf 3d f4 4c aa be e4 8a 96 3d
       -0.85941225 0.09338244 -0.33261836 0.0735071
000180 ad 4f 5b be 8e c4 c8 bd c4 07 1d bf 74 26 5a be
       -0.21417113 -0.09803115 -0.61339974 -0.21303731
000190 0c 6c 89 3e 1d 68 1f be 10 16 9c bd 83 62 34 be
       0.26840246 -0.1556706 -0.076213956 -0.17615704
0001a0 20 5b 6c 3e 74 01 73 bc fc a0 86 3d 23 d3 7b 3e
       0.23081636 -0.014831889 0.06573674 0.24592261
0001b0 ee 5e 2c 3e 49 50 83 be 6b 11 d3 be 4e 7d 1b bf
       0.16833088 -0.2564719 -0.41224226 -0.60738075
0001c0 6e 16 08 3e 64 79 f8 bd 56 3e c5 bb e8 62 2c 3c
       0.13289806 -0.121325284 -0.006019394 0.010521628
0001d0 5b 0e 63 be a3 38 bc 3e cf 95 64 be 17 56 0d 3e
       -0.22173445 0.3676196 -0.22322772 0.13802372
0001e0 f2 d0 14 3e 21 18 aa bd b9 04 9f 3d c9 48 44 bd
       0.14532831 -0.083053835 0.07764573 -0.047920976
0001f0 a9 0b a1 3d 5b 12 94 3e 1c 12 ce be 51 a6 ae 3d
       0.07863552 0.28920254 -0.4024819 0.08527816
000200 a5 8a 3c 3e 8d 2d c4 bd 84 2c 22 3d 6e 71 10 bd
       0.18412264 -0.095790006 0.039593235 -0.035264425
000210 49 57 e2 bc 2c 4d 9b 3d 0e cf b9 3c 0a 98 48 bd
       -0.027629511 0.07583079 0.02268174 -0.04897312
000220 d1 b6 c3 3c b4 0a c1 be 1c ed d5 bd 83 c7 91 be
       0.023890885 -0.37703478 -0.10445616 -0.28472528
000230 96 4d 17 3f 63 76 1d bf ed b0 2b 3e 80 c8 10 bd
       0.5910276 -0.6150877 0.1676671 -0.03534746
000240 e7 68 85 be e8 43 17 bd 95 f0 ca be 8b 7b 23 3e
       -0.26056597 -0.036929995 -0.39636675 0.15965097
000250 f0 2b d4 3d 73 06 3e bf 4d 85 e4 be 36 13 ae 3d
       0.10359943 -0.7422859 -0.4463295 0.08499758
000260 bc 56 42 3e 0d 94 45 be ab a1 9c 3e 51 3a 2e be
       0.18978399 -0.19294758 0.30592093 -0.17014433
000270 99 62 33 3e 16 5e 1b 3e 74 b9 b7 3e 17 5f a6 be
       0.17518081 0.1517261 0.35883677 -0.32494423
000280 f4 b7 86 3e fd 40 46 3e 93 94 c4 3e d2 b9 cd be
       0.2631222 0.19360729 0.38394603 -0.40180832
000290 3f 67 fa 3e b2 c7 37 bd 4b dc 9c be 3c 45 d1 3e
       0.48906896 -0.04486818 -0.3063682 0.40873134
0002a0 c5 c1 fe 3e e2 b3 9c 3e b3 52 6e be 73 07 a9 bc
       0.4975721 0.3060599 -0.23273735 -0.020633435
0002b0 8a cb d4 3d 20 80 1f 3e bc f3 4d 3f cc ba 1c bf
       0.103903845 0.1557622 0.80450034 -0.6122253
0002c0 21 d3 4e 3c f8 be bd be 9f bf f8 be 70 fb 1f 3d
       0.012623579 -0.3705976 -0.48583695 0.03905815
0002d0 a1 90 21 3e 51 ff 5f be c8 c0 4e be 64 ef b3 bd
       0.15777828 -0.21874739 -0.20190728 -0.087858945
0002e0 a6 f4 e7 be b2 38 fe 3d d9 05 0e be b4 07 19 3d
       -0.4530384 0.124131575 -0.13869418 0.037360862
0002f0 c0 77 05 3f 03 76 c4 3e a1 5d b0 3c c0 30 e8 3e
       0.5213585 0.38371286 0.02152902 0.45349693
000300 59 ff 35 bd 85 31 a6 be 00 e0 af 3d 60 97 42 3d
       -0.04443297 -0.32459655 0.085876465 0.047507644
000310 5a 0f ef 3d b6 f6 02 bc 98 c9 4c 3e c0 e6 c5 be
       0.1167285 -0.007993391 0.19998777 -0.3865261
000320 dc 0a 78 3e c9 2d 18 bf 43 28 9e 3e c6 dd 82 bf
       0.24222893 -0.5944486 0.30890092 -1.022393
000330 c4 b3 c1 3e bd 7c 78 bb 55 49 1c 3d 48 31 d5 bd
       0.37832463 -0.0037916147 0.038155872 -0.1040979
000340 d0 4e c0 3c fc dc a4 3e ab b4 a0 3d 4e 01 4e be
       0.02347508 0.32199848 0.0784696 -0.20117685
000350 8b 24 53 3d ac 3b 98 3d 5e 35 5c 3f 04 7e 6e bb
       0.051548522 0.074332565 0.8601893 -0.003639103
000360 02 48 f7 3e b4 f0 b1 3e c3 02 99 be 2c 0e 1a 3f
       0.48297125 0.34753954 -0.2988492 0.60177875
000370 72 65 dd 3e 68 9a 11 3e d6 07 fe 3e db 29 a1 3e
       0.4324146 0.14219058 0.49615353 0.31477246
000380 61 4e b2 be 74 90 c4 bd 99 c6 05 3e ba ec 00 be
       -0.34825423 -0.09597865 0.1306404 -0.12590304
000390 ef 51 fa 3d 1e 70 59 3f 00 a1 4e be 48 64 16 3e
       0.12222659 0.849367 -0.20178604 0.14686692
0003a0 31 f8 c8 bd b9 9d 8b bd e1 ad db be e6 6b 5c 3d
       -0.09812964 -0.068171926 -0.42906097 0.053813837
0003b0 72 cc 8e 3d 00 2e d2 3e f0 69 b0 be 37 a5 cd bd
       0.069725886 0.4105072 -0.34455824 -0.10041278
0003c0 cd 7f ba bf 1d 86 e4 be 70 be 3d 3d 6c f4 ec 3e
       -1.4570252 -0.4463357 0.046324193 0.4628023
0003d0 b5 cc 98 3d 7b 10 f8 bd d4 cb 4a bd 79 ad 2a 3e
       0.0746092 -0.121125184 -0.049510792 0.16667737
0003e0 52 ca b7 be de 22 ce 3d 83 e5 ab be 9c 98 8a 3e
       -0.35896546 0.10065244 -0.3357354 0.27069557
0003f0 07 c0 df be 84 23 6d be 66 cb e4 be 08 e1 82 3d
       -0.43701193 -0.2315808 -0.4468643 0.063905776

network_body._body_endoder.seq_layers.2.bias f4 [256]
000000 a6 8b 77 bd aa 37 36 bd 66 03 5a 3d 0b d4 83 3d
       -0.060435914 -0.04448668 0.053225897 0.06436928
000010 0b eb 66 bc 10 97 4c bb 18 8a 06 bc f7 d6 07 bd
       -0.014094125 -0.003121797 -0.008211635 -0.03316399
000020 ad ef 38 bd 59 01 d8 bd f2 a8 e9 3c 62 83 74 3d
       -0.045150448 -0.10547132 0.028522942 0.05969561
000030 c1 06 9e 3b e9 a6 2e bd 45 f3 c2 3c e4 e2 b8 bc
       0.0048225825 -0.042639647 0.02379764 -0.022569127
000040 50 de e5 ba 42 4d af 3b 87 f6 24 bd c1 b2 2c bd
       -0.0017537568 0.005349786 -0.04027417 -0.04216266
000050 0a a4 85 bd 09 c1 95 3b c2 dc 15 bd 34 db f3 3c
       -0.065254286 0.0045701307 -0.036587484 0.02976761
000060 57 70 9b bc ef 60 77 bd 4f 51 98 bd e7 f6 5d bd
       -0.018974466 -0.060395177 -0.074373834 -0.054190543
000070 67 17 8c 3c fe 7d ff bc 3b 96 23 3b 69 94 f3 bc
       0.017101003 -0.031188007 0.002496137 -0.029733853
000080 af 13 4e bc 75 d4 b3 bd e3 6b e1 bc b2 65 4f bc
       -0.012577935 -0.08780757 -0.027517265 -0.012658523
000090 3e 0e 0d bd a2 5a 98 bd 1d 33 88 bd fb 7e 21 bc
       -0.03443741 -0.07439162 -0.06650374 -0.009856935
0000a0 01 6c b5 bd 6d 01 96 bc 8b d3 7d bd 92 fb 63 bd
       -0.08858491 -0.018311227 -0.06196932 -0.055659838
0000b0 0a 25 37 bd a7 ab c9 bc 62 8d 1e bb c0 7e 80 bd
       -0.044713058 -0.024617983 -0.0024193157 -0.06274176
0000c0 80 63 60 bd d2 9e 81 bd b4 7d 7e 3d ae 73 7f bc
       -0.05478239 -0.06329121 0.0621316 -0.015591545
0000d0 6e 72 12 3d a1 a7 5e 3c 32 b5 23 bd 1b e2 91 bc
       0.03575366 0.0135897705 -0.039967723 -0.01780801
0000e0 1e 05 29 bd aa 65 10 bc 67 bf 9e bd 7c 56 02 bd
       -0.041264646 -0.008813301 -0.07751351 -0.03182076
0000f0 99 44 7a bd 9c 59 13 bd 38 8c bf bc 15 3b 5b bd
       -0.061100576 -0.03597413 -0.023382291 -0.053523142
000100 94 c6 90 3b 20 88 a1 bc 5b 9f 00 be b9 88 72 bd
       0.0044182036 -0.01971823 -0.1256079 -0.05921242
000110 8f 41 fe bc 67 1d a6 3b ae 90 98 3c af 7f 03 3d
       -0.03103712 0.005069423 0.018623676 0.03210419
000120 21 4a 72 bd c2 cf e6 bc 3b 0e 45 bd 3d 41 6c bd
       -0.059152726 -0.028175239 -0.048109274 -0.057679404
000130 e0 f3 29 bd 6c 18 89 bb 93 3a c6 bd 44 4b 9f 3c
       -0.041492343 -0.0041838195 -0.09679141 0.01944507
000140 f7 f1 72 bc 83 53 5d bd fc 05 11 3d 15 ce 1a bd
       -0.014828197 -0.05403472 0.035406098 -0.03779419
000150 52 53 47 bd fd cf 61 bc 89 b5 83 3d 00 af f8 bc
       -0.048663445 -0.013782498 0.064311095 -0.030356884
000160 fd 81 53 bc 53 33 60 bc 4c 84 e5 3c 9a 6d 41 bc
       -0.01290941 -0.013684112 0.028017186 -0.011805916
000170 66 61 90 bd b0 da 5c 3b 53 e3 11 bd f2 a2 8a 3c
       -0.07049827 0.0033699684 -0.035617184 0.016923402
000180 39 15 19 3d 44 1a 10 3d 18 94 11 bd 24 04 ae bd
       0.037373755 0.0351813 -0.035541624 -0.084968835
000190 ec 40 21 3c 85 41 0d bd 1e 83 35 bd ed cc 77 bb
       0.009842139 -0.034486312 -0.044314496 -0.0037811354
0001a0 c0 82 9c bb 8d 1f 8b bb 35 fb cd bc 29 23 14 bd
       -0.004776329 -0.0042457045 -0.025144199 -0.036166344
0001b0 b7 eb 7d bd 8b 4c 5d bd 84 5b fb bc 09 22 7b 3c
       -0.061992373 -0.054028075 -0.030683286 0.015327939
0001c0 66 e6 1d bd ff d2 33 3c 64 0c 22 bd d3 d5 aa bd
       -0.038549803 0.010975598 -0.039562598 -0.08341565
0001d0 f0 ed 04 3d 8e cc 21 3a 10 b2 70 bd a9 a1 05 3d
       0.032453477 0.00061721436 -0.058763564 0.032624874
0001e0 fb fd 9a bc 78 f7 75 bb 94 4d c2 bb 3e e3 db bc
       -0.018919935 -0.0037531536 -0.005929658 -0.026841756
0001f0 df a7 4e bd 27 5f b0 3c a9 4a 6d bd 48 6c ae bd
       -0.050453063 0.021529747 -0.05793253 -0.08516747
000200 54 31 46 bd 52 34 83 bd 50 5e 6b bd 12 9c 0c bd
       -0.048386887 -0.06406464 -0.05746299 -0.034328528
000210 b3 c8 95 bc 67 7a d2 bc a0 21 4a bd 29 fc 2f bd
       -0.018284177 -0.025693132 -0.049348474 -0.042965088
000220 8f a1 53 bd 43 1f f2 bd c4 c7 88 3b bd a1 1a 3d
       -0.051667746 -0.11822369 0.0041742045 0.037751902
000230 c3 3e 24 bd 25 e2 91 bd 54 a1 28 bc 11 a4 99 bc
       -0.040098917 -0.07123212 -0.01029237 -0.01875499
000240 a8 53 0e bc 8b 8d f2 bc ad 0b 50 bd c3 7e 89 bc
       -0.008686937 -0.029608509 -0.050792385 -0.016784078
000250 b7 bf aa bc f4 27 85 bd 6c f4 90 bd eb c6 e2 ba
       -0.02084337 -0.06501761 -0.0707787 -0.0017301714
000260 50 35 b9 3c e7 f2 99 bd 14 de 2b bd ab 15 68 bd
       0.02260843 -0.07517033 -0.041959837 -0.05666129
000270 58 0e 8f bd 0d 7a 3d bd 1b 62 d5 bc 3f 14 88 bd
       -0.06985158 -0.046258975 -0.026047757 -0.06644487
000280 ae c1 8d bc 38 b5 9b bc 59 8b 69 bc 59 0a 87 bd
       -0.017304268 -0.01900731 -0.0142544145 -0.065937705
000290 f7 28 75 bd a4 57 5e 3d 33 4c 2c bc 20 51 ba bb
       -0.05985352 0.0542828 -0.010516214 -0.0056859404
0002a0 6f db 6b 3c 00 51 19 bd f6 f9 9e bc c8 0e b8 bc
       0.014395579 -0.037430763 -0.0194063 -0.022467986
0002b0 40 a5 cd 3c 2f 3d 61 bc ca 2e 79 bb be de 44 bd
       0.025103211 -0.013747497 -0.0038022273 -0.048063986
0002c0 54 8e f5 bc 2c 36 4b bd 51 23 89 3d dd 1b b5 3c
       -0.029975094 -0.04961221 0.06696189 0.022108013
0002d0 72 7c 34 bc d5 56 07 bd be 47 c0 bb ee c3 7c 3b
       -0.011015998 -0.033041794 -0.0058679273 0.0038568932
0002e0 b5 fb c4 bb 27 83 16 3d 83 1f 33 3c fb df 72 bd
       -0.006011451 0.03674617 0.010932806 -0.059295636
0002f0 cc 7d 11 bd 64 9b 8a bd 4c a6 57 bd 95 f2 51 bd
       -0.03552036 -0.0676792 -0.052648827 -0.051256735
000300 95 05 38 bc be 53 4c bd 28 31 94 3c 31 7d 15 bc
       -0.0112318 -0.04988455 0.018089846 -0.009124086
000310 eb 7f f5 bc 8b f3 a2 3d 39 17 4d bd b8 3e c1 bd
       -0.029968223 0.079566084 -0.050070975 -0.09435791
000320 65 38 df bc 0f 8d 08 bc c0 7b 43 3c 6c 8c 6c bc
       -0.02724857 -0.008334412 0.01193136 -0.014437776
000330 65 93 61 bd 4d 88 fa bc 64 89 78 bd 68 b5 cf 3a
       -0.055072207 -0.030582571 -0.0606779 0.001584691
000340 f9 30 d4 bc 3f 69 ab bc 61 8f 0a bd 5b f0 94 bd
       -0.025902258 -0.020924209 -0.033828143 -0.07272407
000350 96 f7 82 bd 5e 63 52 bd b5 83 8e bc 1b 05 c1 bc
       -0.063948795 -0.051364295 -0.017396787 -0.023562005
000360 82 38 80 bd 88 be 1d bd 80 e8 cf 3b 17 11 8f bb
       -0.06260778 -0.038511783 0.006344855 -0.004366051
000370 8a 4b 8b bc 17 5e a2 bd ff 1f 0a bd e3 ad 9c bd
       -0.017003793 -0.079281025 -0.03372192 -0.07650354
000380 98 06 8d bc cc 2f cc bc 1d af cd bc be 47 6c bd
       -0.017215058 -0.024925135 -0.025107915 -0.057685606
000390 20 e4 89 bc 0c 43 65 3d a8 4e 07 3c 56 fc ef bc
       -0.016832411 0.055972144 0.008258499 -0.029295128
0003a0 ad 53 1a bd 92 23 51 bd a1 d6 e8 3c 38 d8 88 bd
       -0.037677456 -0.051059313 0.028422656 -0.066818655
0003b0 0c 4c 93 bc 34 2e 83 bd 45 53 32 bd 7c 11 21 3d
       -0.017980598 -0.06405297 -0.043536443 0.039323315
0003c0 ac 4e 22 bc d4 37 78 bd 7c 77 01 3b 78 eb a8 3c
       -0.009906452 -0.060600117 0.0019755056 0.020620093
0003d0 fb e9 e9 bc ba 1b 6a bb b8 99 37 bc 65 03 00 3b
       -0.028553953 -0.0035722093 -0.011206083 0.0019533273
0003e0 2d 0f 07 bd 5b 6d da bc 95 99 9a bc 81 52 8e bd
       -0.032973457 -0.026663473 -0.018872062 -0.0694933
0003f0 4c dd 80 bd 1f c1 d6 bc ec eb 72 bb 34 85 9c 3c
       -0.06292209 -0.026215134 -0.003706689 0.019106485

network_body._body_endoder.seq_layers.2.weight f4 [256, 256]
000000 7b 6f e7 bc f3 c7 81 bc 7a 40 d3 bc 86 ae 13 bd
       -0.0282514 -0.015842414 -0.02578758 -0.03605511
000010 90 8a c1 3b af 80 05 bd ce cc ab 3c 54 46 e6 3d
       0.0059064105 -0.032593425 0.020971682 0.11243883
000020 6d ec 8e 3c 3a 5c 83 3c 94 5c 86 bd f7 60 bf 3d
       0.017446721 0.016035188 -0.065606266 0.093446665
000030 93 56 9b bd 03 3c fd bd 93 fa dd bd 44 88 77 3d
       -0.07584872 -0.12364962 -0.10838809 0.060432687
000040 fa 2b 35 bd be 87 a5 3c 4e f5 d5 3c b7 1d d3 bc
       -0.044231392 0.020206328 0.026117947 -0.025771005
000050 c7 87 ca 3d 65 b5 91 3d 51 ca 8e bc b6 5a 4f bb
       0.09889179 0.071146764 -0.017430456 -0.0031639761
000060 16 46 6c 3d 85 d8 6c bd 7a 12 0a be 24 26 a5 bd
       0.057684027 -0.057823677 -0.13483611 -0.08063915
000070 5d 1f 2e bd e1 b7 40 3b 54 8c df bd 06 71 a9 ba
       -0.04251038 0.0029406475 -0.10915437 -0.001292736
000080 79 4d 77 bd ee 75 d5 bc e7 9a 4b 3c ae a5 ea bd
       -0.060376618 -0.02605721 0.012427068 -0.11457382
000090 65 87 99 3c 37 26 f3 3b 65 79 a6 bc fc 95 04 3d
       0.018741319 0.007420327 -0.020321557 0.0323696
0000a0 be 32 ed bc 7a b4 9a 3d a4 2a 87 bc 00 12 31 bc
       -0.02895486 0.075539544 -0.016499825 -0.010807514
0000b0 46 10 b2 bd 3f 61 b0 3c 23 97 9b bd 0c 34 44 bd
       -0.0869451 0.021530746 -0.075971864 -0.0479012
0000c0 c2 f6 63 3d 39 98 9b 3d 6b e6 67 bd 96 3d 01 bd
       0.05565525 0.075973935 -0.056616228 -0.031552874
0000d0 20 de f8 3c f5 f4 0a 3d 71 22 4a 3d 8c 93 80 bd
       0.030379355 0.033925015 0.049349252 -0.06278142
0000e0 26 b4 ac 3c a9 8f 9b bd 19 04 c8 3d 00 0f b9 bc
       0.021081995 -0.075957604 0.097664066 -0.02259016
0000f0 b0 ad 07 bc e9 28 45 bd 39 0a c0 3c 89 b4 d0 bc
       -0.008281156 -0.048134718 0.023442375 -0.02547671
000100 dc 76 eb bc 5d 55 6b 3d 49 fe 58 3d ab f4 2e 3d
       -0.0287432 0.057454456 0.05297688 0.042713802
000110 1b 61 76 bd 62 4c a3 bd cd 0e f8 bd 19 4a d3 bc
       -0.0601512 -0.07973553 -0.12112198 -0.025792168
000120 cf 9f 99 bd b0 5c 70 3a fb a0 58 3d 95 27 81 bd
       -0.07501184 0.0009169085 0.052887898 -0.06306378
000130 e5 26 d1 bc fd a5 6c 3d a2 ad d4 bd 39 83 53 bc
       -0.025531242 0.057775486 -0.1038468 -0.012909704
000140 4c 22 41 bc ea 73 9c bc 8a 09 62 bc a0 27 6b bc
       -0.011787962 -0.01909824 -0.01379622 -0.014352709
000150 fe 22 8f bc 8a 78 5c 3c a4 15 18 be be ba 21 bc
       -0.01747274 0.013456473 -0.14852005 -0.009871183
000160 a7 91 da bb 39 3b 56 bd 63 a1 42 3d c6 66 e0 bd
       -0.006670195 -0.052302573 0.04751719 -0.109571025
000170 fc cb ab 3c 45 09 75 bd df 62 c7 3d 56 b6 0d bd
       0.02097129 -0.059823293 0.09735655 -0.034597717
000180 92 86 12 3d 58 15 f0 3c 92 5d 48 3d a7 c5 9b 3d
       0.035772868 0.029307052 0.04891736 0.076060586
000190 64 c0 46 bd 4c fd 8f bc 0a 6f 5c bc cd 9b 89 bb
       -0.04852332 -0.017576836 -0.013454208 -0.004199481
0001a0 d3 6f 3f bc 1a b6 84 3c 08 eb 89 bc 47 02 e8 bd
       -0.011684376 0.016200114 -0.016835704 -0.11328559
0001b0 a2 79 5d 3d 54 22 27 bd aa 85 f7 bd b2 9a aa 3d
       0.054071076 -0.040804222 -0.12086041 0.08330287
0001c0 dd 0e 22 3d 60 8b 37 3c 4d 51 61 3d 41 01 11 3d
       0.039564956 0.011202663 0.055009175 0.035401586
0001d0 8d 75 44 3d 46 58 bf bd d1 b0 d3 bd d8 a2 a9 bd
       0.047963668 -0.09343009 -0.103364594 -0.08283013
0001e0 c5 75 32 3d 0e 74 88 bc 9d 3e 01 3e e9 12 59 bc
       0.043569345 -0.016656902 0.12621541 -0.013249137
0001f0 4e 1b 02 39 82 3e 94 bd 13 dc ec bd c2 85 9c bd
       0.00012407938 -0.07238485 -0.11565413 -0.076427
000200 93 eb 53 3d a3 58 b2 3d 9c dd 30 3d 37 fa 21 be
       0.051738333 0.08708312 0.043180093 -0.15818106
000210 91 4a 00 be a5 66 82 bd 92 8f e7 bd 4b 3f 03 be
       -0.12528445 -0.06367234 -0.11306681 -0.12817113
000220 63 73 14 3d 37 7d 71 3c 67 28 3f bd 30 43 a8 bd
       0.036242854 0.014739326 -0.04666939 -0.0821594
000230 19 79 d8 bd 2b cf bc bc 83 9f 32 3d 84 ef 6c bd
       -0.105699725 -0.023048004 0.043609153 -0.057845607
000240 b9 a1 ca bd b2 e3 b7 3d 37 32 6c bd 0f 56 9e 3d
       -0.098941274 0.08978976 -0.057665076 0.07731258
000250 41 3a 97 bd 7e 83 e3 3b 49 3c 70 bc d4 b5 a6 3d
       -0.07384158 0.0069431653 -0.014662811 0.0814015
000260 33 e3 08 be 2b 62 26 be 46 ca 2d be c8 74 9b bc
       -0.1336792 -0.16248386 -0.16971692 -0.018976584
000270 1c f5 7b bd 6e e8 67 bd 3d 5e af 3c f8 24 2e 3c
       -0.06151305 -0.056618147 0.021407241 0.010628931
000280 4f 25 79 bd 24 71 86 bc c9 be 95 bc b0 51 0e 3e
       -0.060826596 -0.016411372 -0.01827945 0.13898349
000290 42 ec 44 bd f3 ba af bd 36 41 86 bd b8 1d 83 bd
       -0.048076876 -0.085805796 -0.06555407 -0.06402153
0002a0 15 d5 48 bb c1 ea 71 bd 84 8b 68 bc 62 50 ad bc
       -0.0030644585 -0.05906177 -0.014193419 -0.021156494
0002b0 02 11 3e bd da 5a e4 bd 90 76 b4 bc 30 3f f3 bc
       -0.04640294 -0.11150141 -0.022029191 -0.029693216
0002c0 12 db de bd 11 f9 85 bc 66 2f 0f bd 69 c3 17 be
       -0.10881628 -0.016354116 -0.034957312 -0.14820637
0002d0 4b b7 83 bd 7a 7d 31 3e b0 b7 f0 bd ce c2 84 bd
       -0.06431445 0.17333022 -0.117537856 -0.064824685
0002e0 40 7c df bd 55 06 37 bc fc ec 21 bd 73 3f b1 bd
       -0.10912371 -0.011170943 -0.039532647 -0.0865468
0002f0 4b 75 a8 bb a5 08 25 3e ab 08 04 bd 35 99 0a 3d
       -0.0051409355 0.16116579 -0.03223483 0.033837516
000300 31 0d f4 bd e5 2e 10 be 3b 77 54 3d 2a c5 7c 3d
       -0.119165786 -0.14080389 0.05187152 0.061711468
000310 e6 a0 25 3d 31 2b 22 bd 58 56 c6 bc 44 6a 6b bd
       0.040436648 -0.03959197 -0.024211094 -0.05747439
000320 67 ea c5 3b 94 5a a0 bd ba 6d 07 be 0e 92 79 bd
       0.006039906 -0.078297764 -0.13225451 -0.060930304
000330 00 e4 19 be 6d 80 2b 3e 61 24 bb bd 76 92 a4 bd
       -0.15028381 0.1674821 -0.09137798 -0.08035748
000340 e7 58 30 3d ee a4 ef bd 69 89 90 bc af d1 46 be
       0.043053534 -0.1170138 -0.017643647 -0.19415925
000350 af 19 f0 bc 69 ad 39 3c 20 d3 ff 3b d5 35 88 bd
       -0.029309122 0.011332848 0.0078071505 -0.06650893
000360 2e 50 05 bd 05 d7 26 bd 6d ad 20 3d b3 3d 8a bd
       -0.03254717 -0.040732402 0.03922789 -0.067500494
000370 13 21 51 3d 12 8d 8e bc 6d 3d 98 3c 78 52 06 be
       0.051056933 -0.017401252 0.018583978 -0.13117397
000380 74 76 56 3d 72 a6 f9 bc de 44 a6 bc fb b1 22 3e
       0.05235906 -0.030474875 -0.02029651 0.15888207
000390 55 b5 33 bd 43 28 1c be 91 b4 5a bd 46 65 4c 3c
       -0.043874104 -0.15249734 -0.053394858 0.012475317
0003a0 fb 70 af bc 8f 10 40 3d 31 a0 42 bc e2 03 13 3d
       -0.021416178 0.04689079 -0.011879013 0.035892375
0003b0 83 c2 03 be c1 c9 d6 bd 55 af a5 bd 5f 0a 67 be
       -0.12867169 -0.104877 -0.080900826 -0.2256255
0003c0 0f 84 1c bd 94 75 24 3d 2d 97 0c bd 5d a9 9b bd
       -0.03821188 0.040151194 -0.03432386 -0.07600663
0003d0 87 03 cc 3c d3 78 bc bc 27 4c fd 3c 6c a6 23 bd
       0.024904026 -0.023006832 0.030920101 -0.039953634
0003e0 2b b6 a3 3d 6b cf 85 3b 96 39 16 3d 50 4e b3 bd
       0.0799373 0.004083564 0.036676012 -0.08755171
0003f0 5c 8b d8 bd 01 bc 4f ba b6 d3 1c be 7b a2 a0 bd
       -0.10573456 -0.0007924438 -0.15315136 -0.07843491

network_body._body_endoder.seq_layers.4.bias f4 [256]
000000 9b 68 d7 bc 51 d0 b9 3c 6f e6 64 bd bf 3f 69 bd
       -0.026294997 0.02268234 -0.05588382 -0.05694556
000010 c5 62 77 bc 46 5f 47 bd b4 55 ff 3b ab 06 ad bc
       -0.015099232 -0.048674844 0.007792199 -0.021121344
000020 1d b8 e8 bc aa ce c6 bd 01 4b 14 3b d7 3e 71 bc
       -0.028408105 -0.09707387 0.0022627714 -0.014724455
000030 1c 20 3a bd bf 58 67 bc 8e 2b 9c bd ee b5 1d bd
       -0.045440778 -0.01412028 -0.07625495 -0.03850358
000040 ac 44 1d bd ab 61 c8 bc ec 20 4e bc ef e6 81 bd
       -0.03839557 -0.024460634 -0.012581091 -0.06342875
000050 3a 17 67 bc 95 af 3c bd ef a2 7a bd 7d 70 53 bd
       -0.014104659 -0.046065886 -0.06119054 -0.05162095
000060 10 1c 35 bd 00 63 c1 bd 2d a4 42 bd 8a 7d 63 bd
       -0.044216216 -0.09442711 -0.04751985 -0.055539645
000070 1a 4b 86 bd e2 4d 58 bd f6 61 50 bd 1a 55 88 bd
       -0.06557293 -0.05280865 -0.050874673 -0.06656857
000080 01 c3 a6 3c a3 1d fd bb 07 ad 08 bd 3e 5f 2b bc
       0.020356657 -0.0077244802 -0.033368137 -0.010459719
000090 ac 37 2c bd 02 73 92 bd 1e ae a7 bc ce fd cc bd
       -0.04204528 -0.07150842 -0.020468768 -0.10009347
0000a0 30 58 8a bc cf db aa bd 3c af 64 bd f5 a2 4a bd
       -0.016887754 -0.083427064 -0.05583118 -0.049471814
0000b0 08 80 1e 3b 8b fd 84 bd 82 a7 f9 bc b5 df a8 3b
       0.00241852 -0.06493672 -0.030475382 0.005153621
0000c0 d4 90 42 bd ab 27 5f 3b 48 77 3c bd 43 a1 ba bb
       -0.0475014 0.0034050744 -0.046012193 -0.0056954934
0000d0 3c 32 cf bb bf b1 60 bc b4 d5 9c 3d 64 7b bf bd
       -0.006323127 -0.013714253 0.07657948 -0.09349707
0000e0 09 6a c7 bc d8 a7 09 3a a0 4f 4b bd 42 2f 1a 3d
       -0.024342554 0.0005251146 -0.049636483 0.037642725
0000f0 d6 f1 c3 bc ae ea 84 bd 89 72 e9 3c 35 28 7c bd
       -0.023919027 -0.06490074 0.028496997 -0.061561782
000100 ab a3 b8 3c 13 fb 96 bd 40 f1 74 bd ac f1 b8 bc
       0.02253898 -0.07372107 -0.059800386 -0.022576176
000110 ba 47 b9 bd 21 7b 5a 3c 76 d6 10 bd 2a 52 be bc
       -0.09046884 0.01333502 -0.035360776 -0.023232538
000120 dd 12 a1 bd de 1f 9b bd 54 96 60 bd 41 c1 bb bd
       -0.07864926 -0.075744376 -0.054830864 -0.0916772
000130 5a 28 2d bd 3a 59 d0 bc 97 e0 fe bc d2 6e 46 bd
       -0.04227481 -0.025433172 -0.031112952 -0.04844553
000140 c5 cb 88 bc 2a d6 37 bd f1 78 7f bd bb 55 8e bd
       -0.016698727 -0.044881977 -0.062371198 -0.069499455
000150 ef 28 df bc a6 99 67 bd c2 a9 ab 3d 8e db f0 bc
       -0.027241198 -0.056543015 0.08381988 -0.029401567
000160 ff 42 d3 bb d7 f9 40 3c 4e 49 cd bd 94 57 99 3c
       -0.0064471955 0.011778316 -0.100237474 0.018718518
000170 05 f1 14 3c bc c4 82 bd 35 75 05 bd 55 5c df 3a
       0.009090667 -0.0638518 -0.03258248 0.0017041067
000180 2c 45 9b bd a9 67 f9 3c b5 cd f6 ba e1 7c 37 bc
       -0.07581553 0.030444937 -0.0018829616 -0.011199207
000190 14 77 5b bd db b0 12 bd e9 3b c7 bd fc 55 ec bc
       -0.05358036 -0.035813194 -0.09728224 -0.028849594
0001a0 78 86 b0 bd 8d e4 98 bb 54 fa 24 bd aa b0 53 bd
       -0.08619398 -0.0046659173 -0.040277794 -0.05168215
0001b0 ff be 24 bd 49 5d b1 bd 1a 82 2f bd 97 8c fa 3b
       -0.04022121 -0.08660371 -0.042848684 0.007646154
0001c0 f0 0f d3 bb e4 b2 05 bd 2f c4 9e ba 01 75 95 bc
       -0.006441109 -0.032641307 -0.0012112911 -0.018244268
0001d0 b4 da a9 3a a5 2d b5 ba 8a 77 a0 bd 5c 61 09 3c
       0.0012958855 -0.0013822807 -0.078353 0.008385029
0001e0 a2 b4 cf bc a3 52 80 bd d0 e2 a3 bd fb ec a2 bd
       -0.025354687 -0.06265762 -0.080022454 -0.07955357
0001f0 c6 78 0e 3c 4d 14 83 bc 0c 11 5c ba c6 9c f5 bb
       0.008695787 -0.016000891 -0.0008394874 -0.0074954955
000200 5c 31 c9 3c 25 e5 91 bc 85 42 38 bc 94 91 95 bd
       0.02455967 -0.01780946 -0.011246328 -0.073031574
000210 38 32 3e bd 22 cd 8a bd 8c 60 72 bd c5 0f 10 be
       -0.04643461 -0.06777407 -0.059174106 -0.14068516
000220 f2 91 ed bd 65 d2 1d bd c0 0e b7 bd ac 8c 4b bd
       -0.116001025 -0.038530726 -0.0893836 -0.049694702
000230 2a d4 05 bd f1 1c d3 bd 8b 7f fa bd 02 ad 01 3d
       -0.03267304 -0.103082545 -0.12231358 0.031659134
000240 18 e0 d4 bb 37 66 1a bd 4a 6a ce 3c ec 7a a9 3a
       -0.0064964406 -0.037695136 0.025197167 0.001293031
000250 6b e0 e2 bc e7 e0 20 3d 02 71 3b ba ba b6 96 bd
       -0.027694901 0.039276984 -0.00071503234 -0.07359071
000260 c9 c5 37 bd ea 58 18 bd 64 b9 38 bd 20 57 d1 bd
       -0.044866357 -0.03719417 -0.045098677 -0.10221696
000270 06 e5 9c bd 98 f7 2f bd 6b 57 bc bd 1b bb a1 bc
       -0.0766087 -0.042960733 -0.09196361 -0.01974254
000280 e9 bb 93 3b 9e 42 5f 3d 20 f4 ae bd 1b 5c 44 3d
       0.0045084846 0.05450689 -0.08542657 0.0479394
000290 37 a5 4e bd 0d eb 7c bd 42 99 5e bd 67 f3 9a ba
       -0.05045053 -0.0617476 -0.054345377 -0.0011821807
0002a0 0d d9 84 bd 3a 32 8e bd 28 23 36 bd 93 da f8 bd
       -0.06486712 -0.06943174 -0.04446712 -0.12151065
0002b0 f4 0f 17 3d 12 12 d4 3b 85 a3 89 bc 14 ca fb bc
       0.03688045 0.0064718807 -0.016801605 -0.030736007
0002c0 4c da 45 bd 6f 60 67 bd ad 3f 0a bd 30 88 4b bd
       -0.048303887 -0.05648845 -0.033752132 -0.049690425
0002d0 83 83 e2 bc f9 bf b2 3c 61 eb 85 bd 25 32 b5 bd
       -0.0276506 0.021820055 -0.065390356 -0.08847455
0002e0 a1 94 8b bd ac dd 08 bc 35 aa 54 3c 2d 52 b0 3a
       -0.06815458 -0.008353632 0.012980034 0.0013452225
0002f0 09 ae 13 bd 3b 0b 7d bd 76 b7 88 bd 00 68 0f bd
       -0.036054645 -0.06177829 -0.066756174 -0.03501129
000300 5b e9 4e 3b ee 23 99 bd cd 46 3d 3d 63 38 17 bd
       0.0031572196 -0.07477556 0.0462101 -0.03691901
000310 06 28 d8 bd 1e aa 77 3c 0f 0d 2a bd 9a 72 b9 bd
       -0.10554509 0.015116243 -0.04151636 -0.09055062
000320 73 99 84 bd 5f 74 86 bd 7c 47 0d bd 92 79 05 bd
       -0.064745806 -0.06565165 -0.034492 -0.03258664
000330 60 b2 08 bc d1 ce 90 bc d3 46 09 ba b3 e7 9f 3c
       -0.008343309 -0.017676743 -0.0005236689 0.019519662
000340 c0 0e b9 ba 01 69 26 3d 8b 9b af bd b6 9b aa bb
       -0.0014118776 0.040627483 -0.08574589 -0.0052065505
000350 0b 40 35 bd cc 58 19 bc 46 da 91 bd 1d 5f c1 bc
       -0.04425053 -0.00935955 -0.071217105 -0.023604924
000360 7b 45 ed bc fa d2 50 bd 93 2f 13 be b8 32 08 bd
       -0.028963795 -0.050982453 -0.14373617 -0.033251494
000370 2d 5e 81 bb 25 e0 1a 3c da 54 93 bd 04 d7 c1 bd
       -0.003947994 0.009452854 -0.071939185 -0.09464839
000380 dc b3 90 bd 2b a5 45 bd 6e 07 5b 3c f3 e3 c6 bb
       -0.070655555 -0.04825322 0.013368471 -0.006069654
000390 55 b3 46 bd b8 93 18 bd 91 7d b1 bd 94 47 11 bd
       -0.048510868 -0.03725025 -0.08666528 -0.035468653
0003a0 8f ee 7c bd 09 f5 81 bd 2a 7b 98 3c a8 a7 93 bc
       -0.061750945 -0.06345565 0.018613417 -0.01802428
0003b0 05 da 43 bd 5f 26 26 bc 82 9a 52 bd 3e c4 0b bd
       -0.04781534 -0.010140984 -0.05141688 -0.034122698
0003c0 e9 ac 05 bd fb 21 21 bd 86 3a 84 3c bf 60 2d bd
       -0.032635603 -0.039339047 0.016141187 -0.042328592
0003d0 a6 1b 4c bd 30 69 3e bb 76 58 6f 3d 8b f4 81 bd
       -0.049831055 -0.0029054396 0.058433972 -0.06345471
0003e0 9b 0d b3 bc 4c b4 8b bc 08 ec e0 3b 39 2a cf bd
       -0.021857074 -0.017053746 0.0068640746 -0.10115475
0003f0 7d 07 d0 bc 01 c9 72 bc 76 65 9f bb 03 18 03 bc
       -0.025394196 -0.014818431 -0.00486439 -0.00800133

network_body._body_endoder.seq_layers.4.weight f4 [256, 256]
000000 1d 67 c1 bb f0 4a 91 bd 7f 0a 02 be f2 6e 8e bd
       -0.0059021846 -0.07094371 -0.12699316 -0.06954755
000010 91 5b 0f bb 16 a9 05 3e 0d cf 33 be 6b 3e dc bb
       -0.0021874646 0.13052782 -0.17559452 -0.006721308
000020 f9 23 c0 bd 30 35 1a be 81 c2 bb 3d a7 63 ed bd
       -0.09381861 -0.15059352 0.09167958 -0.11591273
000030 fe 0d 46 3e 12 23 a1 3d b9 e9 8f 3b f5 61 27 3e
       0.19341275 0.07868017 0.0043918756 0.16345961
000040 d8 af d3 3c 81 34 8c bd d1 6a 75 bd 93 4b 0b 3e
       0.025840685 -0.06845952 -0.05991632 0.13603048
000050 05 ba 3b 3d 89 2a 66 bd 3f fe 0c be ca 94 9c bc
       0.0458317 -0.05619291 -0.13768862 -0.019113917
000060 71 29 87 3c cf cf 1d 3c 21 7b 2c 3d 24 cb 34 bd
       0.016499253 0.009632065 0.042109612 -0.044139042
000070 f9 8c b0 bd 62 12 80 3e b9 42 d1 bd 76 32 2f be
       -0.086206384 0.25014025 -0.102178045 -0.17109093
000080 f5 32 7c bd 8f 91 23 bc a6 78 64 bd ee e9 49 3d
       -0.061572034 -0.009983434 -0.05577912 0.04929536
000090 44 c7 85 3d c3 cc 6f 3d ab ac 52 bc 03 6a 7b 3d
       0.065321475 0.058544885 -0.01285855 0.061380398
0000a0 ae 00 7c 3d ab 7b 5b bd 07 eb 9f 3d 1c 0b 83 bd
       0.061524086 -0.053584736 0.078085 -0.06398603
0000b0 a5 5b 31 bc c0 f2 b0 3d bb bd 25 3e 5f ea 65 bd
       -0.010825072 0.08640051 0.16185658 -0.056131717
0000c0 00 39 17 3d cf 2a c0 bd 15 44 02 bc a2 24 73 bd
       0.036919594 -0.09383165 -0.007950802 -0.059361108
0000d0 2f e0 6f be d0 c0 f0 bd f0 c8 e2 bc 1e 82 f7 bc
       -0.23425363 -0.11755526 -0.027683705 -0.030213412
0000e0 08 fd a4 3d e6 86 97 3d 5a fc 45 3e 31 d8 0f 3d
       0.080560744 0.07398777 0.19334546 0.035118286
0000f0 00 72 06 3e b8 2e 7f 3d 3a 87 01 bd 55 9f 9c bd
       0.13129425 0.062300414 -0.031623103 -0.07647578
000100 85 fc 18 be ec 80 85 3d d3 18 b3 bd 2c fb 28 bc
       -0.14940079 0.065187305 -0.08744969 -0.01031379
000110 df d9 8f 3c 31 da 09 3d 02 37 9a bd 61 fe a2 3c
       0.017559944 0.03365535 -0.07530023 0.019896688
000120 0a 45 29 3d 5a 67 09 be 19 6f 72 be 02 77 19 3d
       0.041325606 -0.13418332 -0.23675193 0.03746701
000130 07 f4 c2 bc be 07 0d 3d f0 2c ab 3d d0 5f f2 3b
       -0.023798002 0.03443121 0.083581805 0.0073966756
000140 4d 04 c6 3c d4 b1 d1 ba 22 4e bc bd 6d 8f 9b bd
       0.024171973 -0.0015998431 -0.0919459 -0.07595716
000150 a6 ce f5 3c 5e 25 64 bd 80 6a 58 bd 36 c9 1a bd
       0.030005764 -0.0556997 -0.05283594 -0.037789546
000160 73 04 ec bd 62 06 9f bc ef 38 1d be 84 17 a2 bc
       -0.11524286 -0.019412223 -0.1535375 -0.019786604
000170 af 11 ea 3d 8e 18 be bd 75 65 84 3d d3 64 82 3b
       0.11429154 -0.09282027 0.06464664 0.0039793043
000180 bc f4 78 bd 6b 1c f8 3b c9 fa 51 3a d8 c5 22 be
       -0.060780272 0.007571747 0.0008010087 -0.15895784
000190 f8 57 af 3c 38 bf 46 3d 2b 83 e1 bc 1d b3 fa 3c
       0.021404251 0.048522204 -0.027528366 0.030602986
0001a0 a5 69 96 3d 14 b6 df bc 31 17 ac bb 3c 2f 5e 3d
       0.07344369 -0.027308501 -0.005251788 0.054244265
0001b0 35 9a 31 3c 7c 38 97 ba 4a 9b 2a be 36 95 a8 bd
       0.0108399885 -0.0011537219 -0.166608 -0.08231585
0001c0 83 87 e5 bc c8 fc 80 3a a3 40 cc 3d de 20 1b 3d
       -0.028018719 0.000984096 0.09973266 0.03787314
0001d0 1c 73 8e 3d 23 f4 49 bb 17 84 6e 3e 62 46 7e bd
       0.06955549 -0.0030815683 0.23292576 -0.06207884
0001e0 10 59 3c bd 77 c2 aa bc 55 5b ed ba 18 ac 81 bd
       -0.045983374 -0.020844681 -0.0018108884 -0.063316524
0001f0 18 60 06 bb 72 ea b4 3c 60 81 0d bd 0b d7 f5 bb
       -0.0020504054 0.022084448 -0.03454721 -0.0075024418
000200 b4 e8 24 bd 85 7f 16 3d 4b 0d cd bd 3e f0 0b be
       -0.040260985 0.036742706 -0.10012301 -0.13665864
000210 a5 bd cb bd d0 70 32 3d 45 51 91 3c fc 5e 0a 3e
       -0.09948281 0.043564618 0.017738948 0.13512796
000220 c3 54 ac bc f6 96 d4 3d fe c1 44 be 33 29 ec 3c
       -0.021036511 0.10380356 -0.19214627 0.028828239
000230 e4 02 c0 ba ee 48 59 3c 67 b5 03 bd c4 71 48 3e
       -0.0014649299 0.013262017 -0.03215542 0.19574648
000240 aa 0d c3 3c 9d 75 27 bd 7b 42 e0 bb a7 2b ae bd
       0.023810226 -0.04088365 -0.0068438626 -0.0850442
000250 6f 3c a7 bd d3 df 57 3d f2 2f f7 3d 55 eb 90 3d
       -0.08165824 0.05270369 0.12069692 0.07076136
000260 a8 d1 55 bb 8b ee b2 bc b2 33 4d bd 21 1c 95 bc
       -0.0032626186 -0.021842262 -0.05009813 -0.01820189
000270 71 f8 4b 3d 07 7e 87 bd a2 fa cb bd 0a 65 22 3e
       0.04979748 -0.06615835 -0.09959914 0.15858856
000280 8c 5a 25 3e 8f f0 bb bd 45 8c 1a be f5 cb d8 3c
       0.16147822 -0.09176742 -0.15092571 0.026464442
000290 47 5b 1e 3e c2 39 57 3c 5a 80 15 3e 38 d5 57 3c
       0.15464507 0.013136329 0.14599743 0.013173394
0002a0 2c 1c ec bc 3a 6b 06 3b 7b da bb bb 9d 3b 29 3d
       -0.028822027 0.002051069 -0.005732832 0.041316617
0002b0 35 64 43 bc 0f 7a 48 bd 3c b4 d7 3d a6 ec b1 3d
       -0.011925747 -0.04894453 0.10532424 0.08687715
0002c0 3f 5b 27 be a0 ae ea bd d2 39 3e bc 97 15 5d bd
       -0.16343401 -0.11459088 -0.011610465 -0.053975668
0002d0 8c f5 2e 3e 09 a0 85 bb aa 9c 80 3c b6 73 3f 3d
       0.17085856 -0.0040779156 0.015699703 0.04674121
0002e0 a9 d7 b4 bd d5 d4 ec bd 46 49 6a 3d e2 70 89 3c
       -0.088301964 -0.11564032 0.057198785 0.01677746
0002f0 6b 69 1d bd 48 70 d6 bd f4 07 f3 3c 1e 62 37 3a
       -0.038430613 -0.10470635 0.029666878 0.00069955166
000300 2c d5 cb 3d 23 97 d1 bd 3c 48 68 bc 0c cf 8a 3c
       0.09952769 -0.10233905 -0.014177378 0.01694443
000310 ab b3 85 bd 22 e0 83 bd 38 36 17 be bd 45 ec 3d
       -0.065284096 -0.06439234 -0.14766777 0.11536739
000320 f6 cd 88 3d f1 af 57 bc ad 43 73 3e c6 70 fe 3d
       0.06679909 -0.013164506 0.23756285 0.124238536
000330 bf fa 5b 3e db a0 dc bc 85 08 bb bd 29 0d 8d bd
       0.21482371 -0.02693217 -0.09132484 -0.06887276
000340 cb e5 30 bd a2 2f e4 3d bb b6 bf bc cd 8e e9 bd
       -0.043187898 0.11141898 -0.023402562 -0.1140419
000350 e1 ea 2d be a5 8c 42 3c b1 f1 18 3e 0a 0e 1a 3e
       -0.1698413 0.011874353 0.14935948 0.15044418
000360 b8 c5 fe bc 5b 96 27 3d 02 19 90 bd 7a 70 23 3e
       -0.031100139 0.040914875 -0.0703602 0.15960875
000370 c5 63 67 3d 7d e1 55 3c 8d ad 89 3d 45 f0 95 bc
       0.056491632 0.013054249 0.06722555 -0.018303046
000380 c8 f7 14 3e 5e 11 5f 3d 38 0b a1 3d fa 3b 8f 3d
       0.14547646 0.054459922 0.07863468 0.069938615
000390 6a 00 ae bc a9 7e 8a ba ec 17 c3 3b 22 d4 85 bb
       -0.021240432 -0.0010566312 0.0059537794 -0.004084126
0003a0 fe 47 1a bc da 8e d8 bd be 96 4a be e5 7e 9b 3c
       -0.009416578 -0.10574122 -0.19784066 0.018981406
0003b0 aa 80 3b 3d bb f2 13 3e bd 5e 67 3c 0d 3d 8a bd
       0.045777 0.14448063 0.014121708 -0.06749926
0003c0 e4 76 b5 bb 7a cf b2 bd 3f a8 65 bc 1b 76 11 be
       -0.0055378545 -0.08730979 -0.014017164 -0.1420521
0003d0 7b ec 96 bd 63 f4 14 3d ed a1 cf 3b fa ae 0e be
       -0.07369324 0.036365878 0.0063364417 -0.13933936
0003e0 3d ca b7 3d 00 6c b7 3c 31 6b 23 3d 48 2e 1c 3e
       0.08974121 0.022390366 0.039897148 0.1525203
0003f0 e6 e3 de 3c 53 87 8e bd d8 e2 84 3d aa 32 66 bc
       0.02720828 -0.06959405 0.064885795 -0.014050165
