results/Drone3/Drone/Drone-20499988.onnx (onnx, 810629 bytes, 11 tensors)

action_model._continuous_distribution.log_sigma f4 [1, 4]
000000 a9 84 c7 bf 58 22 c8 bf 2e da b3 bf 4b eb a6 bf
       -1.558736 -1.5635481 -1.4050958 -1.3040556

action_model._continuous_distribution.mu.bias f4 [4]
000000 51 69 c3 3d ad 99 cd 3c 97 31 d6 3d a2 2e 34 3c
       0.09541572 0.025097692 0.10458677 0.010997446

action_model._continuous_distribution.mu.weight f4 [4, 256]
000000 03 59 f6 3b 2d d1 2d bd a7 56 90 bc a8 f1 8b bd
       0.0075179352 -0.042435814 -0.017619444 -0.06833202
000010 87 66 b1 bd e3 47 af bb 50 75 4d bc 5f 04 59 bd
       -0.08662134 -0.0053491457 -0.0125401765 -0.052982684
000020 8a 35 b6 3b 73 44 25 3d 85 d6 69 bd fe 85 1c bd
       0.0055605816 0.04034848 -0.057089347 -0.038213722
000030 f6 00 55 3d 6a e6 a9 bc c2 0c 39 bd ec e7 66 bd
       0.05200287 -0.020739753 -0.045178182 -0.05637352
000040 00 45 8b bc eb a3 59 3c 20 18 f5 3c 67 13 f8 3c
       -0.017000675 0.01328371 0.02991873 0.03028269
000050 01 35 3a 3d a0 36 2f bc 5a ac fd bc d8 5c 39 bd
       0.045460705 -0.010694176 -0.030965973 -0.04525456
000060 84 d8 51 3c 73 26 5d 3a 17 8c 41 bd ec 52 e4 bc
       0.012807969 0.00084362103 -0.04725274 -0.027871571
000070 43 f3 82 3c de a1 f0 3b a1 27 78 bc bc f0 77 bc
       0.015985137 0.007343515 -0.015146167 -0.015133079
000080 7f e6 62 3c f8 45 9e 3d 41 70 a0 bd 3b a2 1f bc
       0.0138489 0.07728189 -0.07833911 -0.009743269
000090 1c d0 3a 3d 77 9d 79 3c f3 a4 1e 3d fb 75 51 bd
       0.045608625 0.015235296 0.038731527 -0.051137906
0000a0 4a fb ff bb a6 4d 80 bd 5d 90 90 3a 9e 5c f7 bc
       -0.0078119384 -0.0626481 0.0011029352 -0.03019553
0000b0 cc e7 a8 bd b8 a7 b2 bd fc ed 25 3d 6b 3f c5 bd
       -0.08247337 -0.08723396 0.040510163 -0.09631237
0000c0 5d 9a 11 3d 27 1d 8c bb f9 20 ad bd cb b0 0e bc
       0.035547603 -0.004275936 -0.08453555 -0.008709143
0000d0 4e b8 96 3c 89 a5 e5 3c aa 8a dc 3c 3d 43 aa bd
       0.01839843 0.028033035 0.026921589 -0.08313606
0000e0 24 b1 88 bd c9 82 3e bd 8a 01 df bd b1 f2 2b bc
       -0.06674412 -0.046511445 -0.108889654 -0.010494874
0000f0 e4 1d 12 3c 15 0f 52 bd 8f c2 3f 3d 77 9a 51 3d
       0.008918259 -0.051283915 0.046816405 0.0511727
000100 8b 42 ba bc ea ab 10 bd d4 3d ed bc f2 c2 13 bd
       -0.022736808 -0.0353202 -0.028960146 -0.036074586
000110 0d 8a f0 3c a6 7b 2b 3c 30 07 c5 3b ea 1f c1 bc
       0.029362703 0.010466492 0.0060128197 -0.023574788
000120 44 61 0b bc 1d dc f8 3b d0 e0 1e 3d 38 20 2b bc
       -0.008507077 0.007594599 0.038788617 -0.010444693
000130 88 95 2f 3d 3f a5 ac bd 5b 9e 76 bd 62 d2 a1 3a
       0.042867213 -0.08429956 -0.060209613 0.0012346024
000140 c4 00 41 3c 69 85 59 bd 8d e4 39 bd 4a 28 0b bd
       0.011779968 -0.053105745 -0.04538398 -0.03397397
000150 8f 2c 1f bc 7f 8f be bc 91 32 c7 3c f7 dd 23 3d
       -0.009715213 -0.023261784 0.024316104 0.040006604
000160 54 6b 5f bd 57 be 55 bd ff 2a 55 3c c2 37 90 bc
       -0.054545715 -0.052183475 0.013010739 -0.017604712
000170 79 99 e4 3c c1 50 1e bc 31 55 b3 bc a5 f3 e1 bd
       0.027905213 -0.009662808 -0.021891208 -0.110328
000180 2c dc 1e bd 72 49 4a 3d 43 25 24 bc 74 ec 4e bc
       -0.03878419 0.04938645 -0.0100186495 -0.012629617
000190 61 40 83 bc b7 15 77 bd 14 88 17 3d 9a 58 78 bd
       -0.01602191 -0.060323443 0.03699501 -0.060631372
0001a0 c8 e7 11 3b e0 a5 b0 3c 08 fb 2c 3d 90 48 76 3b
       0.0022263397 0.02156347 0.04223159 0.0037579872
0001b0 51 c4 0a bd 3f c9 99 ba cf d6 20 bd 56 ab 36 bd
       -0.03387863 -0.001173295 -0.039267357 -0.044596992
0001c0 06 83 69 3d df e2 24 bd 5f 22 06 bd c3 0d 30 bc
       0.05700972 -0.040255424 -0.032747623 -0.010745469
0001d0 79 b4 03 3d f1 65 54 bd 23 9a 3e bd 0b ff 3a bd
       0.032154534 -0.05185503 -0.046533715 -0.045653384
0001e0 c7 cf 23 bd 71 cf a8 bc dd 9b ac bc 67 8f cd bc
       -0.039993074 -0.020606728 -0.021070415 -0.025092794
0001f0 73 14 e9 bc 35 dc 59 bb 27 42 a6 bc 93 1d 92 bd
       -0.028452134 -0.0033242826 -0.020295216 -0.07134547
000200 1e cc f2 bd cf 73 cc 3a 43 37 29 bd 72 32 c6 bb
       -0.118553385 0.0015598478 -0.041312467 -0.006048494
000210 22 55 a0 bd 19 17 35 3d c0 c1 82 bd f8 54 7b bd
       -0.07828738 0.04421148 -0.06384611 -0.06136033
000220 5d 82 60 3c ef 02 3f bd 2d eb 87 3d c4 16 e3 bd
       0.013702956 -0.046633657 0.06636653 -0.110883266
000230 fd a4 95 bd 32 c5 a9 bc 9f c8 01 ba 22 80 96 3d
       -0.0730686 -0.020723913 -0.00049508543 0.07348658
000240 5b 08 ae 3a 72 fa f9 bc aa b7 8c bd d4 f0 b4 bc
       0.0013277637 -0.03051493 -0.06870969 -0.022087492
000250 4a 7a 86 bd ad 44 82 bd 84 63 99 bb ce 8d 81 3c
       -0.065662935 -0.06360755 -0.0046810526 0.015814688
000260 97 ac 02 bd 76 14 76 ba 7e 89 f6 bb ef ed d4 3c
       -0.031902876 -0.0009387204 -0.0075237146 0.025992362
000270 f9 6a ff bc 2f 82 62 3b 8f b0 3e 3d 82 97 ae bd
       -0.031178938 0.0034562459 0.0465551 -0.085249916
000280 39 5d ee bd 54 e8 57 3d 7b 70 4e bc 89 23 3d bd
       -0.116388746 0.0527118 -0.01260006 -0.046176467
000290 8c 6d b9 bb 79 94 77 3c 0d 01 6e 3d 32 ec 02 3d
       -0.005658811 0.015111082 0.05810647 0.031963535
0002a0 c7 45 66 bd 8f 09 14 bd d8 04 9e 3b e9 99 3c bd
       -0.05621889 -0.03614193 0.0048223548 -0.046045218
0002b0 33 4e c7 3d ac 13 ed 3a b9 ed c8 3b 08 63 1d 3d
       0.09731712 0.0018087528 0.0061318544 0.03842452
0002c0 cc 6f e4 bc 49 10 34 3d 46 ac 1b bc 94 67 ec 3b
       -0.02788534 0.043960843 -0.009501522 0.007214496
0002d0 76 96 d0 3c 67 c4 a5 3c 0f e4 f7 3c 61 78 01 bd
       0.02546237 0.020235253 0.030260114 -0.031608943
0002e0 ff 00 c4 3c cd 2e e2 bc 81 c0 72 3c 83 79 d0 bc
       0.023926256 -0.027610207 0.014816404 -0.025448566
0002f0 81 96 8a bc 77 8a f2 3c df a0 a9 3c ef 39 f3 bc
       -0.016917469 0.02960704 0.020706592 -0.02969071
000300 f0 3f 94 bd 6c ea 09 3d f4 a5 23 3d 81 7d b3 bd
       -0.072387576 0.033670828 0.039953187 -0.08764172
000310 d0 b8 d9 bc ee dc c3 3b 47 4a 5c bd 6f 89 03 3c
       -0.026577383 0.0059772646 -0.053781774 0.008028372
000320 eb b1 99 bd 88 54 0c bb 31 05 c8 3c 8d 09 68 bd
       -0.07504638 -0.002141269 0.024416538 -0.056649733
000330 d0 32 ad bc 01 4f 81 bc f6 c3 08 bc 40 bc 8f bc
       -0.021142393 -0.015784742 -0.008347502 -0.01754582
000340 0f 0a 6a bc 2c ea 30 bd 47 ea 70 bd e2 07 ba bb
       -0.014284625 -0.043192074 -0.058817174 -0.0056772092
000350 0d b1 24 3c 3e f7 31 3b 6f e3 48 bd 44 ee 8e bc
       0.010051978 0.0027155424 -0.049045023 -0.017447598
000360 7a 8c 19 bd d1 36 0e 3d 58 0a b7 b9 25 32 f3 3c
       -0.037487485 0.034720246 -0.00034912187 0.029686997
000370 ff 8e 7a bc 82 04 41 3c 51 f9 c8 bc 4c 91 ed bc
       -0.015292882 0.01178086 -0.024532946 -0.028999947
000380 17 00 8a bd e5 91 1c bd fe b1 81 bd 5b ae c2 bc
       -0.067382984 -0.038225073 -0.063327774 -0.02376478
000390 de 81 f7 bb 0d 5a 12 bd 28 1d c0 3c cd 56 b3 3d
       -0.007553323 -0.03573041 0.023451403 0.0875679
0003a0 cd 7f 6f bd fa b4 13 bd e6 7e cd 3c e6 69 39 bb
       -0.05847149 -0.036061265 0.025084924 -0.002829188
0003b0 56 63 88 bc 4d ed 38 3c 79 50 03 bd 42 bf ae bc
       -0.01664893 0.011287046 -0.032059167 -0.021331433
0003c0 5e 8b be 3c a2 ea 52 3c 04 07 91 bc 38 37 19 3c
       0.023259815 0.012873324 -0.01770354 0.009351544
0003d0 be d5 75 3c 77 6a 3b 3d c3 7e 30 3b 6c 9d 00 3b
       0.015004573 0.04575583 0.0026931025 0.001962508
0003e0 c9 d6 b0 b9 4f fa 90 bc 0d 8f e0 bc 9d 8b 4c bc
       -0.00033729363 -0.017697481 -0.027411962 -0.012484458
0003f0 b3 4f 28 3c 62 df 0f bd 67 28 49 bd ce ee 9d bd
       0.010272908 -0.035125144 -0.049110796 -0.07711564

network_body._body_endoder.seq_layers.0.bias f4 [256]
000000 77 26 00 3e b0 61 07 be 1e 02 0e 3e 45 6b 41 bd
       0.12514673 -0.13220859 0.13867995 -0.04722144
000010 5e d7 59 be f8 91 c5 bd fe 73 e6 bd 3a 38 0d be
       -0.21273562 -0.09646982 -0.112525925 -0.1379098
000020 3a 41 5a be 76 b1 90 bc e5 94 02 be fa 55 fa bd
       -0.21313944 -0.017662745 -0.12752111 -0.1222343
000030 0a 7c 2b bc da 1f f2 bd df 16 ec bc 42 00 19 3d
       -0.010466585 -0.118224815 -0.0288195 0.03735376
000040 a1 c1 d2 3d a6 b7 10 be b0 06 15 bd ef c3 4d be
       0.10290838 -0.14132556 -0.03638333 -0.20094274
000050 60 24 92 bc cc 88 f1 bd 1a d8 ad bd 79 d6 1a be
       -0.01783961 -0.1179367 -0.08488484 -0.15120877
000060 49 57 5f bd d5 2e 58 bd 5a e6 d3 bd 2d d4 57 bd
       -0.0545266 -0.052779038 -0.103466704 -0.05269258
000070 0d dc b2 bd f6 d2 9f be cd 5a 49 bb 43 91 b2 bd
       -0.087333776 -0.31215638 -0.0030724287 -0.08719113
000080 03 4a a0 bd 17 e2 08 be 69 07 11 be 3f db 29 be
       -0.078266166 -0.13367496 -0.14162983 -0.16587542
000090 32 d1 1c be 27 11 27 be db c3 27 be ab ac 11 be
       -0.15314177 -0.16315137 -0.16383307 -0.14226024
0000a0 0a 9e 77 bd 16 b8 3e be e0 df 69 bd 8e 29 04 3d
       -0.060453452 -0.1862491 -0.05709827 0.032266192
0000b0 a2 ad 12 be ef 16 07 be 35 ff f5 3c 29 76 01 be
       -0.14324048 -0.13192342 0.030028919 -0.12642731
0000c0 da cb b5 3d 1a 1b 7f bd ac f0 14 be b9 dd 3b be
       0.08876772 -0.062281705 -0.14544934 -0.18346299
0000d0 39 a9 b6 bd 79 ca 2a 3d 81 78 9a bd 4d 8d 7c be
       -0.089189954 0.041697 -0.075425155 -0.24663277
0000e0 7a 37 21 be a5 7c 39 be d2 fe 40 bc 76 82 da bd
       -0.15743819 -0.18113954 -0.011779504 -0.10669415
0000f0 85 e4 80 be 89 ef e2 bd 0f 8e 28 be 8e 48 0c be
       -0.25174347 -0.11080844 -0.16460441 -0.13699552
000100 20 58 e4 bd a8 b6 f7 bd ac 12 04 be 46 21 b2 3c
       -0.11149621 -0.12095386 -0.12897748 0.021744382
000110 9a b5 11 be 53 ac 95 bd b0 bf 5f bd ba 45 f1 bd
       -0.14229432 -0.07308259 -0.054626167 -0.117808774
000120 4e 3d a3 bd 9a d8 60 bb f0 12 22 be ea 95 d8 bc
       -0.07970677 -0.0034308792 -0.15827537 -0.026438672
000130 6c 4b ea bd 2d 57 78 bd 1d b7 17 be c3 28 69 be
       -0.11440167 -0.060630012 -0.14815946 -0.22769456
000140 e5 56 cd bd 79 f3 4d 3d cc f0 79 bd b7 4d e3 3d
       -0.100263394 0.05028102 -0.061020657 0.11098807
000150 2a f0 a3 bd 51 cd 75 be 15 db 46 be 13 8f 12 be
       -0.08004792 -0.24004103 -0.1941951 -0.14312391
000160 90 cd 28 be 4e b7 f3 bd 48 01 1a be 2b 9c b0 bd
       -0.16484666 -0.11900197 -0.15039551 -0.08623537
000170 fa 87 17 3e cd fb 42 3d c4 22 14 3d 29 c5 a5 be
       0.14797965 0.047603417 0.036165968 -0.32376984
000180 61 78 12 be b9 bb 10 be 3a a8 98 bd 62 51 56 3d
       -0.14303733 -0.1413411 -0.07453962 0.052323706
000190 00 28 91 bc 1e 53 3a be 35 41 fb bd b3 43 30 be
       -0.017719269 -0.18195769 -0.12268297 -0.17213325
0001a0 82 92 b6 3b 54 60 04 be 40 36 a4 bd 25 6f 2b 3e
       0.0055716643 -0.12927371 -0.0801816 0.16741617
0001b0 39 0e 30 bc e5 77 4c bc e4 4d 48 bd 49 18 03 be
       -0.010745578 -0.012479757 -0.048902407 -0.12802233
0001c0 cd 49 a4 bd 25 08 a8 3d 9d 47 67 3d 58 b8 58 be
       -0.08021889 0.082046784 0.05646478 -0.21164072
0001d0 76 3b 3b be 64 51 0d bd b9 3e 76 be 39 ee 5c be
       -0.18284401 -0.03450145 -0.24047364 -0.2157525
0001e0 56 97 5b bd 21 6a 0d be 41 63 1c be 9c 12 dc bd
       -0.053611122 -0.13810016 -0.15272237 -0.10745737
0001f0 4b 63 a4 bd a6 ed 0b bc 3c 54 c8 bd 0b 49 b3 bd
       -0.08026751 -0.0085405465 -0.097816914 -0.08754166
000200 c8 24 26 3d ea 0c 7a bd 59 63 5f bd a0 0a a0 bc
       0.04056242 -0.061047472 -0.054538105 -0.019536316
000210 14 b3 75 3c 27 46 e3 bd f2 ef ae 3d ec 6b e8 bd
       0.014996309 -0.11097365 0.0854186 -0.113487095
000220 2c 82 ac 3d d3 0c 55 be 91 59 06 be 1d cd e8 39
       0.08423266 -0.20805673 -0.13120104 0.0004440331
000230 b2 dd fc bd 2e dd df 3d ad 3a 3d bd 2e c9 22 be
       -0.123469725 0.109308586 -0.046198536 -0.15897056
000240 2b 37 d1 bd b4 df c0 bb 62 73 31 be 75 d8 80 be
       -0.102156006 -0.0058860425 -0.17329171 -0.25165144
000250 b0 70 3c bd a7 18 a6 bd 53 9b 83 bb 5d a4 96 3b
       -0.046005905 -0.08110171 -0.004016319 0.0045972303
000260 37 b9 19 3d 78 48 18 3d 77 2c 0b bc 1f 2b 9c 3d
       0.03753015 0.037178487 -0.008494488 0.07625412
000270 b2 88 6d 3b 95 75 f2 bd 4e 73 ab bd 25 93 54 bd
       0.0036244807 -0.11838833 -0.08371602 -0.05189814
000280 f8 ab 81 3d 62 5a 1f 3e 47 df 51 bd 37 4b c4 3c
       0.063316286 0.15561822 -0.051238324 0.023961646
000290 a5 55 6a bd 5c d9 c0 bc e9 4f 98 bd 42 d8 88 bb
       -0.057210583 -0.023541145 -0.07437117 -0.0041761706
0002a0 ca 7b 91 bd 30 bb 64 ba 04 b0 01 be a2 aa af bd
       -0.07103689 -0.0008725403 -0.12664801 -0.085774675
0002b0 e8 81 ed bc 9e 86 60 bd 94 76 ff 3c aa 95 5d bd
       -0.028992608 -0.05481588 0.031184472 -0.05409781
0002c0 9c 6f dd bd 89 61 55 be 22 a9 84 3c e3 f7 5e be
       -0.108123034 -0.20837988 0.01619393 -0.21774249
0002d0 8e 70 68 be e3 07 5b bc 3a d8 4a bd d9 99 cd bd
       -0.22699186 -0.01336858 -0.049522616 -0.1003911
0002e0 e6 1d 56 be 37 11 33 3d 48 39 e3 bd e4 28 41 bc
       -0.20909843 0.04371759 -0.1109491 -0.011789534
0002f0 00 81 39 be 79 f6 09 3e 05 a6 0c be cb 34 97 bb
       -0.18115616 0.13472928 -0.13735206 -0.0046144477
000300 ba af 90 bd bf e3 db 3c a8 3b 88 bd 27 84 7f bd
       -0.07064767 0.026841996 -0.066520035 -0.06238189
000310 3e a0 10 be 3d e6 ac bc e6 50 cb bd a2 01 03 bd
       -0.14123628 -0.02110588 -0.099275395 -0.03198398
000320 d2 27 b4 3c 50 bc 8e 3d 85 1a 00 be 5f 19 22 be
       0.021991644 0.069695115 -0.12510116 -0.15829991
000330 95 33 a8 bd 6d 53 14 be 30 1b 89 bd 54 f0 39 be
       -0.082129635 -0.1448495 -0.06694639 -0.18158084
000340 f6 ba b1 bd 63 44 47 bd 7a ee b5 3c 8a b1 9e bb
       -0.08678238 -0.048649203 0.022208441 -0.0048429416
000350 27 23 05 be a7 e3 0f bd b4 e5 02 be c2 0a 1a be
       -0.13001691 -0.035129216 -0.12782937 -0.15043166
000360 59 98 a6 3a 12 69 29 3d 2e e4 05 be 5f 66 0a be
       0.0012710198 0.04135997 -0.13075325 -0.13515614
000370 86 c5 93 be 1e 65 8c bd cd aa ac 3d fb c2 22 bc
       -0.28861636 -0.06855224 0.08431015 -0.009934182
000380 e8 01 e8 bd 3b fe cd bd 04 f9 98 bd aa 35 23 be
       -0.113284886 -0.10058256 -0.07469371 -0.1593844
000390 c0 2f 15 be ce 57 f3 bc 2d 88 11 3e 55 88 1c 3d
       -0.14568996 -0.029704954 0.14212103 0.038215954
0003a0 40 c4 12 be 75 b5 f7 bd 2f 1c a1 bd e7 63 65 bd
       -0.14332676 -0.12095157 -0.07866704 -0.056003477
0003b0 fc e8 30 3c e4 5a b0 bd b7 52 e0 bd 04 95 ac 3d
       0.010797735 -0.08611086 -0.109532766 0.0842686
0003c0 a8 ed ac bd 28 33 de 3d 38 aa 29 3c 9c 5b 9e bd
       -0.08443767 0.10849601 0.010355525 -0.07732317
0003d0 a6 00 12 bd 2c 70 1b be a1 4c 06 be 21 ea 9f bd
       -0.03564515 -0.15179509 -0.13115169 -0.078083284
0003e0 e3 fc 92 bd 15 85 e1 bd 03 d1 2e be 91 8d db bc
       -0.071771406 -0.110117115 -0.17071919 -0.026800903
0003f0 b6 f9 32 3d 9b 82 01 be 30 b1 c3 3c f8 d8 c4 bd
       0.043695174 -0.12647478 0.0238882 -0.09611696

network_body._body_endoder.seq_layers.0.weight f4 [256, 13]
000000 73 cf 81 3e 46 73 5a be 3b 4c 50 be f9 8e b1 bd
       0.25353584 -0.21333036 -0.2034158 -0.08669848
000010 f6 1c 38 3e d2 e1 67 3e 24 b0 69 3f 67 84 47 be
       0.17979798 0.22644737 0.91284394 -0.19484101
000020 75 b0 9b bf 63 ff 85 3f bf 56 49 be 14 92 a5 bd
       -1.2163225 1.0468563 -0.19661997 -0.08084503
000030 eb 2e 16 3f 7b 4e 03 3e 39 f6 3b 3e b5 51 dd 3d
       0.5866534 0.12822907 0.18355645 0.108066
000040 0c c2 3d be 17 fc 73 bd 34 51 a1 bc 9e 96 a6 3e
       -0.18531054 -0.059566583 -0.019692041 0.32536787
000050 37 6e a1 bd 8a 8d a0 be ee 5a 97 3c 9c 7a 09 3e
       -0.0788235 -0.31357986 0.018475976 0.13425678
000060 8b 3b b5 bc dd bf 21 3f cf 01 52 bc f8 e2 e9 3d
       -0.022123119 0.63183385 -0.012817814 0.11420244
000070 bd 85 d4 be 2f 7c 8e bd 41 12 de bc bc c4 e3 3d
       -0.41508284 -0.0695728 -0.027108314 0.111215085
000080 a8 4a 18 40 62 49 c2 3e 0c 0f 36 3e 35 7d 1c 3f
       2.3795567 0.37946612 0.17779177 0.6112855
000090 b5 43 e4 bd 8f c3 18 3f 54 8f a1 3d 83 1a 60 3e
       -0.111457266 0.596734 0.07888666 0.21885113
0000a0 51 71 0d bf b1 b8 2c be ff 1b 1a bd cc d5 ad 3d
       -0.5525103 -0.16867329 -0.037624355 0.08488044
0000b0 f2 fb e8 bd 88 10 9e bd 28 05 69 bd 12 f5 2f 3e
       -0.1137618 -0.07717997 -0.056889683 0.1718333
0000c0 a6 1a 98 bd 8f 62 3a bc 1c 46 ce be 46 ca 5b bd
       -0.07426958 -0.011376037 -0.40287864 -0.0536597
0000d0 d3 90 82 be 94 cf f7 be 68 f0 02 3e 54 1b 21 3f
       -0.25501117 -0.48400557 0.1278702 0.62932324
0000e0 50 b8 e8 be ac cb 82 3e 31 05 88 3e f2 03 c0 3e
       -0.4545312 0.25546014 0.2656646 0.3750301
0000f0 d1 10 79 3d cc 7a 0f bf 2b 9b 93 bd 2c c3 ed be
       0.060807053 -0.5604675 -0.0720733 -0.46437967
000100 ef 95 15 3e 2a 5b b4 bc 78 bc 4b bd b6 1b 6d 3b
       0.14607976 -0.022016127 -0.049740285 0.0036179847
000110 d9 d7 04 be a1 e3 14 3e 3d fe 63 3e 9f 57 a2 bf
       -0.12972964 0.14539959 0.22264953 -1.268299
000120 88 13 f2 bd 7e 7c 6e 3d 59 58 ba bd 64 5a dd bc
       -0.118201315 0.058224194 -0.09098882 -0.02702064
000130 3d 7f 41 3e b1 de 8c be 8b 77 db bc e5 a3 97 be
       0.18896194 -0.2751365 -0.026790401 -0.2961723
000140 68 bb f2 be 5e 2d 2f 3e 63 94 1f be 9c 5a b7 bd
       -0.47408605 0.1710715 -0.15583949 -0.08952829
000150 6a 0e 1a bf b1 90 9d 3e 16 cc 73 be 41 41 b7 3e
       -0.60178244 0.30774453 -0.23808321 0.35791972
000160 28 fd 37 3d d8 bd 2b 3e 76 cb 83 be 03 90 1a 3e
       0.044919163 0.16771638 -0.25741166 0.15093999
000170 5f 85 5b bf 10 81 80 3d 43 90 99 be 61 84 3c 3d
       -0.85750383 0.06274617 -0.29992875 0.046024684
000180 a7 d5 43 be 54 88 7f bd c8 8f 27 bf 19 c4 23 be
       -0.1912447 -0.062385872 -0.6545377 -0.15992774
000190 13 3c 26 3e 4d 0f 03 be 77 b4 37 be 3e 77 2d be
       0.16233854 -0.12798806 -0.17939936 -0.16940019
0001a0 0f a7 21 3e a7 99 ed bd b1 d4 4c 3d ab 1d 69 3e
       0.15786384 -0.116015725 0.050007526 0.22765224
0001b0 78 e0 41 3d 43 2d 4a be ba 65 0d bf 07 7f 12 bf
       0.04733321 -0.19743828 -0.5523335 -0.5722508
0001c0 d4 bd fb 3d 71 ae 47 be 3d 21 cb bb cb d8 31 3d
       0.12292066 -0.19500138 -0.0061990307 0.04341964
0001d0 7c bd 18 be 59 0f b3 3e 13 54 60 be d0 bc 29 3e
       -0.14916033 0.34972647 -0.21907072 0.16575933
0001e0 85 75 09 3e 8f 3e bb bc 7d a4 56 bc 27 45 cb bd
       0.13423736 -0.022856979 -0.0131007405 -0.09925299
0001f0 37 ea 4f bd b2 b2 d2 3e ab 48 d1 be 78 5f a7 3d
       -0.050760474 0.4115196 -0.40875754 0.08172506
000200 a6 65 43 3e 99 63 44 bd 33 52 9f ba 8d 45 89 bc
       0.19081745 -0.047946546 -0.0012155235 -0.016756797
000210 52 b8 8a bb 6b 23 ed 3d b6 b6 c9 3c 84 8f 9d bc
       -0.0042333985 0.11579021 0.024623256 -0.019233473
000220 8b 2a c3 bb c7 14 c3 be 04 26 9d bd 77 8e a8 be
       -0.0059559993 -0.3810179 -0.076732665 -0.32921192
000230 ed 82 04 3f af a2 22 bf 7d 33 39 3d 4c e2 84 bd
       0.51762277 -0.63529485 0.04521512 -0.06488475
000240 85 da a2 be 0e 90 90 bc cc fc aa be 60 38 e6 3d
       -0.31807342 -0.017646816 -0.33395994 0.112412214
000250 50 df b0 3d a4 68 5e bf cd 62 b3 be 46 68 a0 3e
       0.086363435 -0.8687842 -0.35036317 0.31329554
000260 4d c7 02 3e 70 da 43 be 08 e3 9a 3e fe 8c e1 bd
       0.1277134 -0.19126296 0.30251336 -0.1101322
000270 b6 50 28 3e 94 88 36 3e a5 86 ae 3e 1a d6 89 be
       0.16437039 0.17825538 0.340871 -0.2692116
000280 ce 86 7c 3e 08 db 24 3e 9b 45 d9 3e 3f c5 c6 be
       0.24660799 0.16099179 0.42435917 -0.38822362
000290 b0 14 31 3f 75 5b 2c bd 6e 9f a3 be 8c 44 ca 3e
       0.6917219 -0.042079408 -0.31957573 0.39505422
0002a0 8a 38 f8 3e b3 b8 a8 3e 00 53 7b be df 7d 05 bd
       0.48480636 0.32953414 -0.2454338 -0.032590743
0002b0 d1 0c f0 3d 50 32 0e 3e 7f c3 39 3f ce a2 45 bf
       0.117211945 0.1388638 0.7256393 -0.77201545
0002c0 c6 4d 84 3c 2f 22 f0 be 41 a2 00 bf 4d 14 7f 3d
       0.016150367 -0.4690108 -0.5024758 0.06227522
0002d0 3f 00 3a 3e ec 12 26 be d5 c9 8b be e1 a3 c0 bd
       0.18164156 -0.16218156 -0.27302423 -0.094062574
0002e0 e3 42 c9 be e9 e1 9e 3d 09 77 24 be 0d 6b 95 3d
       -0.39308843 0.07757933 -0.16061033 0.07295809
0002f0 18 0e 07 3f 70 28 e2 3e 53 03 0e 3e ae 2f ea 3e
       0.5275588 0.44171476 0.13868456 0.45739502
000300 3f a8 45 bd a5 35 a4 be da b4 01 3d 95 41 5f 3d
       -0.048256155 -0.32072178 0.031666614 0.054505903
000310 c8 b7 24 3e a6 26 40 3b a5 24 f3 3d 9e 32 b9 be
       0.16085732 0.0029319911 0.11872224 -0.3617143
000320 b5 64 4f 3e 08 82 3e bf 80 66 ac 3e 82 1d b3 bf
       0.2025326 -0.7441716 0.3367195 -1.399338
000330 44 fd cf 3e 80 6b be bc 02 4b 8e 3d e6 97 b3 bd
       0.40622914 -0.02324462 0.069479 -0.08769207
000340 f7 a6 20 3c e9 61 ad 3e 44 13 88 3d bf 1e 3d be
       0.0098054325 0.33863762 0.066442996 -0.1846876
000350 8f 06 85 3d 31 72 8f 3d 53 2a 88 3f b5 68 6a bd
       0.064953916 0.07004202 1.0637916 -0.057228763
000360 49 f2 2b 3f 4a b6 ae 3e 8d 1d 94 be e4 f8 16 3f
       0.6716657 0.3412345 -0.28928795 0.58973527
000370 47 b9 d6 3e 70 21 9d 3d 5a b2 f4 3e 80 ae 90 3e
       0.4193823 0.07672393 0.4779232 0.28258133
000380 80 56 9e be ad 6d 1b be e0 3f 32 3d 74 38 31 be
       -0.3092537 -0.15178557 0.043517947 -0.17306691
000390 d6 31 31 3d d2 9d 87 3f df 37 88 be 96 92 ec 3d
       0.043260418 1.0595038 -0.26605126 0.115513965
0003a0 41 c7 ec bd 7d 1a 4d bd f0 7e de be 5a 37 97 3d
       -0.11561442 -0.05007409 -0.4345622 0.07383604
0003b0 c7 4f c1 3d 16 82 a3 3e 02 6c 92 be c4 49 dc bd
       0.094390444 0.31935185 -0.28598028 -0.10756257
0003c0 02 52 d5 bf a7 64 e3 be 51 53 45 bd 49 b2 db 3e
       -1.6665652 -0.4441273 -0.04817516 0.42909458
0003d0 63 7d 92 3d a4 b7 23 be 18 0d 20 bd 8d 29 19 3e
       0.07152822 -0.15988022 -0.039074987 0.14957257
0003e0 46 c6 de be 53 e7 1d 3e 46 d8 ae be 91 91 6f 3e
       -0.43510646 0.15420274 -0.3414938 0.23395373
0003f0 5e f2 95 be 04 f7 38 be b2 d3 d3 be 7c 1b 1b 3e
       -0.29286474 -0.18062979 -0.41372448 0.15147203

network_body._body_endoder.seq_layers.2.bias f4 [256]
000000 1d d5 a8 bd 63 5f 8f bd b7 62 75 3d c8 a9 90 3d
       -0.08243773 -0.070006154 0.059908595 0.07063633
000010 bd 70 3d bd dd af dd bc 42 28 0c bd 6f f5 b1 bb
       -0.046250094 -0.027061397 -0.03421808 -0.0054308693
000020 97 f1 c3 bc 2b 71 18 be ec 01 21 bd 00 b3 88 3d
       -0.02391891 -0.1488692 -0.039308473 0.066747665
000030 08 4b b5 3b ce 9f e7 bc c8 4c 8a 3c 36 7f 10 be
       0.005532626 -0.028274443 0.016882315 -0.14111027
000040 60 48 68 bd 81 4f 84 bc fe 86 98 bd 8f dd c7 bd
       -0.056709647 -0.016151192 -0.07447623 -0.09759056
000050 b0 7c 45 bd 58 b8 84 bc 5c 0d db bd e3 cc 31 3d
       -0.048214614 -0.016201183 -0.106959075 0.043408286
000060 7b 60 33 bd 52 68 85 bd a1 ef d4 bd b9 78 aa bd
       -0.043793183 -0.06514038 -0.10397268 -0.08323807
000070 d2 9d 80 bc f8 2b 76 bd 7b a6 81 3a f4 6e 80 bc
       -0.015700255 -0.060100526 0.0009891534 -0.015677907
000080 93 6b f4 3b d7 4c 39 be 6e 69 b1 bd de 5b b4 bd
       0.007459113 -0.18095718 -0.08662687 -0.08806585
000090 eb 2c 93 bd 66 3b f7 bd 0f ad f7 bd 3b b6 80 bd
       -0.07186302 -0.12071876 -0.12093555 -0.06284758
0000a0 15 3b 9d bd cb aa 6e bd 12 4a 47 bd 99 ad 33 bd
       -0.07677285 -0.05826835 -0.048654623 -0.043866728
0000b0 fc 9d dd bd 9a 95 6e bd 92 ab e7 bc ba f2 14 be
       -0.10821149 -0.05824814 -0.028280053 -0.14545718
0000c0 ff 1e 33 bd 15 8e b2 bd cd 38 8d 3d 8f de af bc
       -0.043730732 -0.08718506 0.068955995 -0.021468429
0000d0 4b 41 cc 3c fa fd 82 bd 3a 83 23 bd a0 f5 86 39
       0.024933478 -0.063960984 -0.03992007 0.00025741477
0000e0 b8 fb 17 bd bb bc 8f bd 57 d2 c7 bd 92 f8 97 bd
       -0.037105292 -0.07018419 -0.09756916 -0.07420458
0000f0 bf 17 08 be 16 6f 49 bd cd 5f 85 bd 11 03 01 be
       -0.13290308 -0.049178205 -0.06512413 -0.12598826
000100 c6 11 4c 3c 46 76 1c bd 4f 37 1d be e8 93 ea bd
       0.012455409 -0.03819873 -0.1535313 -0.11453992
000110 9f a6 e6 bd 23 18 22 3d 68 c7 ae 3c 9b 37 8d 3c
       -0.11262249 0.0395738 0.021335319 0.017238429
000120 bb 5d f8 bd b1 9f 52 bd ff 72 c5 bd 82 9b cd bd
       -0.12127253 -0.051421825 -0.096410744 -0.100394264
000130 5c f2 14 bc 4b b2 a4 bd 21 39 fe bd 0b 06 d6 bc
       -0.009090986 -0.08041819 -0.1241324 -0.026125928
000140 93 48 03 bd 26 58 a1 bd ea fa df bb 29 ff 4a bd
       -0.032051634 -0.07878141 -0.006835331 -0.049559746
000150 a6 77 81 bd 83 40 a8 bb 6b de 56 3d 73 aa a0 bd
       -0.06321649 -0.0051346435 0.052458208 -0.078450106
000160 b6 70 26 bd 89 5f 9b bd 96 35 c5 3c cb 37 b2 bc
       -0.040634833 -0.07586581 0.024073403 -0.02175512
000170 97 8d 1e be c0 8b ea bb d0 c2 90 bd a0 74 5e 3c
       -0.154837 -0.007157773 -0.070684075 0.01357761
000180 52 0f cc 3d dc d3 1f 3d af b7 7a bd ba f9 0d be
       0.099638596 0.039020404 -0.06121033 -0.13864794
000190 bf 65 f2 bc 35 d6 6f bd ad 90 ca bd c0 83 e1 bc
       -0.029589532 -0.058553893 -0.09890876 -0.027528644
0001a0 0a a6 c6 bc 93 48 17 bd bb 76 3e bd c9 b0 c7 bd
       -0.024249095 -0.036934447 -0.04649995 -0.09750516
0001b0 c4 3d a6 bd 1a ad 2f be 7c 62 f0 bc 80 a3 4f 3c
       -0.081172496 -0.17155877 -0.029343836 0.012673259
0001c0 ae 72 94 bd 32 b2 00 bb 7b 07 1c bd 5e 7c 36 be
       -0.07248436 -0.0019637463 -0.03809307 -0.1782088
0001d0 1c 69 4c 3b 42 e3 7b 3b ba 19 38 be 55 ae f0 3c
       0.003119058 0.0038435017 -0.17978564 0.029380003
0001e0 85 10 09 bd b5 f4 47 bc 93 bc ff bb c1 34 47 bd
       -0.03346302 -0.012204339 -0.007804462 -0.048634294
0001f0 14 36 b3 bd b8 8d 62 3d 2f 85 da bd 99 de fd bd
       -0.08750549 0.055310935 -0.10669934 -0.12395973
000200 24 74 8c bd 12 67 37 bd 96 cb 88 bd 59 1b b9 bc
       -0.068580896 -0.04477603 -0.06679456 -0.022596048
000210 f9 40 76 3c 3e 66 05 bd fe 1b 52 bd 77 95 aa bd
       0.015030139 -0.03256821 -0.051296227 -0.083292894
000220 32 f6 1e bd 39 64 0c be ae 44 73 bc 42 c0 42 3d
       -0.03880901 -0.13710107 -0.0148479175 0.047546633
000230 45 61 96 bd c6 90 e2 bd c4 4a 77 3c 39 e8 36 bc
       -0.073427714 -0.110627696 0.015093509 -0.011163765
000240 1b 65 77 3d 7f db 85 bd 05 f4 95 bd d0 cf 57 bd
       0.060399156 -0.06536006 -0.07321934 -0.05268842
000250 13 a6 08 be 72 e8 a3 bd 09 88 07 be 6c 2a 6f bd
       -0.13344602 -0.0800332 -0.13235487 -0.058390066
000260 04 67 96 3b 4b 51 6f bd 0b 09 5d bd 26 b7 0f bd
       0.004589917 -0.058427136 -0.053963702 -0.035086773
000270 95 7c c3 bd 72 9a d0 bd 0c b5 19 bd 88 4f 9f bd
       -0.095452465 -0.10185708 -0.037526175 -0.07778841
000280 f6 91 3f bd 0c e6 64 bd 26 61 2c bd 12 57 21 be
       -0.04677006 -0.055883452 -0.042084835 -0.15755871
000290 04 4c 6a bd d4 9b 44 3d 58 42 2b bc 12 51 71 bc
       -0.0572014 0.04800017 -0.010452829 -0.014728801
0002a0 1a 56 25 3d a6 12 ba bd a3 d1 2f bd 40 45 ef bc
       0.040365316 -0.09085588 -0.042924535 -0.029207826
0002b0 86 a3 94 3c e6 00 33 bc 01 93 ae 3a f2 f6 a0 bd
       0.01814438 -0.010925507 0.0013318957 -0.07859601
0002c0 00 30 2c bd 71 e6 00 be eb 8d b0 3d a4 ea 40 3d
       -0.042037964 -0.12587906 0.08620819 0.04709877
0002d0 0a 5e 91 bb 4c 24 24 bd 0e e7 50 bd c6 ee 45 bd
       -0.004436259 -0.040073678 -0.0510016 -0.048323415
0002e0 41 d5 12 bd 4f 5f 55 3d bd 9f 7a bc 40 43 1e be
       -0.035847906 0.052092846 -0.015296874 -0.15455341
0002f0 78 21 81 bd 3e 8a 9e bd d7 f2 a6 bd 3b e1 bc bd
       -0.06305212 -0.07741211 -0.08151787 -0.09222647
000300 37 e2 05 bd 76 69 45 bd c3 ef 6d bc d8 01 de bd
       -0.03268644 -0.04819628 -0.014522496 -0.108401954
000310 fd 11 5c bd 14 da ec 3d 68 07 10 bd 90 06 12 be
       -0.053728092 0.115650326 -0.035163313 -0.14260316
000320 b7 96 0e bd ca 77 20 bc 78 e1 33 bc 91 a5 5c bc
       -0.0348117 -0.009794185 -0.010979049 -0.0134672085
000330 93 b5 05 be d4 a5 47 bd d6 68 46 bd 35 76 6f bd
       -0.13057546 -0.04874213 -0.048439823 -0.05846234
000340 c7 e1 3b bd 7a 52 eb bd 0e e4 c7 bd 74 94 e7 bd
       -0.045869615 -0.114903405 -0.09760295 -0.11307612
000350 e6 68 bc bd 2e 57 c4 bd 23 7b 84 bc 28 b4 4e bd
       -0.09199695 -0.09586941 -0.016171997 -0.05046478
000360 90 ea 22 bd f2 12 88 bd 2e 90 7d 3c 77 fb 96 bc
       -0.039774477 -0.066442385 0.01547627 -0.018430455
000370 99 43 f7 bc ac a2 e4 bd 15 85 ad bd 05 03 e2 bd
       -0.0301836 -0.1116384 -0.08472649 -0.11035732
000380 ed 9b 14 bd 01 ec 82 bd d7 59 a1 bd cd 8f d2 bd
       -0.036281515 -0.063926704 -0.07878464 -0.10281334
000390 a2 3f 0f bd b9 ec 5a 3d 83 94 81 bc 13 99 8e bc
       -0.034972794 0.053448413 -0.015817886 -0.017406976
0003a0 2d 39 e7 bd 7e bd e4 bd c9 80 aa 3c 43 b7 89 bd
       -0.11290202 -0.11168955 0.020813363 -0.067244075
0003b0 3a 8b 20 bd 86 5c f3 bc e4 b8 8a bd 0e 90 db 3c
       -0.039195277 -0.029707205 -0.06773546 0.026802089
0003c0 8c f6 35 bd d9 41 c4 bd 19 0b 1c bd d3 94 d0 3c
       -0.04442458 -0.09582872 -0.03809652 0.02546159
0003d0 ca 8b aa bd 6b db f0 bc b7 c3 4b 3c 3d 01 87 bd
       -0.08327444 -0.029401502 0.012436799 -0.06592033
0003e0 11 11 a3 bd 4d 39 72 bd 28 0b 3d bd d9 35 bc bd
       -0.079622395 -0.059136678 -0.046153218 -0.09189958
0003f0 69 5c ae bd 23 08 c5 bd 79 3d 83 bc e3 79 bb bc
       -0.085137196 -0.096206926 -0.016020523 -0.022885269

network_body._body_endoder.seq_layers.2.weight f4 [256, 256]
000000 3f 53 6e 3c 1d 72 92 bd 62 23 6b 38 ae 00 ef bd
       0.014546215 -0.07150672 5.606132e-05 -0.116700515
000010 ca 60 3a bd 5b dd 7e bc 2a c1 0c 3d 9d 2e fd 3d
       -0.04550246 -0.015555705 0.034363903 0.123624064
000020 dc 10 05 3d 1f 76 c9 3c 09 5e b5 bd 07 c6 fc 3d
       0.03248678 0.024592457 -0.088558264 0.12342458
000030 06 f5 c5 bd 4f 2e f4 bd 2c 71 d4 bd 72 40 f8 bc
       -0.09665875 -0.11922895 -0.10373148 -0.030304167
000040 53 7a 68 bd 24 e1 d6 ba 27 3c b8 3d 47 fe 61 bd
       -0.056757282 -0.0016394001 0.08995848 -0.05517414
000050 af 79 f8 3d 08 da 83 3d 08 d1 f2 bb a2 66 e5 bd
       0.12132584 0.064380705 -0.0074101724 -0.11201216
000060 97 8f 70 3d da d4 40 bd 26 ab 3a be 53 ec e9 bd
       0.058730688 -0.04707799 -0.1822935 -0.114220284
000070 9c 27 69 bd 68 b1 b7 bc c3 da 12 be 4d 19 38 3d
       -0.05692254 -0.022423461 -0.14341263 0.044946004
000080 6f e4 d2 bd 47 a6 e5 bc 73 84 64 bd b2 94 e5 bd
       -0.102974765 -0.028033389 -0.055790376 -0.11210002
000090 4a d4 0d 3d e9 93 05 3c eb 9f 71 bb e9 14 8e 3a
       0.034626283 0.00815294 -0.0036869 0.0010839972
0000a0 91 4d 75 bd d1 86 16 3e 72 60 6d bd 99 bc 09 bd
       -0.059888426 0.14699866 -0.057953306 -0.033627126
0000b0 f7 95 23 be 94 f0 6b 3d 51 5d a7 bd 20 41 6d bd
       -0.15975176 0.05760248 -0.081720956 -0.057923436
0000c0 14 43 2e bd 09 26 4f 3d 80 67 2f bd a5 e9 cb bd
       -0.04254444 0.050573383 -0.042823315 -0.099566735
0000d0 64 59 4e 3d 03 16 27 3d 4d 2a bb bc 6a 56 9b bd
       0.05037822 0.040792476 -0.022847319 -0.075848415
0000e0 34 ea 3c 3d a5 48 8e bd 6b d0 3e 3c ac b0 17 bc
       0.04612179 -0.069474496 0.01164637 -0.00925843
0000f0 23 6c 4c bd b7 c7 21 be 70 05 d1 3b e8 62 24 3d
       -0.049907815 -0.15798841 0.006378822 0.040133387
000100 0f 9b a5 bd 05 85 36 3d 6c e7 98 3a 80 fc c0 3d
       -0.08086216 0.04456045 0.0011665649 0.094231606
000110 16 b3 62 3c 63 49 0b be 6e 06 3d be 22 a3 03 bb
       0.013836643 -0.13602214 -0.18459484 -0.0020086248
000120 cb cb 81 bd 5c 6d 39 3d ec 07 85 3d 0d 0a 38 bd
       -0.063376985 0.04527031 0.064956516 -0.04493146
000130 19 ef 13 bd 31 ae fd 3b 9a c2 ce bd 0a c9 88 bd
       -0.036116693 0.0077417125 -0.10095711 -0.0667897
000140 1b 71 bf bb ee 70 1d bd 43 36 4d bd 51 23 2f bd
       -0.0058423406 -0.038437776 -0.050100576 -0.04275829
000150 00 c6 35 be 7d ef 4f 3d f8 93 f2 bd e5 5b 3d bd
       -0.17751312 0.050765503 -0.11844629 -0.046230216
000160 ff 6d 78 3c 9a c1 e0 bc 29 6b 78 3d 54 f7 18 be
       0.015162944 -0.027436066 0.06064907 -0.14938098
000170 2b 85 09 3d 39 4f 39 be 20 a1 e3 3d 37 f6 8d bd
       0.033574264 -0.18096627 0.111147165 -0.069317274
000180 31 0c 17 bc 8e 63 3d bd b5 29 d1 3d 05 c2 a5 3d
       -0.009219215 -0.04623752 0.10213033 0.08093647
000190 60 e0 4d 3b be 00 10 3c f0 8e 83 3c 82 87 a1 bd
       0.0031414255 0.008789239 0.016059369 -0.07887174
0001a0 75 90 8b 3d 25 85 ff bc 98 ee 50 bb 7f bd f5 bd
       0.06814662 -0.031191418 -0.0031880494 -0.11999034
0001b0 f9 59 23 3d 09 57 b9 bd 96 34 10 be a6 f4 f5 3c
       0.039880726 -0.09049804 -0.1408256 0.030023884
0001c0 c9 5c eb 3d 82 32 f9 3c 76 fd 63 3d ef 32 cb 3c
       0.11492307 0.030419592 0.05566164 0.02480456
0001d0 30 f9 79 3d b8 be 26 be 85 26 fc bd dc 3c 09 be
       0.06102866 -0.16283691 -0.123120345 -0.13402122
0001e0 b4 90 36 bd 18 26 05 bd c2 55 eb 3d ed 90 24 3c
       -0.044571593 -0.032507032 0.114909664 0.010044319
0001f0 e2 e4 26 bc 8e e0 03 be 24 e2 ca bd 4b 8b 1d be
       -0.010186406 -0.1287863 -0.09906414 -0.15385167
000200 f3 39 23 3d 19 78 ce 3c be a1 ca 3a 89 51 18 be
       0.039850187 0.025203751 0.001545958 -0.14874853
000210 c2 26 0a be 26 5d 27 3c 16 4f ef bd db 36 5f bd
       -0.13491347 0.010215079 -0.11685006 -0.054495674
000220 2f 39 26 3d 8a 6e 10 3d 5f a5 17 be da ee d9 bd
       0.04058188 0.03526167 -0.14809178 -0.106412604
000230 76 dd f1 bd 03 0f ae bb bf 85 3e 3d fa 61 dc bd
       -0.118098184 -0.005311848 0.04651427 -0.10760875
000240 4f 76 87 bd 65 82 63 3d ed cd bd bd 4d 4b a5 3d
       -0.066143624 0.055544276 -0.09267793 0.08071003
000250 89 ec 16 bd 3f 9f c2 3c 5a c4 d7 bd 25 1f 89 3d
       -0.03684667 0.023757575 -0.10535498 0.066953935
000260 4f 14 19 be 8b b1 14 be 20 43 46 be dd ab 60 3c
       -0.14949153 -0.14520852 -0.19361544 0.01371285
000270 66 1b 1d bd 34 cb 15 3c fd 31 1f bd 29 92 7c 3c
       -0.038356207 0.009142686 -0.038866032 0.015415707
000280 0b bf 08 be 7b 62 5f 3a 58 a8 88 bd 25 79 c9 3d
       -0.13354127 0.00085214496 -0.06672734 0.098375596
000290 42 25 dd bd 6e f9 28 be db 15 82 bd fb a7 df bd
       -0.10798122 -0.165014 -0.06351825 -0.109207116
0002a0 09 78 f4 bc af 68 b8 bd c5 a0 e6 3c 40 1b 14 bd
       -0.029842393 -0.09004342 0.028152833 -0.0361588
0002b0 0d 43 81 bd 3b 2c b2 bd 9c 7a 4c bd 79 3d da bb
       -0.06311617 -0.086998425 -0.049921617 -0.00666016
0002c0 56 9a 7b bd 80 68 11 bd d8 81 03 3b 54 a0 11 be
       -0.061426483 -0.03550005 0.0020066407 -0.14221317
0002d0 37 32 b0 bd 5c 85 36 3e 9c e6 2f bd 3a e8 bf bd
       -0.08603328 0.1782431 -0.042944536 -0.093704656
0002e0 ce f6 2b be ce 45 b2 bc 94 c2 af bc a7 14 45 bd
       -0.16793367 -0.021761801 -0.021455087 -0.0481154
0002f0 6e d2 09 3c 5e 04 21 3d 02 77 79 bd ae d2 bc 3c
       0.008411987 0.039310805 -0.06090451 0.023049679
000300 74 a8 ae bc b4 f7 fa bd b4 ad 99 3d c4 d6 c5 3d
       -0.02132056 -0.12254277 0.07503834 0.09660104
000310 db 27 fb 3d 45 76 a5 bd 32 35 00 bb 46 8d 08 be
       0.12263461 -0.08079199 -0.0019562957 -0.13335142
000320 9c 84 a1 3c 49 f6 88 bd 48 d9 20 be a6 de 18 be
       0.019716553 -0.066876 -0.15707886 -0.14928684
000330 60 b6 0a be da 99 22 3e 3d b9 55 bd de 87 5c bd
       -0.13546133 0.15879002 -0.05217861 -0.05384051
000340 a0 84 91 3d 20 73 ff bd a2 af dc bc ec 57 85 be
       0.07105374 -0.1247313 -0.026939217 -0.26043642
000350 b4 41 50 bc e1 bb 35 3d a5 52 1a bc 1f db 5c be
       -0.012710977 0.04436863 -0.009419118 -0.21567963
000360 d3 61 25 bc 10 60 8f bc 63 12 8d 3d d1 59 dc bd
       -0.010094124 -0.01750186 0.068882726 -0.107593186
000370 88 fe bd 3d f6 91 bd bd 71 9a 75 bd cb 5d 04 be
       0.092770636 -0.092563555 -0.05996174 -0.12926404
000380 9d 52 81 3d e3 08 95 bd 3c d0 f1 bc 49 12 b0 3d
       0.06314585 -0.07277086 -0.02951824 0.085972376
000390 ca 9b fd bd 6e 54 67 be 16 9a af bd 6a a4 88 3c
       -0.1238323 -0.22590801 -0.085743114 0.016679961
0003a0 df 49 48 bc 1c 72 87 3c fa 67 eb 3a 22 9a 6c 3d
       -0.0122246435 0.016533904 0.0017960065 0.05776418
0003b0 8e 4b 2b be 46 eb f5 bd e7 54 b6 bd 0e 0b 9a be
       -0.1672804 -0.120077655 -0.089029126 -0.3008656
0003c0 46 21 d6 bd 44 96 ac 3d 9d 8e a6 bd cc fd 00 be
       -0.10455565 0.084270984 -0.0813267 -0.12596816
0003d0 d1 ae 46 3d 36 08 88 3a a4 f2 59 3d 96 54 56 3c
       0.04850656 0.0010378424 0.053209916 0.01308169
0003e0 3d 63 69 3d ed f8 e7 3b 67 e5 d2 bc 42 9f f6 bd
       0.056979407 0.007079235 -0.025744153 -0.12042095
0003f0 96 04 1f be e6 ed f1 3a 78 f0 31 be a2 3f 7f bd
       -0.15529093 0.001845774 -0.17376888 -0.062316544

network_body._body_endoder.seq_layers.4.bias f4 [256]
000000 ac 1d 00 bd ed 8e 52 3d 25 3d 21 bd ed 66 90 bd
       -0.031278297 0.051405836 -0.039364953 -0.070508815
000010 b5 b2 c4 bd 96 e5 9b bd 6e 8e 02 bd 57 a6 79 bd
       -0.09604398 -0.076121494 -0.031874113 -0.06094965
000020 87 14 65 bd 6d ea 01 be c0 50 49 bd 70 7a 11 3c
       -0.05592778 -0.12687083 -0.049149275 0.008879289
000030 68 a7 f5 bd 81 e2 8d 3c 20 d9 6b bd 97 ae 98 bd
       -0.11994821 0.01731992 -0.057580113 -0.07455175
000040 58 4b 0a bd 4c 5c 58 bd 4d a6 6c bd 11 41 c2 bd
       -0.03376326 -0.052822396 -0.057775784 -0.09485067
000050 ea 0a 37 bd 28 14 00 be 66 03 41 be 96 e4 e6 bd
       -0.044688143 -0.12507689 -0.18848953 -0.11274068
000060 16 c7 d0 bc 78 5e 4e be 7b 9a 29 bd 51 5d d9 bd
       -0.025485557 -0.20153224 -0.04140709 -0.10613502
000070 e1 f4 ba bd 3a 26 98 bd 23 26 a3 bd e1 f1 22 bd
       -0.09128738 -0.07429166 -0.079662584 -0.039781455
000080 71 5c fd ba bf dc 97 bb f2 a3 65 3c 77 29 92 bc
       -0.0019329918 -0.0046344693 0.014016138 -0.017842038
000090 ef 50 85 bd 1c 06 a0 bd fd 40 ba bc 8d 87 f6 bc
       -0.065095775 -0.07813665 -0.022736067 -0.030093933
0000a0 2e c7 5e bd 53 bc cb bd aa a3 40 bd 6d 96 0e be
       -0.05438917 -0.09948029 -0.047031082 -0.1392457
0000b0 a0 f1 a0 bd a4 2d cb bd 62 3a 57 bd 46 cb 51 bd
       -0.07858586 -0.09920815 -0.052545913 -0.051219247
0000c0 61 69 9d bd 6f 8a 19 bc 9b 4c bc bc cc 8e 46 bc
       -0.07686115 -0.009371384 -0.022985747 -0.012119006
0000d0 42 f7 a7 bc 5d e8 62 3c 49 1d bf 3d d6 f5 30 be
       -0.020503644 0.013849345 0.093317576 -0.17281279
0000e0 ae 83 a2 bc a7 f0 09 3d 7d c9 d2 bd 63 fc 20 3d
       -0.01983818 0.03367677 -0.10292337 0.039303195
0000f0 b1 9b 45 bc 05 b3 9c bd dc 13 26 3d cb 1a cc bd
       -0.0120610455 -0.07651333 0.040546283 -0.09966048
000100 4e b0 84 3d 56 3b 18 be 94 d8 cc bd d4 be a1 bd
       0.0647894 -0.14866385 -0.100022465 -0.07897726
000110 0a 84 4e be 43 5f 36 3d 86 85 b6 bd 46 3c 37 bc
       -0.20167556 0.044524442 -0.08912186 -0.011183804
000120 fd e5 0b be d7 42 32 be a2 22 88 bd b5 e8 57 be
       -0.13661952 -0.1740831 -0.06647231 -0.21084864
000130 65 45 4c bc 03 b8 8e bd 64 f8 b0 bd 56 82 5f bd
       -0.012467717 -0.06968691 -0.08641127 -0.054567657
000140 e9 d0 17 bc 0f 14 86 bd e4 8e c2 bd 9a 65 04 be
       -0.009266117 -0.065467946 -0.094999105 -0.12929383
000150 2c e4 ad bd ca 41 e9 bd 7f f2 c5 3d 1e 14 85 bd
       -0.08490786 -0.113895014 0.09665393 -0.06497978
000160 23 35 e6 bc 2e 16 20 bd d8 9d b8 bd 1a 2c b0 3c
       -0.02810151 -0.039083652 -0.09014481 0.021505404
000170 39 91 1d bd 2e 80 48 bd 1a 5b 1e be 46 81 4b 3c
       -0.038468573 -0.048950367 -0.1546444 0.012420958
000180 38 27 1a be fa 09 c5 bc 50 a0 d8 3c 23 d2 5c bc
       -0.15054023 -0.024052609 0.02644363 -0.013477835
000190 90 67 c9 bd 93 55 93 bd 8e 30 d6 bd 5d ba d6 bc
       -0.09834206 -0.07194056 -0.1045848 -0.026211912
0001a0 54 38 1a be 48 c3 6c 3c c3 77 11 be 06 4f 07 be
       -0.1506055 0.014450856 -0.14205842 -0.13213739
0001b0 1c e4 94 bd de 25 5d be 12 30 84 bd e5 6d f2 3b
       -0.07270071 -0.21596476 -0.06454481 0.0073983544
0001c0 80 1b 1a bd 23 f8 7e bd d8 57 b2 bc 57 93 14 bd
       -0.037623882 -0.06224836 -0.021770403 -0.036273327
0001d0 76 e6 0a bd b3 b0 11 3b bc 41 fd bd c5 67 ed 3c
       -0.03391119 0.0022230565 -0.123660535 0.028980145
0001e0 c7 1c 5e bd b8 3e c0 bd 29 1e 2e be e0 38 ab bd
       -0.054226663 -0.09386963 -0.17003693 -0.083604574
0001f0 6b c3 f2 bb 44 b9 93 bc d8 cf ac 3c 5d af 29 3d
       -0.0074085495 -0.018032677 0.021095201 0.041427005
000200 bf 4d b6 3c 8f f3 21 bc b0 b0 47 bd 01 f1 ef bd
       0.02225387 -0.009884729 -0.048752487 -0.1171589
000210 ff 1f da bd 9a 20 cc bd 46 26 de bd 8e 67 3c be
       -0.10650634 -0.09967156 -0.10847144 -0.18398878
000220 b7 79 ea bd dd 5c 3c bd 1d 35 1c be 90 ef 1e bd
       -0.114489965 -0.045987 -0.15254636 -0.038802683
000230 cb 27 b1 bd 5a d3 cd bd a5 28 d0 bd 82 11 68 bc
       -0.08650168 -0.10050078 -0.10164002 -0.01416433
000240 a0 fc 79 bd 9d a3 dc bd 45 87 88 3d 6c f8 e0 3b
       -0.061031938 -0.10773394 0.066664256 0.0068655517
000250 18 0e 1a bd dd 10 70 3c 62 b1 da bc 58 10 a7 bd
       -0.037611097 0.014652458 -0.02669591 -0.08157414
000260 f9 2c 04 bc 97 33 ab bd c7 85 e0 bb 63 c4 03 be
       -0.008067363 -0.08359449 -0.006851885 -0.12867884
000270 3c 0b 31 be c5 5e 2c bd 52 08 55 be 5b 21 1a ba
       -0.17289442 -0.042082567 -0.20803955 -0.0005879604
000280 00 35 72 bd ca bf 88 3d 34 73 5b be c4 d4 3a 3d
       -0.059132576 0.06677206 -0.21430665 0.045613065
000290 d2 c6 c1 bd 47 6b 07 be ba 52 6e bc 81 f5 f9 3b
       -0.0946175 -0.13224517 -0.014546091 0.0076281433
0002a0 22 75 a5 bd 1c 80 99 bd 5c 0e 90 bd 6a 0e 0b be
       -0.08078982 -0.07495138 -0.07033989 -0.13579717
0002b0 25 ab a1 3d cb 3f d4 3c 3c fc ac bd 4e 8a d0 bd
       0.07893971 0.025909325 -0.084465474 -0.101826295
0002c0 f2 42 88 bd 9b de 0d be c4 e4 b6 bb 44 1e 7a bd
       -0.06653394 -0.13854448 -0.00558147 -0.06106402
0002d0 fe f9 94 bd bc c5 95 3b 85 fc ad bd d0 9d ee bd
       -0.07274245 0.004570691 -0.0849543 -0.11651194
0002e0 08 07 d6 bd 66 e8 0c bd 36 64 11 bd 43 3a 1c 3c
       -0.1045056 -0.03440132 -0.03549596 0.009535375
0002f0 90 0b 08 be d1 5d 1a be 89 9d cf bd cf 7a 3f bd
       -0.1328566 -0.1507485 -0.10137469 -0.04674798
000300 11 52 d9 3c 81 24 e1 bd 5a 60 8e 3d 1e bf 57 bd
       0.02652839 -0.10993291 0.06951971 -0.052672498
000310 be 2f e6 bd e0 1a 65 3c 85 fa a1 bd eb c1 bc bd
       -0.11239575 0.013983458 -0.07909111 -0.092166744
000320 22 76 99 bd 9c b7 77 bd d4 05 d0 bd 65 d6 09 bd
       -0.07493235 -0.060477838 -0.101573616 -0.03365173
000330 83 01 c9 bd c1 1f 00 be 46 66 66 bc 39 2d 25 bb
       -0.098147415 -0.12512113 -0.01406247 -0.0025203957
000340 bd bd 7e bc 7c 72 79 3d 86 6e 09 be 8e 7d 61 3c
       -0.015548167 0.060900196 -0.13421068 0.013762845
000350 67 ed fc bd 6b c3 12 bd 33 23 92 bd 82 41 9b bd
       -0.123499684 -0.035830896 -0.0713562 -0.07580854
000360 59 b2 f7 bc a9 22 1b bd 9a 93 55 be cc 55 23 bc
       -0.03023641 -0.03787485 -0.20857087 -0.009969186
000370 8e 25 7d bc 26 04 b6 bb a4 4b 02 be f2 91 26 be
       -0.015450848 -0.0055546938 -0.12724167 -0.16266611
000380 1d ea 1f bd 48 4c 81 ba 30 f3 71 3c 42 df 1a bc
       -0.039041627 -0.0009864653 0.014767453 -0.009452643
000390 fd 68 d7 bd df d8 78 bd d6 f6 c3 bd 57 ca 79 bd
       -0.10518072 -0.0607537 -0.095685646 -0.060983982
0003a0 46 9a 17 bd f0 95 4e bd 14 f1 09 3c 20 94 86 bc
       -0.03701236 -0.05043596 0.008419294 -0.016428053
0003b0 ae 4c b2 3a 41 94 53 bc 3c 37 8f bd 6c 71 db bc
       0.0013603175 -0.012913764 -0.06992957 -0.026787482
0003c0 95 b0 76 bd b9 37 50 bd c3 94 17 bc fa 98 e2 bc
       -0.060226995 -0.05083439 -0.009251776 -0.027660836
0003d0 32 c8 1a bd 37 a7 95 bd 0b 2b 72 3d cf a5 5d be
       -0.037788577 -0.07307284 0.05912308 -0.21645282
0003e0 61 ae 3b bc 4d 4e 65 bd d4 4c 36 3d ce 8a 67 be
       -0.011455149 -0.055982877 0.044506863 -0.22611544
0003f0 5b eb 46 bd db b3 77 3c 97 bb 91 bb 62 ff 89 bd
       -0.048564296 0.0151185645 -0.0044474113 -0.067381635

network_body._body_endoder.seq_layers.4.weight f4 [256, 256]
000000 fc 93 b9 bb a6 e3 99 bd db 16 49 be 10 1b ac bd
       -0.005663393 -0.075141236 -0.19637625 -0.08403599
000010 5c 69 b9 3c f5 ae 3d 3e bd 4d d5 bd 4d 55 dd bc
       0.022633247 0.18523772 -0.10415218 -0.027018214
000020 e5 70 14 be 85 9f 3f be e7 e4 5a 3d 63 de 19 be
       -0.14496191 -0.18713196 0.053440955 -0.1502624
000030 c3 79 35 3e ed 12 11 3e 59 18 a8 bc 86 e1 09 3e
       0.1772223 0.14167376 -0.020519422 0.13464937
000040 7b 8b 01 3d 9b 40 ad bd 91 10 71 bd 5b 8b 14 3e
       0.03162716 -0.08459588 -0.05885369 0.14506285
000050 b9 27 cf 3c b6 ae f8 3b 19 b4 d7 bd 74 f2 3d 3c
       0.025287496 0.0075891865 -0.10532398 0.01159345
000060 cf 6d 8c 3d ae 0e 94 3d 4d ea 67 3d 0c b7 09 bd
       0.06856882 0.072293624 0.05661993 -0.033621833
000070 03 b8 8d bd 91 dc c4 3e 6b 92 98 bd 47 c2 ea bd
       -0.06919863 0.3844953 -0.07449802 -0.11462837
000080 e8 46 56 bd 6c c7 78 bd 2d f6 65 bd 7a 1b 89 3d
       -0.052313715 -0.06073706 -0.056142975 0.06694694
000090 2c 34 0b 3e 7b cb 06 3d 00 f0 fa 3c 0e 2c f4 3d
       0.1359412 0.032908898 0.030632019 0.11922465
0000a0 96 b0 a3 3d 5e ea 16 3c 7a b3 f3 3c 43 d9 20 bd
       0.079926655 0.009211151 0.029748667 -0.039269697
0000b0 8b aa 1c 3e 6f 1d fb 3b af b8 4e 3e 89 40 d8 bc
       0.15299432 0.007663421 0.20187639 -0.02639796
0000c0 81 03 8b 3d 6f 08 e2 bd 08 59 8a bd 1b da d8 bd
       0.06787778 -0.11036765 -0.067552626 -0.10588475
0000d0 25 a9 93 be 71 4e 9c bd 5d dd 00 be 98 9d bf bc
       -0.28839985 -0.07632149 -0.12584443 -0.023390576
0000e0 63 d2 20 3b ab e7 e7 3d 7c df 58 3e a9 1a 47 3c
       0.0024539463 0.11323484 0.21179003 0.012152352
0000f0 17 9a 81 3d d3 83 c5 3d 14 03 28 3c 60 16 4d bd
       0.063282184 0.09644284 0.01025464 -0.050070167
000100 ea 39 8a be 30 3a a3 3d 12 e6 1e bd 88 42 9c 3c
       -0.2699731 0.07970083 -0.03879363 0.019074693
000110 61 cc 94 3d 8e ec fd 3c 2a ac 8b bd c8 05 92 bc
       0.07265545 0.030996587 -0.06819947 -0.017825022
000120 8c ee e6 3d 5e a1 aa bd de fe 96 be f8 59 3b 3d
       0.11275968 -0.083315596 -0.29491323 0.045740098
000130 5d 50 49 3a 76 ab 68 bd ec 01 e5 3d e7 5d 3b 3c
       0.00076795166 -0.056804143 0.11182007 0.011435962
000140 87 92 95 3c 5c eb 3e bd c5 21 40 bc c4 94 cd bb
       0.018258346 -0.046611175 -0.011726801 -0.0062738378
000150 26 9e 27 bc d1 8e 1b bb b9 4f 8e bd 08 ff ca 3c
       -0.010230577 -0.0023736248 -0.069488 0.024779812
000160 d6 08 21 be 6b d6 1d bc 25 59 72 be c4 3f e7 bc
       -0.15726027 -0.009633641 -0.23666818 -0.028228648
000170 bb d5 33 3e 38 0a 44 be af 8e f5 3d 6d 2d e5 bc
       0.17562 -0.19144523 0.11990105 -0.027975762
000180 8a c0 08 be 86 2a 45 bd 99 38 8f 3d 7a c7 0f be
       -0.13354698 -0.048136257 0.06993217 -0.14040938
000190 e1 a3 d2 3c da 26 a2 3d c5 cc 51 bd ea 56 9c 3d
       0.02571291 0.079175666 -0.051220674 0.07633765
0001a0 a1 17 8e 3d 07 1f 81 bd 0b 01 14 bc db e2 ad bd
       0.069381006 -0.06304746 -0.009033452 -0.08490535
0001b0 5e 32 05 bc ba b5 08 be e2 aa 86 be 06 49 fe bd
       -0.008129684 -0.13350573 -0.26302248 -0.12416272
0001c0 8a 46 cf 3b a8 64 77 3b fa 9a d2 3d af 70 61 bd
       0.0063255476 0.0037749205 0.10283466 -0.055039104
0001d0 9a 14 7e 3d 94 83 c9 bd 55 89 59 3e 5f fe 58 bd
       0.062031366 -0.0983955 0.21243794 -0.052976962
0001e0 fe 50 ef 3b ba 3e 3c bd f7 d5 6c bd 1b bb 2a bd
       0.007303356 -0.04595826 -0.05782124 -0.041682344
0001f0 fe c8 0c be a3 34 9d 3c 83 02 78 bb 3f 2a a7 bd
       -0.13748547 0.019190138 -0.0037843294 -0.08162355
000200 c5 f6 af 3c d5 b5 ab 3c f8 c3 d4 bd be 9c bb bd
       0.021479974 0.020960728 -0.103889406 -0.091607556
000210 cd cf ea bd d6 4c bd 3d cb fb 82 3d 03 d6 20 3e
       -0.11465416 0.09243171 0.06395682 0.15706639
000220 f1 f2 45 bd 97 43 8e 3d 32 ff 1c be ca e2 96 bc
       -0.04832739 0.069464855 -0.15331724 -0.018418688
000230 e4 93 34 bd be 1b 8c bd 0b 97 95 bc 83 cb 25 3e
       -0.044086352 -0.06841229 -0.0182605 0.16190915
000240 6c 10 ed bc 3c c2 dc bd 1a 9a 84 3d 92 8f 8b bd
       -0.028938495 -0.10779235 0.06474705 -0.06814493
000250 73 d1 e2 bd 73 de d1 3d de 1e 20 3d 5b fe 42 3d
       -0.110751055 0.10247507 0.039091937 0.047605854
000260 2a 3b 0d 3d e2 ef 2c bd 0e c9 db 3c 29 60 eb 3c
       0.03448025 -0.042220958 0.026829269 0.028732376
000270 32 a3 2e 3d 63 a4 f1 bd e7 6f a9 bd e0 50 70 3e
       0.042636104 -0.117989324 -0.08273297 0.23468351
000280 a8 41 32 3e f0 2d a8 bc 44 a4 6e bd 4b 4c c0 3c
       0.17407858 -0.020529717 -0.058262125 0.02347388
000290 ee 2f 30 3e 4c 6f 3f 3d 2c 09 2e 3e 67 b9 18 bd
       0.17205784 0.046737 0.16995686 -0.03728619
0002a0 37 52 13 bd e8 ff 8c 3c 2d fb 74 bd 06 15 b2 3c
       -0.035967078 0.01721187 -0.059809852 0.02173854
0002b0 29 d5 8e bd 68 bc e3 3c 7f 15 af 3d 07 b0 fd 3d
       -0.06974251 0.0277998 0.08549022 0.1238709
0002c0 24 0e ff bd 55 82 b1 bd fd c5 82 bd c3 33 a0 bd
       -0.12453869 -0.08667437 -0.063854195 -0.07822373
0002d0 c0 3c 2f 3e 31 20 84 3b d8 42 e2 3d 56 e8 89 bc
       0.17113018 0.004032158 0.11047906 -0.01683442
0002e0 a1 d7 20 bd b0 02 10 be 31 6c 28 bc d3 5f 97 bc
       -0.03926814 -0.14063525 -0.010279701 -0.01847831
0002f0 65 33 22 bd f2 90 f2 bd d4 2a a6 3d e6 bb 3a 3d
       -0.039599795 -0.118440524 0.081136376 0.04558935
000300 1e 29 e2 3d 4d a4 dc bd e5 03 1d bc 9a 26 cd 3c
       0.11042999 -0.107735254 -0.009583448 0.02504282
000310 c8 ec d6 bd 10 98 d6 bd 49 5f e3 bd b9 1b 17 3e
       -0.10494381 -0.10478222 -0.111021586 0.14756669
000320 42 6e d0 3d d6 f2 fe bc d9 68 7d 3e aa 9f 1f 3e
       0.1017728 -0.031121653 0.24747027 0.15588251
000330 f4 5e 31 3e 5f 0b a9 3c 2a f6 f6 bc e9 01 68 bd
       0.17321378 0.020635305 -0.030146677 -0.056642447
000340 c8 a3 4d bd 30 af 0a 3e 2b bb 97 bc 05 01 04 be
       -0.050205022 0.13543391 -0.018521866 -0.12891014
000350 65 77 5d be 61 8d 17 3d cb 0b 35 3e 41 24 27 3e
       -0.21627577 0.037000064 0.1768028 0.16322424
000360 52 78 f5 3c c8 98 c7 bb cd d4 ac bc 96 c5 5f 3e
       0.0299646 -0.006091211 -0.021097565 0.21852717
000370 97 2f 9f 3d e8 c2 c4 bb cd da b7 3c 5d b0 0c 3d
       0.07772749 -0.00600468 0.0224432 0.03434788
000380 1e 3a 1e 3e a9 f4 07 bb a9 0c 17 bd 65 4b 30 3e
       0.15451857 -0.0020745194 -0.036877308 0.1721626
000390 c1 af ea bc 58 27 85 bc a0 d2 94 3d e2 f8 31 bd
       -0.02864826 -0.016254112 0.07266736 -0.043450244
0003a0 1d 0f c5 bd a8 2d ac bd 85 88 7f be b9 98 3e 3d
       -0.09622023 -0.08407146 -0.24954422 0.046532366
0003b0 57 e9 0b 3d a8 c1 54 3e 47 d3 5c 3c 82 b9 e0 bd
       0.034158077 0.20776999 0.013478107 -0.10972883
0003c0 b0 c9 3d bd 73 e4 84 bd 88 a3 5d bb 7f 5a 23 be
       -0.046334922 -0.06488886 -0.0033819396 -0.1595249
0003d0 36 f5 3e bd d0 20 81 bd a7 de 2c bd 40 a0 96 bd
       -0.04662057 -0.063050866 -0.042204525 -0.07354784
0003e0 14 03 3f 3c c8 5d bc 3c 41 23 fc bd ad 2b 36 3e
       0.011658449 0.022993937 -0.12311412 0.17790098
0003f0 e3 85 bb 3d cb bd dc bd b9 0e 6c 3d c3 5a 34 3c
       0.09156396 -0.10778388 0.057631228 0.011007967
