results/Drone3/Drone/Drone-21499968.onnx (onnx, 810629 bytes, 11 tensors)

action_model._continuous_distribution.log_sigma f4 [1, 4]
000000 61 be d2 bf 02 fa c9 bf 5f b1 bb bf bd f4 ad bf
       -1.6464349 -1.5779421 -1.4663504 -1.3590313

action_model._continuous_distribution.mu.bias f4 [4]
000000 f7 ae c9 3d 24 73 ef 3c f1 12 e6 3d 69 2e 7b 3c
       0.09847825 0.029229708 0.112340815 0.015330889

action_model._continuous_distribution.mu.weight f4 [4, 256]
000000 2e 0e 5d 3b 5c 5e 13 bd 3f 62 dd bc 29 c8 85 bd
       0.0033730376 -0.03597866 -0.027024386 -0.06532318
000010 27 bc a0 bd f6 54 f9 bb 3b b2 e6 bc 8f 06 6d bd
       -0.07848387 -0.007609005 -0.028161159 -0.057867583
000020 68 1d 9e ba 0d 96 41 3d 05 3b 46 bd 0b e5 4b bd
       -0.0012063207 0.04726224 -0.04839613 -0.04977898
000030 7f c5 46 3d 0b f8 fd bc cb 93 7c bd 88 91 47 bd
       0.04852819 -0.031002065 -0.061664384 -0.048722774
000040 67 e4 26 bc 11 6f 0d 3c 7e fa 11 3d 1f b6 0e 3d
       -0.010186291 0.008632437 0.03563928 0.034841653
000050 f7 77 f4 3c a8 16 8e 39 a7 05 05 bd 9c d7 13 bd
       0.02984236 0.0002710123 -0.032476094 -0.036094293
000060 bc 93 49 3c 14 c2 cc ba 46 dc 3c bd 70 37 cd bc
       0.012303289 -0.0015621805 -0.046108507 -0.025050849
000070 70 42 ee 3c 41 9d 2a 3c e2 08 a5 bc 9d 13 ba bc
       0.029084414 0.010413469 -0.020145837 -0.02271443
000080 9d b8 b0 3b 31 f5 a6 3d 34 be 94 bd 4b 4b 36 bc
       0.0053931014 0.08152235 -0.07262841 -0.01112635
000090 80 db 3c 3d a5 aa 2a 3c c0 bc d1 3c 3b ae 3f bd
       0.04610777 0.010416661 0.025602698 -0.04679702
0000a0 99 2a b9 b9 f9 22 81 bd 13 ad b4 3c eb 5f 0a bd
       -0.00035317687 -0.06305499 0.022055184 -0.03378288
0000b0 15 51 a8 bd 43 56 9a bd 73 47 3b 3d ff 48 d7 bd
       -0.0821859 -0.07535984 0.045722436 -0.1051197
0000c0 f3 e5 c9 3c 6d 9a 61 bc 95 0f b6 bd 27 f6 3d bc
       0.024645781 -0.013769728 -0.08889691 -0.011594332
0000d0 69 ea f9 3c 1c bd 00 3d 24 62 b2 3c ca 05 be bd
       0.030507283 0.03143035 0.021775313 -0.09278448
0000e0 8c d4 79 bd 81 37 53 bd af 52 f3 bd 7a 23 22 3b
       -0.060993716 -0.051566605 -0.11881005 0.0024740384
0000f0 d2 72 3e 3c c5 e3 30 bd 37 d2 52 3d 25 d5 55 3d
       0.011624055 -0.043185968 0.051470008 0.052205224
000100 f8 14 a1 bc bd ac ec bc 98 9c e7 bc 10 c0 ea bc
       -0.019663319 -0.028890962 -0.028272912 -0.028656036
000110 0e ad 0e 3d 59 7e a4 3c aa 20 88 3c c6 f6 8b bc
       0.034833007 0.020079779 0.016617138 -0.017085444
000120 55 55 d5 bb 5a bf ab 3c e2 f7 3a 3d 59 86 9b bc
       -0.0065104165 0.020965267 0.045646556 -0.01898496
000130 74 74 31 3d af c6 b7 bd 49 7c 61 bd ea 49 c5 3b
       0.04332395 -0.08973443 -0.05505017 0.006020774
000140 92 92 7f 3c b1 7b 62 bd da 7b 3d bd 12 80 07 bd
       0.01559891 -0.055293743 -0.046260692 -0.03308112
000150 7e 64 97 bb b8 c5 bc bc f7 1e 07 3d 3d b9 2d 3d
       -0.004620134 -0.023043498 0.032988515 0.042412985
000160 ed b1 69 bd be b4 7f bd db 8e 8e 3b 53 0b de bc
       -0.05705445 -0.06242823 0.004350526 -0.02710501
000170 ea 61 16 3d 9c 4a 11 bb 94 34 ce bc f8 89 01 be
       0.036714472 -0.0022169715 -0.025171556 -0.12650287
000180 ec 8c 14 bd 71 8f 60 3d 3d b2 97 bc 93 ed e2 bc
       -0.036267206 0.054824296 -0.018517608 -0.027701175
000190 40 aa 9e bb c1 e4 73 bd d3 24 17 3d bd 3a 4e bd
       -0.0048420727 -0.05954433 0.036900353 -0.050348986
0001a0 7b e2 0d 3b 57 33 af 3c 1c 89 d3 3c d0 73 2f 3c
       0.0021649885 0.021386785 0.025822215 0.010708764
0001b0 68 0b 3c bd 63 0e 24 bb 90 89 35 bd 79 cd 44 bd
       -0.045909315 -0.002503299 -0.044320643 -0.048047516
0001c0 7f fb 72 3d 56 82 08 bd 99 10 e4 bc 03 11 95 bb
       0.059321877 -0.033327423 -0.027839946 -0.004549147
0001d0 c7 17 e0 3c 71 65 51 bd dc 28 5c bd 1f d0 33 bd
       0.027355088 -0.051122133 -0.053749904 -0.04389965
0001e0 61 16 4e bd 4b 3a 21 bc 1c a2 a2 bc 81 21 34 bc
       -0.05031431 -0.009840558 -0.01985269 -0.010994316
0001f0 4b 17 f4 bc d3 66 31 bb 04 90 af bb 22 21 75 bd
       -0.029796263 -0.0027069345 -0.005357744 -0.05984605
000200 ee 4c 04 be 87 46 99 bc a7 e5 44 bd 6b ef ac bb
       -0.12919971 -0.018710388 -0.048070576 -0.0052775643
000210 6b 9c 9f bd 1e 60 3f 3d a6 a7 92 bd c7 c8 60 bd
       -0.07793506 0.046722524 -0.07160883 -0.054878976
000220 fd 2f b4 3c 2b 08 21 bd 2d cf 79 3d 06 8b d9 bd
       0.021995539 -0.03931443 0.060988594 -0.1062222
000230 61 15 a9 bd 39 aa 13 bc d7 40 74 3c 14 3c 8a 3d
       -0.08256031 -0.009012752 0.014908037 0.0674974
000240 cd 00 43 3c c4 84 1f bd 58 f7 8f bd c5 8c 55 bc
       0.011902046 -0.038944975 -0.07029599 -0.01303405
000250 30 6b 8d bd 93 8d 74 bd cd 86 78 bc 69 53 92 3b
       -0.0690521 -0.05970533 -0.015168858 0.0044655097
000260 e1 ba 2b bd fe 10 dd 3a c4 b4 8a bc e0 31 75 3c
       -0.04192627 0.0016866026 -0.016931899 0.014965504
000270 dc 6f e2 bc 07 09 bd 3b a3 09 46 3d 08 e2 94 bd
       -0.02764123 0.0057688984 0.048349034 -0.072696745
000280 5f bb 02 be 37 25 9f 3d ab 99 92 bc 0a 16 3c bd
       -0.12766789 0.0777077 -0.01789554 -0.045919456
000290 bd 83 e2 bc 56 17 b8 bb 5f a7 3f 3d 96 0c e6 3c
       -0.027650708 -0.0056180162 0.046790477 0.028082173
0002a0 22 0b 76 bd ba a1 2a bd 0e 39 52 bc 74 b6 23 bd
       -0.06006921 -0.04165814 -0.012830986 -0.039968923
0002b0 c6 d1 cf 3d ba ef 68 3c fb 4e 36 bc ae dd 5d 3d
       0.10147433 0.0142173115 -0.011127229 0.05416649
0002c0 27 27 18 bd ed dc e9 3c 88 19 38 bb 90 eb 35 3c
       -0.037146714 0.028547728 -0.002809139 0.011103526
0002d0 6b 08 05 3d 9c a0 31 3d 7c ec 00 3d c7 ec 1f bd
       0.03247873 0.04336606 0.03147553 -0.039044168
0002e0 8d 1f 5d 3c e2 c9 f5 bc ed d7 09 3d 7a 03 04 bd
       0.013496292 -0.030003492 0.03365319 -0.032229878
0002f0 5c 27 bc bc 5a d6 72 3c 8d 39 8d 3c a1 72 fd bc
       -0.022967987 0.014821613 0.017239356 -0.030938448
000300 37 5a 8a bd 17 6b 12 3d ac e4 3a 3d 02 42 b7 bd
       -0.06755488 0.03574666 0.045628235 -0.08948137
000310 6c 35 06 bd 52 3a 8f 3c e9 5e 77 bd ef 66 29 bb
       -0.03276579 0.017483864 -0.060393248 -0.0025848707
000320 73 b3 a1 bd 98 26 31 bb 2a f5 13 3d c1 cb 6b bd
       -0.07895555 -0.002703106 0.03612248 -0.05756736
000330 4e 71 07 bd 9a b1 fd bb 3f 52 0f bb aa b5 15 b9
       -0.03306704 -0.007742119 -0.002186909 -0.00014277422
000340 69 d9 e2 bb fe 67 32 bd 12 fb 6f bd a6 e3 17 bc
       -0.00692289 -0.043556206 -0.05858905 -0.009270584
000350 88 1f 30 3c 94 a9 1c bc df 7d 30 bd 59 be 64 bc
       0.010749705 -0.009561915 -0.04308879 -0.013961398
000360 bc e7 f8 bc 6b f2 4a 3d a1 70 e9 bb 77 7b 28 3d
       -0.030383937 0.049547594 -0.007124022 0.04113337
000370 42 11 23 bc 02 28 d9 3b c6 dc af bc 21 e9 69 bc
       -0.009952845 0.0066270838 -0.021467578 -0.014276774
000380 8f 42 92 bd bd b9 f7 bc e8 88 7c bd 35 ba 05 bd
       -0.07141601 -0.030239934 -0.061654 -0.032648284
000390 ed d8 df bb 71 bf 14 bd c0 15 02 3d 27 b0 b2 3d
       -0.0068312795 -0.036315385 0.031759024 0.08725005
0003a0 c8 44 a3 bd be c3 d9 bc 7d 83 a1 3c 13 70 3c bb
       -0.07972103 -0.026582595 0.019716019 -0.0028753325
0003b0 c2 80 da bc 1a d2 ab 3c 1a c2 28 bd 36 99 ae bc
       -0.026672725 0.020974208 -0.041200735 -0.021313291
0003c0 13 49 31 3d 76 09 d4 3c 13 ba 7f bc be 50 84 3c
       0.04328258 0.025883418 -0.015608328 0.016151782
0003d0 20 80 90 3c fc 9c 39 3d a7 75 2b 3b 9c 84 88 bb
       0.01763922 0.045315728 0.0026162656 -0.004166199
0003e0 b1 b4 42 3a 81 93 3b bc 4b dc 17 bd 6c 74 95 bc
       0.0007427438 -0.011448742 -0.037075322 -0.01824399
0003f0 ed de d3 3a 54 f6 1b bd c8 bb 45 bd 16 9b a0 bd
       0.001616446 -0.038076714 -0.048274785 -0.0784208

network_body._body_endoder.seq_layers.0.bias f4 [256]
000000 03 89 fc 3d 07 84 09 be dc d8 11 3e a9 b2 55 bd
       0.123308204 -0.1342927 0.14242882 -0.052172337
000010 ff 78 68 be 26 38 c8 bd 8f e1 e3 bd 20 94 0c be
       -0.22702406 -0.097763345 -0.11127006 -0.1372838
000020 30 45 5e be aa 0f db bc 51 36 fd bd 6b 0c 07 be
       -0.2170608 -0.026740868 -0.12363876 -0.13188331
000030 96 c5 56 bc 88 18 0c be c1 7c 0c bd 3a 6e 01 3d
       -0.013108632 -0.13681233 -0.034298662 0.03159926
000040 5f a8 cf 3d bb d6 0e be c7 e9 18 bd 84 ab 5a be
       0.10139536 -0.139491 -0.037332322 -0.2135449
000050 55 d4 b5 bc d0 9c ec bd 89 29 bd bd 02 8a 1e be
       -0.022195974 -0.11553347 -0.09236438 -0.15482333
000060 37 d4 80 bd 43 90 57 bd f3 bd d2 bd 88 54 57 bd
       -0.06290477 -0.052627813 -0.10290136 -0.05257085
000070 4c 08 ad bd ff 16 a4 be 44 89 63 3a 62 e4 a6 bd
       -0.08448848 -0.32048795 0.0008679817 -0.08149029
000080 3a b3 9b bd 82 cd 04 be bb 2b 15 be 86 33 2b be
       -0.07602544 -0.1296902 -0.14567463 -0.16718873
000090 49 5e 22 be 98 7b 2f be 76 22 25 be d4 c9 1c be
       -0.1585628 -0.17136991 -0.16126427 -0.15311366
0000a0 10 7c 47 bd 16 b5 44 be f4 85 6d bd 98 c6 e3 3c
       -0.0487023 -0.19209704 -0.057989076 0.027804658
0000b0 be 57 19 be 1e 5e 09 be 50 84 c3 3c f4 8a 03 be
       -0.14974877 -0.13414809 0.023866802 -0.12845975
0000c0 cc 84 b8 3d 21 ad 5a bd 5a 5d 1b be b9 43 59 be
       0.09009704 -0.053387765 -0.1517233 -0.2121724
0000d0 62 b3 b4 bd ac 5f 08 3d e6 eb 6c bd 7a e8 7e be
       -0.08823277 0.033294365 -0.057842158 -0.2489337
0000e0 6a 6f 1b be 86 e5 36 be a4 3d 2a bd be 73 ed bd
       -0.1517922 -0.17860994 -0.04156269 -0.11594342
0000f0 e5 3b 86 be bd 14 e9 bd 88 9c 27 be c7 f7 11 be
       -0.2621757 -0.11380909 -0.16368306 -0.14254676
000100 cc 8a e9 bd 96 81 00 be 5a 2b 22 be 7f 3b a9 3c
       -0.114034265 -0.12549433 -0.1583685 0.020658253
000110 7a f8 08 be aa e8 a4 bd a3 83 8b bd 47 77 f1 bd
       -0.13376036 -0.0805219 -0.06812217 -0.117903285
000120 6e 4b a9 bd 54 03 19 bc da 16 1e be 0d 3f eb bc
       -0.0826634 -0.009339172 -0.15438405 -0.028716588
000130 dc aa ea bd a4 e6 66 bd 39 e0 1a be d0 e9 6d be
       -0.1145837 -0.0563723 -0.15124597 -0.23233724
000140 83 fa b8 bd e7 1a 3f 3d 3f a8 70 bd 6c 5a df 3d
       -0.09032156 0.046656515 -0.058754202 0.109059185
000150 14 d2 ab bd df 62 79 be 6c 43 4d be 3b 85 16 be
       -0.083896786 -0.24354123 -0.2004525 -0.14699261
000160 df cd 34 be 22 bc e3 bd 2d 08 2d be 54 7d b5 bd
       -0.17656659 -0.11119868 -0.1689765 -0.08861795
000170 dc 3c 19 3e fd 2b 26 3d 2e 8b 0c 3d ff 9f a9 be
       0.14964622 0.040569294 0.03431242 -0.3312988
000180 07 25 1e be 0e f6 10 be 90 b1 b3 bd bf 46 6b 3d
       -0.15443812 -0.14156362 -0.08774102 0.057440516
000190 fc 7f 68 bc 1b 56 35 be 67 46 f3 bd 15 a7 41 be
       -0.01419067 -0.17708628 -0.118786626 -0.18911393
0001a0 91 3d 14 bb 71 78 0a be 12 56 b7 bd 5f 8c 27 3e
       -0.0022619704 -0.13522507 -0.089519635 0.16362141
0001b0 68 da 2e bc 4e 73 62 bc 3c 8d 50 bd 0c d3 cd bd
       -0.010672189 -0.013821436 -0.05091594 -0.100500196
0001c0 7c 16 ad bd 18 06 a2 3d 02 03 60 3d b8 c2 61 be
       -0.08451554 0.079113185 0.05469037 -0.22046936
0001d0 86 31 3c be 7d 1c 32 bd fa e0 7e be ee 07 5f be
       -0.18378267 -0.0434842 -0.24890509 -0.21780369
0001e0 77 1b 64 bd 48 5d 14 be 5c 98 16 be b1 07 eb bd
       -0.055690255 -0.14488709 -0.14706558 -0.114760764
0001f0 7d be ae bd e6 e5 94 bc c4 f0 bf bd 8e 61 bb bd
       -0.085324265 -0.01817603 -0.09372094 -0.091494665
000200 44 ed 43 3d 37 02 6b bd d0 8c 63 bd 9d 3a f4 bc
       0.047833696 -0.05737516 -0.05555421 -0.029813105
000210 99 c8 6f 3c 99 e1 e5 bd f3 b9 a0 3d 6f 3a f0 bd
       0.014635229 -0.1122467 0.07847967 -0.11729895
000220 b6 4d ae 3d 12 42 5b be 68 bc 0f be 65 1e f9 38
       0.08510916 -0.21411923 -0.14036715 0.00011878907
000230 46 ec fe bd 95 ef e2 3d 15 c9 39 bd f4 b6 21 be
       -0.12447409 0.11080853 -0.045357782 -0.15792447
000240 19 19 cc bd e9 57 3a bc 34 f7 43 be 10 e6 80 be
       -0.099657245 -0.0113734985 -0.1913727 -0.25175524
000250 77 e7 44 bd 71 a1 b6 bd b1 91 65 bb c2 47 bb 3b
       -0.048072305 -0.08917511 -0.0035029466 0.0057153413
000260 de 54 19 3d 23 1a 14 3d 3e 2d e7 bb ff 12 87 3d
       0.03743445 0.03615774 -0.007054954 0.0659542
000270 61 9a 7b 3b 38 a8 f9 bd 01 d4 9e bd 68 79 45 bd
       0.0038391578 -0.12190288 -0.0775528 -0.048211485
000280 dd f6 80 3d cc 5a 1f 3e b4 cd 55 bd b4 a9 0c 3d
       0.062970854 0.1556198 -0.052198127 0.03434153
000290 86 ea 8f bd cc be ae bc 98 be 99 bd 20 e9 eb bb
       -0.07027154 -0.021331213 -0.07507056 -0.0071994215
0002a0 d5 42 7f bd b6 b3 74 ba 77 36 05 be 56 ca c1 bd
       -0.062319595 -0.00093346403 -0.13009058 -0.09462421
0002b0 5f bf d4 bc 0b ae 63 bd 6b f7 f1 3c b6 7f 4f bd
       -0.02597016 -0.055585902 0.029536923 -0.050658904
0002c0 22 ab d1 bd 5e 8f 5a be 6d b6 95 3c 64 fa 62 be
       -0.10237719 -0.21343753 0.018275464 -0.22165829
0002d0 83 ec 75 be e7 af 5b bc d3 dd 41 bd b6 ca d7 bd
       -0.24016003 -0.013408638 -0.04733069 -0.10536711
0002e0 75 e7 5e be df 9f 55 3d 4b e4 e7 bd 27 9f 13 bc
       -0.21767981 0.052154418 -0.1132284 -0.009010113
0002f0 9e e0 2f be 08 99 0e 3e c2 c6 0f be 4e 88 cb ba
       -0.17175528 0.13925564 -0.14040664 -0.0015528293
000300 ca c6 92 bd 2f d0 c3 3c 3c 8f 8f bd 5a 2f 6d bd
       -0.07166822 0.02390298 -0.07009742 -0.057906486
000310 c1 78 18 be 02 f9 96 bc 2f 6e d3 bd 8c 01 05 bd
       -0.14889814 -0.018429283 -0.1032375 -0.03247218
000320 a5 bb d1 3c 10 99 8e 3d 5d 78 f4 bd 0d be 1b be
       0.025602171 0.06962788 -0.1193702 -0.15209217
000330 ee a4 c4 bd ac 1f 11 be 44 3b 85 bd 48 13 41 be
       -0.0960177 -0.14172238 -0.06505445 -0.18855011
000340 fa e1 b0 bd 4a 9d 7a bd 51 0e cd 3c c2 41 60 bb
       -0.086368516 -0.06118516 0.02503124 -0.0034218882
000350 5c 83 07 be 04 0e 06 bd 36 57 06 be 71 c1 29 be
       -0.13233703 -0.03272821 -0.13119206 -0.16577698
000360 dc 62 98 3b cb 43 28 3d 26 9c 00 be 0c e5 09 be
       0.004650457 0.041080277 -0.12559566 -0.1346628
000370 6f 1c 93 be 91 e5 99 bd 1d b1 c2 3d 6f 96 42 bc
       -0.2873263 -0.075144894 0.09506438 -0.0118766865
000380 c1 f1 e9 bd 80 ad d7 bd 26 a6 97 bd c4 0c 2f be
       -0.11423064 -0.105311394 -0.07404737 -0.17094713
000390 24 10 1e be 4a b3 c3 bc 1b ae 10 3e 07 30 1e 3d
       -0.15435845 -0.023889203 0.14128916 0.03862002
0003a0 77 50 19 be 60 af fb bd 7d d1 89 bd 5b 8f 5d bd
       -0.14972101 -0.122893095 -0.0672941 -0.054091793
0003b0 5b da 6a 3c 27 a5 c4 bd eb b0 03 be df ec a1 3d
       0.014334287 -0.09601813 -0.12860458 0.07906508
0003c0 e7 09 a7 bd b3 bc e9 3d c1 97 35 3c 91 73 be bd
       -0.081561856 0.11412945 0.011083544 -0.09299386
0003d0 c2 a7 11 bd 19 f7 1e be 7b 5a 18 be 63 8a 94 bd
       -0.035560377 -0.15523948 -0.14878266 -0.07252958
0003e0 7f b7 8d bd 6d 6f 00 be bb 85 2b be 1c e6 91 bc
       -0.06919765 -0.12542506 -0.16750233 -0.01780992
0003f0 a0 69 46 3d 07 3a 09 be 0f 04 ce 3c 9a e7 eb bd
       0.048440576 -0.13401042 0.02514842 -0.11518784

network_body._body_endoder.seq_layers.0.weight f4 [256, 13]
000000 1d cd 84 3e 07 a8 57 be 5c 26 46 be 86 78 94 bd
       0.2593774 -0.21060191 -0.1935057 -0.072495505
000010 01 b4 35 3e 5b 4b 5c 3e 80 ba 6d 3f 04 76 51 be
       0.17744447 0.21513121 0.928627 -0.20455176
000020 d0 cf 9f bf 3c b8 85 3f 7e e4 4b be ef d6 a8 bd
       -1.2485294 1.0446849 -0.19911382 -0.0824412
000030 d3 3d 17 3f 0d 2b 06 3e 5d b0 3f 3e fb 6b c7 3d
       0.5907871 0.1310236 0.18719621 0.097373925
000040 7b 2c 3a be f9 95 84 bd 31 e5 89 bc 30 e6 a8 3e
       -0.1818103 -0.064739175 -0.01683292 0.3298812
000050 05 9d a5 bd c5 66 a7 be 09 a3 93 3c 96 bf 13 3e
       -0.0808659 -0.32695594 0.018022077 0.14428553
000060 9b 20 b0 bc 3c 25 21 3f 22 f7 21 bc 6c 2b e7 3d
       -0.021499922 0.6294744 -0.009885581 0.11287579
000070 45 64 d1 be aa d7 84 bd af 3b b0 bc 0c 81 e1 3d
       -0.40896812 -0.06486447 -0.021512834 0.11010942
000080 40 35 1a 40 75 e4 c6 3e a9 06 36 3e 23 5d 1d 3f
       2.4095001 0.38846174 0.17775978 0.6147024
000090 87 d9 de bd be 5f 19 3f 39 93 96 3d 9d 19 64 3e
       -0.10881334 0.59911716 0.07352299 0.22275396
0000a0 7d 0d 0e bf e2 d9 2a be 96 bb c2 bc bc e3 a1 3d
       -0.5548933 -0.16684678 -0.023771089 0.07904765
0000b0 76 6e fb bd 9f 9a bb bd 98 e5 75 bd 9c 4d 23 3e
       -0.12276928 -0.09160351 -0.06003341 0.15947574
0000c0 a9 4c a0 bd 93 71 9b bc 32 33 cc be 5b 2e 48 bd
       -0.07827122 -0.018975055 -0.3988281 -0.048872333
0000d0 7d 96 83 be d2 c0 f0 be 18 92 fa 3d 7f b4 1f 3f
       -0.2570075 -0.4702211 0.122348964 0.6238479
0000e0 5c c4 e2 be 02 e0 80 3e 04 d9 7d 3e 94 e1 c5 3e
       -0.44290435 0.25170904 0.24789816 0.38648665
0000f0 6d 6e 89 3d 70 eb 11 bf 18 db 97 bd 3c 4b f0 be
       0.06710515 -0.56999874 -0.07414836 -0.469324
000100 64 08 14 3e 2f 18 ed bc 9e c7 21 bd f5 3b e7 ba
       0.14456326 -0.028942196 -0.03949701 -0.001764177
000110 90 c0 02 be c1 53 17 3e 62 f6 5f 3e b9 e6 a4 bf
       -0.1276877 0.14778043 0.21871331 -1.2882911
000120 80 05 fe bd 83 b2 87 3d d3 14 c3 bd ef b9 cf bc
       -0.12403393 0.06625845 -0.09525456 -0.025357215
000130 bb 89 35 3e 14 dc 8b be 8d 9b 82 bc cb a6 91 be
       0.17728321 -0.27316344 -0.015943313 -0.28447565
000140 8e 47 f5 be 56 de 31 3e 59 e6 12 be 09 7b d3 bd
       -0.47906154 0.1736997 -0.14345683 -0.103262015
000150 88 33 1b bf a2 ce a2 3e b4 01 6f be e4 21 b8 3e
       -0.60625505 0.31798273 -0.23340493 0.35963356
000160 01 98 3e 3d 5f 6b 25 3e 6e ff 83 be aa 03 27 3e
       0.04653168 0.1615424 -0.25780815 0.16309991
000170 c0 91 5d bf 3c f1 8c 3d 05 e5 94 be 47 83 4b 3d
       -0.8655052 0.06881949 -0.29080978 0.049685743
000180 b6 91 46 be 07 b6 8f bd bb e5 2b bf 94 62 28 be
       -0.19391522 -0.07017141 -0.67147416 -0.16443855
000190 14 3a 2c 3e f8 f7 09 be aa d0 2e be fa ba 27 be
       0.1681903 -0.13473499 -0.17071787 -0.1637992
0001a0 e5 7c 1e 3e 19 2c ef bd 8e 67 01 3d f8 60 69 3e
       0.15477331 -0.11678333 0.031592898 0.22790897
0001b0 7d c2 4e 3d 44 76 31 be 29 d2 0d bf c9 28 1a bf
       0.050478447 -0.17330271 -0.55398804 -0.60218483
0001c0 16 4b 11 3e 7a ae 4a be 60 bd 78 bc 8d 88 2a 3d
       0.141888 -0.1979312 -0.015181869 0.04163413
0001d0 7a f6 1d be 87 e5 b4 3e 62 0b 6f be c1 43 1e 3e
       -0.15426055 0.35331365 -0.23344186 0.15455534
0001e0 bb 46 09 3e b6 c4 79 bc f0 d5 0d bb 0a 56 e9 bd
       0.13405888 -0.015244653 -0.002164241 -0.11393364
0001f0 45 76 9c bd c0 ed d3 3e 7d 6e d5 be 58 9d 9f 3d
       -0.076397456 0.41392326 -0.41685858 0.07793683
000200 10 e1 41 3e f8 4c 44 bd 91 a0 dd bb 20 4d 5b bc
       0.18933511 -0.047924966 -0.006763526 -0.013385087
000210 86 7c cd 38 24 df 03 3e 26 a4 f4 3c e2 f3 7e bc
       9.798356e-05 0.1287809 0.029863428 -0.015561076
000220 62 2b 91 3b 3e cd b8 be 2f 2b 96 bd ae 4a a2 be
       0.0044302205 -0.36094087 -0.07332455 -0.316976
000230 3f 6d 02 3f dc 7d 23 bf 1d ef 40 3d bc 64 75 bd
       0.50947946 -0.6386392 0.047103036 -0.05991052
000240 0e dc a6 be 51 1d 96 bc 4d 9c a8 be fa 28 ce 3d
       -0.32589763 -0.018324526 -0.32931748 0.100664094
000250 47 56 bb 3d e3 91 5f bf 0d 34 bc be fd e5 9e 3e
       0.091473155 -0.8733198 -0.36758462 0.31034842
000260 9f 89 f7 3d e8 ef 40 be a4 87 98 3e c7 ac e9 bd
       0.12086796 -0.18841517 0.29790986 -0.11409908
000270 2e 29 24 3e cf cc 34 3e 87 8d ab 3e 89 b9 89 be
       0.16031334 0.17656253 0.33506414 -0.26899365
000280 cf 45 75 3e 5c 34 1d 3e 31 86 dc 3e 82 29 c8 be
       0.23952411 0.15352005 0.4307113 -0.39094168
000290 c7 8c 31 3f ed 7e 36 bd 20 bd a2 be c1 1f ca 3e
       0.69355434 -0.04455464 -0.31784916 0.3947735
0002a0 8a f6 f6 3e e9 74 b3 3e d0 84 7a be 9d e7 c6 bc
       0.4823497 0.35050133 -0.24464726 -0.024280364
0002b0 f7 a9 0a 3e ec 7e 0d 3e cc c9 37 3f 19 84 45 bf
       0.13541399 0.13817948 0.7179229 -0.7715469
0002c0 4c ab 83 3c 53 cf f8 be 40 61 07 bf 4e ab ac 3d
       0.016072892 -0.48595676 -0.52882767 0.08431111
0002d0 23 5a 25 3e c4 67 20 be 32 21 89 be 68 82 ba bd
       0.16147666 -0.15664583 -0.2678314 -0.09106904
0002e0 20 25 c9 be d9 b4 9f 3d 77 f7 28 be c2 33 9c 3d
       -0.39286137 0.07798166 -0.1650065 0.076270595
0002f0 0e 52 06 3f c3 58 e9 3e a2 65 15 3e 9d 17 ec 3e
       0.52468956 0.45575532 0.14589551 0.46111766
000300 f9 ea 43 bd 48 a6 a9 be 7b 32 a0 3c e0 df 3e 3d
       -0.04783151 -0.33134675 0.019555321 0.046600223
000310 94 8d 32 3e 33 d1 aa bb b0 70 ca 3d 1b bf b5 be
       0.1743682 -0.005212927 0.09884775 -0.35497364
000320 10 1f 4e 3e 1e 33 45 bf d3 60 a8 3e 43 82 b4 bf
       0.20129037 -0.77031124 0.3288637 -1.4102253
000330 a5 83 cb 3e 32 ae 5c bc d9 b0 7a 3d 99 91 a0 bd
       0.39748874 -0.013469266 0.06120381 -0.078402705
000340 6b ae 3c 3c 61 6e ac 3e fd f8 70 3d b7 97 3e be
       0.011516194 0.33677962 0.058831204 -0.18612562
000350 1d 64 78 3d 89 e6 6d 3d bb c9 89 3f 66 1d 61 bd
       0.06064235 0.058081184 1.0764688 -0.054959677
000360 42 d8 2c 3f 05 08 ae 3e b5 54 93 be 33 0a 17 3f
       0.67517483 0.33990493 -0.28775564 0.5899994
000370 df c9 d8 3e 63 5e 9d 3d db a3 f6 3e a0 f3 92 3e
       0.42341515 0.076840185 0.48171887 0.28701496
000380 fa a6 9b be 34 4a 1b be 9d f5 16 3d 33 2d 2c be
       -0.3040083 -0.15165025 0.03685533 -0.16814117
000390 b1 e7 56 3d b9 99 86 3f ab cc 86 be 6f fa 00 3e
       0.052467052 1.0515662 -0.26328024 0.12595533
0003a0 4c a5 e1 bd 16 93 6c bd 22 28 e1 be 75 c9 91 3d
       -0.11017856 -0.05775746 -0.4397593 0.07118503
0003b0 08 09 b0 3d 6b 70 9e 3e f7 35 94 be 66 fd dd bd
       0.085954726 0.30945143 -0.28947422 -0.108393475
0003c0 ff a3 d6 bf d3 09 f7 be a6 43 b8 bc 34 b1 dc 3e
       -1.6768798 -0.48249683 -0.022493195 0.43103945
0003d0 9b 2b 7e 3d 5e 27 2c be 28 73 5c bd fd f1 18 3e
       0.062053304 -0.16811892 -0.05382076 0.14936061
0003e0 95 2c e3 be 9d bb 13 3e 20 df a9 be af cf 63 3e
       -0.4436995 0.14427038 -0.33178043 0.22247194
0003f0 8f 8d 8a be 46 fb 50 be 54 1a d9 be c2 54 18 3e
       -0.27061126 -0.20408353 -0.424029 0.14876083

network_body._body_endoder.seq_layers.2.bias f4 [256]
000000 53 67 ae bd 98 a7 b2 bd be 1a 80 3d d9 dd a8 3d
       -0.08515801 -0.08723372 0.06255101 0.08245439
000010 c5 6a 25 bd b5 fa 2e bd 49 39 1b bd 57 c3 70 ba
       -0.040385026 -0.04271956 -0.03789643 -0.00091843813
000020 24 e5 b1 bc 8e 5c 24 be b7 fe 6a bd 56 12 85 3d
       -0.021715708 -0.16050932 -0.05737182 0.06497638
000030 35 9f 30 3c 46 d1 08 bd 1f e7 6e 3c 2f 7e 18 be
       0.010780145 -0.033402704 0.014581471 -0.14891885
000040 ef 55 5f bd dc 29 3d bc 61 59 89 bd be 0b c6 bd
       -0.054525312 -0.011545625 -0.06706501 -0.096702084
000050 dd 79 5d bd c2 51 ac bc c7 b6 c8 bd 5a 56 3d 3d
       -0.054071296 -0.021035079 -0.09800487 0.04622493
000060 6d 6d 67 bd 14 4e 80 bd 89 7c d3 bd 8f 7e ba bd
       -0.05650084 -0.06264892 -0.103264876 -0.091061704
000070 3f 40 a3 ba b6 e6 8c bd 35 8c c4 3b 8d 64 6c bb
       -0.001245506 -0.06879942 0.0059981593 -0.0036070675
000080 1a da 41 3c 28 11 39 be 76 90 aa bd 7c bd c1 bd
       0.011831785 -0.18072951 -0.08328335 -0.094599694
000090 fa 14 89 bd 9b 92 e4 bd 97 80 cd bd 58 09 89 bd
       -0.06693454 -0.11160775 -0.10034292 -0.06691235
0000a0 62 b8 a2 bd 38 91 66 bd 5e af 82 bd 67 03 3a bd
       -0.079453245 -0.056290835 -0.06381105 -0.0454134
0000b0 54 3c d8 bd 17 9d 67 bd e7 cf 04 bd 89 0f 14 be
       -0.10558382 -0.056546297 -0.032424834 -0.14459051
0000c0 7b b1 43 bd ee 60 cb bd 90 e3 9b 3d d5 7a f4 bc
       -0.04777668 -0.09930597 0.076117635 -0.029843727
0000d0 74 38 d5 3c 10 b6 8d bd a8 3b 0d bd 4b 71 11 bb
       0.026027896 -0.06919491 -0.03448072 -0.0022192772
0000e0 cd 43 35 bd 59 9e 81 bd de 2a a6 bd 03 1d a9 bd
       -0.044254113 -0.063290305 -0.08113645 -0.08257487
0000f0 b2 4d 13 be 00 b6 22 bd d6 78 b7 bd a6 9a fd bd
       -0.14385107 -0.03972435 -0.089585945 -0.123830125
000100 31 ae 74 3c 12 c7 14 bd ea 42 20 be ec 5e f1 bd
       0.014934109 -0.03632266 -0.15650526 -0.11785683
000110 2a fc dd bd c4 06 29 3d 22 52 76 3b c1 a9 82 3c
       -0.10839112 0.041266218 0.0037585576 0.015950086
000120 21 cd fc bd f2 92 48 bd 57 40 c9 bd bb c0 d2 bd
       -0.12343813 -0.048968263 -0.09826725 -0.10290667
000130 ff 89 a0 ba b0 cd c1 bd bd 4a ea bd 00 0b 0c bd
       -0.0012248157 -0.0946306 -0.114400364 -0.034190178
000140 cc 0b 64 bc cf da a0 bd ae de a7 bc f3 7a 32 bd
       -0.013918828 -0.078542344 -0.020491924 -0.043574285
000150 54 5e 87 bd 0f a2 7a bb b4 27 5b 3d b7 0f 94 bd
       -0.066097885 -0.0038243567 0.05350466 -0.0722956
000160 71 fd 03 bd b7 b4 b4 bd bb 20 d3 3c 25 d6 f6 bb
       -0.032224122 -0.08823531 0.025772443 -0.0075328522
000170 e9 82 2c be ad d9 98 bb 94 47 8a bd 0d 3a 4d 3c
       -0.16846813 -0.004664621 -0.06751934 0.012526047
000180 3e 8b d2 3d 2f 46 33 3d 0c 7d 91 bd fa 18 07 be
       0.102804646 0.043768104 -0.07103929 -0.13193122
000190 2c 0b ba bc 5d 4b 89 bd 28 ce e3 bd 45 42 9f bc
       -0.022710405 -0.067038275 -0.111233056 -0.01944078
0001a0 6c af aa bc d0 bb 64 bd 42 e4 2f bd 07 fa a7 bd
       -0.0208356 -0.055843174 -0.042942293 -0.08201986
0001b0 0b bc ab bd b1 17 40 be 2b c5 0f bd d2 42 52 3c
       -0.08385476 -0.18759038 -0.035100143 0.012833314
0001c0 9f bb 98 bd 65 1c 2d bc 06 1b 55 bd d1 0d 47 be
       -0.07457661 -0.010565852 -0.052027725 -0.19438864
0001d0 62 73 5b 3b e7 2a f6 3a 13 f1 3a be c2 0b de 3c
       0.0033485522 0.0018781096 -0.18256025 0.027105216
0001e0 02 30 08 bd 5f 14 69 bb 05 54 e8 bb 7b ab 5e bd
       -0.03324891 -0.003556512 -0.007090094 -0.054362755
0001f0 6d 52 b4 bd 22 58 7d 3d d9 b8 e7 bd 84 c8 07 be
       -0.08804784 0.061851628 -0.11314554 -0.13260084
000200 3e 67 a1 bd f6 68 2c bd cb f8 91 bd a7 0b aa bc
       -0.0788102 -0.042092286 -0.071275316 -0.02075751
000210 a8 d5 77 3c 66 bf f7 bc 75 33 5d bd 3f 70 b2 bd
       0.015126623 -0.030242633 -0.05400415 -0.087128155
000220 d8 71 38 bd b9 b9 12 be dd e3 6b bc e4 1e 4e 3d
       -0.045030445 -0.1432866 -0.014397589 0.05032243
000230 79 d4 9c bd 63 4d b8 bd 27 0d 8f 3c 66 6d 93 bb
       -0.076577134 -0.08999135 0.017462326 -0.0044991253
000240 6c 61 69 3d 77 91 96 bd 92 16 b2 bd 14 fd 58 bd
       0.056977674 -0.07351964 -0.08695711 -0.05297573
000250 56 6f 1d be 3c 82 af bd e2 8a 0d be 8a 7e 8b bd
       -0.15374503 -0.08569762 -0.13822511 -0.06811245
000260 d2 c6 f7 3b a8 95 6b bd 38 c6 5c bd 1c 70 0a bd
       0.007561543 -0.05751577 -0.053899974 -0.033798322
000270 03 41 d4 bd 9f 8a e7 bd 6b 4e 36 bd b8 2e a7 bd
       -0.103639625 -0.11305737 -0.04450838 -0.08163208
000280 07 2f 48 bd ba 4f 97 bd df ca 1d bd 48 90 29 be
       -0.048872974 -0.073882535 -0.03852355 -0.16558945
000290 ce 89 7f bd 20 34 1e 3d aa 18 12 bc a9 c3 4e bc
       -0.06238728 0.03862393 -0.008917013 -0.012619891
0002a0 5b 55 1e 3d bb 23 cd bd 1f 08 6a bd 68 4b f1 bc
       0.03865562 -0.10016581 -0.05713665 -0.029454902
0002b0 10 78 92 3c 4c 08 a4 bb 0c e0 06 3c ed d9 c3 bd
       0.017879516 -0.005005872 0.008232128 -0.095630504
0002c0 81 87 30 bd 3b 47 0a be 62 10 aa 3d 57 ec 25 3d
       -0.043097977 -0.13503735 0.08303906 0.040508594
0002d0 75 3b c2 bb 1c 75 2f bd fd d6 86 bd cc d3 27 bd
       -0.005927498 -0.042836294 -0.065839745 -0.04097347
0002e0 16 fd 0c bd e0 5f 69 3d 3a 74 53 bb 66 66 1f be
       -0.03442105 0.0569762 -0.0032265321 -0.15566406
0002f0 6b 95 36 bd bc 39 a2 bd ca 62 a5 bd e3 97 ce bd
       -0.04457609 -0.07921168 -0.08075483 -0.10087564
000300 a3 66 ff bc 03 c2 1c bd e5 2d 94 bc b5 c9 de bd
       -0.03117687 -0.03827096 -0.01808829 -0.10878316
000310 92 58 6b bd ca b1 ee 3d 1c d1 e6 bc 80 47 02 be
       -0.057457514 0.11655004 -0.028175883 -0.12722588
000320 74 60 df bc e5 86 1e bc 30 0f e0 bb 03 2c 9c bb
       -0.027267672 -0.009675716 -0.006837748 -0.004765989
000330 84 07 0c be e9 bb 25 bd b6 fe 77 bd 77 eb 30 bd
       -0.13674742 -0.04046241 -0.060545646 -0.043193307
000340 00 96 28 bd 12 1e f1 bd 91 bd c6 bd a0 b5 07 be
       -0.041158676 -0.117733136 -0.09704126 -0.13252878
000350 3a f9 d8 bd 3b 54 c3 bd f9 8e b6 bc ae f7 3d bd
       -0.10594411 -0.0953755 -0.022284972 -0.046378784
000360 5a 03 ec bc a3 47 86 bd a0 91 b5 3c d7 48 c5 bc
       -0.028810192 -0.06556632 0.022164166 -0.024082584
000370 fe 3f 11 bd 56 fb db bd 38 68 78 bd 71 94 e7 bd
       -0.03546142 -0.10741298 -0.060646266 -0.1130761
000380 25 a9 1e bd c5 0f 87 bd 4c 57 b7 bd a1 44 ec bd
       -0.038735528 -0.06594805 -0.089521974 -0.115365274
000390 5b ec 0b bd ca fd 5e 3d 8c ec cc bc 75 69 6c bc
       -0.034160953 0.05444125 -0.025015138 -0.01442944
0003a0 0d 38 f3 bd bd 9d fd bd ee 4d b0 3c 63 73 a2 bd
       -0.11875925 -0.12383602 0.021521535 -0.079321645
0003b0 1e af 16 bd 16 07 26 bd 0e 20 89 bd 14 1b e3 3c
       -0.0367881 -0.0405341 -0.06695567 0.027722873
0003c0 d4 38 33 bd fd 6b ce bd 24 17 56 bd 09 25 de 3c
       -0.043755367 -0.10079191 -0.052268162 0.02711727
0003d0 fa f8 70 bd 53 f6 26 bd 7e 99 73 3c 8c 84 7f bd
       -0.058831193 -0.040762257 0.014868138 -0.062382266
0003e0 c4 98 9e bd 27 aa 6a bd 45 c0 25 bd da a0 b1 bd
       -0.077439815 -0.057291176 -0.040466566 -0.08673258
0003f0 e8 91 bb bd b3 e8 da bd 1b 3c 9c bc 90 63 d4 bc
       -0.09158689 -0.10688915 -0.01907163 -0.025926381

network_body._body_endoder.seq_layers.2.weight f4 [256, 256]
000000 1d 3b e0 3c c9 37 7b bd d5 90 40 ba 37 cc fd bd
       0.027371937 -0.061332498 -0.00073458004 -0.123924665
000010 7f 0e 8e bd 80 1a 9c bc 7e ad f9 3c 01 b4 e7 3d
       -0.06936359 -0.019055605 0.030478235 0.1131363
000020 29 14 e7 3c 1b 90 8d 3c b5 29 a3 bd 82 38 f4 3d
       0.028207855 0.017280629 -0.07966939 0.119248405
000030 9e 4d bf bd cc 42 06 be e4 80 cd bd 24 ed 1b bd
       -0.09340976 -0.13111418 -0.100343496 -0.03806795
000040 b3 27 69 bd 2f 0f ae 3b 8b 0e bc 3d 55 28 7d bd
       -0.056922626 0.0053118686 0.09182461 -0.06180604
000050 7f e1 e5 3d 70 d2 69 3d 12 a7 39 bc 81 16 eb bd
       0.112246506 0.057085454 -0.011331337 -0.11478902
000060 8d e0 22 3d fc f5 54 bd 3e f4 3b be 0a fb ed bd
       0.03976493 -0.0519924 -0.1835489 -0.116201475
000070 cc 4d 73 bd cb 14 e7 bc 75 ab 17 be 3e 01 37 3d
       -0.059400365 -0.028208157 -0.148115 0.04467892
000080 dc dd b1 bd 39 03 fa bc 2a ba 86 bd 4a 0e f2 bd
       -0.086848944 -0.030519115 -0.06578477 -0.11819132
000090 2b 9a d3 3c 79 2b 43 3b e4 f5 ba bc 26 7d 89 bc
       0.025830349 0.002978055 -0.022822328 -0.016783308
0000a0 c9 f3 78 bd 46 65 07 3e 65 db 6e bd 87 6b 0e bd
       -0.060779367 0.13222227 -0.0583147 -0.034770515
0000b0 51 43 28 be 12 4c 5f 3d 72 64 ae bd 51 42 89 bd
       -0.16431929 0.054515906 -0.08515252 -0.06702102
0000c0 53 d4 35 bd bc d7 3d 3d fa 71 41 bd 9d 5e cf bd
       -0.04439194 0.04634832 -0.047227837 -0.10125468
0000d0 9b 1b 44 3d b9 4e 0f 3d 7e ef 0f bd 73 73 7e bd
       0.04787789 0.034987185 -0.035140507 -0.06212182
0000e0 0b 98 25 3d da 44 98 bd a9 81 ba 3b e4 fa 91 3c
       0.040428203 -0.074350074 0.005691726 0.01781983
0000f0 fd 4f 5e bd e2 52 2e be 84 35 0d 3c 23 5d 51 3d
       -0.0542755 -0.17023805 0.008618716 0.051114213
000100 6b d1 a7 bd 18 1c 23 3d 72 b1 51 bc 8e c5 bb 3d
       -0.0819424 0.039821714 -0.012798654 0.0916854
000110 70 4e 2c 3c 19 26 02 be 65 3a 2c be 54 dd c4 bb
       0.010516748 -0.12709846 -0.16819151 -0.0060078297
000120 b9 6f 8c bd 90 5a 05 3d ac 46 85 3d dd 87 34 bd
       -0.06857247 0.03255707 0.0650762 -0.04407488
000130 44 09 34 bd ca 3a 44 3b b0 93 da bd 6b 85 9e bd
       -0.04395415 0.0029942268 -0.106727004 -0.07740291
000140 f7 fd 22 bc c4 b1 33 bd 90 83 65 bd b7 cd 34 bd
       -0.009948245 -0.043870702 -0.05603367 -0.044141497
000150 fb e8 2d be be 26 4f 3d 18 e8 f8 bd 2c 21 55 bd
       -0.16983406 0.050574057 -0.12153643 -0.05203359
000160 59 79 7f 3c b2 ca f5 bc fb b8 23 3d 4a 2b 16 be
       0.015592896 -0.03000388 0.039971333 -0.14664951
000170 90 83 f2 3c 7c 02 3e be 71 28 d5 3d bc 8a af bd
       0.02960375 -0.18555635 0.10408104 -0.08571383
000180 c1 30 b0 bc d3 7e 46 bd d8 6e ac 3d 34 63 9d 3d
       -0.021507623 -0.048460793 0.08419579 0.07684937
000190 11 51 15 bb 9a c0 8a 3b 7a d8 79 3c 76 eb ca bd
       -0.0022783915 0.0042343857 0.015249366 -0.09908192
0001a0 f9 ef 77 3d 36 35 e1 bc c4 fb 18 bc 33 e3 da bd
       0.06053159 -0.027491193 -0.009337369 -0.10687866
0001b0 60 02 32 3d 6d 6d ba bd 00 a4 16 be fa dd 5a 3c
       0.043459296 -0.091029026 -0.14710999 0.013358587
0001c0 25 09 b9 3d c3 bd d5 3c 53 9c 50 3d ee b1 b7 3c
       0.09034947 0.026091462 0.050930332 0.02242371
0001d0 ba 81 4d 3d 1c 0c 29 be c0 86 f0 bd 9c 57 fc bd
       0.050172545 -0.16508526 -0.117444515 -0.12321398
0001e0 5b 54 24 bd 89 c8 ee bc 4e 0b e8 3d 58 38 d1 3b
       -0.04011951 -0.029148357 0.11330281 0.0063848905
0001f0 5b c2 bf bc 34 d5 ff bd aa a7 d0 bd 5d fc 18 be
       -0.023408106 -0.12491837 -0.101882294 -0.14940019
000200 11 5f 2f 3d bb 16 5d 3c fc e1 c3 3b 0f 6b 1d be
       0.04281527 0.013494189 0.005977867 -0.15372871
000210 f6 d2 0c be 94 30 10 bc e3 cc 01 be fb 4f 42 bd
       -0.1375235 -0.008800644 -0.12675814 -0.047439557
000220 d8 96 19 3d a6 bb 06 3d 77 43 1a be 77 aa fd bd
       0.03749737 0.0328938 -0.15064798 -0.12386029
000230 91 ff f2 bd ca f4 00 bc 58 c9 33 3d 5a 5a e5 bd
       -0.11865152 -0.007870862 0.04389319 -0.11198874
000240 09 72 92 bd 65 7b 31 3d 5f 18 bf bd c3 f2 b0 3d
       -0.07150657 0.04333057 -0.0933082 0.08640053
000250 f1 12 78 bd 7c 30 87 3c 68 ca d7 bd d3 d9 80 3d
       -0.06056494 0.016502611 -0.10536653 0.06291547
000260 5c 66 12 be c3 ac 19 be 35 13 47 be ad 14 11 3c
       -0.1429686 -0.1500731 -0.1944092 0.008855027
000270 a4 50 2a bd 06 52 ae bb f2 94 47 bd de 25 61 3c
       -0.04158081 -0.0053198365 -0.04872603 0.013741938
000280 59 77 07 be e9 df e9 ba 5e 54 81 bd 60 3b b6 3d
       -0.13229121 -0.001784322 -0.0631492 0.08898044
000290 3f 62 04 be f3 74 22 be a5 96 87 bd c7 fc df bd
       -0.12928103 -0.15864925 -0.0662053 -0.10936885
0002a0 e4 9f 1e bd b4 c6 c0 bd b9 09 b7 3c b4 69 2b bd
       -0.038726702 -0.094128996 0.022343503 -0.041848853
0002b0 46 ca 74 bd 45 56 bb bd b7 8b 52 bd 74 2f b7 bb
       -0.059763215 -0.09147314 -0.051402774 -0.0055903737
0002c0 78 f1 84 bd 91 7b 29 bd 38 05 9b bb 50 56 fe bd
       -0.06491369 -0.041377608 -0.0047308467 -0.124188066
0002d0 6f 0c c4 bd 22 87 39 3e 8f 1d 85 bd 29 50 c4 bd
       -0.09572684 0.18117955 -0.064997785 -0.09585602
0002e0 8f 9a 26 be 3a 3d be bc 48 37 cb bc 85 d7 44 bd
       -0.16269897 -0.023222554 -0.024806634 -0.048057098
0002f0 fa 62 ce b9 2b 6e 54 3d 94 bc 90 bd dc 00 a4 3c
       -0.00039365125 0.051862877 -0.070672184 0.020019941
000300 90 09 0c bd fa b0 f2 bd 76 1d 86 3d cf e1 be 3d
       -0.034188807 -0.11850162 0.06548588 0.09320413
000310 d5 94 d1 3d 87 89 a5 bd 81 19 c2 bb 13 b6 09 be
       0.102334656 -0.08082872 -0.0059234505 -0.13448362
000320 e9 4f 64 3c a4 14 92 bd 9b 58 21 be e7 a5 16 be
       0.013935068 -0.07132843 -0.15756457 -0.14711724
000330 9b a2 0c be 38 91 21 3e a8 b2 6b bd cc b4 65 bd
       -0.13733904 0.15778053 -0.057543427 -0.056080624
000340 99 bb 8d 3d 53 cc ff bd 5e f3 08 bd c1 24 86 be
       0.06920547 -0.124901436 -0.033435218 -0.26199916
000350 18 d5 92 bc cb ef d7 3c be 57 d0 bc 3d 34 69 be
       -0.017923877 0.02635946 -0.025432464 -0.22773834
000360 13 2f 40 bc 9e a5 ae bc bc 45 86 3d 94 95 ef bd
       -0.011729973 -0.021319207 0.065562695 -0.11698452
000370 d7 83 b4 3d ae c6 cf bd 91 17 80 bd 06 7b 07 be
       0.08814209 -0.10145317 -0.06254495 -0.13230523
000380 84 a2 74 3d b7 9a 92 bd 23 5f eb bc 10 46 af 3d
       0.0597253 -0.07158416 -0.028731888 0.08558285
000390 a7 62 fe bd e7 ed 60 be 3c f7 a1 bd 78 2b 4e 3c
       -0.1242116 -0.21965753 -0.07908484 0.012583606
0003a0 57 8e d5 bb 5e 97 1f 3c 1b e9 b5 bb 39 77 63 3d
       -0.0065172124 0.009740679 -0.00555147 0.05553362
0003b0 2d 80 2d be 11 ba fd bd 47 47 af bd 47 9e 97 be
       -0.16943426 -0.12389005 -0.08558517 -0.29612944
0003c0 37 4c d1 bd cb e9 ab 3d 61 f8 a5 bd 47 92 0e be
       -0.10219615 0.08394202 -0.08104015 -0.13922988
0003d0 95 5f 2d 3d 4e 82 85 bc 2a 43 2d 3d 45 e7 75 3c
       0.042327482 -0.016297486 0.04230038 0.015008752
0003e0 e1 bd 69 3d 43 81 07 3c b2 26 1d bd de c5 f7 bd
       0.05706585 0.0082705645 -0.03836698 -0.12098287
0003f0 5f ae 18 be a6 0b 0d bc 6e 58 33 be 87 91 7b bd
       -0.14910267 -0.008608734 -0.17514202 -0.061418083

network_body._body_endoder.seq_layers.4.bias f4 [256]
000000 05 51 12 bd 39 3a 59 3d 00 73 34 bd 83 69 aa bd
       -0.035721797 0.05303404 -0.044054985 -0.08320906
000010 94 4c c2 bd 41 4e 8c bd 42 27 df bc 92 f4 ab bd
       -0.09487262 -0.06850863 -0.0272404 -0.083962575
000020 ac 7a 7c bd 8c 19 18 be c8 6e 5c bd 57 30 73 bb
       -0.061640427 -0.14853495 -0.053816587 -0.003710767
000030 ef 8c 07 be 9c 17 a4 3c 75 86 6a bd df 19 98 bd
       -0.13237356 0.02003079 -0.057257134 -0.074268095
000040 95 da e3 bc af bd 6b bd a6 18 3b bd 00 b1 95 bd
       -0.027814189 -0.057553943 -0.045677803 -0.07309151
000050 95 bd 68 bd 37 5f 0a be d1 aa 32 be 2d 2d f0 bd
       -0.056821425 -0.13512884 -0.17447974 -0.117273666
000060 ae 87 bf bc ab f1 4b be 88 fc ae bc b2 a7 00 be
       -0.023380127 -0.19916408 -0.02136065 -0.1256397
000070 2b fa d2 bd e7 2d 9a bd ff 7c b0 bd e9 1e 26 bd
       -0.10301622 -0.075282864 -0.08617591 -0.040556822
000080 01 6b 31 bb 58 20 11 bc 25 a7 17 3b 6e 24 c6 bc
       -0.0027071836 -0.008857809 0.0023140397 -0.024187293
000090 2b 9d 8e bd 3f 78 bd bd 9e 06 28 bd 86 59 23 bd
       -0.06963571 -0.09251451 -0.041021936 -0.039880298
0000a0 ac 9b 3e bd 76 c8 bf bd b2 28 3d bd 48 9d 18 be
       -0.04653518 -0.09364407 -0.04618139 -0.14903748
0000b0 85 d6 b7 bd f8 f4 e7 bd aa 51 75 bd c7 f4 72 bd
       -0.08976463 -0.11326021 -0.059892334 -0.05931547
0000c0 cd 49 a7 bd 2b 91 3b bc 86 52 3b bd 69 33 d4 bb
       -0.08168373 -0.011448185 -0.045732997 -0.006475855
0000d0 4f 02 e4 bc 8c 02 5c 3c 4e bf ca 3d 9f 12 4d be
       -0.027833132 0.013428342 0.0989977 -0.20026635
0000e0 3d fb f6 bc 9f 91 11 3d b0 db c4 bd 0c fe 3d 3d
       -0.030149097 0.035539266 -0.096122146 0.046384856
0000f0 66 41 8c bc ff dc a4 bd 1d ec 30 3d 61 f9 cd bd
       -0.017121028 -0.08049964 0.043193925 -0.10057331
000100 0b b4 8e 3d d0 f2 16 be 4d 87 d2 bd d5 dd af bd
       0.06967934 -0.14741063 -0.10279713 -0.08587233
000110 4e 64 5c be 51 1a 5c 3d 87 91 da bd ce a9 ab bc
       -0.21522638 0.053736035 -0.106722884 -0.020954993
000120 0b 6e f7 bd 8d 53 42 be 5b 58 84 bd 1e 43 49 be
       -0.12081536 -0.18977185 -0.06462165 -0.1965451
000130 21 ab 5e bc fb 9a 79 bd f4 2e 88 bd 16 c3 78 bd
       -0.013590605 -0.060938817 -0.066495806 -0.060732923
000140 e0 9a ae bc 24 65 8b bd 04 89 bc bd c7 37 08 be
       -0.021314085 -0.068064004 -0.09205821 -0.13302527
000150 cd dc b0 bd 53 78 fa bd a6 f1 af 3d f9 8d 9c bd
       -0.086358644 -0.12229981 0.08591013 -0.07644267
000160 ac d9 22 bd 27 ff 0e bd b8 b2 ae bd 1c f3 ec 3c
       -0.03975837 -0.0349113 -0.08530182 0.028924517
000170 68 92 06 bd 5c 69 38 bd 01 f3 2b be 80 21 82 3c
       -0.032854468 -0.045022354 -0.16791917 0.015885115
000180 a6 b6 1b be ab 74 d6 bc 9d b3 cf 3c c4 04 5f bc
       -0.15206394 -0.026178678 0.025354201 -0.013611976
000190 a1 1b e8 bd 44 d0 a3 bd 7c 44 dc bd e9 0d d1 bc
       -0.11333395 -0.07998708 -0.1075525 -0.025519328
0001a0 80 ea 32 be 9a 2e 94 3b 69 ef 20 be 17 be 0f be
       -0.17472267 0.004522157 -0.15716328 -0.14037357
0001b0 85 c7 9f bd c5 6c 50 be 2b 5a 74 bd a8 bb ef 3b
       -0.07801727 -0.20353992 -0.059656303 0.0073160715
0001c0 2f de 09 bd ea 1b 84 bd de f1 03 bd 93 72 27 bd
       -0.033659156 -0.06450637 -0.032213084 -0.04088075
0001d0 ba c6 f3 bc 1a a7 9f bc d3 61 11 be b8 6d 11 3d
       -0.029757846 -0.01948886 -0.14197473 0.035505027
0001e0 6e 7b 44 bd e7 33 bd bd 7d d9 2e be 3d 91 99 bd
       -0.047969274 -0.09238415 -0.17075153 -0.07498405
0001f0 81 83 22 39 0e d2 0a bd 5e 14 f5 3c bf 0e e3 3c
       0.00015498513 -0.03389173 0.029916938 0.027716992
000200 09 13 dc 3b 86 aa ad bc 96 b1 78 bd 06 e2 fa bd
       0.0067161364 -0.021199476 -0.060716234 -0.12250142
000210 3b 71 d1 bd 91 7e f3 bd b7 5e de bd 82 25 47 be
       -0.10226675 -0.11889375 -0.10857909 -0.19447902
000220 e8 73 d3 bd 4b 4d 3c bd 6e 0c 29 be fb 39 1c bd
       -0.10324842 -0.04597215 -0.16508648 -0.038141232
000230 72 f2 af bd b7 55 cd bd 72 02 62 bd 03 37 0e bd
       -0.08591165 -0.100261144 -0.055178113 -0.034720432
000240 b5 62 64 bd 1d 6f fd bd 3c da 87 3d 28 01 18 3b
       -0.055758197 -0.12374709 0.06633422 0.0023194049
000250 64 5b 06 bd a1 6a 32 3c 9d 00 d4 bc d1 74 96 bd
       -0.032802 0.01088968 -0.025879199 -0.073465
000260 0a 83 4a ba 59 8b 70 bd 5b 75 0d bc e2 6c 00 be
       -0.0007725215 -0.058726642 -0.008633937 -0.12541535
000270 d5 ea 31 be 70 3e 34 bd 6e 8c 52 be 53 f1 24 3c
       -0.17374738 -0.044004858 -0.20561382 0.010067302
000280 21 c3 94 bd 97 d7 59 3d 10 0e 64 be 39 09 3c 3d
       -0.072637804 0.053184118 -0.2227099 0.045907233
000290 a3 80 d2 bd 5b 2a 00 be 71 c2 60 bc 0c 34 d5 3a
       -0.10278442 -0.12516157 -0.013718233 0.0016266122
0002a0 8e 55 9d bd e4 a6 93 bd da ba 8c bd cd 72 04 be
       -0.07682334 -0.07209566 -0.068715766 -0.12934418
0002b0 1e cc 99 3d 85 dc 98 3c 8b a3 c2 bd 0e 89 ca bd
       0.075096354 0.01865984 -0.095038496 -0.09889422
0002c0 21 58 93 bd b9 b5 1b be 7b ae 39 bc 7c 3e 7f bd
       -0.07194544 -0.1520604 -0.011333103 -0.06231545
0002d0 54 42 ac bd 00 e0 14 3c ca 58 b7 bd 3a 0f 0d be
       -0.084110886 0.009086609 -0.08952482 -0.1377534
0002e0 a1 4a bc bd 24 11 6a bc 8a 91 3f bd b9 ee 61 3c
       -0.09193922 -0.014286313 -0.046769656 0.013789826
0002f0 fd fc 05 be db eb 23 be 7d e5 01 be 7e a3 80 bd
       -0.13084789 -0.1600794 -0.12685199 -0.06281184
000300 b7 9b a6 3c 41 90 e2 bd 98 dc 8c 3d 89 60 67 bd
       0.020337922 -0.110626705 0.068780124 -0.056488547
000310 0f ed d4 bd 83 90 a9 3c a5 a8 98 bd ac 8c da bd
       -0.10396778 0.020698791 -0.074540414 -0.10671362
000320 42 2c 8a bd 8b c1 69 bd e6 c9 e0 bd 90 e7 91 bc
       -0.06746723 -0.057069343 -0.10976009 -0.017810613
000330 b0 a5 c9 bd dc cd e5 bd 44 7c f4 bc 3c df 2a bc
       -0.098460555 -0.11220905 -0.02984441 -0.0104292
000340 dc 8d ba bc f2 48 87 3d 6c 20 1b be d3 e3 42 3c
       -0.022772722 0.0660571 -0.15149087 0.011895138
000350 cb 84 f7 bd a8 67 33 bd 20 8f 9b bd 90 1a ad bd
       -0.12085875 -0.043800026 -0.07595658 -0.08452332
000360 03 66 b0 bc 10 eb 20 bd 04 04 54 be a6 7e a4 bc
       -0.021533018 -0.039286673 -0.20704657 -0.020079922
000370 fd c0 68 bc 8c 66 1e bc 8f 6f d9 bd 42 26 35 be
       -0.014206168 -0.009668004 -0.10616981 -0.17690375
000380 9d 90 2d bd 3e 64 15 3b 3e b1 36 3b 17 d8 a5 bc
       -0.042374242 0.0022795345 0.002787664 -0.020244641
000390 e8 8f e5 bd 88 fb 81 bd 7d 36 c0 bd 47 f8 8f bd
       -0.112090886 -0.06346804 -0.09385393 -0.07029777
0003a0 ff 4f 1a bd 99 8a 58 bd 2b ad 3e 3c df 45 70 bc
       -0.037673946 -0.052866552 0.011637966 -0.014665096
0003b0 36 4f 12 bc f2 9c c6 bb e7 93 ab bd d8 10 d1 bc
       -0.008930018 -0.00606119 -0.083778195 -0.025520727
0003c0 eb de a6 bd 34 79 4a bd 8b e0 1d bc 36 9f c8 bc
       -0.08147987 -0.049431995 -0.009636055 -0.02448998
0003d0 93 c4 f4 bc 3c 63 b7 bd 02 31 6c 3d 03 00 63 be
       -0.02987889 -0.08954474 0.057663925 -0.22167973
0003e0 13 7f dc bb 12 50 64 bd 98 2b 2b 3d 61 4e 85 be
       -0.0067290156 -0.055740424 0.04178962 -0.2603636
0003f0 ce 85 7e bd 71 26 c1 3b 9e 7c 0f bc 6c 55 90 bd
       -0.062139325 0.005894475 -0.008757738 -0.07047543

network_body._body_endoder.seq_layers.4.weight f4 [256, 256]
000000 25 e0 a2 3b 90 66 99 bd c3 b1 5a be 6c 82 b4 bd
       0.0049705678 -0.07490265 -0.21356873 -0.088139385
000010 e2 b6 02 3d 69 51 33 3e 27 94 e2 bd aa 77 1e bd
       0.031912692 0.17511524 -0.11063414 -0.03868834
000020 b5 7d 1e be 82 76 48 be fb 1f 1b 3d 8c ec 27 be
       -0.15477641 -0.19576457 0.037872296 -0.16398829
000030 d7 39 34 3e 2f a5 0d 3e f7 31 67 bc 09 c8 15 3e
       0.17600189 0.13832544 -0.014111034 0.14627089
000040 f5 1c 0f 3d f4 f1 b7 bd 41 cd 9a bd d8 db 0a 3e
       0.034939725 -0.08981696 -0.0755868 0.13560426
000050 a9 4e 42 3c 0a ee 08 3b ac f0 95 bd 03 94 fc 3b
       0.011859574 0.0020893835 -0.07321295 0.007708074
000060 fa ff a9 3d 13 b8 97 3d f2 f5 b3 3d 0a 69 ed bc
       0.08300777 0.07408156 0.08787145 -0.02898075
000070 3b e9 bb bd 94 6d b9 3e d9 07 cf bd da 04 02 be
       -0.091753446 0.36216414 -0.10108919 -0.12697163
000080 15 50 5c bd d4 2e 3e bd 22 b4 20 bd 37 70 a1 3d
       -0.05378731 -0.046431378 -0.039234288 0.078827314
000090 2b a6 f6 3d 48 ad f1 3c 66 61 0d 3d aa 49 08 3e
       0.12043413 0.029501572 0.034516715 0.1330935
0000a0 56 ce 76 3d 58 bd c8 b9 2b 43 9f 3c ee 6b 49 bd
       0.06025537 -0.00038288045 0.019441208 -0.049175195
0000b0 34 d0 18 3e 0f fe 97 3b 67 ac 68 3e 46 33 cb bc
       0.14923173 0.0046384404 0.22722016 -0.024804723
0000c0 b2 6c 8a 3d a3 72 bb bd c7 97 81 bd db 2b e4 bd
       0.06759013 -0.091527246 -0.06327777 -0.11141177
0000d0 0d a8 9f be 81 d2 84 bd 70 5f 0f be b9 fe 07 bd
       -0.311829 -0.06485463 -0.1400125 -0.033201907
0000e0 d4 55 2d bc 13 6f f8 3d 3e 97 51 3e ab 95 24 3d
       -0.010579545 0.12130561 0.2046785 0.040181797
0000f0 df c5 8c 3d 21 77 be 3d 37 0c b5 3c 42 c2 0e bd
       0.068736784 0.09300066 0.022100551 -0.034853227
000100 16 4e 95 be 68 bf ac 3d d5 a7 f3 bc 4d 92 0d 3d
       -0.29161137 0.08434945 -0.029743114 0.03456335
000110 40 00 af 3d 91 93 cc 3c d7 07 74 bd 63 e4 02 bd
       0.085449696 0.024972709 -0.05957779 -0.031956088
000120 6a 2d 09 3e 91 89 93 bd ec f6 a0 be 81 a4 3a 3d
       0.1339623 -0.07203973 -0.31438386 0.04556704
000130 af c8 70 3c b4 60 22 bd 93 e3 0e 3e f4 4b 30 3c
       0.014696284 -0.039643005 0.13954 0.010760296
000140 00 57 d3 bb 06 6d c6 bc 80 4b 87 3b c5 11 0d bc
       -0.00644958 -0.024221908 0.0041288733 -0.008610194
000150 ee ef d8 3a b1 21 00 bb a7 e1 ae bd 1a dd ac 3c
       0.0016550997 -0.0019551332 -0.085391335 0.021101523
000160 da 3f 12 be bf e9 63 3c b4 53 86 be a6 4d f4 bc
       -0.1428217 0.01391071 -0.26235735 -0.029822182
000170 f8 ca 53 3e bf fd 49 be 49 61 d9 3d e5 bc b5 bc
       0.20682895 -0.19725703 0.10614259 -0.022184798
000180 31 ef 20 be db 45 5f bd 70 7e 84 3d 84 76 00 be
       -0.15716244 -0.05450998 0.064694285 -0.1254521
000190 95 7c 5b 3d 59 47 09 3e f6 95 8a bc 95 85 89 3d
       0.053585608 0.13406123 -0.01691721 0.06714932
0001a0 41 59 5a 3d f6 c6 8b bd 21 78 88 bc ca 48 97 bd
       0.053307775 -0.06825058 -0.016658844 -0.0738693
0001b0 3d 38 ab bc 65 a7 c9 bd d3 74 8c be 53 cb f6 bd
       -0.02090084 -0.09846381 -0.2743288 -0.120505
0001c0 75 6f 1d bb ca ea 2a 3c cd d4 e0 3d 46 9e 09 bd
       -0.0024022732 0.010431955 0.109780885 -0.033598207
0001d0 55 c5 88 3d 4b d7 cb bd 6e f1 76 3e ac 02 92 bd
       0.06678263 -0.09953173 0.24115536 -0.07129416
0001e0 07 f3 a9 bb df 11 51 bd 47 ca 80 bd 02 b3 21 bd
       -0.005186442 -0.051042434 -0.06288581 -0.039477356
0001f0 5f 83 18 be 26 84 36 3c a8 33 20 3c f2 a2 93 bd
       -0.14893864 0.011139905 0.009777941 -0.07208814
000200 48 8d 1e 3d 68 c3 6d ba 9c e8 9e bd c9 c5 b0 bd
       0.038708955 -0.00090699503 -0.077592105 -0.086314745
000210 65 59 9a bd 4b 0b ae 3d 83 a6 7d 3d 37 b2 22 3e
       -0.07536582 0.08498248 0.061926376 0.15888296
000220 46 1b 30 bd c9 9b 6a 3d 8e 8e 28 be f7 68 8c bc
       -0.04299476 0.057277475 -0.1646063 -0.017139895
000230 c9 75 0c bd ed 13 62 bd 0c 39 02 bd 9d 31 20 3e
       -0.034292016 -0.055194784 -0.031792685 0.15643926
000240 4a 5d ca bc 73 b2 e1 bd 29 f4 b6 3d 41 75 8e bd
       -0.024702687 -0.110203646 0.089332886 -0.06955958
000250 fe 30 9f bd bb ed dc 3d db 30 1b 3d c7 36 3d 3d
       -0.077730164 0.10787531 0.03788839 0.046194818
000260 fa ad 0f 3d 1d e6 52 bd 12 cc 85 3c 3a c8 0e 3d
       0.035078026 -0.051488984 0.01633266 0.03485892
000270 23 52 2f 3d 3f c7 e4 bd 65 64 b7 bd 0b 97 77 3e
       0.04280294 -0.11170816 -0.089546956 0.24178712
000280 4c f4 22 3e 78 62 03 3b f7 34 10 bd 4c 97 35 3d
       0.15913504 0.0020047706 -0.03520676 0.04433374
000290 7a 74 29 3e 92 5c 4f 3d ea c4 28 3e 31 83 66 bd
       0.16548339 0.05062539 0.16481367 -0.056277458
0002a0 29 1b 18 bd ea b4 34 3c 60 62 86 bd 7c dc 0d 3d
       -0.037135277 0.011029461 -0.06561732 0.0346341
0002b0 94 bf 9f bd 84 ce bc 3c 9c 42 b4 3d e8 20 07 3e
       -0.078002125 0.023047693 0.08801767 0.13196146
0002c0 93 23 dd bd 9d f4 5f bd e5 0f 85 bd 87 64 a1 bd
       -0.10797801 -0.05467664 -0.06497172 -0.07880502
0002d0 7f ee 14 3e 57 52 4d 3c 31 bb c5 3d b0 fa 4c bc
       0.14544104 0.012531838 0.096548446 -0.01251094
0002e0 a6 6d 27 bd 25 f5 fd bd b9 f9 a6 bc 5d 59 df 3c
       -0.040876053 -0.12400273 -0.020382749 0.027264291
0002f0 b9 dd 0b bd dd 8b d9 bd 12 01 c6 3d 81 3d 1a 3d
       -0.034146998 -0.1062238 0.09668173 0.03765631
000300 60 6c ce 3d 86 ef b6 bd af 74 b2 bb 7c 94 1c 3d
       0.10079265 -0.08932404 -0.0054460387 0.038227543
000310 c4 d6 a1 bd dd d5 dd bd 67 b8 13 be 39 b1 0d 3e
       -0.079022914 -0.10831807 -0.14425813 0.13837136
000320 0b 63 ca 3d 49 2e 43 bd d2 e0 74 3e 1b 21 21 3e
       0.09882172 -0.047651563 0.23913887 0.15735285
000330 89 ef 34 3e 7e ec 99 3c 5a aa 24 bd 9c 79 cb bd
       0.176695 0.018789526 -0.040201522 -0.099353045
000340 74 63 37 bd 43 d0 18 3e 40 bb 79 bc 54 d9 0c be
       -0.04477258 0.14923196 -0.015242398 -0.13754779
000350 ac 8c 59 be 6b 38 56 3d 97 dc 38 3e 3a c1 26 3e
       -0.21245068 0.052299898 0.18052898 0.16284648
000360 d7 5e ef 3c 64 96 05 bc 17 2a 26 bd cc e1 55 3e
       0.029220028 -0.008153532 -0.040567484 0.20886916
000370 48 ba a8 3d e9 ff 8b 3b 5e c0 2a 3c 37 49 b8 3c
       0.08238655 0.00427245 0.0104218405 0.022495849
000380 b1 44 2b 3e 9a c8 a2 3b c6 06 67 bd 4d fe 5d 3e
       0.16725422 0.004967761 -0.056402944 0.2167904
000390 6a c7 ca bc 75 37 0f bd e8 b5 a6 3d 7d f5 fc bc
       -0.024753291 -0.034964997 0.081401646 -0.030878777
0003a0 d2 71 9f bd d7 44 78 bd b5 ea 83 be ce 97 68 3d
       -0.077853814 -0.060612526 -0.25765005 0.056785397
0003b0 be e0 74 3d 5e 11 57 3e cd de 05 3c 24 37 c3 bd
       0.059784643 0.21002719 0.008170796 -0.095320016
0003c0 76 b9 24 bd ef 3d 5d bd b7 28 1e bc 80 fb 25 be
       -0.04021593 -0.054014143 -0.009653262 -0.16209221
0003d0 8b d5 b8 bc 1f 93 92 bd 04 55 7a bd 2e b0 97 bd
       -0.022562763 -0.07156967 -0.061116233 -0.074066505
0003e0 e9 a2 83 3c ea 30 c0 3b 06 6b 14 be 99 b2 25 3e
       0.016068893 0.005865206 -0.14493951 0.16181411
0003f0 c5 92 a4 3d 3f 74 09 be 6c d9 28 3d 0c 1c 41 3c
       0.080358066 -0.1342325 0.041222975 0.011786472
