results/Drone3/Drone/Drone-24499994.onnx (onnx, 810629 bytes, 11 tensors)

action_model._continuous_distribution.log_sigma f4 [1, 4]
-1.7016695 -1.6409464 -1.5657415 -1.5528513
00000000: 4ed0 d9bf 880a d2bf 386a c8bf d5c3 c6bf

action_model._continuous_distribution.mu.bias f4 [4]
0.11412914 0.03668218 0.1251541 0.024611957
00000000: 8abc e93d 0e40 163d 6528 003e 049f c93c

action_model._continuous_distribution.mu.weight f4 [4, 256]
-0.017922854 -0.05109395 -0.028168349 -0.04699489 -0.09419562 -0.011212772 -0.029104056 -0.04008365
-0.0077519543 0.06119919 -0.053377066 -0.058465213 0.058140513 -0.055371 -0.059815403 -0.042698756
-0.044004977 0.026150472 0.050665062 0.01829347 0.0068913666 0.015910301 -0.036593545 -0.048227746
0.0102583915 0.0017263264 -0.06522361 -0.031164348 0.023774927 -0.0013806917 -0.038348243 -0.011401365
0.031364385 0.09061034 -0.07573444 -0.042183984 0.032900374 0.0019053465 0.04174529 -0.04622326
-0.011657578 -0.06985612 0.0071712513 -0.031788185 -0.09730343 -0.0732399 0.04945076 -0.12161604
0.04103727 0.005524993 -0.098925024 -0.0022683179 0.036347218 -0.00071788736 -0.018695796 -0.10569779
-0.04842916 -0.06736281 -0.11513304 0.0058197207 0.03390616 -0.03683073 0.06107898 0.04702564
-0.01842711 -0.036507577 -0.016603403 -0.023749959 0.047287807 0.034229007 0.007935485 -0.021095447
-0.033717774 -0.001310495 0.046006758 -0.023855379 0.048724666 -0.098110825 -0.03317488 0.017137596
0.028327795 -0.035314772 -0.030788604 -0.038185265 -0.0048700273 0.016224086 0.03230931 0.059081316
-0.068449974 -0.052360438 0.015757518 -0.016574664 0.044485055 -0.0033530232 -0.025613308 -0.12420526
-0.04158162 0.04996187 -0.008273489 -0.0115398755 0.007380935 -0.07067449 0.02421437 -0.06877333
0.0026136409 0.04006762 0.01144848 0.02103987 -0.07953694 0.013040768 -0.048700962 -0.052047282
0.07218949 -0.031009182 -0.049207743 0.015753927 0.030518003 -0.050851215 -0.07125967 -0.028480403
-0.039142244 -0.025344074 0.00073878537 -0.040669512 -0.047262613 -0.004956896 -0.021133898 -0.059176523
-0.13356772 -0.018508403 -0.057866473 0.0044408273 -0.09135213 0.04376486 -0.08414961 -0.067160204
0.02152062 -0.029934814 0.06971288 -0.109335765 -0.08549731 -0.0085471375 -0.0047182753 0.067742266
0.0066513554 -0.029838348 -0.07150331 -0.003200856 -0.085510515 -0.038116217 -0.008471844 0.022925314
-0.023086779 0.0156158805 -0.0154243875 0.01776156 -0.03418945 0.012267402 0.05082504 -0.0560037
-0.12690704 0.058892813 -0.0006253472 -0.045481637 -0.020786626 -0.0056545152 0.049395274 0.030650392
-0.06705518 -0.059474032 -0.009407315 -0.040322594 0.09612168 0.01941342 0.006114286 0.10394413
-0.03768986 0.0053288005 -0.01561087 -0.000698993 0.019731551 0.053719483 0.023909463 -0.038798437
0.010553824 -0.036561742 0.02242634 -0.04090991 -0.034181096 0.029236061 0.020408046 -0.03801111
-0.07412769 0.044721823 0.025961667 -0.09378371 -0.05345334 0.04981884 -0.07454163 0.013217301
-0.085259914 -0.0031817013 0.037402544 -0.056878176 -0.0274229 -0.030980833 -0.033468228 -0.011218265
0.00737711 -0.048148416 -0.07791572 0.0012785689 -0.008377287 -0.037157692 -0.052880965 -0.034631945
-0.043531734 0.0615413 0.0019214023 0.030667247 -0.02482569 -0.0034154188 -0.015774136 -0.010679293
-0.076095626 -0.030231746 -0.07793211 -0.038349077 -0.017941156 -0.024112 0.04302396 0.09084522
-0.06326719 -0.0007777993 0.009638016 0.008234393 -0.032918427 0.048203997 -0.034824356 -0.0270733
0.053720754 0.01573119 -0.022728246 0.040162355 0.028863713 0.015202605 0.005466889 -0.017344296
-0.003921212 -0.011739038 -0.049699552 0.008323266 -0.013545706 -0.043782525 -0.05571357 -0.087799914
00000000: f3d2 92bc e447 51bd 4fc1 e6bc b77d 40bd
00000010: a2e9 c0bd c6b5 37bc a16b eebc c12e 24bd
00000020: 1b04 febb 00ac 7a3d e9a1 5abd 3879 6fbd
00000030: bf24 6e3d b4cc 62bd ff00 75bd e4e4 2ebd
00000040: 903e 34bd 8439 d63c 2b86 4f3d 30dc 953c
00000050: f9d0 e13b 5256 823c 1de3 15bd 758a 45bd
00000060: d012 283c e745 e23a f593 85bd 604c ffbc
00000070: a3c3 c23c 53f8 b4ba 0c13 1dbd cacc 3abc
00000080: f177 003d ea91 b93d a81a 9bbd 1dc9 2cbd
00000090: 8bc2 063d d2bc f93a 1cfd 2a3d 9a54 3dbd
000000a0: 6dff 3ebc ba10 8fbd d1fc ea3b 5434 02bd
000000b0: 0547 c7bd cdfe 95bd e18c 4a3d d511 f9bd
000000c0: b216 283d 000b b53b 3499 cabd 0fa8 14bb
000000d0: d2e0 143d 9b30 3cba ed27 99bc 1578 d8bd
000000e0: a85d 46bd 83f5 89bd dfca ebbd 5bb3 be3b
000000f0: 30e1 0a3d d2db 16bd f42d 7a3d f59d 403d
00000100: 73f4 96bc f888 15bd dc03 88bc 468f c2bc
00000110: dcb0 413d b733 0c3d d603 023c 5cd0 acbc
00000120: a61b 0abd eac4 abba 9571 3c3d 5b6c c3bc
00000130: 8493 473d 54ee c8bd 62e2 07bd 2564 8c3c
00000140: b10f e83c 39a6 10bd 6238 fcbc 2768 1cbd
00000150: c094 9fbb 60e8 843c c456 043d 40ff 713d
00000160: 802f 8cbd e677 56bd e915 813c 97c7 87bc
00000170: f635 363d 65be 5bbb 00d3 d1bc 545f febd
00000180: 7d51 2abd d1a4 4c3d 878d 07bc bf11 3dbc
00000190: c5db f13b c9bd 90bd 375d c63c 08d9 8cbd
000001a0: 9e49 2b3b f21d 243d 6892 3b3c ce5b ac3c
000001b0: 43e4 a2bd f2a8 553c a97a 47bd 882f 55bd
000001c0: 15d8 933d f806 febc 0f8e 49bd 610e 813c
000001d0: e400 fa3c 5d49 50bd 97f0 91bd bc4f e9bc
000001e0: 9e53 20bd 609e cfbc 0cab 413a 1395 26bd
000001f0: 7196 41bd 756d a2bb ff20 adbc 1563 72bd
00000200: fac5 08be ef9e 97bc 6505 6dbd 5c84 913b
00000210: d316 bbbd c842 333d a156 acbd 4a8b 89bd
00000220: 034c b03c db39 f5bc a0c5 8e3d 6eeb dfbd
00000230: 3719 afbd 4b09 0cbc c39b 9abb 75bc 8a3d
00000240: 9df3 d93b 8d6f f4bc 5470 92bd 74c5 51bb
00000250: 2320 afbd c01f 1cbd 7dcd 0abc decd bb3c
00000260: 7c20 bdbc c0d9 7f3c 92b6 7cbc b180 913c
00000270: 3d0a 0cbd 37fd 483c eb2d 503d 2364 65bd
00000280: ebf3 01be 9739 713d 57ee 23ba f44a 3abd
00000290: b748 aabc 8349 b9bb b352 4a3d 8816 fb3c
000002a0: 3a54 89bd 0b9b 73bd 2421 1abc 4e29 25bd
000002b0: 72db c43d e508 9f3c 595a c83b a9e0 d43d
000002c0: af60 1abd 389d ae3b bcc4 7fbc a03c 37ba
000002d0: 10a4 a13c f608 5c3d c7dd c33c 1ceb 1ebd
000002e0: f2e9 2c3c c4c1 15bd 72b7 b73c 2691 27bd
000002f0: 7a01 0cbd 7780 ef3c c62e a73c 8ab1 1bbd
00000300: 42d0 97bd 3b2e 373d 90ad d43c ac11 c0bd
00000310: e4f1 5abd d70e 4c3d 48a9 98bd 618d 583c
00000320: c09c aebd 1784 50bb 6933 193d 17f9 68bd
00000330: fda5 e0bc 84cb fdbc fb15 09bd d0cc 37bc
00000340: afbb f13b 4637 45bd 4792 9fbd a795 a73a
00000350: e340 09bc aa32 18bd b699 58bd 3ada 0dbd
00000360: 554e 32bd bb12 7c3d 90d7 fb3a e139 fb3c
00000370: 3f5f cbbc 38d5 5fbb c338 81bc 34f8 2ebc
00000380: 06d8 9bbd 91a8 f7bc df9a 9fbd ec13 1dbd
00000390: 55f9 92bc 8786 c5bc e439 303d 0f0d ba3d
000003a0: 3a92 81bd 3ae5 4bba c5e8 1d3c 8ce9 063c
000003b0: 79d5 06bd 8e71 453d fca3 0ebd d3c8 ddbc
000003c0: 4b0a 5c3d b2de 803c 9630 babc 4881 243d
000003d0: 9873 ec3c 5914 793c 9723 b33b a015 8ebc
000003e0: 837d 80bb 1855 40bc c291 4bbd 4f5e 083c
000003f0: cfee 5dbc 4e55 33bd ea33 64bd 71d0 b3bd

network_body._body_endoder.seq_layers.0.bias f4 [256]
0.13149953 -0.13375229 0.14431873 -0.039354082 -0.23957314 -0.10967731 -0.11211435 -0.13275242
-0.2123893 -0.04114012 -0.10635584 -0.14948884 -0.010767403 -0.16988401 -0.055025753 0.028883878
0.10538953 -0.13762957 -0.037181906 -0.22201137 -0.022356765 -0.11440744 -0.0881626 -0.18583247
-0.058013808 -0.054937575 -0.13418294 -0.07107775 -0.08966381 -0.34341577 -0.0030679577 -0.07249563
-0.071253754 -0.1269977 -0.13158226 -0.14929451 -0.15589921 -0.1792417 -0.17063528 -0.16734815
-0.038419344 -0.19092838 -0.07959616 0.010162111 -0.15325359 -0.13434628 0.01960273 -0.1369935
0.09131773 -0.05553015 -0.17297058 -0.21345307 -0.09699829 0.025861219 -0.052080274 -0.2539814
-0.18255816 -0.18216537 -0.028248692 -0.12629434 -0.26419842 -0.12660359 -0.17011341 -0.16031048
-0.1158108 -0.12962621 -0.16198085 0.015105723 -0.1420979 -0.090983205 -0.046123244 -0.12026761
-0.089360535 -0.008764589 -0.17410845 -0.030030085 -0.12145261 -0.06256585 -0.15949865 -0.22943245
-0.110394694 0.041434377 -0.06268766 0.11470313 -0.082516156 -0.26363212 -0.22045472 -0.15257749
-0.1846509 -0.11843426 -0.16331159 -0.105629764 0.15682739 0.063075855 0.038344845 -0.36401394
-0.1744487 -0.15456793 -0.08999656 0.056661166 -0.017877579 -0.17872879 -0.135978 -0.20917319
-0.0012780076 -0.14269818 -0.1159412 0.15117066 -0.013430358 -0.023635328 -0.05307657 -0.10986323
-0.05882908 0.07861681 0.05552309 -0.22772475 -0.18550706 -0.051265486 -0.28939337 -0.2270301
-0.069407046 -0.13719973 -0.16217883 -0.12594393 -0.09585894 -0.017618574 -0.11190936 -0.10560897
0.056761824 -0.06467541 -0.050214738 -0.037175506 0.01125963 -0.11283844 0.07814043 -0.11126663
0.09073363 -0.21290685 -0.13552353 -0.0025689774 -0.12089439 0.11200474 -0.045835294 -0.16035123
-0.09444843 -0.011869201 -0.20428778 -0.255074 -0.039895754 -0.09758914 0.0026164502 0.0039224313
0.03410315 0.036883127 -0.011592093 0.05446477 -0.0016804708 -0.13715161 -0.09891343 -0.051710438
0.053113315 0.16055746 -0.044782232 0.01912475 -0.068504386 -0.019974584 -0.060365506 -0.015354159
-0.060399674 0.0015539607 -0.14751747 -0.11021834 -0.029142505 -0.0610417 0.016235443 -0.059004456
-0.11490706 -0.22385089 -0.0008121618 -0.23311067 -0.24266206 -0.02011549 -0.041377455 -0.114458375
-0.22546329 0.050369747 -0.13300319 -0.035535697 -0.19878933 0.15417008 -0.145311 -0.0010495628
-0.07979567 0.023426723 -0.07589563 -0.053003486 -0.1619725 -0.019702278 -0.11926116 -0.03502233
0.021760372 0.064224936 -0.13256373 -0.16924383 -0.08243774 -0.14014311 -0.08151878 -0.17521125
-0.08767329 -0.073335394 0.0168447 0.0010255981 -0.14296672 -0.020844597 -0.13666157 -0.17813621
-0.0093606375 0.0441255 -0.13266432 -0.14074649 -0.3001476 -0.07785773 0.094899364 -0.0050392076
-0.11179391 -0.11424629 -0.074249595 -0.18457285 -0.14577202 -0.03372934 0.13842823 0.036909994
-0.16249457 -0.12662469 -0.06889698 -0.04298075 0.018219937 -0.11081493 -0.13733463 0.0880876
-0.092013896 0.118406676 0.007785648 -0.100958735 -0.053609483 -0.16879606 -0.15597199 -0.07212619
-0.07221423 -0.13495333 -0.1650132 -0.020236475 0.03226788 -0.14763446 0.035748783 -0.12477463
00000000: d0a7 063e 5cf6 08be 4ac8 133e bf31 21bd
00000010: a952 75be 7f9e e0bd 359c e5bd 40f0 07be
00000020: 957c 59be 8b82 28bd 17d1 d9bd 9a13 19be
00000030: c369 30bc 13f6 2dbe af62 61bd e29d ec3c
00000040: 77d6 d73d c4ee 0cbe 0e4c 18bd f356 63be
00000050: 8925 b7bc 734e eabd 988e b4bd de4a 3ebe
00000060: e39f 6dbd 3906 61bd 4167 09be 3691 91bd
00000070: a9a1 b7bd 31d4 afbe ca0f 49bb 9778 94bd
00000080: 7ded 91bd af0b 02be 80bd 06be a9e0 18be
00000090: 0ba4 1fbe 238b 37be 04bb 2ebe 505d 2bbe
000000a0: 9a5d 1dbd bb82 43be 5003 a3bd fc7e 263c
000000b0: 82ee 1cbe 1292 09be e895 a03c 0648 0cbe
000000c0: ca04 bb3d 9573 63bd 331f 31be 7193 5abe
000000d0: 0aa7 c6bd e8da d33c 2052 55bd da09 82be
000000e0: 87f0 3abe 8f89 3abe cd69 e7bc 4e53 01be
000000f0: 0445 87be 5fa4 01be 3632 2ebe 6e28 24be
00000100: 362e edbd bcbc 04be 4fde 25be ff7d 773c
00000110: 1d82 11be 6755 babd baeb 3cbd dd4e f6bd
00000120: a802 b7bd 5a99 0fbc 7c49 32be a701 f6bc
00000130: 25bc f8bd 8622 80bd 9d53 23be 57f0 6abe
00000140: 9d16 e2bd 18b7 293d 6362 80bd 7ae9 ea3d
00000150: 3bfe a8bd cafa 86be e2be 61be 463d 1cbe
00000160: 2015 3dbe a98d f2bd 273b 27be 6b54 d8bd
00000170: 5c97 203e ea2d 813d 7c0f 1d3d 0960 babe
00000180: aea2 32be 0e47 1ebe 1e50 b8bd 8a15 683d
00000190: 0074 92bc ae04 37be d13d 0bbe 7f31 56be
000001a0: d282 a7ba 791f 12be 9472 edbd 7bcc 1a3e
000001b0: 010b 5cbc e09e c1bc d166 59bd f9ff e0bd
000001c0: c3f6 70bd da01 a13d 2e6c 633d ad30 69be
000001d0: 90f5 3dbe c2fb 51bd 5e2b 94be 947a 68be
000001e0: 4825 8ebd 167e 0cbe 3512 26be 72f7 00be
000001f0: b151 c4bd d454 90bc bc30 e5bd 8449 d8bd
00000200: 167f 683d 8b74 84bd f8ad 4dbd 5845 18bd
00000210: 507a 383c d717 e7bd 1708 a03d c2df e3bd
00000220: 8ed2 b93d 4104 5abe aec6 0abe 4a5c 28bb
00000230: 7a97 f7bd be62 e53d cabd 3bbd 1d33 24be
00000240: 2e6e c1bd 0a77 42bc d130 51be 0f99 82be
00000250: bb69 23bd d1dc c7bd c078 2b3b bd87 803b
00000260: bfaf 0b3d c312 173d c3ec 3dbc 7316 5f3d
00000270: 3e43 dcba 7971 0cbe 2093 cabd 53ce 53bd
00000280: 598d 593d 2d69 243e 936d 37bd 82ab 9c3c
00000290: 074c 8cbd bda1 a3bc d241 77bd 0390 7bbc
000002a0: a665 77bd 45ae cb3a d20e 17be 27ba e1bd
000002b0: 43bc eebc dd06 7abd 3100 853c a8ae 71bd
000002c0: 6554 ebbd 2b39 65be 41e7 54ba 90b4 6ebe
000002d0: 677c 78be 3dc9 a4bc 687b 29bd 2769 eabd
000002e0: d9df 66be 8250 4e3d fd31 08be e18d 11bd
000002f0: 6e8f 4bbe c3de 1d3e 68cc 14be 7c91 89ba
00000300: ea6b a3bd 66e9 bf3c 2b6f 9bbd 2f1a 59bd
00000310: 1edc 25be ac66 a1bc 323f f4bd 9373 0fbd
00000320: cf42 b23c 5d88 833d c9be 07be 414e 2dbe
00000330: 1ed5 a8bd ad81 0fbe 51f3 a6bd 946a 33be
00000340: 0e8e b3bd de30 96bd e5fd 893c 5d6d 863a
00000350: de65 12be 4ac2 aabc 03f1 0bbe 5769 36be
00000360: 5c5d 19bc f1bc 343d 28d9 07be d91f 10be
00000370: f2ac 99be e073 9fbd 995a c23d f01f a5bb
00000380: 35f4 e4bd f5f9 e9bd 2c10 98bd aa00 3dbe
00000390: 4345 15be c727 0abd 21c0 0d3e ef2e 173d
000003a0: fa64 26be e7a9 01be dc19 8dbd 950c 30bd
000003b0: fa41 953c f0f2 e2bd 73a1 0cbe 4667 b43d
000003c0: c871 bcbd 337f f23d c01e ff3b 74c3 cebd
000003d0: 9e95 5bbd e0d8 2cbe 1fb7 1fbe e5b6 93bd
000003e0: 0ee5 93bd 3531 0abe 38f9 28be f7c6 a5bc
000003f0: 532b 043d 7d2d 17be 516d 123d d789 ffbd

network_body._body_endoder.seq_layers.0.weight f4 [256, 13]
0.24865144 -0.20668222 -0.18593094 -0.06621884 0.1752206 0.22737148 0.96006966 -0.22079875
-1.2938669 1.0474724 -0.22017877 -0.08638082 0.569238 0.13976187 0.1921369 0.10701842
-0.18308507 -0.055737972 -0.022936864 0.3392359 -0.085778944 -0.34517542 0.021403385 0.15155908
-0.021298127 0.62422425 0.0069964514 0.11789686 -0.41512528 -0.053452857 -0.02696623 0.101080135
2.447349 0.3737034 0.1604782 0.61873645 -0.10580487 0.59982145 0.07532253 0.2186845
-0.5698155 -0.18038364 -0.04085485 0.080790766 -0.12985024 -0.10654947 -0.05446615 0.17433828
-0.07096433 -0.040100694 -0.3925175 -0.05258794 -0.2847438 -0.49198586 0.11511124 0.6063458
-0.44984442 0.2419538 0.2538345 0.3989092 0.05767711 -0.5917939 -0.047497105 -0.48718598
0.16874826 -0.029527187 -0.048019033 -0.016347596 -0.12998544 0.13620406 0.20213002 -1.3477621
-0.09387859 0.0748125 -0.10831721 -0.012821348 0.16821551 -0.27478328 -0.01903329 -0.28439638
-0.49530506 0.1610819 -0.13479275 -0.099427655 -0.60086286 0.3262687 -0.19769678 0.35623807
0.037240203 0.16079468 -0.2552738 0.1643839 -0.87627447 0.058369424 -0.26890606 0.060201906
-0.2013609 -0.081657484 -0.7154219 -0.15881889 0.16409545 -0.17171624 -0.17672771 -0.118724495
0.13880752 -0.10476102 0.01004106 0.22277027 0.0545877 -0.18153076 -0.5628658 -0.63383067
0.16653296 -0.19822222 -0.024639813 0.03788457 -0.12753631 0.3345042 -0.23926476 0.16135417
0.13191971 0.0036193274 0.013326376 -0.11295359 -0.073642544 0.4342089 -0.42842984 0.084850244
0.17513931 -0.046165735 -0.019824008 0.005713416 -0.00045151048 0.10737053 0.04849743 -0.006449336
-0.014329705 -0.3820787 -0.07070965 -0.29283938 0.5006666 -0.64252657 0.041304704 -0.055284068
-0.33889762 -0.032411736 -0.30148757 0.09453617 0.09645059 -0.89495844 -0.3593349 0.30269352
0.11158165 -0.19506866 0.28441063 -0.08832938 0.13901599 0.18021186 0.3328503 -0.2625251
0.2385617 0.14514963 0.44392708 -0.38608527 0.7163632 -0.044827506 -0.30916524 0.39305884
0.4832889 0.35659012 -0.30312774 -0.023704128 0.112174384 0.09663279 0.6697772 -0.78775686
0.053013552 -0.48742485 -0.56762403 0.111444645 0.13664708 -0.13817722 -0.24340068 -0.09674728
-0.37466875 0.099218324 -0.17833656 0.06822667 0.5483634 0.44330615 0.15022361 0.44095525
-0.078023516 -0.3526549 0.031736545 0.048081942 0.16118608 -0.013713439 0.08468184 -0.3588392
0.18865804 -0.7888101 0.35142386 -1.4432738 0.39404106 -0.004052817 0.04716968 -0.05987814
-0.00013091782 0.3420416 0.05333532 -0.17852479 0.064690605 0.05437246 1.0964797 -0.056498893
0.6942467 0.3443199 -0.2903386 0.59103054 0.42102066 0.075581975 0.489594 0.29557014
-0.2958016 -0.14450139 0.049688075 -0.14589946 0.032033034 1.0989312 -0.25688016 0.1246515
-0.10082492 -0.052758094 -0.4326773 0.06816276 0.07703207 0.30757147 -0.279913 -0.09288484
-1.6841794 -0.493965 -0.012820142 0.42309472 0.07271932 -0.15949163 -0.06840232 0.16884953
-0.4446361 0.1552484 -0.30516106 0.21534067 -0.26666084 -0.19345398 -0.3987204 0.17113909
00000000: 7c9e 7e3e 81a4 53be ae64 3ebe be9d 87bd
00000010: 076d 333e 12d4 683e 20c7 753f 1119 62be
00000020: 6e9d a5bf 9313 863f 8b76 61be 6de8 b0bd
00000030: 95b9 113f bc1d 0f3e 89bf 443e 792c db3d
00000040: a77a 3bbe 804d 64bd 17e6 bbbc 54b0 ad3e
00000050: dfac afbd d5ba b0be 2756 af3c 4e32 1b3e
00000060: 6979 aebc 29cd 1f3f 7d42 e53b e973 f13d
00000070: 4d8b d4be 62f1 5abd 48e8 dcbc 1a03 cf3d
00000080: 5ea1 1c40 0d56 bf3e 6654 243e 8365 1e3f
00000090: 39b0 d8bd e68d 193f b342 9a3d d4ee 5f3e
000000a0: 6edf 11bf 7db6 38be 6a57 27bd a175 a53d
000000b0: 76f7 04be 9c36 dabd e617 5fbd bc85 323e
000000c0: bf55 91bd a040 24bd 0ef8 c8be 7466 57bd
000000d0: f0c9 91be 92e5 fbbe 71bf eb3d 7a39 1b3f
000000e0: 0252 e6be bdc2 773e 98f6 813e d43d cc3e
000000f0: d53e 6c3d ce7f 17bf 538c 42bd 7170 f9be
00000100: 58cc 2c3e 00e3 f1bc 9baf 44bd 65eb 85bc
00000110: e71a 05be 1479 0b3e 2cfb 4e3e 7883 acbf
00000120: 6b43 c0bd 4c37 993d 6ad5 ddbd a210 52bc
00000130: b040 2c3e 65b0 8cbe b4eb 9bbc 679c 91be
00000140: a098 fdbe a7f2 243e 1c07 0abe baa0 cbbd
00000150: 26d2 19bf b10c a73e 0671 4abe d664 b63e
00000160: 2f89 183d 5ca7 243e 3fb3 82be 4154 283e
00000170: 8653 60bf c714 6f3d 0eae 89be 4696 763d
00000180: 8d31 4ebe 0a3c a7bd e425 37bf 6ba1 22be
00000190: a308 283e 62d6 2fbe 1cf8 34be d425 f3bd
000001a0: 8f23 0e3e f28c d6bd 4283 243c e41d 643e
000001b0: 5a97 5f3d 33e3 39be f917 10bf ba42 22bf
000001c0: 9e87 2a3e c4fa 4abe 6fd9 c9bc da2c 1b3d
000001d0: e198 02be 2244 ab3e d201 75be 073a 253e
000001e0: f615 073e 3d32 6d3b df56 5a3c 3654 e7bd
000001f0: e7d1 96bd a150 de3e 285b dbbe f7c5 ad3d
00000200: b857 333e 4818 3dbd f565 a2bc 9b37 bb3b
00000210: b6b8 ecb9 15e5 db3d 3ea5 463d f454 d3bb
00000220: 24c7 6abc d29f c3be 39d0 90bd 0bef 95be
00000230: b02b 003f 9f7c 24bf 1f2f 293d 8c71 62bd
00000240: fd83 adbe 2bc2 04bd 945c 9abe 2e9c c13d
00000250: e387 c53d ff1b 65bf befa b7be a5fa 9a3e
00000260: ec84 e43d 14c0 47be 459e 913e 09e6 b4bd
00000270: 355a 0e3e 7589 383e 5b6b aa3e b169 86be
00000280: 8549 743e 1ba2 143e 694a e33e f8ac c5be
00000290: 9463 373f 0c9d 37bd e84a 9ebe 023f c93e
000002a0: a571 f73e fb92 b63e 8f33 9bbe 292f c2bc
000002b0: afbb e53d 6ae7 c53d 8576 2b3f 6faa 49bf
000002c0: bd24 593d c08f f9be cf4f 11bf 173d e43d
000002d0: 36ed 0b3e 547e 0dbe 073e 79be 7023 c6bd
000002e0: 95d4 bfbe fa32 cb3d dc9d 36be 6dba 8b3d
000002f0: 8b61 0c3f 06f9 e23e 38d4 193e e3c4 e13e
00000300: cbca 9fbd 2f8f b4be 2efe 013d 92f1 443d
00000310: f70d 253e 55ae 60bc ac6d ad3d c6b9 b7be
00000320: 932f 413e 75ef 49bf d4ed b33e 32bd b8bf
00000330: c0bf c93e 7ecd 84bb ff34 413d c842 75bd
00000340: fc46 09b9 1420 af3e 2376 5a3d 34cf 36be
00000350: 827c 843d a8b5 5e3d 7259 8c3f 626b 67bd
00000360: 27ba 313f b34a b03e 43a7 94be c74d 173f
00000370: 0590 d73e b9ca 9a3d 11ac fa3e f854 973e
00000380: 4f73 97be 2cf8 13be b985 4b3d ab66 15be
00000390: 1235 033d c7a9 8c3f cc85 83be 4949 ff3d
000003a0: 4c7d cebd df18 58bd e187 ddbe eb98 8b3d
000003b0: fdc2 9d3d 027a 9d3e c250 8fbe 683a bebd
000003c0: 3193 d7bf fbe8 fcbe 930b 52bc df9f d83e
000003d0: deed 943d c651 23be 8416 8cbd e4e6 2c3e
000003e0: 58a7 e3be 70f9 1e3e 123e 9cbe 4482 5c3e
000003f0: c587 88be cd18 46be 1525 ccbe 163f 2f3e

network_body._body_endoder.seq_layers.2.bias f4 [256]
-0.09499936 -0.10873326 0.061812956 0.081699125 -0.057290975 -0.03216481 -0.033770245 0.001590945
-0.02107161 -0.15680933 -0.03833092 0.08020787 -0.004014171 -0.022034947 0.023738723 -0.16547847
-0.057719633 -0.019534664 -0.08228482 -0.10211005 -0.046701696 -0.028902022 -0.09347808 0.05033602
-0.058510337 -0.061200414 -0.12808816 -0.10307785 0.003309171 -0.06555263 -0.005920237 0.01384857
0.016597848 -0.18350141 -0.08320496 -0.084533446 -0.07433147 -0.12535857 -0.11904306 -0.06360265
-0.11134347 -0.05412865 -0.06610362 -0.06469388 -0.12460349 -0.06681268 -0.03901632 -0.15427446
-0.0521391 -0.09436524 0.08231257 -0.025795177 0.026140524 -0.103028156 -0.020322185 0.0021134205
-0.059209578 -0.046378523 -0.079699285 -0.072904356 -0.16994427 -0.041856043 -0.07961369 -0.119121045
0.006629784 -0.05581372 -0.14000739 -0.16907145 -0.09358047 0.036326434 0.004862289 0.014321062
-0.14722325 -0.058333486 -0.100349374 -0.11301597 -0.016764743 -0.12837818 -0.101015195 -0.07093798
-0.016929073 -0.10492273 -0.053245652 -0.054342993 -0.07063932 -0.026361438 0.044957314 -0.066667676
-0.03762546 -0.114019595 0.02452046 -0.016055634 -0.19555317 -0.013273273 -0.039612968 0.015906904
0.11235394 0.047228664 -0.08296888 -0.1514224 -0.0013408288 -0.059825156 -0.11441444 -0.0032982777
-0.022685338 -0.036482166 -0.05234868 -0.079964526 -0.06726102 -0.21044694 -0.029846584 0.012901367
-0.08211029 -0.041814726 -0.06383394 -0.19383562 0.008788383 0.0011396582 -0.16994134 0.01886601
-0.027885234 -0.011624715 -0.005650654 -0.04832327 -0.093261026 0.068964906 -0.13878663 -0.13460605
-0.08790778 -0.047875304 -0.10075522 -0.026755571 0.01056393 -0.048861347 -0.06753826 -0.08719993
-0.049889795 -0.15799937 -0.009866112 0.033959065 -0.0704661 -0.070813365 0.025946556 0.0142423725
0.052348323 -0.065385826 -0.101011604 -0.06676143 -0.20207137 -0.08358036 -0.15746605 -0.06385951
0.010153979 -0.0682975 -0.056095656 -0.037817318 -0.110752255 -0.10694157 -0.056095645 -0.0892013
-0.035104863 -0.07531504 -0.031457763 -0.18544263 -0.050527055 0.021920837 -0.0025100643 -0.021714328
0.043149546 -0.1142283 -0.09886921 -0.043623004 0.013675223 0.0023409235 -0.0014483117 -0.11935694
-0.046097536 -0.11975602 0.08886663 0.0354606 -0.0054383455 -0.043585896 -0.08237858 -0.055062428
-0.027005706 0.06348873 -0.018976921 -0.19996297 -0.061684158 -0.079318665 -0.061237685 -0.113283284
-0.035490785 -0.040425144 -0.027642665 -0.09223306 -0.06461477 0.12037699 -0.021561923 -0.12876946
-0.023519311 -0.0062296055 -0.0028321843 -0.01000556 -0.14925511 -0.047543272 -0.065263726 -0.08427964
-0.037067268 -0.1470285 -0.12801315 -0.18005756 -0.10777852 -0.08310224 -0.043422654 -0.05264436
-0.057253305 -0.06825169 0.009683673 -0.036186084 -0.029400991 -0.09263218 -0.07694713 -0.11889687
-0.062408753 -0.073256806 -0.1001361 -0.123735465 -0.037875507 0.057564702 -0.017704483 -0.044710677
-0.120503634 -0.14749195 0.023833005 -0.063098915 -0.05246668 -0.056952067 -0.08317994 0.0118263615
-0.0484298 -0.08646116 -0.07377707 0.03050964 -0.07460472 -0.04799446 0.021360327 -0.07823084
-0.07672201 -0.06728763 -0.049884893 -0.08958367 -0.10694938 -0.122749455 -0.045433667 -0.044929143
00000000: 068f c2bd 8baf debd 952f 7d3d df51 a73d
00000010: f1a9 6abd 3fbf 03bd ab52 0abd 4187 d03a
00000020: 5e9e acbc a092 20be e200 1dbd 0644 a43d
00000030: 4f89 83bb a282 b4bc b677 c23c 3073 29be
00000040: 6c6b 6cbd 2907 a0bc f284 a8bd 131f d1bd
00000050: 474a 3fbd efc3 ecbc 7071 bfbd 242d 4e3d
00000060: 89a8 6fbd 49ad 7abd 8b29 03be 7b1a d3bd
00000070: adde 583b 7540 86bd 8cfe c1bb 1de5 623c
00000080: 36f8 873c cbe7 3bbe 5d67 aabd df1f adbd
00000090: 193b 98bd ff5d 00be d9cc f3bd 1b42 82bd
000000a0: 0c08 e4bd 01b6 5dbd 5661 87bd 3a7e 84bd
000000b0: 1d30 ffbd 16d5 88bd 94cf 1fbd 20fa 1dbe
000000c0: cf8f 55bd 9042 c1bd 7e93 a83d 6850 d3bc
000000d0: a724 d63c 6d00 d3bd b67a a6bc 5081 0a3b
000000e0: be85 72bd 68f7 3dbd 6139 a3bd e14e 95bd
000000f0: df05 2ebe 3e71 2bbd 810c a3bd bcf5 f3bd
00000100: a93e d93b ed9c 64bd 195e 0fbe 1121 2dbe
00000110: 1ea7 bfbd 07cb 143d d653 9f3b e3a2 6a3c
00000120: b1c1 16be 18ef 6ebd f983 cdbd eb74 e7bd
00000130: 3756 89bc 9275 03be 0ee1 cebd ef47 91bd
00000140: d7ae 8abc bae1 d6bd 1d18 5abd c296 5ebd
00000150: 59ab 90bd f1f3 d7bc 2925 383d 1089 88bd
00000160: 281d 1abd 1b83 e9bd 22df c83c 1b87 83bc
00000170: 173f 48be 2478 59bc 3541 22bd 324f 823c
00000180: d319 e63d d872 413d 97eb a9bd 790e 1bbe
00000190: c0be afba 390b 75bd 1e52 eabd eb27 58bb
000001a0: 9ad6 b9bc 536e 15bd 926b 56bd 71c4 a3bd
000001b0: 25c0 89bd 677f 57be d380 f4bc 4160 533c
000001c0: 7129 a8bd eb45 2bbd 5ebb 82bd d87c 46be
000001d0: 26fd 0f3c 9560 953a 1a05 2ebe e48c 9a3c
000001e0: 936f e4bc 9775 3ebc 1f29 b9bb 9fee 45bd
000001f0: a3ff bebd 793d 8d3d 151e 0ebe 2bd6 09be
00000200: ff08 b4bd e518 44bd c158 cebd 802e dbbc
00000210: 5514 2d3c d622 48bd 8051 8abd e095 b2bd
00000220: 3e59 4cbd 96ca 21be 79a5 21bc a918 0b3d
00000230: 8850 90bd 9906 91bd df8d d43c d758 693c
00000240: 326b 563d 01e9 85bd 2cdf cebd 37ba 88bd
00000250: cceb 4ebe 2e2c abbd c83e 21be c6c8 82bd
00000260: e05c 263c 8fdf 8bbd 8fc4 65bd 55e6 1abd
00000270: 14d2 e2bd 2f04 dbbd 8cc4 65bd 2caf b6bd
00000280: 1eca 0fbd c63e 9abd dbd9 00bd ace4 3dbe
00000290: 75f5 4ebd 5493 b33c e47f 24bb 3fe2 b1bc
000002a0: 94bd 303d 87f0 e9bd f17b cabd 09ae 32bd
000002b0: 0b0e 603c 2e6a 193b 47d5 bdba 6971 f4bd
000002c0: c5d0 3cbd a542 f5bd b5ff b53d 223f 113d
000002d0: 2634 b2bb 2087 32bd 1ab6 a8bd 2489 61bd
000002e0: 123b ddbc 6106 823d 7d75 9bbc 18c3 4cbe
000002f0: 87a8 7cbd d371 a2bd 5ed4 7abd 1101 e8bd
00000300: c95e 11bd d694 25bd df72 e2bc b0e4 bcbd
00000310: c054 84bd 3688 f63d a1a2 b0bc 24dc 03be
00000320: 92ab c0bc b821 ccbb 2b9c 39bb 5cee 23bc
00000330: 55d6 18be bcbc 42bd fda8 85bd ce9a acbd
00000340: d9d3 17bd a48e 16be e115 03be 0261 38be
00000350: fcba dcbd 8231 aabd f4db 31bd 9da1 57bd
00000360: 7182 6abd 8bc7 8bbd 45a8 1e3c dc37 14bd
00000370: 59da f0bc f1b5 bdbd 7596 9dbd 3480 f3bd
00000380: 52a0 7fbd aa07 96bd 2814 cdbd 0569 fdbd
00000390: 5923 1bbd f7c8 6b3d fe08 91bc 8b22 37bd
000003a0: 9cca f6bd 2108 17be 6f3d c33c 013a 81bd
000003b0: 4de7 56bd 9246 69bd 3f5a aabd 5bc3 413c
000003c0: 535e 46bd 8c12 b1bd 6f18 97bd 5aef f93c
000003d0: 5cca 98bd d795 44bd dafb ae3c 7e37 a0bd
000003e0: 6e20 9dbd 19ce 89bd 1a54 4cbd a577 b7bd
000003f0: 4708 dbbd 1164 fbbd a718 3abd 9f07 38bd

network_body._body_endoder.seq_layers.2.weight f4 [256, 256]
0.06679098 -0.0716935 -0.013466258 -0.14296925 -0.07324309 -0.03385006 0.027610645 0.08294571
0.048388503 0.016616682 -0.0729864 0.09849566 -0.108763754 -0.13336694 -0.088088416 -0.021799421
-0.07620415 -0.0031117494 0.14381887 -0.074042745 0.08584719 0.05224565 -0.022321668 -0.10984717
0.021204382 -0.054252397 -0.18302265 -0.12868193 -0.056120563 -0.02572433 -0.15199788 0.020492418
-0.09012541 -0.031223137 -0.0888443 -0.14318955 0.035847265 -0.007861934 -0.016176192 -0.011928133
-0.08256823 0.14599028 -0.021763911 -0.04341768 -0.17586994 0.055030618 -0.09585194 -0.05505636
-0.044657417 0.033340633 -0.059599947 -0.086387485 0.03416687 0.03843837 -0.046023183 -0.040204674
0.055509564 -0.07079983 -0.001522342 0.043479245 -0.05121578 -0.17024411 0.03536024 0.028216174
-0.059688292 0.034298893 -0.014818776 0.08092895 0.014882564 -0.14259095 -0.14627318 -0.006588399
-0.07051789 0.049629975 0.06496317 -0.035382032 -0.0247549 -0.005539549 -0.11167767 -0.09438986
-0.015789656 -0.06636514 -0.068585455 -0.05923808 -0.17359488 0.050606806 -0.1047631 -0.041506007
-0.003246327 -0.035437804 0.06181902 -0.11521323 0.023381697 -0.19348343 0.08939519 -0.10941812
-0.034829125 -0.066579185 0.0852238 0.069277845 -0.011185498 -0.012000013 0.023491528 -0.086057626
0.07301755 -0.0044577913 -0.004856218 -0.073459394 0.07529473 -0.09198682 -0.17237107 0.008190256
0.11109166 0.01348698 0.05960711 -0.00053188915 0.047746554 -0.18500087 -0.13152751 -0.15622649
-0.022895318 -0.03135533 0.10020851 0.008807237 -0.010713023 -0.111610174 -0.10582603 -0.15305638
0.041149016 0.04339055 0.016662499 -0.1626111 -0.13155374 0.0054823663 -0.12379212 -0.06061222
0.029005416 0.02717546 -0.16728845 -0.14326304 -0.0964831 -0.016964596 0.026390536 -0.09306979
-0.112659134 0.029310428 -0.08967423 0.113044396 -0.107496805 0.0042146584 -0.10774939 0.055227447
-0.13311169 -0.13701564 -0.20581406 0.00933452 -0.045491938 0.015381664 -0.012177781 0.0075368574
-0.1145908 -0.010868169 -0.07264039 0.09631783 -0.12714183 -0.16881453 -0.06743432 -0.06630431
-0.039114844 -0.095258646 0.014008919 -0.05709575 -0.036504544 -0.08920402 -0.025524462 -0.0004752584
-0.052334327 -0.059829596 -0.014122931 -0.11445902 -0.1022758 0.16373159 -0.050629586 -0.08339056
-0.17873274 -0.049205784 -0.026447166 -0.026324067 0.00079456024 0.072251074 -0.07708771 0.03016232
-0.0086838845 -0.14230292 0.052111015 0.08114453 0.09502598 -0.06946663 0.0032181982 -0.15914533
0.022706492 -0.07335814 -0.15896702 -0.16761556 -0.14743587 0.16751763 -0.060215943 -0.053135663
0.06609246 -0.13891932 -0.03617648 -0.2600601 -0.029828327 -0.00830846 0.014431561 -0.2631221
-0.010190817 -0.030326575 0.063969195 -0.12337441 0.06973312 -0.12300735 -0.057593852 -0.1282912
0.051539313 -0.04706814 -0.041346297 0.092232645 -0.12185139 -0.17588717 -0.094116084 -0.0016342725
-0.0042338823 -0.0017296374 -0.04569962 0.03970226 -0.17523988 -0.09791297 -0.11958373 -0.30031407
-0.11660315 0.08266189 -0.07098354 -0.15051642 0.025408486 -0.016470771 0.05093883 0.01538201
0.06907044 0.02172801 -0.0680929 -0.12294242 -0.14932586 -0.0068099983 -0.17299695 -0.038996544
00000000: b6c9 883d 0bd4 92bd 94a1 5cbc 8866 12be
00000010: 7900 96bd 5ca6 0abd b82f e23c 71df a93d
00000020: 0633 463d b51f 883c e579 95bd 18b8 c93d
00000030: 88bf debd 5891 08be b367 b4bd b394 b2bc
00000040: ec10 9cbd 7eee 4bbb 4145 133e b9a3 97bd
00000050: a7d0 af3d 89ff 553d eedb b6bc 8ef7 e0bd
00000060: d0b4 ad3c c337 5ebd 4a6a 3bbe 32c5 03be
00000070: adde 65bd d5bb d2bc 55a5 1bbe b7df a73c
00000080: ac93 b8bd aac7 ffbc 00f4 b5bd 48a0 12be
00000090: 95d4 123d 57cf 00bc ef83 84bc 376e 43bc
000000a0: 8819 a9bd 7a7e 153e 3b4a b2bc bdd6 31bd
000000b0: 4017 34be c967 613d 064e c4bd c782 61bd
000000c0: b2ea 36bd 3090 083d 131f 74bd eceb b0bd
000000d0: 8ff2 0b3d 8d71 1d3d ce82 3cbd a8ad 24bd
000000e0: ff5d 633d 80ff 90bd 5289 c7ba 4b17 323d
000000f0: a3c7 51bd 7954 2ebe e6d5 103d 9b25 e73c
00000100: b67b 74bd ff7c 0c3d 74ca 72bc 14be a53d
00000110: ffd5 733c 5d03 12be a3c8 15be 7fe3 d7bb
00000120: af6b 90bd cd48 4b3d 690b 853d c0ec 10bd
00000130: caca cabc 1b85 b5bb 43b7 e4bd 794f c1bd
00000140: 4f59 81bc 72ea 87bd 8876 8cbd a1a3 72bd
00000150: dbc2 31be 1549 4f3d 098e d6bd 3402 2abd
00000160: 54c0 54bb 3b27 11bd f135 7d3d eaf4 ebbd
00000170: f98a bf3c 8520 46be d314 b73d 9b16 e0bd
00000180: fca8 0ebd ab5a 88bd d189 ae3d 8be1 8d3d
00000190: 6143 37bc b49b 44bc 4e71 c03c fb3e b0bd
000001a0: 3a8a 953d aa12 92bb e920 9fbb e171 96bd
000001b0: 2034 9a3d 9663 bcbd 0b82 30be 6c30 063c
000001c0: 0684 e33d 7ff8 5c3c 9626 743d 7a6e 0bba
000001d0: e491 433d de70 3dbe 26af 06be d6f9 1fbe
000001e0: f68e bbbc 726e 00bd 1f3a cd3d 3b4c 103c
000001f0: ad85 2fbc e093 e4bd 51bb d8bd d0ba 1cbe
00000200: df8b 283d 4aba 313d cb7f 883c 8683 26be
00000210: 06b6 06be 6ca5 b33b b986 fdbd 8544 78bd
00000220: c49c ed3c 129f de3c aa4d 2bbe 8cb3 12be
00000230: ee98 c5bd 56f9 8abc f730 d83c 609b bebd
00000240: d5b9 e6bd 6c1c f03c 1fa7 b7bd d283 e73d
00000250: 4927 dcbd 1e1b 8a3b b6ab dcbd 2d36 623d
00000260: 6e4e 08be d44d 0cbe ecc0 52be d1ef 183c
00000270: c155 3abd 6003 7c3c 5185 47bc bef7 f63b
00000280: 95ae eabd 6810 32bc 7cc4 94bd 4842 c53d
00000290: 7831 02be b7dd 2cbe 011b 8abd 8eca 87bd
000002a0: e336 20bd f716 c3bd aa85 653c 3cdd 69bd
000002b0: ca85 15bd 99b0 b6bd ad18 d1bc 1a2c f9b9
000002c0: 855c 56bd e10f 75bd de63 67bc 7e69 eabd
000002d0: fa75 d1bd 41a9 273e f860 4fbd abc8 aabd
000002e0: b705 37be 018c 49bd baa7 d8bc 92a5 d7bc
000002f0: 094a 503a 5ff8 933d 29e0 9dbd f816 f73c
00000300: da46 0ebc dbb7 11be 5c72 553d 1a2f a63d
00000310: fb9c c23d 8544 8ebd 68e8 523b fef6 22be
00000320: f702 ba3c cb3c 96bd 40c8 22be 6aa3 2bbe
00000330: 6ef9 16be be89 2b3e fea4 76bd c8a4 59bd
00000340: 7c5b 873d de40 0ebe ca2d 14bd 9926 85be
00000350: 895a f4bc 3520 08bc 5b72 6c3c f1b7 86be
00000360: 62f7 26bc 706f f8bc 4802 833d b9ab fcbd
00000370: 3dd0 8e3d 47eb fbbd 88e7 6bbd c55e 03be
00000380: e31a 533d 86ca 40bd bc5a 29bd 78e4 bc3d
00000390: 398d f9bd c41b 34be efbf c0bd 1635 d6ba
000003a0: 61bc 8abb 00b5 e2ba 862f 3bbd d69e 223d
000003b0: 1572 33be 9886 c8bd 51e8 f4bd c4c2 99be
000003c0: a2cd eebd a34a a93d d15f 91bd fa20 1abe
000003d0: 7525 d03c b6ed 86bc 3ca5 503d d304 7c3c
000003e0: ce74 8d3d f1fe b13c 4a74 8bbd 3cc9 fbbd
000003f0: e1e8 18be 6826 dfbb 1d26 31be d7ba 1fbd

network_body._body_endoder.seq_layers.4.bias f4 [256]
-0.02375424 0.046797525 -0.045065407 -0.092758045 -0.054571774 -0.07723708 -0.053650867 -0.07018894
-0.078844495 -0.1860858 -0.06736211 0.02526134 -0.16014645 0.018982332 -0.05374885 -0.082119964
-0.036933623 -0.050496206 -0.078148566 -0.03322513 -0.0571835 -0.13730386 -0.18839243 -0.09171413
-0.038149886 -0.2116597 -0.011428681 -0.16525814 -0.13228111 -0.08922027 -0.10143995 -0.037203103
-0.009754208 -0.002258531 -0.007929374 -0.032646067 -0.08987547 -0.10044738 -0.0770082 -0.05219604
-0.055592027 -0.11536004 -0.06142271 -0.17778425 -0.05547297 -0.1562602 -0.092546776 -0.09433824
-0.08583676 -0.009183901 -0.058599137 -0.015990593 -0.02807739 0.021063901 0.09694941 -0.19562389
-0.028527295 0.041933578 -0.14282556 0.04363962 -0.01553933 -0.107586436 0.0318242 -0.09828727
0.06494879 -0.13809681 -0.13415067 -0.09022559 -0.1823752 0.05162006 -0.15602255 -0.0147587415
-0.13237196 -0.2507756 -0.08763496 -0.1864819 -0.021005793 -0.078265615 -0.07902714 -0.0963748
-0.040316895 -0.07329282 -0.092660636 -0.13956065 -0.08950123 -0.14384572 0.0941945 -0.07649532
-0.062441308 -0.07055106 -0.098448955 0.02920018 7.4512405e-05 -0.043788746 -0.19656545 0.016823286
-0.15125011 -0.021467796 0.037590567 -0.011680881 -0.14560618 -0.061879225 -0.12178362 -0.029987827
-0.18886644 -0.0038296878 -0.1829688 -0.14045589 -0.078615665 -0.2422992 -0.07073571 -0.0060538254
-0.025177432 -0.09628124 -0.04372187 -0.033310387 -0.032256912 -0.03886893 -0.14063531 0.046303526
-0.063862056 -0.043382637 -0.15048382 -0.074391395 -0.013273656 -0.01764324 0.022358987 -0.013526991
-0.006702681 -0.043421216 -0.03576181 -0.112494774 -0.10592986 -0.13433646 -0.10412165 -0.2053809
-0.09217551 -0.03517993 -0.1904462 -0.04027569 -0.08427763 -0.11108886 -0.076648064 -0.098000914
-0.053727627 -0.15160954 0.07787513 0.009623211 -0.042318612 0.022894295 -0.04575134 -0.07866995
-0.015775329 -0.08954866 -0.015301793 -0.12535919 -0.23675774 -0.043922435 -0.24799424 -0.0003248594
-0.061543934 0.05525546 -0.24578103 0.036938254 -0.13523379 -0.12275154 -0.025859864 0.001259869
-0.07271104 -0.07844163 -0.07066981 -0.15863003 0.06696584 0.030658532 -0.113721654 -0.115040995
-0.06904311 -0.19134659 0.01230734 -0.06794339 -0.106151216 0.0015662217 -0.06808581 -0.15640217
-0.1228317 -0.035310008 -0.045855034 0.007830532 -0.17853644 -0.18216954 -0.13141164 -0.058549438
0.021651682 -0.117287636 0.063742206 -0.07230593 -0.15143518 0.021061944 -0.109238334 -0.0918138
-0.06363323 -0.053822648 -0.15467708 -0.019061409 -0.11172794 -0.122995295 -0.049431663 -0.02560871
-0.018550102 0.066114455 -0.14256337 0.016388383 -0.101071045 -0.055663615 -0.089266315 -0.0820277
-0.02346303 -0.07630219 -0.23245503 0.00032128816 -0.018187772 -0.0032440014 -0.07647887 -0.19606122
-0.060627878 0.015281777 -0.01120418 -0.01925025 -0.13337699 -0.066815734 -0.09300984 -0.06743346
-0.026058568 -0.06720958 -0.0035314648 -0.0035917235 1.616858e-05 -0.0035085601 -0.10418385 -0.034271546
-0.098325 -0.053708468 0.011342378 -0.020575998 -0.039260518 -0.121822946 0.04493739 -0.16846392
-0.017955294 -0.051947124 0.06561086 -0.270971 -0.10415461 0.015513646 -0.008462654 -0.06786189
00000000: 4098 c2bc c3ae 3f3d 8196 38bd eef7 bdbd
00000010: a786 5fbd 792e 9ebd 03c1 5bbd 38bf 8fbd
00000020: 3979 a1bd 478d 3ebe 25f5 89bd dff0 ce3c
00000030: 6efd 23be d680 9b3c c127 5cbd 832e a8bd
00000040: b647 17bd 1cd5 4ebd 5b0c a0bd 1317 08bd
00000050: 3f39 6abd 6299 0cbe f2e9 40be 9ed4 bbbd
00000060: 0e43 1cbd 52bd 58be 5d3f 3bbc 6e39 29be
00000070: b374 07be 1eb9 b6bd c0bf cfbd 4862 18bd
00000080: 1dd0 1fbc dd03 14bb 35ea 01bc e2b7 05bd
00000090: a110 b8bd 5bb7 cdbd 7ab6 9dbd 84cb 55bd
000000a0: 77b4 63bd e241 ecbd 6196 7bbd 130d 36be
000000b0: a037 63bd ad02 20be 2a89 bdbd 6834 c1bd
000000c0: 2fcb afbd 1378 16bc a605 70bd b4fe 82bc
000000d0: 8e02 e6bc 348e ac3c 6a8d c63d a151 48be
000000e0: 13b2 e9bc 8bc2 2b3d dd40 12be 75bf 323d
000000f0: ad98 7ebc 4756 dcbd 185a 023d d64a c9bd
00000100: df03 853d 4069 0dbe cb5e 09be 32c8 b8bd
00000110: 90c0 3abe 8e6f 533d 60c4 1fbe a6ce 71bc
00000120: 848c 07be a965 80be f579 b3bd 1cf5 3ebe
00000130: 5714 acbc b949 a0bd fbd8 a1bd 2760 c5bd
00000140: 5423 25bd 8c1a 96bd dcc4 bdbd fde8 0ebe
00000150: 6c4c b7bd 4b4c 13be 0ce9 c03d 94a9 9cbd
00000160: 75c2 7fbd 137d 90bd 9b9f c9bd 3735 ef3c
00000170: 8b43 9c38 d45b 33bd 7448 49be fdd0 893c
00000180: 4fe1 1abe 3bdd afbc 91f8 193d 2a61 3fbc
00000190: c919 15be 1275 7dbd b169 f9bd 08a9 f5bc
000001a0: 3466 41be 80fb 7abb 2c5c 3bbe abd3 0fbe
000001b0: 4001 a1bd 481d 78be e2dd 90bd 2b5f c6bb
000001c0: e740 cebc 192f c5bd b415 33bd 7970 08bd
000001d0: d31f 04bd 0735 1fbd b402 10be c4a8 3d3d
000001e0: 1cca 82bd feb1 31bd 6e18 1abe 845a 98bd
000001f0: c079 59bc 8e88 90bc 322a b73c 50a0 5dbc
00000200: 2aa2 dbbb 72da 31bd fa7a 12bd a963 e6bd
00000210: c1f1 d8bd 7f8f 09be bb3d d5bd 5f4f 52be
00000220: 84c6 bcbd d518 10bd 5404 43be 1ff8 24bd
00000230: c099 acbd 8e82 e3bd a9f9 9cbd b4b4 c8bd
00000240: 8011 5cbd 883f 1bbe ff7c 9f3d acaa 1d3c
00000250: 4856 2dbd d18c bb3c c265 3bbd b61d a1bd
00000260: 433b 81bc 4a65 b7bd 5fb4 7abc 295e 00be
00000270: 9f70 72be 03e8 33bd 34f2 7dbe e451 aab9
00000280: 7e15 7cbd 8d53 623d 06ae 7bbe 914c 173d
00000290: ba7a 0abe 2965 fbbd 11d8 d3bc 3022 a53a
000002a0: 87e9 94bd 01a6 a0bd 55bb 90bd e96f 22be
000002b0: 6325 893d 9a27 fb3c e6e6 e8bd 9d9a ebbd
000002c0: 7966 8dbd 5cf0 43be baa4 493c e725 8bbd
000002d0: cf65 d9bd ae49 cd3a 9370 8bbd e427 20be
000002e0: 308f fbbd 3aa1 10bd 7dd2 3bbd a24b 003c
000002f0: 42d2 36be a78a 3abe c690 06be 89d1 6fbd
00000300: de5e b13c 8034 f0bd 468b 823d 2215 94bd
00000310: d311 1bbe 198a ac3c 59b8 dfbd e008 bcbd
00000320: 2452 82bd 2375 5cbd ab63 1ebe ac26 9cbc
00000330: 9ed1 e4bd f5e4 fbbd db78 4abd 5bc9 d1bc
00000340: 62f6 97bc 0467 873d 22fc 11be ee40 863c
00000350: 56fe cebd 88ff 63bd 42d1 b6bd 24fe a7bd
00000360: 8a35 c0bc 5344 9cbd b108 6ebe 9172 a839
00000370: 86fe 94bc 5099 54bb f4a0 9cbd 46c4 48be
00000380: f054 78bd 6b60 7a3c bd91 37bc b3b2 9dbc
00000390: fa93 08be b0d6 88bd f17b bebd 8e1a 8abd
000003a0: c778 d5bc 2da5 89bd 2670 67bb 1f63 6bbb
000003b0: c3a1 8737 dfef 65bb 585e d5bd 5260 0cbd
000003c0: 9e5e c9bd 69fd 5bbd 62d5 393c ff8e a8bc
000003d0: a3cf 20bd 4f7e f9bd 4510 383d ce81 2cbe
000003e0: fb16 93bc 82c6 54bd fd5e 863d b6bc 8abe
000003f0: 034f d5bd f32c 7e3c f2a6 0abc 2dfb 8abd

network_body._body_endoder.seq_layers.4.weight f4 [256, 256]
0.050637078 -0.06242294 -0.18211982 -0.06710329 0.046585485 0.17967738 -0.1426232 -0.053445917
-0.12767404 -0.17206362 0.0319558 -0.1336873 0.19059509 0.16084316 -0.025240224 0.14886396
0.047339037 -0.08584981 -0.06020791 0.15303043 0.029402247 -0.001870003 -0.036950808 0.036827978
0.08556275 0.09678309 0.09457195 -0.0060126754 -0.11647809 0.38939312 -0.07100844 -0.13776664
-0.0050947224 -0.034185026 -0.00016979079 0.08832114 0.15324968 0.036288545 0.021912735 0.15198426
0.09539228 2.7135675e-05 0.04545941 -0.054245416 0.114071056 0.003966678 0.21048887 -0.014434692
0.08547669 -0.058906186 -0.05596481 -0.09385456 -0.31428352 -0.03793767 -0.14345042 -0.025699526
0.014975207 0.15526672 0.20335472 0.058286954 0.081740305 0.07582833 0.01740888 -0.01637216
-0.34533292 0.11440984 -0.02794082 0.070537455 0.075203694 0.03754456 -0.06226306 -0.04097807
0.15019666 -0.09816656 -0.2952913 0.057503395 0.003520728 -0.044564713 0.16236934 -0.0153894685
-0.02871792 0.01732691 -0.006951084 -0.00652979 0.013510779 -0.009266212 -0.04260016 0.0056235436
-0.10481802 0.035948824 -0.29061064 -0.034551848 0.22393487 -0.18195204 0.13217591 -0.0022924757
-0.16829914 -0.061484333 0.08294248 -0.11544617 0.08706289 0.12620945 -0.020699546 0.077120036
0.08001213 -0.11328351 0.0061821253 -0.036996022 -0.009102238 -0.078019656 -0.26262835 -0.08726882
-0.005293703 0.026400933 0.14943592 -0.023686564 0.12503403 -0.10349671 0.2404024 -0.11474534
-0.011082739 -0.07382239 -0.070052676 -0.0564826 -0.20301764 0.040864017 0.0081394715 -0.051644143
0.0734851 -0.0025463253 -0.059666142 -0.07935155 -0.051884953 0.104526184 0.050565332 0.18550034
-0.005747315 0.099478565 -0.15684254 -0.033773396 -0.047511544 -0.064953834 -0.03694256 0.13488212
-0.049754824 -0.09541967 0.09814839 -0.039932635 -0.07506666 0.10719101 0.020911599 0.07696139
0.09075975 -0.058992457 -0.0063462257 0.03803402 0.064690925 -0.11940246 -0.06593083 0.23681684
0.15491532 -0.011730733 -0.022177735 0.06549507 0.17521118 0.107090816 0.20082372 -0.095895685
-0.009671788 0.03858446 -0.020915177 0.040563885 -0.098120585 0.032078475 0.11996462 0.13766478
-0.14443737 0.022479672 -0.06101053 -0.08505253 0.18084529 0.03353363 0.09802495 0.020460935
-0.010807775 -0.121449925 -0.01202783 0.06779389 -0.041573465 -0.08307817 0.13104033 0.017443221
0.109891266 -0.12542848 -0.026998805 0.06260768 -0.062913865 -0.09067028 -0.113365285 0.17133982
0.054833107 -0.015888851 0.24481687 0.17376907 0.18698539 0.021813136 -0.0373377 -0.074544415
-0.034307513 0.15409076 -0.004957041 -0.12651835 -0.20430584 0.0653069 0.19295482 0.15240964
0.04785952 -0.012890803 -0.0818939 0.23298642 0.05795783 -0.015259715 0.0046036304 0.03692351
0.16119011 -0.005609215 -0.043261215 0.21922833 -0.0025492446 -0.042459443 0.09115393 -0.028352741
-0.06275552 -0.032809295 -0.2628465 0.06148281 0.048173767 0.20540027 -0.01821858 -0.1257069
-0.038207956 -0.04087172 0.0033358855 -0.1565195 -0.025614558 -0.11795912 -0.064319156 -0.04029744
-0.019838959 -0.01837901 -0.13749968 0.14137003 0.058195736 -0.046868715 0.056761734 0.0061957636
00000000: d368 4f3d 32af 7fbd 9e7d 3abe 736d 89bd
00000010: 6cd0 3e3d 59fd 373e d10b 12be 1bea 5abd
00000020: fcbc 02be 7231 30be 16e4 023d 53e5 08be
00000030: 5c2b 433e 12b4 243e 96c4 cebc cb6f 183e
00000040: 94e6 413d 06d2 afbd 929c 76bd 02b4 1c3e
00000050: fbdc f03c e31a f5ba bb59 17bd efd8 163d
00000060: 863b af3d 3636 c63d f0ae c13d fa05 c5bb
00000070: 118c eebd 895e c73e df6c 91bd b312 0dbe
00000080: a1f1 a6bb 9905 0cbd de09 32b9 b7e1 b43d
00000090: 7ced 1c3e 4ca3 143d 5682 b33c c3a1 1b3e
000000a0: 075d c33d 6ba1 e337 a533 3a3d 7130 5ebd
000000b0: 169e e93d e8fa 813b 658a 573e 7d7f 6cbc
000000c0: 670e af3d 9d47 71bd 5b3b 65bd d236 c0bd
000000d0: c5e9 a0be 8864 1bbd abe4 12be d087 d2bc
000000e0: 925a 753c 3dfe 1e3e 383c 503e 4dbe 6e3d
000000f0: 7667 a73d e24b 9b3d 119d 8e3c e81e 86bc
00000100: 7acf b0be b54f ea3d 26e4 e4bc f175 903d
00000110: 6504 9a3d 53c8 193d 8d07 7fbd 9fd8 27bd
00000120: 27cd 193e 8d0b c9bd 6c30 97be ae88 6b3d
00000130: 04bc 663b 7d89 36bd 2644 263e 1c24 7cbc
00000140: d841 ebbc 2af1 8d3c ebc5 e3bb d9f7 d5bb
00000150: 505c 5d3c 4fd1 17bc 817d 2ebd b445 b83b
00000160: d4aa d6bd 133f 133d ebca 94be 3d86 0dbd
00000170: 2f4f 653e a351 3abe 1f59 073e 5c3d 16bb
00000180: 9c56 2cbe ffd6 7bbd bfdd a93d 0b6f ecbd
00000190: 074e b23d 0d3d 013e 1892 a9bc 1cf1 9d3d
000001a0: 66dd a33d 2f01 e8bd 6d93 ca3b 2489 17bd
000001b0: 8e21 15bc c5c8 9fbd 3977 86be ffb9 b2bd
000001c0: cd76 adbb c546 d83c bb05 193e 530a c2bc
000001d0: ec08 003e 15f6 d3bd 0c2c 763e 9bff eabd
000001e0: 6094 35bc 3130 97bd c777 8fbd 4c5a 67bd
000001f0: dbe3 4fbe 0761 273d 6b5b 053c cf88 53bd
00000200: 5b7f 963d 40e0 26bb 7c64 74bd 1183 a2bd
00000210: 5185 54bd d311 d63d 981d 4f3d cdf3 3d3e
00000220: f953 bcbb 6bbb cb3d 559b 20be f955 0abd
00000230: 779b 42bd 8406 85bd 1551 17bd 8a1e 0a3e
00000240: b7cb 4bbd 636b c3bd 0602 c93d 6790 23bd
00000250: 8dbc 99bd f686 db3d cd4e ab3c ef9d 9d3d
00000260: 3fe0 b93d 13a2 71bd 00f4 cfbb 90c9 1b3d
00000270: ad7c 843d 4789 f4bd be06 87bd 1d80 723e
00000280: 1fa2 1e3e 4332 40bc 15ae b5bc 4722 863d
00000290: 8f6a 333e 6e52 db3d bca4 4d3e f564 c4bd
000002a0: 6b76 1ebc bd0a 1e3d 4e56 abbc 5126 263d
000002b0: 72f3 c8bd b864 033d 03b0 f53d fff7 0c3e
000002c0: 64e7 13be 4a27 b83c 2de6 79bd 0530 aebd
000002d0: 822f 393e 8f5a 093d 4ec1 c83d b19d a73c
000002e0: 1813 31bc bdba f8bd 6010 45bc 86d7 8a3d
000002f0: f048 2abd e324 aabd 702f 063e 16e5 8e3c
00000300: ac0e e13d 5370 00be 992c ddbc 7538 803d
00000310: fcd8 80bd 57b1 b9bd 0f2c e8bd b573 2f3e
00000320: ae98 603d 5629 82bc 46b1 7a3e 85f0 313e
00000330: 1979 3f3e 76b1 b23c 6bef 18bd beaa 98bd
00000340: 0986 0cbd f8c9 1d3e ac6e a2bb 078e 01be
00000350: 8d35 51be a0bf 853d f395 453e 4611 1c3e
00000360: 5808 443d f233 53bc fdb7 a7bd fe93 6e3e
00000370: 3165 6d3d e203 7abc 0dda 963b 1b3d 173d
00000380: 050f 253e 81cd b7bb ac32 31bd 647d 603e
00000390: 3a11 27bb f4e9 2dbd e9ae ba3d 0244 e8bc
000003a0: f785 80bd 0a63 06bd d193 86be 66d5 7b3d
000003b0: db51 453d 7354 523e 223f 95bc 4fb9 00be
000003c0: f27f 1cbd 1b69 27bd df9e 5a3b a646 20be
000003d0: 9fd5 d1bc 8d94 f1bd c3b9 83bd ee0e 25bd
000003e0: 5085 a2bc 948f 96bc b7cc 0cbe 4ec3 103e
000003f0: a75e 6e3d 69f9 3fbd fe7e 683d d505 cb3b
