results/Drone3/Drone/Drone-11499973.onnx (onnx, 810629 bytes, 11 tensors)

action_model._continuous_distribution.log_sigma f4 [1, 4]
-1.1362987 -1.0951573 -1.0313982 -0.9596149
00000000: 3c72 91bf 1d2e 8cbf db04 84bf 52a9 75bf

action_model._continuous_distribution.mu.bias f4 [4]
0.048171777 -0.01030449 0.04686961 -0.036239408
00000000: c54f 453d 2ad4 28bc 59fa 3f3d c66f 14bd

action_model._continuous_distribution.mu.weight f4 [4, 256]
0.0575314 -0.03265717 -0.02167263 -0.064825475 -0.065220684 0.011258788 -0.016472757 -0.01906351
0.030320803 0.022519229 -0.025581112 0.02065406 0.061023824 -0.026580784 -0.012927678 -0.062940836
-0.024712782 -0.014368156 0.031176135 -0.00035787467 0.008914441 -0.0031696444 0.00660438 -0.036262847
0.031898454 -0.0035562331 -0.024153424 -0.050133895 0.031574592 -0.04865023 -0.003439223 -0.028833944
0.0129926205 0.06411562 -0.04429569 -0.024298362 0.0770106 0.0078030713 0.02072485 -0.022551134
0.030695561 -0.03892294 0.022186188 0.0070587355 -0.06712116 -0.06680428 0.06878766 -0.064470515
0.04969504 -0.028584821 -0.058705263 -0.0093230205 -0.037646826 0.033649422 0.029554091 -0.061137475
-0.06904399 -0.032158833 -0.116700284 0.010092467 0.010546797 -0.007430833 0.06095062 0.0492499
-0.022345962 -0.076033235 -0.053730294 -0.007766979 0.08325196 0.016128171 0.0073569776 -0.058522172
-0.035053406 -0.014032918 0.042022843 -0.008427164 0.047172 -0.07077272 -0.02542649 0.00035722202
-0.023751168 -0.057858974 -0.023812512 -0.013860611 -0.02759899 0.004586723 0.006788467 0.06659508
-0.039029066 -0.061708845 0.0010454634 0.034681555 0.09301793 -0.02426172 -0.046463903 -0.063225545
-0.05761052 0.069287725 -0.014282536 -0.028877176 -0.063562706 -0.062145486 0.03777818 -0.037985973
0.015075849 0.027508628 0.037067592 0.02046743 -0.04870795 -0.030781662 -0.05627922 -0.015191907
0.046243396 -0.03686177 -0.02688722 0.023024037 0.039437383 -0.029561253 -0.033363782 0.0057342523
0.0050890013 -0.05304481 -0.02011884 0.0030331083 0.015819281 -0.0057178475 -0.0066476003 -0.09206255
-0.07426328 -0.0066082757 -0.0437963 0.0028983331 -0.039056726 0.012425892 -0.07153574 -0.05147584
-0.00042542224 -0.024567727 0.07578562 -0.10350896 -0.062378168 -0.015011893 -0.01578083 0.053779803
-0.028591838 -0.05019223 -0.048676766 -0.018157616 -0.05162807 -0.037450578 -0.025615623 -0.030597169
0.012308845 0.030768014 0.00015046107 0.007818747 -0.051137295 -0.0004054287 0.022913175 -0.03964024
-0.08179475 0.08153505 -0.03917636 -0.049711723 0.05237197 -0.025368921 0.06643743 0.047800798
-0.06109429 -0.022605661 -0.04891149 -0.05509561 0.09721729 0.007050307 0.029294694 0.019118251
-0.019291008 0.039212577 0.0057011284 0.014900107 0.01232937 0.0162692 0.011759179 0.02536461
-0.012329273 -0.04278423 0.002403276 -0.06699692 -0.03180267 -0.004040047 0.025550881 -0.00031032445
-0.07043519 0.0097258 0.048376277 -0.080438405 -0.015085799 -0.0013483585 -0.043159883 0.0007508127
-0.06900152 -0.0007133253 0.0043399674 -0.030512286 -0.0045058075 -0.014006398 -0.021451844 -0.03873239
-0.01731715 -0.032860342 -0.053928517 -0.025515301 0.025374511 0.0060827537 -0.00935081 -0.03732049
-0.055921163 0.031232297 0.00054712174 0.038031217 -0.043667242 -0.02620172 -0.010333292 -0.016316734
-0.046583973 -0.01630306 -0.040766716 -0.0046243374 0.01420808 -0.033172976 0.016744481 0.075589664
-0.04241429 -0.015738865 0.032263342 -0.02645106 -0.031016242 0.019218456 -0.012157522 0.008255007
-0.0027657049 0.045977674 -0.0058716657 -0.0035583524 0.021157593 0.0178527 0.027797297 0.035632413
0.02362099 -0.0036051027 -0.0629401 -0.013609454 -0.0027358127 0.000799359 -0.051172562 -0.08090027
00000000: 0ca6 6b3d 86c3 05bd cd8a b1bc 38c3 84bd
00000010: 6c92 85bd c876 383c e0f1 86bc 142b 9cbc
00000020: 5563 f83c 3f7a b83c 7b8f d1bc b432 a93c
00000030: 1ef4 793d f2bf d9bc 9dce 53bc 20e7 80bd
00000040: 7672 cabc 6a68 6bbc 1865 ff3c 20a1 bbb9
00000050: e00d 123c cfb9 4fbb 8e69 d83b 5a88 14bd
00000060: f4a7 023d b10f 69bb 67dd c5bc 3359 4dbd
00000070: 5c54 013d 7745 47bd 9664 61bb 2a35 ecbc
00000080: 00df 543c 0d4f 833d 666f 35bd 5c0d c7bc
00000090: bcb7 9d3d e8b0 ff3b 29c7 a93c 28bd b8bc
000000a0: 4275 fb3c a96d 1fbd cfbf b53c f74c e73b
000000b0: d276 89bd afd0 88bd 8be0 8c3d 1e09 84bd
000000c0: 078d 4b3d b72a eabc ee74 70bd 95bf 18bc
000000d0: 8f33 1abd fad3 093d 6c1b f23c 4a6b 7abd
000000e0: ef66 8dbd fbb8 03bd 8f00 efbd e05a 253c
000000f0: 79cc 2c3c 587e f3bb 5ba7 793d 43ba 493d
00000100: e10e b7bc 50b7 9bbd 4c14 5cbd 2482 febb
00000110: 0180 aa3d 3a1f 843c cd12 f13b f2b4 6fbd
00000120: 2994 0fbd 53ea 65bc 2520 2c3d 1612 0abc
00000130: 6d37 413d 4af1 90bd 374b d0bc 8749 bb39
00000140: cf91 c2bc 88fd 6cbd 7512 c3bc 9e17 63bc
00000150: 4717 e2bc 394c 963b ca71 de3b 0063 883d
00000160: f1dc 1fbd 6ac2 7cbd ee07 893a 3f0e 0e3d
00000170: 2f80 be3d 84c0 c6bc ef50 3ebd 657c 81bd
00000180: 02f9 6bbd b9e6 8d3d 4c01 6abc d48f ecbc
00000190: 2a2d 82bd 448c 7ebd 4bbd 1a3d 2e97 1bbd
000001a0: b200 773c c659 e13c 30d4 173d 50ab a73c
000001b0: fd81 47bd d329 fcbc 0a85 66bd 7ae7 78bc
000001c0: b769 3d3d 5efc 16bd 9642 dcbc e89c bc3c
000001d0: 1889 213d 712a f2bc 76a8 08bd 65e6 bb3b
000001e0: a3c1 a63b 8445 59bd 44d0 a4bc 1dc7 463b
000001f0: 7097 813c c85c bbbb 1dd4 d9bb 4a8b bcbd
00000200: 5917 98bd 3c8a d8bb c063 33bd f6f1 3d3b
00000210: f2f9 1fbd f895 4b3c 5481 92bd 55d8 52bd
00000220: 350b dfb9 4242 c9bc 7e35 9b3d 81fc d3bd
00000230: 4080 7fbd 71f4 75bc cd46 81bc 3648 5c3d
00000240: 6e39 eabc 5e96 4dbd 4a61 47bd 48bf 94bc
00000250: f577 53bd c765 19bd dbd7 d1bc eaa6 fabc
00000260: 0aab 493c 340d fc3c 16c5 1d39 341a 003c
00000270: 5775 51bd b88f d4b9 69b4 bb3c ce5d 22bd
00000280: 0284 a7bd d9fb a63d 6477 20bd 859e 4bbd
00000290: fe83 563d 7cd2 cfbc 5910 883d c5ca 433d
000002a0: 023e 7abd 822f b9bc 6a57 48bd efab 61bd
000002b0: dc19 c73d 4306 e73b 6dfb ef3c e19d 9c3c
000002c0: 2d08 9ebc 5e9d 203d 88d0 ba3b 941f 743c
000002d0: 2001 4a3c fc46 853c 92a9 403c 71c9 cf3c
000002e0: b800 4abc 843e 2fbd 4880 1d3b ae35 89bd
000002f0: 8443 02bd 5f62 84bb 1550 d13c 0bb3 a2b9
00000300: 5340 90bd f658 1f3c 3426 463d e4bc a4bd
00000310: 6d2a 77bc 67bb b0ba 6bc8 30bd 30d2 443a
00000320: ab50 8dbd 73fe 3aba 4936 8e3b e7f4 f9bc
00000330: 74a5 93bb 177b 65bc c7bb afbc dba5 1ebd
00000340: b2dc 8dbc 9198 06bd 26e4 5cbd 7705 d1bc
00000350: 35de cf3c d651 c73b 2434 19bc 5fdd 18bd
00000360: 970d 65bd e0da ff3c b86c 0f3a 9fc6 1b3d
00000370: 6cdc 32bd fda4 d6bc f84c 29bc acaa 85bc
00000380: d6ce 3ebd ff8d 85bc 00fb 26bd c187 97bb
00000390: 02c9 683c 63e0 07bd b92b 893c c1ce 9a3d
000003a0: 9bba 2dbd cbee 80bc 9126 043d e5af d8bc
000003b0: c615 febc 0670 9d3c 5830 47bc 0240 073c
000003c0: d440 35bb 1653 3c3d 1a67 c0bb 3f33 69bb
000003d0: b052 ad3c d33f 923c 28b7 e33c 4bf3 113d
000003e0: ce80 c13c 9643 6cbb bde6 80bd 30fa 5ebc
000003f0: 524b 33bb 138c 513a 529a 51bd 0aaf a5bd

network_body._body_endoder.seq_layers.0.bias f4 [256]
0.094582826 -0.11999597 0.11684455 -0.032555267 -0.10626041 -0.083366305 -0.05967014 -0.06302163
-0.15327062 0.012330748 -0.11452953 -0.06688392 -0.005630735 -0.13401787 -0.0026798013 0.012725756
0.11107007 -0.10684585 -0.021510325 -0.12820594 -0.0071468228 -0.08612977 -0.04423616 -0.0856585
-0.015139429 -0.02957513 -0.02282678 0.006145853 -0.063951 -0.21523888 -0.006512902 -0.046855412
-0.049371596 -0.11381887 -0.055635206 -0.11365105 -0.084421374 -0.1151388 -0.12155641 -0.09590722
-0.043782286 -0.10406074 -0.01842823 0.05167346 -0.10177332 -0.109546885 0.025608195 -0.10755406
0.094387084 -0.044869967 -0.18198948 -0.14215806 -0.079430364 0.05137544 -0.07953494 -0.18425697
-0.1383043 -0.08981525 -0.024195326 -0.05083521 -0.20147525 -0.08041431 -0.12706308 -0.09192186
-0.0826044 -0.09031513 -0.074283734 0.05095812 -0.16677704 -0.04193532 -0.008796646 -0.100567535
-0.047840107 0.005040696 -0.13044381 -0.01461955 -0.10504417 -0.04127525 -0.13115281 -0.20096625
-0.09740169 0.04678267 -0.084544584 0.09776752 -0.056384705 -0.15087025 -0.15407734 -0.09918973
-0.10166147 -0.13984418 -0.083393745 -0.042486485 0.1494603 0.0049016736 0.017016254 -0.20070808
-0.06106914 -0.11025908 -0.11218532 0.04761519 -0.037033614 -0.09795013 -0.14665823 -0.10834803
0.017972447 -0.11046021 -0.037578028 0.14675342 0.007992527 -0.0101682525 -0.055142164 -0.06633519
-0.1439318 0.08594232 0.032695077 -0.10049795 -0.09804099 -0.025053553 -0.1806745 -0.1606737
-0.03123687 -0.111394525 -0.12229137 -0.09115832 -0.06609524 -0.0154973185 -0.02281384 -0.057520274
0.0477649 -0.03899114 -0.064429566 0.00685276 -6.9321424e-05 -0.109552234 0.06277409 -0.11231651
0.118457735 -0.1318941 -0.14659987 0.04374764 -0.115180485 0.11472608 -0.050312042 -0.14040898
-0.111943424 -0.0073504657 -0.12340333 -0.23281056 -0.037620384 -0.05721761 -0.0056419363 0.005759366
0.050353862 0.08746872 -0.007189362 -0.0023378313 0.028471902 -0.1134222 -0.052461993 -0.023489304
0.0751143 0.13266957 -0.06053715 0.017226636 -0.08888974 0.011192702 -0.062016755 -0.05326067
-0.04083987 0.0262096 -0.08857955 -0.048702843 -0.015558719 -0.011575631 0.047821384 -0.04860689
-0.062209155 -0.21355918 0.04845273 -0.14477624 -0.19940482 -0.035906374 -0.09473117 -0.044144917
-0.12243683 0.037876923 -0.1466453 -0.056006096 -0.093009874 0.1318862 -0.14109744 0.011766243
-0.06960016 0.012506859 -0.06688129 -0.05424663 -0.073271185 -0.025781779 -0.023133973 -0.0355345
0.019701805 0.06572681 -0.09962254 -0.12721898 -0.05614732 -0.11234833 -0.094589464 -0.15287684
-0.08102021 -0.019133206 0.006653339 -0.040637016 -0.098155834 -0.02405619 -0.068538286 -0.06115887
-0.027737219 0.047506247 -0.10518727 -0.098924376 -0.2215089 -0.00639013 0.071712665 -0.003547876
-0.1111906 -0.054882135 -0.0618642 -0.11717577 -0.13738945 -0.00614497 0.1415656 0.055600602
-0.12317786 -0.041436262 -0.064664006 -0.008905123 0.00187145 -0.0017608954 -0.08831167 0.07194249
-0.008102415 0.10507908 0.008981582 -0.0039563593 0.0013344627 -0.15484105 -0.06581371 -0.08613337
-0.04754006 -0.06729874 -0.13615641 -0.038017534 0.02291481 -0.07024704 -0.01782116 -0.0586708
00000000: a4b4 c13d 72c0 f5bd 324c ef3d ac58 05bd
00000010: 0f9f d9bd f4bb aabd ad68 74bd 7c11 81bd
00000020: f9f2 1cbe e806 4a3c 758e eabd 70fa 88bd
00000030: 0782 b8bb fb3b 09be 9b9f 2fbb b07f 503c
00000040: b478 e33d ffd1 dabd 6c36 b0bc 6b48 03be
00000050: e52f eabb ce64 b0bd fa30 35bd b96d afbd
00000060: 5e0b 78bc 8b47 f2bc 3aff babc 2763 c93b
00000070: bef8 82bd 9567 5cbe 2f6a d5bb 76eb 3fbd
00000080: df39 4abd de19 e9bd bee1 63bd e2c1 e8bd
00000090: 1de5 acbd e4cd ebbd 91f2 f8bd 016b c4bd
000000a0: 0e55 33bd cc1d d5bd cdf6 96bc 8da7 533d
000000b0: 886e d0bd 1e5a e0bd 47c8 d13c 4e45 dcbd
000000c0: 044e c13d 92c9 37bd 735b 3abe e291 11be
000000d0: 63ac a2bd 0e6f 523d 37e3 a2bd dcad 3cbe
000000e0: a49f 0dbe 0ff1 b7bd 4735 c6bc 9538 50bd
000000f0: 874f 4ebe 42b0 a4bd d31c 02be 8741 bcbd
00000100: 7f2c a9bd 24f7 b8bd 1222 98bd 76b9 503d
00000110: 9ac7 2abe 5fc4 2bbd cf1f 10bc 5af6 cdbd
00000120: fdf3 43bd 6c2c a53b 1093 05be d686 6fbc
00000130: 6621 d7bd 3d10 29bd ec4c 06be 19ca 4dbe
00000140: 8a7a c7bd 2f9f 3f3d b625 adbd 563a c83d
00000150: a6f3 66bd bb7d 1abe 73c6 1dbe fc23 cbbd
00000160: e433 d0bd 5033 0fbe 57ca aabd 4f06 2ebd
00000170: 1f0c 193e 389e a03b ac65 8b3c 6b86 4dbe
00000180: a223 7abd 83cf e1bd 6bc1 e5bd 2508 433d
00000190: 8fb0 17bd 149a c8bd 932d 16be 92e5 ddbd
000001a0: f43a 933c f638 e2bd 6beb 19bd 8746 163e
000001b0: 17f3 023c be98 26bc c0dc 61bd beda 87bd
000001c0: dc62 13be 8702 b03d 46eb 053d dfd1 cdbd
000001d0: b7c9 c8bd 1c3d cdbc bc02 39be a587 24be
000001e0: 77e4 ffbc d022 e4bd e673 fabd 37b1 babd
000001f0: f15c 87bd 77e8 7dbc 17e4 babc 619a 6bbd
00000200: 21a5 433d 2cb5 1fbd a6f3 83bd 1e8d e03b
00000210: a860 91b8 ec5c e0bd b48f 803d 3306 e6bd
00000220: f899 f23d 3f0f 07be 471e 16be ba30 333d
00000230: bfe3 ebbd 82f5 ea3d 0014 4ebd 5fc7 0fbe
00000240: 9842 e5bd 2ddc f0bb e3ba fcbd e465 6ebe
00000250: d517 1abd 035d 6abd fedf b8bb 10b9 bc3b
00000260: da3f 4e3d cd22 b33d bd94 ebbb 4d36 19bb
00000270: e83d e93c e649 e8bd 63e2 56bd a46c c0bc
00000280: 87d5 993d 88da 073e cdf5 77bd e01e 8d3c
00000290: d30b b6bd 9861 373c 4805 7ebd dc27 5abd
000002a0: b547 27bd 84b5 d63c 3269 b5bd a27c 47bd
000002b0: ffe9 7ebc b7a7 3dbc 5be0 433d 0518 47bd
000002c0: 07cf 7ebd 42af 5abe 5f76 463d 3940 14be
000002d0: c730 4cbe 9012 13bd 6a02 c2bd 4dd1 34bd
000002e0: 29c0 fabd d524 1b3d 2f2a 16be a666 65bd
000002f0: f67b bebd 2d0d 073e d97b 10be 33c7 403c
00000300: 878a 8ebd 92e9 4c3c 0ff9 88bd b731 5ebd
00000310: 340f 96bd 4f34 d3bc 7583 bdbc a08c 11bd
00000320: ae65 a13c c79b 863d e706 ccbd b145 02be
00000330: bbfa 65bd e216 e6bd 1fb8 c1bd bf8b 1cbe
00000340: eded a5bd 3ebd 9cbc 4104 da3b 0073 26bd
00000350: ed05 c9bd 7d11 c5bc cd5d 8cbd b981 7abd
00000360: 2a39 e3bc e995 423d 6c6c d7bd dd98 cabd
00000370: 3bd3 62be 4c64 d1bb 17de 923d 7b83 68bb
00000380: e6b7 e3bd 17cc 60bd 5165 7dbd daf9 efbd
00000390: d2af 0cbe bf5b c9bb 93f6 103e 75bd 633d
000003a0: ad44 fcbd 12b9 29bd 906e 84bd cbe6 11bc
000003b0: 714b f53a d8cd e6ba c0dc b4bd 9656 933d
000003c0: febf 04bc b333 d73d 7c27 133c 59a4 81bb
000003d0: 23e9 ae3a a78e 1ebe 57c9 86bd b166 b0bd
000003e0: 5eb9 42bd ecd3 89bd 966c 0bbe 46b8 1bbd
000003f0: d7b7 bb3c aedd 8fbd aefd 91bc cb50 70bd

network_body._body_endoder.seq_layers.0.weight f4 [256, 13]
0.28132823 -0.2213579 -0.19413231 -0.1100838 0.15934083 0.24856593 0.83656335 -0.14877999
-1.1177212 1.0098574 -0.12439714 -0.07911626 0.6439585 0.15203825 0.20793742 0.112995595
-0.22031008 -0.03519973 -0.031073006 0.29226726 -0.01023612 -0.3227138 0.021603718 0.16916116
-0.023827853 0.6240308 -0.046541844 0.099654354 -0.4061636 -0.056980927 -0.041450676 0.1359908
2.0744195 0.5132678 0.1451452 0.58729756 -0.15660782 0.609811 0.08811077 0.20476519
-0.5241204 -0.17265365 -0.054930687 0.12663221 -0.12516116 -0.08290965 -0.051420677 0.1734944
-0.03254957 -0.007758809 -0.39870828 -0.053717934 -0.31462497 -0.40152842 0.17934175 0.6919868
-0.3978128 0.32901096 0.20589304 0.30539194 0.14246632 -0.45901206 -0.12323403 -0.41273275
0.10693505 -0.024365775 -0.026100267 -0.0051455447 -0.18423767 0.16254984 0.24647702 -1.061545
-0.22870895 0.019650826 -0.066481754 -0.054772533 0.18398073 -0.26934525 -0.003847905 -0.28407022
-0.51805526 0.19706509 -0.12548935 -0.12816168 -0.562172 0.29828393 -0.20961173 0.39672866
0.022485228 0.21672454 -0.23495921 0.1531048 -0.8688435 0.072956085 -0.3513261 0.07928576
-0.22146334 -0.12149969 -0.6574982 -0.13802053 0.24474768 -0.14070477 -0.09645055 -0.171395
0.20400214 -0.04477448 0.08407888 0.23719816 0.1366167 -0.22447594 -0.420305 -0.5769228
0.151703 -0.14277807 0.0041949763 0.030745842 -0.1994031 0.37104905 -0.23038019 0.12402039
0.14851253 -0.1012828 0.0562595 -0.06298299 0.043930687 0.35345206 -0.38618717 0.06968081
0.20096785 -0.08052338 0.054384626 -0.02338647 -0.03628871 0.091286816 0.028084248 -0.034361124
0.015472694 -0.3787671 -0.13574053 -0.3098625 0.5842547 -0.61876506 0.14371452 -0.07356102
-0.26276526 -0.03907292 -0.4077641 0.1482233 0.085971005 -0.7878092 -0.44764793 0.17392595
0.1804649 -0.17964354 0.33626127 -0.119435355 0.16675702 0.16094129 0.36329013 -0.31082124
0.24585675 0.19154428 0.38808936 -0.41768712 0.5648537 -0.03838562 -0.32027668 0.40484127
0.4738307 0.31718257 -0.23840249 -0.055250093 0.10580966 0.14380078 0.77104783 -0.71734416
0.0072459886 -0.42679915 -0.5047398 0.05756531 0.1578056 -0.19230354 -0.19720183 -0.096245766
-0.4290454 0.10971256 -0.1387624 0.052173868 0.52658385 0.3841914 0.03425636 0.46148154
-0.021487761 -0.31702602 0.07564684 0.015393372 0.13514024 -0.011225333 0.15050398 -0.3898924
0.23665003 -0.69201237 0.27938718 -1.1581057 0.38757834 -0.0008934998 0.04502024 -0.11131801
-0.005085503 0.34258267 0.076324694 -0.19486584 0.06676749 0.08066363 0.9534231 -0.022618664
0.554609 0.34626248 -0.2987298 0.59075165 0.4174888 0.15679927 0.48544267 0.3076243
-0.3026697 -0.09926959 0.124290325 -0.17845874 0.09244646 0.93415266 -0.22113976 0.10343135
-0.11918074 -0.077576 -0.4347764 0.038110055 0.060790166 0.38599634 -0.32896096 -0.096413
-1.5350261 -0.49000376 0.054021247 0.4478587 0.042726904 -0.12712577 -0.044566948 0.19789006
-0.3618277 0.08278447 -0.33827105 0.27901894 -0.40764305 -0.23965918 -0.4520272 0.16858347
00000000: 410a 903e a5ab 62be 9fca 46be 9e73 e1bd
00000010: 3e2a 233e 1188 7e3e 0429 563f c859 18be
00000020: 7d11 8fbf 0243 813f eec3 febd b507 a2bd
00000030: 77da 243f eaaf 1b3e 8ced 543e 3c6a e73d
00000040: f798 61be 982d 10bd d18c febc 0ea4 953e
00000050: 66b5 27bc be3a a5be 48fa b03c 9538 2d3e
00000060: a132 c3bc 7cc0 1f3f a9a2 3ebd 9517 cc3d
00000070: adf4 cfbe d564 69bd 2fc8 29bd 2c41 0b3e
00000080: 4ac3 0440 8565 033f f1a0 143e 2259 163f
00000090: cd5d 20be 931c 1c3f 6b73 b43d f7ad 513e
000000a0: c12c 06bf 1ecc 30be 00ff 60bd e0ab 013e
000000b0: 3f2a 00be 89cc a9bd 7d9e 52bd 84a8 313e
000000c0: b352 05bd 9b3d febb 7e23 ccbe 5607 5cbd
000000d0: 8616 a1be 2295 cdbe 5da5 373e 0c26 313f
000000e0: 1fae cbbe 2074 a83e a0d5 523e 555c 9c3e
000000f0: b1e2 113e a103 ebbe 2062 fcbd b551 d3be
00000100: c300 db3d bc9a c7bc 3ad0 d5bc f59b a8bb
00000110: cda8 3cbe 7773 263e 7964 7c3e b5e0 87bf
00000120: ae32 6abe c5fa a03c 9627 88bd 2a59 60bd
00000130: 7265 3c3e 9fe7 89be 222d 7cbb a771 91be
00000140: 459f 04bf 6ecb 493e 4880 00be d13c 03be
00000150: 81ea 0fbf acb8 983e 75a4 56be 0520 cb3e
00000160: f132 b83c 0aed 5d3e 2699 70be 81c7 1c3e
00000170: 876c 5ebf 006a 953d 04e1 b3be 9360 a23d
00000180: 49c7 62be d4d4 f8bd cd51 28bf 4155 0dbe
00000190: 239f 7a3e e914 10be de87 c5bd 2c82 2fbe
000001a0: f0e5 503e 7265 37bd 8c31 ac3d 13e4 723e
000001b0: 40e5 0b3e 05dd 65be 3832 d7be 36b1 13bf
000001c0: 0858 1b3e 6a34 12be 0376 893b b4de fb3c
000001d0: 5430 4cbe 24fa bd3e c9e8 6bbe 67fe fd3d
000001e0: ab13 183e 5b6d cfbd 5d70 663d 3afd 80bd
000001f0: aaf0 333d abf7 b43e 53ba c5be d0b4 8e3d
00000200: 84ca 4d3e 71e9 a4bd 6ac2 5e3d fb94 bfbc
00000210: 78a3 14bd 95f4 ba3d f010 e63c 40be 0cbd
00000220: 2f81 7d3c c3ed c1be 91ff 0abe 4ca6 9ebe
00000230: b791 153f 6367 1ebf e629 133e 29a7 96bd
00000240: 2b89 86be ed0a 20bd 75c6 d0be d9c7 173e
00000250: 9111 b03d ddad 49bf 1c32 e5be a519 323e
00000260: cacb 383e 7af4 37be 702a ac3e 869a f4bd
00000270: 5ac2 2a3e cbcd 243e 2a01 ba3e f623 9fbe
00000280: dfc1 7b3e 2f24 443e a6b3 c63e 16db d5be
00000290: 419a 103f 3d3a 1dbd 4efb a3be 5b47 cf3e
000002a0: f099 f23e c165 a23e c81f 74be ec4d 62bd
000002b0: bcb2 d83d 8340 133e 6463 453f dea3 37bf
000002c0: c26f ed3b 6b85 dabe a136 01bf 9ac9 6b3d
000002d0: cb97 213e 38eb 44be 47ef 49be 801c c5bd
000002e0: d7ab dbbe fbb0 e03d bb17 0ebe 44b4 553d
000002f0: 33ce 063f bcb4 c43e 6650 0c3d 4f47 ec3e
00000300: 1a07 b0bc 3c51 a2be bbec 9a3d 7b34 7c3c
00000310: 3462 0a3e 76ea 37bc b71d 1a3e fa9f c7be
00000320: 6354 723e b927 31bf d60b 8f3e cf3c 94bf
00000330: ab70 c63e c239 6aba 2567 383d b2fa e3bd
00000340: 4ba4 a6bb ff66 af3e 1f50 9c3d e98a 47be
00000350: 65bd 883d f932 a53d 8913 743f c74a b9bc
00000360: dbfa 0d3f 5149 b13e 1df3 98be 803b 173f
00000370: 18c1 d53e fd8f 203e f18b f83e ef80 9d3e
00000380: 86f7 9abe db4d cbbd ed8b fe3d e3bd 36be
00000390: 9254 bd3d a124 6f3f 7672 62be d1d3 d33d
000003a0: 0815 f4bd 2ae0 9ebd 039b debe 4a19 1c3d
000003b0: 1cff 783d 50a1 c53e 926d a8be 2e74 c5bd
000003c0: bc7b c4bf c6e1 fabe 6245 5d3d bc4d e53e
000003d0: 6802 2f3d 422d 02be d58b 36bd b1a3 4a3e
000003e0: 7b41 b9be e78a a93d dd31 adbe 92db 8e3e
000003f0: 97b6 d0be 3769 75be 1c70 e7be 25a1 2c3e

network_body._body_endoder.seq_layers.2.bias f4 [256]
-0.06771008 -0.049182396 0.053577352 0.0735702 -0.0064516207 -0.0060065934 -0.025603497 -0.0340827
-0.029099138 -0.12413815 0.0048451563 0.044097494 0.011374191 -0.023494063 0.025842132 -0.06697042
-0.024125703 0.004166041 -0.032369535 -0.062406745 -0.056634307 0.0069608204 -0.04557752 0.037016932
-0.018264305 -0.066189766 -0.094837226 -0.036832824 0.016701892 -0.020108724 -0.0019143592 0.0082816705
-0.007873677 -0.09472943 -0.058039792 -0.04717309 -0.0022958226 -0.06734145 -0.08770599 -0.018035967
-0.08835414 -0.037158024 -0.06323814 -0.07917885 -0.0753437 -0.0460715 -0.016827274 -0.07988925
-0.039642032 -0.052648053 0.066960454 -0.029970462 0.030337224 0.009791641 -0.044255413 -0.010410826
-0.057660878 -0.012135644 -0.076136656 -0.058262896 -0.077724025 -0.03368443 -0.032222427 -0.07465753
0.012733274 -0.0292384 -0.15797585 -0.043019652 -0.038688652 -0.0055850274 9.1339534e-05 0.019120023
-0.062096495 -0.031731986 -0.0793483 -0.063221306 -0.027077718 -0.02052477 -0.06840001 0.030476598
-0.015426005 -0.07055558 0.037789356 -0.050311357 -0.0608523 -0.02716578 0.055812865 -0.051991895
0.0013987682 -0.037978362 0.027177515 -0.0111940745 -0.059321437 -0.0059978478 -0.03536347 0.022833439
0.05290641 0.037042554 -0.04903587 -0.09411094 -0.021269014 -0.036563147 -0.07073947 -0.0034634082
-0.012364417 -0.02484496 -0.028782668 -0.046066202 -0.06474733 -0.07121808 -0.041553143 0.018923614
-0.06389013 0.011683741 -0.02509393 -0.11449565 0.034937944 0.008293848 -0.09911531 0.02390683
-0.019194948 -0.010021672 -0.012575575 -0.048169773 -0.07843032 0.025037939 -0.077018656 -0.10448626
-0.051780976 -0.09108445 -0.07155589 -0.05010507 -0.0036312293 -0.032792777 -0.06329678 -0.036981992
-0.025323112 -0.11390325 0.001161491 0.039665826 -0.044824906 -0.09037359 0.0051676556 -0.028254453
0.0067276317 -0.062678866 -0.05677182 -0.04253687 -0.042279527 -0.069408886 -0.06891022 -0.015927507
0.017724315 -0.07651878 -0.05755373 -0.03527997 -0.08091377 -0.08480657 -0.035015967 -0.088239275
-0.039911453 -0.033757735 -0.0093821585 -0.091770075 -0.06960752 0.05776734 0.0020615696 -0.005700678
0.015134111 -0.06687895 -0.019184802 -0.025112841 0.032017555 -0.026585087 0.00011659694 -0.037995994
-0.050728444 -0.073006496 0.07790197 0.03874377 -0.009132749 -0.05132351 -0.026177866 0.0095699495
-0.010466748 0.06097375 0.012858714 -0.067138635 -0.032941997 -0.068519026 -0.050636053 -0.06716461
-0.013056636 -0.041409787 0.011858113 -0.033697993 -0.046581842 0.089070454 -0.050032355 -0.11742534
-0.051153205 -0.00476421 0.012165454 0.0065276385 -0.076882295 -0.024288068 -0.051198483 0.0012852049
-0.01768126 -0.03669305 -0.038921174 -0.04520257 -0.08499483 -0.047975983 0.0036781486 -0.03405498
-0.08215734 -0.043519516 0.0016967875 -0.015551231 -0.03254267 -0.058139943 -0.0437321 -0.066595875
-0.017372057 -0.027616456 -0.057199888 -0.03827126 -0.04422906 0.045244455 0.0010387005 -0.016686974
-0.042714678 -0.028876558 0.031170426 -0.05191256 -0.047760032 -0.06424163 -0.03827799 0.029803135
-0.01398272 -0.058473766 -0.0128434915 0.017491536 -0.03514578 -0.0065611345 -0.0051228525 -0.011907539
-0.033187587 -0.048821546 -0.044939797 -0.04649928 -0.0430335 -0.036403846 0.0009345254 0.0006132713
00000000: 95ab 8abd 7b73 49bd ed73 5b3d f9ab 963d
00000010: 1e68 d3bb f5d2 c4bb 6dbe d1bc 4d9a 0bbd
00000020: 5161 eebc 243c febd 1ec4 9e3b 939f 343d
00000030: d15a 3a3c 9f76 c0bc e1b2 d33c ca27 89bd
00000040: 44a3 c5bc 4983 883b eb95 04bd 379e 7fbd
00000050: 60f9 67bd 9817 e43b 7eaf 3abd 119f 173d
00000060: 069f 95bc 808e 87bd 053a c2bd 04de 16bd
00000070: 68d2 883c 0dbb a4bc 3ceb faba d8af 073c
00000080: 9800 01bc 8101 c2bd 22bb 6dbd 9238 41bd
00000090: 8375 16bb 50ea 89bd 339f b3bd 2ac0 93bc
000000a0: 04f3 b4bd 0333 18bd ff82 81bd 8528 a2bd
000000b0: cc4d 9abd 78b5 3cbd 5ad9 89bc fa9c a3bd
000000c0: af5f 22bd 7ca5 57bd 9022 893d 9d84 f5bc
000000d0: c585 f83c 1e6d 203c 2a45 35bd 2b92 2abc
000000e0: d02d 6cbd 95d4 46bc 89ed 9bbd 13a5 6ebd
000000f0: c62d 9fbd aff8 09bd aafb 03bd 0ce6 98bd
00000100: 399f 503c 5e85 efbc 6cc4 21be 6035 30bd
00000110: fe77 1ebd 9b02 b7bb 8a8d bf38 98a1 9c3c
00000120: e558 7ebd 66f9 01bd 5d81 a2bd 2c7a 81bd
00000130: 17d2 ddbc 9023 a8bc 4e15 8cbd 0faa f93c
00000140: 5bbd 7cbc 727f 90bd 03c9 1a3d 4813 4ebd
00000150: 4340 79bd c58a debc 089c 643d 74f5 54bd
00000160: df56 b73a 338f 1bbd 61a3 de3c 5a67 37bc
00000170: 09fb 72bd 9889 c4bb 49d9 10bd 310d bb3c
00000180: 64b4 583d efb9 173d d6d9 48bd 3dbd c0bd
00000190: 5b3c aebc 3dc3 15bd dbdf 90bd 59fa 62bb
000001a0: 2094 4abc a887 cbbc a1c9 ebbc eaaf 3cbd
000001b0: 409a 84bd c9da 91bd a133 2abd b205 9b3c
000001c0: d4d8 82bd 296d 3f3c c991 cdbc b27c eabd
000001d0: 171b 0f3d ebe2 073c f8fc cabd 42d8 c33c
000001e0: b93e 9dbc f031 24bc c909 4ebc ab4d 45bd
000001f0: 13a0 a0bd 5d1c cd3c f5bb 9dbd e4fc d5bd
00000200: 4a18 54bd 7c8a babd e58b 92bd f93a 4dbd
00000210: ebf9 6dbb b851 06bd bea1 81bd 6e7a 17bd
00000220: 6a72 cfbc 1b46 e9bd 2c3d 983a a278 223d
00000230: 529a 37bd ca15 b9bd 7055 a93b e275 e7bc
00000240: 7773 dc3b c75d 80bd 9189 68bd 243b 2ebd
00000250: 4c2d 2dbd 3f26 8ebd cd20 8dbd 677a 82bc
00000260: 9532 913c e1b5 9cbd 76bd 6bbd bb81 10bd
00000270: 1eb6 a5bd 11af adbd e76c 0fbd cbb6 b4bd
00000280: 317a 23bd 8d45 0abd a0b7 19bc f3f1 bbbd
00000290: 638e 8ebd 729d 6c3d 661b 073b c1cc babb
000002a0: 10f5 773c d5f7 88bd 7229 9dbc 72b9 cdbc
000002b0: d724 033d f8c8 d9bc 8185 f438 b0a1 1bbd
000002c0: a1c8 4fbd 6e84 95bd 118b 9f3d cab1 1e3d
000002d0: 87a1 15bc 9a38 52bd f772 d6bc 47cb 1c3c
000002e0: b97c 2bbc 9cbf 793d 5bad 523c fb7f 89bd
000002f0: 30ee 06bd b453 8cbd c067 4fbd 998d 89bd
00000300: 80eb 55bc 4f9d 29bd 8848 423c e806 0abd
00000310: 9acc 3ebd 926a b63d baee 4cbd b27c f0bd
00000320: 0686 51bd 171d 9cbb 9d51 473c cde5 d53b
00000330: 7774 9dbd c5f7 c6bc 80b5 51bd 5274 a83a
00000340: 4ad8 90bc 744b 16bd cf6b 1fbd 5426 39bd
00000350: c511 aebd 7782 44bd 180d 713b 3c7d 0bbd
00000360: 1c42 a8bd 8541 32bd be66 de3a 97ca 7ebc
00000370: 764b 05bd 2624 6ebd 6e20 33bd 6b63 88bd
00000380: d84f 8ebc e83b e2bc 6e4a 6abd 53c2 1cbd
00000390: 8829 35bd 4052 393d 0125 883a 1fb3 88bc
000003a0: 96f5 2ebd 888e ecbc 1f59 ff3c 44a2 54bd
000003b0: 06a0 43bd 1e91 83bd 62c9 1cbd b425 f43c
000003c0: c717 65bc 3082 6fbd 826d 52bc 694a 8f3c
000003d0: 05f5 0fbd c9fe d6bb 9add a7bb d717 43bc
000003e0: b5ef 07bd 1af9 47bd cb12 38bd 0776 3ebd
000003f0: e543 30bd 331c 15bd f0fa 743a f1c3 203a

network_body._body_endoder.seq_layers.2.weight f4 [256, 256]
-0.022457214 -0.029257521 -0.030173164 -0.049115334 -0.018256597 -0.041369125 0.008352453 0.10269136
0.011623317 -8.462223e-05 -0.08685146 0.09678437 -0.07994315 -0.16674957 -0.13414855 0.033019945
-0.045690663 -0.013415404 0.0123939235 -0.048677344 0.08609708 0.040116053 -0.023718508 -0.008266243
0.01853616 -0.05320234 -0.14922 -0.08822685 -0.046913516 0.011586893 -0.108666465 0.007076317
-0.07396187 -0.032115176 -0.012943793 -0.16231106 0.022106467 0.023546001 -0.028504126 0.015240325
-0.06555896 0.07033874 -0.063999824 -0.004874917 -0.14749274 0.015252188 -0.101283185 -0.06661508
0.021685226 0.025112394 -0.0538268 -0.06766563 0.036388677 0.045265365 0.017052025 -0.08325195
0.002823217 -0.081861444 0.031928554 -0.01965757 -0.0132876905 -0.07776602 0.024233662 -0.044783372
-0.034732874 0.040964514 0.036556758 0.060739085 -0.054615688 -0.08793358 -0.14319453 -0.029902374
-0.048230197 -0.013654113 0.039724104 -0.0736701 -0.027305607 0.018310366 -0.10155256 -0.053664327
-0.04655563 -0.030562626 -0.053547725 -0.052291535 -0.062127076 0.013781206 -0.14337943 -0.018377163
-0.011503063 -0.037618183 0.029256782 -0.13301803 0.036323074 -0.12068629 0.09598765 -0.03313044
0.013544051 0.03909715 0.05719337 0.06635755 -0.05735219 -0.035337113 -0.014046498 -0.017270058
-0.008354409 0.0108519085 -0.04499113 -0.13362382 0.05127566 -0.07530894 -0.13018441 0.056153093
0.049469855 0.04119847 0.030013138 0.016492348 0.041324083 -0.15318161 -0.10030904 -0.11409988
-0.0056687887 -0.05166423 0.11758055 -0.050642096 -0.018757151 -0.116267264 -0.123438574 -0.10583423
0.01573895 0.059406728 -0.006817641 -0.16917676 -0.12397426 -0.07650595 -0.13846318 -0.11787235
0.024537602 0.030836293 -0.059674017 -0.08796679 -0.10235778 -0.004110736 0.025732843 -0.07066108
-0.115166225 0.060300846 -0.06333447 0.05398265 -0.08934477 0.006504825 -0.052337375 0.0673529
-0.13353233 -0.15931554 -0.179 -0.024739515 -0.07576404 -0.067743696 -0.029614497 -0.001139069
-0.083966434 -0.019402979 -0.06271521 0.13105772 -0.0778535 -0.11809352 -0.08688956 -0.076862186
-0.022475868 -0.081178844 0.0012961334 -0.056850284 -0.05428815 -0.108656645 -0.026182601 -0.03211892
-0.14706911 -0.0014576839 -0.0464727 -0.13459502 -0.07099088 0.14640133 -0.11632067 -0.08210546
-0.11691137 -0.05053768 -0.05662782 -0.10485537 0.0014284425 0.14277889 -0.02408257 0.026342984
-0.10741623 -0.13703436 0.046296638 0.07739993 0.040858567 -0.0824438 -0.052650306 -0.07869613
0.03404117 -0.079622515 -0.17348127 -0.09575159 -0.15546443 0.15134053 -0.08495876 -0.07258899
0.056356676 -0.13470314 -0.03939467 -0.19583495 -0.014781171 -0.051182 -0.019239824 -0.07404104
-0.05395945 -0.041361798 0.02061728 -0.09019537 0.03725671 -0.039264888 -0.0034940212 -0.10858387
0.03241 -0.05544114 -0.04894381 0.14455977 -0.090148486 -0.20167704 -0.08365596 0.01713708
-0.009270595 0.031640764 -0.06590456 0.04780105 -0.1552518 -0.11123264 -0.108830385 -0.25410974
-0.057202533 0.050747816 -0.05965404 -0.10736421 -0.00035607076 -0.03191114 0.011617915 -0.061347727
0.04041856 -0.0033831282 0.011757088 -0.121922664 -0.12432535 -0.010659114 -0.14531502 -0.0733564
00000000: 31f8 b7bc 78ad efbc b62d f7bc 292d 49bd
00000010: dc8e 95bc ac72 29bd bad8 083c d94f d23d
00000020: ba6f 3e3c 3777 b1b8 2edf b1bd e236 c63d
00000030: 3cb9 a3bd 66c0 2abe 3d5e 09be ec3f 073d
00000040: 2226 3bbd 48cc 5bbc e20f 4b3c e561 47bd
00000050: aa53 b03d bb50 243d 514d c2bc 236f 07bc
00000060: 25d9 973c b2ea 59bd 21cd 18be 47b0 b4bd
00000070: 6328 40bd f4d6 3d3c 868c debd 73e0 e73b
00000080: 5279 97bd 348b 03bd 3412 54bc df34 26be
00000090: 9f18 b53c 8be3 c03c 7c81 e9bc 8eb2 793c
000000a0: c743 86bd c20d 903d 5712 83bd c5bd 9fbb
000000b0: 5608 17be 50e4 793c 8f6d cfbd 7d6d 88bd
000000c0: 37a5 b13c 82b8 cd3c 7e79 5cbd 4794 8abd
000000d0: 4b0c 153d 2d68 393d b0b0 8b3c 0080 aabd
000000e0: b905 393b f9a6 a7bd 84c7 023d ea08 a1bc
000000f0: 9db4 59bc cb43 9fbd ac85 c63c c56e 37bd
00000100: 0f44 0ebd 68ca 273d 8abc 153d 8cc9 783d
00000110: b3b4 5fbd 8516 b4bd 96a1 12be d3f5 f4bc
00000120: 078d 45bd 80b5 5fbc beb5 223d 59e0 96bd
00000130: 02b0 dfbc 9fff 953c cafa cfbd 20cf 5bbd
00000140: 1eb1 3ebd 795e fabc dc54 5bbd a62f 56bd
00000150: f678 7ebd 91ca 613c 0fd2 12be b48b 96bc
00000160: 5877 3cbc 8615 1abd ebab ef3c e135 08be
00000170: 81c7 143d 602a f7bd 2c95 c43d c9b3 07bd
00000180: dee7 5d3c 5524 203d 9843 6a3d 78e6 873d
00000190: 21ea 6abd a6bd 10bd 4823 66bc f079 8dbc
000001a0: eee0 08bc 34cc 313c 9e48 38bd afd4 08be
000001b0: 6d06 523d 933b 9abd 104f 05be c900 663d
000001c0: e7a0 4a3d babf 283d 1dde f53c f61a 873c
000001d0: 7143 293d a4db 1cbe d36e cdbd 33ad e9bd
000001e0: 3fc1 b9bb df9d 53bd 12ce f03d 166e 4fbd
000001f0: 99a8 99bc 881d eebd 5dcd fcbd 9ebf d8bd
00000200: f8ee 803c 7854 733d 8566 dfbb ac3c 2dbe
00000210: 38e6 fdbd 27af 9cbd 4bc9 0dbe 0f67 f1bd
00000220: 1503 c93c 659c fc3c be6c 74bd ef27 b4bd
00000230: f5a0 d1bd 5ab3 86bb afcd d23c c2b6 90bd
00000240: 45dc ebbd 05fe 763d 81b5 81bd e91c 5d3d
00000250: 64fa b6bd 6d26 d53b b75f 56bd 51f0 893d
00000260: b3bc 08be 9d23 23be c74b 37be 86aa cabc
00000270: 2d2a 9bbd 35bd 8abd 1a9a f2bc d04c 95ba
00000280: 98f6 abbd fff2 9ebc d570 80bd ff33 063e
00000290: a871 9fbd 04db f1bd 27f3 b1bd ec69 9dbd
000002a0: 501f b8bc 1841 a6bd 05e3 a93a d8db 68bd
000002b0: 405d 5ebd 6087 debd e57c d6bc 218f 03bd
000002c0: 4999 16be c10f bfba 285a 3ebd 47d3 09be
000002d0: ab63 91bd 3bea 153e 8839 eebd e826 a8bd
000002e0: 3a6f efbd 9900 4fbd 93f2 67bd 6abe d6bd
000002f0: 943a bb3a a134 123e cf48 c5bc 3ecd d73c
00000300: 0afd dbbd bc52 0cbe 8ba1 3d3d db83 9e3d
00000310: 505b 273d 4cd8 a8bd d9a7 57bd 702b a1bd
00000320: c16e 0b3d 2111 a3bd 13a5 31be 6919 c4bd
00000330: 1132 1fbe 03f9 1a3e dcfe adbd 89a9 94bd
00000340: 42d6 663d 9fef 09be 4e5c 21bd f588 48be
00000350: ba2c 72bc 38a4 51bd d69c 9dbc d4a2 97bd
00000360: 9604 5dbd fd6a 29bd 92e5 a83c 5ab8 b8bd
00000370: 7e9a 183d 38d4 20bd f3fb 64bb 3861 debd
00000380: 59c0 043d 4016 63bd 4e79 48bd 7a07 143e
00000390: c59f b8bd 6d84 4ebe d153 abbd 1063 8c3c
000003a0: b2e3 17bc bf99 013d f8f8 86bd 09cb 433d
000003b0: 54fa 1ebe f0cd e3bd 77e2 debd ac1a 82be
000003c0: 344d 6abd f1dc 4f3d cb57 74bd c4e1 dbbd
000003d0: 02af bab9 41b5 02bd 1159 3e3c c147 7bbd
000003e0: ef8d 253d 79b7 5dbb cda0 403c 97b2 f9bd
000003f0: 4a9e febd 91a3 2ebc 76cd 14be e13b 96bd

network_body._body_endoder.seq_layers.4.bias f4 [256]
-0.004715032 0.02870137 -0.0666713 -0.04089353 -0.027638841 -0.051768098 0.001612913 -0.050874043
-0.032184336 -0.09683039 -0.017912086 0.020386731 -0.057057954 -0.0017504726 -0.083668284 -0.05570937
-0.040524624 -0.029662346 -0.0024719678 -0.060243234 -0.049553655 -0.08382874 -0.08285861 -0.05947787
-0.050499003 -0.14425053 -0.042538453 -0.04800781 -0.060075644 -0.044906873 -0.074250996 -0.044953004
0.0155747095 -0.01311713 0.003468966 -0.013992083 -0.039472084 -0.07799338 -0.023757309 -0.07877187
-0.022682702 -0.08969451 -0.06684852 -0.04604007 -0.031591933 -0.06416268 -0.013804857 -0.016093485
-0.0716921 0.005265482 -0.044814054 -0.013104858 0.0036650845 0.0027758994 0.07876444 -0.13938294
-0.031098275 0.0028712188 -0.04638852 0.042821113 -0.027719395 -0.05923652 0.033768013 -0.031850886
0.03316924 -0.08158585 -0.06529589 -0.04562075 -0.11745791 0.036477964 -0.051735744 -0.034983516
-0.07867519 -0.07752057 -0.05360829 -0.12114808 -0.045448303 -0.006191248 -0.037745446 -0.054718886
-0.021081999 -0.07826998 -0.072887465 -0.085241646 -0.060286887 -0.066781245 0.086069345 -0.036766116
-0.02208672 -0.013198509 -0.10421594 0.013177849 -0.0053502363 -0.06589901 -0.064523205 0.00060713844
-0.08638286 0.021327779 0.012136974 -0.021008847 -0.050051574 -0.049769975 -0.11153362 -0.022496186
-0.08311604 -0.004656297 -0.06616171 -0.07643442 -0.04332938 -0.10569005 -0.046204556 0.007157466
-0.044666056 -0.03257074 0.009220129 -0.023094881 -0.008095467 -0.00628742 -0.0874544 0.015669238
-0.019853711 -0.074436866 -0.07702695 -0.09270605 -0.0015433644 -0.0026377959 -0.008418226 0.0076959627
0.038065527 -0.0038878836 -0.015180131 -0.08679807 -0.07308347 -0.09206171 -0.070845455 -0.14704712
-0.10966303 -0.03397858 -0.092905 -0.04665 -0.05626579 -0.09093606 -0.11517913 0.024371047
-0.026208669 -0.04755981 0.024841998 0.0036877154 -0.03939649 0.026548773 -0.008363475 -0.070706114
-0.007834109 -0.061534375 -0.04386436 -0.110012524 -0.07205712 -0.037957493 -0.1268878 -0.007614739
-0.007075286 0.051045626 -0.10010628 0.051692884 -0.057779003 -0.10175135 -0.055309396 0.003733366
-0.08167665 -0.08531528 -0.046130925 -0.14041148 0.055885673 0.014219919 -0.045806702 -0.034474388
-0.043033663 -0.08632234 -0.0308903 -0.04330757 -0.046071153 0.015740981 -0.049534723 -0.11530523
-0.06969972 -0.03622436 0.003345586 0.0063593504 -0.05416237 -0.08988284 -0.06904466 -0.018279577
0.0017490205 -0.07057942 0.054370213 -0.046217285 -0.12580849 0.0110935625 -0.056856126 -0.06984144
-0.048804067 -0.043508325 -0.060525756 -0.029025093 -0.024386428 -0.06063166 0.014879464 0.013693387
-0.0015939069 0.05341547 -0.10778574 0.01050829 -0.045066938 -0.017293913 -0.08789029 -0.017999506
-0.02216905 -0.027469829 -0.15961814 -0.028352201 -0.0068496396 -0.00072106393 -0.08260276 -0.123219475
-0.07997935 -0.0407168 0.008745459 -0.020714791 -0.039488807 -0.05821957 -0.07942626 -0.061508734
-0.056808047 -0.06683613 0.020941868 -0.007802633 -0.04843022 -0.042026646 -0.05780437 -0.018881094
-0.013983965 -0.042017676 0.007323686 -0.044415765 -0.05615592 -0.006357219 0.06553019 -0.11262291
-0.028714795 -0.025459152 0.011300919 -0.09488633 -0.022288352 -0.00899101 -0.0054880083 -0.0120267635
00000000: 8e80 9abb 231f eb3c f68a 88bd f97f 27bd
00000010: da6a e2bc c90a 54bd 6168 d33a 4d61 50bd
00000020: b9d3 03bd 034f c6bd 5ebc 92bc 1302 a73c
00000030: 9ab5 69bd 1d70 e5ba 475a abbd 822f 64bd
00000040: 26fd 25bd 73fe f2bc bd00 22bb 9cc1 76bd
00000050: c6f8 4abd 67ae abbd c6b1 a9bd 119f 73bd
00000060: 0bd8 4ebd 69b6 13be cd3c 2ebd d6a3 44bd
00000070: e111 76bd 45f0 37bd e810 98bd a420 38bd
00000080: 112d 7f3c 3be9 56bc 9857 633b 0d3f 65bc
00000090: 7bad 21bd feba 9fbd b09e c2bc 2553 a1bd
000000a0: 13d1 b9bc c1b1 b7bd e0e7 88bd 8394 3cbd
000000b0: 8b66 01bd b967 83bd c42d 62bc 7cd6 83bc
000000c0: 4fd3 92bd 108a ac3b f18e 37bd c2b5 56bc
000000d0: ea31 703b ddeb 353b 404f a13d 67ba 0ebe
000000e0: cfc1 febc 0f2b 3c3b e401 3ebd 3165 2f3d
000000f0: c913 e3bc fea1 72bd 5450 0a3d 1376 02bd
00000100: 78dc 073d 7b16 a7bd dab9 85bd d3dc 3abd
00000110: c68d f0bd eb69 153d dce8 53bd e04a 0fbd
00000120: 7520 a1bd 1bc3 9ebd 5e94 5bbd 7c1c f8bd
00000130: 0028 3abd f4df cabb f89a 1abd e920 60bd
00000140: 28b4 acbc 034c a0bd 0646 95bd 2c93 aebd
00000150: 62ef 76bd 9bc4 88bd 2045 b03d 1198 16bd
00000160: 36ef b4bc 8f3e 58bc 2b6f d5bd e8e7 573c
00000170: 0951 afbb 0ff6 86bd be24 84bd 5f28 1f3a
00000180: 7fe9 b0bd 98b7 ae3c 29da 463c bf1a acbc
00000190: e102 4dbd 9adb 4bbd bd6b e4bd ec49 b8bc
000001a0: be38 aabd da93 98bb ca7f 87bd a689 9cbd
000001b0: 267a 31bd 0674 d8bd fd40 3dbd 2d89 ea3b
000001c0: c1f3 36bd e568 05bd 0610 173c 7a31 bdbc
000001d0: daa2 04bc b406 cebb 4b1b b3bd c65c 803c
000001e0: 40a4 a2bc 5b72 98bd 4ec0 9dbd abdc bdbd
000001f0: b74a caba dfde 2cbb 99ec 09bc 6a2e fc3b
00000200: 99ea 1b3d ddcb 7ebb 16b6 78bc 30c3 b1bd
00000210: c9ac 95bd da8a bcbd 6c17 91bd 8593 16be
00000220: 0397 e0bd 202d 0bbd fa44 bebd 1214 3fbd
00000230: f576 66bd af3c babd 09e3 ebbd caa5 c73c
00000240: 90b3 d6bc 13ce 42bd 7281 cb3c 99ad 713b
00000250: 375e 21bd d07c d93c f506 09bc 5ece 90bd
00000260: a25a 00bc 780b 7cbd 1dab 33bd 3f4e e1bd
00000270: af92 93bd 5179 1bbd e0ee 01be 0f85 f9bb
00000280: cdd7 e7bb 3815 513d 8504 cdbd ebbb 533d
00000290: ada9 6cbd 0363 d0bd 1b8c 62bd 7dab 743b
000002a0: 1646 a7bd c7b9 aebd c8f3 3cbd 07c8 0fbe
000002b0: 60e8 643d aafa 683c cf9f 3bbd 0435 0dbd
000002c0: 1144 30bd c4c9 b0bd a80d fdbc 4763 31bd
000002d0: 1bb5 3cbd 3bf3 803c ece4 4abd 2625 ecbd
000002e0: babe 8ebd ff5f 14bd 9e41 5b3b 1962 d03b
000002f0: 5cd9 5dbd 7f14 b8bd 4967 8dbd 0dbf 95bc
00000300: 643f e53a f18b 90bd 4db3 5e3d 564e 3dbd
00000310: f1d3 00be c6c1 353c f8e1 68bd 0709 8fbd
00000320: c6e6 47bd c935 32bd dbe9 77bd 08c6 edbc
00000330: 0cc6 c7bc e758 78bd ffc8 733c 3a5a 603c
00000340: a4ea d0ba 2eca 5a3d c5be dcbd f62a 2c3c
00000350: 1c98 38bd f7ab 8dbc d3ff b3bd b373 93bc
00000360: de9b b5bc 6808 e1bc f072 23be e042 e8bc
00000370: f172 e0bb c805 3dba a32b a9bd 7e5a fcbd
00000380: 37cc a3bd a9c6 26bd 1d49 0f3c 11b2 a9bc
00000390: 04bf 21bd a577 6ebd 3caa a2bd 95f0 7bbd
000003a0: 8eaf 68bd 62e1 88bd 488e ab3c 3bad ffbb
000003b0: c45e 46bd 2224 2cbd 46c4 6cbd 86ac 9abc
000003c0: 001d 65bc ba1a 2cbd 88fb ef3b 4eed 35bd
000003d0: c003 66bd 3850 d0bb b134 863d d7a6 e6bd
000003e0: 4a3b ebbc b68f d0bc 7d27 393c c453 c2bd
000003f0: 1096 b6bc 074f 13bc c0d4 b3bb e70b 45bc

network_body._body_endoder.seq_layers.4.weight f4 [256, 256]
-0.031499125 -0.05479814 -0.13737336 -0.07061559 0.043884493 0.17498817 -0.13369744 0.0021818376
-0.14590764 -0.15808694 0.078587554 -0.13583085 0.20231685 0.09082202 -0.0084439125 0.16192825
0.060344733 -0.091515526 -0.04853471 0.15647504 0.026469328 -0.026416764 -0.15177333 0.030471444
0.031878587 0.07233216 0.057519853 -0.0568334 -0.04380436 0.34528267 -0.08996911 -0.15092568
-0.04745994 -0.07968597 -0.03826767 0.058553733 0.11789599 0.04489579 -0.019767448 0.091372065
0.046515536 -0.014666232 0.06017573 -0.051092014 0.040928263 0.043558244 0.14885937 -0.055134386
0.036344975 -0.112615794 -0.017633853 -0.06383304 -0.21441263 -0.10839603 -0.05081404 -0.04592953
0.069553584 0.090634055 0.20987406 0.055055756 0.13454062 0.08153156 -0.021577472 -0.034921873
-0.17187656 0.073440775 -0.055155035 0.014350898 0.032105558 0.05768519 -0.07310109 0.029672114
0.08115012 -0.11714025 -0.20652798 0.04440469 -0.015561341 0.0012121105 0.11164712 -0.012442232
0.06257676 -0.024987752 -0.08034112 -0.055812813 0.01375331 -0.018506303 -0.006648128 -0.009353122
-0.13864505 -0.0065845326 -0.10487972 -0.042407855 0.13166015 -0.08570968 0.08210388 0.0142205665
-0.06440378 0.04847468 0.014450907 -0.15388848 0.0032585778 0.04252248 -0.03464084 0.049763653
0.10274652 0.005188296 0.008375158 0.007150842 0.01162946 -0.034301575 -0.12877472 -0.12182421
0.00420557 0.026558414 0.091751695 0.013682637 0.06441289 -0.017120194 0.22856654 -0.017486796
-0.023623204 0.0327824 -0.021379493 -0.047506534 -0.018503567 0.03784524 -0.016758928 -0.03673327
-0.03644897 0.05250057 -0.08033704 -0.13664159 -0.14087199 0.05887607 0.03496965 0.14824517
-0.013066278 0.076080635 -0.14723252 0.051899128 -0.040304963 0.014505191 0.0023702462 0.1995481
0.017613472 -0.06460015 0.021126296 -0.09827218 -0.10390011 0.10761566 0.12982978 0.08892114
0.037650775 -0.021153096 0.003892878 -0.027543558 0.056780502 -0.076860614 -0.096468806 0.16940506
0.16647346 -0.09697071 -0.10970646 0.012882596 0.16782585 -0.013109132 0.17043775 -0.0070342356
-0.020391677 0.010762234 -0.054350615 0.04450279 -0.004917265 -0.03941909 0.09714845 0.12467675
-0.13912208 -0.074405454 -0.020965474 -0.04814772 0.17498203 0.025198434 0.07787292 0.022717511
-0.09112543 -0.12745792 0.026004184 -0.002852361 -0.07487 -0.15127774 0.059291873 0.011798591
0.12284481 -0.06018356 0.00053633464 0.019965433 -0.096910715 -0.051086314 -0.15062945 0.13753602
0.085226454 -0.015938058 0.26987305 0.15333118 0.2069422 -0.021842323 -0.06279861 -0.08424269
-0.017120954 0.12202078 -0.02053008 -0.15579276 -0.22368237 -0.0013711011 0.16273952 0.17237535
-0.013058935 0.058840718 -0.05961871 0.19020759 0.06823904 0.047479477 0.0959865 -0.0076143607
0.14090577 0.0419838 0.07521976 0.10459621 -0.029686145 0.046185203 0.03275064 -0.05024521
-0.030250067 -0.05652123 -0.21463133 0.028895808 0.052985236 0.15523063 0.011618345 -0.030361602
0.02481179 -0.07293497 -0.0045208805 -0.15837522 -0.019976575 -0.032333422 -0.015925223 -0.06869324
0.0656473 0.014426244 0.022218581 0.17485158 0.089648895 -0.09027932 0.09331408 -0.0037764949
00000000: 3a05 01bd 0474 60bd 9aab 0cbe e89e 90bd
00000010: 3ac0 333d 1930 333e fbe7 08be 29fd 0e3b
00000020: d068 15be 8be1 21be 83f2 a03d 3e17 0bbe
00000030: 262c 4f3e e500 ba3d 5658 0abc 85d0 253e
00000040: 0a2c 773d 7e6c bbbd 55cc 46bd fe3a 203e
00000050: 34d6 d83c f867 d8bc 786a 1bbe 409f f93c
00000060: 1f93 023d e222 943d f099 6b3d 24ca 68bd
00000070: 336c 33bd e4c8 b03e ba41 b8bd 438c 1abe
00000080: 5b65 42bd 6632 a3bd 8fbe 1cbd 0ad6 6f3d
00000090: 7473 f13d a6e4 373d 58ef a1bc 4721 bb3d
000000a0: 1387 3e3d a34a 70bc d47a 763d dc45 51bd
000000b0: 65a4 273d 216a 323d 976e 183e 98d4 61bd
000000c0: 78de 143d 1ca3 e6bd df74 90bc e6ba 82bd
000000d0: fc8e 5bbe bdfe ddbd 6222 50bd 9a20 3cbd
000000e0: 1c72 8e3d 599e b93d 3ae9 563e 2582 613d
000000f0: 04c5 093e 05fa a63d 3dc3 b0bc 3d0a 0fbd
00000100: 6900 30be 1e68 963d 3fea 61bd 0720 6b3c
00000110: 1e81 033d 4e47 6c3d 06b6 95bd ef12 f33c
00000120: 0932 a63d 3ae7 efbd 127c 53be b1e1 353d
00000130: fff4 7ebc aedf 9e3a 3fa7 e43d 81da 4bbc
00000140: 3f28 803d 1db3 ccbc e389 a4bd fa9b 64bd
00000150: 9055 613c 889a 97bc 8ad8 d9bb d63d 19bc
00000160: f8f8 0dbe 10c3 d7bb 2ecb d6bd dcb3 2dbd
00000170: ebd1 063e 8f88 afbd 1426 a83d 61fd 683c
00000180: 21e6 83bd 638d 463d 7fc3 6c3c f194 1dbe
00000190: dd8d 553b 0d2c 2e3d 8ee3 0dbd f9d4 4b3d
000001a0: c46c d23d 9502 aa3b f537 093c 9c51 ea3b
000001b0: 7e89 3e3c cf7f 0cbd 85dd 03be f97e f9bd
000001c0: e1ce 893b 0891 d93c 50e8 bb3d 242d 603c
000001d0: e8ea 833d a63f 8cbc 590d 6a3e 7840 8fbc
000001e0: 7385 c1bc d646 063d 0c24 afbc 3696 42bd
000001f0: cb94 97bc 9c03 1b3d 054a 89bc a075 16bd
00000200: 844b 15bd d60a 573d bf87 a4bd c6eb 0bbe
00000210: bf40 10be 0928 713d 563c 0f3d 95cd 173e
00000220: f113 56bc 2ad0 9b3d 1fc4 16be 2e94 543d
00000230: d116 25bd 2ea7 6d3c 2256 1b3b 5656 4c3e
00000240: 214a 903c 154d 84bd 0e11 ad3c ed42 c9bd
00000250: 95c9 d4bd 9965 dc3d 19f2 043e 491c b63d
00000260: b337 1a3d 4249 adbc a81f 7f3b 07a3 e1bc
00000270: ac92 683d 1969 9dbd 7091 c5bd 8578 2d3e
00000280: 0578 2a3e 9498 c6bd c8ad e0bd 8611 533c
00000290: 8ada 2b3e afc7 56bc 3c87 2e3e 727f e6bb
000002a0: 720c a7bc 1554 303c c09e 5ebd 8f48 363d
000002b0: 0221 a1bb e975 21bd c4f5 c63d 8656 ff3d
000002c0: 0576 0ebe e361 98bd c9bf abbc 8b36 45bd
000002d0: 7d2e 333e f26c ce3c d67b 9f3d 131a ba3c
000002e0: f89f babd 5484 02be ba06 d53c adee 3abb
000002f0: 7155 99bd 8de8 1abe 09dc 723d e14e 413c
00000300: 0f96 fb3d 0983 76bd cf98 0c3a 8c8e a33c
00000310: 2079 c6bd e23f 51bd 9b3e 1abe 3ed6 0c3e
00000320: 358b ae3d 8890 82bc cd2c 8a3e d902 1d3e
00000330: a8e8 533e acee b2bc 8f9c 80bd 6e87 acbd
00000340: 3e41 8cbc 08e6 f93d b32e a8bc 2388 1fbe
00000350: fe0c 65be 85b6 b3ba 30a5 263e 2a83 303e
00000360: 25f5 55bc f702 713d c032 74bd c7c5 423e
00000370: e9c0 8b3d d779 423d 9294 c43d e381 f9bb
00000380: 9a49 103e 34f7 2b3d d10c 9a3d 8a36 d63d
00000390: 5c30 f3bc b22c 3d3d 8925 063d eccd 4dbd
000003a0: fdce f7bc ce82 67bd 51c8 5bbe e7b6 ec3c
000003b0: 0c07 593d c7f4 1e3e df5a 3e3c e5b8 f8bc
000003c0: 1842 cb3c ee5e 95bd e523 94bb 1d2d 22be
000003d0: eaa5 a3bc 0d70 04bd 9d75 82bc 0baf 8cbd
000003e0: 1772 863d 0e5c 6c3c be03 b63c 4b0c 333e
000003f0: d799 b73d 5de4 b8bd 741b bf3d 127f 77bb
