results/Drone3/Drone/Drone-528870.onnx (onnx, 810629 bytes, 11 tensors)

action_model._continuous_distribution.log_sigma f4 [1, 4]
0	0xbdb0924f	-0.08621656
1	0xbdb7be9b	-0.08971902
2	0xbd9a589f	-0.075364344
3	0xbdb76998	-0.08955687

action_model._continuous_distribution.mu.bias f4 [4]
0	0xbbdb4888	-0.006691996
1	0x3b930ee3	0.0044878586
2	0xbbe5aad3	-0.007008889
3	0xbbbefdd1	-0.005828597

action_model._continuous_distribution.mu.weight f4 [4, 256]
0	0x3c19e024	0.009391818
1	0xbb43408b	-0.002979311
2	0x3b72f0f3	0.0037069886
3	0x3c32e064	0.010917757
4	0x3c9af544	0.01891578
5	0x3a6f2010	0.0009121904
6	0xbc4c476f	-0.012468203
7	0x3b80112b	0.0039082966
8	0xbb79db90	-0.0038125254
9	0xbc8528c3	-0.016254788
10	0xbc452e06	-0.012034899
11	0x3c882a9f	0.016621886
12	0x3ccd7865	0.025081823
13	0xb87c1fe9	-6.01112e-05
14	0x3cb32552	0.021868382
15	0xbc28bb6f	-0.010298594
16	0xbc7b2746	-0.015329188
17	0xbb6da4ff	-0.0036261675
18	0xbbc4c86f	-0.006005339
19	0x3ba650cf	0.005075551
20	0x3ca55cd4	0.020185865
21	0xbbc876d2	-0.00611768
22	0x3bd4e74c	0.0064972993
23	0xba1ae86c	-0.00059092673
24	0x3c9dbfbc	0.019256465
25	0xbc4619f5	-0.01209115
26	0xbb0effc0	-0.002181992
27	0x3c664b8c	0.014056098
28	0xbbca75f7	-0.0061786133
29	0xbcbda322	-0.023149077
30	0xbc82ae64	-0.015952297
31	0x3b524f56	0.0032090745
32	0x3c054111	0.008133189
33	0x3b3485a0	0.0027545467
34	0xbb0f283a	-0.0021844045
35	0x3cba606e	0.02275106
36	0x3b22f171	0.0024863149
37	0x3c1c58d8	0.009542666
38	0xbb4603cf	-0.0030214672
39	0xbc6c98fc	-0.014440771
40	0xbc15ac8e	-0.0091353785
41	0x3cbd2150	0.023087174
42	0x3c7f290a	0.015573749
43	0x3bfc425d	0.007698341
44	0x396fcb7d	0.00022868621
45	0xbcb31e72	-0.021865103
46	0xbaa38fdb	-0.0012478785
47	0xba27960e	-0.00063929043
48	0x3c900ae6	0.017583322
49	0x3b3d31c2	0.002886877
50	0x3c5dc437	0.013535551
51	0x3ba4d323	0.0050300523
52	0x3c4026ed	0.011728031
53	0xbc6c50a4	-0.014423523
54	0xbc43e749	-0.011956998
55	0x3a9e460a	0.0012075317
56	0xbc3ee9b9	-0.0116524035
57	0xbbfa918d	-0.0076467455
58	0xbc8560a7	-0.016281439
59	0x3ce37fe4	0.027770944
60	0x3c7a15d9	0.015263998
61	0x3aaf5dc0	0.001337938
62	0x3cb19baf	0.021680681
63	0x3c53a94f	0.012918784
64	0x3bd73ef2	0.006568783
65	0xbc336adb	-0.010950769
66	0x3c0bc36e	0.008530481
67	0x38b30e0b	8.538001e-05
68	0x3cb448d4	0.022007383
69	0x3b3a87e3	0.0028462342
70	0x3b16f43a	0.0023033754
71	0xbb8590ab	-0.0040760837
72	0x3c16ea00	0.009211063
73	0xba498061	-0.00076866715
74	0x393ee3fe	0.00018204746
75	0x3bbcf41c	0.005766405
76	0xbbe2c79f	-0.0069207693
77	0xbcc498cd	-0.023998642
78	0x3cf06b0b	0.029347917
79	0x3c6164f5	0.01375698
80	0xbc9aa067	-0.018875314
81	0x3c57fe52	0.013183193
82	0x3b99cc9e	0.0046935817
83	0xbc6a6b2c	-0.014307778
84	0x3baf04e9	0.0053411615
85	0xbd001d3a	-0.031277873
86	0x3c1d60c1	0.009605587
87	0x3cc9ba9c	0.024625115
88	0x3c06a272	0.008217441
89	0x3c32bbcd	0.010909033
90	0x3bdaf9cd	0.0066826106
91	0x3c09c687	0.008409149
92	0x3cec1404	0.028818138
93	0xbb7c43de	-0.00384926
94	0x3b91d905	0.0044509196
95	0x3c8c5abb	0.017133107
96	0xbb2496b4	-0.002511424
97	0x3c14c7a9	0.009080806
98	0x39b42f93	0.0003436772
99	0xbcbebddd	-0.023283893
100	0xbcf5c6cb	-0.030002018
101	0xbbea84e5	-0.0071569555
102	0x3c17ad94	0.009257693
103	0xbc20a494	-0.0098048635
104	0xbc8a7309	-0.016900556
105	0x3abfa281	0.0014620573
106	0x3ad163e3	0.0015975203
107	0x3a89091c	0.0010454985
108	0xbd2172e9	-0.039416227
109	0xbc6a12cb	-0.014286707
110	0x3b873cec	0.0041271355
111	0x3bbfcca4	0.0058532525
112	0x3cf451c4	0.029824145
113	0x3c4dc81d	0.012559918
114	0xbb2134b9	-0.0024598076
115	0x3bbe5545	0.0058085048
116	0xbceb87f9	-0.02875136
117	0x3d252d28	0.040326267
118	0xbc9820d8	-0.018570349
119	0xbc0c84e3	-0.008576605
120	0xbc3eb114	-0.011638898
121	0xbc6e34b8	-0.014538936
122	0x3cd1f902	0.025631431
123	0xbc943652	-0.018092308
124	0xbad0e681	-0.0015937836
125	0x3ade0df5	0.0016941415
126	0x38ce2273	9.829262e-05
127	0xbcb8d1ef	-0.022561042
128	0x3b97b337	0.0046295184
129	0xbaa86499	-0.0012847363
130	0x3b5dd38e	0.003384802
131	0x3c4a1d26	0.012336051
132	0x3b7f677d	0.0038971596
133	0x3bae88fa	0.0053263875
134	0x3c1855c3	0.009297791
135	0xbc92065d	-0.0178253
136	0x3d059a34	0.032617763
137	0xbc33df7e	-0.010978578
138	0x3ba57b8b	0.005050128
139	0x3bb2ccae	0.0054565286
140	0x3bfb991e	0.007678165
141	0x3b22f7c7	0.0024866925
142	0xbb6f5464	-0.0036518807
143	0x3cc4d0af	0.02402529
144	0x3bbb683e	0.0057192137
145	0xba915b78	-0.0011089882
146	0xbd00343e	-0.031299822
147	0x3c593774	0.01325785
148	0xbc8433ba	-0.016137946
149	0xbad52936	-0.0016262892
150	0xbc65c863	-0.014024827
151	0xbc2ce8b5	-0.010553529
152	0x3c4d84c6	0.012543863
153	0xbc200e23	-0.009768995
154	0xbbf7b5c9	-0.0075595123
155	0x3b28c6a6	0.002575317
156	0x3bc74310	0.0060809925
157	0x3ca75df3	0.02043054
158	0x3a4aa92f	0.0007730899
159	0xbc7811f3	-0.015140998
160	0x3a77f3a7	0.0009458609
161	0x3cc502e2	0.024049226
162	0xba4b5baa	-0.00077574945
163	0xbc85579b	-0.016277125
164	0x3cd7a7bd	0.026325101
165	0x3ce7eb20	0.028310359
166	0xbca70783	-0.020389324
167	0x3cf75a34	0.03019438
168	0xbbd7945b	-0.0065789646
169	0xbadba673	-0.001675798
170	0xbc24bf6d	-0.010055405
171	0xbce96cda	-0.028494287
172	0x3d30c1be	0.043153517
173	0xbbf8c371	-0.007591658
174	0x3cdc32cf	0.026879696
175	0x3bfefc16	0.007781516
176	0xbcc62dae	-0.024191704
177	0x3c2bf6d0	0.010495856
178	0xbb5fae20	-0.0034130886
179	0x3c11eb1c	0.008906152
180	0xbb519825	-0.0031981554
181	0x3c6b0e0e	0.014346613
182	0xbb28396f	-0.0025668999
183	0xbb8d712d	-0.00431647
184	0xbcc61a7a	-0.024182547
185	0x3b45e8f0	0.0030198656
186	0x3b993539	0.004675534
187	0xbcfcae66	-0.030844878
188	0xbc8bb04e	-0.017051842
189	0x3c8d81b2	0.017273758
190	0xbc6d9229	-0.014500179
191	0x3c84267d	0.016131634
192	0xbc82a4f2	-0.015947793
193	0xba3cfbd2	-0.0007209155
194	0x3c9811af	0.01856312
195	0xba904206	-0.0011006005
196	0x3cd163f7	0.025560362
197	0xbbdd27a9	-0.0067491126
198	0xbc0c4c3b	-0.008563097
199	0x3c1f0998	0.009706877
200	0xbba29418	-0.004961502
201	0x3c98e676	0.01866458
202	0xbb39592e	-0.0028281915
203	0x3c5464e5	0.012963508
204	0xbc906726	-0.01762731
205	0xbb16d52c	-0.0023015244
206	0xbcb9245d	-0.022600347
207	0x3cc60d31	0.024176212
208	0x3a1e1269	0.0006029965
209	0xbc051e68	-0.008124925
210	0xbc3c167a	-0.011479968
211	0xba604550	-0.000855525
212	0x3c510c69	0.0127593065
213	0x3c19f293	0.009396213
214	0x3c39ce1c	0.011340644
215	0x3b02071b	0.001984066
216	0xbc979e70	-0.018508166
217	0x3ce712d2	0.028207216
218	0xbaf685b1	-0.0018808154
219	0x3b53d601	0.0032323601
220	0x3b8e105f	0.0043354477
221	0xbb9fce78	-0.004876908
222	0xbbfbed44	-0.0076881964
223	0xbbc4e1d0	-0.0060083643
224	0xbb61d43d	-0.003445878
225	0xbaf36708	-0.0018570134
226	0xbc5e2052	-0.01355751
227	0x3be1420e	0.0068743294
228	0x3c3cdff3	0.011528003
229	0x3c1ebebf	0.009689032
230	0x3ccf84d9	0.025331901
231	0x3c44c50a	0.012009868
232	0xbba3e712	-0.005001911
233	0xbc9a4085	-0.018829593
234	0x3bdd2098	0.0067482702
235	0x3cb5a588	0.022173658
236	0x39dc0809	0.00041967657
237	0x3c0c668d	0.008569372
238	0xbc694030	-0.014236495
239	0xbc9117c3	-0.017711526
240	0xbc03dac0	-0.0080477595
241	0x3cbdbb25	0.023160527
242	0x3be9c9bc	0.0071346443
243	0xbc50dc80	-0.012747884
244	0x3c4abd10	0.012374178
245	0xbaa4931c	-0.0012556049
246	0xbc4e68eb	-0.012598257
247	0x3a823815	0.0009934927
248	0x3acfa7c6	0.0015842847
249	0x3c192f0e	0.009349598
250	0xbbfeb29c	-0.0077727567
251	0x3ca19fa7	0.019729448
252	0xbc2a0fe4	-0.010379765
253	0x3c1c7d25	0.009551321
254	0xbbeab23c	-0.0071623605
255	0xbd17ea92	-0.037088938

network_body._body_endoder.seq_layers.0.bias f4 [256]
0	0x3cf2cae1	0.029637756
1	0xbcc914ad	-0.024545992
2	0x3cec80fd	0.0288701
3	0x3b9a3bfb	0.0047068573
4	0x3bb42533	0.0054975986
5	0xbb0462be	-0.0020200456
6	0x3c9227bd	0.017841214
7	0x3b457b9d	0.0030133494
8	0xbc18efca	-0.009334514
9	0x3bdcfae6	0.0067437766
10	0xbc9379c5	-0.0180024
11	0x3bcc7410	0.0062394217
12	0x3cdf881b	0.02728658
13	0xbc1e4ce5	-0.009661888
14	0x3b02d83f	0.0019965318
15	0x3bd5f180	0.006529033
16	0x3d03745e	0.0320934
17	0x3b708624	0.0036701048
18	0xbc05499d	-0.008135227
19	0x3aec1a06	0.0018013127
20	0xbb9ca571	-0.0047804643
21	0xbc100c33	-0.008791971
22	0x3c9fade0	0.01949209
23	0xbbc4b24b	-0.0060026995
24	0xbb9d7d60	-0.0048062056
25	0x3c25a5c4	0.010110322
26	0xbb86311c	-0.0040952098
27	0x3a17d0ca	0.0005791305
28	0x3cc43879	0.02395271
29	0xbc2bce8b	-0.010486255
30	0xbbad4c11	-0.005288609
31	0x3b3daa83	0.0028940744
32	0x3c8b91d0	0.017037302
33	0x3c875b2f	0.016522972
34	0x3b98a7dc	0.0046586823
35	0xbc92e4ad	-0.017931307
36	0x3c9a9e7c	0.0188744
37	0xbc98e4be	-0.01866376
38	0xbbd297e5	-0.0064267986
39	0xbc4c99f2	-0.012487875
40	0xbbb1ed29	-0.005429883
41	0xbc20b01a	-0.009807611
42	0x3c0ee6fd	0.008722064
43	0x3c841767	0.01612444
44	0xbc8d1488	-0.017221704
45	0x3b268220	0.002540715
46	0x3b8f601f	0.004375472
47	0x3c29cc38	0.010363631
48	0x3c32ef16	0.01092126
49	0x3b200733	0.0024418354
50	0xbcc6f4de	-0.024286684
51	0xbc85da5d	-0.016339475
52	0xbbda3702	-0.0066593895
53	0x3bfc31ed	0.0076963813
54	0xbbc870c1	-0.006116957
55	0xbc28dee6	-0.010307049
56	0xbccbdcd8	-0.02488558
57	0x3b874926	0.004128593
58	0xbc11ed83	-0.008906725
59	0xbbe345fe	-0.006935834
60	0xbc778602	-0.015107634
61	0xba645113	-0.0008709591
62	0xbade5830	-0.0016963538
63	0xbc056f33	-0.008144188
64	0x3c1fd2ef	0.00975488
65	0xbc203468	-0.00977812
66	0xbc814057	-0.01577775
67	0x3bcfb6a8	0.006338913
68	0xbcc5a03a	-0.024124254
69	0x3ce54764	0.027988143
70	0xbbb60aab	-0.005555471
71	0xbd118bef	-0.03553384
72	0xb99d6002	-0.00030016905
73	0xbc0d5edc	-0.008628573
74	0xbcf9ba0c	-0.030484222
75	0xbabed355	-0.0014558831
76	0xbc7ccbf0	-0.015429482
77	0xbb9c87d1	-0.0047769328
78	0xbb8e6f37	-0.004346754
79	0xbbb066ad	-0.0053833337
80	0xbc0dbb4e	-0.008650614
81	0x3cdefcba	0.027220119
82	0xbc980572	-0.018557284
83	0x3b762c19	0.0037562905
84	0x3b97969b	0.004626108
85	0xbbcf29c5	-0.006322118
86	0xbcabd2a1	-0.02097446
87	0x3954e862	0.00020304465
88	0xbcc87b84	-0.02447296
89	0xbcc7a525	-0.02437074
90	0xbc439bc4	-0.011938993
91	0xbcb5169a	-0.022105504
92	0x3c74e1f7	0.014946452
93	0x3ca235d6	0.019801062
94	0xbbcb37e5	-0.0062017315
95	0xbc872bce	-0.01650038
96	0xbb0b89d0	-0.002129186
97	0xbc2a8c23	-0.010409388
98	0xbc801051	-0.01563278
99	0xbb4a251b	-0.003084487
100	0xbbd5c73a	-0.006523994
101	0x3933aabd	0.00017134375
102	0xbc16e27c	-0.0092092715
103	0xbc681a01	-0.014166356
104	0xbac3b796	-0.0014932032
105	0xbaceffc1	-0.0015792773
106	0x39bfb8b3	0.0003656797
107	0x3ca117ce	0.019664671
108	0x3c3b52f0	0.011433348
109	0x3bf34c3a	0.0074248584
110	0xbb1b127c	-0.002366214
111	0x3cb06bc0	0.021535754
112	0xbd03c43a	-0.032169558
113	0x3d0536b5	0.032522876
114	0x3c1767af	0.009241029
115	0x3b85ecda	0.004087073
116	0xbc4db7ec	-0.012556057
117	0x3c1129d7	0.008860073
118	0xbcc48268	-0.023987964
119	0xbc186e92	-0.009303706
120	0x3a9b7377	0.0011859973
121	0xbc925a89	-0.017865436
122	0xbc036ddd	-0.008021799
123	0x3badf724	0.0053090025
124	0x3c74c497	0.014939449
125	0x3ca0a300	0.019608974
126	0xbc26db15	-0.010184069
127	0x3a96c579	0.0011502943
128	0x3cf6901c	0.030098014
129	0xbbb466c2	-0.0055054137
130	0x3c79ffa2	0.0152587015
131	0x3d097968	0.033563048
132	0x3c34886d	0.011018855
133	0x3b3f2f75	0.0029172574
134	0x3c48434e	0.012223078
135	0xbc92f5a3	-0.017939394
136	0x3caca019	0.021072434
137	0xbbfe601e	-0.007762923
138	0xbc044c26	-0.008074796
139	0x3bbc8513	0.0057531684
140	0xbc9f6b45	-0.01946033
141	0x3c79e293	0.015251773
142	0xbc75854b	-0.014985393
143	0xbc2d987a	-0.010595435
144	0xbca1f3ab	-0.01976951
145	0x3be2f396	0.0069260104
146	0xb9f5f588	-0.00046912977
147	0xbc8afc88	-0.01696612
148	0xba2c7f94	-0.000658029
149	0xbc0d9395	-0.008641143
150	0x3b5b00a1	0.0033417123
151	0xbad8f7c4	-0.0016553332
152	0x3c6032b5	0.0136839645
153	0x3c4a2d15	0.01233985
154	0x3c3e6c27	0.011622465
155	0xbc1a858b	-0.009431253
156	0x3b2961a7	0.002584556
157	0xbc2a062c	-0.010377448
158	0xbb79399d	-0.0038028725
159	0x39723da5	0.00023101883
160	0x3c43c446	0.011948651
161	0x3c4dfbf3	0.012572276
162	0xbb9c9e8d	-0.004779643
163	0x3d32f4d3	0.043690514
164	0x3a95deed	0.0011434235
165	0x3c1fd83c	0.009756144
166	0xbbc23762	-0.0059270123
167	0xbc76bb97	-0.015059373
168	0xbb4d299c	-0.0031305319
169	0xbc2b390e	-0.010450615
170	0xbbac3748	-0.0052556135
171	0x3c199b41	0.009375394
172	0xbc1a36cb	-0.009412478
173	0x3d0952c6	0.033526205
174	0x3c974b36	0.01846848
175	0x3bc30ea1	0.0059526716
176	0x3ab3709a	0.0013690174
177	0xbca099ce	-0.01960459
178	0xbbc4310e	-0.005987293
179	0xbbbe0873	-0.005799347
180	0xbcd213e8	-0.025644258
181	0xbba53c86	-0.0050426153
182	0xbc688e42	-0.014194073
183	0xbbf8abf2	-0.007588857
184	0xba9d68b1	-0.001200935
185	0x3cfd05bd	0.030886525
186	0xbced9f03	-0.029006487
187	0xbc63429e	-0.013870863
188	0xbbdcd053	-0.0067387014
189	0xbb59bd70	-0.0033224486
190	0xbbb80b76	-0.0056166006
191	0x3c0574cf	0.008145525
192	0xbc96f251	-0.018426092
193	0xbbd63337	-0.006536867
194	0xbbaf1939	-0.005343583
195	0xbca9250f	-0.020647554
196	0x3c7aa4c6	0.015298074
197	0xbbc1c058	-0.0059128217
198	0xbc619d28	-0.013770379
199	0x3c8456cf	0.016154675
200	0x3cb25519	0.021769093
201	0x39384212	0.0001757222
202	0xbbe9173c	-0.0071133655
203	0xbc450d4a	-0.012027094
204	0x3baf1810	0.0053434446
205	0xbbaae963	-0.00521581
206	0xbc3f1414	-0.011662502
207	0xbcc12fb0	-0.02358231
208	0x3b27f3cf	0.00256275
209	0xbbbe9fe9	-0.0058174026
210	0x3bfc1d24	0.0076939035
211	0xbc78c398	-0.015183352
212	0xbc88b990	-0.016690046
213	0x3cab2796	0.0208929
214	0x3c829b59	0.015943216
215	0x3c84d20d	0.016213441
216	0xbbf97171	-0.0076124
217	0x3cd39c32	0.025831316
218	0xbadc2900	-0.0016796887
219	0x3c1608af	0.009157344
220	0xbc26b8c3	-0.010175887
221	0xbb887bd1	-0.0041651507
222	0xbaaca360	-0.0013171248
223	0x3bfd9920	0.007739201
224	0x3c31e198	0.010857008
225	0xbb2bd510	-0.0026219524
226	0x3a7cfa4f	0.0009650336
227	0x3b1024cc	0.002199459
228	0xbcd3cdcf	-0.025854973
229	0x3b2f4739	0.0026745333
230	0xbb37b7ec	-0.002803321
231	0x3cb79e56	0.022414368
232	0xbbda5954	-0.006663481
233	0xba6daf9b	-0.0009067
234	0xbad20e51	-0.0016025995
235	0x3ca8901d	0.020576531
236	0x3c3353ea	0.0109453
237	0xbc256dc2	-0.010096969
238	0xbc448731	-0.011995123
239	0x3c7121c1	0.01471752
240	0x3c951ad5	0.018201271
241	0x3cba7d4a	0.02276482
242	0x3c37e236	0.0112233665
243	0x3d1a6c1b	0.037700754
244	0x3c71c13a	0.014755541
245	0xbc198e53	-0.009372312
246	0x3cdd4511	0.027010472
247	0xbbba0533	-0.0056768893
248	0x3c3da172	0.011574136
249	0x3b8035c4	0.0039126594
250	0x392981ab	0.00016165401
251	0xbbfcb1a9	-0.0077116084
252	0x3c920085	0.017822513
253	0xbb94ebd8	-0.0045447163
254	0xbc86fc93	-0.016477859
255	0x3bbd47ab	0.0057763658

network_body._body_endoder.seq_layers.0.weight f4 [256, 13]
0	0x3ea02022	0.31274515
1	0xbe9d5171	-0.30726197
2	0xbd9fd7cd	-0.078048326
3	0xbdfa80fe	-0.122316346
4	0x3d71d835	0.05904408
5	0x3e89757c	0.26847446
6	0x3e43090a	0.19046417
7	0xbd8e3467	-0.06943589
8	0xbf2f8783	-0.6856615
9	0x3f6fb88d	0.9364098
10	0xbe4f64b7	-0.20253263
11	0xbd034cda	-0.032055713
12	0x3f22d547	0.63606685
13	0x3de0e8bd	0.10981891
14	0x3e925894	0.28583205
15	0x3da9fedb	0.08300563
16	0xbeaabeaf	-0.33348605
17	0x3d5348d8	0.05158314
18	0xbd9157ce	-0.070968255
19	0xbd816d4f	-0.06319677
20	0x3d023e80	0.031797886
21	0xbe3f5e6d	-0.18688364
22	0x3e1443fe	0.14479062
23	0x3e2b6d40	0.16740894
24	0xbdb42e8a	-0.08797939
25	0x3ef828d4	0.4846865
26	0xbd9a6f04	-0.07540706
27	0x3d2bb3cb	0.04191951
28	0xbeb9a2d7	-0.3625705
29	0xbddbb3e5	-0.107276715
30	0xbe0a9a5d	-0.13535447
31	0x3dd046c8	0.101697505
32	0x3efe9d43	0.49729356
33	0x3f19a731	0.6002074
34	0xbd9c9293	-0.07645144
35	0x3efbb27e	0.49159616
36	0xbe49ced3	-0.19707803
37	0x3f1dcddd	0.6164225
38	0x3e85dcad	0.26144925
39	0x3e535805	0.20639046
40	0xbf094dc0	-0.5363426
41	0xbe49bdd9	-0.19701327
42	0xbc95d47d	-0.018289799
43	0x3df4fe05	0.11962513
44	0xbdfd97fe	-0.12382506
45	0xbe134744	-0.14382654
46	0xbe58102a	-0.21099916
47	0x3d9563e0	0.0729444
48	0x3e18dfc0	0.14929104
49	0x3d15d9db	0.036584716
50	0xbea4c30d	-0.32180062
51	0xbd8044fb	-0.06263157
52	0xbeb150bd	-0.3463191
53	0xbea4796c	-0.32123888
54	0x3e070d85	0.13188751
55	0x3f56b2ee	0.83866775
56	0xbe9f2203	-0.31080636
57	0x3ecec49e	0.40384382
58	0x3e231f1a	0.15929833
59	0x3eba3ba6	0.36373633
60	0xbc9c789a	-0.019100476
61	0xbe5d2d08	-0.2159921
62	0xbe2e7b33	-0.17039184
63	0xbea52dfc	-0.32261646
64	0x3d8663e3	0.06562021
65	0xbd4013a7	-0.046893742
66	0xbced6b12	-0.02898172
67	0xbc1c6f69	-0.009548047
68	0xbe74059f	-0.2383027
69	0x3e46e20a	0.19422165
70	0x3eaba391	0.3352323
71	0xbe62ac5a	-0.2213606
72	0xbec28875	-0.37994733
73	0xbc8b361e	-0.016993579
74	0x3cbeee57	0.023307009
75	0x3cc75eba	0.024337161
76	0x3e515f4c	0.20446509
77	0xbea20e3e	-0.3165149
78	0xbd497769	-0.049186144
79	0xbe60736c	-0.2191903
80	0xbf18c046	-0.59668386
81	0x3e69d38d	0.22834606
82	0xbd0869a9	-0.03330389
83	0xbe46511d	-0.1936688
84	0xbed317dc	-0.4122914
85	0x3ec8771d	0.39153376
86	0xbd88775f	-0.06663393
87	0x3ed63644	0.41838276
88	0x3d309c06	0.043117546
89	0x3e530029	0.2060553
90	0xbdb05b76	-0.08611195
91	0x3e8c00cc	0.27344358
92	0xbf320ea2	-0.6955358
93	0x3e68fce8	0.22752726
94	0xbed897da	-0.42303354
95	0x3e0e7bf5	0.13914473
96	0xbe2fafed	-0.17156954
97	0xbdaa38a0	-0.083115816
98	0xbf08ce62	-0.53439915
99	0xbe6801e4	-0.22656971
100	0x3eb44ec4	0.35216343
101	0xbd9cfd2a	-0.07665475
102	0xbd8c1710	-0.06840336
103	0xbe8642da	-0.2622288
104	0x3e8cca9a	0.27498323
105	0x3c973af2	0.018460725
106	0x3cbcae23	0.023032254
107	0x3eb089c0	0.34480095
108	0x3e62fcdd	0.22166772
109	0xbe72ae15	-0.2369922
110	0xbe37bfcb	-0.17944257
111	0xbf232194	-0.6372311
112	0xbdb98681	-0.09058858
113	0xbdb9bd42	-0.09069301
114	0xbd61f9f8	-0.05517003
115	0xbd4421c2	-0.047883756
116	0xbe1d4571	-0.15358521
117	0x3eb56e49	0.35435703
118	0xbe5cbc93	-0.2155631
119	0x3e0b070f	0.13576911
120	0x3db488bb	0.08815142
121	0xbcd0a049	-0.025467055
122	0x3db4cd17	0.0882818
123	0x3e389df1	0.18029
124	0x3e22193f	0.15829943
125	0x3e94f993	0.2909666
126	0xbeaf6ea8	-0.34264112
127	0x3e3a19fc	0.18173975
128	0x3e3f56e2	0.18685487
129	0xbdaf892c	-0.08571085
130	0xbd05fbf4	-0.032710984
131	0x3d7a0888	0.061043292
132	0xbe086999	-0.13321532
133	0x3d9f63fd	0.07782743
134	0x3daca486	0.08429818
135	0xbe0b22cb	-0.13587491
136	0xbe23c41e	-0.15992782
137	0xbeee8e7b	-0.4659308
138	0xbdb7fbb6	-0.08983557
139	0xbe081c7e	-0.13292119
140	0x3f0963ca	0.5366789
141	0xbf199764	-0.5999663
142	0x3e23d8fa	0.16000739
143	0xbdad4f61	-0.08462406
144	0xbe543e3b	-0.20726864
145	0xbbe3bb86	-0.006949845
146	0xbef48839	-0.4776018
147	0x3e605f86	0.2191144
148	0x3e0abd21	0.1354871
149	0xbe979512	-0.2960592
150	0xbf288e8c	-0.6584251
151	0xbe4313ad	-0.19050474
152	0x3e80ba2c	0.25142038
153	0xbd96633a	-0.07343145
154	0x3e86342b	0.26211676
155	0xbe4ef04e	-0.20208856
156	0x3e4f2415	0.20228608
157	0x3e0dab58	0.13834894
158	0x3e9958a9	0.29950455
159	0xbeeaa27f	-0.458271
160	0x3e886716	0.26641148
161	0x3e8ec53c	0.27884853
162	0x3d9e3d62	0.077265516
163	0xbe91f68f	-0.28508422
164	0x3e4949a4	0.19656998
165	0xbd4fa6a1	-0.05069602
166	0xbe7e3452	-0.24824646
167	0x3eb2212b	0.3479093
168	0x3eeba165	0.46021572
169	0x3eb8263b	0.35966668
170	0xbe365912	-0.17807415
171	0xbb90c210	-0.0044176653
172	0x3dd69216	0.104770824
173	0x3e476808	0.19473279
174	0x3f5cdce7	0.8627457
175	0xbe99891f	-0.29987428
176	0xbcb5bb20	-0.022183955
177	0xbe854055	-0.26025644
178	0xbe90eb1e	-0.2830438
179	0x3d4538b7	0.04814979
180	0x3e48c0ab	0.19604747
181	0xbeab0c29	-0.33407715
182	0xbe8812e6	-0.26576918
183	0xbd2cebed	-0.042217184
184	0xbee7a23a	-0.45240957
185	0x3e168b8a	0.14701667
186	0xbdd48d31	-0.103784926
187	0x3d5560b2	0.05209417
188	0x3e4ea17f	0.20178793
189	0x3e75dda0	0.24010324
190	0x3d21de47	0.03951862
191	0x3eda6e77	0.42662403
192	0xbdc80d4d	-0.09768162
193	0xbeae0df9	-0.33995035
194	0xbc05111f	-0.008121758
195	0x3dbe975a	0.09306212
196	0x3da0b68c	0.07847318
197	0xbd51e017	-0.0512391
198	0x3e84c159	0.25928763
199	0xbeea0b20	-0.45711613
200	0x3e6c84ac	0.23097485
201	0xbd060e91	-0.032728735
202	0x3ea2d31c	0.3180169
203	0xbed1f37d	-0.4100608
204	0x3ec9314e	0.3929543
205	0xbc5b4d45	-0.013385122
206	0x3d251158	0.040299743
207	0xbd92104d	-0.071320154
208	0x3d2f555f	0.042806026
209	0x3e5375a6	0.20650348
210	0x3e02eb9a	0.12785187
211	0xbe7a3b6d	-0.24436732
212	0xbd43f075	-0.04783674
213	0x3d914dae	0.07094894
214	0x3e84c017	0.25927803
215	0x3e15121f	0.14557694
216	0x3d79e129	0.061005745
217	0x3e90df7d	0.28295508
218	0xbe73f362	-0.23823312
219	0x3f18034d	0.59380037
220	0x3ecd8c4c	0.401461
221	0x3e480978	0.19534862
222	0x3f102ddc	0.56319976
223	0x3ea4b06f	0.32165858
224	0xbee35d94	-0.44407332
225	0xbd27e068	-0.040985495
226	0x3e306e7a	0.17229643
227	0x3c0ba6c7	0.00852365
228	0x3e0fbdfd	0.14037319
229	0x3f300436	0.68756425
230	0xbd74fc4c	-0.05981092
231	0x3e31a752	0.17348984
232	0xbde69760	-0.11259341
233	0xbd8a44fb	-0.06751438
234	0xbed0b43d	-0.4076251
235	0x3d128d13	0.03577907
236	0x3da399c6	0.07988314
237	0x3ef84e00	0.4849701
238	0xbeab21f7	-0.3342435
239	0xbdfaa81d	-0.12239096
240	0xbf38f98d	-0.72255784
241	0xbe8484f6	-0.2588269
242	0x3e6bd179	0.23029126
243	0x3eed63a9	0.46365097
244	0x3d755ef1	0.059904996
245	0xbe2508ea	-0.16116682
246	0xbd8e85e1	-0.06959129
247	0x3e2094c9	0.15681757
248	0xbe9ed723	-0.3102351
249	0x3d27c4d6	0.0409592
250	0xbebbd16a	-0.36683208
251	0x3eb02e64	0.34410393
252	0xbefa551f	-0.48893067
253	0xbd1bb7df	-0.03801715
254	0xbeafa361	-0.34304336
255	0xbe48a970	-0.19595885

network_body._body_endoder.seq_layers.2.bias f4 [256]
0	0xbbab48d9	-0.00522719
1	0xbc48759b	-0.012235071
2	0x3cc1abe4	0.023641534
3	0x3b9f176b	0.0048550866
4	0x3ba28c79	0.0049605933
5	0xba220d97	-0.00061818346
6	0x3c528e3a	0.012851292
7	0x3c08d922	0.00835255
8	0xbc50f1a0	-0.01275292
9	0xbc43e1e5	-0.011955713
10	0x3bfc7608	0.0077045
11	0xbbb19b6e	-0.00542014
12	0xbbefa20b	-0.007313018
13	0x3c29311d	0.010326651
14	0x3b7f7851	0.0038981626
15	0xbb8f8c0e	-0.0043807095
16	0x3c77a08a	0.015113959
17	0x3bd13d18	0.006385457
18	0x3b6ea726	0.0036415546
19	0x3c61de20	0.013785869
20	0xbbab32a8	-0.0052245446
21	0xbb6968c6	-0.0035615428
22	0xbc017fe1	-0.007904024
23	0xba1f3c0d	-0.0006074317
24	0xba21461d	-0.000615211
25	0x3b0e7c78	0.002174167
26	0xbbfe687a	-0.0077639194
27	0x3bfd8a75	0.0077374526
28	0xbbcd1d93	-0.006259629
29	0x3bc9d981	0.0061599617
30	0x3c03d42d	0.008046192
31	0x3c12dcef	0.0089638075
32	0xbc9a041d	-0.01880079
33	0x3ba29457	0.004961531
34	0x3c7325df	0.014840572
35	0xbb35455d	-0.0027659752
36	0x3c1792a7	0.009251273
37	0xbc0900d3	-0.008362013
38	0x3aab8765	0.0013086615
39	0x3c5682db	0.013092722
40	0xbb10e31e	-0.0022108029
41	0xbc01fd59	-0.007933938
42	0xbc2ff6a8	-0.01073996
43	0x39ba2a63	0.00035508265
44	0xbc4ddc45	-0.012564723
45	0x3b653d5a	0.0034979195
46	0xbc6974a0	-0.014248997
47	0x3c2f92f8	0.010716192
48	0x3a280b61	0.0006410387
49	0xbbeec6c5	-0.007286879
50	0x3c8912f1	0.016732665
51	0x3b8509ee	0.0040600216
52	0x3bd87b0a	0.0066064643
53	0x3c3ab9bb	0.011396821
54	0xbc9f6bab	-0.01946052
55	0xbb04a7fc	-0.0020241728
56	0xbb2f639a	-0.0026762248
57	0xbc966c7a	-0.018362273
58	0xbcb68f42	-0.022285108
59	0x3c865d4f	0.016401915
60	0xbc9e1100	-0.019295216
61	0x3c0a5c92	0.008444922
62	0xba2cb4f7	-0.0006588245
63	0x3b78d06f	0.0037966033
64	0x3bd30262	0.006439493
65	0x3bad81f0	0.005295031
66	0xbc56ec90	-0.013117924
67	0xbbdaeb3a	-0.006680873
68	0x3c58fb24	0.01324347
69	0x3c4b382c	0.012403529
70	0xbbe0f937	-0.006865646
71	0x3ca713d9	0.020395206
72	0x3b1c92d9	0.002389124
73	0x3c1b17c1	0.009466113
74	0xbbee6acb	-0.0072759143
75	0xbb5e4c5b	-0.0033920023
76	0x3b9d6558	0.004803341
77	0x3a570a23	0.00082031096
78	0x3aae1e53	0.0013284184
79	0x3cca6d54	0.024710335
80	0x3d05e265	0.03268661
81	0xbc2ca4d5	-0.010537346
82	0x3ba8a871	0.005147033
83	0xbc25ec92	-0.010127204
84	0xbb80ca02	-0.003930331
85	0xbc0420bf	-0.008064448
86	0x3c5f373e	0.013624011
87	0x3bc9d13e	0.006158977
88	0x3b128087	0.002235444
89	0xbb0af665	-0.0021203991
90	0x3c6024b7	0.0136806285
91	0xbb9f175f	-0.004855081
92	0xb9affdd9	-0.00033567732
93	0xbc1a7184	-0.009426478
94	0xbb9b55c3	-0.004740448
95	0xbc6c58ad	-0.014425439
96	0x3b0736b1	0.0020631964
97	0x3ca54b1e	0.02017742
98	0xbc837599	-0.016047286
99	0xbc5b345a	-0.013379181
100	0x3c0c713c	0.008571919
101	0xbbdaa4ca	-0.0066724764
102	0xbbd5ead1	-0.0065282364
103	0xbb09b6b4	-0.002101344
104	0x3c2f2ec4	0.010692302
105	0x3c7ebbae	0.015547676
106	0x3cb76a59	0.022389578
107	0xbbccf6a6	-0.0062549887
108	0xbc249680	-0.010045648
109	0x3b87452f	0.0041281204
110	0x3c450e6e	0.012027366
111	0x3c447e1c	0.011992957
112	0xbbd25580	-0.006418884
113	0xbbb27727	-0.005446333
114	0xbb785615	-0.0037893106
115	0x3bce5283	0.0062964573
116	0x3c206ef9	0.009792083
117	0xbc2fb9c5	-0.010725443
118	0x3bedcc58	0.0072570257
119	0x3bb2cb86	0.005456391
120	0xbc377c82	-0.011199119
121	0x3bc477f6	0.005995746
122	0x3c5bed55	0.013423284
123	0xbb7fe358	-0.003904542
124	0xbbdfa32d	-0.006824872
125	0xbc004b3d	-0.007830438
126	0x3c420ee8	0.011844374
127	0xbbbacf96	-0.0057010157
128	0xbb9f6d3b	-0.004865316
129	0xbbac3147	-0.0052548978
130	0xbb62e634	-0.0034622075
131	0xbc244c2e	-0.010027928
132	0xbc10248e	-0.008797778
133	0xbb733b5c	-0.0037114238
134	0xbae8979b	-0.0017745377
135	0xbbc2dd0b	-0.0059467605
136	0x3bb0ad22	0.005391733
137	0xbbf92271	-0.0076029827
138	0x3b9f3907	0.004859093
139	0x3ccb4b55	0.024816195
140	0x3bd1d1bd	0.0064031766
141	0x3b57b19b	0.0032912258
142	0xbc0f0960	-0.0087302625
143	0x3c18dbb4	0.009329725
144	0xbc4e53a4	-0.012593184
145	0xb92cdb5d	-0.00016484917
146	0x3b718e57	0.0036858523
147	0xbc120d58	-0.008914314
148	0xbc05b334	-0.008160401
149	0xbcd18226	-0.025574755
150	0xbc00ffce	-0.007873489
151	0x3b8caac6	0.0042928187
152	0x3be49080	0.0069752336
153	0xbc4f5f5b	-0.012657012
154	0xbb2380c8	-0.0024948586
155	0xbb039ecb	-0.0020083662
156	0xbba02896	-0.0048876507
157	0xbb83d576	-0.0040232493
158	0xb900db50	-0.00012288732
159	0x3b29a49f	0.0025885475
160	0xbc0b6902	-0.0085089225
161	0x3bd13a37	0.0063851136
162	0x3cb9272f	0.022601692
163	0xbc5a1ede	-0.013313023
164	0xba5cfbdb	-0.00084298634
165	0x3ccea4a5	0.025224993
166	0xbc0e346f	-0.008679493
167	0x3b63db98	0.003476834
168	0x38bd1622	9.016345e-05
169	0x3bdaf602	0.0066821584
170	0xbb941499	-0.004519057
171	0x3b976532	0.0046202177
172	0xba562710	-0.0008169273
173	0x3c6a90e5	0.014316772
174	0xbb2dc13a	-0.0026512877
175	0xba069fb7	-0.00051354937
176	0x3bdcac5d	0.0067344145
177	0xbb4a2fb1	-0.003085118
178	0x3cc70049	0.024292128
179	0x3cd430a9	0.02590211
180	0x39a0956f	0.00030628915
181	0xba529928	-0.00080336863
182	0x3c2e6d89	0.010646232
183	0x3c16978f	0.009191408
184	0x3bf39ed9	0.0074347076
185	0xbb8ea23f	-0.0043528373
186	0x3b2c7720	0.0026316121
187	0xbc84a57a	-0.016192187
188	0xbbcbedfb	-0.006223438
189	0xbbb6709c	-0.0055676233
190	0x3bd6933e	0.0065483144
191	0xbc1c5bff	-0.009543418
192	0x3b01af76	0.001978842
193	0xbc3e8d99	-0.011630439
194	0x3b90384a	0.0044012414
195	0xba363bd7	-0.0006951666
196	0xba852844	-0.0010159095
197	0x3c0f6cde	0.008753983
198	0xbc367220	-0.011135608
199	0xbb67238f	-0.0035268997
200	0x3bba65cc	0.0056884047
201	0x3a9448b3	0.001131317
202	0x3c89671f	0.016772805
203	0x3b058d68	0.0020378474
204	0xbc637fbb	-0.013885434
205	0xbb6e78ac	-0.0036387844
206	0xbbbf69e7	-0.005841482
207	0x3af8fc6a	0.0018996124
208	0xbbe3a353	-0.00694696
209	0x3b82bb60	0.003989622
210	0x3c7cbb47	0.01542551
211	0xba1126d0	-0.00055370945
212	0xbafeb3b2	-0.0019432215
213	0xbbabf30f	-0.0052474807
214	0x3b9deea7	0.0048197093
215	0x3c400da7	0.011722005
216	0xbbc23d4e	-0.0059277182
217	0xbc7f49b7	-0.01558154
218	0xbb88f4bf	-0.0041795666
219	0x3b94aac8	0.0045369603
220	0x3b294c93	0.0025832995
221	0xbb43d1ac	-0.0029879613
222	0xbc269179	-0.010166519
223	0x3ad85efe	0.0016507802
224	0x3ac19339	0.0014768607
225	0x3b3ef171	0.002913561
226	0x3b9dc494	0.0048146937
227	0x3aeb1537	0.00179354
228	0xbb850004	-0.0040588398
229	0x3c5463eb	0.012963275
230	0x3c802bad	0.015645826
231	0xbc60f5ac	-0.013730448
232	0xbc071aac	-0.008246105
233	0xba91e32e	-0.0011130327
234	0x3cb5416e	0.022125926
235	0xbcc56c9a	-0.024099637
236	0xbc2159b7	-0.00984805
237	0xbc204df9	-0.009784215
238	0xbc165c19	-0.009177231
239	0xbc2a3e1f	-0.010390787
240	0xbadc62ba	-0.0016814091
241	0xbc28c7f0	-0.010301575
242	0x3c12dc3e	0.008963643
243	0x3c1ad7b5	0.009450843
244	0x3c394762	0.011308523
245	0x3b610d8e	0.0034340355
246	0xbc0b6952	-0.008508997
247	0x3b143423	0.0022614084
248	0xbc588993	-0.013216394
249	0x3c407f18	0.0117490515
250	0x3ab9fa47	0.0014188968
251	0xbc79c8d7	-0.015245638
252	0x3aca6d3a	0.0015443929
253	0xbb7d8b57	-0.003868779
254	0x3ba77a52	0.0051110173
255	0xbc352b8c	-0.011057746

network_body._body_endoder.seq_layers.2.weight f4 [256, 256]
0	0x3cfe271a	0.031024504
1	0x3d87521f	0.0660746
2	0xbc0895ae	-0.008336468
3	0x3c1f232d	0.009712976
4	0xbc289c4a	-0.0102911685
5	0x3b00ee8f	0.0019673442
6	0x3c406f92	0.01174535
7	0x3e1f19f8	0.1553725
8	0x3d82f293	0.063939236
9	0x3c904991	0.017613204
10	0xbd8cbfae	-0.068724975
11	0x3d961407	0.07328039
12	0xbd26c590	-0.040715754
13	0xbdb9b640	-0.090679646
14	0xbdc91a27	-0.09819441
15	0x3d8d3048	0.068939745
16	0x3c549bd5	0.012976606
17	0x3cef9a7b	0.029248467
18	0x3d5e6a0c	0.054300353
19	0xbc51d792	-0.012807744
20	0x3d48caf5	0.04902168
21	0x3da80ab3	0.08205166
22	0xbbc2095a	-0.005921525
23	0x3c976bdc	0.018484049
24	0x3d975fa6	0.0739129
25	0xbcd28513	-0.02569822
26	0xbde6f47a	-0.11277099
27	0xbd954ef2	-0.07290448
28	0x3b2103e1	0.0024568962
29	0x3d4f365d	0.050588954
30	0xbd1909fe	-0.037363045
31	0xbab407a0	-0.0013735183
32	0x3a9ab00e	0.0011801736
33	0x3b840f26	0.004030126
34	0x3bb68d21	0.005571023
35	0xbcfe00f6	-0.031006318
36	0x3cd248b7	0.025669439
37	0x3cfe7aa6	0.031064343
38	0xbc4360ca	-0.011924932
39	0x3d88f3a2	0.06687094
40	0x3b3c1f59	0.0028705208
41	0x3ddac4d6	0.10682075
42	0x3b84de27	0.004054803
43	0x3c96f4b3	0.018427229
44	0xbd70650f	-0.058690127
45	0x3bbe7997	0.0058128345
46	0xbc5337a0	-0.01289168
47	0xbd427153	-0.047471356
48	0x3d8786d5	0.06617514
49	0x3dd7498e	0.10512076
50	0xbc9592ed	-0.018258536
51	0x3d8459cc	0.0646244
52	0x3ca8f8aa	0.020626385
53	0x3da649b8	0.081195295
54	0x3d4c050b	0.049809497
55	0xbce96a99	-0.028493213
56	0x3d77e8ba	0.06052468
57	0x3d0dffcf	0.034667786
58	0x3d93d575	0.07218448
59	0x3d11679f	0.03549921
60	0x3ca3689f	0.019947348
61	0xbbeb33df	-0.0071778144
62	0x3d87e0c1	0.06634665
63	0xbbcb7545	-0.006209048
64	0x3ca0b4c4	0.019617446
65	0x3dbf9b59	0.09355802
66	0x3cc07e08	0.023497596
67	0xbcd5a6a8	-0.026080444
68	0xbb16166c	-0.0022901548
69	0xbd71305e	-0.058884017
70	0xbdc73299	-0.097264476
71	0x3d67622c	0.05649011
72	0xbc2087ca	-0.009798
73	0x3d0b2d55	0.03397878
74	0x3d6d658d	0.057958174
75	0x3c8de459	0.017320799
76	0x3b59c580	0.0033229291
77	0x3dc1bc7d	0.094597794
78	0xbdd65e69	-0.10467226
79	0x3c0bd8bf	0.008535563
80	0x3c2c292a	0.010507861
81	0xbc290ade	-0.010317532
82	0xbc9b91e0	-0.018990457
83	0x3c760965	0.015016888
84	0xbc83e4a8	-0.016100243
85	0x3baf299f	0.005345538
86	0xbe1c9d37	-0.15294348
87	0x3d6561db	0.056001525
88	0xbc851f75	-0.016250351
89	0xbaa9d9b0	-0.0012958553
90	0x3d8f9b28	0.070120156
91	0xbcea087c	-0.028568499
92	0x3da77d92	0.081782475
93	0xbd1a6bb8	-0.037700385
94	0x3dd194f7	0.10233491
95	0x3b8939ba	0.0041877897
96	0x3d5b2a93	0.0535074
97	0x3d17a90b	0.037026446
98	0x3d913e9f	0.07092022
99	0x3d8a5876	0.06755154
100	0xbd152fa7	-0.036422398
101	0xbd2ee5ae	-0.04269951
102	0xbce1b3a3	-0.027551478
103	0x3cbf3d99	0.023344802
104	0x3d560558	0.05225119
105	0x3d95e396	0.07318799
106	0xbcf8f4a6	-0.030390095
107	0xbdbadbde	-0.091239676
108	0x3dcffb5d	0.101553656
109	0xbb368e54	-0.002785583
110	0x3cb2b2bb	0.021813741
111	0x3e157ef8	0.14599216
112	0x3d592879	0.053017113
113	0x3d455df6	0.04818531
114	0x3d1def17	0.038558092
115	0x3d005f42	0.031340845
116	0x3dba5827	0.09098845
117	0xbc9b0400	-0.018922806
118	0xbce8c737	-0.028415306
119	0xbb8552eb	-0.0040687225
120	0x3d6ec277	0.058290925
121	0xbcb162bf	-0.021653531
122	0x3d2d9cb1	0.04238576
123	0x3bda3af8	0.0066598617
124	0xbc51d3d7	-0.012806854
125	0x3cbc2dfb	0.022971144
126	0xbdb0c622	-0.08631541
127	0xbdc57f92	-0.09643473
128	0x3d9b6617	0.075878315
129	0x3da575f9	0.08079142
130	0x3db57c14	0.08861557
131	0xbdecc064	-0.11560133
132	0xbd0843f4	-0.03326793
133	0xbd8948f1	-0.067033656
134	0xbd363bde	-0.044490688
135	0xbdad7649	-0.08469827
136	0xbcbd0807	-0.023075117
137	0xbcedb882	-0.029018644
138	0x3c0eb46b	0.008710007
139	0xbd8045a9	-0.062632866
140	0xbdaac66e	-0.08338629
141	0xbda4bdf1	-0.08044041
142	0x3cf66c7c	0.030081026
143	0xbd088af2	-0.033335634
144	0xbdc44dc8	-0.09585148
145	0x3d6901fc	0.056886658
146	0xbce3ae82	-0.027793173
147	0x3dd2455f	0.10267138
148	0xbdbdf8d1	-0.092759736
149	0x3c105792	0.008809941
150	0x3cad7d1f	0.021177826
151	0x3da07edd	0.07836697
152	0xbdb78a10	-0.0896188
153	0xbd4d5a4a	-0.050134934
154	0xbd3a8a90	-0.0455423
155	0x3db73abd	0.0894675
156	0xbca8a46b	-0.020586213
157	0xbc624a89	-0.013811716
158	0x3d15f4d7	0.03661045
159	0xbd0a1a12	-0.03371627
160	0x3d13b208	0.036058456
161	0xbb06e465	-0.002058291
162	0x3bf598e8	0.0074950345
163	0x3e038c34	0.12846452
164	0x3b7b3827	0.003833303
165	0xbddb9c0e	-0.107231244
166	0xbbb05c59	-0.0053821024
167	0x3add86b1	0.0016901103
168	0x3d831c92	0.06401934
169	0x3d14f9b3	0.036370944
170	0x3d178780	0.036994457
171	0x3c77e4e1	0.015130253
172	0xbd796930	-0.06089133
173	0xbd90b7c7	-0.07066303
174	0x3a9aacf6	0.0011800814
175	0xbc8e8166	-0.017395686
176	0xbd84d76e	-0.064864025
177	0x3d6c1a0b	0.057642024
178	0xbd034d67	-0.03205624
179	0xbd15dd8e	-0.036588244
180	0xbd3fb941	-0.04680753
181	0x3e1dc374	0.1540659
182	0xbe1abbe5	-0.15110739
183	0xbd4e181c	-0.05031596
184	0xbd9b76d5	-0.07591025
185	0x3cb2e7ad	0.021838987
186	0x3c2c1fe9	0.010505655
187	0xbd2e3169	-0.04252759
188	0x3d4f07b0	0.05054444
189	0x3e44e51f	0.19228028
190	0xbcb60412	-0.022218738
191	0x3d4c3db7	0.049863543
192	0xbdf309eb	-0.11867126
193	0xbe0a7b23	-0.13523535
194	0x3d10ebf8	0.035381287
195	0xbb90c996	-0.004418562
196	0x3d29cb2c	0.041453525
197	0xbd0e11c6	-0.03468492
198	0xb9b66668	-0.00034790044
199	0xbd86f13b	-0.0658898
200	0x3d559650	0.052145302
201	0xbc41a149	-0.0118182385
202	0xbdb8fa79	-0.09032149
203	0xbd0717d8	-0.032981724
204	0xbe07601b	-0.13220255
205	0x3e20df95	0.1571029
206	0x3c1c58ff	0.009542703
207	0xbd621096	-0.0551916
208	0x3d13544b	0.03596906
209	0xbd9b786f	-0.0759133
210	0xbd67972f	-0.056540664
211	0xbdc0d3f4	-0.09415427
212	0xbca5c279	-0.020234333
213	0xbc88e12b	-0.016708931
214	0x3c907523	0.01763398
215	0xbda7a18a	-0.08185108
216	0x3bdb3efe	0.006690859
217	0xbdafda32	-0.08586539
218	0x3d833741	0.06407023
219	0xbd59748d	-0.053089667
220	0x3d1f5bd8	0.03890595
221	0xbd331060	-0.04371679
222	0x3d16fc4f	0.036861714
223	0xbd8b7e53	-0.06811204
224	0x3dcdf37b	0.10056206
225	0x3ca45290	0.0200589
226	0xbd3d8018	-0.046264738
227	0x3e03cf0b	0.1287195
228	0xbc41882a	-0.011812249
229	0xbdec9690	-0.11552155
230	0xbde5d719	-0.11222667
231	0xbb2f9131	-0.0026789422
232	0xbd66a403	-0.056308758
233	0x3d7e299f	0.06205141
234	0x3d3b1143	0.04567076
235	0x3d57c4ee	0.05267804
236	0xbda52fb3	-0.080657385
237	0xbdaf0888	-0.08546549
238	0xbd100c72	-0.03516812
239	0xbdee7630	-0.11643636
240	0xbba0c2eb	-0.0049060485
241	0x3db9b856	0.090683624
242	0xbc7eb1dc	-0.015545335
243	0xbdc4424f	-0.0958296
244	0x3d4671b5	0.048448283
245	0xbd305159	-0.04304633
246	0x3d88af6a	0.066740826
247	0xbd06ddb5	-0.03292628
248	0x3d9a2366	0.07526283
249	0x3cca7561	0.024714174
250	0xbb3ac268	-0.0028497223
251	0xbd14aad8	-0.03629574
252	0xbd60fd9a	-0.054929353
253	0x3c7348ef	0.014848932
254	0xbe0b534d	-0.13605995
255	0x3c26dc02	0.01018429

network_body._body_endoder.seq_layers.4.bias f4 [256]
0	0xba55e9e3	-0.0008160157
1	0x3c86494c	0.016392373
2	0x3b7f1a5f	0.003892563
3	0xbc258339	-0.010102087
4	0x3c515380	0.012776256
5	0xbb964cdf	-0.0045868005
6	0xbb2b7ca4	-0.002616682
7	0xbc9c0987	-0.019047512
8	0x3c54e9c1	0.012995184
9	0xbaf2a964	-0.0018513617
10	0xbb6720d1	-0.0035267363
11	0x3b87d112	0.004144796
12	0xbc86cec5	-0.016456017
13	0xbb84ffdc	-0.004058821
14	0xbc1d2103	-0.00959039
15	0xbba82141	-0.0051309173
16	0xbc16b9be	-0.009199558
17	0x3c1c004c	0.009521555
18	0x3c91ff09	0.017821806
19	0xbc574962	-0.013140054
20	0xbb1ad395	-0.0023624648
21	0x3c0246bb	0.007951434
22	0xbb933977	-0.0044929343
23	0xbb1903b6	-0.002334816
24	0xbc36ac6d	-0.011149508
25	0xbcbab734	-0.022792436
26	0xbb3ff0a0	-0.002928771
27	0xbb2bb74f	-0.002620179
28	0xbaba271d	-0.001420233
29	0xbb9a1464	-0.004702138
30	0x3c982555	0.018572489
31	0xbc41497e	-0.011797307
32	0xbb836edb	-0.0040110177
33	0xbb471c45	-0.003038184
34	0x3c0c4de8	0.008563496
35	0xbc1dd540	-0.009633362
36	0x3bd98c6e	0.006639055
37	0x3a8f4a02	0.001093209
38	0xbc2e4e04	-0.010638718
39	0xbb0c009e	-0.0021362673
40	0x3b069527	0.002053568
41	0xbb84d453	-0.0040536313
42	0xbc1b5a22	-0.009481939
43	0xbad230ba	-0.001603625
44	0x3d03ee9c	0.032209978
45	0x3c0aec58	0.0084792
46	0xbb58e6e5	-0.0033096608
47	0x3bd4db19	0.006495845
48	0x3c8b2f5c	0.016990356
49	0x3c6f4cae	0.014605684
50	0xbb479adc	-0.0030457294
51	0x3c562b86	0.0130719
52	0xbba18b17	-0.004929911
53	0x3a48651a	0.000764446
54	0x3c4fd764	0.0126856305
55	0xbc4177bb	-0.011808331
56	0x3beffbe6	0.00732373
57	0xbc189bca	-0.009314487
58	0x3b939ac7	0.004504535
59	0xbaaeb9af	-0.0013330485
60	0xbada2bea	-0.0016645167
61	0xbc4b54a4	-0.012410317
62	0x3c18540f	0.009297385
63	0x3bc54b50	0.006020941
64	0x3c1a01a3	0.009399804
65	0xbbe31b71	-0.0069307615
66	0xbc6b242b	-0.014351885
67	0x3b61d399	0.0034458397
68	0xbc2d003d	-0.010559139
69	0xbbf1a281	-0.0073741083
70	0xbc3423e0	-0.010994881
71	0xbbb22093	-0.005436012
72	0xbc29dbb8	-0.010367326
73	0xbbf24d27	-0.007394451
74	0xbc0a3d48	-0.008437462
75	0xbc9d84f0	-0.019228429
76	0xbb975fad	-0.0046195597
77	0xbb5a271a	-0.0033287467
78	0x3b9902c8	0.004669521
79	0x39b26376	0.0003402491
80	0x3bb38604	0.0054786224
81	0xbb5ad7f1	-0.0033392871
82	0x3aa743c3	0.0012761283
83	0xbbd94dec	-0.0066316035
84	0xb9fac7f8	-0.00047832704
85	0xbb79ed5a	-0.0038135857
86	0x3d01952a	0.031636395
87	0xbbcebe5c	-0.0063093137
88	0xbad52831	-0.0016262588
89	0xbc159147	-0.009128875
90	0xbc2b044e	-0.010438038
91	0x3b5f6486	0.0034087016
92	0x3c25bbe5	0.010115598
93	0x3b1923eb	0.0023367356
94	0xb9edbacd	-0.0004534334
95	0x3b810deb	0.0039384267
96	0xbc38504d	-0.011249614
97	0x3b689f8f	0.0035495495
98	0x3bb36c0a	0.0054755257
99	0xbc338d49	-0.010958978
100	0x3a0e41eb	0.00054266927
101	0xbbaeae3c	-0.005330829
102	0xbc2edce6	-0.0106727835
103	0x39b770e5	0.00034988593
104	0x3ba1877b	0.0049294806
105	0x3bb97d15	0.005660663
106	0x3c0ff9d9	0.008787596
107	0xbc2d84a1	-0.010590703
108	0xbc71332b	-0.014721672
109	0xbc26ae7c	-0.010173436
110	0x3b5f0cef	0.0034034809
111	0x3cbd799b	0.023129275
112	0x3c61a5b5	0.013772418
113	0x3b64f435	0.0034935598
114	0xb9a9a1ee	-0.0003235484
115	0x3c0ddc07	0.008658416
116	0x3b5aa2ad	0.0033361122
117	0x3c7406b0	0.014894173
118	0xbbe42d21	-0.0069633876
119	0x3c38ffea	0.011291483
120	0xbbfd65c1	-0.0077330773
121	0xbab6e3ac	-0.001395335
122	0xbb0990ff	-0.0020990965
123	0xbc36f1cf	-0.01116605
124	0x3c1c5841	0.009542526
125	0xbba173c5	-0.004927131
126	0xbbf48752	-0.0074624205
127	0xbb916dbe	-0.004438131
128	0x3c607b05	0.013701205
129	0x3c136ff3	0.008998859
130	0xbc0de4b9	-0.008660489
131	0xbbac28eb	-0.0052539012
132	0x3ac63987	0.0015123346
133	0xbb06e40c	-0.0020582704
134	0xbbfeec49	-0.007779632
135	0xbc5e96a8	-0.013585724
136	0xbc31a726	-0.010843074
137	0x3c0f6165	0.008751248
138	0x3c312a48	0.010813303
139	0xbb748664	-0.0037311548
140	0xba1371fa	-0.0005624589
141	0xbaf2ba05	-0.0018518573
142	0xbae84369	-0.0017720285
143	0xbb99d892	-0.0046950066
144	0x3c0091ca	0.007847259
145	0xbc5dface	-0.013548566
146	0x3c9526cf	0.018206982
147	0x3bbd6ba3	0.0057806536
148	0xbbd1b9a2	-0.006400303
149	0x3c8df900	0.017330647
150	0xbc047c2b	-0.008086245
151	0xbc5df069	-0.013546088
152	0xbb0b4122	-0.002124854
153	0x3cc3ecc3	0.023916608
154	0xbb385e0b	-0.0028132226
155	0xbc5ecf35	-0.013599207
156	0x3c33444c	0.010941576
157	0xbbb2e6bd	-0.005459635
158	0xbbfe54f8	-0.007761594
159	0xbbfed40e	-0.0077767437
160	0xbab2bd72	-0.0013636781
161	0xbc5f6940	-0.013635933
162	0x3c5e70fc	0.013576742
163	0x3ca8e3db	0.020616462
164	0xbbf8b63c	-0.0075900834
165	0x3a94909e	0.0011334603
166	0x3a98a1ee	0.0011644938
167	0xbb788520	-0.0037921146
168	0x3c4fe7a2	0.012689503
169	0x3c2d5f34	0.01058178
170	0x3a9ad758	0.0011813445
171	0xbbd98ae0	-0.0066388696
172	0x3c214ba7	0.009844697
173	0x3c73bc47	0.014876432
174	0x3c857beb	0.01629444
175	0x3aa2ccde	0.0012420674
176	0xbca4321d	-0.020043427
177	0xb91519d2	-0.00014219366
178	0xbc1449b0	-0.009050772
179	0xbbba5959	-0.0056869206
180	0x3b81486d	0.0039454014
181	0x3befc2a0	0.0073169023
182	0x3c00bbae	0.007857246
183	0xbc438788	-0.011934169
184	0x3af05462	0.0018335695
185	0xbba1e89c	-0.0049410593
186	0x3a1450c2	0.0005657786
187	0xbb0abe76	-0.0021170652
188	0x3aab2f12	0.0013060293
189	0xbbaae400	-0.005215168
190	0x3c142f5a	0.009044493
191	0x3ba4b7b0	0.00502678
192	0x3a43f98d	0.00074758456
193	0xbaf894a4	-0.0018965197
194	0x3c89356a	0.016749103
195	0x3b8025d0	0.0039107576
196	0xbbaf6ec2	-0.0053537795
197	0xba8b54f2	-0.0010630174
198	0x3c13a05e	0.0090104025
199	0xbc5c3db8	-0.013442449
200	0xbb9334d2	-0.0044923807
201	0x3b1ba504	0.002374948
202	0xbac6d4b3	-0.001516959
203	0x3a45ff55	0.0007553001
204	0xba22c417	-0.0006209029
205	0xbbbafd5a	-0.0057064714
206	0xbb5bef0d	-0.0033559233
207	0x3beed2df	0.0072883214
208	0x3c0c999d	0.008581546
209	0x3b52dcfd	0.0032175176
210	0x3a341199	0.00068690773
211	0xbbb1c2f0	-0.0054248497
212	0x3a3eed46	0.00072832813
213	0xbb20eead	-0.0024556324
214	0xbb890091	-0.0041809757
215	0x3b36a18e	0.002786729
216	0xbb303bef	-0.0026891192
217	0x3b4c4735	0.0031170372
218	0xbc3e9422	-0.011631997
219	0xb8d2bfb9	-0.000100492914
220	0xbaba8fd2	-0.0014233536
221	0x3c65b018	0.014019035
222	0xbc77b1a2	-0.015118035
223	0xbc72b4a9	-0.014813581
224	0xbc279848	-0.010229178
225	0xba2b3c8e	-0.00065321557
226	0xbc4ec3a4	-0.012619887
227	0x3c8cb304	0.017175205
228	0xbbedddf1	-0.0072591235
229	0xbbaa111e	-0.005190029
230	0xbbb9fde2	-0.005676017
231	0xbba157c1	-0.004923791
232	0xbb474ec3	-0.0030411936
233	0xbae69b32	-0.0017593859
234	0x3a4fbc13	0.00079244486
235	0x389b80f4	7.414995e-05
236	0x3c0eb7c2	0.008710803
237	0x3b965340	0.004587561
238	0x3b7872ae	0.0037910151
239	0xb892371e	-6.972089e-05
240	0xbb74df53	-0.0037364557
241	0x3a3d4018	0.00072193285
242	0x3b96cf98	0.004602384
243	0xbca4fd0b	-0.020140192
244	0xbb79b80a	-0.003810408
245	0xbb28ec7d	-0.0025775724
246	0x3c67f545	0.014157598
247	0xbc508a23	-0.012728247
248	0x3b06253c	0.002046897
249	0x3b476b78	0.0030429047
250	0xbb22e261	-0.002485417
251	0xbb29a9d7	-0.0025888586
252	0xbbe82d7a	-0.0070854994
253	0xbb81197c	-0.0039398056
254	0x3c0030f2	0.0078241695
255	0x3c161914	0.0091612525

network_body._body_endoder.seq_layers.4.weight f4 [256, 256]
0	0xbd029aff	-0.031886097
1	0xbde3485d	-0.110977866
2	0xbdbf7bba	-0.09349771
3	0xbd14b7d3	-0.03630812
4	0xbbfcb739	-0.0077122715
5	0x3db3fd42	0.087885395
6	0xbcb20157	-0.021729155
7	0x3cabacf9	0.020956503
8	0xbdc5762b	-0.096416794
9	0xbdb5035c	-0.088385314
10	0x3d71b8b0	0.059014022
11	0xbd2a9595	-0.04164656
12	0x3d9d2794	0.076735646
13	0xbc848e8e	-0.016181257
14	0xbc25bd24	-0.010115895
15	0x3dba7d16	0.091058895
16	0x3ca354e5	0.019937942
17	0x3d06d727	0.03292003
18	0x3bfc9f9d	0.007709457
19	0x3b4c559f	0.0031178964
20	0xbd21ed39	-0.039532874
21	0xbc3508c5	-0.011049454
22	0xbdcec7af	-0.100966804
23	0xbcf63a4f	-0.0300571
24	0xbdd1584a	-0.10221918
25	0xbd565a24	-0.05233206
26	0xbc0ecc66	-0.008715725
27	0xbd46b7d7	-0.048515167
28	0xbd38db13	-0.0451308
29	0x3e50cb96	0.20390162
30	0xbd839def	-0.06426608
31	0xbd5f5a68	-0.054529577
32	0xbd18da4e	-0.037317567
33	0xbca4aa12	-0.020100627
34	0xbcb677d4	-0.022273935
35	0xbc205a17	-0.009787104
36	0x3d82ca60	0.06386256
37	0xbcb48154	-0.022034325
38	0xbc92aac5	-0.017903695
39	0x3d719f33	0.058989715
40	0x3dd35fd7	0.103210144
41	0x3bf5de86	0.0075033335
42	0xbcadbef8	-0.021209225
43	0xbd158046	-0.036499284
44	0xbd710025	-0.05883803
45	0xba33f294	-0.0006864455
46	0x3c9b7d18	0.018980548
47	0xbc4d7c44	-0.012541834
48	0x3d07951f	0.033101197
49	0xbdd19709	-0.10233886
50	0x3cc673a9	0.024225073
51	0xbd18e25c	-0.037325248
52	0xbd5e7b4a	-0.054316796
53	0xbdec25d5	-0.115306534
54	0xbd06479b	-0.032783132
55	0x3c684a21	0.01417783
56	0x3da9158d	0.082560636
57	0x3dc810af	0.09768807
58	0x3dfe4636	0.124157354
59	0x3d87590f	0.066087835
60	0x3dac917f	0.08426189
61	0x3dad0e01	0.08449937
62	0xbd860b76	-0.06545155
63	0xbdf51807	-0.119674735
64	0xbdcc00c2	-0.09961082
65	0x3db2576c	0.08708081
66	0xbda4fc2c	-0.080559105
67	0x3d0c534f	0.034259137
68	0x3c9fe12e	0.019516554
69	0x3d0cf6ab	0.03441493
70	0xbd8d191e	-0.06889556
71	0x3d971a69	0.07378084
72	0x3cf685f4	0.03009317
73	0xbbe139ec	-0.00687336
74	0xbdac0fc0	-0.084014416
75	0x3b60549b	0.0034230116
76	0xbc767483	-0.015042427
77	0x3d98cc4b	0.07460841
78	0x3c2418e8	0.010015704
79	0xbbe1bf94	-0.006889293
80	0xbda945e0	-0.08265281
81	0xbdcdc0b4	-0.10046521
82	0xbcffd46c	-0.03122922
83	0xbcf88a00	-0.030339241
84	0x3da50d3f	0.08059167
85	0x3c01f696	0.007932326
86	0xbd9242a6	-0.071416184
87	0xbdb2ccce	-0.0873047
88	0xbd682e88	-0.056685
89	0x3c3579d0	0.011076406
90	0xbd406c3c	-0.04697822
91	0xbcbbe3ca	-0.022935767
92	0x3da6a0a4	0.081361085
93	0xbc3574ef	-0.011075242
94	0x3df25f23	0.11834552
95	0x3b3c8da2	0.0028770943
96	0xbc9e9e6e	-0.019362655
97	0x3db4c30c	0.08826265
98	0x3d313196	0.04326018
99	0xbdfe1757	-0.124067955
100	0x3cccd7a5	0.025005171
101	0x3db2f345	0.08737806
102	0xbc52e624	-0.012872253
103	0x3d5db045	0.05412318
104	0xbc465ffa	-0.0121078435
105	0x3c901dd0	0.01759234
106	0xbd021d1c	-0.031766042
107	0x3d0fe1d4	0.035127476
108	0x3b1c300b	0.0023832347
109	0xbcfa706c	-0.030571185
110	0xbd325082	-0.04353381
111	0xbd3a97a9	-0.04555479
112	0x3c695989	0.014242538
113	0xbd1ea4fa	-0.038731553
114	0x3cf54670	0.029940814
115	0xbc41efb9	-0.0118369395
116	0x3d622770	0.05521339
117	0xbb425923	-0.002965518
118	0x3dea4aab	0.11440023
119	0xbd20f41e	-0.03929531
120	0x3c2c7034	0.010524798
121	0xba4bf97e	-0.00077810127
122	0xbd1bf968	-0.03807965
123	0xbd461939	-0.048363898
124	0xbbc85dde	-0.0061147055
125	0xbc00a5ea	-0.007852057
126	0xbdaa6623	-0.08320262
127	0xbb03065c	-0.0019992804
128	0xbcb04e3d	-0.021521682
129	0x3d29f1b1	0.04149026
130	0xbd8c2560	-0.06843066
131	0xbd7c178c	-0.061545894
132	0x3c4c56b5	0.012471844
133	0x3ca77948	0.020443574
134	0x3c23e6ce	0.010003759
135	0x3dd0bcf4	0.1019229
136	0x3d3a2fd6	0.045455776
137	0x3d8231ec	0.06357178
138	0xbde40a40	-0.111347675
139	0x3d59569f	0.053061124
140	0x3c7a00bf	0.015258967
141	0x3c65f179	0.014034622
142	0xbd794193	-0.060853552
143	0x3db9e1c4	0.090762645
144	0x3d5f53c5	0.05452325
145	0xbcdb5e77	-0.026778443
146	0x3d2e5a7e	0.04256677
147	0x3c6cd014	0.014453907
148	0xbd0f5e09	-0.03500179
149	0x3d797f23	0.060912263
150	0x3e05742f	0.13032602
151	0x3d85062f	0.0649532
152	0xbc82d232	-0.01596937
153	0xbd546e9b	-0.051863294
154	0xbdcf5406	-0.10123448
155	0xbd2d8a20	-0.042368054
156	0x3a8a5f52	0.0010556972
157	0xb8a529fa	-7.875632e-05
158	0xbd7af160	-0.06126535
159	0x3e1c1bc9	0.15244974
160	0x3d038d1c	0.032116994
161	0xbd9e804b	-0.07739314
162	0xbdc10659	-0.09425039
163	0x3d0b3a1f	0.033990975
164	0x3ddcaef2	0.10775556
165	0x3da98f25	0.08279256
166	0x3d2ebdb9	0.042661402
167	0x3d9c2f89	0.07626254
168	0x3b14ec3e	0.002272382
169	0xbc96e08e	-0.018417623
170	0x3b8928d5	0.0041857758
171	0xbba8e496	-0.0051542027
172	0xbca8dee2	-0.020614091
173	0xbdf7585a	-0.120773986
174	0xbb8086aa	-0.003922303
175	0x3d1e0d3f	0.03858685
176	0xbdf9c5b2	-0.121959105
177	0xbdd1233a	-0.10211797
178	0x3ae1f710	0.0017239768
179	0xbe018a4a	-0.1265041
180	0x3e0c81a1	0.13721325
181	0x3d7c49e5	0.06159391
182	0x3b24f69c	0.0025171405
183	0xbcc3865c	-0.023867778
184	0xbd91a7ca	-0.07112081
185	0xbd0d1190	-0.034440577
186	0x3e1355ba	0.14388171
187	0x3b53ae3d	0.00322999
188	0x3a8577c0	0.0010182783
189	0xbd9859ed	-0.07439027
190	0x3be34edd	0.0069368915
191	0xbd86f7b8	-0.06590217
192	0x3d926eb4	0.07150021
193	0xbdc343a5	-0.095343865
194	0x3d5a6b6a	0.053325094
195	0xbcd4b0a4	-0.025963135
196	0xbd968261	-0.073490866
197	0xbdc3dcf7	-0.0956363
198	0xbd987d93	-0.074458264
199	0x3d99b99d	0.07506106
200	0x3d656c1f	0.056011315
201	0x3b97e21d	0.004635109
202	0x3e05d2a9	0.13068642
203	0x3e270ac5	0.16312702
204	0x3e07276c	0.13198632
205	0xba008a6b	-0.00049034384
206	0xbdf950da	-0.12173624
207	0xbb80d8ce	-0.003932095
208	0xb945d6d8	-0.0001886742
209	0x3e1816a8	0.14852393
210	0x3d980a05	0.07423786
211	0xbdb64ef7	-0.0890178
212	0xbda3f939	-0.0800652
213	0x3c52496d	0.012834889
214	0x3df0f4a4	0.117654115
215	0x3e2e22df	0.1700549
216	0xbcfb3f19	-0.030669736
217	0xbca9c3c5	-0.020723233
218	0x3c190ca9	0.009341397
219	0xbcba9ddc	-0.022780351
220	0xbca28a50	-0.019841343
221	0xbd05ea9f	-0.032694455
222	0x3ce4a86c	0.027912341
223	0x3bc91cd5	0.0061374702
224	0x3da62a9d	0.081135966
225	0x3d29fecb	0.041502755
226	0x3da72ac6	0.08162455
227	0x3914edff	0.0001420304
228	0xbce6eea5	-0.028189966
229	0x3dad6e96	0.08468358
230	0x3db50e82	0.08840658
231	0x3dba7227	0.09103804
232	0x3c43d9ed	0.011953813
233	0xbc167a3f	-0.009184419
234	0xbe0260d8	-0.12732255
235	0xbcbbbb75	-0.022916535
236	0x3d3f3a05	0.04668619
237	0x3e02292b	0.12711017
238	0x3d9ed529	0.07755501
239	0xbe003c8d	-0.12523098
240	0xb98882ec	-0.00026037486
241	0xbd7fe200	-0.06247139
242	0xbd31c901	-0.043404583
243	0xbd9c1018	-0.07620257
244	0xbb2cead8	-0.0026385095
245	0x3d4d5854	0.050133064
246	0xbcf30d21	-0.029669346
247	0xbdcb8879	-0.099381395
248	0x3db558e3	0.088548444
249	0xbc0e3cc5	-0.008681481
250	0x3dfa4342	0.1221986
251	0x3b9829bf	0.0046436484
252	0x3d6288db	0.055306297
253	0xbd3da80f	-0.04630285
254	0x3b3517e3	0.0027632646
255	0xbcca9066	-0.024727058
