results/Drone3/Drone/Drone-29499998.onnx (onnx, 810629 bytes, 11 tensors)

action_model._continuous_distribution.log_sigma f4 [1, 4]
0	0xbfcee7e4	-1.6164517
1	0xbfc999c1	-1.5750047
2	0xbfc94a62	-1.5725825
3	0xbfc79fe1	-1.5595666

action_model._continuous_distribution.mu.bias f4 [4]
0	0x3df765f6	0.120799944
1	0x3d437a39	0.047723982
2	0x3e118bf6	0.14213547
3	0x3d2524e2	0.040318377

action_model._continuous_distribution.mu.weight f4 [4, 256]
0	0xbc8791e2	-0.016549055
1	0xbd84adb0	-0.06478441
2	0xbd66ff2e	-0.056395702
3	0xbdac0b87	-0.08400636
4	0xbdbb091c	-0.09132597
5	0xbc667e2c	-0.014068168
6	0x39cbb339	0.00038852709
7	0xbd5e2159	-0.05423102
8	0xbb867faa	-0.004104574
9	0x3d62723f	0.055284735
10	0xbd8dc82e	-0.06922947
11	0xbd4b25bc	-0.049596533
12	0x3cd70c8a	0.026251096
13	0xbd35c7a5	-0.04437985
14	0xbd44c300	-0.04803753
15	0xbd4d497e	-0.050118916
16	0xbd01889e	-0.03162443
17	0x3d5a8fad	0.053359676
18	0x3d61583d	0.05501579
19	0x3d7e9cdd	0.062161315
20	0xbb87511d	-0.0041295425
21	0x3d6924bb	0.056919795
22	0xbd753b58	-0.059871048
23	0xbd6bfffa	-0.057617165
24	0x3c62d837	0.013845495
25	0x3cff2257	0.031144304
26	0xbd1d6257	-0.038423862
27	0xbc92a608	-0.017901435
28	0x3c803173	0.01564858
29	0xbaa93fd7	-0.0012912703
30	0xbd47d163	-0.04878367
31	0xbb9e39b5	-0.0048286566
32	0x3c77b121	0.015117914
33	0x3dbecd9e	0.09316562
34	0xbd8b1e61	-0.06792904
35	0xbcc4a588	-0.024004713
36	0x3d0d419d	0.0344864
37	0xbc578d8e	-0.013156308
38	0x3c1ec4f4	0.009690512
39	0xbd743dbc	-0.059629187
40	0xbc00c69b	-0.007859851
41	0xbdba2bfa	-0.09090419
42	0x3c248934	0.010042477
43	0xbd234495	-0.039860327
44	0xbe02e674	-0.12783223
45	0xbd8cf174	-0.06881991
46	0x3d862057	0.06549137
47	0xbdf4cc02	-0.11952974
48	0x3d650a18	0.05591783
49	0x3c48b14d	0.012249303
50	0xbdd09a40	-0.10185671
51	0xbb92ef3d	-0.004484086
52	0xbafec874	-0.0019438402
53	0x3b280427	0.002563724
54	0xbcb19267	-0.021676255
55	0xbddac165	-0.10681418
56	0xbc7571be	-0.0149807315
57	0xbdce5bb8	-0.10076088
58	0xbdd80a7e	-0.10548876
59	0x3b89018c	0.0041810926
60	0x3ba3f83d	0.0050039575
61	0xbd235664	-0.03987731
62	0x3db02942	0.08601619
63	0x3d233a04	0.03985025
64	0xbc92b69c	-0.01790934
65	0x3b902430	0.004398845
66	0x3c2b39ad	0.010450763
67	0x3aa2adee	0.0012411454
68	0x3d8d8f61	0.06912113
69	0x3d2a7402	0.04161454
70	0x3cf2c107	0.029633058
71	0xbd00b5f0	-0.03142351
72	0xbca04e06	-0.019568454
73	0xbd05a0c0	-0.032624006
74	0x3d75293d	0.05985378
75	0xbc8dcccb	-0.017309567
76	0x3d6334fd	0.055470455
77	0xbdcd6720	-0.10029435
78	0xbd11ff63	-0.035643946
79	0x3cc2dcf6	0.023787003
80	0xbc0ef8dc	-0.008726325
81	0xbd70a44f	-0.058750447
82	0xbcc56e97	-0.024100585
83	0xbca10af8	-0.01965855
84	0x3a3d0409	0.0007210379
85	0xbc18114c	-0.009281468
86	0x3d830ef7	0.06399339
87	0x3d8fb25c	0.07016441
88	0xbd9c058d	-0.07618246
89	0xbd778f9e	-0.0604397
90	0x3c81cfeb	0.015846213
91	0x3c2d838a	0.010590443
92	0x3d898ce9	0.067163296
93	0xbc065e71	-0.0082012275
94	0xbd2256c3	-0.039633524
95	0xbdc36f87	-0.095427565
96	0xbc6c1499	-0.014409208
97	0x3d39c66c	0.045355245
98	0x3cbf91ac	0.023384891
99	0x3bda9605	0.0066707158
100	0x3cbd6065	0.023117254
101	0xbd960034	-0.073242575
102	0x3cf71bf5	0.030164698
103	0xbdb40972	-0.08790864
104	0x3cb13983	0.021633869
105	0x3d22cba2	0.03974498
106	0x3a1a15b0	0.00058778655
107	0x3d1792f0	0.037005365
108	0xbd87dd9a	-0.06634064
109	0x3d030406	0.03198626
110	0xbcbb42bf	-0.022858975
111	0xbd5071a0	-0.05088961
112	0x3daab560	0.08335376
113	0xbccc4105	-0.024933347
114	0xbd156cdb	-0.036480766
115	0xbca3a084	-0.019974
116	0x3b8f9e3b	0.004382876
117	0xbda263f1	-0.079292186
118	0xbda4e823	-0.08052089
119	0xbd198aeb	-0.037485998
120	0xbd8424a1	-0.06452299
121	0xbd52aa00	-0.051431656
122	0x3cab16a2	0.020884816
123	0xbccbeb82	-0.024892572
124	0xbd50d0ee	-0.0509805
125	0xbc921af3	-0.017835116
126	0xbd0ed843	-0.034874212
127	0xbd94e516	-0.07270257
128	0xbe02ec49	-0.12785448
129	0xbd0ebfad	-0.034850765
130	0xbd66167c	-0.056173787
131	0xbc746414	-0.014916439
132	0xbdacfe14	-0.08446899
133	0x3d03e82f	0.03220385
134	0xbdb68459	-0.08911962
135	0xbd5cecb9	-0.053936694
136	0x3d28bb14	0.041194037
137	0xbcf18153	-0.029480612
138	0x3daebd88	0.08532244
139	0xbe0823e6	-0.13294944
140	0xbdb3d350	-0.08780539
141	0x3a09adfb	0.00052520604
142	0xbba8f4c3	-0.005156131
143	0x3d52d39b	0.051471334
144	0x3c82dd2d	0.015974605
145	0xbd410974	-0.047128156
146	0xbdc0e69b	-0.094189845
147	0x3c640baa	0.013918797
148	0xbda070e9	-0.07834036
149	0xbd085aa8	-0.03328958
150	0x3b51c948	0.0032010842
151	0x3d002e53	0.03129418
152	0xbd583ec1	-0.05279422
153	0x3c8c8b46	0.017156255
154	0xbd07a3f1	-0.03311533
155	0xbcacb041	-0.021080138
156	0xbc99a8bb	-0.018757215
157	0x3d3d1211	0.046159808
158	0x3d284ed3	0.041090798
159	0xbd725c7d	-0.059170235
160	0xbe103c93	-0.14085607
161	0x3d910544	0.070810825
162	0x3ce1007c	0.027466051
163	0xbd67ee20	-0.056623578
164	0xbd425066	-0.047439955
165	0x3aedec80	0.0018152148
166	0x3d163bf7	0.03667828
167	0x3cd68f99	0.02619152
168	0xbd792c0a	-0.060833015
169	0xbd5fedbd	-0.054670084
170	0x3c2c8a85	0.0105310725
171	0xbd4275ad	-0.047475506
172	0x3db9a7bb	0.09065195
173	0xbd1cda53	-0.038294148
174	0xbc13c42f	-0.009018942
175	0x3d99f60c	0.07517633
176	0xbccec3e9	-0.025239902
177	0x3bdde4f7	0.0067716795
178	0xbc20665b	-0.009790028
179	0xbcaa981a	-0.02082448
180	0x3ca44ae9	0.020055251
181	0x3da78259	0.08179159
182	0x3d114f9c	0.035476312
183	0xbd527a2a	-0.051386036
184	0xbc8ea9aa	-0.017414887
185	0xbd003760	-0.03130281
186	0x3cf72bf8	0.030172333
187	0xbd70896a	-0.0587248
188	0xbd00e92d	-0.031472374
189	0x3d1ee339	0.038790915
190	0x3c8a52cf	0.01688519
191	0xbd2905d1	-0.041265313
192	0xbdb66b3c	-0.08907172
193	0x3cd6826e	0.02618524
194	0x3cab365b	0.020899942
195	0xbd9b48de	-0.07582258
196	0xbd6cdcb7	-0.057827678
197	0x3d63516b	0.055497568
198	0xbdaff77a	-0.08592124
199	0x3b68c040	0.003551498
200	0xbda3be91	-0.07995332
201	0x3c900bc6	0.017583739
202	0x3d5ae0ec	0.05343716
203	0xbda30e9d	-0.07961772
204	0xbcdbe9e0	-0.026844919
205	0xbd69feae	-0.057127647
206	0xbce66af2	-0.028127167
207	0xbca76f1e	-0.020438727
208	0xbc03f3ca	-0.008053729
209	0xbd347d08	-0.04406455
210	0xbdc74351	-0.097296365
211	0x3d19e7e7	0.037574675
212	0x3aad8b7b	0.0013240421
213	0xbba3f120	-0.0050031096
214	0xbd795592	-0.06087262
215	0xbcd8e871	-0.026478024
216	0xbd7acc4b	-0.061229985
217	0x3d8fddf9	0.0702476
218	0x3d018acb	0.031626504
219	0x3c02a921	0.007974894
220	0xbc3e3500	-0.011609316
221	0xb9a401de	-0.0003128191
222	0xbd0bfc83	-0.03417636
223	0x38f01aba	0.0001144907
224	0xbda5b678	-0.08091444
225	0xbbe67f76	-0.0070342375
226	0xbda7f5d5	-0.082011856
227	0xbcbe7da0	-0.023253262
228	0xbad28316	-0.0016060795
229	0xbccc8f7a	-0.024970759
230	0x3d7d2e14	0.06181152
231	0x3db43d32	0.088007346
232	0xbd84538a	-0.06461246
233	0x3a01195d	0.0004924739
234	0xbbb93540	-0.0056521
235	0xbbdcf753	-0.0067433505
236	0xbd04d2ea	-0.032427706
237	0x3d422fea	0.047408976
238	0xbd3fd5a0	-0.046834588
239	0xbd06b83e	-0.03289055
240	0x3d96a965	0.07356528
241	0x3d120195	0.03564604
242	0xbd0a11f9	-0.033708546
243	0x3d6bac58	0.057537407
244	0x3ccbc931	0.024876209
245	0x3d4f6735	0.050635535
246	0xba9ffeaa	-0.0012206633
247	0xbb1962db	-0.002340487
248	0x3c3cbd39	0.011519724
249	0xbc64c5c2	-0.013963165
250	0xbcbe73d9	-0.0232486
251	0x3bde4eb3	0.006784284
252	0x3cab32aa	0.020898182
253	0xbce9ae68	-0.028525546
254	0xbd17527f	-0.03694391
255	0xbd60e62f	-0.05490702

network_body._body_endoder.seq_layers.0.bias f4 [256]
0	0x3e173d96	0.14769587
1	0xbe0d663b	-0.13808529
2	0x3e13ca04	0.14432532
3	0xbb951289	-0.0045493287
4	0xbe8211b9	-0.25404146
5	0xbddd0199	-0.1079132
6	0xbde4ad83	-0.11165907
7	0xbe24f9bb	-0.1611089
8	0xbe499d5b	-0.19688933
9	0xbd83d671	-0.06437386
10	0xbda69efe	-0.08135794
11	0xbe0ce1c9	-0.13758005
12	0xbc0f6fd3	-0.008754688
13	0xbe3a3cad	-0.18187208
14	0xbd6c9dd3	-0.0577677
15	0x3d61a35d	0.055087436
16	0x3dde6b12	0.10860266
17	0xbe0e9eb5	-0.1392773
18	0xbd1bc1d0	-0.03802663
19	0xbe61282b	-0.21987979
20	0xbcf02cfa	-0.029318321
21	0xbe108da2	-0.14116529
22	0xbdaa7293	-0.083226345
23	0xbe80451e	-0.25052732
24	0xbda0f54a	-0.07859285
25	0xbd7818f3	-0.06057067
26	0xbe183e31	-0.14867474
27	0xbde11c42	-0.10991718
28	0xbdc4caeb	-0.09609016
29	0xbebcf280	-0.36903763
30	0x3aff466d	0.0019475945
31	0xbd8e6a63	-0.069538854
32	0xbdc55ca4	-0.096368104
33	0xbe018c3b	-0.1265115
34	0xbe46a08c	-0.19397181
35	0xbe297e5a	-0.16552106
36	0xbe545719	-0.2073635
37	0xbe184699	-0.14870681
38	0xbe30e74d	-0.17275734
39	0xbe1bf7ed	-0.15231295
40	0xbce1d985	-0.027569542
41	0xbe660918	-0.22464406
42	0xbd9ae678	-0.0756349
43	0x3c20b218	0.009808086
44	0xbe371443	-0.17878823
45	0xbdff104b	-0.124542795
46	0x3ca653ec	0.020303689
47	0xbe1e1e28	-0.15441191
48	0x3dd4cb5a	0.10390349
49	0xbd91aaca	-0.071126536
50	0xbe36143b	-0.17781155
51	0xbe6edff7	-0.23327623
52	0xbdc76a0a	-0.09737022
53	0x3d0ef361	0.034900073
54	0xbd2429e1	-0.040079
55	0xbe711d52	-0.23546341
56	0xbe263a56	-0.16233191
57	0xbe4c0326	-0.19923076
58	0xbd31be98	-0.043394655
59	0xbe12a44c	-0.14320487
60	0xbe879033	-0.26477203
61	0xbe072e43	-0.13201241
62	0xbe41810c	-0.18896884
63	0xbe365dbd	-0.17809196
64	0xbda4d254	-0.080479294
65	0xbe0ef95f	-0.13962315
66	0xbe522ab0	-0.20524096
67	0x3cd0ddac	0.025496326
68	0xbe21283a	-0.15738001
69	0xbdda805e	-0.10669015
70	0xbcffc9ed	-0.031224215
71	0xbdfae117	-0.12249964
72	0xbdad7040	-0.084686756
73	0x3ab3a845	0.0013706764
74	0xbe26c31c	-0.16285366
75	0xbcb9b686	-0.022670042
76	0xbde9bccd	-0.11412964
77	0xbd47eee1	-0.048811797
78	0xbe050cbd	-0.1299314
79	0xbe4faac1	-0.20279981
80	0xbdb40611	-0.087902196
81	0x3d4d5501	0.050129894
82	0xbd9556ef	-0.07291972
83	0x3de57a23	0.11204936
84	0xbda60309	-0.08106048
85	0xbe97fdc6	-0.296858
86	0xbe5fde3a	-0.21862116
87	0xbe217079	-0.15765561
88	0xbe44090d	-0.19144078
89	0xbe02b111	-0.12762858
90	0xbe3bce30	-0.18340373
91	0xbda72a99	-0.08162422
92	0x3e215ce8	0.15758097
93	0x3d88c370	0.06677902
94	0x3d4e655f	0.050389644
95	0xbed5e0e6	-0.41773146
96	0xbe50b473	-0.20381336
97	0xbe4965c5	-0.19667728
98	0xbddb1c84	-0.10698798
99	0x3d621f6d	0.05520575
100	0xbb9705a5	-0.004608827
101	0xbe5d2ec3	-0.2159987
102	0xbe024cf4	-0.12724668
103	0xbe841112	-0.25794274
104	0x3c76d666	0.015065765
105	0xbe066b1b	-0.13126795
106	0xbdf56dc8	-0.1198383
107	0x3e2b1e14	0.16710693
108	0xbbeb6f92	-0.007184931
109	0xbca96ee6	-0.020682763
110	0xbd4eda69	-0.05050126
111	0xbe233c9e	-0.15941092
112	0xbd316c1e	-0.043316
113	0x3dacd597	0.084391765
114	0x3db0c10e	0.08630572
115	0xbe91671b	-0.28398976
116	0xbe4b3b03	-0.1984673
117	0xbd04381a	-0.032280065
118	0xbea3f151	-0.32020047
119	0xbe7c749b	-0.24653856
120	0xbdc469a7	-0.09590464
121	0xbe22523f	-0.15851687
122	0xbe3211c3	-0.17389588
123	0xbdc36abd	-0.09541843
124	0xbdd58d27	-0.10427313
125	0xbca488ea	-0.020084817
126	0xbe16e3d3	-0.14735346
127	0xbdad5acd	-0.084645845
128	0x3d91cf1e	0.071195826
129	0xbdab40a3	-0.08361938
130	0xbd8558d1	-0.06511081
131	0xbd601579	-0.054707978
132	0x3a89fb69	0.0010527197
133	0xbdd46973	-0.10371675
134	0x3d86577b	0.06559654
135	0xbdd2d4df	-0.10294508
136	0x3daaffd7	0.08349579
137	0xbe5a27da	-0.21304265
138	0xbe111545	-0.1416827
139	0xbd0ff565	-0.035146136
140	0xbddcd3c6	-0.1078258
141	0x3deb6d4f	0.11495458
142	0xbd569340	-0.052386522
143	0xbe0dc6ce	-0.13845369
144	0xbdabc44e	-0.083870515
145	0xbd628179	-0.055299256
146	0xbe60a65c	-0.21938461
147	0xbe6cc300	-0.23121262
148	0xbcf3f960	-0.029781997
149	0xbde9d42c	-0.11417422
150	0x3cc97ed6	0.024596613
151	0x3c441488	0.011967786
152	0x3d47ff90	0.048827708
153	0x3cffae2a	0.031210978
154	0xbc36f7b5	-0.011167456
155	0x3d63d570	0.05562347
156	0x3badef1b	0.0053080446
157	0xbe1b16fc	-0.15145487
158	0xbd9ad59f	-0.07560276
159	0xbd3d0321	-0.046145562
160	0x3db827fd	0.08992002
161	0x3e27bd31	0.16380765
162	0xbd482c2e	-0.048870258
163	0x3baa780f	0.0052023004
164	0xbda6d275	-0.0814561
165	0xbcb41ad8	-0.021985456
166	0xbdb9075d	-0.090346076
167	0xbc420448	-0.011841841
168	0xbdaa6128	-0.08319312
169	0xbd10a94c	-0.035317704
170	0xbe18973d	-0.14901443
171	0xbe1584d2	-0.14601448
172	0xbaf116e0	-0.0018393658
173	0xbd4d7a27	-0.05016532
174	0x3ce2a866	0.02766819
175	0xbd626162	-0.055268653
176	0xbde9d6d4	-0.11417928
177	0xbe80f141	-0.25184062
178	0xbc33b518	-0.010968469
179	0xbe754bce	-0.23954698
180	0xbe72ac47	-0.23698531
181	0xbcb7f0e5	-0.022453735
182	0xbd140da5	-0.036145825
183	0xbdf72286	-0.12067132
184	0xbe6dcf01	-0.23223497
185	0x3d4124d5	0.047154266
186	0xbdea2a6b	-0.11433872
187	0xbcd8aca9	-0.026449518
188	0xbe5d8c59	-0.2163557
189	0x3e0f6cc5	0.14006336
190	0xbdf9624a	-0.1217695
191	0xbcdd34a2	-0.027002636
192	0xbd91ba6b	-0.071156345
193	0x3d510ff9	0.051040623
194	0xbd8c3273	-0.0684556
195	0xbd673bd6	-0.05645355
196	0xbe379dc3	-0.17931275
197	0xbbe99f22	-0.007129566
198	0xbe15ca2f	-0.14627908
199	0xbd3c35af	-0.045949634
200	0x3cf91832	0.030407045
201	0x3d7392cd	0.059466172
202	0xbdfc8c9e	-0.12331508
203	0xbe385580	-0.18001366
204	0xbd9ecfbd	-0.07754467
205	0xbe28e829	-0.16494812
206	0xbdbb34a0	-0.09140897
207	0xbe2c96b1	-0.16854359
208	0xbdabf322	-0.08395983
209	0xbd749609	-0.059713397
210	0x3c96ed22	0.01842362
211	0x3b96800d	0.0045929016
212	0xbe12da01	-0.14340974
213	0xbd352906	-0.044228576
214	0xbdecf52c	-0.115702
215	0xbe79e208	-0.2440263
216	0xbccb9553	-0.024851477
217	0x3d3391c0	0.04384017
218	0xbde236fd	-0.110456444
219	0xbe10e4ad	-0.14149733
220	0xbeaf56ee	-0.3424601
221	0xbe047034	-0.12933427
222	0x3de68dd6	0.11257522
223	0xbbe4e7f0	-0.006985657
224	0xbde1dea6	-0.11028795
225	0xbdd915e5	-0.10599879
226	0xbdaf32a5	-0.085545816
227	0xbe80b466	-0.25137633
228	0xbe1ecad1	-0.15507056
229	0xbd270dc3	-0.04078461
230	0x3e10e066	0.14148101
231	0x3d322fad	0.0435025
232	0xbe3a35db	-0.18184607
233	0xbe10c896	-0.14139017
234	0xbd95cbf2	-0.0731429
235	0xbd5cbcd4	-0.053891018
236	0x3d32029a	0.043459512
237	0xbdabcf81	-0.083891876
238	0xbe1ff8f8	-0.15622318
239	0x3db40c85	0.087914504
240	0xbdb38b4c	-0.08766803
241	0x3df9c717	0.121961765
242	0x3c3da2c2	0.011574449
243	0xbde430f5	-0.1114215
244	0xbd8b170b	-0.067915045
245	0xbe22b2df	-0.15888546
246	0xbe35e67f	-0.17763709
247	0xbd71834d	-0.05896311
248	0xbd9b98c6	-0.075974986
249	0xbe149ef8	-0.14513767
250	0xbe460aa9	-0.19340004
251	0xbcc55d34	-0.024092294
252	0x3af1696a	0.0018418257
253	0xbe23451b	-0.1594433
254	0x3d3e8ecf	0.04652291
255	0xbe01bc44	-0.12669474

network_body._body_endoder.seq_layers.0.weight f4 [256, 13]
0	0x3e79dd28	0.2440077
1	0xbe58f18f	-0.21185897
2	0xbe1b38a4	-0.15158325
3	0xbd77f44b	-0.06053571
4	0x3e38dec2	0.18053725
5	0x3e53628b	0.2064306
6	0x3f9185e5	1.1368986
7	0xbe584734	-0.21120912
8	0xbfca1f03	-1.5790714
9	0x3f881526	1.0631454
10	0xbe99540f	-0.29946944
11	0xbd9081d3	-0.07056012
12	0x3f07db06	0.5306858
13	0x3e060ae3	0.1309009
14	0x3e3bc9f7	0.18338762
15	0x3dee10d0	0.116243005
16	0xbe29fe1c	-0.16600841
17	0xbd790ac4	-0.060801283
18	0xbd2d0df6	-0.042249642
19	0x3eb48803	0.3526002
20	0xbda9caba	-0.0829062
21	0xbeb20a87	-0.34773657
22	0x3c625a05	0.013815408
23	0x3e1d9a3e	0.1539087
24	0xbcab989f	-0.020946799
25	0x3f25a350	0.6470232
26	0xbaca69d5	-0.0015442917
27	0x3e017873	0.12643604
28	0xbeb4897b	-0.3526114
29	0xbd34ab3d	-0.044108618
30	0xbc97d342	-0.018533353
31	0x3de0f48d	0.10984144
32	0x402d94a5	2.7121975
33	0x3ebc90f0	0.3682933
34	0x3e1418f4	0.14462644
35	0x3f1e321e	0.6179522
36	0xbddd521d	-0.108066775
37	0x3f19e095	0.6010831
38	0x3cd07b1e	0.025449332
39	0x3e653cab	0.22386424
40	0xbf1680f3	-0.5879051
41	0xbe326c26	-0.17424068
42	0xbd99ae7e	-0.07503985
43	0x3dd63274	0.10458842
44	0xbdeca09e	-0.11554073
45	0xbe175a10	-0.1478045
46	0xbd7a5e52	-0.061125107
47	0x3e4445b9	0.19167222
48	0xbd10aeae	-0.035322838
49	0xbd8340e4	-0.06408861
50	0xbeb7259e	-0.35770887
51	0xbda9d496	-0.08292501
52	0xbe97fd28	-0.2968533
53	0xbefcc9db	-0.49372754
54	0x3db35ec6	0.08758311
55	0x3f104340	0.56352615
56	0xbeeda4bf	-0.46414754
57	0x3e728079	0.23681821
58	0x3e7709f1	0.24124886
59	0x3ed223db	0.4104298
60	0x3d8dce5c	0.069241256
61	0xbf1bfe8c	-0.6093528
62	0xbd368f90	-0.044570506
63	0xbefce3e1	-0.49392608
64	0x3e1f4f1c	0.15557522
65	0xbd3cb436	-0.0460703
66	0xbd3a1b8d	-0.04543643
67	0xbd4d7cb5	-0.050167758
68	0xbdf960e1	-0.12176681
69	0x3e0dccc6	0.13847646
70	0x3e3b98db	0.18320028
71	0xbfc3ed09	-1.5306712
72	0xbdb8ec0f	-0.090293996
73	0x3e4978bd	0.19674964
74	0xbdd68cf4	-0.104761034
75	0x3c918206	0.017762195
76	0x3e2a6b97	0.16642605
77	0xbe646109	-0.22302641
78	0xbd0cb5ae	-0.03435295
79	0xbe927920	-0.28608036
80	0xbf00c107	-0.50294536
81	0x3e08cb21	0.13358738
82	0xbdf75ba0	-0.12078023
83	0xbdc59d5b	-0.09649154
84	0xbf2874fd	-0.6580351
85	0x3eb20a8d	0.34773675
86	0xbe45f6d2	-0.19332436
87	0x3eb7f905	0.35932174
88	0x3da2ed2d	0.07955394
89	0x3e2dce7f	0.16973303
90	0xbe823288	-0.25429177
91	0x3e29041b	0.16505472
92	0xbf5b812d	-0.8574398
93	0x3d23fe40	0.040037394
94	0xbe8f6917	-0.28009865
95	0x3d8aeed8	0.06783837
96	0xbe37f5db	-0.1796488
97	0xbdb2e9be	-0.08735989
98	0xbf3609df	-0.7110881
99	0xbe08b993	-0.13352041
100	0x3e0a1b1f	0.13486908
101	0xbe37aab2	-0.17936209
102	0xbe4d77a3	-0.20065169
103	0xbdf80552	-0.1211039
104	0x3dd30266	0.10303192
105	0xbe0732e3	-0.13203005
106	0xbca17084	-0.019706972
107	0x3e67cb6d	0.22636195
108	0x3d486edf	0.04893386
109	0xbe259000	-0.16168213
110	0xbf1e5c80	-0.61859894
111	0xbf194fda	-0.5988747
112	0x3e22e77c	0.15908617
113	0xbe35a524	-0.17738777
114	0xbac1feb4	-0.0014800639
115	0x3d760ec4	0.060072675
116	0xbde2eb20	-0.11080003
117	0x3e923e88	0.28563333
118	0xbe61d473	-0.22053699
119	0x3ddb0033	0.106933974
120	0x3dfa5d33	0.122248076
121	0x3c43945b	0.011937226
122	0x3d879445	0.06620077
123	0xbe20f414	-0.15718108
124	0xbd2ed72a	-0.042685665
125	0x3f08d7f3	0.5345451
126	0xbee65fb9	-0.44994906
127	0x3dcf9f6b	0.101378284
128	0x3e294876	0.16531548
129	0xbd5da49b	-0.054112058
130	0xbd44df2e	-0.048064403
131	0x3d07e34a	0.033175744
132	0x3cad68a9	0.02116807
133	0x3ddb0865	0.106949605
134	0x3d990b48	0.07472855
135	0xbc444569	-0.011979439
136	0xbd2b45cf	-0.04181462
137	0xbec8bb27	-0.39205286
138	0xbcfc5417	-0.030801816
139	0xbe8a8f90	-0.27062654
140	0x3f017b28	0.50578547
141	0xbf1b2006	-0.6059574
142	0x3d0a2405	0.033725757
143	0xbda810d2	-0.08206333
144	0xbeac961b	-0.3370827
145	0xbcf8481c	-0.030307822
146	0xbe991ae6	-0.29903334
147	0x3df2a6fb	0.11848255
148	0x3dbe36f8	0.09287828
149	0xbf7c9705	-0.9866794
150	0xbebbafa5	-0.36657444
151	0x3eda0d41	0.42588237
152	0x3e03b8dc	0.12863487
153	0xbe2f1502	-0.17097858
154	0x3e91fe9c	0.28514564
155	0xbd7be7c5	-0.06150033
156	0x3e05d9b3	0.13071327
157	0x3e33d756	0.17562613
158	0x3eaeeaa6	0.34163398
159	0xbe848f14	-0.2589041
160	0x3e6626ec	0.22475785
161	0x3e0d50fb	0.13800423
162	0x3ee84a66	0.45369262
163	0xbecf988a	-0.40546066
164	0x3f56fab3	0.83976287
165	0xbd2e4155	-0.042542774
166	0xbe9a6629	-0.30156067
167	0x3ed1565b	0.40886196
168	0x3eeedec3	0.4665433
169	0x3eb8c287	0.36085913
170	0xbea45a7e	-0.3210029
171	0xbd77677b	-0.06040142
172	0x3dd63c5f	0.104607336
173	0x3da1c09e	0.07898067
174	0x3f239e58	0.6391349
175	0xbf596a0c	-0.8492744
176	0x3d3a1b6e	0.045436315
177	0xbf0064f7	-0.5015406
178	0xbf14d07f	-0.5813064
179	0x3de3b66f	0.11118781
180	0x3de3f55f	0.11130785
181	0xbdfa37b1	-0.122176535
182	0xbe6ec536	-0.23317418
183	0xbdc12d20	-0.09432435
184	0xbebff230	-0.37489462
185	0x3df24643	0.118298076
186	0xbe2a2244	-0.16614634
187	0x3d73c482	0.059513576
188	0x3f0d5b62	0.55217564
189	0x3edf0920	0.4356165
190	0x3e057eca	0.13036647
191	0x3edeb414	0.43496764
192	0xbd913e3d	-0.07091949
193	0xbebec8d7	-0.37262604
194	0x3d01f797	0.03173026
195	0x3d84bdb3	0.06481495
196	0x3e385c38	0.18003929
197	0xbd1cac57	-0.038250294
198	0x3d98ac59	0.07454748
199	0xbea76131	-0.3269134
200	0x3e34b2c3	0.17646317
201	0xbf5d0f05	-0.86351043
202	0x3ec01da5	0.37522617
203	0xbfd8c1a3	-1.6934093
204	0x3ed88727	0.42290613
205	0xbd52632b	-0.051364105
206	0x3d88b639	0.06675381
207	0xbd87354a	-0.06601961
208	0xbb902dc6	-0.004399988
209	0x3eae9651	0.34099057
210	0x3d896553	0.06708779
211	0xbe3af0fb	-0.18255989
212	0x3d792b30	0.060832202
213	0x3d59d5e6	0.053182505
214	0x3f973efb	1.1816095
215	0xbd80ecf9	-0.06295199
216	0x3f47fae1	0.78117186
217	0x3eb22fcc	0.3480209
218	0xbe8a9485	-0.27066436
219	0x3f1a3fce	0.6025361
220	0x3ed183ed	0.40920964
221	0x3d9ffa65	0.07811431
222	0x3ef72251	0.4826837
223	0x3e8d91e2	0.27650362
224	0xbe90015d	-0.2812604
225	0xbe0f4503	-0.1399117
226	0x3d37e666	0.04489746
227	0xbe49add6	-0.1969522
228	0x3cf797c6	0.030223738
229	0x3f98001a	1.1875031
230	0xbe844c19	-0.25839308
231	0x3e239316	0.15974078
232	0xbde4c17d	-0.111697175
233	0xbd9e5bfd	-0.07732389
234	0xbedccf2b	-0.43126807
235	0x3d904ed7	0.070462875
236	0x3db88fd5	0.09011809
237	0x3ea012ee	0.31264442
238	0xbe89fe71	-0.26951936
239	0xbd9f99e2	-0.07793023
240	0xbfe85a76	-1.8152606
241	0xbefce1a3	-0.49390897
242	0x3d0963eb	0.033542555
243	0x3edb251a	0.42801744
244	0x3ddb42e9	0.107061215
245	0xbe342a72	-0.17594317
246	0xbcc265b5	-0.023730138
247	0x3e31bf6c	0.17358178
248	0xbef53ea6	-0.4789936
249	0x3e1cb37a	0.1530284
250	0xbea3ad51	-0.31968167
251	0x3e5d3488	0.2160207
252	0xbe7d3621	-0.2472768
253	0xbe396a0d	-0.18106861
254	0xbecb5adb	-0.39717755
255	0x3e1e37f6	0.15451035

network_body._body_endoder.seq_layers.2.bias f4 [256]
0	0xbdbcbf5e	-0.09216188
1	0xbe032e38	-0.128106
2	0x3d7bc53d	0.061467398
3	0x3d8c2a42	0.068439975
4	0xbdab8a4f	-0.0837599
5	0xbca8fb41	-0.02062762
6	0xbcc3e77c	-0.023914091
7	0x3bb06a61	0.005383775
8	0xbcbb1d3f	-0.022841094
9	0xbe0e99d0	-0.13925862
10	0xbd9f5c02	-0.07781221
11	0x3dcd45ec	0.10023102
12	0x3c9d0c3d	0.019170875
13	0xbcd5c3dd	-0.026094371
14	0x3d641999	0.055688474
15	0xbe442ca9	-0.19157661
16	0xbdc6790b	-0.09691056
17	0xbc8ff2a1	-0.01757175
18	0xbde77580	-0.11301708
19	0xbde3210f	-0.1109029
20	0xbd35f3f3	-0.0444221
21	0xbd2190b5	-0.039444644
22	0xbdfc97b6	-0.12333624
23	0x3d50d3df	0.050983306
24	0xbda5e636	-0.0810055
25	0xbd8e3791	-0.06944192
26	0xbe27c71d	-0.1638455
27	0xbd99c2cf	-0.0750786
28	0xbc8e5b91	-0.017377647
29	0xbdbcc1e2	-0.09216668
30	0xbc0c4f10	-0.008563772
31	0xbac69952	-0.0015151894
32	0x3cb31217	0.021859212
33	0xbe4ffe3e	-0.2031183
34	0xbdba23d9	-0.09088869
35	0xbdf8e778	-0.12153524
36	0xbdd56c9e	-0.10421108
37	0xbe0ec9e3	-0.13944201
38	0xbe07ec75	-0.13273795
39	0xbde0a0db	-0.10968181
40	0xbdebad92	-0.11507715
41	0xbdb76d5e	-0.08956407
42	0xbdfebc18	-0.1243822
43	0xbdbf7f2e	-0.093504295
44	0xbdf272de	-0.118383154
45	0xbdb2ddbd	-0.087336995
46	0xbdc0b247	-0.09409004
47	0xbe3bd851	-0.18344237
48	0xbdb54909	-0.08851821
49	0xbd92b1c7	-0.071628146
50	0x3da49283	0.080357574
51	0xbd17b4c0	-0.03703761
52	0x3d0275d7	0.031850662
53	0xbde46ed3	-0.111539505
54	0xbb5f02bc	-0.003402873
55	0xb80f82c5	-3.4215645e-05
56	0xbd85201b	-0.06500264
57	0xbd9bec6f	-0.076134555
58	0xbdfeb33a	-0.124365285
59	0xbd81a254	-0.0632979
60	0xbe7e5b85	-0.248396
61	0xbd380f4a	-0.044936456
62	0xbdd80abf	-0.10548925
63	0xbdebec05	-0.115196265
64	0xbb4f0680	-0.0031589568
65	0xbda9fd65	-0.08300284
66	0xbe3a32c2	-0.18183425
67	0xbe6d2a81	-0.23160745
68	0xbdc5c5d6	-0.09656875
69	0x3c7c574c	0.015401673
70	0xbc760fb7	-0.015018395
71	0x3cea95dd	0.028635914
72	0xbe3dc968	-0.18533862
73	0xbdaab20d	-0.08334742
74	0xbdd1c781	-0.102431305
75	0xbdee2f8a	-0.11630161
76	0xbcd9af7d	-0.026572937
77	0xbe286588	-0.16444981
78	0xbd8c7b0d	-0.068594076
79	0xbd9e857a	-0.077403024
80	0x3bd4fcea	0.0064998763
81	0xbdf8c49b	-0.121468745
82	0xbd3e5833	-0.046470832
83	0xbd234808	-0.039863616
84	0xbda36898	-0.07978934
85	0xbcd08293	-0.025452888
86	0x3cf0bb67	0.029386235
87	0xbdac1930	-0.08403242
88	0xbd551086	-0.05201771
89	0xbe4b3312	-0.198437
90	0x3d1972df	0.037463065
91	0xbd3bf40e	-0.045887046
92	0xbe678792	-0.2261031
93	0xbc33d130	-0.010975167
94	0xbd689621	-0.0567838
95	0xbc01dc6e	-0.00792609
96	0x3df7e3b1	0.121039756
97	0x3d4912c8	0.049090177
98	0xbe0bd8c2	-0.13656905
99	0xbe190186	-0.14941987
100	0xbd7f7181	-0.062364105
101	0xbd8d0d4f	-0.06887304
102	0xbe37e5f7	-0.17958818
103	0x3b61b566	0.0034440397
104	0xbd0093cd	-0.031390954
105	0xbd294b14	-0.041331366
106	0xbd94b553	-0.07261147
107	0xbde70e0d	-0.11281977
108	0xbdc0ea32	-0.09419669
109	0xbe7f2f8c	-0.24920481
110	0xbd0f5389	-0.034991775
111	0x3cbb830a	0.022889633
112	0xbdbb147e	-0.09134768
113	0xbd2ca737	-0.042151656
114	0xbdb1173f	-0.08647012
115	0xbe63fc7a	-0.22264281
116	0x3be89c26	0.0070986925
117	0x3c2de623	0.010613951
118	0xbe47eddf	-0.19524334
119	0x3c5aa632	0.013345288
120	0xbd40f1a4	-0.047105446
121	0xbcc7446a	-0.024324615
122	0xbcf17fe0	-0.02947992
123	0xbdb2256e	-0.086985454
124	0xbdb1a8a5	-0.086747445
125	0x3da655f7	0.08121865
126	0xbe196377	-0.14979349
127	0xbe2bf4e9	-0.16792645
128	0xbde0337d	-0.109473206
129	0xbdc281e1	-0.09497429
130	0xbde9c835	-0.114151396
131	0xbd2e0705	-0.042487163
132	0x3cf5e93c	0.030018441
133	0xbd4bce67	-0.049757387
134	0xbd9e704d	-0.077362634
135	0xbdafb029	-0.08578522
136	0xbda16742	-0.07881023
137	0xbe2c49bb	-0.16825001
138	0xbc841a26	-0.01612575
139	0x3d5f1903	0.054467212
140	0xbd69a0de	-0.05703818
141	0xbdab6a54	-0.0836989
142	0x3d3b5e9b	0.04574452
143	0x39f8a010	0.00047421502
144	0x3d5beacd	0.05369072
145	0xbd897d60	-0.067133665
146	0xbdf0ca78	-0.11757368
147	0xbda19071	-0.07888878
148	0xbe8aa316	-0.2707755
149	0xbdce5a84	-0.10075858
150	0xbe3e9642	-0.18612006
151	0xbdd1aecc	-0.10238418
152	0x3bba54fd	0.005686401
153	0xbd1d440a	-0.038394965
154	0xbd8d4dc5	-0.06899599
155	0xbd6936ca	-0.056937017
156	0xbdcc18b9	-0.09965653
157	0xbe1a13f4	-0.15046674
158	0xbd868837	-0.0656895
159	0xbdccc3c2	-0.09998275
160	0xbd61b428	-0.05510345
161	0xbdea056e	-0.11426817
162	0xbd2ef848	-0.04271725
163	0xbe2da9d3	-0.16959314
164	0xbdb03ab5	-0.086049475
165	0xbbdb7d42	-0.0066982815
166	0xbc08fc47	-0.008360929
167	0xbd9a2496	-0.075265095
168	0x3d4b0ef5	0.04957481
169	0xbde2f66c	-0.110821575
170	0xbe2b734c	-0.16743201
171	0xbd2ad94e	-0.041711144
172	0x3cc0c172	0.023529742
173	0xbc529b7d	-0.012854454
174	0xbc986425	-0.01860244
175	0xbe054b4c	-0.13017005
176	0xbd81b0b5	-0.06332532
177	0xbdf4e194	-0.11957088
178	0x3db1e778	0.08686727
179	0x3d3663d6	0.044528805
180	0x3c189b09	0.009314307
181	0xbcdcaa6e	-0.026936736
182	0xbdd80fe3	-0.10549905
183	0xbd6b16e9	-0.057394896
184	0xbd868eb3	-0.065701865
185	0x3d747b12	0.05968768
186	0xbd257603	-0.040395748
187	0xbe7f3fd5	-0.24926694
188	0xbd89d8ad	-0.06730781
189	0xbdd92152	-0.106020585
190	0xbdf5b782	-0.11997892
191	0xbe134a30	-0.14383769
192	0xbcec8e96	-0.028876584
193	0xbd998bd7	-0.074973755
194	0xbcb701f2	-0.022339795
195	0xbde0ca5d	-0.10976098
196	0xbdadeac2	-0.08492042
197	0x3df2a486	0.118477866
198	0xbd1377bb	-0.036002856
199	0xbe0110ce	-0.12604067
200	0xbd0628bd	-0.032753695
201	0xbcb07628	-0.021540716
202	0xbc79bb79	-0.015242451
203	0xbc40364b	-0.011731694
204	0xbe350858	-0.17678964
205	0xbd80dfbd	-0.06292675
206	0xbdcf4bf1	-0.101219065
207	0xbe03142c	-0.12800664
208	0xbd000f0b	-0.031264346
209	0xbe33cf26	-0.1755949
210	0xbe3beffc	-0.18353266
211	0xbe665238	-0.22492301
212	0xbde68650	-0.11256087
213	0xbdb6a021	-0.08917261
214	0xbd409eca	-0.047026433
215	0xbd691297	-0.056902494
216	0xbd802983	-0.06257918
217	0xbd80637d	-0.06268976
218	0x3bce018c	0.0062868055
219	0xbd60ef46	-0.05491569
220	0xbd2e5f38	-0.042571276
221	0xbdceef17	-0.101041965
222	0xbda0fefb	-0.07861134
223	0xbdbeabfb	-0.093101464
224	0xbd7c3948	-0.061578065
225	0xbda282a1	-0.07935072
226	0xbde5f9b1	-0.112292655
227	0xbe1d212f	-0.1534469
228	0xbd6d4cf2	-0.05793471
229	0x3d8bbbcb	0.06822928
230	0xbcd4d75a	-0.025981594
231	0xbd0b2000	-0.033966064
232	0xbe3230ad	-0.17401381
233	0xbe48ab87	-0.19596682
234	0x3d0931da	0.033494808
235	0xbd9ffa94	-0.07811466
236	0xbd8afb13	-0.0678617
237	0xbd18c115	-0.037293512
238	0xbddb5523	-0.10709598
239	0x3bb8f476	0.0056443764
240	0xbd4964eb	-0.04916851
241	0xbe15e9fa	-0.14640036
242	0xbe0eacc1	-0.13933088
243	0x3d0f191b	0.03493605
244	0xbdc0dd1c	-0.09417173
245	0xbd597b4f	-0.053096112
246	0x3ce12de3	0.0274877
247	0xbe030810	-0.12796044
248	0xbd654c94	-0.055981234
249	0xbd607569	-0.05479947
250	0xbd4678bc	-0.048454985
251	0xbe1ddca1	-0.15416194
252	0xbe1dc8cf	-0.15408634
253	0xbe3c11cf	-0.18366168
254	0xbd331700	-0.043723106
255	0xbd0fbdc1	-0.035093073

network_body._body_endoder.seq_layers.2.weight f4 [256, 256]
0	0x3d78233d	0.06058048
1	0xbda5a372	-0.08087815
2	0xbca35267	-0.019936753
3	0xbe30e48f	-0.17274688
4	0xbdb54c70	-0.0885247
5	0xbd222bdf	-0.03959262
6	0x3c2e4747	0.010637111
7	0x3d9e5d91	0.0773269
8	0x3d5855f8	0.05281636
9	0x3c03b38a	0.008038411
10	0xbdb8e603	-0.09028246
11	0x3dca8df6	0.09890358
12	0xbdef23e0	-0.116767645
13	0xbdfe2708	-0.12409788
14	0xbdf14836	-0.11781351
15	0xbd34f62b	-0.044180077
16	0xbdb348cf	-0.087541215
17	0xba5cf2e1	-0.0008428526
18	0x3de303ba	0.11084695
19	0xbd470b38	-0.048594683
20	0x3dca5385	0.09879211
21	0x3d3c5e8e	0.045988612
22	0xbced35d5	-0.028956333
23	0xbddc0590	-0.107432485
24	0x3ca62b41	0.020284297
25	0xbd2e50ed	-0.042557646
26	0xbe317524	-0.17329842
27	0xbe0895ac	-0.13338345
28	0xbd0a7def	-0.033811506
29	0xbd217c80	-0.039425373
30	0xbe0f77e7	-0.14010583
31	0x3cad2a6c	0.021138392
32	0xbd82c69c	-0.06385538
33	0xbd9348ad	-0.07191596
34	0xbded3e7a	-0.11584182
35	0xbe290b7c	-0.16508287
36	0x3c9a3f4d	0.018829012
37	0xbd458ed2	-0.048231907
38	0xbc72522c	-0.014790099
39	0x3cc43433	0.023950672
40	0xbdf3cf8b	-0.1190482
41	0x3e054e39	0.13018121
42	0xbb949763	-0.0045346483
43	0xbdaa8d30	-0.08327711
44	0xbe288ef0	-0.16460776
45	0x3d70d3d2	0.058795758
46	0xbdd31985	-0.10307602
47	0xbda42394	-0.080145985
48	0xbd90cd35	-0.0707039
49	0x3c82f4ff	0.015985964
50	0xbd596f1d	-0.05308448
51	0xbdbaacc1	-0.091149814
52	0x3d2ff1a4	0.042955056
53	0x3d55a16c	0.052155897
54	0xbd79514e	-0.060868554
55	0xbca80d75	-0.02051423
56	0x3d7d710e	0.061875395
57	0xbd2a9ed2	-0.04165537
58	0xbcf4c645	-0.029879699
59	0x3d4e55b1	0.05037469
60	0xbda25fa7	-0.079284005
61	0xbe297f2f	-0.16552423
62	0x3d32488c	0.043526217
63	0x3d085ec9	0.03329352
64	0xbc77a46a	-0.015114883
65	0x3cd3fe12	0.025877986
66	0xbcd11891	-0.02552441
67	0x3d995b02	0.074880615
68	0x3d03d9aa	0.032190003
69	0xbe1d8814	-0.15383941
70	0xbe1e66c9	-0.15468897
71	0x39b98879	0.0003538763
72	0xbdf1e725	-0.118116654
73	0x3d1426fe	0.03617
74	0x3cc8be57	0.024504824
75	0xbd445e36	-0.04794141
76	0xbd426679	-0.047461007
77	0x3c3ce609	0.011529454
78	0xbe063651	-0.13106658
79	0xbdbae988	-0.09126574
80	0x3c5bfd6f	0.0134271225
81	0xbd707487	-0.05870488
82	0xbd7faccb	-0.062420648
83	0xbd8fa652	-0.07014145
84	0xbe64cc3e	-0.22343537
85	0x3d22919a	0.039689638
86	0xbdce6fac	-0.100798935
87	0xbd584213	-0.05279739
88	0xbd29d7fd	-0.041465748
89	0xbc466abb	-0.012110407
90	0x3d79174c	0.060813233
91	0xbe2602b0	-0.16211963
92	0x3c143210	0.009045139
93	0xbe5b04ea	-0.21388593
94	0x3de4cbfe	0.11171721
95	0xbe0a9e87	-0.13537036
96	0xbd404008	-0.046936065
97	0xbdcff97b	-0.101550065
98	0x3dcc9c15	0.09990708
99	0x3d97cd02	0.07412149
100	0xbc1519e2	-0.009100409
101	0xbc777b7d	-0.0151051255
102	0x3ca06b58	0.019582435
103	0xbdcfe8a1	-0.10151792
104	0x3da53fd7	0.08068817
105	0xbc521d5b	-0.012824382
106	0xbb896897	-0.0041933763
107	0xbdbeb50b	-0.09311875
108	0x3d3948e1	0.04523552
109	0xbdbea56a	-0.09308894
110	0xbe4b76c2	-0.19869521
111	0xbce02a1a	-0.027363826
112	0x3e151fad	0.14562865
113	0x3bfd6a8a	0.0077336477
114	0x3d8709a9	0.065936394
115	0x3c1856ad	0.009298009
116	0x3c810b46	0.015752446
117	0xbe6840b3	-0.22680931
118	0xbe10cbd5	-0.14140256
119	0xbe4e4e71	-0.2014711
120	0xbd8f82ee	-0.07007395
121	0xbd66f91a	-0.056389906
122	0x3dbcb055	0.0921332
123	0x3ca6a1f2	0.020340893
124	0xbc4fad2d	-0.012675566
125	0xbe41e1c8	-0.18933785
126	0xbddc80fe	-0.10766791
127	0xbe71a4a3	-0.2359796
128	0x3c470c2f	0.012148901
129	0x3ca1d48b	0.019754669
130	0x3cf5eaa3	0.03001911
131	0xbe328144	-0.17432123
132	0xbe0ed75f	-0.13949345
133	0x3c7b84b3	0.015351462
134	0xbe00311b	-0.12518732
135	0xbd9f3e23	-0.077755235
136	0x3d2e07a3	0.04248775
137	0x3c8a94c4	0.01691664
138	0xbe3791ed	-0.1792676
139	0xbe1b7dd8	-0.15184724
140	0xbdb72f79	-0.089446016
141	0xbc8ba848	-0.017048016
142	0x3c0bd5d1	0.0085348645
143	0xbd886f3a	-0.0666184
144	0xbdf1f61e	-0.11814521
145	0x3aa344a2	0.0012456367
146	0xbdd6f370	-0.10495651
147	0x3df870e2	0.12130906
148	0xbddda936	-0.1082329
149	0x3d313c0a	0.04327015
150	0xbde6874d	-0.11256275
151	0x3d853114	0.065035015
152	0xbe2100c1	-0.15722944
153	0xbe142b79	-0.14469709
154	0xbe682efd	-0.22674175
155	0x3cfaf816	0.030635875
156	0xbd70aaa3	-0.05875648
157	0x3cd44667	0.025912477
158	0xbd2bd03d	-0.04194664
159	0xbcd64f5e	-0.026160892
160	0xbe52e897	-0.20596538
161	0x3b9ec554	0.0048453007
162	0xbdce7d4e	-0.10082494
163	0x3d8825b0	0.06647813
164	0xbe0c35d9	-0.13692416
165	0xbe1572fe	-0.14594647
166	0xbdbe2b6c	-0.09285626
167	0xbc96dccf	-0.018415837
168	0xbcd824df	-0.026384769
169	0xbdfeda4b	-0.1244398
170	0x3cd5dc35	0.02610598
171	0xbda67f62	-0.08129765
172	0xbd1b215f	-0.037873622
173	0xbdb5fafb	-0.08885761
174	0xbd68cb66	-0.0568346
175	0x3cf9aea5	0.030478785
176	0xbd3ac206	-0.04559519
177	0xbdbe85c9	-0.09302861
178	0xbd50b4b4	-0.050953582
179	0xbe1de2a7	-0.15418492
180	0xbd9b6a8b	-0.07588681
181	0x3e190229	0.1494223
182	0xbd7bebd4	-0.0615042
183	0xbdc64aac	-0.09682211
184	0xbe5ca33d	-0.21546645
185	0xbdb78cbe	-0.08962391
186	0x3abcb7c2	0.0014398026
187	0xbd2201a8	-0.03955236
188	0xbc518954	-0.012789089
189	0x3d903194	0.07040706
190	0xbd4242de	-0.04742705
191	0x3a0a5142	0.00052763906
192	0x3c01afc0	0.007915437
193	0xbdfcbb2c	-0.12340388
194	0x3d37d7bc	0.044883475
195	0x3dc504d8	0.096200645
196	0x3dcb6068	0.099304974
197	0xbd36fec8	-0.044676572
198	0x3ab6a8b3	0.0013935774
199	0xbe30234f	-0.17200969
200	0x3b1e1086	0.0024118735
201	0xbd5568ea	-0.052102007
202	0xbe4265d3	-0.18984155
203	0xbe170c05	-0.14750679
204	0xbe2e5b2a	-0.17026964
205	0x3e18bb33	0.14915161
206	0xbd0b9ff4	-0.03408809
207	0xbd9ca2eb	-0.07648262
208	0x3d9e30a9	0.07724125
209	0xbddcb7c5	-0.10777239
210	0xbc820892	-0.015873227
211	0xbe83a9b4	-0.2571541
212	0x3bb56519	0.0055357334
213	0xbc97e10d	-0.01853993
214	0x3d12c0d7	0.035828438
215	0xbe9dce83	-0.30821618
216	0xbc99e5c1	-0.018786313
217	0xbd20d6ac	-0.039267227
218	0x3d832e34	0.06405297
219	0xbdacf4bc	-0.08445117
220	0x3d8b307a	0.067963555
221	0xbe272b46	-0.16325101
222	0xbd29a076	-0.041412793
223	0xbe11e400	-0.14247131
224	0x3d045941	0.03231168
225	0xbdd1c86d	-0.10243306
226	0xbd426ea3	-0.047468793
227	0x3daeb50f	0.08530628
228	0xbe0226ef	-0.12710164
229	0xbe20dc04	-0.1570893
230	0xbdc10843	-0.09425404
231	0x3c14d72f	0.009084507
232	0xbc0e16fd	-0.008672473
233	0xbd22590f	-0.039635714
234	0xbd924bb2	-0.07143344
235	0x3beafcbe	0.0071712425
236	0xbe5aea1f	-0.21378373
237	0xbe027af6	-0.12742218
238	0xbe1bc7df	-0.15212964
239	0xbea46bfc	-0.32113636
240	0xbdadaf23	-0.0848067
241	0x3d547ceb	0.051876944
242	0xbd615c19	-0.05501947
243	0xbe1943f0	-0.14967322
244	0x3cda825c	0.026673488
245	0xbb2a50b2	-0.002598804
246	0x3cca6ec9	0.02471103
247	0x3d0bc5e4	0.03412427
248	0x3d0f8973	0.03504319
249	0x3cf094e5	0.029367873
250	0xbda1754f	-0.07883703
251	0xbe1d4ae6	-0.15360603
252	0xbdfa14af	-0.12210976
253	0xbd5895c8	-0.052877218
254	0xbe24213f	-0.16028307
255	0xbd45e11f	-0.048310395

network_body._body_endoder.seq_layers.4.bias f4 [256]
0	0xbce96e4a	-0.028494973
1	0x3d5f895c	0.054574355
2	0xbd74e890	-0.0597921
3	0xbd9d4933	-0.07679977
4	0xbd6abece	-0.05731087
5	0xbd9f5d28	-0.0778144
6	0xbdc6283c	-0.09675643
7	0xbdc198cc	-0.09452972
8	0xbdf9a0a3	-0.12188842
9	0xbe745d45	-0.23863705
10	0xbd7c0608	-0.06152919
11	0x3cb3d6ac	0.02195295
12	0xbe56d16e	-0.20978329
13	0x3c9ff088	0.019523874
14	0xbcdb260e	-0.026751544
15	0xbdb3da6a	-0.087818936
16	0xbccb0e16	-0.02478699
17	0xbd581672	-0.05275578
18	0xbdc3c87c	-0.09559724
19	0xbd51f312	-0.0512572
20	0xbd976f83	-0.07394316
21	0xbe353c44	-0.17698771
22	0xbe80118d	-0.2501339
23	0xbde3ce49	-0.1112333
24	0xbdd3ae86	-0.10336022
25	0xbe70441d	-0.23463483
26	0xbc66f899	-0.014097356
27	0xbe58241c	-0.21107525
28	0xbe4ddf50	-0.20104718
29	0xbdd37c2f	-0.103264205
30	0xbdce6585	-0.10077957
31	0xbd663ba6	-0.05620923
32	0xbc69d687	-0.014272339
33	0xbc69c768	-0.014268734
34	0x3c8637fd	0.01638412
35	0xbd5f0c05	-0.054454822
36	0xbde3ad0c	-0.111169904
37	0xbe0b7747	-0.1361972
38	0xbddbe151	-0.10736335
39	0xbcabf564	-0.020991035
40	0xbd8188df	-0.06324934
41	0xbe0098d7	-0.12558304
42	0xbd82796f	-0.06370818
43	0xbe7c65d9	-0.24648227
44	0xbd9ea3c0	-0.077460766
45	0xbe3aada8	-0.18230307
46	0xbe167a35	-0.14695056
47	0xbda4b992	-0.08043207
48	0xbdf058a6	-0.11735658
49	0xbd43f752	-0.047843285
50	0xbd51e623	-0.051244866
51	0xbd0269ee	-0.031839304
52	0xbc5cdfda	-0.013481105
53	0x3cbba6b7	0.022906644
54	0x3dd4ee98	0.10397071
55	0xbe53ab89	-0.20670904
56	0xbd5c65e5	-0.05380811
57	0x3d345529	0.044026528
58	0xbe4e66c1	-0.20156385
59	0x3d212688	0.039343387
60	0xbc47590f	-0.012167229
61	0xbdd86331	-0.10565794
62	0x3d0b478e	0.034003787
63	0xbe03f5d3	-0.12886743
64	0x3d923baa	0.07140286
65	0xbe1d286e	-0.15347454
66	0xbe58eaaf	-0.21183275
67	0xbde2f314	-0.1108152
68	0xbe619dd1	-0.22032858
69	0x3d86dc7a	0.06585021
70	0xbe3a2b3e	-0.18180558
71	0xbb413acc	-0.0029484509
72	0xbe313ee1	-0.17309143
73	0xbeae96f7	-0.34099552
74	0xbdab9a62	-0.083790556
75	0xbe6490bc	-0.22320837
76	0xbcd73bf6	-0.026273709
77	0xbde8b3de	-0.11362432
78	0xbdaf1347	-0.08548599
79	0xbe0656c3	-0.13119034
80	0xbd1f71f0	-0.03892702
81	0xbdc2de98	-0.09515113
82	0xbdc9df3a	-0.0985703
83	0xbe25d1e4	-0.16193348
84	0xbdb80f05	-0.0898724
85	0xbe47998d	-0.19492169
86	0x3d90e4dd	0.07074902
87	0xbde61fe7	-0.11236554
88	0xbde17694	-0.11008945
89	0xbddabc37	-0.106804304
90	0xbdbfae32	-0.09359397
91	0x3d1422ef	0.036166128
92	0x3b48faed	0.0030667142
93	0xbd12981c	-0.035789594
94	0xbe56d28e	-0.20978758
95	0x3d0b940c	0.034076735
96	0xbe4fdcb3	-0.20299034
97	0xbbc100cb	-0.005889987
98	0x3d243d6e	0.040097646
99	0xbbedb1f6	-0.0072538806
100	0xbe59f211	-0.21283747
101	0xbda1703d	-0.07882736
102	0xbdfd6653	-0.123730324
103	0xbd093759	-0.03350005
104	0xbe604f44	-0.21905237
105	0xbb04182a	-0.0020156004
106	0xbe410712	-0.18850353
107	0xbe13f78f	-0.14449905
108	0xbd42ec7f	-0.04758882
109	0xbe79d9d3	-0.243995
110	0xbdd386dc	-0.10328457
111	0x3c017db3	0.007903504
112	0xbd09ae5c	-0.033613548
113	0xbdb89541	-0.09012843
114	0xbd41475b	-0.04718719
115	0xbcf813a6	-0.030282807
116	0xbd37a5d4	-0.04483588
117	0xbd7314df	-0.059346076
118	0xbe3afe9f	-0.18261193
119	0x3d65c110	0.056092322
120	0xbd9b207e	-0.07574557
121	0xbda2a638	-0.0794186
122	0xbe0f759f	-0.14009713
123	0xbda65224	-0.08121136
124	0xbba92464	-0.005161809
125	0x3be6a919	0.007039201
126	0x3caa8a61	0.020817937
127	0xbd7813d7	-0.060565796
128	0xbb8d6a18	-0.004315626
129	0xbcf29b48	-0.02961506
130	0xbce5a7e9	-0.028034167
131	0xbe3a2257	-0.18177162
132	0xbdc0307f	-0.0938425
133	0xbe3b5261	-0.18293144
134	0xbdc050d5	-0.093904175
135	0xbe7527b6	-0.2394093
136	0xbd67ea28	-0.056619793
137	0xbcc053f1	-0.023477526
138	0xbe5ea0e8	-0.21741068
139	0xbd3befc8	-0.04588297
140	0xbdf6891b	-0.120378695
141	0xbe2151c8	-0.15753853
142	0xbd8188fb	-0.06324955
143	0xbe3110aa	-0.17291513
144	0xbd7528d5	-0.059853394
145	0xbe56cc90	-0.20976472
146	0x3d9f8c5e	0.07790445
147	0x3b9e8c22	0.0048384825
148	0xbd439663	-0.04775084
149	0x3c702545	0.014657323
150	0xbd2d06f0	-0.042242944
151	0xbda68ad2	-0.081319466
152	0xbada89d6	-0.0016673158
153	0xbdcf801a	-0.10131855
154	0xbb3977cf	-0.0028300171
155	0xbe17ce72	-0.14824846
156	0xbe81c0af	-0.25342318
157	0xbd4fe9cc	-0.050760075
158	0xbe6a6314	-0.22889358
159	0xbcf15673	-0.029460168
160	0xbdc054f9	-0.09391207
161	0x3cc005bb	0.023440233
162	0xbe77998e	-0.2417967
163	0x3ce3e62f	0.027819721
164	0xbe540e63	-0.20708613
165	0xbe085f64	-0.13317639
166	0xbc50514c	-0.012714695
167	0xbb34ca1c	-0.0027586287
168	0xbd9bcde5	-0.07607631
169	0xbdb6c8b9	-0.089250036
170	0xbdaad697	-0.08341711
171	0xbe494f31	-0.19659115
172	0x3d932022	0.07183863
173	0x3cf3ffbd	0.029785031
174	0xbe2c7469	-0.16841282
175	0xbe407a02	-0.18796542
176	0xbddf1f8d	-0.1089469
177	0xbe676884	-0.22598463
178	0x3c2bd55b	0.01048788
179	0xbd73092d	-0.059334923
180	0xbdea37f6	-0.11436455
181	0x3c458531	0.012055681
182	0xbd6873c8	-0.056751043
183	0xbe1f20b0	-0.15539813
184	0xbe13884b	-0.1440746
185	0xbdcd3b8b	-0.100211225
186	0xbdc5210c	-0.09625444
187	0x3d15274b	0.036414426
188	0xbe36095d	-0.1777701
189	0xbe6e9dab	-0.23302333
190	0xbe549212	-0.20758846
191	0xbdca85ba	-0.098887876
192	0x3cb0bdae	0.021574821
193	0xbe286f41	-0.1644869
194	0x3d9801dd	0.074222304
195	0xbd95c538	-0.07313007
196	0xbe26a7fc	-0.16275018
197	0x3c9c36f4	0.019069172
198	0xbe1f60ef	-0.15564321
199	0xbe1c53c4	-0.15266329
200	0xbd8d8782	-0.06910612
201	0xbd6e99f2	-0.058252282
202	0xbe59a260	-0.21253347
203	0x3b856539	0.0040709046
204	0xbdebe994	-0.11519161
205	0xbdf5b4fe	-0.11997412
206	0xbd8dacc4	-0.06917718
207	0xbcc78d10	-0.024359256
208	0xbced4bb0	-0.028966755
209	0x3d87714b	0.06613406
210	0xbe2a4861	-0.16629173
211	0x3d2363f3	0.03989024
212	0xbe0e05b9	-0.1386937
213	0xbd4bdf29	-0.04977337
214	0xbe1cba44	-0.1530543
215	0xbda0611e	-0.07831024
216	0xbcf741c3	-0.030182725
217	0xbdae0e0a	-0.084987715
218	0xbe8556d8	-0.2604282
219	0xbd2a644e	-0.041599564
220	0xbc1a06b5	-0.009401013
221	0xbcc8208c	-0.024429582
222	0xbd9d2c58	-0.076744735
223	0xbe627573	-0.22115116
224	0xbd75e746	-0.060035013
225	0x3c1faf7d	0.0097464295
226	0x3b89b025	0.0042019063
227	0xbd062f78	-0.032760113
228	0xbe52c01e	-0.205811
229	0xbd80cd86	-0.062892005
230	0xbdfc144f	-0.12308561
231	0xbd959e5f	-0.073055975
232	0xbd285217	-0.041093912
233	0xbd4c45ac	-0.04987113
234	0xbcb1c4f7	-0.021700365
235	0xbb86994a	-0.004107629
236	0xbbd525c3	-0.0065047457
237	0x3af4827b	0.0018654609
238	0xbdbbc66c	-0.09168705
239	0xbd72cffe	-0.059280388
240	0xbe0ef3ec	-0.13960236
241	0xbd83389e	-0.06407283
242	0x3b880747	0.004151258
243	0xbc8b7111	-0.017021688
244	0xbce4bc58	-0.02792184
245	0xbe344f56	-0.1760839
246	0x3d23a00e	0.039947562
247	0xbe28d471	-0.1648729
248	0xbd12de50	-0.035856545
249	0xbd611a80	-0.054956913
250	0x3dae3c95	0.08507649
251	0xbea81fcc	-0.3283676
252	0xbe052cec	-0.13005418
253	0x3cb543dc	0.022127084
254	0x39d92105	0.00041414067
255	0xbd66b81d	-0.056327928

network_body._body_endoder.seq_layers.4.weight f4 [256, 256]
0	0x3db16e6a	0.08663638
1	0xbcc004d0	-0.023439795
2	0xbe4f30f9	-0.20233525
3	0xbd8aaebd	-0.0677161
4	0x3d392f15	0.045210917
5	0x3e41d5c9	0.18929209
6	0xbe140788	-0.14455998
7	0xbdc08d7b	-0.09401985
8	0xbdd5fc83	-0.104485534
9	0xbdeeb9f4	-0.116565615
10	0x3be31ddd	0.00693105
11	0xbe0f9639	-0.14022149
12	0x3e3fa1e9	0.18714108
13	0x3e36c5d7	0.17848907
14	0xbd1e0d69	-0.038587008
15	0x3e22f680	0.15914345
16	0x3d1c75c4	0.038198248
17	0xbda1622f	-0.07880055
18	0xbd117959	-0.035516117
19	0x3e2766aa	0.16347757
20	0x3bf184fe	0.00737059
21	0x3d20b042	0.039230593
22	0xbc355c27	-0.011069334
23	0x3d07eccf	0.033184823
24	0x3d22d950	0.039758027
25	0x3de9705f	0.11398386
26	0x3e09ca1c	0.13456005
27	0x3c957c19	0.018247651
28	0xbdfd22eb	-0.12360176
29	0x3ec62946	0.38703364
30	0xbdb9df4f	-0.09075796
31	0xbe049be0	-0.12950087
32	0xbc3dee43	-0.011592451
33	0xbcb01965	-0.021496484
34	0x3cc57af7	0.024106486
35	0x3dd30fb4	0.103057295
36	0x3e1e8250	0.15479398
37	0x3d278e19	0.040907
38	0x3ca672a8	0.020318344
39	0x3e300802	0.17190555
40	0x3dcdb006	0.100433394
41	0xbb0546b2	-0.0020336327
42	0x3d13d078	0.036087483
43	0xbd38923a	-0.045061328
44	0x3de0a839	0.10969586
45	0x3bf79971	0.0075561334
46	0x3e71aab3	0.23600273
47	0xbd0ff8cf	-0.03514939
48	0x3da6e482	0.08149053
49	0xbd19685b	-0.037453037
50	0xbda1d188	-0.07901293
51	0xbdab61fd	-0.08368299
52	0xbea7adea	-0.32749873
53	0xbc81a5b7	-0.01582609
54	0xbe1394b8	-0.144122
55	0xbd0f6961	-0.035012607
56	0x3bf8aabf	0.007588714
57	0x3e230d73	0.15923099
58	0x3e713f30	0.2355926
59	0x3d9ab5e7	0.07554226
60	0x3dad4945	0.08461241
61	0x3d7f6ee5	0.062361617
62	0x3d1a2e4d	0.037641812
63	0xbb62e1fe	-0.0034619565
64	0xbea49876	-0.32147568
65	0x3dd4c69b	0.103894435
66	0xbce0696e	-0.027394023
67	0x3d909d4f	0.07061254
68	0x3d203f0a	0.03912262
69	0x3d4a675b	0.049414974
70	0xbd76eeb7	-0.06028625
71	0xbd6d489d	-0.057930578
72	0x3e22b73c	0.15890211
73	0xbdaf7e4d	-0.08569012
74	0xbe91ce8d	-0.28477898
75	0x3d06b5db	0.032888275
76	0x3c6669eb	0.014063339
77	0xbcdae41f	-0.026720105
78	0x3e33cb3f	0.17558001
79	0xbbc1f2eb	-0.0059188507
80	0xbca10a7b	-0.019658318
81	0x3d33a34c	0.043856904
82	0x3cf11b45	0.029431948
83	0xbd20421c	-0.039125547
84	0x3cd32539	0.025774585
85	0x397dc332	0.00024200676
86	0xbdac6f43	-0.08419659
87	0x3c16bec0	0.009200752
88	0xbd71ac70	-0.05900234
89	0x3d24e4d0	0.040257275
90	0xbeb51b63	-0.35372457
91	0xbd25f24e	-0.040514283
92	0x3e755cd4	0.23961192
93	0xbe43cd40	-0.19121265
94	0x3e042168	0.12903368
95	0x38f96bf3	0.00011893352
96	0xbe3cd633	-0.18441086
97	0xbd9583c3	-0.07300522
98	0x3db767de	0.08955358
99	0xbe033655	-0.12813695
100	0x3ddbaf00	0.10726738
101	0x3e0e8b48	0.13920319
102	0xbbe4ad41	-0.0069786613
103	0x3dae397b	0.08507057
104	0x3d6d093b	0.05787013
105	0xbdea81c7	-0.11450534
106	0x3c58d104	0.013233427
107	0xbc4b6c7b	-0.0124160005
108	0x3c0c1f94	0.008552451
109	0xbd9013c0	-0.07035017
110	0xbe936634	-0.28788912
111	0xbdd2571a	-0.102705196
112	0x3cf81755	0.030284563
113	0x3d268b62	0.04066027
114	0x3e401f6a	0.18761984
115	0xbc5e20c3	-0.013557616
116	0x3e278674	0.16359884
117	0xbd8f9439	-0.07010693
118	0x3e85a17d	0.26099768
119	0xbe05019d	-0.12988897
120	0xbb821523	-0.003969805
121	0xbdb9b649	-0.09067971
122	0xbd92fcf5	-0.07177154
123	0xbce4c144	-0.027924187
124	0xbe5853f4	-0.21125776
125	0x3d36ee68	0.044660956
126	0x3ca9a715	0.020709554
127	0xbcc94117	-0.02456717
128	0x3da3ad94	0.07992092
129	0x3c398486	0.0113231
130	0xbd11e38f	-0.035617407
131	0xbda19434	-0.07889596
132	0xbd4cfa3a	-0.050043322
133	0x3dcbf18b	0.0995818
134	0x3d483d10	0.04888636
135	0x3e32a585	0.17445953
136	0x3c27ff61	0.010253758
137	0x3e023258	0.12714517
138	0xbe140546	-0.14455137
139	0xbd77ff86	-0.06054642
140	0xbd0d4cd8	-0.034497112
141	0xbd25eb5b	-0.040507656
142	0xbd0978e1	-0.033562545
143	0x3e084c5c	0.13310379
144	0xbd80a289	-0.06281001
145	0xbd8a1e37	-0.06744044
146	0x3df9a5f8	0.12189859
147	0xbc8dfa46	-0.017331254
148	0xbda6a3fc	-0.08136746
149	0x3e0681a2	0.13135388
150	0x3ce1de4e	0.027571823
151	0x3d5bbe35	0.053648192
152	0x3dd4c375	0.10388843
153	0xbd33fb4a	-0.04394082
154	0xbcf8346f	-0.03029844
155	0x3d4e5668	0.050375372
156	0xbab5f061	-0.0013880843
157	0xbdd60611	-0.10450376
158	0xbd3e9015	-0.046524126
159	0x3e81e784	0.25371945
160	0x3e0a0ac2	0.13480666
161	0x3d039bf8	0.032131165
162	0x3c793457	0.015210233
163	0x3d4de130	0.050263584
164	0x3e2799c6	0.16367254
165	0x3e03eda4	0.12883621
166	0x3e49a4c8	0.19691765
167	0xbdcca2bd	-0.09991977
168	0xbc288a81	-0.010286928
169	0x3d4a1b82	0.04934264
170	0xbc89bac2	-0.016812686
171	0x3d3acec8	0.04560736
172	0xbdf63039	-0.120209165
173	0x3d1f04b0	0.03882283
174	0x3e058439	0.1303872
175	0x3e189118	0.14899099
176	0xbe233bbf	-0.1594076
177	0x3d0194e3	0.03163613
178	0xbd97617a	-0.07391639
179	0xbd9eb5a5	-0.0774949
180	0x3e362125	0.17786081
181	0x3d4dd471	0.050251428
182	0x3ddffa92	0.10936464
183	0x3d138290	0.036013186
184	0x3bb24786	0.005440655
185	0xbdc2efff	-0.09518432
186	0x3b70cb76	0.0036742366
187	0x3d8369eb	0.064166866
188	0xbd4241e8	-0.047426134
189	0xbd7b26f8	-0.06131646
190	0x3dfc3e91	0.12316621
191	0x3d800c1c	0.0625231
192	0x3dd7793e	0.10521172
193	0xbdf8d111	-0.12149251
194	0xbd14399c	-0.036187753
195	0x3d5c56eb	0.05379383
196	0xbd038ed7	-0.032118645
197	0xbdcf5b17	-0.10124796
198	0xbdbf8bc2	-0.093528286
199	0x3e44a068	0.19201815
200	0x3d696434	0.056980327
201	0xbc629839	-0.013830238
202	0x3e6d18ea	0.23154035
203	0x3e34efc8	0.17669594
204	0x3e63f837	0.22262655
205	0x3cb21016	0.021736186
206	0xbcbe8562	-0.023256961
207	0xbd76ec18	-0.06028375
208	0xbd2610a6	-0.04054322
209	0x3e35cf81	0.17754938
210	0xbcc62336	-0.024186712
211	0xbe0ac3de	-0.1355128
212	0xbe3e5c7a	-0.18589965
213	0x3da45a0f	0.0802499
214	0x3e4f7641	0.20259954
215	0x3e03fbbb	0.12888996
216	0x3d4b3678	0.049612492
217	0xbc005245	-0.007832115
218	0xbd95af4a	-0.07308824
219	0x3e79a2c9	0.24378504
220	0x3d6aca4a	0.057321824
221	0x3c63cf56	0.013904413
222	0x3cf7979a	0.030223656
223	0x3d45bd97	0.04827651
224	0x3e3674b8	0.17817962
225	0xbd820218	-0.063480556
226	0xbca00c1f	-0.01953703
227	0x3e6033b6	0.21894726
228	0x3c374783	0.011186483
229	0xbd22cbc1	-0.039745096
230	0x3dcb6be2	0.099326864
231	0x3abc4fd3	0.0014367051
232	0xbd63a85e	-0.05558049
233	0xbcb804cc	-0.022463225
234	0xbe87ffe5	-0.2656242
235	0x3d7aba83	0.061213028
236	0x3d32ea00	0.04368019
237	0x3e566611	0.20937373
238	0xbc2ca23c	-0.010536727
239	0xbe01c912	-0.12674358
240	0xbd81d518	-0.063394725
241	0xbd3a477c	-0.04547833
242	0xbb80bb22	-0.003928558
243	0xbe288f07	-0.1646081
244	0xbd9f2214	-0.07770172
245	0xbdcc17c5	-0.09965471
246	0xbd9491e4	-0.07254389
247	0xbc6606d6	-0.014039716
248	0x3c5c207b	0.013435478
249	0xbc258953	-0.010103541
250	0xbe1abc20	-0.15110826
251	0x3e18f4fa	0.14937201
252	0x3d871bcf	0.06597101
253	0xbd609e27	-0.054838326
254	0x39e42494	0.00043514802
255	0x3b628248	0.0034562517
