results/Drone3/Drone/Drone-10999946.onnx (onnx, 810629 bytes, 11 tensors)

action_model._continuous_distribution.log_sigma f4 [1, 4]
-1.1093006 -1.0865518 -1.0048236 -0.97645676
00000000: 90fd 8dbf 2114 8bbf 0f9e 80bf 12f9 79bf

action_model._continuous_distribution.mu.bias f4 [4]
0.04258626 -0.011694739 0.045541696 -0.033307582
00000000: ee6e 2e3d 4a9b 3fbc ee89 3a3d 886d 08bd

action_model._continuous_distribution.mu.weight f4 [4, 256]
0.057971545 -0.02650296 -0.019798882 -0.060730513 -0.05241217 0.012968252 -0.014838648 -0.02024327
0.027169483 0.032944154 -0.030147322 0.016808985 0.044923265 -0.028486235 -0.016575588 -0.05582368
-0.022202801 -0.0038277917 0.025238764 0.011158676 -0.0033594617 -0.0012443291 0.003536993 -0.037578575
0.034573507 -0.021463163 -0.022367986 -0.05042756 0.031266853 -0.0407966 -0.0058767917 -0.03154845
0.01380669 0.06031628 -0.0411078 -0.032358073 0.08141886 0.010451143 0.018106068 -0.0047515174
0.03315295 -0.034870833 0.023781026 -0.00037104485 -0.07413915 -0.065470025 0.06450885 -0.059217922
0.03647674 -0.027892005 -0.061921157 -0.01704133 -0.042363673 0.025343597 0.036736887 -0.060393818
-0.060679365 -0.031029137 -0.12001385 0.012157339 0.011698758 -0.010888065 0.067340516 0.05289246
-0.019296262 -0.07606069 -0.058618456 0.001197831 0.07234378 0.018916283 0.008573375 -0.052221447
-0.047329776 -0.008857824 0.029896712 -0.0015962987 0.04231665 -0.07494552 -0.023074599 0.0014827151
-0.036234047 -0.052830763 -0.034623682 -0.0075374586 -0.03279153 0.010027431 0.0007611731 0.059364215
-0.017725142 -0.058851074 0.0009015902 0.03250628 0.09484096 -0.025764164 -0.04042095 -0.06419922
-0.04806123 0.058284327 -0.011434107 -0.028893253 -0.06287783 -0.060192134 0.03710214 -0.03586012
0.012227165 0.026499521 0.0361511 0.027035553 -0.03984853 -0.02906008 -0.058303736 -0.01676846
0.047124583 -0.020765938 -0.025482098 0.023461208 0.027073555 -0.022979302 -0.024673989 0.0029593953
0.0047978386 -0.04881224 -0.018671555 0.0034324187 0.004490125 -0.00041199176 -0.006488699 -0.086850524
-0.074025095 -0.005947685 -0.043899022 -0.0055853324 -0.037283428 0.01809978 -0.08432863 -0.052734848
0.008878618 -0.019882599 0.064600915 -0.10838037 -0.06532083 -0.011318733 0.0029007401 0.051613905
-0.03755303 -0.053188518 -0.06418734 -0.021292444 -0.050673466 -0.017470205 -0.028645705 -0.04460396
0.012417186 0.04505077 0.012048164 -0.008388154 -0.04715112 -0.005105267 0.016729053 -0.039649256
-0.08608409 0.081087455 -0.03919313 -0.04143045 0.035199523 -0.028118711 0.06996226 0.049550004
-0.05790538 -0.012891528 -0.049277585 -0.04312911 0.09552017 0.009971276 0.023681706 0.021613086
-0.017829936 0.035238504 0.00637422 0.009318772 0.021627575 0.019809274 0.005765583 0.029846722
-0.013982602 -0.045615755 -0.0075920518 -0.057990767 -0.031507608 -0.0037268945 0.019806407 0.0024001966
-0.061924808 0.0107593145 0.05228795 -0.088103116 -0.01387733 0.0066495114 -0.038245026 0.0036467807
-0.06816496 -0.008488226 -0.0022109593 -0.027569566 -0.0010580356 -0.014562892 -0.014943393 -0.031795338
-0.010212669 -0.025785526 -0.04752672 -0.03469623 0.017923268 -0.0007250987 -0.0017793183 -0.04495703
-0.053228926 0.026859442 0.0029055926 0.031688217 -0.048746724 -0.031762693 -0.005982008 -0.009636556
-0.04512848 -0.015201867 -0.033309665 0.004929702 0.021939041 -0.026117723 0.015238046 0.07504242
-0.039050806 -0.014192029 0.032922007 -0.016193429 -0.034502514 0.014569148 -0.008784949 0.0003695346
-0.005586844 0.042848505 -0.0067524244 -0.0036011382 0.019877272 0.01233223 0.019829242 0.028297804
0.021621624 -0.0023755336 -0.053911608 -0.018611744 0.0029392417 0.018605728 -0.045871258 -0.080048494
00000000: 9273 6d3d bc1c d9bc 4431 a2bc 8fc0 78bd
00000010: 25ae 56bd cb78 543c cd1d 73bc 37d5 a5bc
00000020: 8992 de3c 73f0 063d 84f7 f6bc ffb2 893c
00000030: 7501 383d f75b e9bc 87c9 87bc 5fa7 64bd
00000040: a6e2 b5bc b0db 7abb 86c1 ce3c e1d2 363c
00000050: 6a2a 5cbb c218 a3ba e5cc 673b feeb 19bd
00000060: f39c 0d3d 84d3 afbc 113d b7bc 218d 4ebd
00000070: ac11 003d 561a 27bd 1a92 c0bb f338 01bd
00000080: 7535 623c 340e 773d a760 28bd e689 04bd
00000090: eebe a63d 453b 2b3c 2d53 943c 9eb2 9bbb
000000a0: 63cb 073d b8d4 0ebd 6dd0 c23c cc88 c2b9
000000b0: 44d6 97bd 2615 86bd 371d 843d 7e8e 72bd
000000c0: a268 153d c67d e4bc 0aa1 7dbd 429a 8bbc
000000d0: 8885 2dbd 609d cf3c 6b79 163d 825f 77bd
000000e0: ed8a 78bd d130 febc d2c9 f5bd 932f 473c
000000f0: 26ac 3f3c db63 32bc d3e9 893d c4a5 583d
00000100: 3213 9ebc b5c5 9bbd e819 70bd 8a00 9d3a
00000110: fa28 943d 52f6 9a3c 5777 0c3c 28e6 55bd
00000120: dedc 41bd 6820 11bc f3e9 f43c e53a d1ba
00000130: 3954 2d3d 097d 99bd f106 bdbc aa57 c23a
00000140: 276a 14bd 1265 58bd 90d1 0dbd c9fc f6bb
00000150: 6950 06bd 184a 243c 7689 473a e427 733d
00000160: 5134 91bc d30d 71bd b258 6c3a 4e25 053d
00000170: fa3b c23d 5e0f d3bc 7090 25bd e17a 83bd
00000180: dadb 44bd 8cbb 6e3d 1f56 3bbc 8bb1 ecbc
00000190: 17c6 80bd 078c 76bd 6af8 173d 10e2 12bd
000001a0: 7254 483c 8615 d93c 2d13 143d aa79 dd3c
000001b0: 3638 23bd 680f eebc e6cf 6ebd 025e 89bc
000001c0: b505 413d 541d aabc d5bf d0bc b831 c03c
000001d0: 5cc9 dd3c 173f bcbc 1b21 cabc 6af2 413b
000001e0: 3037 9d3b 58ef 47bd 17f5 98bc 6ef2 603b
000001f0: e621 933b 9900 d8b9 279f d4bb b0de b1bd
00000200: 789a 97bd cce4 c2bb 76cf 33bd 2a05 b7bb
00000210: 82b6 18bd fd45 943c 7db4 acbd 7f00 58bd
00000220: 9f77 113c d5e0 a2bc 7c4d 843d 87f6 ddbd
00000230: edc6 85bd 3572 39bc 581a 3e3b 1a69 533d
00000240: 35d1 19bd 34dc 59bd a774 83bd 7e6d aebc
00000250: fb8e 4fbd ad1d 8fbc 66aa eabc a4b2 36bd
00000260: 7471 4b3c 2887 383d aa65 453c 786e 09bc
00000270: 8821 41bd 154a a7bb 5e0b 893c 4267 22bd
00000280: db4c b0bd 2e11 a63d fa88 20bd fab2 29bd
00000290: 602d 103d 3659 e6bc 6048 8f3d f2f4 4a3d
000002a0: 312e 6dbd fd36 53bc 4bd7 49bd 26a8 30bd
000002b0: 14a0 c33d 905e 233c 2300 c23c ed0d b13c
000002c0: 1610 92bc 4056 103d d5de d03b c3ad 183c
000002d0: 502c b13c 0f47 a23c 37ed bc3b 1d81 f43c
000002e0: 4917 65bc 96d7 3abd bfc6 f8bb ba87 6dbd
000002f0: 1f0e 01bd ea3e 74bb 0c41 a23c 9e4c 1d3b
00000300: dea4 7dbd d647 303c e42b 563d 686f b4bd
00000310: be5d 63bc 25e4 d93b d1a6 1cbd d4fe 6e3b
00000320: 129a 8bbd 3312 0bbc bee5 10bb 92d9 e1bc
00000330: c9ad 8aba 3299 6ebc 22d5 74bc d43b 02bd
00000340: 0a53 27bc 2b3c d3bc 61ab 42bd a21d 0ebd
00000350: d1d3 923c 8d14 3eba 0438 e9ba dd24 38bd
00000360: 9306 5abd 5508 dc3c c16b 3e3b 81cb 013d
00000370: a5aa 47bd 9919 02bd b804 c4bb a5e2 1dbc
00000380: a4d8 38bd 4011 79bc b76f 08bd 5689 a13b
00000390: 81b9 b33c d6f4 d5bc ffa8 793c d7af 993d
000003a0: bdf3 1fbd af85 68bc 3ad9 063d 15a8 84bc
000003b0: 8252 0dbd 70b3 6e3c bfee 0fbc 18be c139
000003c0: d811 b7bb ea81 2f3d 7143 ddbb 1301 6cbb
000003d0: a9d5 a23c 1f0d 4a3c ef70 a23c ccd0 e73c
000003e0: d51f b13c d7ae 1bbb 6bd2 5cbd a877 98bc
000003f0: 4ba0 403b 0a6b 983c 80e3 3bbd 77f0 a3bd

network_body._body_endoder.seq_layers.0.bias f4 [256]
0.088705875 -0.122369915 0.11634192 -0.035749037 -0.09484252 -0.07955645 -0.05482404 -0.05294872
-0.1394606 0.013930917 -0.11715197 -0.065577105 -0.009162477 -0.13202785 -0.001164207 0.0068410966
0.11308924 -0.110091254 -0.009958279 -0.13154487 -0.006054738 -0.094970815 -0.041396946 -0.08049926
-0.010615903 -0.023595147 -0.035668083 0.006545098 -0.06051579 -0.21831208 -0.007444959 -0.029895531
-0.046840534 -0.11112068 -0.058851 -0.11891959 -0.077150956 -0.11814179 -0.12093023 -0.09828592
-0.036636934 -0.10148198 -0.01777408 0.056740556 -0.104374334 -0.1085549 0.022415379 -0.10444154
0.0995188 -0.04745837 -0.17821236 -0.13805549 -0.08250642 0.04928893 -0.079213664 -0.18340582
-0.13838194 -0.078598686 -0.011247001 -0.046813674 -0.20125173 -0.086127244 -0.11993148 -0.090099104
-0.07772082 -0.09130177 -0.068425424 0.051725052 -0.15981355 -0.03737695 -0.0064042676 -0.10203063
-0.047049865 0.013076906 -0.13309221 -0.009737639 -0.09945484 -0.036441687 -0.1278412 -0.19599424
-0.09305823 0.05462395 -0.09403621 0.09415471 -0.056371056 -0.15251575 -0.14444694 -0.10094246
-0.0929649 -0.13801454 -0.093216956 -0.04540739 0.14728087 0.015503488 0.015488198 -0.18712258
-0.05703063 -0.109475166 -0.10272387 0.04807774 -0.038085353 -0.088847056 -0.14188847 -0.10096183
0.013160499 -0.106574394 -0.032894183 0.14157066 0.0045727426 -0.01088439 -0.06506561 -0.06543348
-0.13776217 0.08260634 0.034613963 -0.10326343 -0.10285214 -0.025419334 -0.1665968 -0.15506352
-0.036761582 -0.11427054 -0.11236083 -0.09151158 -0.07894101 -0.01386252 -0.025745472 -0.05757488
0.04251697 -0.034280673 -0.06675786 0.0028321373 -0.004199886 -0.10463447 0.06585277 -0.109400675
0.11812216 -0.13785243 -0.14446539 0.044059403 -0.11304087 0.11183417 -0.046770576 -0.13469648
-0.10780357 -0.0052154716 -0.12072248 -0.23248518 -0.037912153 -0.05505599 -0.006299689 0.010379631
0.054946948 0.08645268 -0.011751534 0.0010760183 0.026641691 -0.10983994 -0.055836752 -0.019724684
0.078098334 0.1317573 -0.062620044 0.019384675 -0.085004106 0.006037565 -0.06395617 -0.05086495
-0.034247603 0.030986523 -0.08945103 -0.049851205 -0.02114895 -0.0071630403 0.05522906 -0.046617124
-0.056078803 -0.215342 0.05127742 -0.14618924 -0.20255123 -0.03692506 -0.09565074 -0.0378549
-0.11969825 0.03034324 -0.14845988 -0.05839873 -0.06911697 0.12676 -0.13616306 0.011330354
-0.06613216 0.012779478 -0.07149531 -0.052054405 -0.065494545 -0.029661376 -0.023609674 -0.03323634
0.014183704 0.065298446 -0.09618975 -0.12445541 -0.057084117 -0.11196945 -0.094443485 -0.15205894
-0.080074005 -0.019520206 0.0131446 -0.042242143 -0.10085419 -0.03163195 -0.079120055 -0.05065012
-0.031279236 0.050813176 -0.1064438 -0.09310735 -0.20952 0.0110464785 0.06921722 -0.00678958
-0.114181004 -0.054468017 -0.06531203 -0.10771449 -0.12808989 -0.008837328 0.13971202 0.057376977
-0.12436321 -0.038055703 -0.0695707 -0.0071652555 0.0066380654 -0.0032815856 -0.08607439 0.062287617
-0.014169787 0.10377739 0.007447065 0.0018948484 0.007112712 -0.15251252 -0.06354667 -0.08205485
-0.042215776 -0.07048881 -0.12854013 -0.040706288 0.031656925 -0.063502066 -0.016869774 -0.051303387
00000000: 6dab b53d 149d fabd ac44 ee3d 956d 12bd
00000010: cc3c c2bd 7eee a2bd 2c8f 60bd c2e0 58bd
00000020: c2ce 0ebe 803e 643c 5fed efbd 4a4d 86bd
00000030: 371e 16bc 4f32 07be 4e98 98ba 472b e03b
00000040: 559b e73d 8677 e1bd 0d28 23bc b3b3 06be
00000050: d366 c6bb 0f80 c2bd d88f 29bd ccdc a4bd
00000060: 53ee 2dbc 9c4a c1bc b218 12bd 4378 d63b
00000070: 68df 77bd 348d 5fbe d8f4 f3bb 79e7 f4bc
00000080: dcdb 3fbd 3d93 e3bd bf0d 71bd 1d8c f3bd
00000090: 5201 9ebd 53f4 f1bd 45aa f7bd 214a c9bd
000000a0: 9c10 16bd c9d5 cfbd f39a 91bc c968 683d
000000b0: 36c2 d5bd 0852 debd 75a0 b73c 72e5 d5bd
000000c0: 83d0 cb3d b563 42bd 4d7d 36be 6b5e 0dbe
000000d0: 20f9 a8bd 30e3 493d c63a a2bd bcce 3bbe
000000e0: ffb3 0dbe 59f8 a0bd 5745 38bc b2bf 3fbd
000000f0: ef14 4ebe 7b63 b0bd a39e f5bd e185 b8bd
00000100: 182c 9fbd 6cfc babd a122 8cbd a6dd 533d
00000110: 2aa6 23be 9318 19bd e4da d1bb 6ff5 d0bd
00000120: 5cb7 40bd 8540 563c 5349 08be 9e8a 1fbc
00000130: fbae cbbd e143 15bd cee8 02be b7b2 48be
00000140: 5095 bebd 5dbd 5f3d 0e96 c0bd 2fd4 c03d
00000150: 56e5 66bd 172d 1cbe e6e9 13be ecba cebd
00000160: 6264 bebd af53 0dbe 88e8 bebd 19fd 39bd
00000170: ccd0 163e 5702 7e3c 36c2 7d3c 109d 3fbe
00000180: f398 69bd 8434 e0bd e460 d2bd 2aed 443d
00000190: 63ff 1bbd 72f5 b5bd 364b 11be 13c5 cebd
000001a0: 229f 573c ad43 dabd 0dbc 06bd e6f7 103e
000001b0: f2d6 953b 7154 32bc 1e41 85bd fd01 86bd
000001c0: 8711 0dbe 832d a93d 5fc7 0d3d c77b d3bd
000001d0: 25a4 d2bd 353c d0bc 5a98 2abe f9c8 1ebe
000001e0: 5093 16bd ac06 eabd 6f1d e6bd 6c6a bbbd
000001f0: d3ab a1bd a01f 63bc 2be8 d2bc a3d3 6bbd
00000200: 4626 2e3d e469 0cbd 58b8 88bd 619b 393b
00000210: 339f 89bb 994a d6bd d1dd 863d 760d e0bd
00000220: 08ea f13d 3029 0dbe bcee 13be a277 343d
00000230: f981 e7bd 5009 e53d 8192 3fbd e0ed 09be
00000240: 1ec8 dcbd 8ce6 aabb 593d f7bd 9810 6ebe
00000250: c649 1bbd 6482 61bd 9f6d cebb 540f 2a3c
00000260: 0d10 613d 1a0e b13d 8289 40bc 2f09 8d3a
00000270: ad3f da3c c3f3 e0bd 14b5 64bd a995 a1bc
00000280: 05f2 9f3d 63eb 063e f03e 80bd 9ccc 9e3c
00000290: a216 aebd c4d6 c53b 74fb 82bd c457 50bd
000002a0: 3747 0cbd 73d7 fd3c 1a32 b7bd c730 4cbd
000002b0: 9040 adbc f0b7 eabb de37 623d 99f1 3ebd
000002c0: e3b2 65bd 9d82 5cbe 4608 523d a2b2 15be
000002d0: 9769 4fbe bb3e 17bd 89e4 c3bd bd0d 1bbd
000002e0: 5b24 f5bd 6392 f83c de05 18be 8233 6fbd
000002f0: 338d 8dbd 60cd 013e 546e 0bbe f3a2 393c
00000300: 4c70 87bd 0461 513c 226c 92bd 0037 55bd
00000310: 0122 86bd 6afc f2bc 1369 c1bc d422 08bd
00000320: c462 683c 31bb 853d 22ff c4bd 7ae2 febd
00000330: 09d1 69bd 3d50 e5bd 966b c1bd 57b5 1bbe
00000340: d7fd a3bd d7e8 9fbc 735c 573c 1906 2dbd
00000350: a48c cebd 8190 01bd b209 a2bd 8076 4fbd
00000360: a81e 00bd 7a21 503d 35ff d9bd 11af bebd
00000370: 698c 56be 4afc 343c c2c1 8d3d 207b debb
00000380: bbd7 e9bd db19 5fbd 50c2 85bd 6a99 dcbd
00000390: ff29 03be 71ca 10bc ab10 0f3e 1f04 6b3d
000003a0: 23b2 febd 4ce0 1bbd 157b 8ebd 85ca eabb
000003b0: 2184 d93b df0f 57bb c547 b0bd 4d21 7f3d
000003c0: 6528 68bc 3e89 d43d 8206 f43b 905c f83a
000003d0: c111 e93b 3e2c 1cbe c224 82bd 600c a8bd
000003e0: 73ea 2cbd 705c 90bd 06a0 03be a3bb 26bd
000003f0: b1aa 013d 5f0d 82bd 7b32 8abc 8023 52bd

network_body._body_endoder.seq_layers.0.weight f4 [256, 13]
0.28316823 -0.21434577 -0.19356397 -0.11810232 0.15635788 0.2559511 0.8277405 -0.15981238
-1.1031089 1.0032011 -0.117448345 -0.08199555 0.6468537 0.1575298 0.20516354 0.10493229
-0.22280228 -0.038390994 -0.035397116 0.2857753 -0.021243565 -0.32437816 0.022718841 0.17183122
-0.019108916 0.62022144 -0.048237476 0.09925177 -0.40469757 -0.06320192 -0.04620811 0.1285107
2.0428154 0.50507337 0.12952445 0.5837979 -0.15888838 0.6086517 0.09347885 0.20537095
-0.519227 -0.17438732 -0.06760055 0.12792483 -0.124785125 -0.08528234 -0.04552608 0.16267163
-0.03053306 -0.0010271058 -0.4119278 -0.052199233 -0.3264017 -0.4072518 0.15880603 0.7034642
-0.3811887 0.318667 0.19677112 0.31167448 0.13133974 -0.46189034 -0.12211868 -0.42246318
0.103943214 -0.028638884 -0.030059332 0.0016113906 -0.19802722 0.1679426 0.24524982 -1.0345359
-0.22495565 0.025904369 -0.062221754 -0.050467152 0.18466482 -0.26893768 0.00014592636 -0.27704915
-0.5225377 0.20214976 -0.123128146 -0.1308841 -0.5471382 0.30765578 -0.21040879 0.39746296
0.017960466 0.2185612 -0.23435862 0.16056584 -0.89084184 0.060532134 -0.34399015 0.07241805
-0.22136243 -0.12754093 -0.6391567 -0.14628929 0.2554983 -0.14833617 -0.0836901 -0.16034783
0.20611002 -0.03148711 0.086328685 0.24321476 0.14373699 -0.22675224 -0.41030532 -0.58859867
0.15404098 -0.12810357 0.0004979241 0.035767272 -0.20432277 0.37117565 -0.24201399 0.12343856
0.14823256 -0.08923432 0.06320468 -0.06026935 0.0562909 0.3480884 -0.38410932 0.0694798
0.20276445 -0.07704314 0.052634463 -0.032836054 -0.037304092 0.097962216 0.017838266 -0.039642535
0.0044842954 -0.38810423 -0.14168313 -0.3070728 0.57762986 -0.6148157 0.1439551 -0.066883184
-0.27272364 -0.037387487 -0.39760718 0.14584164 0.09261716 -0.79090947 -0.4518311 0.16692753
0.17901535 -0.19195326 0.33175734 -0.13881299 0.16482787 0.16476016 0.36984047 -0.33160716
0.24951099 0.19791543 0.4027629 -0.41633156 0.5423713 -0.045917414 -0.3088128 0.39740914
0.47126395 0.30738035 -0.23566411 -0.037650634 0.09953542 0.14890182 0.7767206 -0.700384
0.023384135 -0.4062814 -0.49902114 0.06411908 0.15819092 -0.20331962 -0.20133021 -0.09665365
-0.43733203 0.122157134 -0.13657418 0.051527098 0.52066225 0.39763996 0.026507515 0.45246568
-0.026561927 -0.3203651 0.07375831 0.010090725 0.13897622 -0.0029959965 0.15191296 -0.4007649
0.23726308 -0.6746032 0.28895405 -1.117101 0.38338688 0.0024340863 0.03771601 -0.11525812
-0.0012527629 0.34045073 0.07136994 -0.20299673 0.06493671 0.077228196 0.9408857 -0.027527366
0.53773594 0.34419096 -0.3001171 0.5895468 0.41077924 0.14883251 0.4734719 0.31737334
-0.30818757 -0.111131564 0.124929 -0.17330962 0.085099526 0.91228247 -0.21767816 0.10616799
-0.11428548 -0.073036425 -0.44129702 0.047316153 0.073726214 0.38780397 -0.3306716 -0.10996314
-1.5142477 -0.48558632 0.061968427 0.46092755 0.050546948 -0.120290905 -0.034522675 0.18237494
-0.3619121 0.071314216 -0.33179098 0.27749455 -0.42206302 -0.2474794 -0.42771056 0.16045965
00000000: 6dfb 903e 757d 5bbe a235 46be a1df f1bd
00000010: 481c 203e 060c 833e cde6 533f dba5 23be
00000020: ac32 8dbf e568 803f c288 f0bd 48ed a7bd
00000030: 3498 253f 7e4f 213e 6416 523e bee6 d63d
00000040: 4826 64be e03f 1dbd 91fc 10bd 2451 923e
00000050: fc06 aebc e514 a6be dd1c ba3c 86f4 2f3e
00000060: 4d8a 9cbc d5c6 1e3f a994 45bd 8344 cb3d
00000070: 8534 cfbe 0270 81bd b744 3dbd 4f98 033e
00000080: 7dbd 0240 7d4c 013f 0fa2 043e c773 153f
00000090: a3b3 22be 99d0 1b3f d771 bf3d c34c 523e
000000a0: 10ec 04bf 9792 32be 2872 8abd bafe 023e
000000b0: 588f ffbd 82a8 aebd 8e79 3abd 6493 263e
000000c0: 7820 fabc f49f 86ba 33e8 d2be ddce 55bd
000000d0: 201e a7be 4f83 d0be 0c9e 223e 3b16 343f
000000e0: 2a2b c3be 5228 a33e 5e7e 493e cc93 9f3e
000000f0: ed7d 063e e47c ecbe 5c19 fabd 184d d8be
00000100: 2ee0 d43d 189c eabc fd3e f6bc 4c35 d33a
00000110: a6c7 4abe 25f9 2b3e c522 7b3e ac6b 84bf
00000120: c65a 66be 6635 d43c 3ddc 7ebd a5b6 4ebd
00000130: c618 3d3e 33b2 89be cf03 1939 63d9 8dbe
00000140: 08c5 05bf 5900 4f3e 9c2a fcbd 7b06 06be
00000150: 4011 0cbf 0f85 9d3e 6775 57be 4480 cb3e
00000160: d421 933c 82ce 5f3e b5fb 6fbe 5f6b 243e
00000170: 360e 64bf 8bf0 773d 7a1f b0be ea4f 943d
00000180: d5ac 62be 179a 02be c69f 23bf dccc 15be
00000190: acd0 823e 70e5 17be b765 abbd 3932 24be
000001a0: 810e 533e a1f8 00bd 18cd b03d 4a0d 793e
000001b0: ca2f 133e bd31 68be 8a13 d2be 67ae 16bf
000001c0: ebbc 1d3e 952d 03be 1f87 023a b480 123d
000001d0: fd39 51be bc0a be3e 84d2 77be 5bcd fc3d
000001e0: 47ca 173e 7cc0 b6bd 7571 813d fedc 76bd
000001f0: 4991 663d a538 b23e faa9 c4be 6d4b 8e3d
00000200: 7ca1 4f3e cbc8 9dbd 3c97 573d 197f 06bd
00000210: 2dcc 18bd 6aa0 c83d 8e21 923c 3660 22bd
00000220: fff0 923b 99b5 c6be 6215 11be a538 9dbe
00000230: 8ddf 133f 9064 1dbf f768 133e 0dfa 88bd
00000240: 6fa2 8bbe 9f23 19bd 2b93 cbbe 8357 153e
00000250: 11ae bd3d 0b79 4abf 6856 e7be 0def 2a3e
00000260: cd4f 373e 658f 44be 19dc a93e fe24 0ebe
00000270: a3c8 283e e3b6 283e bb5b bd3e 6ac8 a9be
00000280: cf7f 7f3e 58aa 4a3e f036 ce3e 6929 d5be
00000290: d8d8 0a3f e613 3cbd b61c 9ebe 3679 cb3e
000002a0: 8249 f13e f560 9d3e ef51 71be 8d37 1abd
000002b0: 3ad9 cb3d b879 183e 29d7 463f 5e4c 33bf
000002c0: 1690 bf3c 1e04 d0be b37f ffbe dd50 833d
000002d0: cdfc 213e 0533 50be 8229 4ebe 59f2 c5bd
000002e0: fce9 dfbe 852d fa3d 1ada 0bbe 140e 533d
000002f0: 1f4a 053f 7797 cb3e 4a26 d93c 95a9 e73e
00000300: 6698 d9bc e506 a4be 990e 973d 9153 253c
00000310: c84f 0e3e 7b58 44bb 128f 1b3e 0f31 cdbe
00000320: 18f5 723e ccb2 2cbf c9f1 933e 2afd 8ebf
00000330: 494b c43e 3185 1f3b 1a7c 1a3d 730c ecbd
00000340: bf33 a4ba 8f4f ae3e 672a 923d 60de 4fbe
00000350: 8afd 843d d129 9e3d e3dd 703f 1281 e1bc
00000360: 10a9 093f cc39 b03e f3a8 99be 8aec 163f
00000370: a851 d23e 8d67 183e e96a f23e c27e a23e
00000380: c3ca 9dbe f298 e3bd c7da ff3d 1478 31be
00000390: a948 ae3d 588b 693f 06e7 5ebe 9a6e d93d
000003a0: 810e eabd 1f94 95bd aff1 e1be 95ce 413d
000003b0: c5fd 963d 3e8e c63e ca4d a9be 5b34 e1bd
000003c0: ded2 c1bf c59e f8be 9bd2 7d3d b2fe eb3e
000003d0: 510a 4f3d 145b f6bd a667 0dbd 7fc0 3a3e
000003e0: 8b4c b9be 300d 923d 82e0 a9be c413 8e3e
000003f0: a518 d8be 3d6b 7dbe e1fc dabe 894f 243e

network_body._body_endoder.seq_layers.2.bias f4 [256]
-0.074022934 -0.047843885 0.054433957 0.07517805 -0.0045568934 0.0017624394 -0.021432986 -0.031069446
-0.042574182 -0.12206769 0.0033881487 0.04073362 0.008262985 -0.026461678 0.025028793 -0.056162458
-0.025457155 0.007784699 -0.030918667 -0.074716665 -0.07580358 0.0117721995 -0.053532094 0.03383238
-0.013111701 -0.06628753 -0.10078124 -0.04109792 0.0047136336 -0.033231974 -0.002134835 0.011205916
-0.005937909 -0.090561844 -0.048875723 -0.042467862 -0.011686564 -0.07629671 -0.084524244 -0.019248996
-0.07796064 -0.030985674 -0.06082725 -0.07405713 -0.071876384 -0.0462141 -0.017640179 -0.09022274
-0.048407033 -0.046680383 0.061901785 -0.01997604 0.03183609 0.008036524 -0.040234637 -0.01347621
-0.0626314 -0.021080967 -0.09808532 -0.05012258 -0.0810164 -0.038555443 -0.021880107 -0.06729218
0.0116194235 -0.033111937 -0.15108253 -0.060141232 -0.02937927 -0.008966722 -0.0035801122 0.019019363
-0.066750094 -0.034681346 -0.072659165 -0.058551 -0.032661136 -0.0046027773 -0.06893747 0.027425604
-0.017345443 -0.07048475 0.04732106 -0.05076194 -0.05871347 -0.03393688 0.06887578 -0.055635646
0.0007991884 -0.025727047 0.021060087 -0.018839767 -0.06048175 -0.0061506624 -0.0326201 0.021654781
0.048319347 0.036662064 -0.037679337 -0.106761396 -0.019957643 -0.032775503 -0.069730446 0.0064304806
-0.016316723 -0.017772732 -0.029617617 -0.03943664 -0.056316637 -0.06564912 -0.040831126 0.0165883
-0.061046842 0.02049929 -0.026460547 -0.11029101 0.03668165 0.002109666 -0.08838145 0.025885092
-0.015148163 -0.001151981 -0.013573713 -0.05096326 -0.0776286 0.020947384 -0.090166174 -0.099315636
-0.03780947 -0.083430946 -0.07192719 -0.04307306 -0.0075615426 -0.029888729 -0.063360624 -0.045758538
-0.02299379 -0.1056111 0.0049451673 0.042873714 -0.0430414 -0.09446376 0.010109565 -0.02346769
0.0072707767 -0.054011047 -0.061377194 -0.032229837 -0.036035236 -0.06250196 -0.06811975 -0.021841204
0.013218783 -0.07687358 -0.054150723 -0.038343728 -0.06800776 -0.0782579 -0.043168087 -0.082871765
-0.031817324 -0.033936147 -0.0084490515 -0.08545704 -0.06286705 0.059902214 0.0008591822 0.0014495712
0.018353947 -0.067200504 -0.013076508 -0.031052874 0.029314036 -0.02400151 -0.0073188283 -0.035836592
-0.05104692 -0.071163096 0.07616288 0.025792433 -0.022701712 -0.052627563 -0.02932229 0.0069651967
-0.0067524873 0.056875557 0.016553113 -0.07646029 -0.031265214 -0.054588478 -0.05932109 -0.05894122
-0.0124185495 -0.039573465 0.011332669 -0.029472155 -0.04108698 0.08387603 -0.044146065 -0.10687192
-0.047173094 -0.0061222888 0.010625046 0.010020471 -0.075473875 -0.03426433 -0.04356969 0.0016800595
-0.012542757 -0.028004786 -0.04871339 -0.05151493 -0.082322635 -0.04637175 0.011951596 -0.025430588
-0.08240625 -0.04510256 0.002189048 -0.0056926217 -0.029195545 -0.061098643 -0.04430255 -0.0580014
-0.008922189 -0.034256358 -0.05599498 -0.0423148 -0.039466247 0.048299827 0.0039064237 -0.029384391
-0.037658133 -0.0338003 0.030491687 -0.04996197 -0.037853777 -0.06860016 -0.03211139 0.026139632
-0.013556561 -0.06184475 -0.00356092 0.016165283 -0.02578423 -0.00290703 -0.0048629497 -0.0048415754
-0.038431942 -0.0556761 -0.043412227 -0.05009087 -0.05451499 -0.040239282 -0.0054453295 -0.001312091
00000000: 5699 97bd f3f7 43bd 24f6 5e3d f3f6 993d
00000010: fe51 95bb a701 e73a 3b94 afbc 5a85 febc
00000020: 4462 2ebd a0fe f9bd b40b 5e3b 4cd8 263d
00000030: 7961 073c 29c6 d8bc 2f09 cd3c 9b0a 66bd
00000040: 868b d0bc ca16 ff3b 2549 fdbc 0d05 99bd
00000050: e83e 9bbd 2fe0 403c 7844 5bbd d293 0a3d
00000060: 76d2 56bc c2c1 87bd 6566 cebd 4b56 28bd
00000070: d374 9a3b 401e 08bd 97e8 0bbb 0599 373c
00000080: ca92 c2bb 7d78 b9bd e931 48bd c8f2 2dbd
00000090: 0179 3fbc 7341 9cbd 0c1b adbd 12b0 9dbc
000000a0: d4a9 9fbd abd5 fdbc ff25 79bd 44ab 97bd
000000b0: ed33 93bd ff4a 3dbd 2382 90bc b3c6 b8bd
000000c0: 7446 46bd ee33 3fbd ba8c 7d3d cba4 a3bc
000000d0: 8f66 023d a0ab 033c 13cd 24bd 52cb 5cbc
000000e0: e444 80bd feb1 acbc f5e0 c8bd 564d 4dbd
000000f0: edeb a5bd 50ec 1dbd e93d b3bc 7cd0 89bd
00000100: 655f 3e3c 62a0 07bd 61b5 1abe a756 76bd
00000110: cbac f0bc 28e9 12bc 51a0 6abb 7fce 9b3c
00000120: 46b4 88bd 070e 0ebd 54ce 94bd 2cd3 6fbd
00000130: afc7 05bd e5d2 96bb 172f 8dbd a9ab e03c
00000140: 0818 8ebc 4f5a 90bd bad3 413d c1eb 4fbd
00000150: 897d 70bd 6601 0bbd bf0e 8d3d 34e2 63bd
00000160: a080 513a 87c1 d2bc 3486 ac3c db55 9abc
00000170: b6bb 77bd 7f8b c9bb a79c 05bd 5e65 b13c
00000180: 82ea 453d f62a 163d a655 1abd b8a5 dabd
00000190: 367e a3bc 9b3f 06bd d6ce 8ebd c8b6 d23b
000001a0: a6aa 85bc 1f98 91bc a5a0 f2bc 5088 21bd
000001b0: 46ac 66bd 0c73 86bd 8a3e 27bd 30e4 873c
000001c0: 410c 7abd 21ee a73c cac3 d8bc 41e0 e1bd
000001d0: 7f3f 163d 5242 0a3b 5501 b5bd f90c d43c
000001e0: 0030 78bc 11fe 96ba 4764 5ebc dabe 50bd
000001f0: befb 9ebd d999 ab3c 0ba9 b8bd ff65 cbbd
00000200: 1ade 1abd d8dd aabd 904e 93bd 616d 30bd
00000210: d1c6 f7bb 35d9 f4bc 37c3 81bd 4e6d 3bbd
00000220: 795d bcbc a24a d8bd 120b a23b 599c 2f3d
00000230: 2e4c 30bd 3776 c1bd 97a2 253c 503f c0bc
00000240: b23f ee3b b03a 5dbd a766 7bbd 6f03 04bd
00000250: af99 13bd 0701 80bd 5e82 8bbd 53ec b2bc
00000260: 9893 583c e56f 9dbd 26cd 5dbd 500e 1dbd
00000270: a747 8bbd ae45 a0bd 05d1 30bd acb8 a9bd
00000280: e252 02bd a100 0bbd e46d 0abc 1a04 afbd
00000290: 71c0 80bd 065c 753d be3a 613a 8aff bd3a
000002a0: 045b 963c 6ba0 89bd da3e 56bc 9962 febc
000002b0: fd23 f03c d19e c4bc c8d2 efbb 64c9 12bd
000002c0: 9316 51bd f5bd 91bd 49fb 9b3d a74a d33c
000002d0: f1f8 b9bc 0090 57bd 4d35 f0bc 4e3c e43b
000002e0: f843 ddbb 58f6 683d 659a 873c 3697 9cbd
000002f0: f40f 00bd 2b98 5fbd acfa 72bd 596c 71bd
00000300: 2c77 4bbc c917 22bd a9ac 393c 976f f1bc
00000310: d24a 28bd 32c7 ab3d 81d2 34bd aadf dabd
00000320: 9338 41bd 7b9d c8bb ac14 2e3c e72c 243c
00000330: 0c92 9abd c158 0cbd 2276 32bd 7135 dc3a
00000340: 2380 4dbc 4b6a e5bc b187 47bd 5201 53bd
00000350: c598 a8bd 4ef0 3dbd a0d0 433c cf53 d0bc
00000360: 9cc4 a8bd 76bd 38bd 2276 0f3b 2c89 babb
00000370: 7f2b efbc 9242 7abd 9776 35bd e092 6dbd
00000380: 5f2e 12bc 6550 0cbd fe5a 65bd 4952 2dbd
00000390: 5ca7 21bd 0ad6 453d 7501 803b 89b7 f0bc
000003a0: 6a3f 1abd 2f72 0abd b4c9 f93c eca4 4cbd
000003b0: 900c 1bbd 3e7e 8cbd 3c87 03bd c822 d63c
000003c0: 571c 5ebc ec50 7dbd 535e 69bb 0e6d 843c
000003d0: 7339 d3bc df83 3ebb 6159 9fbb 14a6 9ebb
000003e0: d06a 1dbd 9f0c 64bd 05d1 31bd 162c 4dbd
000003f0: 1c4b 5fbd f2d1 24bd bc6e b2bb 78fa abba

network_body._body_endoder.seq_layers.2.weight f4 [256, 256]
-0.025958626 -0.028046446 -0.03528743 -0.055969536 -0.017250206 -0.038205575 0.007500356 0.10201867
0.01510476 0.008366015 -0.08254991 0.09427705 -0.08082572 -0.155809 -0.13499033 0.044330955
-0.052441508 -0.0076988493 0.0077999574 -0.05564515 0.087388 0.036504038 -0.02754819 -0.0054909135
0.0064025954 -0.059364706 -0.13637914 -0.08533072 -0.047970563 0.0064922054 -0.11543517 0.007328355
-0.07595719 -0.038686853 -0.011660123 -0.14900641 0.0250935 0.013192974 -0.032275695 0.016654951
-0.054711264 0.05745042 -0.06649872 -0.004789109 -0.15143095 0.02032087 -0.11450911 -0.06610081
0.0259208 0.028885255 -0.07217916 -0.061816562 0.024956787 0.04756357 0.018207788 -0.081903495
0.009525002 -0.0762931 0.04389438 -0.020600777 -0.029308563 -0.06349935 0.026538838 -0.056106824
-0.027106144 0.029458877 0.038328785 0.060942482 -0.059707306 -0.096732326 -0.1372257 -0.039121754
-0.055578012 -0.0049164253 0.03289098 -0.06526706 -0.026680728 0.011974287 -0.11706294 -0.046457317
-0.033961684 -0.03697264 -0.07260177 -0.034332644 -0.05387634 0.011606968 -0.1401037 -0.03117678
-0.025629183 -0.041666787 0.03393979 -0.14188649 0.030129412 -0.11751491 0.094480194 -0.040162943
0.01384965 0.04615681 0.056762867 0.065122105 -0.06952548 -0.025134856 -0.01649512 -0.014403265
-0.010824373 -0.0026118567 -0.040020753 -0.12444485 0.05416256 -0.079028316 -0.15009676 0.055471495
0.0404098 0.042923868 0.030393977 0.021334719 0.047792245 -0.16812523 -0.10571043 -0.11165085
0.004366221 -0.04344899 0.11162547 -0.039518625 -0.021807583 -0.112144284 -0.12220123 -0.09583237
0.013394667 0.06198927 -0.015124188 -0.16773738 -0.13253139 -0.086290374 -0.13049953 -0.111812115
0.021381415 0.023474043 -0.048325263 -0.09488996 -0.09855437 -0.005874939 0.021592801 -0.06627186
-0.11929192 0.05585413 -0.060584284 0.06537684 -0.09002271 0.008476713 -0.060879536 0.0638638
-0.13383964 -0.1607429 -0.17385748 -0.024283567 -0.06891229 -0.07652323 -0.011087586 -0.0027298115
-0.09180184 -0.0262886 -0.061400156 0.1348087 -0.056452356 -0.11476871 -0.090808906 -0.05851009
-0.011052787 -0.08420927 0.0011399527 -0.05820601 -0.04582215 -0.10472077 -0.027125139 -0.034656197
-0.14362387 -0.027547207 -0.05447773 -0.132742 -0.07127886 0.1378079 -0.1080264 -0.07599745
-0.10547544 -0.052372087 -0.048604276 -0.08548826 -0.0098132 0.14191937 -0.031227509 0.022642495
-0.11585613 -0.13990436 0.04852629 0.077605836 0.04404962 -0.07546344 -0.0517793 -0.080203585
0.028908623 -0.07972328 -0.16277911 -0.08043277 -0.16836749 0.15597412 -0.087828785 -0.06897131
0.05218656 -0.14059108 -0.03890505 -0.20329826 -0.019484403 -0.033306353 -0.012970194 -0.078941286
-0.05122436 -0.046275556 0.02368915 -0.09438194 0.035253014 -0.04147149 -0.00815461 -0.113511056
0.026099052 -0.073709935 -0.03719748 0.1383992 -0.075455636 -0.19791657 -0.09380329 0.012669483
-0.020119246 0.039973326 -0.059980206 0.04235531 -0.15850161 -0.11475426 -0.111250766 -0.25756922
-0.0665619 0.045342118 -0.058922615 -0.09738575 0.0083526755 -0.02110957 0.01483241 -0.067231335
0.04837058 0.00812979 0.015106392 -0.1272762 -0.11297124 -0.0049161613 -0.1595096 -0.07708514
00000000: 2fa7 d4bc a9c1 e5bc 8d89 10bd 5040 65bd
00000010: 4e50 8dbc 737d 1cbd 8cc5 f53b 2aef d03d
00000020: f579 773c 9c11 093c ed0f a9bd 5314 c13d
00000030: f587 a5bd 658c 1fbe e83a 0abe 6094 353d
00000040: e8cc 56bd a146 fcbb c996 ff3b 2bec 63bd
00000050: 7bf8 b23d 4285 153d beac e1bc 1fed b3bb
00000060: ddcc d13b 6828 73bd f9a6 0bbe dfc1 aebd
00000070: c87c 44bd 91bc d43b 4669 ecbd b322 f03b
00000080: 718f 9bbd 1b76 1ebd 1a0a 3fbc 2395 18be
00000090: e290 cd3c 5827 583c 8533 04bd f76f 883c
000000a0: eb18 60bd 2251 6b3d 7b30 88bd f5ed 9cbb
000000b0: b710 1bbe f477 a63c c183 eabd dd5f 87bd
000000c0: dc57 d43c c5a0 ec3c abd2 93bd 5d33 7dbd
000000d0: 2d72 cc3c 05d2 423d 8028 953c 05bd a7bd
000000e0: c10e 1c3c 8f3f 9cbd 98ca 333d f6c2 a8bc
000000f0: 8318 f0bc f20b 82bd fa67 d93c 45d0 65bd
00000100: b40d debc be53 f13c a5fe 1c3d d39e 793d
00000110: a68f 74bd 991b c6bd e584 0cbe 223e 20bd
00000120: c5a5 63bd f719 a1bb b1b8 063d bdaa 85bd
00000130: 8b91 dabc cd2f 443c b2be efbd 074a 3ebd
00000140: 681b 0bbd 9f70 17bd 3db0 94bd 63a0 0cbd
00000150: 70ad 5cbd 272b 3e3c 5877 0fbe 7266 ffbc
00000160: 4bf4 d1bc cbaa 2abd 7304 0b3d b14a 11be
00000170: f5d1 f63c a8ab f0bd d57e c13d e681 24bd
00000180: a4e9 623c ec0e 3d3d 2e80 683d bd5e 853d
00000190: 6063 8ebd 9de7 cdbc c620 87bc acfb 6bbc
000001a0: b658 31bc af2b 2bbb cdec 23bd f1dc febd
000001b0: 8fd9 5d3d 99d9 a1bd f7b2 19be 1436 633d
000001c0: bf84 253d f0d0 2f3d cafc f83c 26c6 ae3c
000001d0: cdc1 433d 0529 2cbe b67e d8bd 33a9 e4bd
000001e0: 8412 8f3b 91f7 31bd e59b e43d 48de 21bd
000001f0: d1a5 b2bc e7ab e5bd a344 fabd c343 c4bd
00000200: 4e75 5b3c 76e8 7d3d 71cb 77bc 59c3 2bbe
00000210: 4fb6 07be 02b9 b0bd aba1 05be c0fd e4bd
00000220: 1428 af3c a34c c03c b6f0 45bd ab55 c2bd
00000230: e0d6 c9bd 8f82 c0bb 63e3 b03c 8ab9 87bd
00000240: 524f f4bd 4dc7 643d 3a27 78bd 4be4 853d
00000250: d45d b8bd e9e1 0a3c d25c 79bd 06cb 823d
00000260: 420d 09be c999 24be b207 32be 55ee c6bc
00000270: e321 8dbd 36b8 9cbd b5a8 35bc a3e6 32bb
00000280: 9a02 bcbd 315b d7bc bb7e 7bbd 4b0b 0a3e
00000290: 963a 67bd dc0b ebbd 05fa b9bd 47a8 6fbd
000002a0: c016 35bc e975 acbd 776a 953a 6d69 6ebd
000002b0: 02b0 3bbd d877 d6bd 8a35 debc a8f3 0dbd
000002c0: 2312 13be aeaa e1bc 0a24 5fbd 85ed 07be
000002d0: a7fa 91bd 841d 0d3e f23c ddbd 8da4 9bbd
000002e0: 8203 d8bd 1d84 56bd 4715 47bd 7814 afbd
000002f0: 8bc7 20bc 5053 113e d5d0 ffbc c17c b93c
00000300: fb45 edbd 1743 0fbe 81c3 463d cfef 9e3d
00000310: 606d 343d 938c 9abd 8816 54bd c741 a4bd
00000320: c7d1 ec3c f645 a3bd 91af 26be f0b9 a4bd
00000330: 8768 2cbe aeb7 1f3e 94df b3bd d540 8dbd
00000340: 93c1 553d 1cf7 0fbe e75a 1fbd 6b2d 50be
00000350: c19d 9fbc 3e6c 08bd f080 54bc f8ab a1bd
00000360: a2d0 51bd 708b 3dbd c00f c23c 524b c1bd
00000370: 7765 103d 02de 29bd ea9a 05bc 7c78 e8bd
00000380: aecd d53c 3cf5 96bd 635c 18bd 85b8 0d3e
00000390: 7c88 9abd a4aa 4abe f01b c0bd aa93 4f3c
000003a0: 1ed1 a4bc 12bb 233d cead 75bd c37c 2d3d
000003b0: 3f4e 22be 4804 ebbd 71d7 e3bd 1de0 83be
000003c0: 9b51 88bd a8b8 393d d758 71bd 2e72 c7bd
000003d0: a9d9 083c faed acbc a303 733c 95b0 89bd
000003e0: 3b20 463d d032 053c cd80 773c b154 02be
000003f0: 775d e7bd c017 a1bb 7c56 23be d0de 9dbd

network_body._body_endoder.seq_layers.4.bias f4 [256]
-0.018026382 0.02060952 -0.080432154 -0.04737766 -0.021724211 -0.052552123 0.013629503 -0.03500894
-0.03565847 -0.099733 -0.017414792 0.025424859 -0.04968767 0.0015509053 -0.07687757 -0.05254598
-0.03900489 -0.029512364 -0.008675879 -0.06300077 -0.058982722 -0.069768496 -0.082551 -0.06352732
-0.037568726 -0.13799712 -0.03755355 -0.05647975 -0.060256835 -0.049918693 -0.068154946 -0.055655386
0.019814506 -0.016282069 0.00042378285 -0.014427415 -0.033104762 -0.06202487 -0.026683666 -0.080975704
-0.029642092 -0.089156605 -0.056480605 -0.046800878 -0.025058381 -0.050142847 -0.02413394 -0.006357832
-0.056767445 -0.0034237653 -0.042008404 -0.0060827187 0.006577805 -0.0025956088 0.07951801 -0.11758725
-0.03919406 0.0024091576 -0.040585436 0.041792963 -0.028033514 -0.058078036 0.033127204 -0.03103073
0.038975846 -0.083112225 -0.06519392 -0.02754176 -0.11255494 0.024829064 -0.060278025 -0.030014424
-0.066414535 -0.07306758 -0.05092779 -0.11515871 -0.05271411 -0.0063311085 -0.03240521 -0.050851278
-0.018742125 -0.0629724 -0.07022854 -0.0922096 -0.06671229 -0.06709032 0.081788555 -0.025784155
-0.017681185 -0.015439351 -0.10202848 0.0068859234 0.00016591165 -0.07073503 -0.059673987 0.0037155587
-0.086086236 0.029560866 0.004844732 -0.018573979 -0.046280693 -0.04170749 -0.12015538 -0.012840232
-0.09245826 -0.0044911015 -0.06375287 -0.06630822 -0.04010928 -0.0980187 -0.049847946 0.0052559134
-0.051458433 -0.044058487 0.005714988 -0.014238411 -0.0066910894 -0.0053132963 -0.07014848 0.017816424
-0.022650193 -0.07633762 -0.073988155 -0.08934077 0.003589756 0.000649087 -0.004508535 0.0040026326
0.036115874 -0.009706186 -0.030659918 -0.07888923 -0.06542912 -0.08214187 -0.073230945 -0.14431764
-0.109454595 -0.03198319 -0.09803161 -0.043017022 -0.044170443 -0.10712801 -0.10394918 0.029360652
-0.014501151 -0.04773048 0.02570772 0.0032478676 -0.04217404 0.023227582 -0.011723606 -0.072833665
-0.024434164 -0.0569534 -0.045855563 -0.118880354 -0.07560221 -0.030716943 -0.11294479 -0.013516046
-0.009611156 0.04655583 -0.10038241 0.050043717 -0.056031052 -0.07852536 -0.05913732 0.0010966792
-0.08145075 -0.08762364 -0.051150873 -0.13354924 0.051655035 0.010165551 -0.05244562 -0.036497056
-0.049912672 -0.0817634 -0.03708262 -0.043893002 -0.042075932 0.019498993 -0.057852734 -0.09856961
-0.058352403 -0.028681839 0.0011677863 0.00020085568 -0.052781958 -0.08567269 -0.06390513 -0.016626617
-0.0021211992 -0.065585904 0.054377858 -0.048486244 -0.1251818 0.010584258 -0.057498988 -0.06951893
-0.055428974 -0.05395297 -0.052688614 -0.032299057 -0.030731663 -0.04729476 0.006426427 0.02740147
-0.005505544 0.05375549 -0.099214874 0.0071753548 -0.04651667 -0.009759998 -0.08190916 -0.0155403605
-0.023136048 -0.028406573 -0.15502323 -0.032031186 0.0019462107 0.012116898 -0.07472626 -0.11391171
-0.08476395 -0.044575717 0.019961813 -0.021538615 -0.05070928 -0.03862519 -0.08847559 -0.059182182
-0.057799473 -0.072032124 0.025235938 -0.009522303 -0.044422004 -0.036869016 -0.056406777 -0.028210908
-0.006108314 -0.04395096 0.01953446 -0.04601724 -0.059583098 -0.008809059 0.06762002 -0.10138109
-0.020435559 -0.025287341 0.017005496 -0.09168861 -0.017093442 -0.0077590933 -0.006168657 -0.008144141
00000000: 10ac 93bc 4cd5 a83c 9db9 a4bd 140f 42bd
00000010: f9f6 b1bc e540 57bd 474e 5f3c 8965 0fbd
00000020: 9e0e 12bd d140 ccbd 77a9 8ebc cb47 d03c
00000030: 4c85 4bbd bf47 cb3a fd71 9dbd 743a 57bd
00000040: 97c3 1fbd eac3 f1bc 4625 0ebc 8c06 81bd
00000050: de97 71bd c9e2 8ebd 8010 a9bd 9d1a 82bd
00000060: aae1 19bd 1e4f 0dbe c0d1 19bd 4f57 67bd
00000070: dfcf 76bd 8b77 4cbd d294 8bbd e7f6 63bd
00000080: 0852 a23c f961 85bc 2c2f de39 f760 6cbc
00000090: dc98 07bd ca0d 7ebd b497 dabc 97d6 a5bd
000000a0: f9d3 f2bc bd97 b6bd 3558 67bd 47b2 3fbd
000000b0: 3c47 cdbc 9662 4dbd 8ab4 c5bc 5c55 d0bb
000000c0: fb84 68bd 4061 60bb 0111 2cbd 8b51 c7bb
000000d0: a18a d73b 171b 2abb 57da a23d 96d1 f0bd
000000e0: f389 20bd f5e2 1d3b ea3c 26bd 192f 2b3d
000000f0: 8aa6 e5bc 3ce3 6dbd 64b0 073d 2834 febc
00000100: 23a5 1f3d be36 aabd 6484 85bd 429f e1bc
00000110: 3483 e6bd 5266 cb3c 17e6 76bd cfe0 f5bc
00000120: 5804 88bd 75a4 95bd a999 50bd 54d8 ebbd
00000130: c0ea 57bd 3075 cfbb 53bb 04bd 6e49 50bd
00000140: 1689 99bc acf7 80bd fbd3 8fbd 63d8 bcbd
00000150: 74a0 88bd a666 89bd c280 a73d 4b39 d3bc
00000160: 22d8 90bc 55f5 7cbc 4ff4 d0bd 50a3 e13b
00000170: 92f8 2d39 87dd 90bd b66c 74bd bb80 733b
00000180: fb4d b0bd a129 f23c 8fc0 9e3b 7528 98bc
00000190: d390 3dbd 79d5 2abd 0614 f6bd d65f 52bc
000001a0: c25a bdbd 172a 93bb dd90 82bd 9bcc 87bd
000001b0: a149 24bd 07be c8bd 5c2d 4cbd cc39 ac3b
000001c0: 14c6 52bd ac76 34bd cb44 bb3b 3948 69bc
000001d0: ed40 dbbb 291b aebb 02aa 8fbd c0f3 913c
000001e0: e68c b9bc e656 9cbd 1a87 97bd 4bf8 b6bd
000001f0: 1d42 6b3b 7e27 2a3a 55bc 93bb 8428 833b
00000200: 3dee 133d b206 1fbc 822a fbbc ad90 a1bd
00000210: b4ff 85bd ff39 a8bd 1bfa 95bd 01c8 13be
00000220: bb29 e0bd ce00 03bd ccc4 c8bd 9e32 30bd
00000230: 11ec 34bd ee65 dbbd 4fe3 d4bd c085 f03c
00000240: 3c96 6dbc 0981 43bd ff98 d23c 2dda 543b
00000250: b0be 2cbd c547 be3c 5e14 40bc d129 95bd
00000260: 282a c8bc f847 69bd 0bd3 3bbd 8b77 f3bd
00000270: 55d5 9abd 19a2 fbbc 994f e7bd 6872 5dbc
00000280: 1c78 1dbc 53b1 3e3d 4b95 cdbd a4fa 4c3d
00000290: d180 65bd e7d1 a0bd f939 72bd 73be 8f3a
000002a0: a7cf a6bd 0674 b3bd 9483 51bd 22c1 08be
000002b0: 3b94 533d 698d 263c 38d1 56bd f07d 15bd
000002c0: 3b71 4cbd 9273 a7bd f2e3 17bd 26c9 33bd
000002d0: d057 2cbd 5abc 9f3c fdf6 6cbd ddde c9bd
000002e0: ee02 6fbd 2df6 eabc 6810 993a c99c 5239
000002f0: e531 58bd 2a75 afbd b1e0 82bd 8b34 88bc
00000300: d103 0bbb e751 86bd 51bb 5e3d 8399 46bd
00000310: a82f 00be 9869 2d3c 0f84 6bbd f15f 8ebd
00000320: 7e09 63bd cafd 5cbd 04d0 57bd 044c 04bd
00000330: f8c0 fbbc 26b8 41bd c794 d23b 0c79 e03c
00000340: da67 b4bb b72e 5c3d 2b31 cbbd 3d1f eb3b
00000350: 4488 3ebd 66e8 1fbc fdbf a7bd ff9c 7ebc
00000360: cf87 bdbc e7b4 e8bc 69be 1ebe 2233 03bd
00000370: ff17 ff3a f485 463c 150a 99bd 8b4a e9bd
00000380: b998 adbd 0795 36bd f586 a33c c071 b0bc
00000390: 89b4 4fbd 7235 1ebd b132 b5bd 0469 72bd
000003a0: 24bf 6cbd 9485 93bd 99bb ce3c 6f03 1cbc
000003b0: d9f3 35bd f703 17bd cb0a 67bd 901a e7bc
000003c0: 4028 c8bb ec05 34bd bb06 a03c 937c 3cbd
000003d0: 680d 74bd df53 10bc 5d7c 8a3d e4a0 cfbd
000003e0: 7968 a7bc 6627 cfbc 1c4f 8b3c 3dc7 bbbd
000003f0: 8c07 8cbc fe3f febb 7222 cabb 016f 05bc

network_body._body_endoder.seq_layers.4.weight f4 [256, 256]
-0.016689884 -0.067017384 -0.14502487 -0.08172446 0.024918627 0.16350003 -0.14183208 0.0028539952
-0.1374993 -0.15075117 0.08312862 -0.14430751 0.19438891 0.10987029 -0.014152089 0.16458113
0.054545168 -0.096507475 -0.0613871 0.14094877 0.013164336 -0.034946993 -0.14224802 0.014504145
0.023615584 0.05932621 0.039735656 -0.054803167 -0.057905015 0.31924284 -0.09882288 -0.15804437
-0.052909613 -0.06893724 -0.041099016 0.060813934 0.085313156 0.0436452 -0.019622423 0.061282583
0.035938583 -0.01947968 0.06509766 -0.05571108 0.031268135 0.050985895 0.14593937 -0.053132758
0.048605047 -0.11177231 -0.024930187 -0.055248655 -0.23064536 -0.13049506 -0.03989418 -0.05133806
0.06935671 0.08617908 0.20056431 0.057973407 0.13282369 0.072874285 -0.012160281 -0.052808225
-0.18237226 0.07512472 -0.055710055 0.010752989 0.023508742 0.02061106 -0.078551464 -0.0029437463
0.06743502 -0.12879653 -0.21449293 0.043556318 -0.0071310997 -0.008030561 0.09707595 -0.015620823
0.05023119 -0.0038686467 -0.07838801 -0.05238165 0.032298155 -0.027555918 -0.020654978 -0.017265763
-0.14799744 -0.0077262544 -0.14055987 -0.043836925 0.1178312 -0.09000809 0.06676513 -0.0022149687
-0.094365396 0.02605218 -0.00024014254 -0.15062125 0.019966293 0.032917842 -0.013169627 0.051911723
0.080917574 0.013966006 0.009242265 -0.011763101 0.01560016 -0.03424346 -0.14468025 -0.12097063
-0.012651623 0.0049846983 0.08033032 0.007784188 0.07131653 -0.020680845 0.2307498 -0.04913307
-0.04163929 0.023953844 -0.0068163592 -0.05889452 -0.004731062 0.023244306 -0.020112759 -0.02394253
-0.06340718 0.054413065 -0.07408943 -0.13643026 -0.1303206 0.047015507 0.025150247 0.14002077
-0.014797046 0.08314153 -0.15902355 0.017945334 -0.033457108 0.004500578 -0.012271504 0.1651337
-0.0015166259 -0.07330451 0.00903715 -0.082609735 -0.10360928 0.09855656 0.12176831 0.075798325
-0.0010912445 -0.017790988 -0.0007532563 -0.04040806 0.049125087 -0.07791578 -0.09046846 0.1684955
0.17010772 -0.10313184 -0.12046006 0.0126259 0.17055659 -0.012230227 0.17123662 -0.011213783
-0.026966833 -0.004622672 -0.051088855 0.039270926 -0.006205276 -0.03455882 0.096463755 0.10887386
-0.15650757 -0.08951578 -0.035277948 -0.022536084 0.15422635 0.010691838 0.05505373 0.02815345
-0.08109349 -0.122458324 0.034026943 -0.00439549 -0.065338284 -0.13427685 0.0412539 0.030726848
0.1241981 -0.06875031 -0.008307349 0.02502397 -0.09132015 -0.068743415 -0.15312012 0.12662172
0.08372747 -0.026557585 0.26529622 0.15585752 0.20145172 -0.011380396 -0.06326358 -0.07944493
-0.04228845 0.10596416 -0.027012935 -0.1511594 -0.21545471 -0.009627365 0.15946317 0.16177067
-0.014526991 0.040195756 -0.0576339 0.17127937 0.0704447 0.03405519 0.0978859 -0.009889823
0.13942666 0.06314423 0.07592945 0.10506811 -0.017946126 0.01386808 0.03550143 -0.06467069
-0.028205136 -0.060633462 -0.22404687 0.038163535 0.061831996 0.13419887 -2.1719257e-05 -0.06161932
0.008839921 -0.07719086 -0.011044159 -0.16241547 -0.03669969 -0.014817006 -0.014375787 -0.06727837
0.099647164 0.020282509 0.034071103 0.1857087 0.0644197 -0.09552255 0.08863214 -0.003814054
00000000: 39b9 88bc 6940 89bd 6681 14be 275f a7bd
00000010: 2622 cc3c 8d6c 273e 6e3c 11be 180a 3b3b
00000020: 9ecc 0cbe 845e 1abe 573f aa3d 59c5 13be
00000030: e30d 473e ad03 e13d 2ade 67bc f587 283e
00000040: c16a 5f3d b6a5 c5bd 0a71 7bbd e054 103e
00000050: 3aaf 573c 9424 0fbd 77a9 11be cba2 6d3c
00000060: 7875 c13c 0a00 733d dbc1 223d 4979 60bd
00000070: cf2d 6dbd cc73 a33e a663 cabd 62d6 21be
00000080: c0b7 58bd f82e 8dbd 7157 28bd 0818 793d
00000090: aab8 ae3d 4fc5 323d 34bf a0bc 7203 7b3d
000000a0: 5634 133d da93 9fbc ec51 853d 4d31 64bd
000000b0: 0413 003d 96d6 503d 2171 153e bca1 59bd
000000c0: 1616 473d e2e8 e4bd 643a ccbc 6a4c 62bd
000000d0: 4c2e 6cbe 7fa0 05be 1468 23bd dc47 52bd
000000e0: e40a 8e3d a87e b03d bb60 4d3e 8675 6d3d
000000f0: ef02 083e 1d3f 953d ea3b 47bc 704d 58bd
00000100: cbbf 3abe fdda 993d 3a30 64bd 4e2d 303c
00000110: 6895 c03c 87d8 a83c 97df a0bd deeb 40bb
00000120: 5f1b 8a3d 3de3 03be 09a4 5bbe 1c68 323d
00000130: 00ac e9bb 9d92 03bc c1cf c63d 7bee 7fbc
00000140: 38bf 4d3d 1f89 7dbb e589 a0bd 248e 56bd
00000150: 124b 043d f3bc e1bc a134 a9bc ee70 8dbc
00000160: a48c 17be 852c fdbb edee 0fbe 598e 33bd
00000170: 7c51 f13d 2956 b8bd 28bc 883d 0229 11bb
00000180: a542 c1bd 626b d53c c6ce 7bb9 753c 1abe
00000190: 5a90 a33c dcd4 063d 6bc5 57bc 63a1 543d
000001a0: 1db8 a53d add1 643c de6c 173c 06ba 40bc
000001b0: d097 7f3c df42 0cbd 0f27 14be 73bf f7bd
000001c0: c148 4fbc ae56 a33b 3984 a43d 8012 ff3b
000001d0: 670e 923d e06a a9bc ad49 6c3e c23f 49bd
000001e0: f68d 2abd da3a c43c c45b dfbb 613b 71bd
000001f0: 0607 9bbb d86a be3c 83c3 a4bc 2023 c4bc
00000200: a0db 81bd 3ce0 5e3d 33bc 97bd 60b4 0bbe
00000210: c372 05be 5593 403d e407 ce3c 9b61 0f3e
00000220: 4f6f 72bc 1b46 aa3d 12d7 22be 1802 933c
00000230: 520a 09bd 9679 933b 6b0e 49bc cf18 293e
00000240: 85c9 c6ba ad20 96bd 8e10 143c 4b2f a9bd
00000250: 1a31 d4bd 06d8 c93d aa61 f93d 273c 9b3d
00000260: 1708 8fba 68be 91bc 2d76 45ba ec82 25bd
00000270: 6337 493d 4f92 9fbd 8747 b9bd 168a 2c3e
00000280: b830 2e3e c936 d3bd c4b3 f6bd dddc 4e3c
00000290: 63a6 2e3e 4a61 48bc a758 2f3e 04ba 37bc
000002a0: 8ce9 dcbc c979 97bb 8c42 51bd 8dda 203d
000002b0: a155 cbbb 8d8d 0dbd ca8e c53d 42f9 de3d
000002c0: 8543 20be 0d54 b7bd 9c7f 10bd 989d b8bc
000002d0: 83ed 1d3e d22c 2f3c 0580 613d 10a2 e63c
000002e0: 5814 a6bd 6ecb fabd d65f 0b3d 0b08 90bb
000002f0: 14d0 85bd df7f 09be d9f9 283d dfb6 fb3c
00000300: 935b fe3d f6cc 8cbd 8c1b 08bc 12ff cc3c
00000310: 0f06 bbbd 59c9 8cbd 85cb 1cbe 20a9 013e
00000320: 4f79 ab3d 4b8f d9bc e8d4 873e 1d99 1f3e
00000330: 5c49 4e3e d774 3abc 5690 81bd 06b4 a2bd
00000340: a736 2dbd bd03 d93d 3b4a ddbc 88c9 1abe
00000350: 29a0 5cbe 18bc 1dbc 504a 233e 36a7 253e
00000360: 9e02 6ebc 4ea4 243d 8611 6cbd dc63 2f3e
00000370: 5045 903d 747d 0b3d 6778 c83d ed08 22bc
00000380: ddc5 0e3e c351 813d e680 9b3d f32d d73d
00000390: c103 93bc f236 633c f369 113d 1172 84bd
000003a0: 750e e7bc cb5a 78bd 8b6c 65be 5e51 1c3d
000003b0: 8c43 7d3d 6e6b 093e c031 b6b7 8a64 7cbd
000003c0: 51d5 103c 3e16 9ebd 8ff2 34bc 3e50 26be
000003d0: 6a52 16bd 07c3 72bc 6c88 6bbc 3ec9 89bd
000003e0: d013 cc3d 8127 a63c 248e 0b3d 6c2a 3e3e
000003f0: 7aee 833d 54a1 c3bd c484 b53d 35f5 79bb
