results/Drone3/Drone/Drone-25999990.onnx (onnx, 810629 bytes, 11 tensors)

action_model._continuous_distribution.log_sigma f4 [1, 4]
-1.6957003 -1.5541235 -1.5272557 -1.4869288
00000000: b50c d9bf 85ed c6bf 1d7d c3bf af53 bebf

action_model._continuous_distribution.mu.bias f4 [4]
0.11579752 0.040101152 0.13306586 0.03219849
00000000: 4027 ed3d 1b41 243d 6b42 083e 90e2 033d

action_model._continuous_distribution.mu.weight f4 [4, 256]
-0.036509022 -0.053756997 -0.027767476 -0.058946814 -0.09623091 -0.015509004 0.000143217 -0.05513353
-0.006765089 0.0649712 -0.07061145 -0.0651529 0.05894409 -0.0495478 -0.05024091 -0.04776056
-0.036263227 0.032475516 0.04136861 0.027322648 0.0058947736 0.026356863 -0.040643916 -0.051140595
0.013040957 0.016333919 -0.057346072 -0.02176001 0.029189428 -0.007244112 -0.049475174 0.0029986512
0.016130395 0.08524412 -0.06617969 -0.03928489 0.043408424 -0.00094894227 0.025731694 -0.07272985
-0.012003818 -0.07887897 0.0012900572 -0.039179057 -0.11822102 -0.06759174 0.06979366 -0.1181047
0.04955323 0.010740762 -0.0967786 -0.0069500427 0.011731781 0.007860688 -0.03535107 -0.112832606
-0.027495692 -0.07944351 -0.11509101 0.0073991823 0.02013875 -0.040369507 0.07544784 0.045406085
-0.022124566 -0.01699486 -0.010517407 -0.008100848 0.047908355 0.041114166 0.02041598 -0.020194748
-0.027691506 0.0019477954 0.061848834 -0.028627463 0.048909437 -0.10204453 -0.040270545 0.02205848
0.027063822 -0.049110603 -0.024761658 -0.024112895 0.0011716622 0.010400997 0.056482438 0.058739472
-0.06934084 -0.067858085 0.010888889 -0.013439595 0.055506453 0.005600313 -0.030295521 -0.10291505
-0.030440265 0.046265688 0.0053755166 -0.007859426 0.014816374 -0.07060617 0.032443546 -0.090513386
0.014057798 0.04207087 0.01684202 0.03359509 -0.07550975 0.02001356 -0.05175597 -0.06843997
0.07434897 -0.02481051 -0.04808521 0.008283041 0.021302309 -0.061128583 -0.078341976 -0.030611033
-0.06723813 -0.04358035 0.0156615 -0.034911465 -0.046518423 -0.012352725 -0.020870097 -0.061152186
-0.12038907 -0.0066367136 -0.04010671 -0.024449235 -0.09541322 0.040070817 -0.08533476 -0.061937604
0.037004553 -0.041986052 0.08354182 -0.111037396 -0.07853846 -0.013440743 -0.0043768687 0.05938922
0.012172073 -0.033343807 -0.07541359 -0.00018099045 -0.07174047 -0.044451114 0.020096034 0.024931058
-0.025245259 0.017179087 -0.03266676 -0.0036922968 -0.03326407 0.035433047 0.045476742 -0.050760485
-0.13615014 0.06773041 0.013290998 -0.040675744 -0.03777176 -0.009011786 0.041410346 0.038648862
-0.063167594 -0.061624344 -0.014497647 -0.03636163 0.08685899 -0.00528569 0.0020728519 0.09333055
-0.02644689 0.0021461495 -0.0128250355 -0.0011970222 0.026152574 0.07316944 0.024434851 -0.038650885
-0.0025014041 -0.038342997 0.020262437 -0.049813792 -0.033564106 0.037349433 0.015624158 -0.031385187
-0.081414 0.03870959 0.029131517 -0.08679599 -0.054298114 0.04365807 -0.07625048 0.023584181
-0.0803433 -0.009705314 0.0443196 -0.059188057 -0.022455147 -0.038139418 -0.029526088 -0.011098726
0.00871057 -0.0579832 -0.08640523 0.013768666 -0.016473519 -0.026561532 -0.05619928 -0.018838586
-0.04766276 0.05876376 0.016120682 0.021497833 -0.0073721907 -0.00518819 -0.019606465 -0.011530513
-0.086467996 -0.019922985 -0.08219272 -0.02919778 -0.013099592 -0.023737868 0.056371056 0.08773083
-0.05407287 0.012978416 0.009807434 0.008249705 -0.033620797 0.046185844 -0.036390007 -0.029731685
0.061563667 0.031853117 -0.028069625 0.0487918 0.02894169 0.04025557 0.012105944 -0.01002067
-0.0007669069 -0.0038998374 -0.037692353 0.015943762 -0.0120391855 -0.036294613 -0.05067104 -0.07944718
00000000: 7c8a 15bd 4c30 5cbd 9e78 e3bc 3772 71bd
00000010: b614 c5bd 7a19 7ebc 852c 1639 b2d3 61bd
00000020: aead ddbb 9f0f 853d bc9c 90bd e26e 85bd
00000030: 5c6f 713d a2f2 4abd 6ac9 4dbd 94a0 43bd
00000040: c088 14bd 0c05 053d 2272 293d bfd3 df3c
00000050: f228 c13b 59ea d73c 3c7a 26bd cd78 51bd
00000060: bda9 553c b6ce 853c b7e3 6abd 0c42 b2bc
00000070: ab1e ef3c 0460 edbb 7ba6 4abd 0585 443b
00000080: e423 843c 7894 ae3d 3889 87bd 31e9 20bd
00000090: 08cd 313d 70c2 78ba 46cb d23c 63f3 94bd
000000a0: a9ab 44bc 4c8b a1bd 2317 a93a 387a 20bd
000000b0: dd1d f2bd 8a6d 8abd faef 8e3d e1e0 f1bd
000000c0: 54f8 4a3d 05fa 2f3c dc33 c6bd 2fbd e3bb
000000d0: a836 403c 1dca 003c 49cc 10bd c814 e7bd
000000e0: a53e e1bc 47b3 a2bd d6b4 ebbd d774 f23b
000000f0: 05fa a43c 7f5a 25bd 6684 9a3d bbfb 393d
00000100: 943e b5bc ce38 8bbc 3451 2cbc 6bb9 04bc
00000110: 8d3b 443d 5467 283d 6a3f a73c 756f a5bc
00000120: 4cd9 e2bc 2b4d ff3a 3455 7d3d 2484 eabc
00000130: 4355 483d b9fc d0bd baf2 24bd fcb3 b43c
00000140: f3b4 dd3c 3328 49bd f6d8 cabc 6888 c5bc
00000150: 7692 993a f168 2a3c 215a 673d cd98 703d
00000160: 9202 8ebd 2ef9 8abd 5067 323c bf31 5cbc
00000170: bc5a 633d d582 b73b 502e f8bc 20c5 d2bd
00000180: dd5d f9bc 1781 3d3d 1a25 b03b d2c4 00bc
00000190: 60c0 723c f899 90bd 86e3 043d 155f b9bd
000001a0: ae52 663c 8152 2c3d 47f8 893c 019b 093d
000001b0: dba4 9abd 7af3 a33c 11fe 53bd 412a 8cbd
000001c0: 4644 983d 693f cbbc fff4 44bd 98b5 073c
000001d0: 2e82 ae3c f761 7abd c271 a0bd fdc3 fabc
000001e0: 25b4 89bd 4f81 32bd 8c4c 803c 53ff 0ebd
000001f0: 1a8a 3ebd 1563 4abc c4f7 aabc b77a 7abd
00000200: 8b8e f6bd ca78 d9bb ef46 24bd c349 c8bc
00000210: 0268 c3bd 4c21 243d fec3 aebd 49b2 7dbd
00000220: 1692 173d 91f9 2bbd f917 ab3d 9367 e3bd
00000230: c6d8 a0bd 9036 5cbc d66b 8fbb 1c42 733d
00000240: 606d 473c 8493 08bd 7172 9abd 41c8 3db9
00000250: abec 92bd 5f12 36bd 70a0 a43c 383c cc3c
00000260: 25cf cebc 28bb 8c3c 95cd 05bd 76fa 71bb
00000270: e83f 08bd 3e22 113d d245 3a3d 3aea 4fbd
00000280: f16a 0bbe 3eb6 8a3d 7cc2 593c 9c9b 26bd
00000290: 90b6 1abd 2ca6 13bc e59d 293d 454e 1e3d
000002a0: 035e 81bd cf69 7cbd 8a87 6dbc efef 14bd
000002b0: 20e3 b13d 9533 adbb afd8 073b 1624 bf3d
000002c0: 26a7 d8bc 6aa6 0c3b 1920 52bc 66e5 9cba
000002d0: ec3d d63c dcd9 953d 992b c83c 6450 1ebd
000002e0: 99ee 23bb 8c0d 1dbd 69fd a53c 8c09 4cbd
000002f0: 847a 09bd b8fb 183d 78fc 7f3c c18d 00bd
00000300: 62bc a6bd f28d 1e3d 38a5 ee3c 19c2 b1bd
00000310: b367 5ebd ced2 323d 3629 9cbd 9d33 c13c
00000320: 078b a4bd 0a03 1fbc 7888 353d 2d6f 72bd
00000330: dbf3 b7bc 1438 1cbd b2e0 f1bc 6ed7 35bc
00000340: c7b6 0e3c cb7f 6dbd 3af5 b0bd f995 613c
00000350: 79f3 86bc 9297 d9bc 3731 66bd 6153 9abc
00000360: 073a 43bd 45b2 703d 850f 843c 391c b03c
00000370: 6b92 f1bb b101 aabb bd9d a0bc 7aea 3cbc
00000380: 2216 b1bd 8735 a3bc a854 a8bd 2f30 efbc
00000390: ac9f 56bc eb75 c2bc 56e5 663d 39ac b33d
000003a0: 847b 5dbd 6ca3 543c 5caf 203c c529 073c
000003b0: f6b5 09bd 5e2d 3d3d b00d 15bd dd8f f3bc
000003c0: 2f2a 7c3d 6a78 023d 45f2 e5bc e9d9 473d
000003d0: 2017 ed3c 06e3 243d 0258 463c bc2d 24bc
000003e0: 400a 49ba 6a94 7fbb 4c63 1abd 7e9c 823c
000003f0: 0140 45bc a9a9 14bd 708c 4fbd 34b5 a2bd

network_body._body_endoder.seq_layers.0.bias f4 [256]
0.13385102 -0.13423273 0.14159095 -0.040457267 -0.24482828 -0.1078096 -0.10704525 -0.13989007
-0.20986131 -0.049122233 -0.098560594 -0.14804856 -0.008524524 -0.16918154 -0.06053464 0.036949165
0.10736084 -0.13250278 -0.039267443 -0.23118983 -0.026573049 -0.12979583 -0.079424836 -0.20243673
-0.06384687 -0.050404668 -0.14216797 -0.09376066 -0.08133579 -0.35103104 0.004693194 -0.07428782
-0.07450166 -0.123342454 -0.15061405 -0.15871447 -0.17395686 -0.15965535 -0.16587271 -0.16230127
-0.054622408 -0.20627688 -0.075296134 0.0055024666 -0.15478373 -0.13165039 0.021599418 -0.14213952
0.09530537 -0.061683238 -0.17635953 -0.21913885 -0.095964774 0.026624743 -0.04925968 -0.2488698
-0.18567257 -0.18870804 -0.03573469 -0.1335231 -0.26426768 -0.13063934 -0.16234392 -0.16974671
-0.10325259 -0.13558668 -0.17537475 0.013278317 -0.13318825 -0.09495992 -0.047148682 -0.11716149
-0.089129746 -0.0024087764 -0.16671677 -0.025884468 -0.10699205 -0.055223387 -0.14805965 -0.225638
-0.10307778 0.049111754 -0.06549419 0.11008264 -0.08804503 -0.27258232 -0.21561068 -0.15058781
-0.1895187 -0.11461359 -0.17063467 -0.09156024 0.15521522 0.064574406 0.03854636 -0.37241176
-0.18452647 -0.166094 -0.09138006 0.058943108 -0.01942842 -0.19517198 -0.12883104 -0.21285842
0.00016391212 -0.1354462 -0.12362716 0.14906673 -0.014147429 -0.01857056 -0.054772258 -0.12249898
-0.05899958 0.08270546 0.06718666 -0.23170258 -0.17199233 -0.044978686 -0.3109823 -0.2349815
-0.09315583 -0.14697169 -0.16960108 -0.11994842 -0.096784376 -0.024620106 -0.11957225 -0.101232894
0.05968305 -0.082528204 -0.05477563 -0.049648367 0.011165172 -0.11134014 0.06744036 -0.10639331
0.082657784 -0.22145714 -0.14194058 -0.0121603785 -0.10968011 0.11559385 -0.04440506 -0.14926663
-0.08700709 -0.03251734 -0.20119713 -0.24595574 -0.040484525 -0.107526146 0.011522071 0.012913936
0.03836055 0.033617217 -0.011871465 0.056663074 -0.0054425225 -0.14736544 -0.10000622 -0.043143783
0.07147624 0.16059868 -0.04383621 0.023012105 -0.07442383 -0.028920019 -0.07008702 -0.016488094
-0.07633173 -0.014645742 -0.15303878 -0.11657164 -0.02223361 -0.05905003 0.025944754 -0.059856698
-0.11662752 -0.235546 0.006096532 -0.23892285 -0.24225254 -0.024551557 -0.042656247 -0.11756719
-0.22504437 0.058606394 -0.1306928 -0.039589122 -0.20221733 0.15786572 -0.13813317 -0.0053660627
-0.08252272 0.035371594 -0.08212963 -0.05257473 -0.17186323 -0.020422714 -0.12425502 -0.04219617
0.021091005 0.06619444 -0.115411 -0.16325346 -0.08984104 -0.14206028 -0.08604945 -0.16777883
-0.08751819 -0.073292434 0.013590816 0.0067149797 -0.14043884 -0.023685 -0.13522796 -0.19473924
-0.009426232 0.0463416 -0.12373677 -0.14255531 -0.32253107 -0.08944426 0.105225526 -0.0062080133
-0.10872809 -0.10317314 -0.07965723 -0.20809902 -0.14154047 -0.031935852 0.13511603 0.04030419
-0.16847067 -0.12841281 -0.0644751 -0.03814085 0.032559957 -0.10662957 -0.13965183 0.087774634
-0.08977158 0.1115587 0.011818787 -0.1134602 -0.06784884 -0.16112076 -0.16896749 -0.06544219
-0.06955579 -0.13192695 -0.17635792 -0.0154726785 0.02049737 -0.14006323 0.03796955 -0.12520799
00000000: 3e10 093e 4e74 09be 38fd 103e 85b6 25bd
00000010: 44b4 7abe 48cb dcbd 8a3a dbbd 583f 0fbe
00000020: e2e5 56be 6534 49bd 23da c9bd 0b9a 17be
00000030: 72aa 0bbc ed3d 2dbe 2cf3 77bd 0258 173d
00000040: 00e0 db3d cfae 07be e6d6 20bd 07bd 6cbe
00000050: b9af d9bc 33e9 04be 7da9 a2bd 934b 4fbe
00000060: 26c2 82bd 2075 4ebd 7b94 11be 9705 c0bd
00000070: 6193 a6bd 57ba b3be 5dc9 993b 3624 98bd
00000080: 5494 98bd f89a fcbd 923a 1abe 0c86 22be
00000090: bf21 32be b17c 23be 89da 29be 4e32 26be
000000a0: bfbb 5fbd 3f3a 53be dc34 9abd 094e b43b
000000b0: a07f 1ebe 5ccf 06be 43f1 b03c 068d 11be
000000c0: 762f c33d 90a7 7cbd 9897 34be ef65 60be
000000d0: 2e89 c4bd 221c da3c 85c4 49bd bad7 7ebe
000000e0: f320 3ebe ae3c 41be 8a5e 12bd 48ba 08be
000000f0: 184e 87be 52c6 05be 7c3d 26be 15d2 2dbe
00000100: 1876 d3bd 3cd7 0abe 7095 33be 4c8d 593c
00000110: 8062 08be 597a c2bd fa1e 41bd 5df2 efbd
00000120: a889 b6bd 90dc 1dbb cdb7 2abe aa0b d4bc
00000130: a61e dbbd eb31 62bd f39c 17be a60d 67be
00000140: 711a d3bd 6829 493d d121 86bd 0273 e13d
00000150: f450 b4bd e98f 8bbe 0cc9 5cbe b133 1abe
00000160: 3111 42be 88ba eabd dbba 2ebe ef83 bbbd
00000170: bdf0 1e3e 963f 843d cae2 1d3d c1ac bebe
00000180: 82f4 3cbe 8c14 2abe 7825 bbbd 546e 713d
00000190: 5a28 9fbc 2adb 47be 49ec 03be 8ff7 59be
000001a0: d3df 2b39 69b2 0abe 3d30 fdbd f3a4 183e
000001b0: 9eca 67bc 4921 98bc e058 60bd bfe0 fabd
000001c0: 8ba9 71bd 7b61 a93d 2999 893d 7143 6dbe
000001d0: c21e 30be 923b 38bd 1239 9fbe fe9e 70be
000001e0: 7cc8 bebd bf7f 16be e8ab 2dbe 84a7 f5bd
000001f0: e336 c6bd 1bb0 c9bc 4ce2 f4bd 3153 cfbd
00000200: 3776 743d 8c04 a9bd 695c 60bd 165c 4bbd
00000210: 20ee 363c 4d06 e4bd 2c1e 8a3d bce4 d9bd
00000220: 7c48 a93d a9c5 62be df58 11be 533c 47bc
00000230: f79f e0bd 78bc ec3d 15e2 35bd 5ad9 18be
00000240: c630 b2bd e730 05bd 9f06 4ebe d2db 7bbe
00000250: 1ad3 25bd ab36 dcbd 12c7 3c3c f994 533c
00000260: f41f 1d3d 35b2 093d 8880 42bc 8a17 683d
00000270: 3057 b2bb f7e6 16be 10d0 ccbd 89b7 30bd
00000280: 2362 923d fb73 243e 998d 33bd e283 bc3c
00000290: 856b 98bd ade9 ecbc c989 8fbd 0a12 87bc
000002a0: cf53 9cbd b2f4 6fbc 33b6 1cbe 1dbd eebd
000002b0: 4223 b6bc 72de 71bd 188a d43c 4c2c 75bd
000002c0: 69da eebd f832 71be 6bc5 c73b 31a8 74be
000002d0: 0d11 78be 5920 c9bc 51b8 2ebd 11c7 f0bd
000002e0: 0872 66be 420d 703d 55d4 05be 3428 22bd
000002f0: 0f12 4fbe 8da7 213e c872 0dbe ccd5 afbb
00000300: ac01 a9bd cee1 103d 9433 a8bd 9a58 57bd
00000310: eafc 2fbe 894d a7bc 6a79 febd e4d5 2cbd
00000320: 0bc7 ac3c f390 873d 9a5c ecbd ea2b 27be
00000330: 94fe b7bd 4078 11be b23a b0bd 37ce 2bbe
00000340: bd3c b3bd 581a 96bd 04ac 5e3c 5509 dc3b
00000350: 33cf 0fbe 0c07 c2bc 3379 0abe b969 47be
00000360: 7c70 1abc b1d0 3d3d b469 fdbd 05fa 11be
00000370: cb22 a5be 8d2e b7bd 7b80 d73d 976c cbbb
00000380: d5ac debd 704c d3bd 5423 a3bd e917 55be
00000390: fcef 10be 2bcf 02bd db5b 0a3e 0216 253d
000003a0: 9383 2cbe a67e 03be 850b 84bd 9439 1cbd
000003b0: 975d 053d 9b60 dabd e400 0fbe 30c3 b33d
000003c0: 2ada b7bd e378 e43d 96a3 413c d25d e8bd
000003d0: 55f4 8abd d7fc 24be d005 2dbe 8e06 86bd
000003e0: 4473 8ebd dc17 07be 2c97 34be 1e81 7dbc
000003f0: 1aea a73c bc6c 0fbe f585 1b3d 8636 00be

network_body._body_endoder.seq_layers.0.weight f4 [256, 13]
0.25751144 -0.20513968 -0.18938945 -0.059232462 0.17192759 0.21584961 0.9818442 -0.2052628
-1.316904 1.0503794 -0.2301368 -0.0817104 0.55516464 0.1328933 0.19211394 0.11275881
-0.18093507 -0.058823783 -0.026908029 0.34372592 -0.086624235 -0.33647662 0.020219676 0.15113185
-0.022241067 0.62239254 0.0034922562 0.11740152 -0.38796127 -0.045105938 -0.025776964 0.10518082
2.4888597 0.38595036 0.17897937 0.6152698 -0.109932244 0.60243094 0.06596534 0.22107024
-0.5678886 -0.18291548 -0.05180001 0.093056925 -0.13160326 -0.1264405 -0.056279704 0.174148
-0.07051816 -0.03890792 -0.39578354 -0.055624727 -0.26911065 -0.4927319 0.11343659 0.59357524
-0.44952354 0.2424504 0.25534338 0.40475672 0.046603873 -0.59848064 -0.049766976 -0.5034279
0.16282319 -0.03996248 -0.04111871 -0.03120045 -0.14173877 0.13766284 0.20096596 -1.3752373
-0.0850118 0.08547785 -0.10540486 -0.010350074 0.16729555 -0.26662302 -0.027835814 -0.28275964
-0.4947339 0.15210731 -0.12765285 -0.1020656 -0.6215074 0.3186861 -0.20249124 0.36222178
0.04862615 0.16419244 -0.25824496 0.16584149 -0.8750886 0.039847378 -0.27466628 0.053057805
-0.1963049 -0.10227037 -0.7160601 -0.15270543 0.15449195 -0.17272322 -0.17382239 -0.121920936
0.11740529 -0.11515843 -0.009759391 0.21859296 0.046574894 -0.18981154 -0.5698608 -0.61624444
0.15459424 -0.19318208 -0.00084854953 0.040724177 -0.11230797 0.32674685 -0.23865023 0.1546899
0.11722656 0.0026757407 0.031152291 -0.13076368 -0.068222046 0.44612125 -0.4369573 0.091802806
0.17234686 -0.048427027 -0.03966643 0.010404229 0.021158751 0.10514856 0.05643149 -0.0016351693
-0.019852567 -0.38915944 -0.06230716 -0.29053506 0.5046044 -0.63687384 0.037888013 -0.070131764
-0.33069304 -0.028427985 -0.30571142 0.1050136 0.10920489 -0.89974135 -0.37195006 0.3299619
0.11618367 -0.19561376 0.28049642 -0.08594373 0.13624908 0.1797539 0.3497401 -0.25681216
0.23428854 0.14594391 0.45211458 -0.38343504 0.74339277 -0.04156262 -0.31047085 0.40433142
0.47497585 0.36310282 -0.309053 -0.019115644 0.115842685 0.09671667 0.67266065 -0.79665333
0.049903538 -0.50690037 -0.5689067 0.10329192 0.12887962 -0.11949404 -0.23063509 -0.091239244
-0.37479353 0.10326463 -0.17627105 0.07078529 0.5648983 0.43057442 0.12586477 0.4326203
-0.06755501 -0.36185157 0.038823117 0.06313574 0.17280188 -0.029019956 0.08067105 -0.35241652
0.19140822 -0.8074629 0.36754304 -1.4882803 0.40391225 -0.012560546 0.051323324 -0.056045193
-0.0010891362 0.34096396 0.06519197 -0.17566939 0.063052975 0.053320374 1.1140811 -0.049291983
0.72116333 0.34734428 -0.29109555 0.59974736 0.4166069 0.06204433 0.49220118 0.3025329
-0.29973707 -0.1456403 0.053358763 -0.15038303 0.040715408 1.1167548 -0.25245267 0.1221951
-0.09043633 -0.074555755 -0.422886 0.060975704 0.07634914 0.31024247 -0.28090197 -0.09079449
-1.7091357 -0.4980197 -0.028725136 0.425871 0.09334907 -0.17822357 -0.072985664 0.17247072
-0.44740537 0.14893666 -0.3065895 0.21397716 -0.2648636 -0.1988752 -0.39871398 0.16547552
00000000: 8ad8 833e 2310 52be 4fef 41be bd9d 72bd
00000010: c90d 303e ae07 5d3e 245a 7b3f 6930 52be
00000020: 4f90 a8bf d572 863f fba8 6bbe c857 a7bd
00000030: 451f 0e3f 2e15 083e 84b9 443e 17ee e63d
00000040: 0b47 39be 35f1 70bd 3a6e dcbc d8fc af3e
00000050: 0c68 b1bd aa46 acbe bca3 a53c 4fc2 1a3e
00000060: e632 b6bc 1e55 1f3f 56de 643b 3570 f03d
00000070: dca2 c6be 01c1 38bd 362a d3bc 0b69 d73d
00000080: 7a49 1f40 499b c53e 5e46 373e 5282 1d3f
00000090: 2824 e1bd ea38 1a3f d618 873d 3d60 623e
000000a0: 2661 11bf 324e 3bbe 3f2c 54bd a194 be3d
000000b0: 01c3 06be 9e79 01be 8c85 66bd da53 323e
000000c0: d36b 90bd e95d 1fbd 24a4 cabe c1d6 63bd
000000d0: dfc8 89be 5b47 fcbe 7151 e83d 8cf4 173f
000000e0: f327 e6be eb44 783e 5ebc 823e 463c cf3e
000000f0: b4e3 3e3d 0736 19bf 75d8 4bbd a7e0 00bf
00000100: 1fbb 263e b3af 23bd 186c 28bd 1698 ffbc
00000110: f823 11be 7df7 0c3e 05ca 4d3e c707 b0bf
00000120: ab1a aebd 030f af3d 81de d7bd 5b93 29bc
00000130: 864f 2b3e d082 88be ef07 e4bc dfc5 90be
00000140: c34d fdbe 05c2 1b3e 6eb7 02be c507 d1bd
00000150: 1c1b 1fbf d32a a33e dd59 4fbe 2275 b93e
00000160: 372c 473d 1022 283e af38 84be 5ad2 293e
00000170: ce05 60bf 0137 233d 0fa1 8cbe 2453 593d
00000180: 2704 49be 2173 d1bd b74f 37bf d05e 1cbe
00000190: 2333 1e3e 5bde 30be 7ffe 31be afb1 f9bd
000001a0: 2f72 f03d 2fd8 ebbd dae5 1fbc d5d6 5f3e
000001b0: 51c5 3e3d f55d 42be 66e2 11bf 32c2 1dbf
000001c0: f44d 1e3e 86d1 45be 3271 5eba 65ce 263d
000001d0: b901 e6bd 5d4b a73e ba60 74be 0767 1e3e
000001e0: 7b14 f03d 7b5b 2f3b 1733 ff3c eae6 05be
000001f0: 00b8 8bbd 016a e43e deb8 dfbe 1c03 bc3d
00000200: b27b 303e 6b5b 46bd 4479 22bd 8076 2a3c
00000210: 1e55 ad3c 2158 d73d b524 673d 2d53 d6ba
00000220: daa1 a2bc e83f c7be cb35 7fbd 03c1 94be
00000230: c12d 013f 2a0a 23bf 7630 1b3d 3ea1 8fbd
00000240: 9950 a9be cee1 e8bc 3586 9cbe 5f11 d73d
00000250: d0a6 df3d 7355 66bf 3d70 bebe c4f0 a83e
00000260: b4f1 ed3d f94e 48be 3a9d 8f3e 4403 b0bd
00000270: e184 0b3e 6811 383e 2211 b33e e27c 83be
00000280: 56e9 6f3e 5272 153e 907b e73e 9951 c4be
00000290: fd4e 3e3f 913d 2abd 09f6 9ebe 8704 cf3e
000002a0: 0930 f33e 9de8 b93e 323c 9ebe 6998 9cbc
000002b0: ee3e ed3d 6413 c63d 7d33 2c3f 79f1 4bbf
000002c0: a767 4c3d 39c4 01bf dfa3 11bf b78a d33d
000002d0: 05f9 033e 4bb9 f4bd 9b2b 6cbe a4db babd
000002e0: f0e4 bfbe 687c d33d 6680 34be e1f7 903d
000002f0: 2d9d 103f 4074 dc3e b2e2 003e 6880 dd3e
00000300: 485a 8abd 9c44 b9be fd04 1f3d 504d 813d
00000310: faf2 303e 42bb edbc dd36 a53d f06f b4be
00000320: 8400 443e e3b5 4ebf 9a2e bc3e f87f bebf
00000330: 96cd ce3e c0ca 4dbc 6838 523d a58f 65bd
00000340: 59c1 8eba d492 ae3e 5e83 853d ade2 33be
00000350: eb21 813d 7766 5a3d 369a 8e3f 64e6 49bd
00000360: 299e 383f 1cd7 b13e 7a0a 95be 0b89 193f
00000370: 804d d53e 3222 7e3d cb01 fc3e 98e5 9a3e
00000380: 2377 99be bb22 15be b88e 5a3d 02fe 19be
00000390: 33c5 263d d2f1 8e3f 7a41 81be 6d41 fa3d
000003a0: af36 b9bd b0b0 98bd 8484 d8be a9c1 793d
000003b0: f05c 9c3d 1ad8 9e3e 62d2 8fbe 76f2 b9bd
000003c0: f5c4 dabf 70fc febe fa50 ebbc c40b da3e
000003d0: cc2d bf3d 3d80 36be 8279 95bd 2a9c 303e
000003e0: 5112 e5be da82 183e 4df9 9cbe d41c 5b3e
000003f0: 349c 87be f1a5 4bbe 3d24 ccbe 6a72 293e

network_body._body_endoder.seq_layers.2.bias f4 [256]
-0.10275421 -0.11835523 0.06598621 0.078250006 -0.045437887 -0.03151995 -0.037031222 0.0016909832
-0.014785249 -0.16187598 -0.04158006 0.08333904 0.0083635 -0.008130418 0.03501166 -0.168753
-0.084459975 -0.015221598 -0.08565728 -0.10798837 -0.052398026 -0.021761142 -0.10149731 0.04996772
-0.0725549 -0.07350624 -0.15550856 -0.09156679 -0.012714315 -0.08891463 -0.0006142464 0.015114253
0.02042918 -0.19669373 -0.103478014 -0.09818419 -0.09800144 -0.13532989 -0.11190225 -0.088959664
-0.114569895 -0.067562036 -0.083462104 -0.082238294 -0.1144703 -0.07698384 -0.056016963 -0.16492113
-0.07913493 -0.10218497 0.07327071 -0.022902835 0.028464792 -0.10910257 -0.013292298 -0.0011149057
-0.0637228 -0.05356938 -0.108155854 -0.07576056 -0.21201701 -0.047295026 -0.09393052 -0.110376045
0.0029161987 -0.06697615 -0.16255796 -0.19607632 -0.1091485 0.023927303 0.0056376276 0.024497246
-0.18427885 -0.063840225 -0.10157022 -0.106761366 -0.0130662825 -0.14168526 -0.06701392 -0.061808605
-0.01798647 -0.10954886 -0.052958146 -0.04087673 -0.08142893 -0.03791062 0.03406424 -0.072023
-0.04183 -0.13594179 0.032665297 -0.030308621 -0.200888 -0.0062281834 -0.030476386 0.0153538175
0.120802715 0.04896961 -0.09392445 -0.14100252 -0.036871407 -0.061298247 -0.13766164 0.0059746
-0.016518189 -0.02627433 -0.052400477 -0.09957306 -0.07504161 -0.22449876 -0.026968468 0.014386352
-0.07845846 -0.058549143 -0.073273815 -0.19609171 0.011603137 -0.006366855 -0.1871097 0.019406501
-0.031134056 -0.011028369 -0.0020172328 -0.05415416 -0.09936294 0.072995506 -0.13486607 -0.1511536
-0.09278935 -0.05398141 -0.10276515 -0.025971329 0.013750494 -0.047791235 -0.07249361 -0.08946493
-0.057706587 -0.17199458 -0.016421491 0.038540967 -0.06583268 -0.07658761 0.028423231 0.01907422
0.0561114 -0.064881966 -0.10580372 -0.07822786 -0.23673506 -0.10333862 -0.15658519 -0.0724767
0.017801072 -0.068172716 -0.037692476 -0.043329976 -0.11834974 -0.13495389 -0.063742466 -0.10381613
-0.04389285 -0.08607057 -0.042319775 -0.17546497 -0.06497642 0.01800622 -0.010659794 -0.04814796
0.045824036 -0.11193974 -0.12689584 -0.038778834 0.012119034 -0.008346161 -0.010462539 -0.114709616
-0.041945904 -0.11684389 0.08863342 0.04130677 0.0062932717 -0.037238814 -0.096047975 -0.058018498
-0.047027145 0.055169463 -0.026517661 -0.21730433 -0.04394605 -0.08587817 -0.08186329 -0.12530047
-0.029184684 -0.055149436 -0.019450046 -0.08980657 -0.0742397 0.11903361 -0.019365404 -0.13450456
-0.026480641 -0.01017784 -0.0002478558 -0.021077514 -0.15917334 -0.052018054 -0.08550908 -0.10048278
-0.033280183 -0.16068111 -0.14535691 -0.19172396 -0.10045889 -0.089093894 -0.038237423 -0.04116124
-0.05580996 -0.06025424 0.018179711 -0.037825048 -0.028755138 -0.08989011 -0.08810841 -0.110136844
-0.06645986 -0.06367808 -0.1188701 -0.1297089 -0.040937576 0.06429079 -0.008921746 -0.056326967
-0.1578144 -0.16881122 0.031007994 -0.074322306 -0.04725722 -0.043993264 -0.09416357 0.010109883
-0.046405345 -0.09572761 -0.09903399 0.037023135 -0.06971041 -0.059888788 0.0203134 -0.08732849
-0.0749092 -0.057107434 -0.050532263 -0.11320154 -0.11950323 -0.14877883 -0.028360384 -0.03235762
00000000: cd70 d2bd 3a64 f2bd c723 873d 8a41 a03d
00000010: 141d 3abd 101b 01bd 0dae 17bd fba3 dd3a
00000020: d43d 72bc d1c2 25be da4f 2abd a9ad aa3d
00000030: 1007 093c 7235 05bc 6368 0f3d 96cd 2cbe
00000040: 5af9 acbd 0264 79bc 166d afbd 0229 ddbd
00000050: 509f 56bd 6c44 b2bc d2dd cfbd f4aa 4c3d
00000060: aa97 94bd 718a 96bd a33d 1fbe 5f87 bbbd
00000070: b44f 50bc e018 b6bd 6105 21ba c6a1 773c
00000080: 185b a73c 156a 49be 48ec d3bd cb14 c9bd
00000090: fbb4 c8bd eb93 0abe 022d e5bd 7c30 b6bd
000000a0: 9fa3 eabd f75d 8abd 2eee aabd 8d6c a8bd
000000b0: 686f eabd b4a9 9dbd 0b72 65bd 16e1 28be
000000c0: 7f11 a2bd 5b46 d1bd f40e 963d ba9e bbbc
000000d0: ff2e e93c 2b71 dfbd f0c7 59bc 0722 92ba
000000e0: 1981 82bd 916b 5bbd d180 ddbd 5a28 9bbd
000000f0: fd1a 59be 6eb8 41bd a55e c0bd d60c e2bd
00000100: b21d 3f3b cb2a 89bd 9875 26be 3bc8 48be
00000110: 4089 dfbd 3103 c43c d9bb b83b 73ae c83c
00000120: 98b3 3cbe aabe 82bd 0c04 d0bd b4a5 dabd
00000130: f613 56bc f115 11be 983e 89bd 052b 7dbd
00000140: 5d58 93bc 275b e0bd a4ea 58bd 5c6e 27bd
00000150: 36c4 a6bd 2b48 1bbd f286 0b3d cb80 93bd
00000160: ef55 2bbd 5334 0bbe 0ccc 053d c949 f8bc
00000170: 95b5 4dbe ca15 ccbb 9da9 f9bc 948e 7b3c
00000180: 6a67 f73d 5c94 483d 765b c0bd f762 10be
00000190: 7906 17bd df13 7bbd 2cf7 0cbe 94c6 c33b
000001a0: 2751 87bc 443d d7bc e2a1 56bd f6ec cbbd
000001b0: 6aaf 99bd 01e3 65be faec dcbc bcb4 6b3c
000001c0: d4ae a0bd 3ad1 6fbd 9510 96bd 44cc 48be
000001d0: 151b 3e3c 0da1 d0bb af99 3fbe 62fa 9e3c
000001e0: d90c ffbc 55b0 34bc 8d33 04bb c1d0 5dbd
000001f0: cc7e cbbd ab7e 953d 551a 0abe 02c8 1abe
00000200: 5808 bebd 9c1b 5dbd 8976 d2bd d3c1 d4bc
00000210: c149 613c bec0 43bd 8877 94bd 6439 b7bd
00000220: be5d 6cbd 591f 30be 5d86 86bc 22dd 1d3d
00000230: 49d3 86bd f7d9 9cbd d6d7 e83c 8a41 9c3c
00000240: 11d5 653d d6e0 84bd 9faf d8bd ee35 a0bd
00000250: ad6a 72be 33a3 d3bd de57 20be aa6e 94bd
00000260: 8ed3 913c 239e 8bbd 6d63 1abd c67a 31bd
00000270: 5961 f2bd 5a31 0abe 698b 82bd 8d9d d4bd
00000280: fdc8 33bd c445 b0bd 8057 2dbd 17ad 33be
00000290: 5b12 85bd c881 933c 6ba6 2ebc cc36 45bd
000002a0: fcb1 3b3d aa40 e5bd fcf0 01be 8ed6 1ebd
000002b0: ea8e 463c 56be 08bc 126b 2bbc e0ec eabd
000002c0: 78cf 2bbd d94b efbd 7085 b53d 4a31 293d
000002d0: ca37 ce3b ba87 18bd cdb4 c4bd cea4 6dbd
000002e0: 899f 40bd 60f9 613d 913b d9bc 0785 5ebe
000002f0: c600 34bd e5e0 afbd f1a7 a7bd c44e 00be
00000300: b814 efbc 60e4 61bd b455 9fbc 82ec b7bd
00000310: fc0a 98bd e5c7 f33d 32a4 9ebc 90bb 09be
00000320: eeed d8bc f4c0 26bc a4f2 81b9 c0aa acbc
00000330: 56fe 22be e210 55bd 621f afbd eac9 cdbd
00000340: cd50 08bd 9789 24be 71d8 14be 4953 44be
00000350: 64bd cdbd dc76 b6bd d89e 1cbd b098 28bd
00000360: fc98 64bd 26cd 76bd 9eed 943c 70ee 1abd
00000370: e58f ebbc 4e18 b8bd 2f72 b4bd 6d8f e1bd
00000380: 1b1c 88bd a769 82bd 2b72 f3bd 69d2 04be
00000390: 29ae 27bd e4aa 833d 842c 12bc 1bb7 66bd
000003a0: 199a 21be d9dc 2cbe 7a04 fe3c 4b36 98bd
000003b0: c990 41bd 4832 34bd d4d8 c0bd eca3 253c
000003c0: 8813 3ebd d60c c4bd 55d2 cabd 92a5 173d
000003d0: 55c4 8ebd f24d 75bd 4a68 a63c 48d9 b2bd
000003e0: ff69 99bd 7ce9 69bd ebfa 4ebd 36d6 e7bd
000003f0: 1cbe f4bd 7a59 18be 0954 e8bc 6c89 04bd

network_body._body_endoder.seq_layers.2.weight f4 [256, 256]
0.05595045 -0.06671967 -0.001761483 -0.14963211 -0.08208522 -0.0096346 0.041677263 0.10073302
0.054579847 0.048633855 -0.07587459 0.13019356 -0.11222522 -0.10662854 -0.10012538 0.001253206
-0.07727103 0.0077011967 0.11314957 -0.04241321 0.11730868 0.06122403 -0.011815768 -0.09350679
0.0055525573 -0.050148103 -0.17921136 -0.09204703 -0.042825725 -0.042370636 -0.16501392 0.039063297
-0.075072356 -0.045894843 -0.0893144 -0.13030612 0.061307475 -0.009156199 -0.009513351 0.0019269342
-0.08061431 0.13270336 -0.029878715 -0.033545125 -0.18413013 0.082654975 -0.090659894 -0.054618962
-0.036806043 0.04088768 -0.062024925 -0.09409287 0.048035264 0.03951768 -0.03943409 -0.032491162
0.060231626 -0.05504496 0.008149197 0.05140907 -0.040274724 -0.1445115 0.034911595 0.036645588
-0.06211199 0.037721273 0.0107296705 0.10362601 0.0120832715 -0.13134362 -0.14566296 -0.014972006
-0.09800698 0.05944507 0.076832935 -0.031285893 -0.034492 4.2619e-05 -0.12125908 -0.09785705
0.006091171 -0.0663836 -0.08488021 -0.03721972 -0.18089272 0.07673625 -0.102288105 -0.058500264
-0.011058409 -0.027728477 0.054178216 -0.12967119 0.006014253 -0.1956955 0.10559327 -0.118235715
-0.030164536 -0.07280359 0.086431116 0.0810275 -0.0100801345 0.008013128 0.011856138 -0.06007521
0.0800626 -0.019415325 0.0011570157 -0.066950575 0.065487966 -0.08949163 -0.1785784 -0.003077296
0.10753441 0.019403154 0.050141197 0.04155806 0.047166977 -0.1959249 -0.14009386 -0.1945756
-0.04289335 -0.04298864 0.11124796 0.04205638 -0.012881594 -0.14502205 -0.07866072 -0.15473185
0.02534127 0.061102573 0.0076735774 -0.15737224 -0.15562686 -0.00940614 -0.13113263 -0.063468225
0.057257794 0.04304374 -0.15162028 -0.16549294 -0.12657316 -0.0033844209 0.03979144 -0.104026616
-0.13088086 0.0134281535 -0.10298339 0.12063815 -0.12292232 0.024005568 -0.12748648 0.06337727
-0.1289015 -0.12792514 -0.21183318 0.008457418 -0.039360337 0.036652774 0.0031534736 0.0059959064
-0.15082371 -0.012671022 -0.09456226 0.11145612 -0.11577836 -0.14673774 -0.08986293 -0.04814364
-0.016882759 -0.107703656 0.021086026 -0.060614623 -0.038879428 -0.072092675 -0.031407926 0.020902498
-0.02975529 -0.077029906 -0.025540827 -0.13924395 -0.1019192 0.15227585 -0.05189414 -0.05524979
-0.17915162 -0.04684724 -0.0024354064 -0.008168023 -0.0033747728 0.07404934 -0.09533737 0.03025104
-0.0263259 -0.1270121 0.0656463 0.09984229 0.08863395 -0.054665864 0.0013088043 -0.14458686
-0.0025642999 -0.062046457 -0.14695805 -0.1680219 -0.16119201 0.19150066 -0.054374117 -0.06732447
0.079776525 -0.11355507 -0.015569268 -0.27689877 -0.015713768 -0.012427488 0.011005091 -0.2765948
-0.0066966494 -0.021893533 0.085360095 -0.109903485 0.09153135 -0.15252009 -0.06802204 -0.1662563
0.05662943 -0.05581214 -0.008702226 0.08497724 -0.14018908 -0.18355961 -0.07718641 0.00884677
-0.014193113 0.0027048818 -0.053587 0.041632205 -0.20940897 -0.1081586 -0.14268471 -0.32333395
-0.101158895 0.08447041 -0.07188788 -0.123628885 0.06711001 -0.031000677 0.044571668 0.008016651
0.06835122 0.027525583 -0.06523911 -0.13281526 -0.12625025 -0.004665222 -0.19056384 -0.060275093
00000000: 4d2c 653d 53a4 88bd 90e1 e6ba 2939 19be
00000010: 4c1c a8bd 71da 1dbc c7b5 2a3d 1d4d ce3d
00000020: 1e8f 5f3d 4b34 473d 2364 9bbd 7651 053e
00000030: 56d6 e5bd 1060 dabd 890e cdbd 9e42 a43a
00000040: 4640 9ebd 525a fc3b f6ba e73d 79b9 2dbd
00000050: 893f f03d 0cc6 7a3d ec96 41bc 7d80 bfbd
00000060: 3af2 b53b 1968 4dbd 2f83 37be 2783 bcbd
00000070: 076a 2fbd d58c 2dbd 69f9 28be d600 203d
00000080: 89bf 99bd 3bfc 3bbd 78ea b6bd f86e 05be
00000090: 8c1d 7b3d e203 16bc e3dd 1bbc 2f91 fc3a
000000a0: 1e19 a5bd 64e3 073e 35c4 f4bc 9d66 09bd
000000b0: 9c8c 3cbe 0347 a93d e5ab b9bd 22b8 5fbd
000000c0: efc1 16bd d779 273d d90d 7ebd c3b3 c0bd
000000d0: a0c0 443d 4add 213d a485 21bd 7415 05bd
000000e0: 70b5 763d d376 61bd 3684 053c 5192 523d
000000f0: 1cf7 24bd d3fa 13be 76ff 0e3d af19 163d
00000100: 2469 7ebd 9f81 1a3d 80cb 2f3c e039 d43d
00000110: eaf8 453c f17e 06be ac28 15be 254d 75bc
00000120: e2b7 c8bd ac7c 733d 965a 9d3d a325 00bd
00000130: 7c47 0dbd cec1 3238 ae56 f8bd 4769 c8bd
00000140: 7298 c73b 20f4 87bd add5 adbd b573 18bd
00000150: f13b 39be e527 9d3d 6d7c d1bd f99d 6fbd
00000160: 542e 35bc d526 e3bc fae9 5d3d 86c8 04be
00000170: 3613 c53b 6764 48be 4941 d83d 9125 f2bd
00000180: 9e1b f7bc 0c1a 95bd cc02 b13d bff1 a53d
00000190: 2627 25bc 7f49 033c 3f40 423c 6c11 76bd
000001a0: dcf7 a33d e30c 9fbc 01a7 973a 621d 89bd
000001b0: 8e1e 863d 6347 b7bd 42dd 36be 76ac 49bb
000001c0: 003b dc3d 5df3 9e3c db60 4d3d c938 2a3d
000001d0: 2932 413d 89a0 48be c474 0fbe d33e 47be
000001e0: f0b0 2fbd db14 30bd f8d5 e33d 5043 2c3d
000001f0: 520d 53bc a980 14be df18 a1bd 0772 1ebe
00000200: 7f98 cf3c b146 7a3d a272 fb3b 3026 21be
00000210: a65c 1fbe 361c 1abc a247 06be a1fb 81bd
00000220: 2687 6a3d a24e 303d 5942 1bbe fb76 29be
00000230: 659c 01be 29cd 5dbb 59fc 223d e80b d5bd
00000240: a205 06be c201 5c3c f5e8 d2bd 2211 f73d
00000250: b3be fbbd 53a7 c43c d18b 02be f1cb 813d
00000260: c1fe 03be cffe 02be ccea 58be fb90 0a3c
00000270: 4e38 21bd 3821 163d 82aa 4e3b 4f79 c43b
00000280: 8871 1abe 1e9a 4fbc dca9 c1bd 1b43 e43d
00000290: 341d edbd 6b42 16be 0e0a b8bd 4432 45bd
000002a0: b64d 8abc bc93 dcbd 9abc ac3c 0a47 78bd
000002b0: 0940 1fbd 53a5 93bd 99a5 00bd b73b ab3c
000002c0: 5ec1 f3bc dbc1 9dbd ff3a d1bc f795 0ebe
000002d0: 03bb d0bd 33ee 1b3e f38e 54bd 9b4d 62bd
000002e0: 8673 37be e4e2 3fbd 579b 1fbb 2cd3 05bc
000002f0: 4b2b 5dbb 2ea7 973d 3d40 c3bd 07d1 f73c
00000300: 6aa9 d7bc 760f 02be 9171 863d 1d7a cc3d
00000310: b785 b53d 50e9 5fbd 2f8c ab3a 940e 14be
00000320: d00d 28bb 6d24 7ebd 2c7c 16be ef0d 2cbe
00000330: 850f 25be c018 443e 65b7 5ebd 69e1 89bd
00000340: e061 a33d 8f8f e8bd 3e16 7fbc adc5 8dbe
00000350: 29ba 80bc aa9c 4bbc b24e 343c d59d 8dbe
00000360: 916f dbbb 115a b3bc 46d1 ae3d 1415 e1bd
00000370: ca74 bb3d 3a2e 1cbe 244f 8bbd 173f 2abe
00000380: 43f4 673d 459b 64bd c893 0ebc 8c08 ae3d
00000390: ba8d 0fbe 0df7 3bbe e913 9ebd 0bf2 103c
000003a0: 3b8a 68bc 6344 313b 0b7e 5bbd 8886 2a3d
000003b0: 4e6f 56be 4282 ddbd f11b 12be 078c a5be
000003c0: 652c cfbd d3fe ac3d f439 93bd 2431 fdbd
000003d0: f970 893d 22f5 fdbc c890 363d 4558 033c
000003e0: b9fb 8b3d 557d e13c 159c 85bd b900 08be
000003f0: bf47 01be b8de 98bb 2b23 43be 04e3 76bd

network_body._body_endoder.seq_layers.4.bias f4 [256]
-0.010103202 0.049382936 -0.04650665 -0.0761184 -0.054169655 -0.088458106 -0.07872075 -0.09122212
-0.095901646 -0.20527682 -0.05514036 0.03669188 -0.16130684 0.018313482 -0.03984949 -0.08383729
-0.026240299 -0.050705653 -0.063104816 -0.035504688 -0.068282895 -0.14385967 -0.22472446 -0.09683237
-0.07024285 -0.21820249 -0.020595176 -0.192405 -0.15809187 -0.08597047 -0.09854999 -0.044765435
-0.019173354 -0.010634636 0.0068650814 -0.057065073 -0.09395125 -0.11775239 -0.07846841 -0.034628876
-0.06620816 -0.12364327 -0.06152123 -0.19733031 -0.05665465 -0.1667117 -0.11172826 -0.09148193
-0.08404488 -0.022067914 -0.04782988 -0.017562427 -0.028107569 0.024514142 0.101112396 -0.21068427
-0.04831106 0.034305148 -0.15884784 0.046639487 -0.015698602 -0.09628909 0.03296536 -0.10883803
0.06719288 -0.13664974 -0.15582418 -0.09057604 -0.19149926 0.051936027 -0.17025258 -0.01386342
-0.14493088 -0.29294983 -0.08452613 -0.19612174 -0.017429534 -0.082612716 -0.08993363 -0.09864267
-0.044134907 -0.074856065 -0.09104987 -0.14866869 -0.09779688 -0.15696056 0.075343914 -0.08777798
-0.082950726 -0.0919847 -0.10061387 0.017975919 0.00020794832 -0.03695034 -0.21254557 0.028857343
-0.16811046 -0.0075454065 0.04820864 -0.01687561 -0.16948935 -0.056626424 -0.11390369 -0.031470794
-0.20192623 -0.0037655493 -0.19149151 -0.15297271 -0.07193079 -0.23949075 -0.09659881 0.0019500123
-0.024757037 -0.09254152 -0.048081204 -0.03286906 -0.021820579 -0.035322305 -0.16225561 0.052590117
-0.06845913 -0.048682094 -0.12584364 -0.07876583 -0.011587124 0.0036981453 0.0250541 -0.02733081
0.005559128 -0.030656654 -0.029225543 -0.14092425 -0.10125828 -0.16206235 -0.10066761 -0.21467343
-0.08904507 -0.027239906 -0.21093215 -0.03893629 -0.10177255 -0.12440957 -0.07685088 -0.11806923
-0.04468346 -0.17299403 0.072938144 0.00567562 -0.032510087 0.023674533 -0.033280693 -0.08284089
-0.004781925 -0.08993354 -0.015014278 -0.1392635 -0.24433237 -0.054707896 -0.23393099 -0.009325608
-0.074093826 0.049657617 -0.24596322 0.034131806 -0.16771969 -0.121563144 -0.019946491 -0.012985264
-0.072721675 -0.09312424 -0.07790626 -0.17489974 0.06527257 0.028656632 -0.1454922 -0.14864771
-0.06407034 -0.20782715 0.015595831 -0.06875684 -0.08759496 0.00018343654 -0.06893868 -0.14115018
-0.13135338 -0.06340318 -0.063400395 0.023092663 -0.17018458 -0.21379104 -0.16770233 -0.05972465
0.023770358 -0.14912876 0.065309465 -0.07680316 -0.14377987 0.021741232 -0.12905988 -0.1196531
-0.06701765 -0.057280697 -0.1810704 -0.003637414 -0.10785483 -0.12781884 -0.0582678 -0.019770121
-0.027770417 0.066640794 -0.16546562 0.016603682 -0.10336055 -0.05454485 -0.10607522 -0.07704803
-0.03050669 -0.070787385 -0.22886711 -0.009032417 -0.0045014853 -0.0131165655 -0.07691166 -0.20374937
-0.048155457 0.009030559 -0.00533835 -0.0266748 -0.15969367 -0.05924242 -0.10608227 -0.06409859
-0.030188724 -0.06342991 -0.0042058453 -0.013404471 -0.014327512 0.00082678633 -0.09563863 -0.04596247
-0.10942676 -0.0625626 0.0010964227 -0.018164238 -0.040009037 -0.14383723 0.054379195 -0.15991473
-0.032612234 -0.05487037 0.06976434 -0.28827488 -0.11228385 0.009768504 -0.0010399411 -0.07302751
00000000: e787 25bc c345 4a3d c27d 3ebd f7e3 9bbd
00000010: 00e1 5dbd 8629 b5bd 5838 a1bd aad2 babd
00000020: 1568 c4bd 1634 52be dcda 61bd 3a4a 163d
00000030: 9f2d 25be 2806 963c 3839 23bd e3b2 abbd
00000040: e5f5 d6bc bbb0 4fbd 193d 81bd 5d6d 11bd
00000050: e7d7 8bbd f34f 13be 2b1e 66be 0d50 c6bd
00000060: 7cdb 8fbd 7970 5fbe 37b7 a8bc d105 45be
00000070: d6e2 21be 4911 b0bd 94d4 c9bd f65b 37bd
00000080: 7011 9dbc e53c 2ebc 7af4 e03b 11bd 69bd
00000090: 8369 c0bd 2a28 f1bd 0cb4 a0bd 02d7 0dbd
000000a0: 2598 87bd af38 fdbd affd 7bbd f510 4abe
000000b0: b50e 68bd 79b6 2abe c9d1 e4bd e15a bbbd
000000c0: b91f acbd c5c7 b4bc 44e9 43bd 14df 8fbc
000000d0: d841 e6bc e2d1 c83c 0414 cf3d 9ebd 57be
000000e0: d1e1 45bd 8e83 0c3d 02a9 22be 0c09 3f3d
000000f0: 5b9a 80bc 3733 c5bd af06 073d 79e6 debd
00000100: 6c9c 893d e9ed 0bbe 6090 1fbe ee7f b9bd
00000110: 6218 44be dfba 543d b156 2ebe 6623 63bc
00000120: c368 14be 85fd 95be 091c adbd 23d4 48be
00000130: 62c8 8ebc db30 a9bd 1f2f b8bd 2b05 cabd
00000140: cec6 34bd 234e 99bd 5b78 babd 9b3c 18be
00000150: bb49 c8bd 45ba 20be e94d 9a3d f1c4 b3bd
00000160: 12e2 a9bd 7962 bcbd a50e cebd 3c42 933c
00000170: b40c 5a39 3d59 17bd 8ca5 59be 3c66 ec3c
00000180: 2625 2cbe 753f f7bb 6c76 453d b83e 8abc
00000190: 9e8e 2dbe 1cf1 67bd 5646 e9bd 85e7 00bd
000001a0: c0c5 4ebe 6fc7 76bb 5a16 44be e1a4 1cbe
000001b0: 7350 93bd 103d 75be 99d5 c5bd 8e97 ff3a
000001c0: 45cf cabc 6986 bdbd ccf0 44bd b5a1 06bd
000001d0: 12c1 b2bc 1fae 10bd 5626 26be bc68 573d
000001e0: 4d34 8cbd e066 47bd 28dd 00be fb4f a1bd
000001f0: ecd7 3dbc 955c 723b 423e cd3c dde4 dfbc
00000200: 5829 b63b aa23 fbbc 686a efbc 724e 10be
00000210: 8060 cfbd acf3 25be d22a cebd 5ad3 5bbe
00000220: 435d b6bd 3926 dfbc 99fe 57be a97b 1fbd
00000230: 206e d0bd 72ca febd ff63 9dbd 48ce f1bd
00000240: 0106 37bd 5925 31be 9860 953d 8dfa b93b
00000250: 4c29 05bd 18f1 c13c 5651 08bd 7ca8 a9bd
00000260: b2b1 9cbb 132f b8bd 72fe 75bc 179b 0ebe
00000270: 4432 7abe 6315 60bd 9b8b 6fbe 6fca 18bc
00000280: 81be 97bd c965 4b3d c8dd 7bbe cbcd 0b3d
00000290: b6be 2bbe 19f6 f8bd d366 a3bc 25c0 54bc
000002a0: 1aef 94bd ecb7 bebd 518d 9fbd eb18 33be
000002b0: a0ad 853d 50c1 ea3c e8fb 14be 1b37 18be
000002c0: 4f37 83bd a4d0 54be a885 7f3c 63d0 8cbd
000002d0: fd64 b3bd df58 4039 b92f 8dbd ac89 10be
000002e0: 8081 06be 87d9 81bd 11d8 81bd d32c bd3c
000002f0: de44 2ebe 0aec 5abe 29ba 2bbe d6a1 74bd
00000300: 0eba c23c 36b5 18be f8c0 853d fa4a 9dbd
00000310: 083b 13be ab1a b23c 4628 04be af0c f5bd
00000320: 8d40 89bd 2a9f 6abd 856a 39be ae61 6ebb
00000330: fee2 dcbd f1e2 02be 37aa 6ebd f3f4 a1bc
00000340: c97e e3bc f87a 883d d26f 29be 7204 883c
00000350: b2ae d3bd 6c6a 5fbd f73d d9bd 5ccb 9dbd
00000360: 2ae9 f9bc faf8 90bd 245c 6abe b4fc 13bc
00000370: 3281 93bb dde6 56bc dc83 9dbd ada3 50be
00000380: a83e 45bd e9f4 133c 53ed aebb 1c85 dabc
00000390: bd86 23be 2ea8 72bd a941 d9bd 1f46 83bd
000003a0: 584e f7bc 8ae7 81bd 30d1 89bb 6d9e 5bbc
000003b0: f1bd 6abc b1bc 583a 30de c3bd 2543 3cbd
000003c0: 231b e0bd d220 80bd d7b5 8f3a 2bcd 94bc
000003d0: 84e0 23bd 114a 13be b8bc 5e3d b0c0 23be
000003e0: 6894 05bd c1bf 60bd 9be0 8e3d c498 93be
000003f0: 13f5 e5bd 130c 203c a24e 88ba 728f 95bd

network_body._body_endoder.seq_layers.4.weight f4 [256, 256]
0.064177066 -0.05542542 -0.18886042 -0.05147147 0.039585773 0.17844477 -0.12754269 -0.09235048
-0.116899416 -0.14328524 0.020488786 -0.13063553 0.20277336 0.17607665 -0.004048611 0.1726466
0.041749198 -0.07313275 -0.061317917 0.15268415 0.011287658 0.015716655 -0.035183266 0.04516966
0.06349505 0.104914285 0.11539652 -0.01158167 -0.11688915 0.3966734 -0.0726319 -0.1231909
-0.0060307276 -0.04208465 0.009597929 0.0957502 0.14296873 0.035682775 0.03564562 0.15255047
0.10018106 -0.0006442029 0.03817556 -0.053829357 0.08891233 0.008132926 0.2159122 -0.04607182
0.08086833 -0.059577662 -0.06489526 -0.086887255 -0.3244662 -0.03432762 -0.13187885 -0.019596992
0.021711508 0.16957927 0.21947052 0.05358039 0.0767756 0.07412448 0.019006664 0.0017613013
-0.34678173 0.11273465 -0.040481247 0.06610705 0.05949503 0.04181466 -0.055727474 -0.038059045
0.14431642 -0.0979994 -0.31242675 0.053077694 0.0022613998 -0.04656789 0.1753296 -0.021101587
-0.04257147 0.028560946 0.003624152 -0.040931594 0.01201539 0.0045115147 -0.04714589 -0.0018032319
-0.08634484 0.040475436 -0.34069145 -0.04537583 0.23010938 -0.19962555 0.12776545 0.0153622795
-0.16199467 -0.067031555 0.0815885 -0.099441 0.091461636 0.12522699 -0.016944345 0.08743505
0.0708739 -0.13206474 0.0018584774 -0.029589776 0.0032419362 -0.08003404 -0.28256592 -0.09082201
0.014367118 0.024109041 0.15368702 -0.024158476 0.13064304 -0.0796731 0.25194186 -0.13004951
0.013480181 -0.11105938 -0.07190215 -0.04906181 -0.19157125 0.052036285 0.00331995 -0.05490326
0.0720668 -0.010593661 -0.061537128 -0.063655175 -0.045398142 0.120744005 0.059958793 0.1667
-0.0036139453 0.10288804 -0.15669087 -0.04191468 -0.02901635 -0.047056824 -0.027266433 0.13969663
-0.048061233 -0.07506266 0.10707671 -0.041394956 -0.07695273 0.11664759 0.0019090474 0.0583483
0.091580294 -0.048445202 -0.011725339 0.04916476 0.019817812 -0.12227144 -0.08123084 0.23470303
0.13476571 0.027695967 -0.0026901301 0.05461771 0.1807612 0.12202965 0.19886918 -0.08760014
0.0052059875 0.054587167 -0.020334587 0.052233513 -0.10454864 0.034619257 0.12160381 0.11702255
-0.16288495 0.010197237 -0.06634736 -0.061772283 0.17359619 0.041735772 0.121579126 0.024045374
-0.008914064 -0.09212497 -0.0035763064 0.06402225 -0.03024932 -0.06595583 0.12192462 0.037395116
0.111852735 -0.11418339 -0.038391244 0.037506256 -0.057623208 -0.09389074 -0.112098664 0.17353095
0.049188968 0.001110665 0.23847134 0.17286599 0.20483072 0.019078312 -0.036152624 -0.07067066
-0.029457707 0.15961948 -0.014551678 -0.13219084 -0.20687857 0.057490032 0.19994417 0.14440532
0.035373818 -0.005303509 -0.08248932 0.22716501 0.065923214 -0.015019767 0.012510965 0.055725634
0.15846832 -0.037848886 -0.040876437 0.19610356 0.001782388 -0.036122784 0.09392748 -0.023157736
-0.07598975 -0.030584972 -0.2593242 0.057085052 0.025846308 0.22006918 -0.009321759 -0.15553898
-0.053364456 -0.047248587 0.009256887 -0.16614442 -0.060594965 -0.1136625 -0.05826863 -0.031435926
-0.014076477 -0.01924831 -0.15312612 0.14268109 0.06091005 -0.054802943 0.027582139 0.0107651325
00000000: 446f 833d c405 63bd a064 41be c0d3 52bd
00000010: b124 223d 3aba 363e 8d9a 02be 4022 bdbd
00000020: f668 efbd 5eb9 12be 19d8 a73c 52c5 05be
00000030: d2a3 4f3e 704d 343e 36aa 84bb 45ca 303e
00000040: 3501 2b3d a0c6 95bd 7f28 7bbd 3c59 1c3e
00000050: deef 383c 37c0 803c 541c 10bd d203 393d
00000060: b109 823d 4ddd d63d 0355 ec3d 0bc1 3dbc
00000070: 9463 efbd c718 cb3e 09c0 94bd 834b fcbd
00000080: 699d c5bb f460 2cbd a240 1d3c ae18 c43d
00000090: 6566 123e 1a28 123d 2401 123d 3136 1c3e
000000a0: ba2b cd3d badf 28ba fa5d 1c3d 2c7c 5cbd
000000b0: ab17 b63d f73f 053c 1618 5d3e ceb5 3cbd
000000c0: 4c9e a53d b507 74bd cee7 84bd f2f1 b1bd
000000d0: 6f20 a6be 1e9b 0cbd 400b 07be df89 a0bc
000000e0: 55dc b13c 30a6 2d3e e1bc 603e 1c77 5b3d
000000f0: 873c 9d3d 93ce 973d ddb3 9b3c 77db e63a
00000100: 608d b1be 6de1 e63d aacf 25bd 2263 873d
00000110: 10b1 733d d945 2b3d 7e42 64bd cde3 1bbd
00000120: afc7 133e e9b3 c8bd 66f6 9fbe ff67 593d
00000130: fe33 143b f9bd 3ebd 9a89 333e 3cdd acbc
00000140: 6c5f 2ebd a5f8 e93c 2e83 6d3b e3a7 27bd
00000150: 33dc 443c 54d5 933b 0c1c 41bd 6c5a ecba
00000160: 90d5 b0bd 92c9 253d 1c6f aebe 02dc 39bd
00000170: cba1 6b3e a46a 4cbe f2d4 023e 12b2 7b3c
00000180: eee1 25be d747 89bd df17 a73d b9a7 cbbd
00000190: 3d50 bb3d 813b 003e dece 8abc 2611 b33d
000001a0: 5626 913d fb3b 07be 2798 f33a 4266 f2bc
000001b0: aa76 543b e3e8 a3bd 7bac 90be e400 babd
000001c0: 0f64 6b3c 5380 c53c 2160 1d3e ffe7 c5bc
000001d0: 4ac7 053e a62b a3bd 86fe 803e b32b 05be
000001e0: fadb 5c3c 1a73 e3bd 6f41 93bd 09f5 48bd
000001f0: 412b 44be 0024 553d 8593 593b 3ee2 60bd
00000200: c297 933d 0991 2dbc 5b0e 7cbd a55d 82bd
00000210: 67f3 39bd a248 f73d 5a97 753d 68b3 2a3e
00000220: f1d7 6cbb f7b6 d23d 9273 20be baae 2bbd
00000230: b2b3 edbc a8be 40bd db5d dfbc a20c 0f3e
00000240: dbdb 44bd 74ba 99bd 094b db3d c28d 29bd
00000250: 6599 9dbd efe4 ee3d 0039 fa3a a1fe 6e3d
00000260: 738e bb3d 7a6e 46bd a31b 40bc fd60 493d
00000270: f758 a23c 7369 fabd 5b5c a6bd fe55 703e
00000280: 0600 0a3e a7e2 e23c e54c 30bb d2b6 5f3d
00000290: 7719 393e aeea f93d 5da4 4b3e b467 b3bd
000002a0: fd96 aa3b cb96 5f3d b894 a6bc cff2 553d
000002b0: 991d d6bd eccc 0d3d 6b0b f93d 85a9 ef3d
000002c0: 50cb 26be 5012 273c 20e1 87bd ef04 7dbd
000002d0: 33c3 313e 21f3 2a3d 7afe f83d cefa c43c
000002e0: 4b0c 12bc 04ac bcbd 7760 6abb 191e 833d
000002f0: 6ccd f7bc da13 87bd 9db3 f93d 9f2b 193d
00000300: 0c13 e53d fbd8 e9bd 2340 1dbd 29a0 193d
00000310: 5006 6cbd ca49 c0bd fc93 e5bd 19b2 313e
00000320: 5f7a 493d bc93 913a d531 743e c803 313e
00000330: 25bf 513e 1f4a 9c3c c614 14bd c7bb 90bd
00000340: 4a51 f1bc 4a73 233e 296a 6ebc 095d 07be
00000350: fad7 53be ab7a 6b3d 2abe 4c3e fdde 133e
00000360: 23e4 103d 0fc9 adbb 29f0 a8bd f29d 683e
00000370: c002 873d 7815 76bc cafa 4c3c 9040 643d
00000380: 8545 223e 6f07 1bbd 0d6e 27bd 5fcf 483e
00000390: 049f e93a 7cf5 13bd 0d5d c03d 4bb5 bdbc
000003a0: 84a0 9bbd 568d fabc 24c6 84be 04d2 693d
000003b0: a3bb d33c d159 613e 4bba 18bc 9c45 1fbe
000003c0: b094 5abd bc87 41bd 33aa 173c c321 2abe
000003d0: 6d32 78bd e3c7 e8bd 16ab 6ebd f5c2 00bd
000003e0: 06a1 66bc a2ae 9dbc 18cd 1cbe fe1a 123e
000003f0: d17c 793d 0d79 60bd f0f3 e13c 3d60 303c
