results/Drone3/Drone/Drone-24484631.onnx (onnx, 810629 bytes, 11 tensors)

action_model._continuous_distribution.log_sigma f4 [1, 4]
-1.7027885 -1.6407973 -1.5632199 -1.550814
00000000: f9f4 d9bf a505 d2bf 9717 c8bf 1381 c6bf

action_model._continuous_distribution.mu.bias f4 [4]
0.11362877 0.036530726 0.12512937 0.024129799
00000000: 33b6 e83d 3ea1 153d ea21 003e dbab c53c

action_model._continuous_distribution.mu.weight f4 [4, 256]
-0.01765831 -0.051445194 -0.027701227 -0.046363212 -0.0915727 -0.011523632 -0.028409727 -0.03999275
-0.0074658855 0.06123576 -0.05247395 -0.058425095 0.055028994 -0.05310081 -0.05871633 -0.043420974
-0.04473438 0.026107341 0.050711427 0.018016847 0.0072528776 0.01616903 -0.036837548 -0.048454657
0.009593479 0.0020299535 -0.06582699 -0.031259995 0.022888504 -0.0008694848 -0.03892494 -0.014241406
0.031111604 0.08997812 -0.07598914 -0.041398082 0.0329401 0.0022590153 0.04108556 -0.046774317
-0.011259308 -0.07014333 0.0076621957 -0.03166188 -0.09798449 -0.07342028 0.04960566 -0.12206345
0.039777957 0.005178795 -0.09857257 -0.0022558814 0.0359281 -0.0026560952 -0.017851938 -0.10487245
-0.05122088 -0.06743738 -0.114961006 0.0054165297 0.03337594 -0.037308987 0.060573418 0.04676978
-0.017943796 -0.03600064 -0.016796844 -0.023064114 0.047403824 0.034325328 0.0081397025 -0.02059977
-0.03356802 -0.0019128011 0.045283407 -0.022338774 0.04846607 -0.0982652 -0.03322661 0.016991418
0.028369665 -0.03409816 -0.030904392 -0.03918751 -0.004956655 0.016356703 0.03172714 0.058345404
-0.06776565 -0.05305378 0.015553941 -0.017574368 0.044823576 -0.002986297 -0.025413785 -0.12430749
-0.040109646 0.04909756 -0.0071366047 -0.010857247 0.007677129 -0.07116488 0.023922386 -0.06913095
0.0021801165 0.04042243 0.011547268 0.020992678 -0.079641104 0.012072879 -0.049285818 -0.05221172
0.07112986 -0.03125856 -0.04914618 0.015289997 0.030061318 -0.051494766 -0.07158535 -0.02895305
-0.03970364 -0.025649529 -0.0019126901 -0.040853977 -0.0462 -0.0054693483 -0.020797996 -0.05935751
-0.13418563 -0.018066421 -0.057574384 0.0033434872 -0.090234436 0.042740192 -0.08411077 -0.066988036
0.021806998 -0.031044181 0.07047125 -0.10876669 -0.08428184 -0.0077913916 -0.0050438116 0.06749455
0.0061655883 -0.030073613 -0.07208303 -0.0033868556 -0.08524512 -0.038799614 -0.007248495 0.023342207
-0.022339748 0.015220029 -0.017694626 0.018996576 -0.034684785 0.011306362 0.0501411 -0.05815877
-0.12706938 0.0581332 -0.0013137737 -0.04625281 -0.021344652 -0.005889619 0.050541412 0.03051186
-0.06802374 -0.05931144 -0.0092287455 -0.040542275 0.09520756 0.019560672 0.006005272 0.103758916
-0.03718105 0.0051733004 -0.016670637 -0.0010620233 0.01901528 0.052406 0.023879176 -0.03879363
0.010490769 -0.03643366 0.022663595 -0.040027063 -0.0334706 0.027948253 0.020579064 -0.03819242
-0.07478219 0.04278782 0.026289267 -0.09386403 -0.05363307 0.051003814 -0.075000696 0.013182868
-0.08654776 -0.003156368 0.037321694 -0.056562167 -0.026971424 -0.032308593 -0.033693593 -0.011025307
0.007454155 -0.04883735 -0.07774133 0.0011546995 -0.008669104 -0.036708113 -0.053310808 -0.035663605
-0.042826623 0.061757714 0.0018379821 0.029810343 -0.024811586 -0.0045340676 -0.01595207 -0.010297341
-0.07781762 -0.0291808 -0.07857526 -0.03783607 -0.017770004 -0.024046868 0.04236536 0.090601705
-0.06284398 -0.0013638778 0.00982898 0.008281795 -0.032239012 0.048090048 -0.034793798 -0.026829222
0.053403493 0.015765928 -0.023006618 0.039750762 0.028075738 0.01497533 0.0053220596 -0.01804571
-0.005013915 -0.010865769 -0.048475035 0.0075772656 -0.01319978 -0.04391362 -0.056141183 -0.0892666
00000000: 29a8 90bc 32b8 52bd afed e2bc 5ae7 3dbd
00000010: 788a bbbd 9ecd 3cbc 84bb e8bc 70cf 23bd
00000020: 63a4 f4bb 59d2 7a3d edee 56bd 274f 6fbd
00000030: 1566 613d 3c80 59bd 8980 70bd 31da 31bd
00000040: 663b 37bd 10df d53c c9b6 4f3d 1198 933c
00000050: 8ca9 ed3b ea74 843c f8e2 16bd 6478 46bd
00000060: f82d 1d3c f808 053b 4dd0 86bd 7b0a 00bd
00000070: ac80 bb3c 23ee 63ba c26f 1fbd c954 69bc
00000080: c3dd fe3c 7346 b83d 32a0 9bbd 0991 29bd
00000090: 33ec 063d fd0b 143b 5549 283d 6d96 3fbd
000000a0: f678 38bc 4ea7 8fbd 2813 fb3b e3af 01bd
000000b0: 18ac c8bd 5f5d 96bd 4e2f 4b3d 67fc f9bd
000000c0: 36ee 223d e2b2 a93b 6ae0 c9bd 69d7 13bb
000000d0: 5829 133d e211 2ebb 3a3e 92bc 5ec7 d6bd
000000e0: fccc 51bd 9c1c 8abd ad70 ebbd 257d b13b
000000f0: 36b5 083d 4fd1 18bd d51b 783d ab91 3f3d
00000100: defe 92bc 6875 13bd 8999 89bc f4f0 bcbc
00000110: 832a 423d b798 0c3d 635c 053c d9c0 a8bc
00000120: 9f7e 09bd f4b6 faba 187b 393d ceff b6bc
00000130: 5c84 463d 443f c9bd a018 08bd 9631 8b3c
00000140: 8067 e83c 83aa 0bbd 352b fdbc 1583 20bd
00000150: 706b a2bb 7efe 853c 51f4 013d 97fb 6e3d
00000160: b8c8 8abd ec4e 59bd f5d5 7e3c 1ff8 8fbc
00000170: ed98 373d c0b5 43bb 9230 d0bc ed94 febd
00000180: 034a 24bd 861a 493d 2eda e9bb 98e2 31bc
00000190: 6d90 fb3b e5be 91bd e1f8 c33c 8794 8dbd
000001a0: 49e0 0e3b fd91 253d c130 3d3c d6f8 ab3c
000001b0: e01a a3bd 53cd 453c eddf 49bd f5db 55bd
000001c0: 88ac 913d fa08 00bd 814d 49bd e582 7a3c
000001d0: 2743 f63c 2dec 52bd 579b 92bd f22e edbc
000001e0: 49a0 22bd f61e d2bc 3bb3 faba 8056 27bd
000001f0: 363c 3dbd 3838 b3bb 8f60 aabc dc20 73bd
00000200: f567 09be 0800 94bc 1ed3 6bbd 681e 5b3b
00000210: d5cc b8bd 5710 2f3d 4442 acbd 0631 89bd
00000220: 97a4 b23c 5e50 febc 3b53 903d 12c1 debd
00000230: f59b acbd ee4e ffbb 8f46 a5bb 953a 8a3d
00000240: b408 ca3b f05c f6bc 45a0 93bd 02f6 5dbb
00000250: fe94 aebd 58ec 1ebd c884 edbb 2838 bf3c
00000260: d901 b7bc 6e5d 793c 52f4 90bc b59e 9b3c
00000270: a211 0ebd 523e 393c c160 4d3d e437 6ebd
00000280: 7a1e 02be 141d 6e3d ee32 acba 9673 3dbd
00000290: fbda aebc b4fd c0bb 8304 4f3d 02f4 f93c
000002a0: 0850 8bbd 8df0 72bd 2a34 17bc a80f 26bd
000002b0: 2efc c23d b43d a03c dfc7 c43b 8e7f d43d
000002c0: 284b 18bd ca84 a93b dc90 88bc 9733 8bba
000002d0: efc5 9b3c ada7 563d 439e c33c 12e6 1ebd
000002e0: 79e1 2b3c 763b 15bd 01a9 b93c 6bf3 23bd
000002f0: 7818 09bd bcf3 e43c 6d95 a83c a86f 1cbd
00000300: 6827 99bd 4842 2f3d 975c d73c c93b c0bd
00000310: 5aae 5bbd 60e9 503d f799 99bd f5fc 573c
00000320: f43f b1bd 11db 4ebb a2de 183d bbad 67bd
00000330: 2df3 dcbc 0456 04bd 4b02 0abd 7da3 34bc
00000340: fc41 f43b ac09 48bd d936 9fbd 4959 973a
00000350: dc08 0ebc 3f5b 16bd 6f5c 5abd 0014 12bd
00000360: f86a 2fbd a8f5 7c3d 72e8 f03a d234 f43c
00000370: ab41 cbbc 8492 94bb eaad 82bc 2eb6 28bc
00000380: d85e 9fbd 930c efbc 11ec a0bd fff9 1abd
00000390: 6692 91bc f0fd c4bc 4d87 2d3d 638d b93d
000003a0: 58b4 80bd 25c4 b2ba bb09 213c 5eb0 073c
000003b0: 0e0d 04bd 12fa 443d f183 0ebd f5c8 dbbc
000003c0: 9fbd 5a3d 8c27 813c 6078 bcbc b2d1 223d
000003d0: 17ff e53c 165b 753c ac64 ae3b 99d4 93bc
000003e0: c44b a4bb 5706 32bc c28d 46bd b64a f83b
000003f0: e443 58bc c5de 33bd 4cf4 65bd 68d1 b6bd

network_body._body_endoder.seq_layers.0.bias f4 [256]
0.1312869 -0.13472785 0.1442562 -0.039102443 -0.239912 -0.1096301 -0.11294423 -0.13231684
-0.21272893 -0.04180932 -0.105947934 -0.14918815 -0.010263252 -0.17021063 -0.054538097 0.02894855
0.10537871 -0.13824731 -0.037456054 -0.22149296 -0.02253313 -0.114074305 -0.08911015 -0.18518405
-0.05853385 -0.05573025 -0.13355665 -0.07027137 -0.08967281 -0.34370065 -0.0031083762 -0.071766555
-0.071217515 -0.12733299 -0.1315055 -0.150141 -0.15676685 -0.17952341 -0.17133176 -0.16683662
-0.037970826 -0.19088314 -0.07990623 0.008932057 -0.15324385 -0.13479465 0.019784972 -0.13694522
0.09136117 -0.055323664 -0.17149878 -0.2128429 -0.096366204 0.026168218 -0.05237679 -0.2537084
-0.18292308 -0.18176283 -0.029229812 -0.12758747 -0.26461893 -0.12655002 -0.17016318 -0.16060057
-0.11552138 -0.1300024 -0.16196635 0.015218244 -0.14286801 -0.09128686 -0.04646875 -0.12108243
-0.08949348 -0.00994181 -0.17447138 -0.029946996 -0.12180012 -0.06222235 -0.15995605 -0.22930296
-0.10970687 0.041297093 -0.06241393 0.11479424 -0.0834148 -0.2640766 -0.2200249 -0.15284142
-0.18453953 -0.118236616 -0.16409071 -0.10634702 0.15636964 0.063131586 0.03809088 -0.36283252
-0.17356034 -0.1552514 -0.090744235 0.056603156 -0.017653247 -0.17871316 -0.1366473 -0.20930387
-0.0012376223 -0.1419271 -0.11519561 0.15266813 -0.013544404 -0.023877675 -0.05295005 -0.10959721
-0.05951813 0.07838187 0.054975253 -0.22731939 -0.18477768 -0.05166714 -0.28911012 -0.22739728
-0.06981193 -0.13762043 -0.1624417 -0.12579636 -0.094570614 -0.018260526 -0.111614645 -0.10515662
0.056983754 -0.06398933 -0.05028177 -0.037131652 0.010687223 -0.1130001 0.07838436 -0.11162786
0.09100464 -0.21254136 -0.13550222 -0.003987066 -0.12056763 0.11175618 -0.046472233 -0.15905318
-0.09387718 -0.01255068 -0.20388769 -0.25523567 -0.040266685 -0.09737971 0.0025738257 0.0036079756
0.034831334 0.037525058 -0.011568466 0.054857433 -0.0015181482 -0.13607006 -0.09864515 -0.051894065
0.053943276 0.1607214 -0.04546408 0.019119216 -0.06897273 -0.019687204 -0.06117494 -0.014214444
-0.06010584 0.0015514011 -0.14780842 -0.11003516 -0.02960193 -0.061104774 0.015779058 -0.05863553
-0.11521484 -0.22280626 -0.00081877306 -0.23197635 -0.241704 -0.019824378 -0.041599557 -0.11348682
-0.224786 0.049890097 -0.13303912 -0.036419477 -0.19814679 0.15354551 -0.14489228 -0.0012479775
-0.079242565 0.023612816 -0.07614425 -0.05339467 -0.16233917 -0.019425146 -0.1196654 -0.035070196
0.021913487 0.06394178 -0.13331369 -0.16948108 -0.08296002 -0.140271 -0.0823925 -0.17582865
-0.0873916 -0.07247037 0.017447283 0.0010786458 -0.14259246 -0.020590054 -0.13807663 -0.17755052
-0.009977025 0.043799903 -0.13340865 -0.14042807 -0.300347 -0.07758489 0.095207855 -0.005413455
-0.11217068 -0.11368261 -0.07376812 -0.18460158 -0.14619507 -0.033607002 0.13888395 0.03676704
-0.16242023 -0.12742469 -0.06807406 -0.044118065 0.01793935 -0.11125001 -0.13584103 0.088293605
-0.091915615 0.1185937 0.0081618875 -0.10054125 -0.054198936 -0.16935024 -0.15576124 -0.071905576
-0.0717484 -0.13526781 -0.16552413 -0.021272957 0.03229843 -0.14715183 0.03573825 -0.124023914
00000000: 1370 063e 19f6 09be e6b7 133e e229 20bd
00000010: 7eab 75be bf85 e0bd 4e4f e7bd 117e 07be
00000020: 9dd5 59be 4040 2bbd 3bfb d8bd c7c4 18be
00000030: 3327 28bc b24b 2ebe 5763 5fbd 8225 ed3c
00000040: cbd0 d73d b490 0dbe 856b 19bd 0dcf 62be
00000050: 6697 b8bc ca9f e9bd 627f b6bd e3a0 3dbe
00000060: 31c1 6fbd 6745 64bd 13c3 08be 70ea 8fbd
00000070: 61a6 b7bd 88f9 afbe e6b5 4bbb 58fa 92bd
00000080: 7dda 91bd 9463 02be 61a9 06be 90be 19be
00000090: 7d87 20be fcd4 37be 9871 2fbe 38d7 2abe
000000a0: 4c87 1bbd df76 43be e1a5 a3bd c357 123c
000000b0: f5eb 1cbe 9c07 0abe 1814 a23c 5e3b 0cbe
000000c0: 911b bb3d 119b 62bd 609d 2fbe 7df3 59be
000000d0: a55b c5bd bb5e d63c 0c89 56bd 11e6 81be
000000e0: 3050 3bbe 0920 3abe 5c73 efbc 4aa6 02be
000000f0: 227c 87be 5496 01be 423f 2ebe 7a74 24be
00000100: 7996 ecbd 591f 05be 82da 25be f155 793c
00000110: fe4b 12be 9bf4 babd 0456 3ebd 11fa f7bd
00000120: 5c48 b7bd f9e2 22bc a0a8 32be 6753 f5bc
00000130: 5772 f9bd dddc 7ebd 85cb 23be 65ce 6abe
00000140: ffad e0bd 2427 293d c0a5 7fbd 3e19 eb3d
00000150: 61d5 aabd 0c35 87be 354e 61be 7682 1cbe
00000160: eef7 3cbe 0a26 f2bd 6507 28be 77cc d9bd
00000170: 5d1f 203e 224b 813d 2f05 1c3d 2fc5 b9be
00000180: cdb9 31be 39fa 1ebe 1dd8 b9bd b6d8 673d
00000190: 8b9d 90bc 9500 37be 45ed 0bbe c153 56be
000001a0: b737 a2ba 5655 11be adeb ebbd 0955 1c3e
000001b0: 59e9 5dbc 1d9b c3bc 27e2 58bd 8174 e0bd
000001c0: 48c9 73bd ad86 a03d bb2d 613d 6ac6 68be
000001d0: 5c36 3dbe eca0 53bd 3e06 94be d5da 68be
000001e0: 8ff9 8ebd 5fec 0cbe 1e57 26be c3d0 00be
000001f0: 3dae c1bd 1997 95bc 3896 e4bd 5b5c d7bd
00000200: cc67 693d d60c 83bd 42f4 4dbd 5c17 18bd
00000210: 7619 2f3c 996c e7bd fb87 a03d 269d e4bd
00000220: a460 ba3d 71a4 59be 18c1 0abe efa5 82bb
00000230: 29ec f6bd 6de0 e43d ab59 3ebd d6de 22be
00000240: ae42 c0bd 5ea1 4dbc efc7 50be 40ae 82be
00000250: aeee 24bd 036f c7bd a1ad 283b c973 6c3b
00000260: 4dab 0e3d e0b3 193d aa89 3dbc 30b2 603d
00000270: 9afc c6ba f355 0bbe 7806 cabd df8e 54bd
00000280: a0f3 5c3d 2794 243e 8b38 3abd e79f 9c3c
00000290: 9341 8dbd 0f47 a1bc 9392 7abd b3e3 68bc
000002a0: 8b31 76bd 6258 cb3a 175b 17be 1d5a e1bd
000002b0: bf7f f2bc 0049 7abd 1543 813c cf2b 70bd
000002c0: c2f5 ebbd 5327 64be eea2 56ba 358b 6dbe
000002d0: 4181 77be bc66 a2bc 4c64 2abd c76b e8bd
000002e0: 4d2e 66be 8f59 4c3d 683b 08be 972c 15bd
000002f0: fee6 4abe 093b 1d3e a45e 14be 2d93 a3ba
00000300: ed49 a2bd aa6f c13c 84f1 9bbd 5fb4 5abd
00000310: 3d3c 26be 7c21 9fbc 2213 f5bd c4a5 0fbd
00000320: ea83 b33c e8f3 823d 6283 08be 738c 2dbe
00000330: f1e6 a9bd 33a3 0fbe 66bd a8bd 6d0c 34be
00000340: 5efa b2bd 586b 94bd 9bed 8e3c 5961 8d3a
00000350: c203 12be 79ac a8bc f663 0dbe cecf 35be
00000360: ad76 23bc 8767 333d 479c 08be 60cc 0fbe
00000370: 15c7 99be d4e4 9ebd 56fc c23d 5a63 b1bb
00000380: beb9 e5bd 6ed2 e8bd bd13 97bd 3208 3dbe
00000390: 29b4 15be 7fa7 09bd 9837 0e3e 0999 163d
000003a0: 7d51 26be 9e7b 02be 6a6a 8bbd 25b5 34bd
000003b0: 8bf5 923c 0cd7 e3bd e919 0bbe 47d3 b43d
000003c0: 413e bcbd 41e1 f23d 70b9 053c 92e8 cdbd
000003d0: b4ff 5dbd 266a 2dbe e07f 1fbe 3b43 93bd
000003e0: d3f0 92bd a583 0abe 287f 29be a044 aebc
000003f0: 5c4b 043d f8ae 16be 4562 123d 4000 febd

network_body._body_endoder.seq_layers.0.weight f4 [256, 13]
0.24865794 -0.20709288 -0.18729761 -0.065691754 0.17570917 0.22707076 0.95871866 -0.22142437
-1.2943867 1.0471658 -0.21949686 -0.08720793 0.5687359 0.13980648 0.191588 0.10738848
-0.18255597 -0.056504935 -0.02236849 0.33897424 -0.08517924 -0.3450925 0.020532405 0.15085709
-0.022025527 0.623983 0.0071107745 0.11799358 -0.41498598 -0.054018054 -0.026575848 0.10154281
2.4479089 0.372468 0.16037872 0.61873424 -0.104942605 0.5997834 0.075134784 0.21986462
-0.5687837 -0.18106821 -0.040660188 0.081341445 -0.12990057 -0.106242605 -0.054336604 0.1730867
-0.070962355 -0.04025817 -0.39318615 -0.05175103 -0.28483626 -0.49232 0.116383746 0.60609597
-0.4502866 0.24282452 0.25344968 0.399202 0.057781212 -0.59210867 -0.047993902 -0.48818424
0.16863383 -0.028350336 -0.047553685 -0.017036624 -0.12987573 0.13581142 0.20247625 -1.3471527
-0.09487815 0.07536885 -0.108270556 -0.013259912 0.16878006 -0.27402925 -0.018110285 -0.28503913
-0.49513292 0.16037075 -0.13598783 -0.0993223 -0.60050863 0.32729003 -0.19947094 0.35562286
0.03864377 0.16022892 -0.25476947 0.16475902 -0.8758024 0.060323674 -0.2693659 0.05970466
-0.20167604 -0.08052315 -0.7133228 -0.15785946 0.16503651 -0.17175308 -0.17602243 -0.11949156
0.14039345 -0.104868874 0.010856408 0.2217269 0.053609677 -0.1810839 -0.56219053 -0.633805
0.16637206 -0.1984437 -0.024283228 0.037358776 -0.12848751 0.33425096 -0.23960261 0.16123846
0.1312696 0.002545131 0.013633333 -0.11249494 -0.0737283 0.433795 -0.42882416 0.08557964
0.17467122 -0.04629341 -0.018421136 0.005208988 -0.0011017217 0.1071765 0.048693288 -0.007633528
-0.015871497 -0.38145018 -0.07264395 -0.29289287 0.5017286 -0.6416228 0.0419947 -0.055350743
-0.33753425 -0.032262344 -0.3011377 0.094706275 0.096389145 -0.89467263 -0.35896683 0.3027616
0.11211114 -0.1952432 0.2846648 -0.08908356 0.13852555 0.18120545 0.33325553 -0.26248327
0.23961732 0.14512527 0.44443345 -0.38672557 0.7157642 -0.044555575 -0.3089034 0.39258993
0.48318285 0.35709777 -0.30286843 -0.024840456 0.11235937 0.09662387 0.6689968 -0.7876552
0.053690013 -0.4875826 -0.5676765 0.110841006 0.13617532 -0.13769308 -0.24279204 -0.096981
-0.37625945 0.098854505 -0.17808966 0.06719879 0.54733855 0.44532922 0.14755313 0.4407156
-0.07789326 -0.35287678 0.032845 0.04861443 0.16033833 -0.014117198 0.08484568 -0.3595032
0.1883394 -0.7885999 0.35100716 -1.4440488 0.39380556 -0.003926905 0.04754301 -0.059345987
-0.00060576113 0.34250203 0.053959455 -0.17888129 0.06488093 0.054820366 1.0972171 -0.057237115
0.6937169 0.34423062 -0.28984687 0.59086746 0.42100155 0.07685812 0.48907068 0.29499018
-0.29599822 -0.14472553 0.050736994 -0.14660275 0.030973736 1.0986475 -0.25689393 0.12335404
-0.10051992 -0.054851845 -0.43111274 0.0662447 0.07721573 0.3085637 -0.28028154 -0.09239704
-1.6834954 -0.49333584 -0.013560633 0.42353266 0.07187065 -0.15948325 -0.067440264 0.16991964
-0.4435172 0.15548286 -0.30672488 0.21561533 -0.26651937 -0.19321303 -0.3970113 0.17044304
00000000: 30a0 7e3e 2810 54be f2ca 3fbe 6689 86bd
00000010: 1bed 333e 3d85 683e 966e 753f 12bd 62be
00000020: 77ae a5bf 8709 863f c9c3 60be 129a b2bd
00000030: ad98 113f 6e29 0f3e a52f 443e 7eee db3d
00000040: f4ef 3abe b871 67bd 203e b7bc 088e ad3e
00000050: 7472 aebd f7af b0be 9333 a83c 487a 1a3e
00000060: e16e b4bc 5abd 1f3f 8001 e93b 9ea6 f13d
00000070: 0b79 d4be 0942 5dbd 98b5 d9bc adf5 cf3d
00000080: 8aaa 1c40 20b4 be3e 523a 243e 5e65 1e3f
00000090: 26ec d6bd 688b 193f 44e0 993d 3124 613e
000000a0: cf9b 11bf f269 39be 4c8b 26bd 5896 a63d
000000b0: a804 05be b995 d9bd 0f90 5ebd a43d 313e
000000c0: b654 91bd c0e5 24bd b24f c9be e3f8 53bd
000000d0: 0fd6 91be 5e11 fcbe 9a5a ee3d 1b29 1b3f
000000e0: f78b e6be fea6 783e 28c4 813e 3464 cc3e
000000f0: feab 6c3d 6f94 17bf 4195 44bd 49f3 f9be
00000100: 59ae 2c3e f73e e8bc a7c7 42bd 6490 8bbc
00000110: 25fe 04be 2612 0b3e ef55 4f3e 806f acbf
00000120: 7a4f c2bd fc5a 9a3d f4bc ddbd 1a40 59bc
00000130: aed4 2c3e 904d 8cbe 055c 94bc a6f0 91be
00000140: 1082 fdbe 3b38 243e 6540 0bbe 7d69 cbbd
00000150: efba 19bf 8f92 a73e 1c42 4cbe 3314 b63e
00000160: ee48 1e3d 0d13 243e 2571 82be 97b6 283e
00000170: 9634 60bf f515 773d 54ea 89be e08c 743d
00000180: 2a84 4ebe 52e9 a4bd 539c 36bf e9a5 21be
00000190: 55ff 283e 0ae0 2fbe 393f 34be feb7 f4bd
000001a0: 4dc3 0f3e 7ec5 d6bd 13df 313c 600c 633e
000001b0: d295 5b3d 0f6e 39be b8eb 0fbf 0b41 22bf
000001c0: 705d 2a3e d334 4bbe 9fed c6bc 8405 193d
000001d0: 3b92 03be f122 ab3e 635a 75be b21b 253e
000001e0: 8a6b 063e 36cc 263b 585e 5f3c bf63 e6bd
000001f0: ddfe 96bd 611a de3e d78e dbbe 6144 af3d
00000200: 03dd 323e 299e 3dbd ece7 96bc 29b0 aa3b
00000210: a567 90ba 5a7f db3d 9d72 473d ad22 fabb
00000220: f104 82bc 704d c3be 5ac6 94bd 0ef6 95be
00000230: 4971 003f 6441 24bf a202 2c3d 76b7 62bd
00000240: 4ad1 acbe 8525 04bd b82e 9abe 5df5 c13d
00000250: ac67 c53d 4409 65bf 80ca b7be 9203 9b3e
00000260: 869a e53d d5ed 47be 96bf 913e 7171 b6bd
00000270: a4d9 0d3e ec8d 393e 78a0 aa3e 3564 86be
00000280: 3e5e 753e b89b 143e c88c e33e e500 c6be
00000290: 533c 373f e87f 36bd 9628 9ebe 8c01 c93e
000002a0: be63 f73e 85d5 b63e 9211 9bbe 367e cbbc
000002b0: ab1c e63d bce2 c53d 6043 2b3f c5a3 49bf
000002c0: 0fea 5b3d 6da4 f9be 3f53 11bf 9c00 e33d
000002d0: 8b71 0b3e 6aff 0cbe 7a9e 78be f99d c6bd
000002e0: 14a5 c0be 3b74 ca3d 235d 36be 859f 893d
000002f0: 611e 0c3f 3102 e43e 2b18 173e 7aa5 e13e
00000300: 8086 9fbd 44ac b4be 7b88 063d ed1f 473d
00000310: bb2f 243e d24b 67bc 92c3 ad3d ce10 b8be
00000320: 0bdc 403e afe1 49bf 36b7 b33e 97d6 b8bf
00000330: e2a0 c93e 44ad 80bb 76bc 423d c714 73bd
00000340: f1cb 1eba 6d5c af3e 9704 5d3d a82c 37be
00000350: 4be0 843d 528b 603d 9c71 8c3f 7771 6abd
00000360: 6e97 313f ff3e b03e cf66 94be 1743 173f
00000370: 848d d73e ca67 9d3d 7967 fa3e f408 973e
00000380: 148d 97be ee32 14be 98d1 4f3d 081f 16be
00000390: a2bc fd3c 7ba0 8c3f 9a87 83be 0ba1 fc3d
000003a0: 63dd cdbd 54ac 60bd cfba dcbe 4dab 873d
000003b0: 4823 9e3d 10fc 9d3e 1081 8fbe a93a bdbd
000003c0: c77c d7bf 8496 fcbe 6b2d 5ebc 46d9 d83e
000003d0: eb30 933d 944f 23be 1f1e 8abd 6aff 2d3e
000003e0: b014 e3be e636 1f3e 0b0b 9dbe 44ca 5c3e
000003f0: 3a75 88be a3d9 45be 1145 cbbe 9f88 2e3e

network_body._body_endoder.seq_layers.2.bias f4 [256]
-0.09543179 -0.109046705 0.06180333 0.08144572 -0.05905215 -0.03074756 -0.03467099 0.0014157484
-0.021540456 -0.15780035 -0.04046352 0.08045262 -0.0034149827 -0.019235952 0.023887727 -0.16607833
-0.055872638 -0.019232627 -0.08206576 -0.10224269 -0.047645207 -0.03147386 -0.0939833 0.04971507
-0.058706865 -0.0624952 -0.12845387 -0.102171995 0.0028271542 -0.06622161 -0.0046663596 0.014063506
0.017255893 -0.18372318 -0.082578786 -0.084207974 -0.07377721 -0.12454279 -0.11855565 -0.06375434
-0.111371815 -0.053686824 -0.066480055 -0.06531537 -0.12505761 -0.067028746 -0.04003046 -0.15444629
-0.0519772 -0.09792484 0.08223088 -0.025083393 0.025799453 -0.10361196 -0.021018254 0.0022620712
-0.059551984 -0.046309512 -0.080272146 -0.07284099 -0.16985022 -0.042773258 -0.079502165 -0.119764045
0.006974464 -0.056278788 -0.13879418 -0.16898593 -0.09281539 0.036012024 0.0045729345 0.013719362
-0.1473539 -0.057364758 -0.09999889 -0.11332084 -0.01657552 -0.12876251 -0.10167148 -0.07070408
-0.016655736 -0.10663657 -0.054041933 -0.053591117 -0.071007825 -0.026911955 0.044267863 -0.066179626
-0.0372998 -0.11444284 0.024471793 -0.015655678 -0.19579262 -0.01379885 -0.039516564 0.014925544
0.11226108 0.047136504 -0.079921894 -0.15189368 -0.0007081637 -0.05788151 -0.114214785 -0.0037174218
-0.02245716 -0.03750303 -0.05160831 -0.07933688 -0.06750771 -0.21084787 -0.0299719 0.0129347425
-0.08275806 -0.042969555 -0.063980795 -0.19378503 0.008434909 0.00012658355 -0.16239323 0.018760862
-0.027199538 -0.012519841 -0.0064081103 -0.04958758 -0.09411113 0.068517186 -0.13950716 -0.13419572
-0.08796481 -0.04749328 -0.10234967 -0.025810307 0.010723511 -0.0483697 -0.067004114 -0.08747154
-0.049619514 -0.15847848 -0.009742913 0.033783514 -0.07155946 -0.073707186 0.026360294 0.0137751745
0.05284451 -0.06499108 -0.1002805 -0.067330845 -0.20303157 -0.08377549 -0.15739977 -0.06374541
0.010327587 -0.068468265 -0.055966195 -0.038937505 -0.11136205 -0.10574915 -0.056395844 -0.08920499
-0.033724524 -0.075493366 -0.03207146 -0.18479465 -0.050416905 0.022285407 -0.0021974014 -0.022310806
0.043875534 -0.11392297 -0.099099316 -0.0422657 0.013648185 0.0019825064 -0.0021436918 -0.11879324
-0.046958346 -0.11957741 0.08849503 0.035363693 -0.00549473 -0.04462095 -0.08224014 -0.053801667
-0.027481323 0.06336289 -0.02016135 -0.19936103 -0.06179432 -0.07922797 -0.061978757 -0.113335826
-0.0349736 -0.040589817 -0.027779963 -0.09296681 -0.06539545 0.11990121 -0.021904487 -0.12821817
-0.024329957 -0.0065557086 -0.002949294 -0.010159735 -0.14931217 -0.0474032 -0.064982995 -0.084291555
-0.03830707 -0.14706327 -0.12754907 -0.18006904 -0.10791064 -0.08412575 -0.043766636 -0.05196083
-0.056858595 -0.06881631 0.009601945 -0.03552195 -0.029366877 -0.09234165 -0.07722774 -0.119731076
-0.06253746 -0.072254226 -0.10104382 -0.12375881 -0.03822707 0.057999168 -0.016893633 -0.044586077
-0.121802375 -0.14790018 0.0237191 -0.06279684 -0.05482127 -0.05744968 -0.082963556 0.01157627
-0.049052637 -0.08564646 -0.073280916 0.03030434 -0.0745219 -0.049147174 0.021958746 -0.07852062
-0.0765829 -0.06682119 -0.050009795 -0.091305666 -0.10656852 -0.122638665 -0.04576472 -0.045399748
00000000: be71 c3bd e153 dfbd 7d25 7d3d 03cd a63d
00000010: abe0 71bd 4fe2 fbbc 2b03 0ebd a290 b93a
00000020: 9c75 b0bc 6a96 21be 13bd 25bd 58c4 a43d
00000030: e7cd 5fbb b794 9dbc 32b0 c33c 7010 2abe
00000040: b5da 64bd be8d 9dbc 1812 a8bd 9e64 d1bd
00000050: 9f27 43bd bcea 00bd 517a c0bd 07a2 4b3d
00000060: 9c76 70bd f8fa 7fbd 6989 03be 8d3f d1bd
00000070: c747 393b 329f 87bd 43e8 98bb 9f6a 663c
00000080: 3b5c 8d3c ee21 3cbe 111f a9bd 3b75 acbd
00000090: 8218 97bd 4a10 ffbd 4ecd f2bd a391 82bd
000000a0: e816 e4bd b7e6 5bbd b226 88bd 11c4 85bd
000000b0: 1a0f 00be 5e46 89bd fbf6 23bd 2b27 1ebe
000000c0: 0be6 54bd d28c c8bd aa68 a83d b07b cdbc
000000d0: 6059 d33c 8232 d4bd 792e acbc 423f 143b
000000e0: c8ec 73bd 0baf 3dbd b965 a4bd a82d 95bd
000000f0: 37ed 2dbe 0333 2fbd 08d2 a2bd da46 f5bd
00000100: 0b8a e43b 9684 66bd 1020 0ebe a60a 2dbe
00000110: ff15 bebd 5881 133d 8ed8 953b 2dc7 603c
00000120: f1e3 16be 4ff7 6abd 38cc ccbd c214 e8bd
00000130: 63c9 87bc 52da 03be 2339 d0bd 4dcd 90bd
00000140: 9c71 88bc 4664 dabd 135b 5dbd 5c82 5bbd
00000150: 8d6c 91bd 7676 dcbc 3852 353d 2f89 87bd
00000160: adc7 18bd 0261 eabd 1279 c83c 5640 80bc
00000170: dc7d 48be 9214 62bc 1fdc 21bd 458a 743c
00000180: 23e9 e53d 3512 413d 17ae a3bd 048a 1bbe
00000190: 10a4 39ba 2a15 6dbd 71e9 e9bd fd9f 73bb
000001a0: 14f8 b7bc c79c 19bd 3c63 53bd 607b a2bd
000001b0: 7b41 8abd 81e8 57be a187 f5bc 3eec 533c
000001c0: 0f7d a9bd d800 30bd 5d08 83bd 956f 46be
000001d0: 9332 0a3c 83bb 0439 694a 26be 61b0 993c
000001e0: 91d1 debc 0520 4dbc 20fb d1bb 591c 4bbd
000001f0: 56bd c0bd bd52 8c3d f7da 0ebe 9a6a 09be
00000200: e526 b4bd 5088 42bd b49c d1bd 2370 d3bc
00000210: aab1 2f3c 4e1f 46bd 7439 89bd 4724 b3bd
00000220: d53d 4bbd 2f48 22be bda0 1fbc 9560 0a3d
00000230: c48d 92bd cbf3 96bd 8bf1 d73c 45b1 613c
00000240: 7c73 583d 0b1a 85bd dd5f cdbd c1e4 89bd
00000250: 82e7 4fbe 7c92 abbd 682d 21be f48c 82bd
00000260: 0a35 293c 1739 8cbd cf3c 65bd ef7c 1fbd
00000270: c911 e4bd 0393 d8bd 54ff 66bd 1bb1 b6bd
00000280: ba22 0abd 449c 9abd 5d5d 03bd cf3a 3dbe
00000290: f581 4ebd e38f b63c 4702 10bb 27c5 b6bc
000002a0: d5b6 333d 7250 e9bd 95f4 cabd cc1e 2dbd
000002b0: a39c 5f3c f0ec 013b 2e7d 0cbb df49 f3bd
000002c0: 6557 40bd 00e5 f4bd e23c b53d 85d9 103d
000002d0: 230d b4bb 75c4 36bd 856d a8bd 235f 5cbd
000002e0: 8320 e1bc 67c4 813d 6a29 a5bc 4c25 4cbe
000002f0: 0a1c 7dbd 4642 a2bd 70dd 7dbd 9d1c e8bd
00000300: 7a40 0fbd 8241 26bd ce92 e3bc 6265 bebd
00000310: 0dee 85bd c48e f53d 0a71 b3bc a04b 03be
00000320: 9e4f c7bc 45d1 d6bb f148 41bb 0475 26bc
00000330: 4ae5 18be dc29 42bd ce15 85bd 0da1 acbd
00000340: e0e7 1cbd c197 16be 399c 02be 0564 38be
00000350: 4100 ddbd 1f4a acbd a544 33bd e1d4 54bd
00000360: 8fe4 68bd 91ef 8cbd 7a51 1d3c 777f 11bd
00000370: ce92 f0bc 9e1d bdbd 9429 9ebd 9135 f5bd
00000380: a413 80bd 06fa 93bd 10f0 cebd 4275 fdbd
00000390: fd93 1cbd 8990 6d3d 8464 8abc e49f 36bd
000003a0: 8673 f9bd 2573 17be 8f4e c23c a19b 80bd
000003b0: 458c 60bd 5b50 6bbd cce8 a9bd 65aa 3d3c
000003c0: 6beb 48bd 6967 afbd 4e14 96bd cf40 f83c
000003d0: f09e 98bd 8c4e 49bd d4e2 b33c 6bcf a0bd
000003e0: 7fd7 9cbd 8cd9 88bd 12d7 4cbd 77fe babd
000003f0: 9940 dabd fb29 fbbd c973 3bbd 16f5 39bd

network_body._body_endoder.seq_layers.2.weight f4 [256, 256]
0.06680407 -0.07278799 -0.013083409 -0.1419305 -0.07334249 -0.033578817 0.027039692 0.08251168
0.04768574 0.01642828 -0.07212778 0.09872505 -0.109250225 -0.13251689 -0.08687129 -0.022062987
-0.07648996 -0.0024424153 0.14352855 -0.07403814 0.08489844 0.05164684 -0.022619251 -0.109344594
0.023278581 -0.054856054 -0.18114126 -0.12830564 -0.05686541 -0.02644269 -0.152968 0.021586047
-0.08946689 -0.031532925 -0.08983559 -0.14254852 0.0345022 -0.00793844 -0.015606429 -0.0115187215
-0.081666335 0.14666335 -0.020829601 -0.043607067 -0.17541605 0.054976467 -0.09589535 -0.05519296
-0.044529665 0.033552654 -0.059637655 -0.086455576 0.034696057 0.03663888 -0.043865267 -0.039849017
0.05536472 -0.07127587 -0.0017962998 0.043416884 -0.050776456 -0.17031 0.03458604 0.028067283
-0.0590203 0.03413163 -0.0148012005 0.08101647 0.015326408 -0.14278626 -0.14872491 -0.0067357314
-0.0715673 0.05003453 0.06487795 -0.03603911 -0.023431264 -0.0058282064 -0.11198338 -0.09402486
-0.014105176 -0.067179516 -0.069048904 -0.05897769 -0.17346565 0.050935872 -0.10562454 -0.042302664
-0.0025946938 -0.035396393 0.061798967 -0.11467931 0.022810845 -0.1929909 0.08857215 -0.109444335
-0.035120644 -0.065407276 0.08665747 0.06906104 -0.010689427 -0.010703709 0.02296792 -0.08558946
0.07344345 -0.0028763358 -0.00535265 -0.07362815 0.07549433 -0.09230453 -0.17249468 0.008440931
0.11213363 0.01245746 0.060760878 -0.0010392127 0.047425106 -0.18395278 -0.12981759 -0.15499844
-0.022576988 -0.029833784 0.10040706 0.008931607 -0.011033028 -0.11272823 -0.10582589 -0.15256688
0.042354602 0.04323657 0.016967528 -0.16380164 -0.13206293 0.006374331 -0.123852596 -0.059827473
0.029197188 0.027485508 -0.16710572 -0.14099206 -0.09790382 -0.017177496 0.026650531 -0.093516834
-0.11264574 0.029222356 -0.08968682 0.11333556 -0.10514289 0.0037102269 -0.107002504 0.05486637
-0.1314847 -0.13682908 -0.20591804 0.009067455 -0.045054197 0.015396017 -0.012547068 0.0074121743
-0.11494967 -0.010903505 -0.0727771 0.09705372 -0.12777235 -0.16769326 -0.0676979 -0.06692607
-0.037343975 -0.09467376 0.0132706985 -0.057681806 -0.036147453 -0.08989885 -0.025074234 0.00027478635
-0.05214304 -0.05937604 -0.013755285 -0.114171945 -0.10324981 0.16545804 -0.049687494 -0.082762994
-0.17763592 -0.04903291 -0.026362224 -0.025860153 0.00030420272 0.07040374 -0.077090435 0.030445505
-0.008146568 -0.14329174 0.051375534 0.08117046 0.09528882 -0.068058416 0.003951739 -0.15904412
0.021746194 -0.07392079 -0.15940171 -0.16469999 -0.14719334 0.16759041 -0.060427215 -0.053643942
0.06635226 -0.13780005 -0.03663532 -0.260762 -0.030280877 -0.009324391 0.014824991 -0.26396492
-0.010117063 -0.030541018 0.06384454 -0.123776525 0.070417896 -0.123407274 -0.057799276 -0.12947336
0.050927777 -0.045877002 -0.04004672 0.09216776 -0.1225431 -0.17556918 -0.09218928 -0.0021354565
-0.002481897 -0.0006161328 -0.045339543 0.039550398 -0.17600968 -0.09819262 -0.119276315 -0.30095953
-0.116594605 0.08298976 -0.071092986 -0.15072435 0.025379287 -0.0130292475 0.050156742 0.016152078
0.069248885 0.021371653 -0.06818772 -0.12306289 -0.14896107 -0.0067484668 -0.17265853 -0.039340425
00000000: 92d0 883d df11 95bd cb5b 56bc 3b56 11be
00000010: 9634 96bd f189 09bd 5882 dd3c e2fb a83d
00000020: 1f52 433d 9a94 863c bbb7 93bd 5c30 ca3d
00000030: 95be dfbd 82b2 07be 93e9 b1bd 70bd b4bc
00000040: c5a6 9cbd ee10 20bb 26f9 123e 4fa1 97bd
00000050: 3cdf ad3d a38b 533d 024c b9bc 0ff0 dfbd
00000060: b9b2 be3c beb0 60bd 187d 39be 8e62 03be
00000070: b4eb 68bd 579e d8bc a5a3 1cbe 39d5 b03c
00000080: 6b3a b7bd ab28 01bd b9fb b7bd 3df8 11be
00000090: 2e52 0d3d 3b10 02bc 1cb2 7fbc 05b9 3cbc
000000a0: ae40 a7bd eb2e 163e d7a2 aabc 539d 32bd
000000b0: 44a0 33be 012f 613d c864 c4bd 0312 62bd
000000c0: bd64 36bd 826e 093d 9d46 74bd 9f0f b1bd
000000d0: 741d 0e3d a612 163d 11ac 33bd b938 23bd
000000e0: 1ec6 623d 15f9 91bd d271 ebba e7d5 313d
000000f0: f9fa 4fbd bf65 2ebe 17aa 0d3d 5ced e53c
00000100: 45bf 71bd 9ccd 0b3d bc80 72bc f7eb a53d
00000110: 9d1b 7b3c 9036 12be 584b 18be 69b7 dcbb
00000120: e091 92bd 02f1 4c3d bbde 843d bf9d 13bd
00000130: ecf2 bfbc 8afa bebb 8b57 e5bd 1b90 c0bd
00000140: 6519 67bc 6a95 89bd 8369 8dbd 9792 71bd
00000150: fba0 31be 22a2 503d ae51 d8bd 8f45 2dbd
00000160: bd0b 2abb cffb 10bd ea20 7d3d fcdc eabd
00000170: cfdd ba3c 689f 45be 5165 b53d 5a24 e0bd
00000180: aada 0fbd 40f4 85bd 7979 b13d e06f 8d3d
00000190: b522 2fbc 9c5e 2fbc 3827 bc3c 8749 afbd
000001a0: 8569 963d e880 3cbb 4865 afbb 5bca 96bd
000001b0: c59c 9a3d 280a bdbd 72a2 30be d54b 0a3c
000001c0: 51a6 e53d 601a 4c3c 66e0 783d 3136 88ba
000001d0: d440 423d 1e5e 3cbe e7ee 04be e9b7 1ebe
000001e0: 60f3 b8bc fb65 f4bc 37a2 cd3d e055 123c
000001f0: e0c3 34bc 0fde e6bd 3fbb d8bd 7e3a 1cbe
00000200: 057c 2d3d d418 313d 7cff 8a3c 9ebb 27be
00000210: 813b 07be c4df d03b 6ea6 fdbd a70d 75bd
00000220: f12e ef3c 4a29 e13c c31d 2bbe 3960 10be
00000230: cc81 c8bd d2b7 8cbc 3752 da3c c185 bfbd
00000240: cfb2 e6bd b963 ef3c b9ad b7bd 791c e83d
00000250: 2855 d7bd 4727 733b 2124 dbbd 8fbb 603d
00000260: eda3 06be ec1c 0cbe 2edc 52be aa8f 143c
00000270: c08a 38bd 933f 7c3c 3892 4dbc d3e1 f23b
00000280: bc6a ebbd 9da4 32bc 290c 95bd 1ac4 c63d
00000290: c1d6 02be c8b7 2bbe 32a5 8abd 8910 89bd
000002a0: fff5 18bd 51e4 c1bd 586d 593c c243 6cbd
000002b0: 5a0f 14bd e31c b8bd 7b68 cdbc 3311 9039
000002c0: f193 55bd 4a34 73bd d95d 61bc fbd2 e9bd
000002d0: a374 d3bd d56d 293e 1d85 4bbd a57f a9bd
000002e0: 31e6 35be bcd6 48bd 97f5 d7bc acd8 d3bc
000002f0: 667d 9f39 d62f 903d 97e1 9dbd da68 f93c
00000300: 2f79 05bc 12bb 12be 276f 523d b33c a63d
00000310: c926 c33d 3662 8bbd 977d 813b 76dc 22be
00000320: 1325 b23c c863 97bd 343a 23be 1da7 28be
00000330: dab9 16be d29c 2b3e 8782 77bd c0b9 5bbd
00000340: b2e3 873d 751b 0dbe eb0e 16bd 9982 85be
00000350: 9a0f f8bc 55c5 18bc 85e4 723c 6926 87be
00000360: 0ac2 25bc 2831 fabc edc0 823d 8c7e fdbd
00000370: 4237 903d f4bc fcbd efbe 6cbd aa94 04be
00000380: a599 503d 86e9 3bbd 0808 24bd 73c2 bc3d
00000390: e0f7 fabd 68c8 33be bccd bcbd 04f3 0bbb
000003a0: 52a7 22bb f983 21ba f5b5 39bd 99ff 213d
000003b0: e23b 34be 3619 c9bd 2447 f4bd 5e17 9abe
000003c0: 27c9 eebd 89f6 a93d 3399 91bd 7c57 1abe
000003d0: 39e8 cf3c a078 55bc 2871 4d3d 5d51 843c
000003e0: 5cd2 8d3d 9b13 af3c 01a6 8bbd 6508 fcbd
000003f0: 4089 18be 3e22 ddbb 66cd 30be 6d23 21bd

network_body._body_endoder.seq_layers.4.bias f4 [256]
-0.022774883 0.0463755 -0.0463206 -0.09189987 -0.05518026 -0.077199176 -0.05474989 -0.06831693
-0.07912366 -0.18610804 -0.067086175 0.026567891 -0.16114195 0.018979868 -0.053654004 -0.082598604
-0.036940265 -0.048837733 -0.07641682 -0.0329845 -0.057759315 -0.13721342 -0.18877976 -0.090512305
-0.03625829 -0.2109145 -0.012581172 -0.16460349 -0.13250415 -0.08972723 -0.102285236 -0.037734497
-0.00949711 -0.0029275652 -0.0068009878 -0.032170195 -0.09008994 -0.09977761 -0.07816247 -0.052731127
-0.055503804 -0.11465728 -0.061994888 -0.1773856 -0.05484968 -0.15601887 -0.090918615 -0.09417817
-0.08600131 -0.010411086 -0.05762856 -0.015684409 -0.027632019 0.020553064 0.09681237 -0.19640216
-0.028680688 0.041951016 -0.14247458 0.043478325 -0.016014649 -0.10967501 0.031608865 -0.098516636
0.06479708 -0.13875449 -0.13463074 -0.08956987 -0.18202642 0.05123283 -0.1572892 -0.014013946
-0.13301554 -0.24989685 -0.08783065 -0.18646036 -0.021348609 -0.0792017 -0.07906155 -0.096743554
-0.039491817 -0.072530344 -0.093093514 -0.13891305 -0.08883538 -0.14454186 0.0942247 -0.07655378
-0.06273972 -0.07192849 -0.09839394 0.030092413 -0.00092092727 -0.04417942 -0.19637604 0.016444031
-0.15007707 -0.020051382 0.03727151 -0.012577015 -0.14565602 -0.060228653 -0.122691385 -0.030145979
-0.1897416 -0.0027779667 -0.18239874 -0.14186852 -0.078747116 -0.24191608 -0.070564784 -0.0061982633
-0.024379872 -0.096439935 -0.043294284 -0.033810347 -0.03297689 -0.040676653 -0.1410094 0.046589483
-0.06409588 -0.043640535 -0.14941232 -0.07446274 -0.013228105 -0.017323406 0.022221247 -0.013789359
-0.0062830467 -0.044432282 -0.036804028 -0.11219862 -0.10543252 -0.13413577 -0.10421612 -0.20563367
-0.09303087 -0.035195928 -0.18986252 -0.04042426 -0.08406326 -0.110774286 -0.07764576 -0.09658309
-0.054556113 -0.1510279 0.07836261 0.009855003 -0.04209533 0.021911966 -0.04696149 -0.07846921
-0.017506333 -0.08945326 -0.016120985 -0.1254536 -0.23667191 -0.04422544 -0.24768159 0.00020926328
-0.06192082 0.056926213 -0.24630138 0.036899965 -0.13459854 -0.12300915 -0.024990883 0.0021676559
-0.072743915 -0.07906827 -0.07183387 -0.15915059 0.066626914 0.0300653 -0.11377345 -0.11453237
-0.06835219 -0.19089939 0.012104872 -0.06819266 -0.10660165 0.0016638268 -0.0674892 -0.15724735
-0.121722475 -0.036351647 -0.045282785 0.0081515005 -0.17886898 -0.18092555 -0.1302185 -0.058087073
0.02099796 -0.11821804 0.06327477 -0.07227848 -0.15180455 0.021461437 -0.10868662 -0.09190608
-0.06397977 -0.05411212 -0.15334408 -0.01872997 -0.11177858 -0.12350395 -0.050247382 -0.027581794
-0.01788099 0.0654557 -0.14300705 0.016094107 -0.10148969 -0.055431616 -0.08906902 -0.08160728
-0.024024364 -0.076425746 -0.23226126 0.00045120213 -0.01826118 -0.005170375 -0.0761035 -0.19691826
-0.061300214 0.014987922 -0.011296844 -0.019389184 -0.13292432 -0.067010924 -0.093541965 -0.06693451
-0.026866091 -0.066494755 -0.0029467572 -0.0039617 0.00021602678 -0.003311772 -0.104157545 -0.033490907
-0.09914209 -0.052720238 0.01231345 -0.02078777 -0.040578857 -0.12180469 0.044743173 -0.1683389
-0.017964972 -0.052008696 0.06511229 -0.27099612 -0.104645275 0.015031772 -0.008699596 -0.06865104
00000000: 6492 babc 3cf4 3d3d abba 3dbd 0036 bcbd
00000010: b204 62bd 9a1a 9ebd 6c41 60bd bfe9 8bbd
00000020: 960b a2bd 1b93 3ebe 7a64 89bd e8a4 d93c
00000030: 6502 25be ab7b 9b3c 4dc4 5bbd 7529 a9bd
00000040: ad4e 17bd 130a 48bd 6c80 9cbd c11a 07bd
00000050: 0895 6cbd ad81 0cbe 7b4f 41be 845e b9bd
00000060: 9383 14bd f8f9 57be 4321 4ebc d18d 28be
00000070: 2baf 07be e9c2 b7bd ec7a d1bd 7d8f 1abd
00000080: c499 1bbc 65dc 3fbb d2da debb e5c4 03bd
00000090: 1381 b8bd 3458 ccbd a513 a0bd 98fc 57bd
000000a0: f557 63bd 70d1 eabd 5aee 7dbd 92a4 35be
000000b0: 0faa 60bd 69c3 1fbe 8a33 babd 7ce0 c0bd
000000c0: 7421 b0bd 4293 2abc ed0b 6cbd 977c 80bc
000000d0: 8b5c e2bc e65e a83c 9045 c63d a61d 49be
000000e0: c3f3 eabc d4d4 2b3d dbe4 11be 5416 323d
000000f0: 2731 83bc 4b9d e0bd 4c78 013d 17c3 c9bd
00000100: 55b4 843d a815 0ebe a4dc 09be 6870 b7bd
00000110: 2265 3abe 84d9 513d 6c10 21be c09a 65bc
00000120: 3a35 08be f6e4 7fbe 8ee0 b3bd 77ef 3ebe
00000130: 47e3 aebc 8034 a2bd 06eb a1bd 7c21 c6bd
00000140: 2cc2 21bd ca8a 94bd d0a7 bebd 393f 0ebe
00000150: 53ef b5bd c802 14be e1f8 c03d 3ac8 9cbd
00000160: af7d 80bd 3f4f 93bd c382 c9bd 5d84 f63c
00000170: 626a 71ba 7bf5 34bd cd16 49be a2b5 863c
00000180: cead 19be cc42 a4bc 03aa 183d d30f 4ebc
00000190: da26 15be 52b2 76bd 9f45 fbbd b3f4 f6bc
000001a0: 9f4b 42be 8c0e 36bb bcc6 3abe fb45 11be
000001b0: 2b46 a1bd d9b8 77be 4584 90bd cd1a cbbb
000001c0: 4cb8 c7bc 4d82 c5bd 5955 31bd b87c 0abd
000001d0: c712 07bd 909c 26bd c564 10be 9dd4 3e3d
000001e0: b344 83bd 6bc0 32bd 8bff 18be ec7f 98bd
000001f0: b2ba 58bc d1e9 8dbc 5509 b63c c3ec 61bc
00000200: 04e2 cdbb a0fe 35bd d2bf 16bd 64c8 e5bd
00000210: 01ed d7bd e35a 09be 436f d5bd a291 52be
00000220: f886 bebd 9b29 10bd 526b 42be e993 25bd
00000230: 5c29 acbd a1dd e2bd bd04 9fbd 5bcd c5bd
00000240: 3b76 5fbd 0fa7 1abe 937c a03d e176 213c
00000250: 276c 2cbd b980 b33c b15a 40bd 77b4 a0bd
00000260: 7169 8fbc 4533 b7bd 2810 84bc e976 00be
00000270: 1f5a 72be bc25 35bd 3ea0 7dbe af6d 5b39
00000280: b0a0 7dbd 762b 693d 6e36 7cbe 6b24 173d
00000290: 33d4 09be 39ec fbbd aeb9 ccbc 3b0f 0e3b
000002a0: c3fa 94bd 8cee a1bd a31d 93bd 5ff8 22be
000002b0: b173 883d 814b f63c 0e02 e9bd f28f eabd
000002c0: 3cfc 8bbd 217b 43be 8353 463c 98a8 8bbd
000002d0: f751 dabd c314 da3a c737 8abd 7305 21be
000002e0: a249 f9bd 77e5 14bd 717a 39bd df8d 053c
000002f0: 6e29 37be 8c44 39be 0058 05be b6ec 6dbd
00000300: ea03 ac3c 4d1c f2bd 3496 813d bd06 94bd
00000310: a772 1bbe e5cf af3c 1797 debd 4139 bcbd
00000320: d307 83bd aca4 5dbd 3b06 1dbe 986f 99bc
00000330: 2bec e4bd a4ef fcbd 33d0 4dbd 37f3 e1bc
00000340: 277b 92bc a30d 863d 7170 12be cad7 833c
00000350: d4d9 cfbd 430c 63bd d169 b6bd b821 a7bd
00000360: bece c4bc 1a85 9cbd e5d5 6dbe 538f ec39
00000370: 7898 95bc 406c a9bb 27dc 9bbd f1a4 49be
00000380: ef15 7bbd e78f 753c 6616 39bc 11d6 9ebc
00000390: 501d 08be 063d 89bd ee92 bfbd f614 89bd
000003a0: 4716 dcbc 672e 88bd 621e 41bb 26d1 81bb
000003b0: 3f85 6239 500a 59bb 8d50 d5bd c32d 09bd
000003c0: 020b cbbd 2df1 57bd 5abe 493c 1d4b aabc
000003d0: 0436 26bd bd74 f9bd 9e44 373d 0861 2cbe
000003e0: 472b 93bc 1207 55bd 9859 853d 01c0 8abe
000003f0: 4350 d6bd d247 763c c088 0ebc eb98 8cbd

network_body._body_endoder.seq_layers.4.weight f4 [256, 256]
0.050842885 -0.061862536 -0.18102099 -0.06632032 0.04744619 0.17908618 -0.13523233 -0.05366889
-0.12560205 -0.17221542 0.031578615 -0.13384122 0.19158462 0.16207424 -0.023272742 0.14850438
0.047331925 -0.08716267 -0.06305207 0.15289655 0.029529558 -0.000742369 -0.037303325 0.0366019
0.085405454 0.09968744 0.094559014 -0.00604792 -0.11677669 0.3892178 -0.07063496 -0.13892883
-0.0038440935 -0.03420552 -9.6696276e-05 0.08843485 0.15333028 0.035730693 0.022665368 0.15208939
0.09561749 -0.0002087305 0.045419175 -0.05470353 0.11467527 0.0053563197 0.21056284 -0.014412747
0.08487061 -0.05897158 -0.055812586 -0.093631215 -0.31505215 -0.037951242 -0.1431875 -0.02510023
0.013048204 0.15515038 0.203634 0.058263797 0.081568055 0.07578814 0.017444361 -0.0162788
-0.34342 0.11447185 -0.028621295 0.07036383 0.07556246 0.038480725 -0.06215762 -0.039601896
0.15016161 -0.096691824 -0.29579198 0.057541613 0.0038595574 -0.044687614 0.16228244 -0.015102375
-0.029005362 0.017557198 -0.0069655213 -0.0052419337 0.012149435 -0.0069561005 -0.042575385 0.005468503
-0.10702248 0.035889544 -0.2919713 -0.03494153 0.22392167 -0.18196751 0.13265522 -0.0013324121
-0.16723223 -0.061736207 0.08391128 -0.11412456 0.087493666 0.12772712 -0.020728704 0.07862172
0.079803675 -0.113480605 0.0059860786 -0.037152212 -0.008529161 -0.0781027 -0.26279497 -0.08675022
-0.0056320475 0.025567459 0.15092169 -0.023706269 0.12512487 -0.10398592 0.24359433 -0.11264051
-0.0115866605 -0.07325274 -0.06976237 -0.056491736 -0.2010026 0.041786335 0.0072453464 -0.052283075
0.073176354 -0.0018726009 -0.05657854 -0.07829602 -0.050993606 0.105514914 0.05107236 0.18540339
-0.0066296626 0.09874008 -0.15617134 -0.03371742 -0.047612354 -0.06621421 -0.0365593 0.13396196
-0.05041974 -0.09558536 0.09779088 -0.041031558 -0.07505618 0.10716621 0.020752262 0.076915994
0.092161454 -0.059158355 -0.005878941 0.037223935 0.06472282 -0.11992537 -0.06607614 0.23427986
0.15496027 -0.012394484 -0.022461226 0.06583704 0.17508112 0.106750496 0.20149404 -0.09439132
-0.008274127 0.037138157 -0.020973291 0.040059242 -0.09828182 0.031488035 0.12291032 0.1374139
-0.14362572 0.02092015 -0.060403865 -0.08462374 0.18119946 0.03337459 0.09584981 0.02019049
-0.010879829 -0.11990587 -0.012470788 0.06768703 -0.04157562 -0.08597055 0.13022755 0.01761222
0.109843664 -0.12281427 -0.02537018 0.060823295 -0.063873366 -0.089562945 -0.111770615 0.16990173
0.053173732 -0.014753102 0.24475935 0.17377627 0.18704328 0.022607628 -0.039045114 -0.07455778
-0.03473108 0.15410386 -0.004119412 -0.12669657 -0.20450635 0.06592514 0.19174324 0.15227075
0.047380965 -0.013095207 -0.08261498 0.23316607 0.05735303 -0.015339517 0.0041586813 0.039067715
0.16111584 -0.005818705 -0.043427106 0.2190324 -0.0021573105 -0.04277714 0.09181583 -0.029086683
-0.065581255 -0.0328258 -0.2619175 0.061328817 0.04747344 0.2052686 -0.018334206 -0.12539536
-0.03747661 -0.043211512 0.0034595162 -0.15673952 -0.02553101 -0.11607868 -0.06460881 -0.04033707
-0.021927759 -0.018403312 -0.13803668 0.14098072 0.05823531 -0.04694227 0.056732535 0.0056277276
00000000: a140 503d 9263 7dbd 915d 39be f3d2 87bd
00000010: f056 423d 5e62 373e 587a 0abe e9d3 5bbd
00000020: d39d 00be 3d59 30be 9458 013d ac0d 09be
00000030: c22e 443e caf6 253e 7aa6 bebc 8811 183e
00000040: 1fdf 413d 5882 b2bd 7221 81bd ea90 1c3e
00000050: f9e7 f13c 8a9b 42ba 5fcb 18bd e0eb 153d
00000060: 0ee9 ae3d ee28 cc3d 28a8 c13d a12d c6bb
00000070: 9e28 efbd 8e47 c73e 10a9 90bd 5c43 0ebe
00000080: 30ed 7bbb 161b 0cbd 6bc9 cab8 551d b53d
00000090: 9d02 1d3e 595a 123d b9ac b93c 52bd 1b3e
000000a0: 1ad3 c33d abde 5ab9 7509 3a3d cf10 60bd
000000b0: deda ea3d 1184 af3b c99d 573e 7123 6cbc
000000c0: a4d0 ad3d 2f8c 71bd bd9b 64bd b9c1 bfbd
000000d0: 844e a1be c372 1bbd be9f 12be ff9e cdbc
000000e0: 22c8 553c bedf 1e3e 6e85 503e 05a6 6e3d
000000f0: 270d a73d d036 9b3d 7ae7 8e3c 1e5b 85bc
00000100: bfd4 afbe 3870 ea3d 3577 eabc e91a 903d
00000110: 7ec0 9a3d f79d 1d3d fd98 7ebd 9935 22bd
00000120: f7c3 193e 5d06 c6bd 0c72 97be c1b0 6b3d
00000130: a1f0 7c3b 5c0a 37bd 5e2d 263e f46f 77bc
00000140: a79c edbc 1dd4 8f3c 073f e4bb 87c4 abbb
00000150: 6c0e 473c 00f0 e3bb 8763 2ebd 2131 b33b
00000160: 9a2e dbbd ea00 133d 437d 95be da1e 0fbd
00000170: b94b 653e b155 3abe c5d6 073e 55a4 aeba
00000180: ed3e 2bbe 1bdf 7cbd add9 ab3d 23ba e9bd
00000190: e12f b33d e6ca 023e 3ecf a9bc 6d04 a13d
000001a0: 1c70 a33d 8568 e8bd de26 c43b eb2c 18bd
000001b0: e5bd 0bbc 4ff4 9fbd 108d 86be 19aa b1bd
000001c0: 0a8d b8bb d972 d13c 378b 1a3e a633 c2bc
000001d0: bc20 003e 92f6 d4bd cb70 793e 11b0 e6bd
000001e0: fad5 3dbc 8805 96bd 93df 8ebd e163 67bd
000001f0: a0d3 4dbe 2628 2b3d 5f6a ed3b c726 56bd
00000200: 7cdd 953d 0f72 f5ba e6be 67bd aa59 a0bd
00000210: acde 50bd 3418 d83d 4031 513d 63da 3d3e
00000220: a43d d9bb 3d38 ca3d 61eb 1fbe 471b 0abd
00000230: 2c05 43bd 519b 87bd 34bf 15bd 532d 093e
00000240: ee84 4ebd 42c2 c3bd 9646 c83d b510 28bd
00000250: 0eb7 99bd f579 db3d a600 aa3c 2286 9d3d
00000260: 25bf bc3d 0850 72bd 22a4 c0bb 2078 183d
00000270: 668d 843d 6f9b f5bd ed52 87bd 0fe7 6f3e
00000280: e8ad 1e3e 3c12 4bbc 9b00 b8bc 92d5 863d
00000290: 7748 333e 01a0 da3d 7454 4e3e 3d50 c1bd
000002a0: 3490 07bc 2e1e 183d 2ed0 abbc 2915 243d
000002b0: fb47 c9bd 99f9 003d 68b8 fb3d 3bb6 0c3e
000002c0: 9f12 13be bc60 ab3c 0b6a 77bd 364f adbd
000002d0: 5a8c 393e cbb3 083d e84c c43d 8766 a53c
000002e0: 4f41 32bc 3591 f5bd 4752 4cbc 7f9f 8a3d
000002f0: 334b 2abd 5411 b0bd 5f5a 053e 8147 903c
00000300: b7f5 e03d 0c86 fbbd 20d5 cfbc d921 793d
00000310: 0ad0 82bd c76c b7bd fee7 e4bd b8fa 2d3e
00000320: b3cc 593d ffb6 71bc 32a2 7a3e 68f2 313e
00000330: 4688 3f3e a233 b93c c5ed 1fbd c0b1 98bd
00000340: 2d42 0ebd 67cd 1d3e 22fc 86bb bfbc 01be
00000350: 1d6a 51be c303 873d 5758 443e ddec 1b3e
00000360: 8b12 423d 478d 56bc 0b32 a9bd 16c3 6e3e
00000370: 03eb 6a3d 9952 7bbc 8c45 883b 7805 203d
00000380: 8dfb 243e d6aa bebb 9fe0 31bd 084a 603e
00000390: aa61 0dbb 1537 2fbd f009 bc3d 3247 eebc
000003a0: 774f 86bd 5974 06bd 0d1a 86be ed33 7b3d
000003b0: 8373 423d ef31 523e 9e31 96bc a467 00be
000003c0: 1381 19bd 8efe 30bd 0db9 623b 5380 20be
000003d0: 6926 d1bc a9ba edbd a051 84bd 7c38 25bd
000003e0: d8a1 b3bc 8bc2 96bc 7d59 0dbe 405d 103e
000003f0: 2688 6e3d 8a46 40bd 6060 683d cd68 b83b
