results/Drone3/Drone/Drone-23999995.onnx (onnx, 810629 bytes, 11 tensors)

action_model._continuous_distribution.log_sigma f4 [1, 4]
-1.68572 -1.6591725 -1.5642046 -1.5320637
00000000: acc5 d7bf c45f d4bf db37 c8bf aa1a c4bf

action_model._continuous_distribution.mu.bias f4 [4]
0.11240749 0.03413748 0.12473431 0.02363751
00000000: e635 e63d bed3 0b3d b474 ff3d 74a3 c13c

action_model._continuous_distribution.mu.weight f4 [4, 256]
-0.008932897 -0.043032393 -0.024444245 -0.03173234 -0.08279848 -0.012156147 -0.03949683 -0.037906166
-0.011880744 0.06623821 -0.059375037 -0.061011028 0.06086507 -0.056657817 -0.0626249 -0.042805884
-0.046013158 0.028930333 0.050223544 0.011942358 0.0031694658 0.024522433 -0.03301855 -0.038117338
0.0118649695 -0.00086299086 -0.060397867 -0.042965256 0.025605787 -0.008717439 -0.03941286 -0.013680067
0.025309416 0.0825632 -0.08593167 -0.04080067 0.03447703 0.003924193 0.048763644 -0.050057687
-0.003612752 -0.069094546 0.012595525 -0.03058396 -0.099863924 -0.071131945 0.035984427 -0.1161241
0.042986717 0.0061506964 -0.095396414 0.0028524313 0.032184977 0.003281298 -0.022382295 -0.102094404
-0.06332937 -0.07836854 -0.120030925 0.00294906 0.038304154 -0.044308864 0.06737187 0.033879187
-0.024947802 -0.03333693 -0.018811723 -0.026008647 0.046742436 0.04011295 0.012959718 -0.016512735
-0.02936354 -0.0075399037 0.043761026 -0.025498848 0.046882477 -0.096026994 -0.029623944 0.01615101
0.021203686 -0.04863488 -0.040348742 -0.040029664 -0.005969571 0.0059830174 0.038824484 0.053592056
-0.069334075 -0.065029316 0.023611058 -0.018253764 0.047088735 -0.0009246687 -0.020289585 -0.120517716
-0.03917847 0.047524553 -0.012470318 -0.017355962 -0.0035793064 -0.07172948 0.026382107 -0.066994525
-0.007059994 0.031063553 0.012189973 0.018595843 -0.06359971 0.025551489 -0.050471887 -0.054192193
0.0762347 -0.035106767 -0.043972835 0.010329419 0.020121057 -0.046174448 -0.07369893 -0.029546754
-0.045202065 -0.026420299 -0.023765754 -0.03492942 -0.04956867 -0.005667754 -0.026596107 -0.06527844
-0.12522984 -0.021409355 -0.055103127 -0.0020477185 -0.086291224 0.03657006 -0.08935209 -0.06574979
0.022505652 -0.039318483 0.061193928 -0.1063309 -0.07504624 -0.009452312 -0.017980587 0.07431479
0.007929424 -0.034714654 -0.07012153 -0.009305089 -0.07798795 -0.04432541 -0.014784484 0.012561184
-0.03643516 0.013168824 -0.017037634 0.016034828 -0.032782853 -0.0007312936 0.04859123 -0.06841609
-0.13307877 0.06953819 -0.01165101 -0.04719956 -0.024824407 -0.0037819988 0.039204836 0.025612224
-0.0688177 -0.058016676 -0.017428046 -0.038951598 0.09529831 0.023570813 -0.0034791576 0.10140851
-0.034569755 -0.008709145 -0.009374549 0.0041682827 0.021366004 0.05973248 0.010367328 -0.03671789
0.016308805 -0.045630544 0.020881146 -0.03513469 -0.02231114 0.037336558 0.020586627 -0.034310672
-0.08163403 0.016968774 0.033986047 -0.091409184 -0.052933164 0.047924682 -0.07350612 0.021550274
-0.08252159 -0.006761714 0.042292427 -0.049312137 -0.025303483 -0.028278295 -0.034539685 -0.00439033
0.001629776 -0.052846324 -0.08031284 -0.012554411 0.0025249987 -0.0339963 -0.0532709 -0.027786063
-0.0424311 0.055973843 -0.0061011827 0.038586512 -0.023264688 0.0016015763 -0.016884517 -0.017302282
-0.08408574 -0.0337392 -0.07234962 -0.044603765 -0.027744835 -0.028146213 0.04386433 0.08934691
-0.079356775 -0.0074343137 0.011407082 0.020821065 -0.04078381 0.032319788 -0.03444756 -0.03083186
0.04906907 0.017054781 -0.020666512 0.03566945 0.02318587 0.014609194 -0.0004095182 -0.0066710906
-0.012740584 -0.008816313 -0.054357763 0.0050611245 -0.010174114 -0.039708715 -0.055058096 -0.094566345
00000000: 495b 12bc bc42 30bd 4c3f c8bc c5f9 01bd
00000010: 4092 a9bd 932a 47bc 6ec7 21bd 7f43 1bbd
00000020: 74a7 42bc e6a7 873d 3d33 73bd b3e6 79bd
00000030: a74d 793d 0712 68bd 7c41 80bd 3955 2fbd
00000040: 4b78 3cbd 4eff ec3c 34b7 4d3d e1a9 433c
00000050: d0b6 4f3b 45e3 c83c 763e 07bd ed20 1cbd
00000060: 4a65 423c 563a 62ba c163 77bd 56fc 2fbd
00000070: 3ac3 d13c 97d3 0ebc 616f 21bd 5c22 60bc
00000080: b155 cf3c e516 a93d f2fc afbd 9a1e 27bd
00000090: c937 0d3d 8496 803b 63bc 473d 4a09 4dbd
000000a0: ecc3 6cbb 7181 8dbd 765d 4e3c 368b fabc
000000b0: 7585 ccbd a0ad 91bd 6864 133d 79d2 edbd
000000c0: d712 303d c88b c93b 325f c3bd dbef 3a3b
000000d0: 65d4 033d 0c0b 573b 135b b7bc df16 d1bd
000000e0: d4b2 81bd af7f a0bd c6d2 f5bd 0445 413b
000000f0: d1e4 1c3d 367d 35bd 43fa 893d e7c4 0a3d
00000100: 555f ccbc 4e8c 08bd 0b1b 9abc 1610 d5bc
00000110: ff74 3f3d 7a4d 243d ff54 543c b745 87bc
00000120: ce8b f0bc 4c11 f7bb c33e 333d f6e2 d0bc
00000130: d707 403d cda9 c4bd eaad f2bc 1f4f 843c
00000140: 5ab3 ad3c 5e35 47bd b944 25bd 25f6 23bd
00000150: 649c c3bb 300d c43b 6c06 1f3d 5883 5b3d
00000160: 06ff 8dbd 172e 85bd fa6b c13c eb88 95bc
00000170: 1ee0 403d 7765 72ba 5836 a6bc fed1 f6bd
00000180: 9a79 20bd 1ba9 423d 4e50 4cbc 172e 8ebc
00000190: cc92 6abb e8e6 92bd 4a1f d83c 6d34 89bd
000001a0: 8657 e7bb fe78 fe3c 74b8 473c 4f56 983c
000001b0: 9140 82bd 5b51 d13c 9cbb 4ebd a2f8 5dbd
000001c0: f020 9c3d 1dcc 0fbd dc1c 34bd b93c 293c
000001d0: ead4 a43c 6b21 3dbd 77ef 96bd 090c f2bc
000001e0: cd25 39bd 626f d8bc 66b0 c2bc 2712 0fbd
000001f0: 8508 4bbd 91b8 b9bb 14e0 d9bc b4b0 85bd
00000200: 403c 00be ac62 afbc d1b3 61bd 0433 06bb
00000210: 74b9 b0bd 7dca 153d 3bfe b6bd d3a7 86bd
00000220: c65d b83c 6b0c 21bd 7ca6 7a3d 04c4 d9bd
00000230: d8b1 99bd dfdd 1abc 064c 93bc 5a32 983d
00000240: 6aea 013c f430 0ebd e09b 8fbd 5f74 18bc
00000250: 25b8 9fbd 908e 35bd 9f3a 72bc 6dcd 4d3c
00000260: 093d 15bd 0dc2 573c 8292 8bbc 795b 833c
00000270: 5047 06bd 48b4 3fba 9907 473d bc1d 8cbd
00000280: cd45 08be 0a6a 8e3d e1e3 3ebc 5354 41bd
00000290: 8e5c cbbc 69db 77bb 4095 203d bad0 d13c
000002a0: 4bf0 8cbd e5a2 6dbd 43c5 8ebc b68b 1fbd
000002b0: c32b c33d 9417 c13c 9402 64bb 44af cf3d
000002c0: 0499 0dbd cdb0 0ebc b597 19bc 1796 883b
000002d0: c207 af3c 0caa 743d badb 293c 8065 16bd
000002e0: 0b9a 853c 18e7 3abd f00e ab3c 65e9 0fbd
000002f0: dac5 b6bc 38ee 183d 49a5 a83c 5989 0cbd
00000300: be2f a7bd 1902 8b3c f434 0b3d bd34 bbbd
00000310: 72d0 58bd ac4c 443d 608a 96bd 338a b03c
00000320: 1401 a9bd 5e91 ddbb d33a 2d3d 86fb 49bd
00000330: 4049 cfbc e2a7 e7bc 7c79 0dbd c2dc 8fbb
00000340: 359e d53a 6375 58bd 0f7b a4bd 04b1 4dbc
00000350: 737a 253b b43f 0bbd 9632 5abd 999f e3bc
00000360: 3ccc 2dbd d444 653d 6eec c7bb e40c 1e3d
00000370: 9695 bebc fceb d13a 6651 8abc 84bd 8dbc
00000380: 2535 acbd 1e32 0abd 0a2c 94bd 70b2 36bd
00000390: 2349 e3bc e392 e6bc 15ab 333d 83fb b63d
000003a0: ce85 a2bd 8b9b f3bb c5e4 3a3c f090 aa3c
000003b0: ed0c 27bd c161 043d e218 0dbd 1993 fcbc
000003c0: a6fc 483d 78b6 8b3c d14c a9bc 211a 123d
000003d0: 4bf0 bd3c 675b 6f3c 9ab4 d6b9 2a99 dabb
000003e0: e2bd 50bc 4c72 10bc 3fa6 5ebd cad7 a53b
000003f0: 54b1 26bc 9ba5 22bd 9984 61bd 00ac c1bd

network_body._body_endoder.seq_layers.0.bias f4 [256]
0.13671577 -0.13191172 0.14648393 -0.03576766 -0.23623052 -0.10901593 -0.113206774 -0.12823516
-0.21414162 -0.038002275 -0.10240476 -0.1457251 -0.0068585416 -0.17009151 -0.052128263 0.03510914
0.1064762 -0.14093304 -0.040445063 -0.22024238 -0.023309857 -0.1239266 -0.09090831 -0.19075698
-0.06404943 -0.05746273 -0.1320074 -0.069682814 -0.091778025 -0.3398857 -0.0048551112 -0.07666219
-0.07441594 -0.13059106 -0.14172077 -0.15409353 -0.15983796 -0.17546968 -0.1736791 -0.16485405
-0.0379244 -0.19330557 -0.07355427 0.013268213 -0.15046751 -0.13518713 0.020432342 -0.13752027
0.08569668 -0.058583662 -0.17293386 -0.20861828 -0.09898068 0.023189636 -0.0487828 -0.25354734
-0.18205482 -0.18391836 -0.037258323 -0.12171082 -0.26421735 -0.12561181 -0.16853118 -0.16202308
-0.11718407 -0.12861204 -0.1655002 0.016948706 -0.14574057 -0.08817291 -0.04852019 -0.125151
-0.088408194 -0.003640861 -0.17277816 -0.029020643 -0.1172611 -0.06022231 -0.1640625 -0.23229304
-0.108610846 0.043011326 -0.064732075 0.11517801 -0.08307182 -0.26583534 -0.2219087 -0.14976035
-0.18611579 -0.11807456 -0.16882943 -0.10111738 0.15707327 0.065636 0.033926323 -0.3541409
-0.16592659 -0.15569487 -0.09194678 0.052192234 -0.018222803 -0.17640428 -0.1337938 -0.20849429
6.8789974e-05 -0.14091794 -0.10990874 0.1534116 -0.0071043987 -0.022038035 -0.04830206 -0.09686166
-0.060552213 0.078643106 0.0635686 -0.22261101 -0.18312731 -0.04338375 -0.2836754 -0.22872339
-0.06088236 -0.13843493 -0.16413727 -0.12819739 -0.09611902 -0.02003149 -0.1111799 -0.10242983
0.06056847 -0.062429983 -0.049707733 -0.035119418 0.009946364 -0.10583067 0.08027844 -0.10776003
0.082690954 -0.2173119 -0.13429332 -0.004197582 -0.123681396 0.10914956 -0.048595645 -0.15431248
-0.09392045 -0.017341135 -0.19372183 -0.25828612 -0.039609488 -0.09569442 0.0019299128 -0.001911831
0.04053574 0.03890135 -0.011704785 0.055232026 -0.0020012073 -0.13728172 -0.096478954 -0.052230008
0.06313803 0.1631735 -0.0471031 0.020633277 -0.072482064 -0.02165654 -0.06768564 -0.013524372
-0.058399986 -0.005933945 -0.14868279 -0.10657219 -0.029095296 -0.0610484 0.017338542 -0.0561559
-0.118079886 -0.22483258 0.006042032 -0.231324 -0.2421297 -0.017714389 -0.041269492 -0.10861897
-0.22726694 0.04941265 -0.12655081 -0.03841406 -0.19310066 0.14895776 -0.14007066 0.00935715
-0.07041205 0.019482888 -0.076250345 -0.05807112 -0.1627995 -0.019194117 -0.114353254 -0.032442108
0.021254724 0.06362782 -0.13163774 -0.1705519 -0.090952195 -0.1416418 -0.08251253 -0.18325758
-0.087383136 -0.067964286 0.02010386 0.0023687838 -0.14289798 -0.018377922 -0.1363594 -0.16762333
-0.0071451073 0.04078548 -0.13286237 -0.1427577 -0.29744437 -0.07727206 0.091269985 -0.002656956
-0.11124296 -0.11514579 -0.076463304 -0.18079418 -0.14518632 -0.029028015 0.13689399 0.03828607
-0.15624414 -0.13432012 -0.07076566 -0.043659516 0.014384624 -0.10340165 -0.13418685 0.08633718
-0.08720365 0.11985499 0.009203853 -0.10204889 -0.05394502 -0.17279099 -0.16081543 -0.06971538
-0.07348116 -0.14224875 -0.1615019 -0.023132432 0.038761225 -0.14624344 0.03425698 -0.11766294
00000000: 38ff 0b3e de13 07be e2ff 153e 1c81 12bd
00000010: 6ae6 71be be43 dfbd f4d8 e7bd 1450 03be
00000020: f147 5bbe 46a8 1bbd 96b9 d1bd f638 15be
00000030: 9ebd e0bb 782c 2ebe 7284 55bd 9ace 0f3d
00000040: 3210 da3d c050 10be b9a9 25bd 3887 61be
00000050: 50f4 bebc 3bcd fdbd 232e babd cc55 43be
00000060: 592c 83bd 0a5e 6bbd f32c 07be ddb5 8ebd
00000070: 1ef6 bbbd 8005 aebe a017 9fbb 1101 9dbd
00000080: 6267 98bd aab9 05be 401f 11be b2ca 1dbe
00000090: 90ac 23be 53ae 33be efd8 31be 80cf 28be
000000a0: 9e56 1bbd e5f1 45be 9fa3 96bd eb62 593c
000000b0: 2814 1abe 7f6e 0abe ba61 a73c 1dd2 0cbe
000000c0: be81 af3d 6cf5 6fbd 9315 31be 08a0 55be
000000d0: 62b6 cabd 31f8 bd3c 79d0 47bd f5d0 81be
000000e0: 946c 3abe 1855 3cbe 2f9c 18bd 8643 f9bd
000000f0: 7f47 87be 62a0 00be 7093 2cbe 61e9 25be
00000100: 34fe efbd e0b2 03be e278 29be 03d8 8a3c
00000110: 043d 15be 0094 b4bd 1bbd 46bd 9527 00be
00000120: 5b0f b5bd 839b 6ebb c2ec 30be b3bc edbc
00000130: 9626 f0bd abab 76bd 0000 28be 3ade 6dbe
00000140: 5d6f debd a52c 303d 4092 84bd 73e2 eb3d
00000150: 8f21 aabd 921b 88be 093c 63be c75a 19be
00000160: 2395 3ebe 13d1 f1bd 9fe1 2cbe a116 cfbd
00000170: d1d7 203e 2b6c 863d 54f6 0a3d f551 b5be
00000180: a9e8 29be 7a6e 1fbe 984e bcbd 86c7 553d
00000190: fd47 95bc 53a3 34be 3e01 09be 877f 55be
000001a0: 5643 9038 cb4c 10be d517 e1bd ee17 1d3e
000001b0: 04cc e8bb 1c89 b4bc 62d8 45bd 685f c6bd
000001c0: 9905 78bd a30f a13d 4130 823d 24f4 63be
000001d0: ba85 3bbe 29b3 31bd e73d 91be 7736 6abe
000001e0: c85f 79bd e3c1 0dbe 9a13 28be 2d46 03be
000001f0: 0cda c4bd 1419 a4bc 4ab2 e3bd bbc6 d1bd
00000200: a516 783d 95b6 7fbd 569a 4bbd 61d9 0fbd
00000210: 13f6 223c c0bd d8bd 0669 a43d 4ab1 dcbd
00000220: e059 a93d 0387 5ebe 3084 09be df8b 89bb
00000230: ac4c fdbd ce89 df3d 3a0c 47bd 1704 1ebe
00000240: 5d59 c0bd ff0e 8ebc 045f 46be 143e 84be
00000250: 8f3d 22bd 70fb c3bd 21f5 fc3a 6796 faba
00000260: ce08 263d 0657 1f3d 6dc5 3fbc fa3a 623d
00000270: b026 03bb 9493 0cbe c296 c5bd 22ef 55bd
00000280: 834e 813d f416 273e 2eef 40bd 1e07 a93c
00000290: 7a71 94bd 0e69 b1bc c59e 8abd 5495 5dbc
000002a0: d334 6fbd 8a71 c2bb 4d40 18be 8542 dabd
000002b0: 4259 eebc e30d 7abd 8f09 8e3c bb03 66bd
000002c0: ded3 f1bd 833a 66be 3dfc c53b 33e0 6cbe
000002d0: d9f0 77be c41d 91bc 330a 29bd 9f73 debd
000002e0: aab8 68be eb64 4a3d 8996 01be 1058 1dbd
000002f0: 2ebc 45be 6288 183e af6e 0fbe bb4e 193c
00000300: 3134 90bd 949a 9f3c 2429 9cbd fcdb 6dbd
00000310: eab4 26be fb3c 9dbc 0a32 eabd 04e2 04bd
00000320: 631e ae3c 4d4f 823d 0bcc 06be 28a5 2ebe
00000330: 2545 babd 8c0a 11be 54fc a8bd e0a7 3bbe
00000340: eef5 b2bd dc30 8bbd dab0 a43c 993d 1b3b
00000350: d953 12be 4c8d 96bc cca1 0bbe 73a5 2bbe
00000360: 8121 eabb ad0e 273d 130d 08be 132f 12be
00000370: a14a 98be d040 9ebd c2eb ba3d 5320 2ebb
00000380: 59d3 e3bd 8ed1 ebbd cb98 9cbd 1c22 39be
00000390: b9ab 14be 29cc edbc f02d 0c3e dbd1 1c3d
000003a0: 77fe 1fbe 378b 09be 96ed 90bd 52d4 32bd
000003b0: 7cad 6b3c 3fc4 d3bd 4768 09be 8cd1 b03d
000003c0: d497 b2bd 8876 f53d c2cb 163c 02ff d0bd
000003d0: 74f5 5cbd 1ff0 30be cdac 24be f0c6 8ebd
000003e0: 4a7d 96bd a8a9 11be c160 25be 3a80 bdbc
000003f0: 17c4 1e3d d7c0 15be 0c51 0c3d 44f9 f0bd

network_body._body_endoder.seq_layers.0.weight f4 [256, 13]
0.24451242 -0.2040425 -0.1879764 -0.07185899 0.17951316 0.22934456 0.9610274 -0.2165696
-1.2801577 1.0530471 -0.21823967 -0.08266929 0.57385015 0.13395675 0.19208321 0.1052616
-0.18379869 -0.051768888 -0.018468048 0.3432088 -0.07157073 -0.33859968 0.023240237 0.1581589
-0.02219698 0.6262055 0.0043891096 0.116347425 -0.41319793 -0.050410282 -0.025589185 0.098457746
2.440944 0.38037083 0.16978893 0.6216975 -0.105233975 0.6032827 0.078272715 0.22340307
-0.57040405 -0.17905101 -0.03647824 0.082551904 -0.13069999 -0.104786366 -0.068931796 0.16429874
-0.07568814 -0.034086265 -0.3944507 -0.042722084 -0.27841595 -0.48082563 0.11702725 0.6119341
-0.44413453 0.24102207 0.2525166 0.39624617 0.062779084 -0.587208 -0.057145283 -0.48563004
0.16100362 -0.028499218 -0.047733176 -0.017426265 -0.12870249 0.1335581 0.2052066 -1.3427057
-0.100443706 0.0768714 -0.10709441 -0.016794361 0.17100593 -0.27326033 -0.01659629 -0.28708705
-0.49258432 0.16629905 -0.13508447 -0.10469972 -0.6084525 0.32761303 -0.20342377 0.35632363
0.042627484 0.16003439 -0.2552302 0.17258242 -0.8732165 0.05564821 -0.27294832 0.06484904
-0.19615708 -0.08375661 -0.7054019 -0.15946542 0.16960844 -0.17950627 -0.17728354 -0.12055494
0.14040828 -0.105225876 0.022831205 0.22636412 0.049342245 -0.18163826 -0.5636369 -0.6266571
0.1673422 -0.1968494 -0.026814952 0.03958352 -0.12363334 0.34068054 -0.23939657 0.15694268
0.13323222 -0.01101569 0.00518806 -0.11878832 -0.074355796 0.43250903 -0.42459628 0.08804528
0.18374132 -0.044069026 -0.014268146 0.008686029 0.003028722 0.120909184 0.049661163 -0.01145845
0.005589137 -0.3875443 -0.080082044 -0.29725137 0.5091705 -0.6450536 0.043104153 -0.05867449
-0.32552317 -0.028803246 -0.30511105 0.09565916 0.09617475 -0.89415336 -0.3580958 0.304895
0.11621277 -0.1951609 0.28536913 -0.088686004 0.13970637 0.17694806 0.3335684 -0.26369876
0.2412194 0.14962593 0.44153428 -0.39180723 0.712927 -0.041617315 -0.31109816 0.39814648
0.4824978 0.34763694 -0.29268476 -0.037753463 0.113915354 0.09944792 0.6773694 -0.7901225
0.06034235 -0.47424206 -0.5667031 0.110141166 0.13437214 -0.14548059 -0.24551031 -0.09998457
-0.37940407 0.09555034 -0.18310608 0.070695065 0.5442754 0.44045255 0.1340529 0.4412262
-0.072293326 -0.35143104 0.022588871 0.045790076 0.16858426 -0.021967331 0.08781316 -0.35139275
0.19161516 -0.78686136 0.3581469 -1.439459 0.4002218 -0.007243548 0.050609533 -0.061579984
-0.0018720089 0.3407582 0.050503965 -0.17681289 0.06637114 0.05368733 1.0961694 -0.05810381
0.6986292 0.34517914 -0.28753552 0.5937017 0.42213917 0.074399695 0.48327467 0.29164815
-0.2984798 -0.14580555 0.04039773 -0.14942425 0.026224446 1.095891 -0.2618938 0.12502949
-0.10038204 -0.050049078 -0.44049972 0.06594677 0.06654171 0.30222479 -0.27986482 -0.09033119
-1.6958898 -0.4951374 -0.011307686 0.419192 0.06346976 -0.16507074 -0.07051013 0.1623477
-0.4438397 0.15204757 -0.30409265 0.21968588 -0.26253483 -0.18906265 -0.41394848 0.1641846
00000000: 7761 7a3e 84f0 50be e37c 40be ce2a 93bd
00000010: 4cd2 373e 4dd9 6a3e e405 763f 6cc4 5dbe
00000020: 35dc a3bf 3fca 863f 387a 5fbe 844e a9bd
00000030: d8e7 123f f52b 093e 76b1 443e 6593 d73d
00000040: b935 3cbe 9d0b 54bd 4e4a 97bc 10b9 af3e
00000050: ad93 92bd f05c adbe 4f62 be3c 68f4 213e
00000060: 71d6 b5bc 014f 203f 85d2 8f3b 8f47 ee3d
00000070: ae8e d3be 037b 4ebd 69a0 d1bc 37a4 c93d
00000080: 6d38 1c40 f7bf c23e 26dd 2d3e 9127 1f3f
00000090: e984 d7bd bc70 1a3f 724d a03d c6c3 643e
000000a0: 0006 12bf 2659 37be 356a 15bd f910 a93d
000000b0: 38d6 05be 3c9a d6bd 1d2c 8dbd ee3d 283e
000000c0: 6202 9bbd 0a9e 0bbd 71f5 c9be 5afd 2ebd
000000d0: 898c 8ebe c72e f6be fcab ef3d b7a7 1c3f
000000e0: 9a65 e3be 7dce 763e db49 813e c7e0 ca3e
000000f0: 5292 803d 4353 16bf 2c11 6abd 80a4 f8be
00000100: 22de 243e 3177 e9bc dd83 43bd 87c1 8ebc
00000110: 96ca 03be 74c3 083e ae21 523e c8dd abbf
00000120: 6eb5 cdbd c16e 9d3d 5054 dbbd 5494 89bc
00000130: 2e1c 2f3e c7e8 8bbe f1f4 87bc 13fd 92be
00000140: 0334 fcbe 4c4a 2a3e 9553 0abe cf6c d6bd
00000150: 8bc3 1bbf e5bc a73e 524e 50be 0d70 b63e
00000160: 289a 2e3d 0ee0 233e 88ad 82be 72b9 303e
00000170: 1e8b 5fbf 61ef 633d e2bf 8bbe 93cf 843d
00000180: 67dd 48be 9688 abbd 3895 34bf e74a 23be
00000190: d6ad 2d3e 7ed0 37be d189 35be 82e5 f6bd
000001a0: 30c7 0f3e aa80 d7bd 8208 bb3c ffcb 673e
000001b0: 181b 4a3d 61ff 39be 824a 10bf 9a6c 20bf
000001c0: c15b 2b3e e492 49be 08ab dbbc 5422 223d
000001d0: 7a33 fdbd ae6d ae3e 6024 75be 95b5 203e
000001e0: 076e 083e 277b 34bc 9a00 aa3b 4a47 f3bd
000001f0: da47 98bd d371 dd3e af64 d9be 1551 b43d
00000200: af26 3c3e b981 34bd f1c4 69bc d94f 0e3c
00000210: 867d 463b 3c9f f73d 8169 4b3d 39bc 3bbc
00000220: 1425 b73b 356c c6be 0e02 a4bd 5531 98be
00000230: ff58 023f 3c22 25bf fb8d 303d a954 70bd
00000240: f9aa a6be c9f4 ebbc 8437 9cbe f3e8 c33d
00000250: 44f7 c43d 3ce7 64bf 5558 b7be 331b 9c3e
00000260: f600 ee3d 42d8 47be e71b 923e 02a1 b5bd
00000270: 300f 0f3e df31 353e 7ac9 aa3e 8603 87be
00000280: 3802 773e 8a37 193e c810 e23e f59a c8be
00000290: 6282 363f eb76 2abd 4248 9fbe dbd9 cb3e
000002a0: f409 f73e 78fd b13e c7da 95be 60a3 1abd
000002b0: 744c e93d 5aab cb3d 1568 2d3f 7845 4abf
000002c0: 8a29 773d dbcf f2be 7413 11bf b191 e13d
000002d0: da98 093e ddf8 14be 0e67 7bbe b6c4 ccbd
000002e0: 4041 c2be e6af c33d 2980 3bbe 93c8 903d
000002f0: a255 0b3f ff82 e13e 2a45 093e 67e8 e13e
00000300: 860e 94bd c5ee b3be 4c0c b93c 608e 3b3d
00000310: 5aa1 2c3e d5f4 b3bc 63d7 b33d c0e9 b3be
00000320: c436 443e bf6f 49bf 085f b73e 3140 b8bf
00000330: dfe9 cc3e 495b edbb f14b 4f3d 4b3b 7cbd
00000340: 325e f5ba dc77 ae3e 3fdd 4e3d 700e 35be
00000350: 98ed 873d 3fe7 5b3d 474f 8c3f 43fe 6dbd
00000360: 5dd9 323f 52bb b03e db37 93be d6fc 173f
00000370: a022 d83e de5e 983d c76f f73e e852 953e
00000380: 58d2 98be 0d4e 15be 1778 253d ac02 19be
00000390: a6d4 d63c 2846 8c3f f216 86be bb07 003e
000003a0: 1995 cdbd 4300 4dbd 2e89 e1be 1a0f 873d
000003b0: 0547 883d 35bd 9a3e 714a 8fbe 8fff b8bd
000003c0: eb12 d9bf a682 fdbe df43 39bc 55a0 d63e
000003d0: 6ffc 813d 4e08 29be 9d67 90bd 7a3e 263e
000003e0: f53e e3be 5cb2 1b3e 08b2 9bbe 56f5 603e
000003f0: f76a 86be a499 41be 0ef1 d3be 0220 283e

network_body._body_endoder.seq_layers.2.bias f4 [256]
-0.09259838 -0.113234125 0.06220301 0.08402497 -0.05795953 -0.032146726 -0.030441279 -0.0033293967
-0.023000175 -0.15281188 -0.03879069 0.077720754 -0.00035376003 -0.02418123 0.022349868 -0.16635871
-0.04849745 -0.026254904 -0.07913619 -0.098719425 -0.052208047 -0.03043777 -0.096439704 0.049032144
-0.059647977 -0.058858145 -0.12511715 -0.09907142 0.0064892485 -0.0700165 -0.00014147001 0.008023117
0.013970806 -0.18577869 -0.06832383 -0.087203965 -0.08059132 -0.121887 -0.12174112 -0.066383615
-0.1053859 -0.04998024 -0.07099045 -0.06215261 -0.1247803 -0.06477427 -0.033404294 -0.15863161
-0.048814572 -0.10088366 0.074692525 -0.025015494 0.028205218 -0.08788744 -0.026801571 0.0029181174
-0.053812347 -0.038092587 -0.08755186 -0.06374886 -0.15376818 -0.04070791 -0.07021988 -0.1280015
0.011157078 -0.056084886 -0.13772549 -0.15755785 -0.107222 0.042288773 0.003503253 0.01404983
-0.13861683 -0.05920793 -0.09596102 -0.11016084 -0.015777817 -0.11957884 -0.09026556 -0.056145534
-0.01688253 -0.102542624 -0.049759004 -0.062428985 -0.06258985 -0.012208653 0.03954607 -0.075736195
-0.042877097 -0.10527336 0.023206316 -0.008180555 -0.1933201 -0.013744754 -0.037807237 0.013224415
0.111527145 0.046192497 -0.08435787 -0.14902665 0.0043675653 -0.05985933 -0.110862866 -0.0068302145
-0.020950392 -0.04073274 -0.053849805 -0.06632651 -0.065607764 -0.20726943 -0.02893238 0.014713828
-0.0825666 -0.033978123 -0.054381453 -0.18399416 0.0028548213 -0.006763222 -0.18220772 0.020767251
-0.037836287 -0.012009572 -0.0099214 -0.053494543 -0.0861416 0.06739296 -0.12810706 -0.12494974
-0.077139854 -0.047811035 -0.09046535 -0.025963224 0.012868711 -0.049564768 -0.06646096 -0.080699764
-0.044031534 -0.15458837 -0.012608435 0.03246745 -0.071073696 -0.07211776 0.028351383 0.010930467
0.056221183 -0.07264044 -0.103548065 -0.074625246 -0.18703051 -0.0811252 -0.14496593 -0.071177915
0.00903874 -0.06297536 -0.058337584 -0.04430408 -0.117681235 -0.10078243 -0.048144408 -0.08965111
-0.033263348 -0.08020829 -0.030732915 -0.18314353 -0.044841707 0.03798095 -0.00095046347 -0.026070585
0.046621364 -0.11393765 -0.086356215 -0.049711764 0.0119968755 0.004610716 -0.00023822702 -0.1181732
-0.042653516 -0.12525646 0.08865257 0.032425053 -0.005197197 -0.03586628 -0.083797485 -0.045321226
-0.016066495 0.06559918 -0.017965743 -0.19288293 -0.05908982 -0.08442479 -0.08438434 -0.10534692
-0.03360225 -0.042998053 -0.03027764 -0.08275378 -0.062343083 0.11980738 -0.025710512 -0.12691799
-0.026748136 -0.010095457 -0.0021175775 -0.004921753 -0.14060594 -0.045818575 -0.06127233 -0.077719055
-0.038793545 -0.1420487 -0.12274154 -0.16442426 -0.09846463 -0.07897023 -0.03794825 -0.051109374
-0.05019471 -0.070485786 0.00995451 -0.037549753 -0.032679815 -0.08330252 -0.07659164 -0.123357415
-0.05986047 -0.07800712 -0.09808808 -0.12827192 -0.04247255 0.051874176 -0.019763652 -0.03769309
-0.12271003 -0.13509122 0.019624626 -0.061697073 -0.040656395 -0.05911021 -0.07905451 0.011844514
-0.050673805 -0.0794124 -0.07061953 0.028532118 -0.07489154 -0.05620572 0.024773858 -0.07618002
-0.06720287 -0.06701051 -0.04915748 -0.09299631 -0.09909611 -0.11813672 -0.03593325 -0.040717028
00000000: 38a4 bdbd 4be7 e7bd 95c8 7e3d 4915 ac3d
00000010: f966 6dbd 49ac 03bd fd5f f9bc 0232 5abb
00000020: dd6a bcbc b87a 1cbe fde2 1ebd 0f2c 9f3d
00000030: de78 b9b9 b717 c6bc 1217 b73c f059 2abe
00000040: 43a5 46bd 8614 d7bc 2812 a2bd 692d cabd
00000050: 1bd8 55bd a158 f9bc 2e82 c5bd eed5 483d
00000060: 7051 74bd 3d15 71bd b61e 00be f5e5 cabd
00000070: c3a3 d43b d064 8fbd 9157 14b9 6473 033c
00000080: cfe5 643c c53c 3ebe 5ded 8bbd fe97 b2bd
00000090: 100d a5bd e49f f9bd 6953 f9bd 22f4 87bd
000000a0: 90d4 d7bd 15b8 4cbd 7163 91bd bc93 7ebd
000000b0: d08c ffbd 5fa8 84bd f1d2 08bd 5370 22be
000000c0: caf1 47bd 189c cebd 65f8 983d 4bed ccbc
000000d0: a10e e73c 55fe b3bd f88e dbbc e33d 3f3b
000000e0: 566a 5cbd f906 1cbd 644e b3bd c38e 82bd
000000f0: 6875 1dbe 56bd 26bd 71cf 8fbd d312 03be
00000100: 2dcc 363c 44b9 65bd e907 0dbe d856 21be
00000110: 3597 dbbd fe36 2d3d d596 653b 4231 663c
00000120: 92f1 0dbe 0484 72bd 3687 c4bd 029c e1bd
00000130: 7b40 81bc c0e5 f4bd 26dd b8bd dcf8 65bd
00000140: 3b4d 8abc de01 d2bd 19d0 4bbd 89b5 7fbd
00000150: 1b2f 80bd cd06 48bc 0ffb 213d 941b 9bbd
00000160: e59f 2fbd 8f99 d7bd 2c1b be3c bc07 06bc
00000170: b4f5 45be ad31 61bc c3db 1abd 37ab 583c
00000180: 5868 e43d 5834 3d3d d2c3 acbd 719a 18be
00000190: cb1d 8f3b 0f2f 75bd 120c e3bd fecf dfbb
000001a0: 28a0 abbc 60d7 26bd 9d91 5cbd 31d6 87bd
000001b0: 5d5d 86bd 703e 54be 9903 edbc 4512 713c
000001c0: ad18 a9bd a52c 0bbd 16bf 5ebd f768 3cbe
000001d0: f417 3b3b 059e ddbb a994 3abe 1520 aa3c
000001e0: 39fa 1abd ccc3 44bc 5e8d 22bc 181d 5bbd
000001f0: 026b b0bd 5205 8a3d 7f2e 03be a6e5 ffbd
00000200: 80fb 9dbd 81d5 43bd e645 b9bd d4b0 d4bc
00000210: 49d7 523c 6d04 4bbd af1c 88bd eb45 a5bd
00000220: 695a 34bd 6a4c 1ebe 9c93 4ebc 97fc 043d
00000230: 168f 91bd 7ab2 93bd 2941 e83c b415 333c
00000240: 2f48 663d 83c4 94bd 0211 d4bd 1fd5 98bd
00000250: ed84 3fbe f824 a6bd f371 14be bac5 91bd
00000260: 3917 143c 3af9 80bd 64f3 6ebd 3278 35bd
00000270: dc02 f1bd 0567 cebd 1233 45bd 009b b7bd
00000280: 263f 08bd 3e44 a4bd 98c3 fbbc fa89 3bbe
00000290: f0ab 37bd ea91 1b3d 8628 79ba fb91 d5bc
000002a0: 0bf6 3e3d 2558 e9bd 87db b0bd 909e 4bbd
000002b0: 8b8e 443c 7d15 973b 94cc 79b9 ca04 f2bd
000002c0: 74b5 2ebd 3b43 00be 7b8f b53d 22d0 043d
000002d0: 404d aabb 85e8 12bd 049e abbd c0a2 39bd
000002e0: e29d 83bc dd58 863d e52c 93bc 1a83 45be
000002f0: 2b08 72bd e8e6 acbd b2d1 acbd 20c0 d7bd
00000300: 83a2 09bd ba1e 30bd d008 f8bc d07a a9bd
00000310: 765b 7fbd 925d f53d da9e d2bc caf6 01be
00000320: e81e dbbc 6a67 25bc 0ec7 0abb a846 a1bb
00000330: 01fb 0fbe 42ac 3bbd b2f8 7abd 2b2b 9fbd
00000340: fbe5 1ebd 3775 11be eb5f fbbd d55e 28be
00000350: d3a7 c9bd 25bb a1bd a06f 1bbd 1058 51bd
00000360: f898 4dbd da5a 90bd 3e18 233c c5cd 19bd
00000370: 45db 05bd 839a aabd 14dc 9cbd d0a2 fcbd
00000380: 4130 75bd 32c2 9fbd 67e2 c8bd b759 03be
00000390: b2f7 2dbd 047a 543d 62e7 a1bc 1264 1abd
000003a0: 654f fbbd 5a55 0abe d3c3 a03c 12b6 7cbd
000003b0: 5287 26bd 8c1d 72bd 55e7 a1bd 7e0f 423c
000003c0: 568f 4fbd f8a2 a2bd f9a0 90bd 30bc e93c
000003d0: bc60 99bd f837 66bd 8cf2 ca3c 4504 9cbd
000003e0: a9a1 89bd ce3c 89bd 5b59 49bd d974 bebd
000003f0: e7f2 cabd aaf1 f1bd be2e 13bd e6c6 26bd

network_body._body_endoder.seq_layers.2.weight f4 [256, 256]
0.07272919 -0.078073554 -0.011251492 -0.1413913 -0.06799977 -0.028550765 0.029188368 0.08744687
0.048312258 0.017336825 -0.06979878 0.10299104 -0.10835097 -0.13817339 -0.09222215 -0.023696307
-0.07612472 0.006399115 0.14124368 -0.0800722 0.08131722 0.050009575 -0.015728692 -0.09716423
0.018067498 -0.05350409 -0.18227535 -0.12633698 -0.06496786 -0.024935419 -0.15031444 0.028700743
-0.09155233 -0.017276475 -0.08383311 -0.13177592 0.035527937 -0.0030364797 -0.016414387 -0.020277463
-0.06882594 0.14293024 -0.037423253 -0.03727333 -0.19090869 0.055636365 -0.087506555 -0.049276825
-0.049222343 0.044147927 -0.05093784 -0.08408887 0.03890356 0.034751713 -0.050845113 -0.047784936
0.057675786 -0.070992924 0.001656735 0.03486428 -0.057657953 -0.17187901 0.03209816 0.032423493
-0.06913764 0.026092447 -0.015032118 0.086382695 0.017953994 -0.1518099 -0.15786065 0.0024570012
-0.063268535 0.057179317 0.06905474 -0.028412523 -0.01613603 -0.00887821 -0.102150366 -0.09627241
-0.009414629 -0.06678139 -0.05689551 -0.05574682 -0.18133087 0.048338205 -0.09938548 -0.03570841
0.0067987866 -0.032503057 0.06439033 -0.11651505 0.023829862 -0.1827011 0.089722276 -0.096397795
-0.023106912 -0.06344604 0.07915073 0.07655658 -0.0032949266 -0.004621045 0.028960438 -0.06996783
0.07460377 -0.0012998272 -0.0015595183 -0.07361384 0.076241575 -0.103226416 -0.16196613 0.021233367
0.112654805 0.019473102 0.06489039 0.00022221738 0.059964832 -0.18542308 -0.12939197 -0.15522484
-0.024296373 -0.033181164 0.10640819 0.00527179 -0.02237601 -0.11392844 -0.10596286 -0.14988594
0.035453714 0.04733481 0.010052841 -0.1641061 -0.12869754 0.008206437 -0.11754021 -0.05396949
0.028707322 0.03212628 -0.1684102 -0.1466575 -0.09583058 -0.011506884 0.035129417 -0.09662182
-0.10933373 0.037007924 -0.08046459 0.10977659 -0.09886037 0.0057197874 -0.113269955 0.05478207
-0.13070735 -0.13668084 -0.20167364 0.014566491 -0.04103143 0.006805011 -0.0190239 0.012138314
-0.116917476 -0.013858495 -0.0666347 0.10783282 -0.12184524 -0.18084373 -0.057152417 -0.06323671
-0.039707094 -0.08864103 0.020312117 -0.061242975 -0.0382001 -0.0859649 -0.024172598 -0.004153528
-0.06005263 -0.050783727 -0.00952592 -0.111401714 -0.10427223 0.16290624 -0.05104464 -0.07962444
-0.17834298 -0.050064597 -0.024895681 -0.023434436 -0.003677825 0.06700914 -0.073898494 0.030835615
-0.006194947 -0.14255153 0.060554456 0.0856521 0.08691549 -0.07007322 0.0014573765 -0.16388857
0.028405054 -0.07185506 -0.15450032 -0.15947822 -0.13930523 0.169797 -0.054316442 -0.042260103
0.06808772 -0.14157906 -0.04435891 -0.25742543 -0.027414398 -0.012704135 0.007839318 -0.2561307
-0.00545796 -0.024533445 0.063902035 -0.1302467 0.076464646 -0.11702987 -0.05543286 -0.12188117
0.053579997 -0.0578515 -0.039396044 0.090233386 -0.10956003 -0.18295608 -0.09809588 1.9288109e-05
-0.0005745541 -0.0019947586 -0.039664976 0.048344754 -0.16629098 -0.10495117 -0.11769781 -0.2880742
-0.12443889 0.089742474 -0.08083794 -0.14934812 0.026936121 -0.014644961 0.050936915 0.015089198
0.060499903 0.021710299 -0.05749906 -0.11248795 -0.14547722 0.007409755 -0.17417991 -0.038502503
00000000: 0bf3 943d 07e5 9fbd 2e58 38bc e2c8 10be
00000010: 7743 8bbd 4be3 e9bc 721c ef3c 5817 b33d
00000020: 13e3 453d f505 8e3c aaf2 8ebd f7ec d23d
00000030: 1de7 ddbd 537d 0dbe f7de bcbd c21e c2bc
00000040: 47e7 9bbd abaf d13b 2fa2 103e e5fc a3bd
00000050: a589 a63d d7d6 4c3d 75d9 80bc 0afe c6bd
00000060: 4a02 943c 1b27 5bbd 64a6 3abe 7b5e 01be
00000070: df0d 85bd 5d45 ccbc 07ec 19be d21d eb3c
00000080: ca7f bbbd 6587 8dbc b2b0 abbd 44f0 06be
00000090: be85 113d adff 46bb 7777 86bc ec1c a6bc
000000a0: 9df4 8cbd 4e5c 123e 2049 19bd ebab 18bd
000000b0: 917d 43be f5e2 633d a336 b3bd 7fd6 49bd
000000c0: 5e9d 49bd 75d4 343d 32a4 50bd c936 acbd
000000d0: 5759 1f3d d057 0e3d f742 50bd 23ba 43bd
000000e0: 723d 6c3d bd64 91bd cd26 d93a d9cd 0e3d
000000f0: bf2a 6cbd 0d01 30be 5c79 033d 7fce 043d
00000100: 0998 8dbd d4bf d53c 4649 76bc 69e9 b03d
00000110: 4114 933c 0e74 1bbe 39a6 21be a405 213b
00000120: ef92 81bd dc34 6a3d 926c 8d3d 61c1 e8bc
00000130: b52f 84bc e975 11bc 3634 d1bd 782a c5bd
00000140: d13f 1abc aec4 88bd 440b 69bd c756 64bd
00000150: cdae 39be 48fe 453d 9d8a cbbd fb42 12bd
00000160: 5bc8 de3b ed21 05bd 14df 833d 719f eebd
00000170: d836 c33c ff15 3bbe 50c0 b73d 356c c5bd
00000180: b54a bdbc ffef 81bd c719 a23d b2c9 9c3d
00000190: b2ef 57bb 236c 97bb 713e ed3c 4b4b 8fbd
000001a0: ddc9 983d f75e aaba c068 ccba dac2 96bd
000001b0: 8b24 9c3d 5f68 d3bd 73da 25be 99f1 ad3c
000001c0: 90b7 e63d 0e86 9f3c 41e5 843d 0603 6939
000001d0: af9d 753d 8cdf 3dbe 547f 04be 43f3 1ebe
000001e0: 3009 c7bc f9e8 07bd 8aec d93d fbbe ac3b
000001f0: e54d b7bc 5053 e9bd 0e03 d9bd b37b 19be
00000200: ea37 113d 25e2 413d acb4 243c 6e0b 28be
00000210: 4ac9 03be 4b74 063c ecb8 f0bd 1d0f 5dbd
00000220: 9e2b eb3c d996 033d b973 2cbe 622d 16be
00000230: d342 c4bd 5f87 3cbc dde3 0f3d a9e1 c5bd
00000240: 5dea dfbd 9f95 173d 9eca a4bd 8cd2 e03d
00000250: 4e77 cabd 0e6d bb3b 14fa e7bd 2a63 603d
00000260: 26d8 05be 10f6 0bbe 8983 4ebe 4ba8 6e3c
00000270: 9310 28bd 92fc de3b 03d8 9bbc c7df 463c
00000280: 6e72 efbd be0e 63bc c677 88bd 74d7 dc3d
00000290: ff89 f9bd 192f 39be a718 6abd 4082 81bd
000002a0: e8a3 22bd 6e89 b5bd 9965 a63c ead9 7abd
000002b0: b577 1cbd 5e0e b0bd 9d05 c6bc 511a 88bb
000002c0: bff9 75bd 9902 50bd 9b12 1cbc 9526 e4bd
000002d0: ae8c d5bd e5d0 263e 2f14 51bd 2312 a3bd
000002e0: 8b9f 36be 8910 4dbd 07f2 cbbc 93f9 bfbc
000002f0: aa07 71bb 173c 893d 1858 97bd f99a fc3c
00000300: fbfe cabb 07f9 11be f307 783d 5e6a af3d
00000310: c000 b23d 8c82 8fbd 7105 bf3a 68d2 27be
00000320: b7b1 e83c bf28 93bd 5535 1ebe 424e 23be
00000330: 08a6 0ebe 44df 2d3e eb7a 5ebd ee18 2dbd
00000340: 9371 8b3d 1afa 10be b0b1 35bd 44cd 83be
00000350: 2994 e0bc 0125 50bc 7c70 003c 9023 83be
00000360: b0d8 b2bb 5dfa c8bc 12df 823d 645f 05be
00000370: 7f99 9c3d 5bad efbd 910d 63bd d69c f9bd
00000380: b376 5b3d b2f5 6cbd bf5d 21bd 48cc b83d
00000390: 0261 e0bd d758 3bbe 7ee6 c8bd e6cc a137
000003a0: ac9d 16ba 7fba 02bb be77 22bd 2605 463d
000003b0: 2f48 2abe a4f0 d6bd 8d0b f1bd 767e 93be
000003c0: d1d9 febd e7ca b73d 5d8e a5bd b7ee 18be
000003d0: 24a9 dc3c 6bf1 6fbc 3aa3 503d af38 773c
000003e0: bfce 773d ccd9 b13c 2284 6bbd 1560 e6bd
000003f0: fbf7 14be 88cd f23b 385c 32be cdb4 1dbd

network_body._body_endoder.seq_layers.4.bias f4 [256]
-0.030211456 0.04837783 -0.0420398 -0.08956383 -0.065370284 -0.08010033 -0.05021555 -0.074014045
-0.06861212 -0.18075293 -0.060245734 0.021737332 -0.15662116 0.0202273 -0.055963397 -0.07842455
-0.037931167 -0.058814213 -0.06964618 -0.03417238 -0.067815654 -0.14191423 -0.18093422 -0.08923734
-0.04058511 -0.2068285 -0.014122093 -0.14491166 -0.12500371 -0.09502529 -0.09976349 -0.037043195
-0.012231896 -0.012564354 -0.0001243529 -0.025376212 -0.07810034 -0.092961684 -0.07818692 -0.047646336
-0.05098928 -0.11526964 -0.055946685 -0.16835807 -0.049225826 -0.1337335 -0.09273821 -0.09221119
-0.09141569 -0.0108274305 -0.053653993 -0.016857015 -0.018355709 0.016348734 0.099907465 -0.19082828
-0.028505577 0.041713644 -0.13006268 0.041460413 -0.01427922 -0.112409845 0.03788777 -0.09767984
0.06645495 -0.14038053 -0.12177931 -0.08910983 -0.18522896 0.050273858 -0.14418791 -0.016407598
-0.15091227 -0.24162315 -0.0815103 -0.2039468 -0.02023916 -0.09061315 -0.07281681 -0.09223352
-0.032694176 -0.07322787 -0.0888339 -0.1379704 -0.087612085 -0.1438662 0.08895149 -0.07557462
-0.059649434 -0.06484469 -0.09204502 0.028078625 -0.0035207015 -0.04369504 -0.19125694 0.015264851
-0.14991991 -0.024939897 0.035805944 -0.01861746 -0.14753096 -0.06833386 -0.11785905 -0.03225125
-0.17861843 0.008778194 -0.18276854 -0.13501848 -0.08500593 -0.23010387 -0.07284928 -0.00527391
-0.023733543 -0.08728094 -0.042055484 -0.02565649 -0.02983242 -0.0284137 -0.15041906 0.044092245
-0.053841844 -0.05746833 -0.15025295 -0.0838607 -0.015065966 -0.021745633 0.020659043 -0.004630364
-0.0019444192 -0.035592258 -0.06077333 -0.10858221 -0.106079414 -0.1267422 -0.11323931 -0.21300685
-0.099330515 -0.03846135 -0.18822832 -0.038278196 -0.08215966 -0.10858711 -0.07746764 -0.08627749
-0.05553688 -0.14218776 0.07658777 0.01047507 -0.037747 0.027330643 -0.04680377 -0.08192371
-0.022093302 -0.09107685 -0.018631186 -0.122262746 -0.23288661 -0.03691394 -0.23371746 -0.00034501957
-0.072311185 0.04808609 -0.24328318 0.039380446 -0.120899074 -0.122258775 -0.021767205 0.0017951037
-0.07635435 -0.06919735 -0.06740781 -0.15465172 0.06533744 0.034941252 -0.106284976 -0.11613683
-0.08593334 -0.19226041 0.008452593 -0.06650548 -0.099148855 0.0006568728 -0.066081986 -0.15784474
-0.12111239 -0.028175663 -0.055661295 0.008837341 -0.165794 -0.1737205 -0.12448727 -0.06426519
0.022768477 -0.12401768 0.06517915 -0.0696179 -0.14668621 0.026091307 -0.0928553 -0.09091286
-0.06082641 -0.051796332 -0.1482426 -0.027489653 -0.10326892 -0.12204974 -0.04628597 -0.02866965
-0.01808943 0.06422951 -0.15331541 0.012697199 -0.103116214 -0.052171923 -0.090000816 -0.0788582
-0.023242023 -0.06363773 -0.21804997 0.0030445268 -0.01604952 0.0085255345 -0.085137695 -0.1966794
-0.05426743 0.015608347 -0.0065701436 -0.014269592 -0.12569891 -0.06401029 -0.09509678 -0.06958751
-0.03243755 -0.06288742 -0.0035095988 -0.010786298 0.004007825 -0.001028782 -0.112441055 -0.026959399
-0.091216296 -0.044064257 0.0038487033 -0.022405846 -0.038681917 -0.114210285 0.045161568 -0.17580864
-0.018901464 -0.0511096 0.06262926 -0.26665178 -0.10067898 0.01926188 -0.0058640055 -0.06944826
00000000: 047e f7bc d527 463d ed31 2cbd 3e6d b7bd
00000010: dbe0 85bd a40b a4bd d2ae 4dbd ad94 97bd
00000020: 8384 8cbd 4c17 39be 3bc4 76bd 7d12 b23c
00000030: 4c61 20be b9b3 a53c e039 65bd 0d9d a0bd
00000040: b65d 1bbd 2ce7 70bd a8a2 8ebd 56f8 0bbd
00000050: efe2 8abd f751 11be d246 39be 11c2 b6bd
00000060: 933c 26bd daca 53be 5a60 67bc b963 14be
00000070: f900 00be 9f9c c2bd cd50 ccbd 9bba 17bd
00000080: 4a68 48bc b8da 4dbc ba64 02b9 c6e1 cfbc
00000090: 12f3 9fbd b262 bebd 7720 a0bd ce28 43bd
000000a0: 23da 50bd 7d12 ecbd 5a28 65bd 0f66 2cbe
000000b0: 05a1 49bd 6ff1 08be 88ed bdbd 38d9 bcbd
000000c0: 2638 bbbd 8965 31bc 4ac4 5bbd b917 8abc
000000d0: b65e 96bc c8ed 853c 499c cc3d 7d68 43be
000000e0: 8784 e9bc eddb 2a3d 272f 05be 65d2 293d
000000f0: 64f3 69bc 2237 e6bd 3530 1b3d 5e0c c8bd
00000100: 8819 883d eabf 0fbe 6e67 f9bd 377f b6bd
00000110: a9ac 3dbe f6eb 4d3d ffa5 13be 3a69 86bc
00000120: bf88 1abe 0f6c 77be dfee a6bd 6ed7 50be
00000130: 98cc a5bc 6393 b9bd fb20 95bd ede4 bcbd
00000140: 54ea 05bd 7ef8 95bd 8cee b5bd 1d48 0dbe
00000150: f76d b3bd a951 13be 332c b63d dec6 9abd
00000160: f752 74bd 4bcd 84bd 1982 bcbd 2505 e63c
00000170: 92bb 66bb 92f9 32bd dcd8 43be 6d19 7a3c
00000180: 9b84 19be c14e ccbc 41a9 123d a583 98bc
00000190: 5b12 17be 9ff2 8bbd 1660 f1bd e319 04bd
000001a0: c0e7 36be 6ad2 0f3c ad27 3bbe 4942 0abe
000001b0: 9717 aebd 59a0 6bbe 0132 95bd c3d0 acbb
000001c0: d96c c2bc 59c0 b2bd 5f42 2cbd 8f2d d2bc
000001d0: 1f63 f4bc d9c3 e8bc 7407 1abe 129a 343d
000001e0: 4489 5cbd e963 6bbd e9db 19be 29bf abbd
000001f0: 3ed7 76bc e623 b2bc 273d a93c 4fba 97bb
00000200: e2db feba 30c9 11bd 75ed 78bd 5a60 debd
00000210: 2a40 d9bd b5c8 01be 03ea e7bd 781e 5abe
00000220: cc6d cbbd a689 1dbd edbe 40be 99c9 1cbd
00000230: 5343 a8bd eb62 debd 5ba7 9ebd 41b2 b0bd
00000240: a47a 63bd ab99 11be 0cda 9c3d a19f 2b3c
00000250: 999c 1abd 83e4 df3c 4fb5 3fbd 9ec7 a7bd
00000260: 03fd b4bc 8086 babd 6ea0 98bc e464 fabd
00000270: d479 6ebe 1233 17bd a153 6fbe bee3 b4b9
00000280: e317 94bd ebf5 443d 3a1f 79be 644d 213d
00000290: ef99 f7bd cf62 fabd 2351 b2bc af49 eb3a
000002a0: ab5f 9cbd 57b7 8dbd 1b0d 8abd 055d 1ebe
000002b0: a3cf 853d 8f1e 0f3d f0ab d9bd 25d9 edbd
000002c0: d2fd afbd eadf 44be bf7c 0a3c 0634 88bd
000002d0: 8e0e cbbd fd31 2c3a fe55 87bd 0da2 21be
000002e0: c609 f8bd a6d0 e6bc 19fd 63bd 7fca 103c
000002f0: e7c5 29be c9e3 31be 2ff3 febd 789d 83bd
00000300: f584 ba3c fbfc fdbd a57c 853d d493 8ebd
00000310: e934 16be 70bd d53c eb2a bebd 8630 babd
00000320: 1d25 79bd 6428 54bd e8cc 17be fb31 e1bc
00000330: a87e d3bd 37f5 f9bd 5b96 3dbd 9ddc eabc
00000340: 4930 94bc c38a 833d b7fe 1cbe ea07 503c
00000350: 982e d3bd 3ab2 55bd 5952 b8bd 6880 a1bd
00000360: 0e66 bebc 8054 82bd 7e48 5fbe af86 473b
00000370: 487a 83bc afae 0b3c ac5c aebd 5366 49be
00000380: 8647 5ebd 27ba 7f3c 5c4a d7bb 02cb 69bc
00000390: 37b7 00be d417 83bd 1ac2 c2bd e583 8ebd
000003a0: 3ddd 04bd 1fcb 80bd 4c01 66bb 03b9 30bc
000003b0: 1354 833b 32d8 86ba 7f47 e6bd f5d9 dcbc
000003c0: 9ccf babd b97c 34bd 873a 7c3b 778c b7bc
000003d0: ee70 1ebd 15e7 e9bd 56fb 383d 2e07 34be
000003e0: 3ed7 9abc 4d58 51bd c543 803d 9586 88be
000003f0: c830 cebd 17cb 9d3c d826 c0bb e43a 8ebd

network_body._body_endoder.seq_layers.4.weight f4 [256, 256]
0.046280947 -0.057072252 -0.1891371 -0.070370965 0.0499634 0.18739206 -0.12040708 -0.052728772
-0.12886694 -0.17140186 0.041684505 -0.12982148 0.18306705 0.1556529 -0.02044186 0.14279594
0.047191333 -0.08665511 -0.059706666 0.14351931 0.025630403 -0.007865833 -0.043621544 0.04523578
0.09017784 0.10026579 0.09037379 -0.014897024 -0.10801053 0.38278916 -0.07836367 -0.13909964
-0.009721202 -0.022790132 -0.0028546448 0.09420083 0.13647968 0.044168234 0.011228087 0.118399024
0.09225166 -0.005922022 0.047033545 -0.055685144 0.113750584 0.020435896 0.21839298 -0.01666948
0.09202417 -0.049044993 -0.05097531 -0.093211554 -0.32292983 -0.03997829 -0.14748351 -0.033840775
0.021202376 0.15013403 0.19243348 0.05824534 0.08011657 0.06842499 0.014634046 -0.017325195
-0.3365351 0.11075164 -0.02156021 0.07354622 0.05463159 0.03530214 -0.057526276 -0.04224852
0.15056404 -0.080377646 -0.2982476 0.046752404 0.0020321046 -0.04954942 0.15092142 -0.009328518
-0.016924834 0.008470313 -0.005279232 0.0061081164 0.003857661 -0.0028286492 -0.04796367 -0.0005042611
-0.09463264 0.035265133 -0.26586494 -0.03544241 0.21969503 -0.17943278 0.1268328 -0.0094473595
-0.16839118 -0.059442587 0.07570581 -0.11647686 0.077724144 0.122421764 -0.022986485 0.063190155
0.08522384 -0.10359698 0.003774885 -0.038949706 -0.013276729 -0.08297363 -0.27064615 -0.10211135
0.003835936 0.029157817 0.14343283 -0.021453528 0.12624118 -0.09858309 0.22861639 -0.11490434
0.00095799397 -0.079562865 -0.0686335 -0.037002888 -0.19188522 0.033060234 0.016843164 -0.05472241
0.0668669 0.0009213731 -0.053737003 -0.07984212 -0.04756061 0.10834232 0.05788905 0.18859644
-0.0056059402 0.09361146 -0.16100863 -0.018943736 -0.05175193 -0.073420934 -0.04298406 0.13834122
-0.049569875 -0.10046064 0.09393741 -0.043968365 -0.07739583 0.099363096 0.015530962 0.06738108
0.084522255 -0.062175654 -0.006176155 0.038868055 0.05246518 -0.12071018 -0.065280475 0.23824792
0.15216506 0.0022430501 -0.024302932 0.064970404 0.17347936 0.10753645 0.19537777 -0.08219259
-0.012425185 0.036832303 -0.023664782 0.04955164 -0.09699089 0.027373778 0.121804126 0.1291407
-0.13506754 0.020639587 -0.06107976 -0.07546048 0.16241138 0.027654465 0.10240249 0.014532151
-0.01598205 -0.12976055 -0.020417327 0.06529221 -0.052547477 -0.095874794 0.12250649 0.02773724
0.10392741 -0.10486054 -0.029173253 0.04723919 -0.06165727 -0.08938976 -0.10127237 0.15979792
0.06532702 -0.016981674 0.23994799 0.1769782 0.19525976 0.016653499 -0.03377764 -0.07291577
-0.044433076 0.14901742 -0.012300329 -0.12819548 -0.21074387 0.06850091 0.18725719 0.14542408
0.047952596 -0.010885351 -0.09460479 0.2262371 0.0629603 -0.009590313 -0.00082577474 0.03400408
0.15942447 -0.008557181 -0.056527678 0.22930917 -0.009422299 -0.050673034 0.09664117 -0.024377132
-0.07029818 -0.044882815 -0.26936188 0.06030323 0.053999495 0.2151166 -0.02045465 -0.10469588
-0.045920003 -0.04528304 0.005416647 -0.17079614 -0.018859837 -0.10434207 -0.07103322 -0.049381725
-0.028924147 -0.014444509 -0.13054754 0.1433397 0.06892306 -0.048768565 0.04840126 -0.004515224
00000000: 1791 3d3d 98c4 69bd 28ad 41be a71e 90bd
00000010: 6ca6 4c3d b4e3 3f3e fd97 f6bd 20fa 57bd
00000020: b2f5 03be f883 2fbe 5fbd 2a3d ecef 04be
00000030: ee75 3b3e 7963 1f3e b075 a7bc 1939 123e
00000040: b34b 413d 3c78 b1bd fa8e 74bd baf6 123e
00000050: daf6 d13c b2df 00bc 81ac 32bd 2749 393d
00000060: 29af b83d 2758 cd3d e515 b93d a612 74bc
00000070: a034 ddbd f1fc c33e 227d a0bd 2370 0ebe
00000080: ad45 1fbc 5fb2 babc fe14 3bbb 5dec c03d
00000090: 54c1 0b3e c0e9 343d 03f6 373c 307b f23d
000000a0: 70ee bc3d 850d c2bb 3fa6 403d 1b16 64bd
000000b0: 11f6 e83d 2e69 a73c 69a2 5f3e 6f8e 88bc
000000c0: 2b77 bc3d 67e3 48bd 7dcb 50bd b3e5 bebd
000000d0: 0f57 a5be 47c0 23bd eb05 17be a09c 0abd
000000e0: 9bb0 ad3c bcbc 193e 480d 453e aa92 6e3d
000000f0: 2814 a43d 6722 8c3d a3c3 6f3c 91ed 8dbc
00000100: 544e acbe c1d1 e23d 0a9f b0bc 679f 963d
00000110: 60c5 5f3d fa98 103d aca0 6bbd c90c 2dbd
00000120: 762d 1a3e 099d a4bd e9b3 98be 737f 3f3d
00000130: 0f2d 053b 55f4 4abd 258b 1a3e a4d6 18bc
00000140: f3a5 8abc 11c7 0a3c 68fd acbb 9826 c83b
00000150: d0d0 7c3b dc60 39bb 8e75 44bd 6430 04ba
00000160: c2ce c1bd 2c72 103d 731f 88be 0f2c 11bd
00000170: bcf7 603e 3abd 37be 75e0 013e 19c9 1abc
00000180: bd6e 2cbe 127a 73bd a60b 9b3d 6c8b eebd
00000190: d62d 9f3d 43b8 fa3d 274e bcbc d769 813d
000001a0: d689 ae3d a72a d4bd 1064 773b ba89 1fbd
000001b0: a386 59bc 14ee a9bd 2292 8abe c11f d1bd
000001c0: 5464 7b3b 60dc ee3c 0ee0 123e 4fbf afbc
000001d0: 5e45 013e eee5 c9bd 6a1a 6a3e f752 ebbd
000001e0: e321 7b3a dbf1 a2bd b88f 8cbd 5790 17bd
000001f0: 8f7d 44be 2b6a 073d adfa 893c 9b24 60bd
00000200: 83f1 883d 4d88 713a 551b 5cbd 4484 a3bd
00000210: eace 42bd 94e2 dd3d 121d 6d3d 6d1f 413e
00000220: 09b2 b7bb 5db7 bf3d 72df 24be e52f 9bbc
00000230: d5f9 53bd b75d 96bd 0e10 30bd 52a9 0d3e
00000240: c809 4bbd 4fbe cdbd 4262 c03d 2c18 34bd
00000250: b481 9ebd e17e cb3d 9375 7e3c 17ff 893d
00000260: 011a ad3d e6ab 7ebd 5861 cabb 1c34 1f3d
00000270: bbe5 563d e636 f7bd c5b1 85bd 43f7 733e
00000280: 28d1 1b3e 2300 133b f116 c7bc 340f 853d
00000290: 93a4 313e 123c dc3d 1c11 483e 9754 a8bd
000002a0: 0193 4bbc 78dd 163d a5dc c1bc a9f6 4a3d
000002b0: 29a3 c6bd f93e e03c 7174 f93d 763d 043e
000002c0: 254f 0abe 5a14 a93c c52e 7abd 068b 9abd
000002d0: 2b4f 263e 9e8b e23c 66b8 d13d 4218 6e3c
000002e0: caec 82bc f3df 04be 3d42 a7bc ecb7 853d
000002f0: 063c 57bd 015a c4bd afe4 fa3d 3539 e33c
00000300: e5d7 d43d 1fc1 d6bd bffc eebc e27d 413d
00000310: 558c 7cbd fa11 b7bd e367 cfbd 11a2 233e
00000320: 2cca 853d 271d 8bbc edb4 753e c639 353e
00000330: 2df2 473e eb6c 883c 6c5a 0abd dd54 95bd
00000340: 75ff 35bd 0698 183e 5287 49bc ad45 03be
00000350: 3ecd 57be 354a 8c3d 59c0 3f3e 0dea 143e
00000360: f169 443d 7958 32bc 28c0 c1bd b3aa 673e
00000370: 54f1 803d b020 1dbc ce78 58ba dd47 0b3d
00000380: 2b40 233e 6b33 0cbc 9189 67bd 06d0 6a3e
00000390: fd5f 1abc 878e 4fbd ceeb c53d 8db2 c7bc
000003a0: 7ef8 8fbd 0bd7 37bd cde9 89be 8500 773d
000003b0: 932e 5d3d 8747 5c3e 8390 a7bc cb6a d6bd
000003c0: 9d16 3cbd b57a 39bd 217e b13b 2fe5 2ebe
000003d0: f27f 9abc 4cb1 d5bd dd79 91bd 7e44 4abd
000003e0: 55f2 ecbc a9a8 6cbc 41ae 05be a4c7 123e
000003f0: 8927 8d3d 8cc1 47bd 6640 463d 72f4 93bb
