results/Drone3/Drone/Drone-22999976.onnx (onnx, 810629 bytes, 11 tensors)

action_model._continuous_distribution.log_sigma f4 [1, 4]
0	0xbfd30537	-1.6485966
1	0xbfd33c80	-1.6502838
2	0xbfc63ce8	-1.5487337
3	0xbfb79a7b	-1.4344019

action_model._continuous_distribution.mu.bias f4 [4]
0	0x3ddda907	0.10823255
1	0x3d05323b	0.032518607
2	0x3df783d9	0.12085695
3	0x3cb123d2	0.021623526

action_model._continuous_distribution.mu.weight f4 [4, 256]
0	0xbbf7157f	-0.0075404043
1	0xbd15cf37	-0.03657457
2	0xbd19c05e	-0.03753697
3	0xbd397ac1	-0.045283083
4	0xbd9985f5	-0.074962534
5	0xbb178daf	-0.0023125221
6	0xbd2edc32	-0.042690463
7	0xbd1ab050	-0.0377658
8	0xbc67996b	-0.014135699
9	0x3d6a7130	0.05723685
10	0xbd36bfb4	-0.044616416
11	0xbd5815ff	-0.052755352
12	0x3d274ff5	0.040847737
13	0xbd6de467	-0.05807915
14	0xbd6ec0cf	-0.058289345
15	0xbd300c3f	-0.04298043
16	0xbd12be47	-0.035825994
17	0x3ca0d107	0.019630922
18	0x3d3c510e	0.045975737
19	0x3b501e8f	0.0031756496
20	0x3c0601ef	0.008179172
21	0x3c833f28	0.016021326
22	0xbd075062	-0.033035643
23	0xbd0bee9f	-0.034163114
24	0x3c2caa66	0.010538673
25	0x3add5a54	0.0016887882
26	0xbd84902f	-0.06472813
27	0xbd255175	-0.040360887
28	0x3ca12d59	0.019674944
29	0xbc11beb4	-0.008895565
30	0xbcce09f6	-0.025151234
31	0xbc1e2b6a	-0.009653905
32	0x3bef9655	0.007311622
33	0x3d9b234e	0.07575093
34	0xbdb89597	-0.09012907
35	0xbd0fb621	-0.0350858
36	0x3ced144d	0.028940344
37	0x3bf776f7	0.0075520235
38	0x3c997a6e	0.018735137
39	0xbd2ef984	-0.042718425
40	0xbc339faf	-0.0109633645
41	0xbd8ded1b	-0.0692999
42	0x3c4aa685	0.012368803
43	0xbce64239	-0.02810775
44	0xbdb8593b	-0.09001394
45	0xbd8d07bf	-0.06886243
46	0x3d0e0e42	0.034681566
47	0xbde56965	-0.11201743
48	0x3ce4e4e0	0.027941167
49	0xbb3110c2	-0.0027018045
50	0xbdbd3270	-0.09238136
51	0xbbc22256	-0.0059245033
52	0x3d168a6a	0.036753096
53	0x3c76d6de	0.015065877
54	0xbc58255c	-0.013192501
55	0xbdc970c8	-0.098359644
56	0xbd895dbd	-0.06707332
57	0xbd9c0628	-0.07618362
58	0xbdedfd9c	-0.11620638
59	0x3b8560ee	0.004070393
60	0x3cf30046	0.029663216
61	0xbd26e9e1	-0.040750388
62	0x3d82eb55	0.06392542
63	0x3d11c689	0.03558973
64	0xbc96288e	-0.018329885
65	0xbce7de5d	-0.028304273
66	0xbcaa210f	-0.020767717
67	0xbd023aaa	-0.031794228
68	0x3d2d8ecc	0.04237251
69	0x3d16ca2d	0.036813904
70	0x3b7311a1	0.0037089365
71	0xbc12af83	-0.008952978
72	0xbcd348be	-0.025791522
73	0xbbdd9a3f	-0.0067627723
74	0x3d4492f0	0.047991693
75	0xbcb14e2d	-0.021643722
76	0x3d3d9388	0.046283275
77	0xbdbf2a21	-0.09334207
78	0xbd3f3357	-0.04667982
79	0x3c8c0153	0.017090475
80	0x3cb1cbd4	0.021703638
81	0xbd72dff6	-0.059295617
82	0xbd50cc2e	-0.05097597
83	0xbcc9d81f	-0.024639187
84	0xbba9faa6	-0.0051873503
85	0xbc0ad652	-0.0084739495
86	0x3d12ba08	0.035821944
87	0x3d3dbebc	0.046324477
88	0xbda1c37d	-0.078986146
89	0xbd8b033f	-0.067877285
90	0x3c20463a	0.009782368
91	0xbc5c3186	-0.013439542
92	0x3d435c11	0.047695223
93	0x3b9c47d4	0.004769305
94	0xbc91b08c	-0.01778438
95	0xbdfb7d7a	-0.12279792
96	0xbd3eaa5a	-0.04654918
97	0x3d1c25fb	0.03812216
98	0xbcebb778	-0.028774008
99	0xbc8d9cd3	-0.017286694
100	0xba5a34e2	-0.000832392
101	0xbd8aeffe	-0.06784056
102	0x3c9ec61f	0.01938158
103	0xbd758c1a	-0.059948064
104	0xbbd439e9	-0.00647663
105	0x3cc09a64	0.02351112
106	0x3c41994a	0.011816332
107	0x3c9d37a6	0.019191574
108	0xbd89e645	-0.067333736
109	0x3c987f0e	0.018615272
110	0xbd4ec918	-0.050484747
111	0xbd71ec80	-0.059063435
112	0x3d9b278c	0.07575902
113	0xbd06b0a7	-0.032883313
114	0xbd313ab5	-0.043268878
115	0x3c066738	0.00820332
116	0x3cc89383	0.024484402
117	0xbd3e4b84	-0.046458736
118	0xbd88da7d	-0.06682298
119	0xbd0d2a91	-0.034464423
120	0xbd4adf29	-0.04952923
121	0xbcf060cd	-0.029343033
122	0xbceb7bc4	-0.02874554
123	0xbc9529bb	-0.018208375
124	0xbd7dc3be	-0.061954252
125	0xbc16b5bf	-0.009198605
126	0xbccbaae8	-0.024861768
127	0xbd85d612	-0.06534971
128	0xbdfb0f3e	-0.122587666
129	0xbcbe4433	-0.02322588
130	0xbd556177	-0.052094903
131	0xbc754a6a	-0.014971355
132	0xbdaaa5d1	-0.08332408
133	0x3d136c8a	0.035992183
134	0xbdb3d20b	-0.08780297
135	0xbd752595	-0.059850294
136	0x3ce53d84	0.027983434
137	0xbd27ed6b	-0.040997904
138	0x3d7ca6e0	0.061682582
139	0xbdd61794	-0.10453716
140	0xbdc212a1	-0.094762094
141	0xbc2bfee0	-0.010497779
142	0xbb89c2ae	-0.004204116
143	0x3d997d64	0.074946195
144	0x3c4c52ec	0.012470942
145	0xbd05a1cd	-0.03262501
146	0xbd8e6322	-0.06952502
147	0xbc0f642d	-0.008751911
148	0xbda6ff5b	-0.08154174
149	0xbd4b79ab	-0.04967658
150	0xbccd7ee0	-0.025084913
151	0x3aab7b7b	0.0013083065
152	0xbd3a0480	-0.045414448
153	0x3b9d7ff1	0.0048065116
154	0xbc2e63b8	-0.010643892
155	0x3c7c14f2	0.015385853
156	0xbcf48566	-0.029848766
157	0x3c6d2745	0.014474695
158	0x3d39c0e8	0.045349985
159	0xbd8ab27c	-0.067723244
160	0xbe041e7e	-0.12902257
161	0x3d9bd792	0.07609476
162	0xbc4efa51	-0.012632922
163	0xbd4d13d5	-0.05006774
164	0xbca7b12e	-0.020470228
165	0xbc652702	-0.013986351
166	0x3cf996d3	0.030467426
167	0x3cebd640	0.028788686
168	0xbd8c2663	-0.06843259
169	0xbd66e35b	-0.056369167
170	0xbb8ede06	-0.0043599633
171	0xbd003568	-0.031300932
172	0x3dba0fc4	0.09085038
173	0x3cb54dbd	0.022131795
174	0x3b652ccf	0.0034969335
175	0x3da03372	0.078223124
176	0xbd10bbb7	-0.03533527
177	0x3bc33bc7	0.0059580537
178	0xbc40eb92	-0.011774914
179	0x3bf908e9	0.007599939
180	0x3cc2afa4	0.023765393
181	0x3d4d54ce	0.050129704
182	0x3c7d9dca	0.015479514
183	0xbcfa52d7	-0.03055708
184	0x3c97d432	0.0185338
185	0xbd2f43c2	-0.04278923
186	0x3c4edd93	0.01262607
187	0xbd1e616d	-0.03866713
188	0xbccc16b0	-0.024913162
189	0x3ca9b279	0.020714985
190	0x3c87573a	0.016521085
191	0xbd0b928a	-0.034075297
192	0xbdaa2e91	-0.08309663
193	0x3c840cc7	0.016119374
194	0x3d0eba0a	0.03484539
195	0xbdbb3b81	-0.09142209
196	0xbd347771	-0.04405922
197	0x3d109079	0.03529403
198	0xbd913bcd	-0.07091484
199	0x3a4c6b44	0.0007797966
200	0xbdad54d4	-0.08463445
201	0xbb7c27c5	-0.0038475853
202	0x3d2358c7	0.039879587
203	0xbd7078eb	-0.058709066
204	0xbc89faff	-0.016843317
205	0xbc81caae	-0.015843716
206	0xbc84af26	-0.016196799
207	0x396fef58	0.00022881979
208	0x3bd14e9c	0.006387545
209	0xbd411940	-0.04714322
210	0xbd955082	-0.07290746
211	0xbc621ca4	-0.013800774
212	0x3c9d3a75	0.019192914
213	0xbd0f55cc	-0.03499393
214	0xbd45d884	-0.04830219
215	0xbcacbbf6	-0.02108572
216	0xbcfdcba2	-0.030980889
217	0x3d33e3f6	0.043918572
218	0xbb584316	-0.003299897
219	0x3d290bea	0.041271128
220	0xbc600af8	-0.01367449
221	0xbb5f15ec	-0.0034040166
222	0xbca87df0	-0.020567864
223	0xbcb8a697	-0.022540374
224	0xbd929aac	-0.071584076
225	0xbd178676	-0.036993466
226	0xbd8352dd	-0.06412289
227	0xbd185c19	-0.037197206
228	0xbc591481	-0.013249517
229	0xbd0a106a	-0.03370706
230	0x3d05e0ee	0.032685213
231	0x3db59428	0.08866149
232	0xbd8abb18	-0.067739666
233	0xbc70e40b	-0.014702807
234	0x3c79ff17	0.015258572
235	0x3c7f7d73	0.015593874
236	0xbd29590b	-0.041344684
237	0x3cdb92fe	0.02680349
238	0xbd413782	-0.047172077
239	0xbcc62dff	-0.024191855
240	0x3d3fd30e	0.046832137
241	0x3c9ee19b	0.019394686
242	0xbcaf309a	-0.02138548
243	0x3cd0f0db	0.025505474
244	0x3cb73c87	0.022367729
245	0x3ccde7e8	0.025134996
246	0xbbb0de5b	-0.0053976006
247	0xbc561bae	-0.013068123
248	0xbc2d4710	-0.010576025
249	0xbc756a70	-0.01497899
250	0xbd5bbbc0	-0.05364585
251	0xb9c0f2b0	-0.0003680191
252	0xbc8ba610	-0.017046958
253	0xbd0cb239	-0.034349654
254	0xbd5e0cb8	-0.05421135
255	0xbdbfc3e9	-0.09363539

network_body._body_endoder.seq_layers.0.bias f4 [256]
0	0x3e080497	0.13283001
1	0xbe09eeaf	-0.13469957
2	0x3e14fb97	0.14549099
3	0xbd41ed53	-0.04734547
4	0xbe6cdf2a	-0.23132005
5	0xbdd3ca5e	-0.10341333
6	0xbde922f8	-0.11383623
7	0xbe02ac8c	-0.12761134
8	0xbe5a165e	-0.21297595
9	0xbd142be9	-0.03617469
10	0xbde762d8	-0.1129815
11	0xbe0b4f7f	-0.13604544
12	0xbc197a32	-0.009367513
13	0xbe297395	-0.16547997
14	0xbd059437	-0.03261205
15	0x3d0cdb4e	0.034388833
16	0x3dd0dc0a	0.10198219
17	0xbe0fb6f7	-0.1403464
18	0xbd1d8fbf	-0.038467165
19	0xbe68d5c5	-0.22737797
20	0xbcb23857	-0.02175538
21	0xbdf93599	-0.12168426
22	0xbdc20f86	-0.09475617
23	0xbe36f502	-0.178669
24	0xbd75109f	-0.059830304
25	0xbd56c1d0	-0.052430928
26	0xbdfeb31f	-0.124365084
27	0xbd747e22	-0.059690602
28	0xbdbdbcee	-0.09264551
29	0xbea6a8bb	-0.32550606
30	0xbb43059c	-0.0029757982
31	0xbda0e6bb	-0.07856508
32	0xbd96eb95	-0.073691525
33	0xbe053546	-0.13008603
34	0xbe0bad6e	-0.13640377
35	0xbe27378d	-0.16329785
36	0xbe277141	-0.16351797
37	0xbe3314c7	-0.17488395
38	0xbe2e1893	-0.17001562
39	0xbe299194	-0.1655944
40	0xbd1bfaa2	-0.03808082
41	0xbe3d48df	-0.1848483
42	0xbd7b344a	-0.061329164
43	0x3ce2a3b4	0.02766595
44	0xbe213fe9	-0.15747036
45	0xbe0d40f6	-0.13794312
46	0x3cb15382	0.021646265
47	0xbe16e823	-0.1473699
48	0x3daf5c27	0.085624985
49	0xbd69b0ea	-0.057053484
50	0xbe293bde	-0.16526744
51	0xbe58cef8	-0.21172702
52	0xbdc6ad8f	-0.097010724
53	0x3cc46905	0.023975858
54	0xbd6a5888	-0.057213336
55	0xbe804dc9	-0.25059345
56	0xbe295c67	-0.16539155
57	0xbe35d879	-0.17758359
58	0xbd1f2fa3	-0.03886379
59	0xbddebafe	-0.1087551
60	0xbe860043	-0.26172075
61	0xbdf21ee1	-0.11822296
62	0xbe2e190c	-0.17001742
63	0xbe145577	-0.14485727
64	0xbdf388ea	-0.11891349
65	0xbe005ef4	-0.12536222
66	0xbe303343	-0.17207055
67	0x3ca60388	0.020265356
68	0xbe106a3d	-0.14103027
69	0xbdb2ea83	-0.08736136
70	0xbd56d550	-0.052449524
71	0xbdfb13b3	-0.12259617
72	0xbda8d0f0	-0.08242977
73	0xbc024e30	-0.007953212
74	0xbe280d10	-0.16411233
75	0xbce2da21	-0.027691903
76	0xbdd8268f	-0.105542295
77	0xbd7d21b5	-0.061799724
78	0xbe220fb5	-0.15826304
79	0xbe7d4b7f	-0.2473583
80	0xbdd2df70	-0.102965236
81	0x3d2adbe4	0.04171361
82	0xbd7904b6	-0.06079551
83	0x3dec8cb5	0.11550275
84	0xbdb70d8c	-0.08938131
85	0xbe841efc	-0.2580489
86	0xbe620961	-0.2207389
87	0xbe182503	-0.14857869
88	0xbe37e187	-0.17957126
89	0xbde4ace4	-0.11165789
90	0xbe2c2c7c	-0.16813844
91	0xbdce5d70	-0.100764155
92	0x3e1fde7c	0.15612215
93	0x3d56b9ba	0.052423216
94	0x3d0defcc	0.034652516
95	0xbeb04881	-0.34430316
96	0xbe2df957	-0.16989647
97	0xbe21de45	-0.15807445
98	0xbdbb5633	-0.091473006
99	0x3d622cc8	0.055218488
100	0xbc746b29	-0.014918127
101	0xbe3669d7	-0.17813812
102	0xbe030a4c	-0.12796897
103	0xbe5238db	-0.20529501
104	0xb98d38f3	-0.00026936046
105	0xbe0dff02	-0.13866809
106	0xbdc5c2c5	-0.0965629
107	0x3e223ea4	0.15844208
108	0xbc26e21b	-0.010185744
109	0xbc9c8b84	-0.019109495
110	0xbd496f1e	-0.049178235
111	0xbdd5ecd7	-0.10445564
112	0xbd90ee12	-0.07076658
113	0x3da4f967	0.08055382
114	0x3d771aed	0.060328413
115	0xbe6f55b3	-0.23372535
116	0xbe3dacb9	-0.1852292
117	0xbd2b2f27	-0.041793015
118	0xbe880cd5	-0.2657229
119	0xbe646115	-0.22302659
120	0xbd8bca85	-0.06825737
121	0xbe0f0c6f	-0.13969587
122	0xbe1fb157	-0.15594994
123	0xbdf8c14b	-0.12146243
124	0xbdc40069	-0.09570391
125	0xbbff2652	-0.0077865506
126	0xbde61151	-0.112337716
127	0xbdc67c71	-0.09691704
128	0x3d85a06d	0.065247394
129	0xbd92b69b	-0.071637355
130	0xbd5cdaf7	-0.05391976
131	0xbd2fec9f	-0.04295027
132	0x3c66b4f4	0.0140812285
133	0xbddf3e46	-0.109005496
134	0x3da78018	0.08178729
135	0xbde95ffa	-0.11395259
136	0x3dabce78	0.0838899
137	0xbe65b72c	-0.22433156
138	0xbe0c5972	-0.13705996
139	0xbbf7639d	-0.0075497166
140	0xbe02fac2	-0.12790969
141	0x3de84ccc	0.11342773
142	0xbd448259	-0.04797587
143	0xbe1f93a4	-0.15583664
144	0xbdcd0cf0	-0.10012233
145	0xbc886de6	-0.016653966
146	0xbe438fda	-0.19097844
147	0xbe7f98f9	-0.24960698
148	0xbd31a191	-0.043366972
149	0xbdddf661	-0.10838009
150	0x3b89792a	0.004195352
151	0xbafab82e	-0.0019128376
152	0x3d3d868b	0.04627089
153	0x3d219ad6	0.039454304
154	0xbc2475d8	-0.010037862
155	0x3d6cbfa4	0.05779995
156	0xb90340de	-0.00012517298
157	0xbdfd6830	-0.12373388
158	0xbdb42a58	-0.08797139
159	0xbd423083	-0.047409546
160	0x3d72b0a2	0.05925048
161	0x3e22c861	0.15896751
162	0xbd3e2f11	-0.046431605
163	0x3ca8cabd	0.020604486
164	0xbd87284f	-0.06599485
165	0xbc9db4a8	-0.019251183
166	0xbd889375	-0.0666875
167	0xba533e3b	-0.00080582843
168	0xbd875b30	-0.066091895
169	0xbc349fa5	-0.01102439
170	0xbe1343e4	-0.14381367
171	0xbdbeae13	-0.09310546
172	0xbccfec07	-0.025381101
173	0xbd626031	-0.055267517
174	0x3c9ef4f5	0.019403914
175	0xbd5cc512	-0.05389888
176	0xbde16f99	-0.11007614
177	0xbe6166ad	-0.22011824
178	0x3bf833ae	0.00757452
179	0xbe6876b3	-0.2270153
180	0xbe75d92e	-0.24008629
181	0xbc802125	-0.015640805
182	0xbd2e0f3a	-0.04249499
183	0xbdedc4f9	-0.11609835
184	0xbe6d37e6	-0.23165855
185	0x3d4aa74f	0.049475964
186	0xbdf612fe	-0.12015341
187	0xbcb2b374	-0.021814086
188	0xbe375842	-0.17904761
189	0x3e180d5b	0.14848845
190	0xbe13a844	-0.14419657
191	0x3a9670df	0.001147773
192	0xbd9b8e9f	-0.07595562
193	0x3ca468eb	0.02006956
194	0xbd99ac8d	-0.075036146
195	0xbd62fdc7	-0.055417802
196	0xbe246dd5	-0.16057523
197	0xbc85bef6	-0.016326409
198	0xbddea669	-0.10871584
199	0xbd03ca32	-0.03217525
200	0x3cbae213	0.022812879
201	0x3d880211	0.06641019
202	0xbdf15c5c	-0.11785194
203	0xbe24e2cd	-0.16102143
204	0xbdc817b1	-0.09770144
205	0xbe0b3d1e	-0.13597533
206	0xbda72536	-0.08161394
207	0xbe409a66	-0.18808898
208	0xbdafcda9	-0.085841484
209	0xbd70995e	-0.058740012
210	0x3c756bd8	0.014979325
211	0x3b60a166	0.0034275888
212	0xbe0fa3c8	-0.14027321
213	0xbca5c37b	-0.020234814
214	0xbe03a728	-0.12856734
215	0xbe3edce0	-0.18638945
216	0x3b342130	0.0027485602
217	0x3d2cf707	0.04222777
218	0xbe0720bd	-0.13196082
219	0xbe0eedeb	-0.13957946
220	0xbe95b9ae	-0.29243225
221	0xbd9cd8c7	-0.076585345
222	0x3db52b1c	0.08846113
223	0xbadf9918	-0.0017059175
224	0xbde61ba4	-0.11235741
225	0xbdece83a	-0.11567731
226	0xbd95553e	-0.07291649
227	0xbe3977c4	-0.18112093
228	0xbe160145	-0.14648922
229	0xbcd72013	-0.026260411
230	0x3e0d737d	0.13813587
231	0x3d1a9508	0.037739784
232	0xbe1dd820	-0.15414476
233	0xbe0a35b5	-0.1349705
234	0xbd8956d6	-0.06706016
235	0xbd3f523f	-0.046709295
236	0x3c8d58e5	0.017254302
237	0xbdc7d597	-0.09757536
238	0xbe01e184	-0.12683684
239	0x3dbcb291	0.09213746
240	0xbdb3975c	-0.08769104
241	0x3df02cef	0.117273204
242	0x3bdf4887	0.006814066
243	0xbdbb2bae	-0.091391906
244	0xbd138996	-0.036019884
245	0xbe303926	-0.172093
246	0xbe1ecb12	-0.15507153
247	0xbd8bea4b	-0.06831797
248	0xbd97174c	-0.073774904
249	0xbe087c94	-0.13328773
250	0xbe21fab8	-0.15818298
251	0xbcac0423	-0.020998066
252	0x3d49d590	0.049275935
253	0xbe0f3f29	-0.13988937
254	0x3cd4e685	0.025988827
255	0xbdfed2bf	-0.124425404

network_body._body_endoder.seq_layers.0.weight f4 [256, 13]
0	0x3e85dcfa	0.26145154
1	0xbe494d87	-0.1965848
2	0xbe4ce1f8	-0.20008075
3	0xbd8bf5c1	-0.06833983
4	0x3e3b2218	0.18274724
5	0x3e5c969e	0.21541831
6	0x3f6dcf17	0.9289412
7	0xbe62f54d	-0.22163887
8	0xbfa3e94e	-1.2805574
9	0x3f8692dd	1.0513569
10	0xbe5ae879	-0.21377744
11	0xbda58311	-0.080816396
12	0x3f148a78	0.58023787
13	0x3e031a2d	0.12802954
14	0x3e484315	0.1955684
15	0x3de7ef85	0.113249816
16	0xbe372d73	-0.17888431
17	0xbd6f83e0	-0.058475375
18	0xbccbe3f8	-0.024888977
19	0x3eaf0690	0.34184694
20	0xbd726551	-0.059178654
21	0xbeaf4935	-0.3423554
22	0x3ca0ac57	0.019613428
23	0x3e1c000a	0.1523439
24	0xbcdfe018	-0.027328536
25	0x3f20ab76	0.6276163
26	0x3b0c3a2e	0.0021396982
27	0x3dedf3a7	0.116187386
28	0xbed2833f	-0.41115758
29	0xbd5f5f67	-0.054534342
30	0xbcbeff6b	-0.023315152
31	0x3dd3783e	0.10325669
32	0x401b7e9c	2.4296026
33	0x3ecbde56	0.39818066
34	0x3e2fbdef	0.17162298
35	0x3f1ea654	0.61972547
36	0xbde2e887	-0.11079507
37	0x3f19c844	0.60071206
38	0x3d93e33d	0.07221077
39	0x3e5d915b	0.2163748
40	0xbf0ed9b9	-0.5580097
41	0xbe2f8f45	-0.17144497
42	0xbce71b61	-0.028211297
43	0x3da857de	0.08219884
44	0xbe03d06e	-0.12872478
45	0xbdc138cb	-0.094346605
46	0xbd44eb70	-0.048076093
47	0x3e30e2bd	0.17273994
48	0xbd9ed574	-0.07755557
49	0xbcfc7d2d	-0.030821407
50	0xbecea21c	-0.40358055
51	0xbd30e887	-0.043190505
52	0xbe8a3e0d	-0.27000466
53	0xbef2dd03	-0.47434244
54	0x3e03105f	0.12799214
55	0x3f1d1628	0.6136193
56	0xbee2f0e2	-0.44324404
57	0x3e81cee9	0.25353172
58	0x3e7f3ae4	0.24924809
59	0x3ecca50e	0.39969677
60	0x3d6316e5	0.055441756
61	0xbf149eda	-0.5805489
62	0xbd601d26	-0.054715298
63	0xbef7eb45	-0.48421684
64	0x3e204bb6	0.15653881
65	0xbce18f9d	-0.0275343
66	0xbd3c0f34	-0.045912936
67	0xbc5b01ba	-0.013367111
68	0xbdff96d4	-0.1247994
69	0x3e146d29	0.14494766
70	0x3e5829a9	0.21109642
71	0xbfa9539b	-1.3228639
72	0xbde42e08	-0.11141592
73	0x3d94f2af	0.07272851
74	0xbdcdcc04	-0.100486785
75	0xbcc95aa7	-0.02457936
76	0x3e31e44b	0.17372243
77	0xbe8aa5fa	-0.27079755
78	0xbc68acaf	-0.014201327
79	0xbe94c9c4	-0.29060185
80	0xbef61be5	-0.48068157
81	0x3e26fe99	0.16308059
82	0xbe0d7aba	-0.13816348
83	0xbde20dcd	-0.110377885
84	0xbf1c7a64	-0.61124253
85	0x3ea8a630	0.3293929
86	0xbe576e87	-0.21038257
87	0x3eb5de20	0.3552103
88	0x3d4b0f16	0.049574934
89	0x3e26dd29	0.16295303
90	0xbe83aef9	-0.2571943
91	0x3e28cff4	0.16485578
92	0xbf5f09dc	-0.8712442
93	0x3d924f52	0.071440354
94	0xbe935793	-0.2877775
95	0x3d87e914	0.06636253
96	0xbe49205b	-0.19641249
97	0xbd9edb91	-0.07756723
98	0xbf2c2e92	-0.6725856
99	0xbe232f3c	-0.15935987
100	0x3e351700	0.17684555
101	0xbe1699b3	-0.14707069
102	0xbe2a3a43	-0.16623788
103	0xbe128232	-0.14307478
104	0x3e1d2a7c	0.15348238
105	0xbdedd125	-0.11612157
106	0x3cbf8e1f	0.023383198
107	0x3e63595d	0.22202058
108	0x3d4ca2ff	0.049960133
109	0xbe3e6443	-0.18592934
110	0xbf0f53d7	-0.55987304
111	0xbf2121e0	-0.62942314
112	0x3e2a03da	0.16603032
113	0xbe482b72	-0.19547823
114	0xbc62a52a	-0.0138333235
115	0x3d3157d3	0.043296646
116	0xbe04c1a7	-0.12964498
117	0x3eb240b0	0.34814978
118	0xbe6ef105	-0.23334129
119	0x3e23ab68	0.15983355
120	0x3e0b038a	0.13575569
121	0xbc38370d	-0.011243594
122	0x3985a149	0.00025487904
123	0xbde3b4e4	-0.111184865
124	0xbdb3e923	-0.08784702
125	0x3ee1d2e8	0.4410622
126	0xbed72250	-0.42018366
127	0x3dace1ad	0.08441482
128	0x3e3a931b	0.18220179
129	0xbd1fcfc2	-0.039016493
130	0xbc40afd7	-0.0117606735
131	0xbbbb58dc	-0.00571738
132	0x3c1d6591	0.009606735
133	0x3df869eb	0.12129577
134	0x3d1b545d	0.037922252
135	0xbca1846a	-0.01971646
136	0x3b5673d4	0.0032722848
137	0xbec669f5	-0.38752714
138	0xbd8fd6e8	-0.07023412
139	0xbe9f676a	-0.31133586
140	0x3f013661	0.504736
141	0xbf250ad6	-0.6446966
142	0x3d620e04	0.055189148
143	0xbd78380d	-0.06060033
144	0xbea7f389	-0.3280299
145	0xbbfb7a74	-0.0076745097
146	0xbe96d958	-0.29462695
147	0x3dcbcf57	0.09951656
148	0x3db795dd	0.08964131
149	0xbf5ff3c2	-0.8748132
150	0xbeb9abfc	-0.36264026
151	0x3e9c6902	0.30548865
152	0x3dfe0170	0.12402618
153	0xbe449dac	-0.19200772
154	0x3e9ba483	0.3039895
155	0xbddf4eb5	-0.10903684
156	0x3e18df9f	0.14929055
157	0x3e3ea00e	0.18615744
158	0x3eada1c2	0.33912474
159	0xbe8639a0	-0.2621584
160	0x3e7a2830	0.24429393
161	0x3e1c6133	0.15271454
162	0x3edfbef9	0.43700388
163	0xbec189a9	-0.3780034
164	0x3f35eb11	0.7106181
165	0xbd247b24	-0.0401565
166	0xbea499db	-0.32148632
167	0x3ec9b3b9	0.3939493
168	0x3ef602ee	0.4804911
169	0x3eb68fa8	0.35656476
170	0xbe9546dd	-0.29155627
171	0xbce6a9a8	-0.02815707
172	0x3dfd1a4e	0.12358533
173	0x3dd5322c	0.1040996
174	0x3f2f04d4	0.6836674
175	0xbf462e26	-0.77414167
176	0x3cd2c0e6	0.025726747
177	0xbef606c5	-0.4805204
178	0xbf0e9e21	-0.55710036
179	0x3dbf1fd1	0.093322404
180	0x3e19e19d	0.15027471
181	0xbe1710e5	-0.14752539
182	0xbe83c327	-0.25734827
183	0xbdc1bf40	-0.09460306
184	0xbec55937	-0.38544628
185	0x3dd043de	0.10169195
186	0xbe34adc7	-0.17644416
187	0x3d9675fd	0.07346723
188	0x3f0a2fb1	0.5397902
189	0x3edb4550	0.4282632
190	0x3e05f5a9	0.13081993
191	0x3ee9c337	0.4565675
192	0xbd8ea780	-0.06965542
193	0xbeaed6c6	-0.34148234
194	0x3ca7d1e4	0.020485826
195	0x3d4fc361	0.050723437
196	0x3e2a8486	0.16652116
197	0xbc1d6576	-0.00960671
198	0x3dbbc451	0.09168304
199	0xbeb8167b	-0.3595465
200	0x3e40fc0e	0.18846151
201	0xbf4a336b	-0.7898471
202	0x3ea7dfb6	0.32787865
203	0xbfb8adc9	-1.4428035
204	0x3ecd0e71	0.4005008
205	0xbbcb3270	-0.006201081
206	0x3d61e18f	0.05514675
207	0xbd93b9c9	-0.0721317
208	0x3a836091	0.0010023286
209	0x3eaeb233	0.3412033
210	0x3d64dad8	0.05587277
211	0xbe3ab6ad	-0.18233748
212	0x3d84d356	0.06485622
213	0x3d643107	0.05571082
214	0x3f8bd5a4	1.0924573
215	0xbd2756ac	-0.04085414
216	0x3f311bcf	0.6918306
217	0x3eaeca36	0.3413865
218	0xbe949899	-0.29022673
219	0x3f168f58	0.58812475
220	0x3ed8ba0b	0.4232944
221	0x3d9fd07d	0.07803438
222	0x3ef3fe08	0.47654748
223	0x3e90d282	0.28285605
224	0xbe9e67bd	-0.3093852
225	0xbe196fbc	-0.1498403
226	0x3d36bd8d	0.044614363
227	0xbe1e2fbc	-0.15447897
228	0x3ca79dcf	0.020460991
229	0x3f8b74c6	1.0895011
230	0xbe860b4f	-0.26180503
231	0x3e073258	0.13202798
232	0xbdd277d6	-0.10276763
233	0xbd72a936	-0.059243403
234	0xbee43d0f	-0.44577834
235	0x3d86a6fc	0.065748185
236	0x3d8e904c	0.06961116
237	0x3e9d23dc	0.3069142
238	0xbe9035b3	-0.2816597
239	0xbdbaae7f	-0.09115314
240	0xbfd99264	-1.69978
241	0xbf00b25d	-0.5027216
242	0xbc5f067b	-0.013612385
243	0x3edadee7	0.42748186
244	0x3d7754fc	0.06038378
245	0xbe2c47fe	-0.16824338
246	0xbd91d3aa	-0.0712045
247	0x3e17b2b2	0.1481426
248	0xbee7f2b2	-0.4530235
249	0x3e11b955	0.14230855
250	0xbe9f50ae	-0.3111624
251	0x3e5ab5bc	0.21358389
252	0xbe856b21	-0.26058295
253	0xbe390c6a	-0.18071142
254	0xbec970ba	-0.39343816
255	0x3e2a2a21	0.16617633

network_body._body_endoder.seq_layers.2.bias f4 [256]
0	0xbdcac6c2	-0.09901191
1	0xbdd70d1f	-0.105005495
2	0x3d8130ae	0.06308113
3	0x3dbd94ba	0.09256883
4	0xbd3674e9	-0.044545088
5	0xbd31b731	-0.043387596
6	0xbcaf3099	-0.021385478
7	0xbaa69567	-0.001270932
8	0xbca824eb	-0.020525416
9	0xbe11e97a	-0.1424922
10	0xbd45a9c0	-0.04825759
11	0x3d9fac0c	0.07796487
12	0x3b29c472	0.0025904444
13	0xbd2029e3	-0.039102446
14	0x3c63082d	0.01385693
15	0xbe239399	-0.15974273
16	0xbd4f0632	-0.050543018
17	0xbca2ae5f	-0.019858537
18	0xbd91777b	-0.07102867
19	0xbddbafc1	-0.10726882
20	0xbd447143	-0.047959577
21	0xbcd0971f	-0.025462685
22	0xbdcac4c8	-0.09900814
23	0x3d3985d5	0.045293648
24	0xbd5b9700	-0.0536108
25	0xbd974bef	-0.0738753
26	0xbdf979f4	-0.12181464
27	0xbdbc6541	-0.09199
28	0x3bb91147	0.0056478116
29	0xbd98bfb0	-0.074584365
30	0xbba6c3b5	-0.005089248
31	0xbc008862	-0.007845016
32	0x3c4fb6e2	0.01267788
33	0xbe3c6fef	-0.18402074
34	0xbd9a46ec	-0.075330585
35	0xbda90dce	-0.08254586
36	0xbd9aca17	-0.07558077
37	0xbdeb5f8a	-0.11492832
38	0xbde76b00	-0.112997055
39	0xbd9690fe	-0.07351874
40	0xbdc3f2f8	-0.09567827
41	0xbd837297	-0.06418341
42	0xbd8f03a1	-0.06983114
43	0xbd74bd64	-0.05975093
44	0xbdf9ca37	-0.121967725
45	0xbd72b8fe	-0.059258454
46	0xbcc8d0f1	-0.024513694
47	0xbe1b597b	-0.15170853
48	0xbd5cd4a3	-0.053913724
49	0xbdf033d7	-0.11728638
50	0x3da2d397	0.07950514
51	0xbcc70ce1	-0.024298133
52	0x3cc71037	0.024299724
53	0xbdb3ed8e	-0.08785544
54	0xbcbfe679	-0.023425328
55	0xbb84a8fe	-0.0040484658
56	0xbd4bf962	-0.049798377
57	0xbd52405a	-0.0513309
58	0xbd8cf2ee	-0.06882273
59	0xbdac0e92	-0.084012166
60	0xbe1c3a7d	-0.15256687
61	0xbd32910c	-0.04359536
62	0xbdc586f6	-0.096448824
63	0xbdf7ec56	-0.121056244
64	0x3c8196b4	0.015818931
65	0xbd3d40a4	-0.046204224
66	0xbe0b348c	-0.13594264
67	0xbe151588	-0.14558995
68	0xbdc0679a	-0.093947604
69	0x3d45afef	0.048263486
70	0x3b912e47	0.0044305655
71	0x3c7072f6	0.014675846
72	0xbe139db7	-0.14415632
73	0xbd54251d	-0.051793206
74	0xbdc72716	-0.09724252
75	0xbdd9cc5f	-0.10634684
76	0xbbfe3615	-0.007757912
77	0xbe055f61	-0.13024665
78	0xbdd04fbd	-0.10171459
79	0xbd3a92ef	-0.045550283
80	0xbca8b0d7	-0.020592136
81	0xbdc36c89	-0.09542186
82	0xbd3b8001	-0.04577637
83	0xbd62b882	-0.05535174
84	0xbd8757f2	-0.06608571
85	0x38042758	3.1507894e-05
86	0x3d107afa	0.03527353
87	0xbd953f55	-0.0728747
88	0xbd2550cf	-0.04036027
89	0xbdcf902d	-0.10134921
90	0x3cd19cec	0.025587521
91	0xbcc3134a	-0.023812909
92	0xbe3aeb32	-0.18253782
93	0xbc416e6c	-0.011806112
94	0xbd5a94c7	-0.05336454
95	0x3bf57256	0.0074904365
96	0x3de13529	0.109964676
97	0x3d3c60d8	0.045990795
98	0xbdb0b58f	-0.086283796
99	0xbe118ba0	-0.14213419
100	0xbbcb3158	-0.0062009506
101	0xbd99aafd	-0.075033166
102	0xbddbe577	-0.10737126
103	0xbc5c8fa3	-0.01346198
104	0xbcd241ed	-0.025666201
105	0xbd4a6313	-0.04941089
106	0xbd5a2162	-0.053254493
107	0xbd8fa0db	-0.070131026
108	0xbd92aecb	-0.07162245
109	0xbe42af18	-0.19012105
110	0xbd0210d1	-0.03175432
111	0x3c8c5e0a	0.017134685
112	0xbd907fad	-0.07055602
113	0xbc3ff178	-0.0117152855
114	0xbd479aad	-0.048731495
115	0xbe411ae4	-0.18857914
116	0x3c35b7c7	0.011091179
117	0xbbf38ca9	-0.0074325395
118	0xbe2fa12f	-0.1715133
119	0x3cd8f315	0.026483098
120	0xbd1e3733	-0.03862686
121	0xbc458db2	-0.012057709
122	0xbc851ef5	-0.016250113
123	0xbd5e1d71	-0.054227296
124	0xbdb01897	-0.0859844
125	0x3d8cab79	0.06868643
126	0xbe02799d	-0.12741704
127	0xbe0d19aa	-0.13779321
128	0xbdc97893	-0.09837451
129	0xbd3bf946	-0.045892023
130	0xbd9b8def	-0.07595431
131	0xbc94a770	-0.018146247
132	0x3c2d1694	0.010564465
133	0xbd2385bc	-0.03992246
134	0xbd6f968f	-0.058493193
135	0xbd943659	-0.072369285
136	0xbd037523	-0.032094132
137	0xbe258a09	-0.16165937
138	0xbc6a9539	-0.014317804
139	0x3d23418e	0.03985744
140	0xbd8a68f4	-0.067582995
141	0xbd9e64b7	-0.077340536
142	0x3cb87a03	0.022519117
143	0x3a951eea	0.0011377011
144	0x3d5863a9	0.05282942
145	0xbd9ca69e	-0.07648967
146	0xbdd6e857	-0.10493534
147	0xbd7ea4e8	-0.062168986
148	0xbe27b1f3	-0.16376476
149	0xbdc4a6e4	-0.09602144
150	0xbe13a312	-0.14417675
151	0xbd91a4ae	-0.07111488
152	0x3c2556f0	0.010091528
153	0xbd84ad4e	-0.06478368
154	0xbd8e168e	-0.06937896
155	0xbd1481f2	-0.036256738
156	0xbde3731d	-0.111059405
157	0xbdf370bf	-0.11886739
158	0xbd361b94	-0.044459894
159	0xbdc92a1c	-0.09822485
160	0xbd1df7d0	-0.03856641
161	0xbd9698d8	-0.073533714
162	0xbd1b2f3b	-0.03788684
163	0xbe320120	-0.17383242
164	0xbd65b5c3	-0.056081545
165	0x3cedf603	0.029047972
166	0xbbf067ab	-0.007336577
167	0xbc196633	-0.009362745
168	0x3d2e1ddc	0.042508945
169	0xbdd8d6a1	-0.10587812
170	0xbda5fac3	-0.081044696
171	0xbd146cdb	-0.036236625
172	0x3c823141	0.015892627
173	0xbb869854	-0.0041075144
174	0x3bed3c9c	0.007239891
175	0xbdd00b78	-0.101584375
176	0xbd22d0ba	-0.03974984
177	0xbe1766cf	-0.14785312
178	0x3db8dfa3	0.0902703
179	0x3d1baab7	0.038004603
180	0xbbf9c6f7	-0.0076225954
181	0xbd2786d7	-0.040900078
182	0xbdb59d39	-0.088678785
183	0xbd67af5d	-0.056563724
184	0xbcd7ba15	-0.026333848
185	0x3d804114	0.06262413
186	0xbc78fe10	-0.015197292
187	0xbe347732	-0.17623594
188	0xbd6ae757	-0.05734953
189	0xbd93fc22	-0.07225825
190	0xbd96a5c6	-0.073558375
191	0xbdf0193b	-0.11723562
192	0xbcffbc6a	-0.031217773
193	0xbd17d367	-0.037066843
194	0xbc19e047	-0.009391851
195	0xbdc6ce25	-0.09707288
196	0xbda249bc	-0.0792422
197	0x3df888d6	0.121354744
198	0xbce16893	-0.027515685
199	0xbe111ad4	-0.1417039
200	0xbccd0964	-0.025028892
201	0xbc2001fe	-0.0097661
202	0x3aca0b8e	0.001541482
203	0x3aee0199	0.0018158435
204	0xbe0b7701	-0.13619615
205	0xbd1294ed	-0.035786558
206	0xbd7dc239	-0.061952803
207	0xbd7971e7	-0.06089964
208	0xbd0ffc7a	-0.03515289
209	0xbe0b014a	-0.1357471
210	0xbddef56b	-0.108866535
211	0xbe27ca9b	-0.16385882
212	0xbdf0f4ef	-0.117654674
213	0xbd974030	-0.0738529
214	0xbd1ee661	-0.038793925
215	0xbd459cc9	-0.048245225
216	0xbd1b2536	-0.037877284
217	0xbd8da31d	-0.06915877
218	0x3c8bb7a4	0.01705534
219	0xbcb21aa0	-0.021741211
220	0xbd301d8a	-0.04299692
221	0xbdf1243e	-0.11774491
222	0xbd8bf0d3	-0.06833043
223	0xbdec30b2	-0.115327254
224	0xbd250360	-0.04028642
225	0xbda4f0fc	-0.080537766
226	0xbdc686a5	-0.0969365
227	0xbde3829e	-0.111088976
228	0xbd23f60f	-0.04002958
229	0x3d4fb49f	0.050709363
230	0xbc00176f	-0.007818087
231	0xbcfd66a3	-0.03093273
232	0xbe078b79	-0.13236798
233	0xbe02e58a	-0.12782875
234	0x3caa524f	0.0207912
235	0xbd83b92b	-0.06431802
236	0xbd7b771b	-0.061392885
237	0xbd580880	-0.05274248
238	0xbd9dafd1	-0.0769955
239	0x3ca6066f	0.02026674
240	0xbd3e4441	-0.04645181
241	0xbd97b61f	-0.07407784
242	0xbd798061	-0.060913447
243	0x3cd00377	0.025392277
244	0xbd65566b	-0.055990618
245	0xbd4769a8	-0.048684746
246	0x3ccf36de	0.025294717
247	0xbd5deda2	-0.054181702
248	0xbd90408c	-0.07043561
249	0xbd8a98e2	-0.06767441
250	0xbd13cdf9	-0.036085103
251	0xbdc3df9c	-0.095641345
252	0xbdc6493c	-0.09681937
253	0xbdf905b8	-0.12159294
254	0xbcceee3a	-0.02526008
255	0xbd238e34	-0.039930537

network_body._body_endoder.seq_layers.2.weight f4 [256, 256]
0	0x3d47f91e	0.04882156
1	0xbd9be133	-0.07611313
2	0xbc44ce84	-0.012012128
3	0xbe0fb7c0	-0.14034939
4	0xbd7f8043	-0.06237818
5	0xbc8f5482	-0.017496351
6	0x3cda139c	0.026620679
7	0x3db823a3	0.08991172
8	0x3d23001e	0.039795034
9	0x3c2b2ad3	0.010447222
10	0xbd71416d	-0.058900286
11	0x3de9028a	0.113774374
12	0xbdd85fb9	-0.10565133
13	0xbe0629f9	-0.13101949
14	0xbdbc32e0	-0.09189391
15	0xbd0a15c4	-0.033712164
16	0xbda05947	-0.07829528
17	0x3c50b2f9	0.012737983
18	0x3df4854f	0.11939489
19	0xbd919e90	-0.071103215
20	0x3db6f36a	0.08933146
21	0x3d58d75a	0.05293975
22	0xbc8105e2	-0.015749875
23	0xbdc6ad82	-0.09701063
24	0x3d332936	0.043740474
25	0xbd6082e8	-0.054812342
26	0xbe301af0	-0.17197776
27	0xbe0993b0	-0.13435245
28	0xbda1aa4b	-0.07893809
29	0xbd1e4222	-0.038637288
30	0xbe16cd1f	-0.14726685
31	0x3d1ec431	0.03876132
32	0xbdb9641e	-0.09052299
33	0xbcb9c968	-0.022679046
34	0xbdb51c1d	-0.08843253
35	0xbe04ff36	-0.1298798
36	0x3ccb2647	0.024798525
37	0xbaed1a88	-0.0018089572
38	0xbb9e3a84	-0.004828753
39	0xbca17ec7	-0.019713772
40	0xbd9c8f87	-0.07644563
41	0x3e2195da	0.1577982
42	0xbd30bb5d	-0.043147434
43	0xbd6b8bbe	-0.057506315
44	0xbe37f95b	-0.17966215
45	0x3d60104f	0.054703053
46	0xbdb7442a	-0.08948548
47	0xbd575022	-0.052566655
48	0xbd7f8394	-0.062381342
49	0x3d24678b	0.04013781
50	0xbd38c8f8	-0.045113534
51	0xbd9d8483	-0.0769129
52	0x3d3b977f	0.045798775
53	0x3cdf898d	0.027287269
54	0xbd598e1a	-0.053114034
55	0xbd31511e	-0.04329025
56	0x3d668471	0.05627865
57	0xbd966c24	-0.07344845
58	0xbb94c36a	-0.0045398967
59	0x3d097527	0.03355899
60	0xbd7312e4	-0.059344187
61	0xbe371aba	-0.17881289
62	0x3c70f77b	0.014707441
63	0x3d4ed4fc	0.050496086
64	0xbd917e2f	-0.07104146
65	0x3ce42f17	0.027854485
66	0xbccb403b	-0.0248109
67	0x3da9b31b	0.08286115
68	0x3cbba97b	0.022907963
69	0xbe170ea1	-0.14751674
70	0xbe255918	-0.16147268
71	0x3b846c1d	0.0040412084
72	0xbd9d4c24	-0.07680538
73	0x3d718575	0.058965165
74	0x3d9119b4	0.070849806
75	0xbd13c2b6	-0.036074363
76	0xbcd9f863	-0.026607698
77	0x3a147215	0.00056627515
78	0xbdc931e0	-0.09823966
79	0xbda57be4	-0.08080271
80	0xbb487258	-0.0030585732
81	0xbd793a64	-0.0608467
82	0xbd5dfa62	-0.05419386
83	0xbd77a212	-0.060457297
84	0xbe3e91f9	-0.18610372
85	0x3d3ce175	0.04611345
86	0xbdce5cc1	-0.10076285
87	0xbd498798	-0.049201578
88	0x3c38af10	0.011272207
89	0xbcf0115b	-0.02930515
90	0x3d8dc6ff	0.06922721
91	0xbe0582dc	-0.130382
92	0x3c57f22b	0.013180296
93	0xbe46918c	-0.19391459
94	0x3dbcdaa8	0.09221393
95	0xbdfdf712	-0.124006405
96	0xbc096334	-0.008385468
97	0xbd4b5f32	-0.049651332
98	0x3dc8943f	0.09793901
99	0x3da10e42	0.078640476
100	0x3a08c876	0.0005217859
101	0x3a70084d	0.00091565104
102	0x3ceb6b2e	0.02873763
103	0xbdafaea9	-0.08578236
104	0x3d9143b9	0.07092995
105	0xbc539ac0	-0.012915313
106	0xba7e95c3	-0.0009711647
107	0xbd94dcc3	-0.072686695
108	0x3d651b09	0.055933986
109	0xbdd7a68c	-0.10529813
110	0xbe1fc9ad	-0.15604277
111	0x3ca79e8f	0.020461349
112	0x3df8e810	0.121536374
113	0x3c566b9d	0.01308718
114	0x3db43f49	0.08801133
115	0x3bc97d55	0.006148974
116	0x3d3877de	0.04503619
117	0xbe395be7	-0.18101464
118	0xbe15843c	-0.14601225
119	0xbe1dc64b	-0.15407674
120	0xbcd9c956	-0.026585262
121	0xbd3794f3	-0.044819783
122	0x3de6d409	0.11270911
123	0x3c2bdd1d	0.010489729
124	0xbc0d17ac	-0.008611601
125	0xbdf8ec5c	-0.12154457
126	0xbdeeb196	-0.116549656
127	0xbe11ea88	-0.14249623
128	0x3d0f9943	0.03505827
129	0x3d2cbb29	0.042170677
130	0x3c7468b9	0.014917546
131	0xbe308c57	-0.17241035
132	0xbe097e06	-0.1342698
133	0x3c8c38f2	0.017116997
134	0xbdd78704	-0.10523799
135	0xbd5c9c1d	-0.05385982
136	0x3d063de2	0.03277386
137	0x3d06527b	0.032793503
138	0xbe28c95d	-0.16483064
139	0xbe065e8d	-0.13122006
140	0xbdd62b29	-0.10457451
141	0xbc825207	-0.015908254
142	0x3d2a82e9	0.041628752
143	0xbdc6d571	-0.097086795
144	0xbdc3f944	-0.09569028
145	0x3d70e99f	0.05881655
146	0xbdc4cfaa	-0.09609921
147	0x3de286b4	0.11060849
148	0xbd981669	-0.074261494
149	0x3c480f84	0.01221073
150	0xbdf35388	-0.11881167
151	0x3d706275	0.058687646
152	0xbdef48d1	-0.116838105
153	0xbe1827ab	-0.14858882
154	0xbe54426a	-0.2072846
155	0x3c94ecc3	0.018179303
156	0xbd493138	-0.049119204
157	0x3c4e896b	0.012606005
158	0xbc9bfd5a	-0.019041706
159	0x3c5500c8	0.013000675
160	0xbe0f4c17	-0.1399387
161	0xbc8daf9e	-0.017295655
162	0xbd9d8a1f	-0.0769236
163	0x3dd4af58	0.10385007
164	0xbdf769ab	-0.120807014
165	0xbe365f2a	-0.1780974
166	0xbd8ec48e	-0.069710836
167	0xbd968bb3	-0.07350864
168	0xbd1dc414	-0.038517073
169	0xbdd6f5c5	-0.104960956
170	0x3cab6272	0.020920966
171	0xbd6e2473	-0.05814023
172	0xbd2535ee	-0.040334634
173	0xbdbee23d	-0.09320495
174	0xbd5c1f60	-0.05374086
175	0xbb91ff52	-0.0044554854
176	0xbd7378dc	-0.059441432
177	0xbd3659eb	-0.044519346
178	0x3b8f194c	0.0043670293
179	0xbdf505d6	-0.11964004
180	0xbdd65432	-0.10465278
181	0x3e2d5686	0.16927537
182	0xbd0505b1	-0.03247613
183	0xbdb7ec1c	-0.08980581
184	0xbe2971f2	-0.16547373
185	0xbd5f9c30	-0.05459231
186	0xbcb4465d	-0.022006208
187	0xbc241f89	-0.010017284
188	0xbc9bbfa9	-0.01901229
189	0x3d2e7a3b	0.042597037
190	0xbd8599b9	-0.06523461
191	0x3b3b6c60	0.0028598532
192	0xbc18f5dc	-0.009335961
193	0xbe18bad6	-0.14915022
194	0x3d8e546e	0.069496974
195	0x3db5a5d3	0.08869519
196	0x3dd3cc5d	0.103417136
197	0xbd83fe7b	-0.06445023
198	0x3ccc5a0a	0.024945278
199	0xbe2db9d3	-0.16965418
200	0x3c8dd50b	0.0173135
201	0xbd90f349	-0.07077653
202	0xbe1d540f	-0.15364097
203	0xbe16e95b	-0.14737456
204	0xbe16d5b0	-0.14729953
205	0x3e240b95	0.16020043
206	0xbd51f1de	-0.051256053
207	0xbd5bdd1f	-0.053677674
208	0x3d8cf2a7	0.0688222
209	0xbe072e83	-0.13201337
210	0xbd2d3c7d	-0.042294014
211	0xbe85a3f6	-0.26101655
212	0xbcac28d2	-0.021015558
213	0x3c612f1c	0.013744142
214	0x3c2406a1	0.010011346
215	0xbe8a2438	-0.26980758
216	0xbbfca229	-0.0077097607
217	0xbcc125ba	-0.02357756
218	0x3d8f0fe0	0.0698545
219	0xbdff58fa	-0.12468143
220	0x3db4f751	0.08836234
221	0xbdc01680	-0.093792915
222	0xbd882b5b	-0.066488944
223	0xbe09ddd5	-0.13463528
224	0x3d6dedbd	0.058088053
225	0xbd7a5794	-0.061118677
226	0xbcf227d7	-0.029560013
227	0x3dcf2031	0.10113562
228	0xbdec8d17	-0.11550348
229	0xbe482687	-0.19545947
230	0xbdbfcf19	-0.093656726
231	0x3b849872	0.004046493
232	0x3b90dca2	0.0044208327
233	0xbc4f83ea	-0.012665728
234	0xbcc2b155	-0.0237662
235	0x3d2408e9	0.04004756
236	0xbe2ad359	-0.16682185
237	0xbde4980d	-0.11161814
238	0xbde789ec	-0.113056034
239	0xbe9940e9	-0.29932335
240	0xbdf00cdf	-0.11721205
241	0x3da4a135	0.0803856
242	0xbdb5ad96	-0.088709995
243	0xbe082b14	-0.13297683
244	0x3d107287	0.03526547
245	0xbb0f8688	-0.0021900255
246	0x3d5aa8fc	0.053383812
247	0x3cc3fa3a	0.023923028
248	0x3d676465	0.056492228
249	0x3cee8590	0.029116422
250	0xbd3b1e3e	-0.045683138
251	0xbde5a333	-0.112127684
252	0xbe09134b	-0.13386266
253	0xbbd0c369	-0.006370951
254	0xbe20ef7a	-0.15716353
255	0xbd3d4b0a	-0.04621414

network_body._body_endoder.seq_layers.4.bias f4 [256]
0	0xbce36f98	-0.027763173
1	0x3d4ef1a9	0.050523434
2	0xbd2d14f9	-0.04225633
3	0xbdb4d8da	-0.08830424
4	0xbd8dea16	-0.06929414
5	0xbd98f96d	-0.07469449
6	0xbd41cf42	-0.047316797
7	0xbdaebcea	-0.08532126
8	0xbd8bfa5d	-0.068348624
9	0xbe21031f	-0.15723847
10	0xbd65cef2	-0.05610556
11	0x3c35ffcc	0.01110835
12	0xbe172a78	-0.14762294
13	0x3c9505cc	0.01819124
14	0xbd64715c	-0.05577217
15	0xbd92a032	-0.07159461
16	0xbd0edbbc	-0.034877524
17	0xbd70a9e2	-0.058755763
18	0xbd65cc60	-0.05610311
19	0xbd745a9c	-0.059656724
20	0xbd4f99d4	-0.05068381
21	0xbe0b8e9d	-0.13628621
22	0xbe32e8a6	-0.17471561
23	0xbdbd91f8	-0.09256357
24	0xbd2c3f55	-0.042052586
25	0xbe50b30f	-0.20380805
26	0xbc6fcfe2	-0.0146369655
27	0xbe16f002	-0.14739993
28	0xbdde677c	-0.10859582
29	0xbdb59c1f	-0.08867668
30	0xbdc5e8d5	-0.0966355
31	0xbd2ac7c2	-0.04169441
32	0xbc70b726	-0.0146921035
33	0xbc033329	-0.008007803
34	0x3c25f77c	0.010129806
35	0xbca41dd4	-0.020033754
36	0xbda6eaa6	-0.081502244
37	0xbdc4a232	-0.09601249
38	0xbd6a91db	-0.057268005
39	0xbd372c27	-0.04471984
40	0xbd6d0c36	-0.057872973
41	0xbdcde285	-0.10052971
42	0xbd47edfe	-0.04881095
43	0xbe177c57	-0.14793526
44	0xbd69b3eb	-0.05705635
45	0xbdd8e8f7	-0.105913095
46	0xbdaf5fac	-0.0856317
47	0xbda973f5	-0.0827407
48	0xbdb3091b	-0.08741971
49	0xbcad4ee0	-0.021155775
50	0xbd5f5aae	-0.05452984
51	0xbca749d5	-0.020420948
52	0xbc8b5304	-0.017007358
53	0x3bd79753	0.0065793185
54	0x3dcd95f9	0.10038371
55	0xbe45ede7	-0.19329034
56	0xbd09f46a	-0.033680357
57	0x3d04dbab	0.032436054
58	0xbe0318ab	-0.12802379
59	0x3d3a8ce7	0.04554453
60	0xbc71d7f9	-0.014760965
61	0xbdd3f11a	-0.10348721
62	0x3d44a8ff	0.04801273
63	0xbdaf5ded	-0.08562837
64	0x3d842dd1	0.06454051
65	0xbe0357c3	-0.12826447
66	0xbded28f8	-0.1158008
67	0xbdd4c162	-0.10388447
68	0xbe5b930f	-0.21442817
69	0x3d68f8f4	0.056878045
70	0xbe11bde7	-0.14232598
71	0xbcb05a8c	-0.021527551
72	0xbe0bbb43	-0.13645653
73	0xbe5d5eeb	-0.2161824
74	0xbdc0fbb6	-0.0942301
75	0xbe4f9e96	-0.2027534
76	0xbc66c182	-0.014084222
77	0xbd9bd6be	-0.07609318
78	0xbd6ac872	-0.057320066
79	0xbdb0d36a	-0.08634074
80	0xbcbc187f	-0.0229609
81	0xbda7730d	-0.08176241
82	0xbdc34816	-0.09535234
83	0xbe0f18a7	-0.13974248
84	0xbdc13357	-0.094336204
85	0xbe0a3faf	-0.13500856
86	0x3da8fa3a	0.08250852
87	0xbd8347cb	-0.06410178
88	0xbd56207a	-0.052277066
89	0xbd6755d1	-0.056478325
90	0xbdb96fb4	-0.09054509
91	0x3d0fafa0	0.0350796
92	0xbba96df7	-0.0051705795
93	0xbd304453	-0.04303391
94	0xbe33cb8e	-0.17558119
95	0x3c761f2c	0.01502208
96	0xbe0f2d7c	-0.13982195
97	0xbcf02a2d	-0.029316986
98	0x3d0f72c1	0.035021547
99	0xbc916bad	-0.01775154
100	0xbe0d6827	-0.13809262
101	0xbd8ebf6e	-0.06970106
102	0xbded0181	-0.115725525
103	0xbd66706b	-0.056259554
104	0xbe37fb14	-0.17966872
105	0xbb86207b	-0.0040932274
106	0xbe3969a6	-0.18106708
107	0xbe08c909	-0.13357939
108	0xbd95d426	-0.07315855
109	0xbe68c705	-0.2273217
110	0xbd90192b	-0.070360504
111	0x3b8d5339	0.0043128994
112	0xbca175f4	-0.019709565
113	0xbdaba408	-0.08380896
114	0xbd1f0bec	-0.03882973
115	0xbcf47bbc	-0.029844157
116	0xbcced0fa	-0.025246132
117	0xbcc2a235	-0.023758987
118	0xbe0b0606	-0.13576517
119	0x3d3200c6	0.04345777
120	0xbd68abe5	-0.056804556
121	0xbdad4f2f	-0.08462369
122	0xbe27532a	-0.16340318
123	0xbdaaa227	-0.08331709
124	0x39dbfc62	0.00041958975
125	0xbd0e4e82	-0.03474284
126	0x3c506660	0.012719721
127	0x3bbba9cb	0.005727028
128	0x3c7c45ae	0.015397472
129	0xbd0fd217	-0.035112467
130	0xbd7ecbee	-0.0622062
131	0xbdc9e34f	-0.09857809
132	0xbdcd52ce	-0.10025559
133	0xbe0142bb	-0.12623112
134	0xbdec47ac	-0.11537108
135	0xbe54b7af	-0.20773195
136	0xbdc9c1d3	-0.09851422
137	0xbd36509a	-0.04451046
138	0xbe3b6f6b	-0.18304221
139	0xbd167609	-0.03673366
140	0xbda7c379	-0.0819158
141	0xbdc7b0a6	-0.0975049
142	0xbd9be8a0	-0.07612729
143	0xbd8d93dc	-0.069129676
144	0xbd65c3a0	-0.056094766
145	0xbe08ab2f	-0.13346551
146	0x3d92fb3c	0.071768254
147	0x3c3bd35d	0.011463967
148	0xbcd80286	-0.02636839
149	0x3c81b1ae	0.015831795
150	0xbd41bb86	-0.047297977
151	0xbdb1f3d1	-0.086890824
152	0xbc3e3265	-0.011608695
153	0xbd9ab141	-0.0755334
154	0xbc57c6ee	-0.013169987
155	0xbe07b4e6	-0.13252601
156	0xbe517a06	-0.20456704
157	0xbd0ce501	-0.034398083
158	0xbe66c789	-0.22537054
159	0x3c32cb4c	0.010912728
160	0xbdaaf8de	-0.08348249
161	0x3d2932a7	0.04130807
162	0xbe672b16	-0.2257503
163	0x3d460a1f	0.048349496
164	0xbde85c41	-0.11345721
165	0xbe093830	-0.1340034
166	0xbcb66d98	-0.022269055
167	0xbcab727d	-0.020928616
168	0xbd9c4ffe	-0.07632445
169	0xbd98f5a7	-0.074687295
170	0xbd7061dd	-0.05868708
171	0xbe10a637	-0.14125906
172	0x3d92c07f	0.07165622
173	0x3d036254	0.032076195
174	0xbdc9183a	-0.09819074
175	0xbddb1c5c	-0.106987685
176	0xbdb98540	-0.090586185
177	0xbe2d001b	-0.16894571
178	0x3b658514	0.0035021948
179	0xbda5e931	-0.08101118
180	0xbdc23a59	-0.09483785
181	0x3a9b2a4a	0.0011838165
182	0xbdad9b10	-0.084768414
183	0xbe16b611	-0.1471789
184	0xbde693c6	-0.11258654
185	0xbd230142	-0.03979612
186	0xbd6e7a52	-0.058222122
187	0x3c89d0b3	0.016823148
188	0xbe185b39	-0.14878549
189	0xbe24a398	-0.16078031
190	0xbe0665c8	-0.13124764
191	0xbd9600e5	-0.07324389
192	0x3ca50371	0.020143243
193	0xbddd7c79	-0.10814757
194	0x3d8aced6	0.06777732
195	0xbda27df1	-0.07934178
196	0xbe120ff9	-0.14263906
197	0x3ce2c87b	0.027683487
198	0xbdb6cb0e	-0.08925448
199	0xbdf18fb5	-0.11794988
200	0xbd6ebcd0	-0.058285534
201	0xbd5167cd	-0.051124383
202	0xbe10e81f	-0.14151047
203	0xbcab8a17	-0.02093987
204	0xbde55042	-0.111969486
205	0xbde2e604	-0.11079028
206	0xbd1a33f7	-0.037647214
207	0xbce3ac89	-0.027792232
208	0xbcca2272	-0.024674628
209	0x3d82c094	0.063843876
210	0xbe2baf19	-0.16766013
211	0x3c62e411	0.013848321
212	0xbdf1827a	-0.117924646
213	0xbd10e7d7	-0.03537735
214	0xbd928c29	-0.0715564
215	0xbda84ef7	-0.08218186
216	0xbc9c4d89	-0.01907994
217	0xbd608fff	-0.054824825
218	0xbe656a0a	-0.22403732
219	0xbc7d47eb	-0.015459041
220	0xbca77008	-0.020439163
221	0x3b61d5ff	0.0034459827
222	0xbdd491f3	-0.103794
223	0xbe39f9a2	-0.18161634
224	0xbd61997b	-0.05507801
225	0x3c289b76	0.010290971
226	0xbb4e65ce	-0.0031493786
227	0xbc74e879	-0.014948004
228	0xbde8391b	-0.11339017
229	0xbd74c81a	-0.059761144
230	0xbdc2296b	-0.09480556
231	0xbd8df4db	-0.06931468
232	0xbd2d6bb5	-0.042339046
233	0xbd4af46c	-0.049549505
234	0x3c1d2186	0.009590512
235	0xbad1c353	-0.0016003646
236	0x3a9b1922	0.0011833052
237	0x39a750e6	0.00031912996
238	0xbdc93891	-0.09825242
239	0xbce69581	-0.02814746
240	0xbd96e32e	-0.0736755
241	0xbd4a5dbe	-0.049405806
242	0xbc2a2a79	-0.010386103
243	0xbcb3e163	-0.021958059
244	0xbceff2fe	-0.029290672
245	0xbde5672f	-0.11201321
246	0x3d491e92	0.04910142
247	0xbe517301	-0.20454027
248	0xbc86b481	-0.016443493
249	0xbd4ec3d3	-0.05047972
250	0x3d6eac30	0.05826968
251	0xbe7c225e	-0.24622485
252	0xbd9e26b3	-0.07722225
253	0x3c7e581a	0.015523935
254	0xbc461a97	-0.0120913
255	0xbd8397bf	-0.06425428

network_body._body_endoder.seq_layers.4.weight f4 [256, 256]
0	0x3d573cf9	0.052548382
1	0xbd851d9f	-0.064997904
2	0xbe47af57	-0.1950048
3	0xbd8b9e4b	-0.06817301
4	0x3d331196	0.043717943
5	0x3e4b32c5	0.19843586
6	0xbdfd40a0	-0.12365842
7	0xbd43f2eb	-0.047839087
8	0xbe0e294b	-0.1388294
9	0xbe2cb24b	-0.16864888
10	0x3cc0d9a2	0.023541275
11	0xbe2818c5	-0.16415699
12	0x3e3ddb2f	0.18540643
13	0x3e149679	0.14510526
14	0xbc39d583	-0.011342409
15	0x3e0ebd35	0.13939364
16	0x3d3c6989	0.045999084
17	0xbdab1833	-0.08354225
18	0xbd7c66f2	-0.061621614
19	0x3e0bef3d	0.13665481
20	0x3d17e3c7	0.03708246
21	0xbc43a897	-0.01194205
22	0xbd8b7ef1	-0.068113215
23	0x3d6864c4	0.056736723
24	0x3dbb0150	0.0913111
25	0x3dad90f2	0.08474912
26	0x3de838b0	0.11338937
27	0xbc9362a5	-0.017991373
28	0xbde5d524	-0.11222294
29	0x3ebf8885	0.37408844
30	0xbdbbae30	-0.09164083
31	0xbe0b237e	-0.13587758
32	0xbc2a7566	-0.0104039665
33	0xbd18433e	-0.037173502
34	0xbb7d4a65	-0.003864908
35	0x3de37e2e	0.11108051
36	0x3e10b592	0.14131764
37	0x3cddaf1f	0.027061043
38	0x3c5ecdff	0.013598918
39	0x3e04726e	0.12934276
40	0x3daf76b2	0.08567561
41	0xbc8ec4ac	-0.017427765
42	0x3cb0b88a	0.02157237
43	0xbd3cfe26	-0.046140812
44	0x3ddb6153	0.107119225
45	0xbb36e607	-0.0027908103
46	0x3e66e8bb	0.22549717
47	0xbca72314	-0.020402469
48	0x3dc04699	0.093884654
49	0xbda06291	-0.078313
50	0xbd88c427	-0.06678038
51	0xbde21aa3	-0.11040237
52	0xbea913e7	-0.33022997
53	0xbd458539	-0.048222754
54	0xbe13152b	-0.14363544
55	0xbd27452c	-0.04083745
56	0x3c4a5202	0.012348654
57	0x3df8e829	0.12153656
58	0x3e4ba7fb	0.19888298
59	0x3d619aa2	0.05507911
60	0x3d9897b9	0.07450814
61	0x3dc3bb48	0.095572054
62	0x3d63726c	0.055529043
63	0xbc9fb6dc	-0.019496374
64	0xbea4f8db	-0.32221112
65	0x3ddb83e7	0.10718518
66	0xbc7ad733	-0.015310097
67	0x3d8d6e49	0.06905801
68	0x3d5a4af3	0.053294133
69	0x3c973538	0.018457994
70	0xbd65639c	-0.056003198
71	0xbd2e32ac	-0.042528793
72	0x3e1d4eff	0.15362166
73	0xbdacc4e6	-0.08435993
74	0xbe923625	-0.28556934
75	0x3d36ff16	0.044676863
76	0x3c0bce88	0.008533128
77	0xbd75fa38	-0.06005308
78	0x3e14d0f4	0.14532834
79	0xba05bc28	-0.0005101585
80	0xba166665	-0.0005737304
81	0x3ba1b3ee	0.0049347794
82	0x3c59d967	0.013296462
83	0xbb1554d0	-0.0022786148
84	0x3a11c6cb	0.00055609335
85	0xbbf46c95	-0.007459233
86	0xbd8c075c	-0.06837341
87	0x3c2d5e65	0.010581587
88	0xbdc0e5c9	-0.09418828
89	0x3d16de7d	0.036833275
90	0xbe89d688	-0.26921487
91	0xbd02e0f7	-0.031952824
92	0x3e6162ad	0.22010298
93	0xbe408f7b	-0.18804733
94	0x3df9e6a0	0.12202191
95	0xbcabf061	-0.020988645
96	0xbe278fc9	-0.16363443
97	0xbd7320e6	-0.059357546
98	0x3d80ef23	0.06295612
99	0xbdf4319a	-0.11923523
100	0x3d9dbe78	0.07702345
101	0x3e0bb298	0.13642347
102	0xbc8adbcb	-0.016950509
103	0x3d843748	0.064558566
104	0x3d6b8a2d	0.05750482
105	0xbda2b373	-0.079443835
106	0xbc0b68fa	-0.008508915
107	0xbd807bf7	-0.062736444
108	0xbc7af357	-0.015316806
109	0xbda977ad	-0.082747795
110	0xbe8c1f9f	-0.27367875
111	0xbdd15ceb	-0.10222801
112	0xbc2aeade	-0.010431973
113	0x3cb6bbdb	0.022306373
114	0x3e01d59a	0.12679139
115	0xbc93c83c	-0.018039815
116	0x3dbce1f4	0.09222785
117	0xbdca55bd	-0.098796345
118	0x3e6c0e6b	0.23052375
119	0xbdc653b8	-0.09683937
120	0x3b1a610b	0.0023556377
121	0xbd97c70c	-0.07411012
122	0xbd70ed65	-0.058820147
123	0xbd261471	-0.04054684
124	0xbe2f9c3f	-0.17149447
125	0x3cd4705e	0.025932487
126	0x3c970ec4	0.018439658
127	0xbd34062a	-0.04395119
128	0x3d810636	0.06300013
129	0xba00b9a8	-0.00049104774
130	0xbd8cca00	-0.06874466
131	0xbdaacdf4	-0.08340064
132	0xbd54a1ad	-0.051912
133	0x3dca292c	0.09871134
134	0x3d6fc414	0.058536604
135	0x3e36563a	0.1780633
136	0xbcf438c8	-0.029812232
137	0x3d91dc61	0.07122112
138	0xbe2b30e2	-0.16717866
139	0xbca2459e	-0.019808587
140	0xbd360629	-0.04443947
141	0xbd8380e3	-0.064210676
142	0xbd4b2ebe	-0.049605124
143	0x3e125187	0.14288913
144	0xbd5664f7	-0.05234238
145	0xbdd4023b	-0.10351988
146	0x3daada6b	0.08342441
147	0xbd50ffd6	-0.051025234
148	0xbd97f883	-0.07420447
149	0x3db76f4f	0.08956777
150	0xbb192250	-0.00233664
151	0x3d724b0b	0.059153598
152	0x3db4e27a	0.088322595
153	0xbd698edc	-0.057021007
154	0x3b01c11f	0.0019798947
155	0x3d09f3fc	0.033679947
156	0x3d303dea	0.043027796
157	0xbe063923	-0.13107733
158	0xbd89bd8c	-0.06725606
159	0x3e737fe7	0.2377926
160	0x3e23f14b	0.16010015
161	0x3d014768	0.03156224
162	0xbc892c4b	-0.016744753
163	0x3d6cf63f	0.057852026
164	0x3e2a4726	0.16628703
165	0x3da44dcc	0.08022651
166	0x3e4038db	0.18771689
167	0xbd8a8da1	-0.06765295
168	0xbcc6a5de	-0.024249014
169	0x3d35963a	0.04433272
170	0xbd0771f2	-0.03306765
171	0x3d59c173	0.053163003
172	0xbdb8bced	-0.0902041
173	0x3d201792	0.03908498
174	0x3de45f5f	0.11151003
175	0x3e0c0ae3	0.13676028
176	0xbe037235	-0.12836535
177	0xbbfd407f	-0.007728636
178	0xbd621b19	-0.055201624
179	0xbda4e5f6	-0.08051674
180	0x3e1aa238	0.15100944
181	0x3c21eb68	0.009882785
182	0x3de566df	0.11201262
183	0x3c7c7b4b	0.015410255
184	0xbcd4dbbb	-0.025983682
185	0xbe027bb6	-0.12742504
186	0xbc5a275c	-0.013315048
187	0x3d801489	0.06253917
188	0xbd2a8ccd	-0.041638184
189	0xbdd9299a	-0.10603638
190	0x3deceb01	0.11568261
191	0x3d086e68	0.033308417
192	0x3dc881a3	0.09790351
193	0xbdf154a0	-0.11783719
194	0xbcb25881	-0.021770718
195	0x3cf23125	0.02956445
196	0xbd8bafe0	-0.06820655
197	0xbdc1e532	-0.09467544
198	0xbdca66d0	-0.09882891
199	0x3e1e497e	0.15457723
200	0x3d9af852	0.075668946
201	0xbcc0eb0b	-0.023549577
202	0x3e763355	0.24043019
203	0x3e294ca8	0.16533148
204	0x3e497829	0.19674744
205	0x3c9f763f	0.019465564
206	0xbd51edf0	-0.051252306
207	0xbd9f92a3	-0.077916406
208	0xbd4931fd	-0.04911994
209	0x3e1ea415	0.1549228
210	0xbc239834	-0.0099850185
211	0xbe02f2fd	-0.12788005
212	0xbe563248	-0.20917618
213	0x3d8e0a90	0.069356084
214	0x3e4909ce	0.19632646
215	0x3e09f833	0.13473587
216	0x3cf6a47b	0.030107727
217	0xbbddefb4	-0.0067729596
218	0xbd8a4cc0	-0.0675292
219	0x3e6386dc	0.22219414
220	0x3d82d13a	0.06387563
221	0xbcb103a2	-0.021608178
222	0x3bb9939a	0.0056633474
223	0x3d0de689	0.034643684
224	0x3e285507	0.16438685
225	0x3b170aec	0.0023047281
226	0xbd5227f3	-0.05130763
227	0x3e6cbc90	0.23118806
228	0xbbf32b0f	-0.0074209045
229	0xbd7776f6	-0.060416184
230	0x3dd3df1e	0.103452906
231	0xbce6a5c2	-0.028155211
232	0xbd8e555a	-0.06949873
233	0xbd3c0b6b	-0.045909327
234	0xbe8afabd	-0.27144423
235	0x3d678fef	0.05653375
236	0x3d963b3e	0.07335518
237	0x3e599d80	0.21251488
238	0xbc7b4854	-0.015337069
239	0xbdd8ebe5	-0.10591868
240	0xbd5b2e67	-0.05351105
241	0xbd41193c	-0.047143206
242	0x3ae055cb	0.0017115412
243	0xbe330a78	-0.17484462
244	0xbd11a554	-0.03555806
245	0xbdcdda39	-0.10051388
246	0xbd86d231	-0.065830596
247	0xbd2acd9e	-0.041699998
248	0x3bdcaf83	0.00673479
249	0xbc8496de	-0.01618522
250	0xbdffda9e	-0.1249287
251	0x3e20b6c2	0.15694717
252	0x3d949904	0.07255748
253	0xbd9bf3ea	-0.07614882
254	0x3d27ac8f	0.04093605
255	0xbb82eced	-0.003995529
