results/Drone3/Drone/Drone-17499965.onnx (onnx, 810629 bytes, 11 tensors)

action_model._continuous_distribution.log_sigma f4 [1, 4]
-1.4116341 -1.3576542 -1.2934515 -1.1658462
00000000: 6db0 b4bf 9dc7 adbf d28f a5bf 733a 95bf

action_model._continuous_distribution.mu.bias f4 [4]
0.081198305 0.014649947 0.08799438 -0.0027760954
00000000: 4c4b a63d 5506 703c 6636 b43d 27ef 35bb

action_model._continuous_distribution.mu.weight f4 [4, 256]
0.024119396 -0.041274052 -0.0142061645 -0.08829938 -0.06256097 0.012628062 -0.001050904 -0.05344538
-0.0002122765 0.03018355 -0.06622908 -0.03725765 0.05094821 -0.03457317 -0.025331471 -0.08385897
-0.010192219 0.016174138 0.03937481 0.032322325 0.04834997 -0.008050393 -0.01264383 -0.06402241
0.026794285 -0.006895086 -0.02877985 -0.02797952 0.0137259 -0.017412696 -0.008255005 -0.025802342
0.010593871 0.0682841 -0.06481409 -0.016007157 0.05175256 0.01363502 0.037178393 -0.046237968
0.022635652 -0.06874408 0.009652759 -0.02465863 -0.07081956 -0.08881306 0.06546589 -0.113369636
0.037556425 -0.012687387 -0.07748069 -0.022586303 -0.009411431 0.055234354 0.019621845 -0.06491421
-0.060959395 -0.041817527 -0.0981595 -0.018139925 0.017651333 -0.03651689 0.04133905 0.05360237
-0.038694397 -0.037137136 -0.04391603 -0.018013418 0.029871732 0.011500724 0.018828293 -0.03584045
-0.020809773 0.0056669516 0.059175845 -0.008352892 0.0417001 -0.08395192 -0.06750313 -0.0025652167
0.008732479 -0.062094316 -0.037364673 -0.04117283 -0.028897567 -0.035182163 0.007100399 0.056672182
-0.0490463 -0.0439873 0.0026847438 0.009133126 0.045343023 0.012050324 -0.024978874 -0.12931429
-0.0700974 0.046501637 -0.009320895 -0.039385688 -0.022168687 -0.03914842 0.04502898 -0.06302
0.0122176595 0.048607226 0.04210268 0.010471278 -0.026981868 -0.007550185 -0.043349583 -0.026263652
0.0562417 -0.021092208 -0.03122501 -0.027307488 0.037497938 -0.053818583 -0.046106547 -0.013287982
-0.03792039 -0.030520609 -0.023274979 -0.022059774 -0.010488724 -0.0120652905 -0.033720557 -0.08682653
-0.12965137 -0.026998477 -0.035307135 -0.0107544875 -0.06034695 0.050410587 -0.05686861 -0.06773639
0.004626899 -0.032214466 0.060124807 -0.11067468 -0.06612219 -0.0069393576 0.02740026 0.07481142
0.024816763 -0.041755073 -0.07760851 -0.012014699 -0.067858584 -0.028491393 -0.008068167 0.021708306
-0.015706504 0.0017294387 0.008690276 0.007872339 -0.04929374 0.024792189 0.04414798 -0.06444803
-0.0941645 0.061241094 -0.01608786 -0.059212267 0.006632043 0.00086588564 0.05480827 0.04017163
-0.045482505 -0.020158777 -0.022191916 -0.05388134 0.09127144 0.021956388 0.0011396752 0.023331497
-0.014428843 0.03727002 -0.017883055 0.035506308 0.021347076 0.008313419 0.02767415 -0.022322511
0.0077980286 -0.039680503 0.02854391 -0.043372903 -0.021595288 0.020210056 0.019958658 -0.0215167
-0.08374065 0.016534796 0.052865468 -0.09183852 -0.0222284 0.024616119 -0.035540476 -0.0073693874
-0.08364962 0.016117174 0.0064358884 -0.072557196 -0.0077821272 -0.032369435 -0.019332312 -0.01739099
-0.029251212 -0.04594375 -0.06840435 0.008341388 0.027281497 0.012281939 -0.03191217 -0.026183972
-0.05963244 0.022399532 -0.0018539114 0.039317355 -0.036223836 0.001204328 -0.0082827015 -0.031019414
-0.055420626 -0.02365217 -0.064635225 -0.016317876 0.0024012052 -0.020352585 0.019553013 0.0846235
-0.041151114 0.010320868 0.031693768 -0.0019218221 -0.022243224 0.031736404 -0.018088616 -0.019623326
0.011985519 0.014330415 -0.011800377 -0.009173774 0.016040318 0.049685374 0.013412138 0.02446601
0.007841322 -0.025697296 -0.04929196 -0.020586068 0.0348292 -0.02870875 -0.04516239 -0.08168134
00000000: 0a96 c53c fb0e 29bd f9c0 68bc 4ed6 b4bd
00000010: f71f 80bd eee5 4e3c 7dbe 89ba 8be9 5abd
00000020: 8a96 5eb9 7e43 f73c 1da3 87bd 7a9b 18bd
00000030: 12af 503d 999c 0dbd f283 cfbc 40be abbd
00000040: 44fd 26bc a07f 843c 7b47 213d 6a64 043d
00000050: 9e0a 463d cce5 03bc 1128 4fbc 2e1e 83bd
00000060: b07f db3c 2cf0 e1bb b8c3 ebbc 4e35 e5bc
00000070: 99e2 603c 12a5 8ebc 0040 07bc 6f5f d3bc
00000080: ea91 2d3c 89d8 8b3d 40bd 84bd 7121 83bc
00000090: 7efa 533d 6b65 5f3c 5f48 183d 0664 3dbd
000000a0: 676e b93c b2c9 8cbd 9b26 1e3c e500 cabc
000000b0: d809 91bd 9fe3 b5bd fb12 863d 572e e8bd
000000c0: c4d4 193d c2de 4fbc 32ae 9ebd e906 b9bc
000000d0: 6732 1abc 6b3d 623d febd a03c bef1 84bd
000000e0: 8fb0 79bd db48 2bbd d907 c9bd 2e9a 94bc
000000f0: 8799 903c bc92 15bd 2353 293d 298e 5b3d
00000100: 047e 1ebd 1c1d 18bd 4ce1 33bd e090 93bc
00000110: 90b5 f43c 886d 3c3c cb3d 9a3c 70cd 12bd
00000120: 4279 aabc d6b1 b93b 5f62 723d 91da 08bc
00000130: b9cd 2a3d fcee abbd 153f 8abd 321d 28bb
00000140: ac12 0f3c 9c56 7ebd b30b 19bd d7a4 28bd
00000150: 97ba ecbc 2c1b 10bd 77aa e83b 1721 683d
00000160: c6e4 48bd 072c 34bd 87f2 2f3b 1ba3 153c
00000170: 9bb9 393d b96e 453c 7fa0 ccbc f76a 04be
00000180: 3a8f 8fbd 8078 3e3d abb6 18bc e352 21bd
00000190: 1b9b b5bc 185a 20bd 4f70 383d a110 81bd
000001a0: 942c 483c 5f18 473d dc73 2c3d b98f 2b3c
000001b0: 1409 ddbc 8b67 f7bb 558f 31bd df26 d7bc
000001c0: b25d 663d 91c9 acbc 98cb ffbc f4b3 dfbc
000001d0: 7097 193d e070 5cbd 38da 3cbd d6b5 59bc
000001e0: 6952 1bbd 5b06 fabc 2bab bebc b3b6 b4bc
000001f0: e6d8 2bbc 7fad 45bc 911e 0abd 1cd2 b1bd
00000200: 54c3 04be e92b ddbc 379e 10bd 9733 30bc
00000210: 5d2e 77bd 557b 4e3d 0fef 68bd 60b9 8abd
00000220: 3e9d 973b 51f3 03bd 6e45 763d 68a9 e2bd
00000230: 126b 87bd 8d63 e3bb 8376 e03c bb36 993d
00000240: 864c cb3c 5e07 2bbd 36f1 9ebd 4dd9 44bc
00000250: 71f9 8abd c866 e9bc 5830 04bc 9ed5 b13c
00000260: edaa 80bc 55ae e23a a961 0e3c fcfa 003c
00000270: 3ce8 49bd fd18 cb3c 83d4 343d 54fd 83bd
00000280: 51d9 c0bd f1d7 7a3d b0ca 83bc 9088 72bd
00000290: 9c51 d93b 9afc 623a a37e 603d 028b 243d
000002a0: dd4b 3abd 0524 a5bc d2cb b5bc aeb2 5cbd
000002b0: 85ec ba3d e2dd b33c 2761 953a b221 bf3c
000002c0: f466 6cbc 73a8 183d 7c7f 92bc 106f 113d
000002d0: 10e0 ae3c 0235 083c e6b4 e23c b3dd b6bc
000002e0: 9b86 ff3b 0688 22bd ebd4 e93c c9a7 31bd
000002f0: 9ae8 b0bc 8f8f a53c 5780 a33c ca43 b0bc
00000300: 3880 abbd fb73 873c 7689 583d d515 bcbd
00000310: 5518 b6bc bea7 c93c e492 11bd e77a f1bb
00000320: 7e50 abbd 2a08 843c 25e4 d23b de98 94bd
00000330: 3701 ffbb d095 04bd cc5e 9ebc 8d77 8ebc
00000340: 3da0 efbc 832f 3cbd 9417 8cbd 51aa 083c
00000350: 727d df3c 303a 493c 56b6 02bd c57f d6bc
00000360: 2541 74bd 397f b73c f2fe f2ba 3c0b 213d
00000370: 725f 14bd 8bda 9d3a 2bb4 07bc 6d1c febc
00000380: bd00 63bd 32c2 c1bc 795f 84bd 11ad 85bc
00000390: 8a5d 1d3b 77ba a6bc a42d a03c 164f ad3d
000003a0: 128e 28bd dc18 293c 53d1 013d a6e5 fbba
000003b0: 6c37 b6bc 08fe 013d 942e 94bc 19c1 a0bc
000003c0: e95e 443c 1eca 6a3c 5e56 41bc 994d 16bc
000003d0: fc66 833c e482 4b3d 96be 5b3c f16c c83c
000003e0: e378 003c 2383 d2bc 5ee6 49bd 1da4 a8bc
000003f0: 10a9 0e3d 9d2e ebbc 33fc 38bd 8c48 a7bd

network_body._body_endoder.seq_layers.0.bias f4 [256]
0.10018308 -0.1388486 0.13634813 -0.04125031 -0.19243088 -0.084950894 -0.101384595 -0.11351826
-0.18372442 -0.0061700353 -0.1378668 -0.10218032 -0.009491419 -0.107740544 -0.02310884 0.03542714
0.111400925 -0.1467418 -0.0204639 -0.19137737 -0.010020018 -0.10813877 -0.08488144 -0.15862747
-0.041578107 -0.04309201 -0.08536842 -0.03249734 -0.081253 -0.28631085 -0.0019635085 -0.070450544
-0.057513013 -0.13766748 -0.095642425 -0.1508339 -0.13965127 -0.14823592 -0.14660843 -0.13323872
-0.047455873 -0.17041227 -0.04476823 0.048259467 -0.13041544 -0.12336715 0.016919767 -0.1463784
0.09424699 -0.061756995 -0.16105038 -0.1796301 -0.09120536 0.03767445 -0.07108488 -0.2208897
-0.14564478 -0.15760209 -0.0005746114 -0.09484705 -0.2393455 -0.094708644 -0.15903187 -0.10480331
-0.11184385 -0.10518613 -0.12016054 0.030884681 -0.15036684 -0.06432514 -0.05782508 -0.115382195
-0.073383495 -0.017009158 -0.14515793 -0.02137656 -0.112307936 -0.05008556 -0.14216773 -0.21755518
-0.10427815 0.050276678 -0.0667462 0.114572085 -0.071492314 -0.19964832 -0.17445755 -0.13694571
-0.15657622 -0.12479019 -0.13682985 -0.08337248 0.14868416 0.029561877 0.03152655 -0.3101836
-0.13853362 -0.12907048 -0.08731356 0.049295392 -0.014862566 -0.16945423 -0.12783812 -0.14509276
0.017431246 -0.13770422 -0.062405035 0.15472916 -0.0034120493 -0.00549265 -0.049236555 -0.11608086
-0.10147073 0.08310243 0.0358746 -0.17479095 -0.15992384 -0.037019752 -0.22522414 -0.1992011
-0.04994411 -0.13038655 -0.1398183 -0.09905899 -0.07387872 -0.0071261507 -0.051635914 -0.07766964
0.042127606 -0.08693277 -0.04877378 -0.010056856 0.015530823 -0.1130671 0.08585341 -0.114852786
0.0963058 -0.18920077 -0.13565232 0.033944953 -0.10982265 0.11083922 -0.041674193 -0.16109875
-0.10352905 -0.027535403 -0.16031626 -0.24567425 -0.056296933 -0.07474707 -0.004919963 0.010863341
0.05625035 0.061415136 -0.0049823904 0.05316608 0.0134732 -0.12151537 -0.08793527 -0.035317224
0.05526262 0.15478586 -0.060487617 0.024648687 -0.06566269 -0.012389687 -0.08075349 -0.014326838
-0.051482525 -0.0013396856 -0.10823328 -0.05939964 -0.029701727 -0.039883915 0.027705476 -0.04210604
-0.087546505 -0.21552284 0.025857257 -0.19376996 -0.23400871 -0.019638225 -0.06032317 -0.086791076
-0.18139434 0.07162636 -0.11348476 -0.024449913 -0.1621789 0.1256681 -0.15789402 0.00050660555
-0.06727687 0.01624455 -0.05874643 -0.053471122 -0.12060258 -0.025458016 -0.09029011 -0.037580498
0.017445322 0.06749724 -0.12382379 -0.15971926 -0.045446143 -0.1247345 -0.07201012 -0.17150979
-0.083647855 -0.050455634 0.014051383 -0.012113117 -0.12955424 -0.027745007 -0.112993635 -0.14117613
0.00411729 0.04347899 -0.11972571 -0.11827531 -0.27863604 -0.043904085 0.08388861 -0.011454897
-0.1075186 -0.08943141 -0.08682942 -0.17359385 -0.15968235 -0.013052945 0.1472218 0.04342166
-0.12800153 -0.09852444 -0.08288522 -0.038265344 0.017950404 -0.06450871 -0.11785871 0.07143682
-0.06075632 0.112019256 0.013822743 -0.04976003 -0.022524823 -0.15271328 -0.12161372 -0.081749216
-0.054566883 -0.090626195 -0.16974628 -0.031897895 0.031280767 -0.09918471 -0.00023916639 -0.09175209
00000000: c92c cd3d 542e 0ebe d89e 0b3e 16f6 28bd
00000010: 9a0c 45be bcfa adbd baa2 cfbd 437c e8bd
00000020: 4122 3cbe 022e cabb f42c 0dbe ea43 d1bd
00000030: e681 1bbc 13a7 dcbd c04e bdbc 0c1c 113d
00000040: 2b26 e43d 7b43 16be e9a3 a7bc 6ef8 43be
00000050: 002b 24bc dc77 ddbd 52d6 adbd 3d6f 22be
00000060: ce4d 2abd 3f81 30bd a3d5 aebd ee1b 05bd
00000070: f967 a6bd 5697 92be 35ae 00bb 6048 90bd
00000080: c492 6bbd b4f8 0cbe 2de0 c3bd 3474 1abe
00000090: be00 0fbe 28cb 17be 8520 16be bb6f 08be
000000a0: 1761 42bd 8e80 2ebe e45e 37bd b8ab 453d
000000b0: a08b 05be eba7 fcbd 539b 8a3c 38e4 15be
000000c0: 9104 c13d e7f4 7cbd 64ea 24be f4f0 37be
000000d0: e0c9 babd 8650 1a3d f394 91bd e930 62be
000000e0: e823 15be 7162 21be 85a1 16ba 2c3f c2bd
000000f0: fd16 75be 9bf6 c1bd 40d9 22be 1ea3 d6bd
00000100: 630e e5bd d36b d7bd bb16 f6bd df01 fd3c
00000110: c4f9 19be e6bc 83bd fed9 6cbd 804d ecbd
00000120: 164a 96bd ca56 8bbc 48a4 14be e51d afbc
00000130: b401 e6bd 8426 4dbd 6b94 11be c9c6 5ebe
00000140: c88f d5bd ebee 4d3d 3bb2 88bd c5a4 ea3d
00000150: 906a 92bd 9c70 4cbe 00a5 32be 7f3b 0cbe
00000160: 8455 20be 0092 ffbd 201d 0cbe 31bf aabd
00000170: a940 183e c02b f23c fc21 013d 63d0 9ebe
00000180: c2db 0dbe 0d2b 04be 74d1 b2bd f7e9 493d
00000190: 1f82 73bc 6985 2dbe ffe7 02be 3293 14be
000001a0: f9cb 8e3c 5602 0dbe 6c9c 7fbd 5271 1e3e
000001b0: b09c 5fbb b0fb b3bb 45ac 49bd cdbb edbd
000001c0: e3cf cfbd 9b31 aa3d 3ff1 123d 66fc 32be
000001d0: 13c3 23be 06a2 17bd 28a1 66be 60fb 4bbe
000001e0: 3292 4cbd 0d84 05be 872c 0fbe 71df cabd
000001f0: ba4d 97bd 7c82 e9bb 2e80 53bd 4311 9fbd
00000200: ff8d 2c3d cf09 b2bd 04c7 47bd 83c5 24bc
00000210: fe74 7e3c b98f e7bd ead3 af3d f037 ebbd
00000220: fa3b c53d d9bd 41be 71e8 0abe dd09 0b3d
00000230: b3ea e0bd acff e23d 8fb2 2abd 12f7 24be
00000240: 0a07 d4bd ed91 e1bc f229 24be 0892 7bbe
00000250: 9d97 66bd fe14 99bd a437 a1bb 28fc 313c
00000260: c466 663d 708e 7b3d 5243 a3bb adc4 593d
00000270: b2be 5c3c 0ddd f8bd 6817 b4bd cba8 10bd
00000280: 0f5b 623d 2f80 1e3e ddc1 77bd 0bec c93c
00000290: 297a 86bd 1dfe 4abc 1662 a5bd 1dbb 6abc
000002a0: 57df 52bd 6498 afba 69a9 ddbd 094d 73bd
000002b0: 0951 f3bc 515d 23bd 98f6 e23c 6277 2cbd
000002c0: 954b b3bd 05b2 5cbe 99d2 d33c a26b 46be
000002d0: fb9f 6fbe 58e0 a0bc 6e15 77bd 85bf b1bd
000002e0: 70bf 39be d7b0 923d b36a e8bd 2f4b c8bc
000002f0: 3a12 26be 23af 003e f8ae 21be b9cd 043a
00000300: 75c8 89bd 4a13 853c 19a0 70bd 8904 5bbd
00000310: 7cfe f6bd 548d d0bc 05ea b8bd 02ee 19bd
00000320: 7ee9 8e3c fe3b 8a3d 5497 fdbd 728d 23be
00000330: bc25 3abd cd74 ffbd 0b7a 93bd 43a0 2fbe
00000340: 914f abbd 91aa 4ebd c637 663c 1876 46bc
00000350: dea9 04be 7f49 e3bc 3569 e7bd 7a90 10be
00000360: 55ea 863b 0717 323d c132 f5bd 533a f2bd
00000370: 62a9 8ebe c5d4 33bd cbcd ab3d 52ad 3bbc
00000380: b632 dcbd d127 b7bd 9fd3 b1bd 96c2 31be
00000390: c583 23be 05dc 55bc 50c1 163e e9da 313d
000003a0: d512 03be 2ec7 c9bd babf a9bd 1fbc 1cbd
000003b0: ba0c 933c 241d 84bd e85f f1bd 784d 923d
000003c0: 9edb 78bd 5a6a e53d c978 623c 2cd1 4bbd
000003d0: fa85 b8bc df60 1cbe 9d10 f9bd 226c a7bd
000003e0: 8681 5fbd 3a9a b9bd f8d1 2dbe 5ea7 02bd
000003f0: 4320 003d 5a21 cbbd bdc8 7ab9 85e8 bbbd

network_body._body_endoder.seq_layers.0.weight f4 [256, 13]
0.27752072 -0.23755106 -0.21209493 -0.08527104 0.17154661 0.22309944 0.8781122 -0.12875146
-1.2040838 1.0250859 -0.16518947 -0.09660372 0.60362715 0.123807445 0.17642565 0.11325181
-0.1923277 -0.06335456 -0.015807098 0.31463253 -0.052185815 -0.29799247 0.014769181 0.14825766
-0.02575116 0.61633146 -0.030126097 0.11241133 -0.4100948 -0.064944714 -0.027648188 0.115676254
2.3359094 0.42027035 0.18381394 0.6098648 -0.115878664 0.6016644 0.07911102 0.21180077
-0.537186 -0.15684558 -0.03983496 0.10130206 -0.13565254 -0.08355058 -0.060027972 0.17628358
-0.05488835 -0.00833301 -0.39445996 -0.030588465 -0.26139244 -0.458805 0.1829084 0.6434423
-0.44747087 0.26788402 0.22619312 0.3345645 0.090300485 -0.53410983 -0.09907124 -0.4226028
0.11862342 -0.019624852 -0.027418764 -0.0014459001 -0.15035255 0.15935628 0.22302222 -1.2395592
-0.16543312 0.04371531 -0.07974429 -0.048639946 0.18536884 -0.27081308 -0.023314035 -0.28202605
-0.48026243 0.18361846 -0.15145947 -0.09893085 -0.58766913 0.26882562 -0.2528366 0.3651336
0.027155984 0.17867427 -0.24679656 0.1631238 -0.8491023 0.030740324 -0.32660893 0.080757186
-0.22014388 -0.07965235 -0.6487613 -0.1640532 0.18566509 -0.12537606 -0.152467 -0.16097423
0.17795801 -0.07202855 0.06977976 0.2388541 0.079733476 -0.20955001 -0.5449143 -0.60082304
0.12617414 -0.17633365 -0.01690487 0.041137908 -0.16191615 0.37244397 -0.22362584 0.14652131
0.14440307 -0.048937827 0.012128863 -0.113424376 -0.029342799 0.42588973 -0.40474087 0.07303671
0.19282806 -0.06424969 0.001679746 -0.031945113 -0.0016797404 0.11657211 0.037437458 -0.009146794
0.0012065782 -0.39439785 -0.101180926 -0.31951353 0.5347964 -0.6194516 0.09510317 -0.07548898
-0.29648855 -0.014041921 -0.3610117 0.12542053 0.10208006 -0.8559095 -0.38012677 0.29491517
0.14419135 -0.17401111 0.30323356 -0.13130972 0.14247608 0.17063203 0.36117435 -0.278278
0.24287792 0.17854324 0.42291126 -0.36264262 0.6697829 -0.0430932 -0.32113975 0.39372432
0.47356415 0.33181676 -0.23622233 0.0035444547 0.10544433 0.1505806 0.7417532 -0.7490458
0.0077924603 -0.44619784 -0.49578843 0.08421798 0.17402954 -0.16255611 -0.26649743 -0.09840248
-0.39380473 0.09354321 -0.1621903 0.04364622 0.5347314 0.42051286 0.16001585 0.4646954
-0.056692056 -0.31309414 0.03863582 0.035920758 0.131782 -0.00037604672 0.11573199 -0.37588903
0.19446357 -0.74539745 0.29799977 -1.3595285 0.40917352 -0.021245996 0.06662229 -0.102085896
-0.0018421834 0.34692878 0.06884715 -0.1876021 0.07239799 0.08416908 1.0529863 -0.03985472
0.6623349 0.350732 -0.2907275 0.5896089 0.40280625 0.098485194 0.44203764 0.28245965
-0.30031136 -0.15235393 0.07029176 -0.20389627 0.062093936 1.0338227 -0.26538745 0.10908116
-0.12454822 -0.08582997 -0.4299091 0.06819103 0.06971268 0.34228584 -0.29756185 -0.10156357
-1.7051206 -0.516995 -0.031721216 0.43913224 0.07715886 -0.1516523 -0.07439307 0.20220403
-0.41174787 0.13171221 -0.32802415 0.24432582 -0.33322775 -0.20368946 -0.43234268 0.14208679
00000000: 3217 8e3e 9640 73be 6a2f 59be 95a2 aebd
00000010: eaa9 2f3e 2e74 643e f6cb 603f 6cd7 03be
00000020: 6b1f 9abf 0436 833f 6e27 29be 2cd8 c5bd
00000030: 4f87 1a3f c28e fd3d eda8 343e 91f0 e73d
00000040: 8df1 44be 09c0 81bd e37d 81bc 8417 a13e
00000050: cbc0 55bd 7892 98be 6ffa 713c dbd0 173e
00000060: 19f4 d2bc e6c7 1d3f 01cb f6bc e937 e63d
00000070: f2f7 d1be bc01 85bd 747e e2bc ace7 ec3d
00000080: 8a7f 1540 ad2d d73e b939 3c3e 1920 1c3f
00000090: cb51 edbd ae06 1a3f f504 a23d 4de2 583e
000000a0: 0685 09bf 219c 20be fc29 23bd 7477 cf3d
000000b0: 80e8 0abe 911c abbd e4df 75bd af83 343e
000000c0: 9bd2 60bd 2d87 08bc a8f6 c9be a994 fabc
000000d0: 3bd5 85be 7de8 eabe 574c 3b3e a2b8 243f
000000e0: e71a e5be 1828 893e 2b9f 673e 0a4c ab3e
000000f0: 76ef b83d 6cbb 08bf dde5 cabd 655f d8be
00000100: d6f0 f23d 4cc4 a0bc 519d e0bc 5b84 bdba
00000110: 05f6 19be 4b2e 233e f05f 643e e0a9 9ebf
00000120: 4d67 29be d30e 333d f950 a3bd ae3a 47bd
00000130: 54d1 3d3e 03a8 8abe 13fd bebc b865 90be
00000140: f5e4 f5be 7a06 3c3e 3118 1bbe 429c cabd
00000150: 7c71 16bf 83a3 893e cd73 81be cbf2 ba3e
00000160: 3a76 de3c 63f6 363e 3db8 7cbe ed09 273e
00000170: c55e 59bf 22d3 fb3c 4939 a7be 0664 a53d
00000180: 666d 61be c520 a3bd 3815 26bf 90fd 27be
00000190: fd1e 3e3e 9562 00be 4f20 1cbe 6ed6 24be
000001a0: a03a 363e b483 93bd b1e8 8e3d 2b96 743e
000001b0: 4e4b a33d 4794 56be 817f 0bbf 8acf 19bf
000001c0: cb33 013e cf90 34be 157c 8abc 3980 283d
000001d0: 59cd 25be fab0 be3e 2cfe 64be af09 163e
000001e0: 66de 133e 0873 48bd 23b8 463c 0a4b e8bd
000001f0: 4f60 f0bc 380e da3e 323a cfbe 4594 953d
00000200: b874 453e 5795 83bd ec2a dc3a e1d8 02bd
00000210: bc2a dcba 5cbd ee3d 0558 193d 6fdc 15bc
00000220: 0c26 9e3a 84ee c9be f237 cfbd 4797 a3be
00000230: 6be8 083f 6194 1ebf 73c5 c23d f799 9abd
00000240: 59cd 97be 1610 66bc 87d6 b8be 3d6e 003e
00000250: 5a0f d13d e31c 5bbf fa9f c2be 1fff 963e
00000260: e6a6 133e f82f 32be 6e41 9b3e 0e76 06be
00000270: 40e5 113e 2aba 2e3e d8eb b83e 747a 8ebe
00000280: fdb4 783e 0ad4 363e d387 d83e 4bac b9be
00000290: e476 2b3f 7f82 30bd 6e6c a4be 3c96 c93e
000002a0: 0077 f23e e3e3 a93e 44e4 71be 154a 683b
000002b0: 32f3 d73d cd31 1a3e 8ae3 3d3f 77c1 3fbf
000002c0: e557 ff3b 0b74 e4be fbd7 fdbe 7a7a ac3d
000002d0: cd34 323e 1c75 26be 5a72 88be 3d87 c9bd
000002e0: c6a0 c9be 9593 bf3d 3715 26be 61c6 323d
000002f0: 28e4 083f 764d d73e 32db 233e 8eec ed3e
00000300: ee35 68bd e04d a0be 9840 1e3d a521 133d
00000310: dcf1 063e 2328 c5b9 e504 ed3d 8774 c0be
00000320: 7521 473e 5ed2 3ebf 6d93 983e 0805 aebf
00000330: 317f d13e 150c aebc 4471 883d 6912 d1bd
00000340: 6b75 f1ba a6a0 b13e bcff 8c3d c41a 40be
00000350: 6645 943d d760 ac3d 41c8 863f b43e 23bd
00000360: c88e 293f 2593 b33e 3cda 94be 9cf0 163f
00000370: 9f3c ce3e 9bb2 c93d c252 e23e 8d9e 903e
00000380: 69c2 99be ab02 1cbe 20f5 8f3d 2fca 50be
00000390: 3656 7e3d 4d54 843f dde0 87be f165 df3d
000003a0: 2313 ffbd a0c7 afbd 0c1d dcbe bda7 8b3d
000003b0: 86c5 8e3d 1740 af3e 075a 98be 9000 d0bd
000003c0: 6441 dabf c959 04bf 1bee 01bd f1d5 e03e
000003d0: 7705 9e3d be4a 1bbe 655b 98bd 930e 4f3e
000003e0: 9ed0 d2be 91df 063e c8f2 a7be 8c30 7a3e
000003f0: d49c aabe f893 50be 055c ddbe 337f 113e

network_body._body_endoder.seq_layers.2.bias f4 [256]
-0.07468724 -0.053030048 0.060780536 0.07195133 -0.03788746 -0.012915002 -0.025230058 -0.007776988
-0.018112231 -0.17273995 -0.019460453 0.05073978 0.0070052794 -0.01522349 0.022806212 -0.12603305
-0.043850407 -0.008036855 -0.07347045 -0.086839706 -0.044275563 -0.00088776345 -0.07810109 0.03857709
-0.03753933 -0.053232588 -0.094402686 -0.054597132 -0.0188268 -0.057242405 -0.0057086814 -0.01028593
0.0039451527 -0.16151482 -0.08699763 -0.08718397 -0.06584566 -0.11191048 -0.1626976 -0.033867925
-0.07444432 -0.045261428 -0.0903157 -0.06395272 -0.08145745 -0.04890823 -0.024231415 -0.14164272
-0.041134406 -0.08275201 0.06986364 -0.015938925 0.026541702 -0.019669278 -0.048273068 -0.0028032814
-0.042494565 -0.047614004 -0.09755381 -0.06973868 -0.103465036 -0.050783634 -0.042631056 -0.13047181
0.015674751 -0.03965064 -0.15073577 -0.06390585 -0.088594764 0.014717602 0.00890745 0.026815625
-0.0854015 -0.036967717 -0.09079601 -0.10799081 -0.004758145 -0.04555989 -0.08275089 -0.024423962
-0.01892179 -0.076522514 0.016158972 -0.058642324 -0.0697332 -0.0048920643 0.051676914 -0.06977675
-0.02626161 -0.059308402 0.022322979 -0.0039801924 -0.108939566 -0.0046007186 -0.05066008 0.019798454
0.08871604 0.043237865 -0.056052502 -0.12221748 -0.034487963 -0.047587726 -0.058385037 -0.023524461
-0.03275496 -0.03265382 -0.049409032 -0.07328585 -0.07573418 -0.14818302 -0.029295571 0.020076293
-0.07567985 0.009752771 -0.046442498 -0.16963421 0.01939748 -0.0032805193 -0.14744143 0.032654684
-0.022747535 0.0031173995 -0.0022621935 -0.054567486 -0.06422448 0.043039892 -0.10425554 -0.09532529
-0.06253192 -0.04485625 -0.05833054 -0.016074175 0.022206986 -0.03794292 -0.040372677 -0.08860015
-0.053859606 -0.12147037 -0.01224913 0.04767856 -0.06359641 -0.09532159 -0.0050675245 -0.03363115
0.047463328 -0.04230946 -0.07032079 -0.036761127 -0.10083219 -0.09014943 -0.09938385 -0.030739395
0.007325377 -0.06306307 -0.066048026 -0.033082157 -0.09331987 -0.084245525 -0.06482205 -0.079349615
-0.07027514 -0.04159782 -0.024361167 -0.13120027 -0.043566633 0.03100619 -0.016493488 -0.0008531297
0.036739696 -0.09210445 -0.04938999 -0.026724048 0.028240928 -0.022137994 0.001443103 -0.043809764
-0.04086642 -0.115161635 0.08450135 0.05921824 -0.0017320006 -0.0423998 -0.04116132 -0.019127194
-0.03532504 0.05917134 -0.013433276 -0.13398221 -0.056573 -0.104118325 -0.06110334 -0.08072289
-0.01738095 -0.04485403 -0.028348608 -0.096986406 -0.058937352 0.11188056 -0.031061577 -0.13961089
-0.018364057 -0.011684245 0.0036961709 -0.008127295 -0.13876365 -0.048329666 -0.045765985 -0.05453963
-0.0367464 -0.10537161 -0.050507132 -0.095715314 -0.10277674 -0.07381715 -0.013938645 -0.051732685
-0.041469324 -0.06038041 0.01304121 -0.025253687 -0.03571676 -0.09363091 -0.061764263 -0.102503434
-0.039803546 -0.058228463 -0.09685094 -0.08296296 -0.038295977 0.05085477 0.010347437 -0.008788227
-0.070829906 -0.07000803 0.024876885 -0.08326671 -0.052328836 -0.044158988 -0.07324822 0.030754367
-0.038354486 -0.08293981 -0.048199385 0.022101674 -0.07603646 -0.015597527 0.0027893137 -0.058321312
-0.06004993 -0.046197955 -0.032469522 -0.07723039 -0.08400004 -0.07941667 -0.0010887064 -0.01802531
00000000: a0f5 98bd 0936 59bd 03f5 783d 385b 933d
00000010: e22f 1bbd 7299 53bc 44af cebc 1bd6 febb
00000020: 1a60 94bc bee2 30be 876b 9fbc 84d4 4f3d
00000030: 8b8c e53b f26b 79bc 18d4 ba3c cf0e 01be
00000040: 7c9c 33bd 03ad 03bc ad77 96bd 04d9 b1bd
00000050: 4b5a 35bd ccb8 68ba 77f3 9fbd 0303 1e3d
00000060: d7c2 19bd 6a0a 5abd 3256 c1bd 3ea1 5fbd
00000070: a93a 9abc 0377 6abd e40f bbbb 5186 28bc
00000080: 5746 813b 2464 25be d02b b2bd 828d b2bd
00000090: 17da 86bd 5231 e5bd 339a 26be 18b9 0abd
000000a0: 4376 98bd 0c64 39bd 70f7 b8bd a5f9 82bd
000000b0: 2ad3 a6bd ff53 48bd f680 c6bc ca0a 11be
000000c0: 8d7c 28bd e379 a9bd ab14 8f3d 5992 82bc
000000d0: fc6d d93c 7721 a1bc fbb9 45bd 42b7 37bb
000000e0: c80e 2ebd e706 43bd 4bca c7bd 27d3 8ebd
000000f0: 7ae5 d3bd 8002 50bd e79d 2ebd 679a 05be
00000100: 5668 803c b668 22bd 7a5a 1abe 12e1 82bd
00000110: 2c71 b5bd 1922 713c 8ef0 113c 71ac db3c
00000120: fbe6 aebd 766b 17bd 42f3 b9bd 492a ddbd
00000130: 37ea 9bbb 029d 3abd 4c79 a9bd c314 c8bc
00000140: df01 9bbc d6b7 9cbd d25f 843c ef32 70bd
00000150: 48d0 8ebd 9c4d a0bb 2cab 533d 1de7 8ebd
00000160: 9722 d7bc 5eed 72bd aede b63c 466c 82bb
00000170: b51b dfbd a0c1 96bb f280 4fbd 5e30 a23c
00000180: c1b0 b53d 301a 313d 4f97 65bd 284d fabd
00000190: 4043 0dbd 59eb 42bd 2625 6fbd 5fb6 c0bc
000001a0: 112a 06bd 03c0 05bd 2061 4abd e416 96bd
000001b0: 861a 9bbd 4abd 17be 44fd efbc 0a77 a43c
000001c0: 0afe 9abd 16ca 1f3c 7d3a 3ebd 97b4 2dbe
000001d0: 77e7 9e3c fbfd 56bb e3fa 16be ebc0 053d
000001e0: 0a59 babc 494d 4c3b 4f41 14bb 2882 5fbd
000001f0: 2088 83bd 994a 303d ee83 d5bd e839 c3bd
00000200: bc10 80bd 30bb 37bd 01ec 6ebd fdad 83bc
00000210: 6deb b53c 096a 1bbd d25d 25bd ff73 b5bd
00000220: e49b 5cbd 75c5 f8bd 93b0 48bc 984a 433d
00000230: d63e 82bd f737 c3bd 7a0d a6bb d1c0 09bd
00000240: e868 423d af4c 2dbd 5904 90bd d692 16bd
00000250: 1b81 cebd 44a0 b8bd c389 cbbd 2fd1 fbbc
00000260: b709 f03b 3627 81bd 3044 87bd 2881 07bd
00000270: 7d1e bfbd eb88 acbd 6cc1 84bd 0d82 a2bd
00000280: 6aec 8fbd 7a62 2abd 1291 c7bc 5d59 06be
00000290: ed72 32bd b200 fe3c 5a1d 87bc 91a4 5fba
000002a0: 5d7c 163d 42a1 bcbd 284d 4abd 64ec dabc
000002b0: 8559 e73c bd5a b5bc 8026 bd3a de71 33bd
000002c0: 8c63 27bd ddd9 ebbd 0b0f ad3d d38e 723d
000002d0: 4c04 e3ba 6aab 2dbd c698 28bd a2b0 9cbc
000002e0: fdb0 10bd a65d 723d 3e17 5cbc a232 09be
000002f0: 17b9 67bd fd3b d5bd 7f47 7abd 0b52 a5bd
00000300: 7e62 8ebc dcb8 37bd 573b e8bc cfa0 c6bd
00000310: 4b68 71bd a321 e53d d974 febc 28f6 0ebe
00000320: 3870 96bc 476f 3fbc 753b 723b 5928 05bc
00000330: 0f18 0ebe 54f5 45bd 1d75 3bbd f264 5fbd
00000340: 6583 16bd 12cd d7bd 91e0 4ebd 6406 c4bd
00000350: 9d7c d2bd 722d 97bd ea5e 64bc a7e5 53bd
00000360: bddb 29bd 7351 77bd cdaa 553c d2e0 cebc
00000370: bd4b 12bd 90c1 bfbd 86fc 7cbd 52ed d1bd
00000380: 0b09 23bd f880 6ebd c959 c6bd 7ce8 a9bd
00000390: 3edc 1cbd 174d 503d 4c88 293c 7ffc 0fbc
000003a0: 450f 91bd 5f60 8fbd 9cca cb3c bd87 aabd
000003b0: c356 56bd 0ee0 34bd 2a03 96bd 95f0 fb3c
000003c0: 9819 1dbd 59dc a9bd b86c 45bd 920e b53c
000003d0: 01b9 9bbd c58c 7fbc ebcc 363b 54e2 6ebd
000003e0: eaf6 75bd 113a 3dbd c3fe 04bd f72a 9ebd
000003f0: 3708 acbd 35a5 a2bd edb2 8eba d1a9 93bc

network_body._body_endoder.seq_layers.2.weight f4 [256, 256]
0.0033580142 -0.053385753 0.002202857 -0.12758662 -0.034568567 -0.034930024 0.00096976646 0.08606948
0.022041293 5.889837e-05 -0.10558981 0.10765305 -0.08213007 -0.13570449 -0.092655495 -0.034701433
-0.03008364 0.012714797 0.087553486 -0.06907749 0.1017006 0.004278579 -0.026118577 -0.05265245
0.060607497 -0.044752914 -0.20967373 -0.12614031 -0.047584224 0.014185358 -0.13523988 0.021681359
-0.12861201 -0.03194119 -0.09377502 -0.15083961 0.03622065 0.023926653 0.0041938648 0.019635681
-0.06960373 0.14241308 -0.06620051 -0.050637506 -0.16481641 0.038522653 -0.093311824 -0.101058565
-0.022603095 0.02874278 -0.040434882 -0.09943038 0.04797261 0.048746187 -0.04410158 -0.12361566
0.009058787 -0.073588856 -0.03485106 -0.06545654 -0.0114067495 -0.08897673 0.04337007 0.07348844
-0.07771689 0.037235454 -0.0092674885 0.091324076 -0.012621774 -0.10499548 -0.19709617 -0.00027317647
-0.033911947 0.046310425 0.048446726 -0.04622037 -0.02387485 -0.0031213015 -0.102649644 -0.08176093
-0.06596987 -0.041959237 -0.041314382 -0.05775128 -0.16089952 0.019492999 -0.111766525 -0.011957252
0.014386865 -0.033396453 0.056619406 -0.15232398 0.06415044 -0.23720154 0.0910971 -0.06031399
0.01700084 -0.024983415 0.082222156 0.0729261 -0.004374482 -0.030780543 -0.011664138 -0.053055122
0.055541456 -0.017982617 -0.024565889 -0.14073096 0.057630155 -0.08534562 -0.13225159 0.0466851
0.0739698 0.048317973 0.036223218 -0.03579489 0.08486048 -0.1530393 -0.11110608 -0.1077887
-0.10953011 -0.037517477 0.122448035 -0.039489392 -0.016107565 -0.09622176 -0.10337251 -0.15191127
0.02490981 0.058658913 -0.008428473 -0.18841182 -0.10999668 -0.0104140695 -0.11990357 -0.041961767
0.030696396 0.042482637 -0.12058951 -0.06422847 -0.10644778 0.0019571711 0.032286674 -0.08850387
-0.0671413 0.06395625 -0.12392953 0.061454635 -0.070150055 0.009380387 -0.06923367 0.06384911
-0.19019711 -0.13364735 -0.16569312 -2.5220572e-05 -0.02704818 -0.005867518 -0.018783955 0.006424238
-0.105125405 0.018576294 -0.048704393 0.10505874 -0.07605369 -0.13881375 -0.06389654 -0.06916113
-0.06652574 -0.071424454 0.028281966 -0.029919062 -0.08911184 -0.09053089 -0.028776847 -0.012889855
-0.09607048 -0.00652593 -0.0069125416 -0.13612412 -0.08303739 0.1743784 -0.075657144 -0.10667217
-0.17285292 -0.044702757 -0.043523148 -0.055585783 0.0055648624 0.08238062 -0.06406341 0.034475513
-0.0674655 -0.117172465 0.069506206 0.08832761 0.07878067 -0.07612283 -0.033687532 -0.14298068
0.055315744 -0.06864187 -0.2066798 -0.13263446 -0.14300123 0.12120395 -0.059175484 -0.039749563
0.08316205 -0.15309918 -0.040036675 -0.21437222 -0.01723775 0.035416946 -0.032802615 -0.1914316
-0.041265078 -0.021341335 0.036152277 -0.093853466 0.057320148 -0.09032394 -0.060683385 -0.089137755
0.035292525 -0.06072825 -0.04998729 0.07892603 -0.13093373 -0.19337572 -0.081139795 0.020757899
0.0007366253 0.017627064 -0.008819234 0.05579682 -0.16560735 -0.09871738 -0.08447715 -0.2700538
-0.09910939 0.091341786 -0.067258 -0.11229139 0.006592493 -0.023663007 0.05168564 -0.00317384
0.032106385 0.01003679 -0.036523454 -0.11937746 -0.14932643 0.026748845 -0.16694081 -0.066534795
00000000: 2112 5c3b 05ab 5abd cf5d 103b 11a6 02be
00000010: c597 0dbd c912 0fbd ed37 7e3a 3245 b03d
00000020: f18f b43c a509 7738 783f d8bd 3479 dc3d
00000030: cf33 a8bd 1ef6 0abe 2ac2 bdbd 1723 0ebd
00000040: f771 f6bc b951 503c 3e4f b33d 8078 8dbd
00000050: 6748 d03d 5233 8c3b a0f6 d5bc 18aa 57bd
00000060: 913f 783d d54e 37bd b6b4 56be ed2a 01be
00000070: ade7 42bd b469 683c 537c 0abe 1b9d b13c
00000080: deb2 03be c4d4 02bd 1e0d c0bd b375 1abe
00000090: 1b5c 143d d401 c43c b06c 893b 02db a03c
000000a0: 678c 8ebd bcd4 113e 2294 87bd 4669 4fbd
000000b0: a2c5 28be eec9 1d3d 451a bfbd cbf7 cebd
000000c0: 202a b9bc fb75 eb3c 0c9f 25bd 28a2 cbbd
000000d0: ed7e 443d 15aa 473d dca3 34bd 352a fdbd
000000e0: 4e6b 143c c1b5 96bd fcbf 0ebd 140e 86bd
000000f0: 60e3 3abc 6f39 b6bd d1a4 313d 1b81 963d
00000100: 082a 9fbd 3484 183d aad6 17bc 1e08 bb3d
00000110: 8fcb 4ebc df07 d7bd 94d3 49be 2039 8fb9
00000120: 41e7 0abd 00b0 3d3d 1370 463d 9251 3dbd
00000130: 3095 c3bc c08e 4cbb fa39 d2bd 4672 a7bd
00000140: 361b 87bd 73dd 2bbd 4539 29bd 9b8c 6cbd
00000150: d8c2 24be c8af 9f3c d9e5 e4bd 5ae8 43bc
00000160: e3b6 6b3c b8ca 08bd c0e9 673d d1fa 1bbe
00000170: 4e61 833d f6e4 72be 1e91 ba3d cd0b 77bd
00000180: 5845 8b3c 05aa ccbc 1764 a83d 475a 953d
00000190: d157 8fbb 7a27 fcbc f11a 3fbc 5450 59bd
000001a0: 707f 633d 4850 93bc 673e c9bc c71b 10be
000001b0: 990d 6c3d afc9 aebd f66c 07be e038 3f3d
000001c0: 7a7d 973d 11e9 453d cc5e 143d aa9d 12bd
000001d0: 55cb ad3d 56b6 1cbe 968b e3bd 52c0 dcbd
000001e0: 5351 e0bd edab 19bd 09c6 fa3d a1bf 21bd
000001f0: 03f4 83bc ea0f c5bd f7b4 d3bd a18e 1bbe
00000200: a80f cc3c 5444 703d 9417 0abc 07ef 40be
00000210: f045 e1bd c69f 2abc 0190 f5bd 1ae0 2bbd
00000220: 0277 fb3c 4602 2e3d a2f7 f6bd 378a 83bd
00000230: 4b01 dabd e243 003b 083f 043d 8441 b5bd
00000240: 6181 89bd 7ffb 823d c4ce fdbd dbb7 7b3d
00000250: d5aa 8fbd 32b0 193c 62ca 8dbd 52c3 823d
00000260: 08c3 42be dada 08be 75ab 29be c490 d3b7
00000270: 2594 ddbc 4f44 c0bb cfe0 99bc 6a82 d23b
00000280: fd4b d7bd 502d 983c 427e 47bd 0929 d73d
00000290: 09c2 9bbd 3125 0ebe 30dc 82bd 5aa4 8dbd
000002a0: a63e 88bd fc46 92bd 95af e73c d218 f5bc
000002b0: 4580 b6bd 4268 b9bd 6cbd ebbc f82f 53bc
000002c0: 9ac0 c4bd 78d7 d5bb 9a82 e2bb 1f64 0bbe
000002d0: 820f aabd 4090 323e 22f2 9abd f076 dabd
000002e0: 5b00 31be 3d1a 37bd 5445 32bd ebad 63bd
000002f0: 7359 b63b 2cb7 a83d ad33 83bd 3236 0d3d
00000300: 5a2b 8abd 1ef8 efbd 4559 8e3d 1be5 b43d
00000310: c357 a13d 49e6 9bbd f0fb 09bd 8769 12be
00000320: c392 623d 1c94 8cbd dfa3 53be 54d1 07be
00000330: ea6e 12be c739 f83d fe61 72bd 70d0 22bd
00000340: dd50 aa3d 08c6 1cbe 7ffd 23bd 6484 5bbe
00000350: 2f36 8dbc 5c11 113d 095c 06bd a506 44be
00000360: 9205 29bd 06d4 aebc 6914 143d 3f36 c0bd
00000370: 88c8 6a3d c2fb b8bd 248f 78bd db8d b6bd
00000380: e58e 103d 2fbe 78bd 79bf 4cbd f8a3 a13d
00000390: 7e13 06be 4904 46be 9f2c a6bd 780c aa3c
000003a0: 161a 413a a266 903c 8c7e 10bc 358b 643d
000003b0: f994 29be 562c cabd 5b02 adbd 7e44 8abe
000003c0: ddf9 cabd 6711 bb3d 90be 89bd 07f9 e5bd
000003d0: d705 d83b ecd8 c1bc 52b4 533d 3300 50bb
000003e0: fc81 033d 5971 243c 9e99 15bd 2b7c f4bd
000003f0: 07e9 18be 6520 db3c 88f2 2abe 6543 88bd

network_body._body_endoder.seq_layers.4.bias f4 [256]
-0.030262226 0.0522448 -0.04207468 -0.05790716 -0.071986206 -0.059307136 -0.049722094 -0.055153225
-0.04092747 -0.11320273 -0.045595754 0.02316303 -0.10674808 0.0147081725 -0.06373663 -0.063465565
-0.036454175 -0.036049843 -0.020743286 -0.10373071 -0.037178375 -0.12801461 -0.16637254 -0.08921548
-0.01991342 -0.17143446 -0.03550832 -0.07738787 -0.07207889 -0.06693569 -0.06429871 -0.03937646
0.005651756 0.008783463 0.007825523 -0.03138179 -0.065507464 -0.071108714 -0.029122451 -0.056025542
-0.04163523 -0.101268865 -0.062365875 -0.12815447 -0.06500168 -0.10657899 -0.060845733 -0.040370066
-0.07451507 0.016465135 -0.04020315 0.00028411424 -0.027133519 0.017854933 0.09808375 -0.1332145
-0.026534028 0.03081033 -0.091605194 0.04111014 -0.017801559 -0.0676151 0.04359678 -0.092837386
0.0652633 -0.11771154 -0.086473465 -0.06534998 -0.17995043 0.06663144 -0.07943535 -0.020315506
-0.10828029 -0.12702815 -0.06400901 -0.18640158 -0.02821274 -0.05479333 -0.06329973 -0.0542583
-0.020667613 -0.05070159 -0.10224491 -0.15349983 -0.046731487 -0.10584756 0.08990693 -0.054263577
-0.040180877 -0.025770387 -0.08344512 0.0077346796 -0.0129226595 -0.049421545 -0.12522931 0.017239291
-0.14552836 -0.014225925 0.024951892 -0.009659922 -0.079715334 -0.05925866 -0.10804234 -0.011518353
-0.15027559 0.022214675 -0.098803654 -0.104610406 -0.07997888 -0.15678951 -0.04255948 0.010822245
-0.053088892 -0.04007786 -0.013952347 -0.03620887 -0.04017443 -0.014343535 -0.103594825 0.018741606
-0.035635855 -0.085702196 -0.14256819 -0.07209841 -0.01588438 -0.004658153 0.01098027 -0.0045412225
0.049648717 -0.011704121 -0.054231778 -0.07410553 -0.090984635 -0.11583281 -0.09670955 -0.15624607
-0.11792833 -0.04509143 -0.12925516 -0.036438752 -0.07467788 -0.10627596 -0.09988046 0.007731062
-0.045775805 -0.095026255 0.057571355 0.00081158784 -0.049157802 0.027204756 -0.008510292 -0.08143262
-0.02022279 -0.07168362 -0.00933824 -0.12006814 -0.13546 -0.059737176 -0.19196245 -0.011230296
-0.028040044 0.043332484 -0.199994 0.055688575 -0.09933948 -0.10438538 -0.027456015 0.009766008
-0.07361086 -0.07152315 -0.074856825 -0.14669193 0.07383476 0.023983356 -0.07245676 -0.08116256
-0.052337047 -0.12271236 -0.004478502 -0.055490624 -0.058144905 0.009020949 -0.06488727 -0.09512805
-0.09920446 -0.031943485 -0.036491927 0.008385264 -0.11901164 -0.11433187 -0.06605906 -0.019768817
0.010407946 -0.097650565 0.066810645 -0.050561428 -0.10543994 0.007918574 -0.052150574 -0.07534575
-0.08311316 -0.061409976 -0.061431307 -0.04610946 -0.05872288 -0.11050387 -0.00032399225 -0.033683095
-0.013138579 0.060663037 -0.11394661 0.016243234 -0.091749094 -0.0370674 -0.069208905 -0.064534426
-0.028652834 -0.04870691 -0.1972557 -0.034066882 -0.008595877 -0.001317681 -0.10753858 -0.17246605
-0.055273257 -0.02758021 0.006774792 -0.0137377065 -0.08096926 -0.046368945 -0.07831167 -0.050214216
-0.037803285 -0.071130484 0.017355857 -0.0028957569 -0.03684437 -0.022368986 -0.05313986 -0.019280886
-0.063297525 -0.051261496 -0.0018047055 -0.027428024 -0.044432078 -0.03419845 0.04077897 -0.20920978
-0.005118013 -0.048236955 0.030390821 -0.17563823 -0.040415615 -0.009807689 0.0018145122 -0.070703335
00000000: 7de8 f7bc a5fe 553d 8056 2cbd 0f30 6dbd
00000010: 816d 93bd 0aec 72bd 65a9 4bbd 59e8 61bd
00000020: 90a3 27bd d5d6 e7bd 9dc2 3abd 65c0 bd3c
00000030: bd9e dabd 8cfa 703c 5a88 82bd 3cfa 81bd
00000040: f950 15bd 00a9 13bd d3ed a9bc c470 d4bd
00000050: 5a48 18bd 4316 03be 905d 2abe 9bb6 b6bd
00000060: 7821 a3bc 848c 2fbe 2c71 11bd 887d 9ebd
00000070: 199e 93bd 9415 89bd 0baf 83bd 3649 21bd
00000080: 5e32 b93b 84e8 0f3c 9f36 003c 318a 00bd
00000090: c728 86bd 72a1 91bd 3592 eebc 0a7b 65bd
000000a0: b489 2abd 0d66 cfbd 5c73 7fbd ed3a 03be
000000b0: 9a1f 85bd 1646 dabd 6039 79bd 155b 25bd
000000c0: 5b9b 98bd e4e1 863c 0fac 24bd 2bf5 9439
000000d0: 1d47 debc 8244 923c 22e0 c83d 6269 08be
000000e0: e45d d9bc f265 fc3c 819b bbbd 1b63 283d
000000f0: 93d4 91bc c979 8abd 8a92 323d 8721 bebd
00000100: c4a8 853d bf12 f1bd 0019 b1bd 36d6 85bd
00000110: ed44 38be 1076 883d 00af a2bd b46c a6bc
00000120: 0fc2 ddbd ab13 02be 2817 83bd 0ee0 3ebe
00000130: 671e e7bc f96e 60bd 4aa3 81bd f43d 5ebd
00000140: 204f a9bc 78ac 4fbd c865 d1bd 0f2f 1dbe
00000150: 8469 3fbd 9bc6 d8bd 2021 b83d 7c43 5ebd
00000160: b494 24bd 6b1c d3bc 46e5 aabd 3273 fd3b
00000170: 90b9 53bc 3f6e 4abd 1d3c 00be 6a39 8d3c
00000180: 6305 15be db13 69bc e967 cc3c a644 1ebc
00000190: cb41 a3bd 35b9 72bd 4d45 ddbd 79b7 3cbc
000001a0: d8e1 19be 8dfb b53c 9259 cabd fb3d d6bd
000001b0: f8cb a3bd 6e8d 20be d952 2ebd c94f 313c
000001c0: bd73 59bd af28 24bd 6398 64bc c14f 14bd
000001d0: f18d 24bd 2501 6bbc 8629 d4bd ff87 993c
000001e0: e7f6 11bd a284 afbd 65fd 11be 55a8 93bd
000001f0: f61f 82bc 6ba3 98bb 97e6 333c 89ce 94bb
00000200: 745c 4b3d a4c2 3fbc 2422 5ebd a4c4 97bd
00000210: 2756 babd c139 edbd a80f c6bd f8fe 1fbe
00000220: 6984 f1bd cbb1 38bd 775b 04be cd40 15bd
00000230: b7f0 98bd 36a7 d9bd 208e ccbd d954 fd3b
00000240: 697f 3bbd 209d c2bd f1cf 6b3d bdc0 543a
00000250: b159 49bd 82dc de3c c06e 0bbc 25c6 a6bd
00000260: 44aa a5bc ddce 92bd 6bff 18bc 49e6 f5bd
00000270: 07b6 0abe f8ae 74bd ce91 44be 47ff 37bc
00000280: 3cb4 e5bc 677d 313d 3acb 4cbe b419 643d
00000290: 7f72 cbbd 01c8 d5bd 70eb e0bc 9b01 203c
000002a0: 4ac1 96bd bb7a 92bd 894e 99bd 6936 16be
000002b0: ae36 973d be78 c43c 3664 94bd 8e38 a6bd
000002c0: 5f5f 56bd 9e50 fbbd 66c0 92bb 234a 63bd
000002d0: 5a29 6ebd 9acc 133c 9ee3 84bd 7fd2 c2bd
000002e0: b52b cbbd 2cd7 02bd 8f78 15bd 5962 093c
000002f0: 60bc f3bd d426 eabd f949 87bd 37f2 a1bc
00000300: 1786 2a3c 05fd c7bd 05d4 883d 8019 4fbd
00000310: e5f0 d7bd e8bc 013c d79b 55bd df4e 9abd
00000320: 3c37 aabd 0789 7bbd 659f 7bbd 46dd 3cbd
00000330: 6787 70bd da4f e2bd 81dd a9b9 49f7 09bd
00000340: 3243 57bc ce79 783d d75c e9bd 8810 853c
00000350: f3e6 bbbd fcd3 17bd 66bd 8dbd a02a 84bd
00000360: 59b9 eabc e680 47bd 66fd 49be b789 0bbd
00000370: b9d5 0cbc 0ab6 acba 303d dcbd f19a 30be
00000380: 3666 62bd e4ef e1bc 13ff dd3b 1e14 61bc
00000390: 36d3 a5bd 5ded 3dbd de61 a0bd 6cad 4dbd
000003a0: 9ed7 1abd dcac 91bd df2d 8e3c bdc6 3dbb
000003b0: 1fea 16bd 2a3f b7bc 2fa9 59bd f3f2 9dbc
000003c0: 22a2 81bd 93f7 51bd de8b ecba bcb0 e0bc
000003d0: 69fe 35bd ad13 0cbd d907 273d 173b 56be
000003e0: 01b5 a7bb 1d94 45bd 2cf6 f83c 82da 33be
000003f0: d88a 25bd 6eb0 20bc edd4 ed3a e9cc 90bd

network_body._body_endoder.seq_layers.4.weight f4 [256, 256]
-0.046863813 -0.05061491 -0.16099289 -0.08198267 0.020356253 0.20151603 -0.12966037 -0.024875747
-0.15257275 -0.1832127 0.0795671 -0.13736652 0.17160521 0.10480018 -0.01536888 0.1573274
0.042431615 -0.093890265 -0.044247072 0.13927813 0.027624313 -0.009009927 -0.11615899 0.014826108
0.054457344 0.057028525 0.0345129 -0.039791923 -0.086578324 0.38494936 -0.0545023 -0.14635557
-0.051204834 -0.065887846 -0.045899376 0.057513528 0.11450372 0.032188598 -0.007310332 0.10215191
0.07719408 0.02528522 0.049160134 -0.05138012 0.10260883 -0.0015129172 0.18020862 -0.0492098
0.065833 -0.117810905 -0.084143266 -0.11550289 -0.25969544 -0.08346515 -0.063698776 0.0003373509
0.041291125 0.10980666 0.20036955 0.03223836 0.08373013 0.12047584 0.01352265 -0.055865247
-0.20231816 0.0683741 -0.029584965 0.0090221 0.08342683 0.034098756 -0.06631249 -0.0069733583
0.10197769 -0.081735276 -0.25746617 0.04269086 -0.016213765 -0.059122313 0.09408353 0.0013781388
0.046523534 -0.027674751 0.010443783 -0.028788466 -0.00017159723 -0.029584982 -0.055955958 0.01411694
-0.12851915 -0.008604275 -0.14153165 -0.017861921 0.15338561 -0.1664894 0.107598096 -0.023612916
-0.090086475 -0.014389015 0.06414645 -0.13445435 0.02629238 0.07288346 -0.080806516 0.038341086
0.088903554 -0.029696878 -0.008321522 -0.06672149 -0.022783084 -0.08595335 -0.24854763 -0.11737689
0.02044169 0.009095359 0.16282767 -0.029055838 0.06021287 -0.0690297 0.21780673 -0.0656292
-0.017256659 -0.035479587 -0.04199099 -0.029125668 -0.08579584 0.018776627 -0.027124407 -0.073525906
0.024231583 0.021922939 -0.12161761 -0.08404436 -0.09849146 0.08519521 0.042278893 0.16421048
-0.048351802 0.10207865 -0.13381733 -0.01643006 -0.034940988 -0.022415498 -0.030538836 0.17221822
-0.03726623 -0.11188025 0.043849956 -0.104447015 -0.10811551 0.08610526 0.08120624 0.02957227
0.029274628 -0.05390254 0.017819181 0.01069792 0.041087873 -0.09171855 -0.07354293 0.21423241
0.18891531 -0.043480504 -0.08455134 0.010985115 0.17198071 0.0010945308 0.15992656 -0.03283851
-0.040488828 0.012457784 -0.02034984 0.017124983 -0.05411293 -0.021508388 0.09479978 0.13131301
-0.13543156 -0.07084099 -0.041653343 -0.055492733 0.16683686 0.002943943 0.08581071 -0.0019023846
-0.0643779 -0.14115989 -0.0024454943 -0.019527659 -0.07164175 -0.123147435 0.029867316 0.026240373
0.09720774 -0.094948724 -0.033481807 0.014753854 -0.09813679 -0.07958429 -0.15509176 0.16674529
0.077940546 -0.02882281 0.23934864 0.15029982 0.183946 -0.009145346 -0.013876606 -0.048582755
-0.032061685 0.1416561 -0.006953612 -0.1490725 -0.22602174 0.01301816 0.17215106 0.17452712
-0.003910507 0.013237618 -0.04882092 0.21508056 0.054624144 0.0003338611 0.057607844 0.025299864
0.10128547 -0.014428448 -0.009496774 0.11950966 -0.04031732 0.0033926493 0.06257442 -0.017302975
-0.07267589 -0.09580291 -0.24107318 0.044628967 0.0388191 0.17231645 0.033427928 -0.07365959
-0.011501176 -0.091851145 -0.012909773 -0.17192434 -0.06243055 -0.01566836 -0.025276162 -0.059763234
0.032864805 0.039427828 -0.08974382 0.18849394 0.073460184 -0.07364613 0.062490225 -0.010148774
00000000: 45f4 3fbd 9451 4fbd 52db 24be 88e6 a7bd
00000010: 28c2 a63c 385a 4e3e b0c5 04be 39c8 cbbc
00000020: 083c 1cbe 1c9c 3bbe 13f4 a23d cfa9 0cbe
00000030: 47b9 2f3e 7aa1 d63d c1cd 7bbc 6f1a 213e
00000040: c6cc 2d3d 8a49 c0bd 6b3c 35bd ed9e 0e3e
00000050: 624c e23c 5f9e 13bc c4e4 edbd 34e9 723c
00000060: aa0e 5f3d be96 693d 665d 0d3d dbfc 22bd
00000070: fa4f b1bd 1518 c53e ce3d 5fbd 3cde 15be
00000080: 29bc 51bd 35f0 86bd fc00 3cbd 4e93 6b3d
00000090: ed80 ea3d 31d8 033d 828b efbb 0535 d13d
000000a0: ee17 9e3d f322 cf3c 235c 493d f673 52bd
000000b0: 9424 d23d 144d c6ba 9c88 383e 3790 49bd
000000c0: 74d3 863d d846 f1bd 4e53 acbd c78c ecbd
000000d0: cdf6 84be c7ef aabd 8174 82bd 79de b039
000000e0: e220 293d 50e2 e03d ad2d 4d3e 5f0c 043d
000000f0: b47a ab3d 0abc f63d 1b8e 5d3c f5d2 64bd
00000100: 7e2c 4fbe b807 8c3d 2b5c f2bc 6ed1 133c
00000110: b0db aa3d 23ab 0b3d d8ce 87bd c580 e4bb
00000120: aed9 d03d d364 a7bd 9bd2 83be 9cdc 2e3d
00000130: bbd2 84bc 3d2a 72bd deae c03d aaa2 b43a
00000140: 768f 3e3d 29b6 e2bc 671c 2b3c cad5 ebbc
00000150: c8ee 33b9 345c f2bc 1332 65bd bd4a 673c
00000160: 869a 03be f2f8 0cbc aced 10be 2a53 92bc
00000170: 1e11 1d3e 337c 2abe 645c dc3d e06f c1bc
00000180: 427f b8bd e7bf 6bbc 375f 833d 67ae 09be
00000190: 1e63 d73c ec43 953d e37d a5bd 8b0b 1d3d
000001a0: 1113 b63d de46 f3bc fe56 08bc 47a5 88bd
000001b0: 97a3 babc 4f08 b0bd 4583 7ebe 4b63 f0bd
000001c0: 5575 a73c b304 153c 4cbc 263e 8206 eebc
000001d0: c5a1 763d 715f 8dbd ba08 5f3e 9a68 86bd
000001e0: d65d 8dbc 0b53 11bd bffe 2bbd f498 eebc
000001f0: bbb5 afbd 71d1 993c 0134 debc c094 96bd
00000200: 5081 c63c bc97 b33c a712 f9bd 731f acbd
00000210: e4b5 c9bd d47a ae3d a22c 2d3d cb26 283e
00000220: 8a0c 46bd 9c0e d13d 6907 09be 5598 86bc
00000230: 481e 0fbd b5a0 b7bc 952c fabc f959 303e
00000240: 79a4 18bd 7921 e5bd 039c 333d 51e8 d5bd
00000250: aa6b ddbd f457 b03d 754f a63d 8c41 f23c
00000260: 58d1 ef3c e9c8 5cbd 88f9 913c 5446 2f3c
00000270: c24b 283d efd6 bbbd ad9d 96bd be5f 5b3e
00000280: 0473 413e 9d18 32bd 4129 adbd e9fa 333c
00000290: b61b 303e 5c76 8f3a cac3 233e ac81 06bd
000002a0: 9dd7 25bd bc1b 4c3c b5b4 a6bc b149 8c3c
000002b0: 85a5 5dbd 5c32 b0bc 6326 c23d eb76 063e
000002c0: 92ae 0abe 1515 91bd b29c 2abd 594c 63bd
000002d0: 48d7 2a3e 2bef 403b 87bd af3d 6f59 f9ba
000002e0: 8fd8 83bd 388c 10be 9644 20bb 78f8 9fbc
000002f0: e9b8 92bd b934 fcbd 4dac f43c 0df6 d63c
00000300: da14 c73d 7a74 c2bd 3824 09bd 26ba 713c
00000310: f1fb c8bd 17fd a2bd 60d0 1ebe 47bf 2a3e
00000320: 4b9f 9f3d d01d ecbc cf17 753e 32e8 193e
00000330: 575c 3c3e 5cd6 15bc b45a 63bc b6fe 46bd
00000340: 1d53 03bd 4c0e 113e 20db e3bb 76a6 18be
00000350: 3e72 67be 1f4a 553c 5e48 303e 3db7 323e
00000360: b623 80bb 98e2 583c 72f8 47bd 143e 5c3e
00000370: 91bd 5f3d 140a af39 34f6 6b3d a941 cf3c
00000380: c26e cf3d 4c65 6cbc 5b98 1bbc 7bc1 f43d
00000390: c623 25bd 3657 5e3b 0427 803d f8be 8dbc
000003a0: 19d7 94bd 5134 c4bd e3db 76be ddcc 363d
000003b0: c700 1f3d b973 303e b9eb 083d d7da 96bd
000003c0: 6e6f 3cbc 741c bcbd 8383 53bc ef0c 30be
000003d0: 2db7 7fbd ef5a 80bc f40f cfbc 4bca 74bd
000003e0: 3f9d 063d 137f 213d 9ccb b7bd 8e04 413e
000003f0: 4b72 963d c8d3 96bd c0f5 7f3d 0b47 26bc
