results/Drone3/Drone/Drone-6499884.onnx (onnx, 810629 bytes, 11 tensors)

action_model._continuous_distribution.log_sigma f4 [1, 4]
-0.8248525 -0.8488994 -0.790155 -0.72835445
00000000: 8929 53bf 7951 59bf 9947 4abf 7075 3abf

action_model._continuous_distribution.mu.bias f4 [4]
0.017518666 -0.013416109 0.013542159 -0.032440268
00000000: 4e83 8f3c 3dcf 5bbc efdf 5d3c 16e0 04bd

action_model._continuous_distribution.mu.weight f4 [4, 256]
0.06834128 0.014560995 -0.049404822 -0.015647437 -0.027733764 -0.036240075 -0.010092448 -0.03140105
0.008525893 -0.0156118935 0.01054313 0.031880382 0.06316932 0.0125974575 0.0019146238 -0.0084981825
-0.052226774 0.015656376 -0.006740221 -0.019010965 0.0049141147 0.0056789205 -0.00042021176 -0.007691177
0.031381246 -0.027404644 -0.004213342 -0.019021483 -0.0048359106 -0.05697519 -0.01899701 0.007438948
-0.0008754077 0.024658635 0.0063687824 -0.04091448 0.04429123 0.032396406 -0.00074794475 -0.00965229
-0.006918017 0.0016579921 0.015390669 -0.019104207 -0.057437092 -0.047404036 0.035043664 -0.019988794
0.022484941 -0.036384214 -0.022247592 -0.017933356 -0.024629107 -0.019904232 0.023365926 -0.041493095
-0.011822969 -0.05250906 -0.09481664 0.02056418 0.027336642 0.017647244 0.038463373 0.0017635718
-0.0041368566 -0.069416195 -0.036586955 0.0026676133 0.07391452 0.0047681397 0.0048616077 -0.046019405
-0.013122828 -0.008617459 0.00024024128 -0.016114589 0.029111119 -0.06119109 -0.003856873 0.0073536756
-0.046701193 -0.011732326 -0.0068238694 -0.0020450747 -0.026118515 0.04239584 -0.00186321 0.051205132
-0.02196525 -0.021035947 -0.0058562625 0.0150388535 0.051816832 -0.040409427 -0.02128648 0.02643963
-0.03489632 0.030874863 -0.034096695 -0.032475322 -0.058955126 -0.04396455 0.073811986 -0.052826628
0.0098598795 0.027199892 0.044253457 0.006553037 -0.055459738 -0.047612038 0.020640744 -0.027709063
0.012750774 -0.0060911397 -0.039286792 0.020055791 0.0133997435 -0.023481704 -0.049636953 -0.010176562
-0.008365032 -0.049137432 -0.016560374 0.015248118 0.04280668 0.017995065 -0.004250042 -0.072982304
-0.04059374 -0.025615877 -0.026737118 -0.0020068453 -0.005049796 -0.0088097835 -0.025919668 -0.034741998
0.015916908 -0.02088706 0.039088834 -0.055039845 -0.03809354 -0.004510907 -0.037060507 0.041961696
-0.03176986 -0.047627725 -0.045163337 0.006549849 -0.02997332 -0.012347564 -0.0490794 -0.026087832
0.00980411 -0.006848315 0.0077212076 -0.015404377 -0.02957233 0.006435216 0.014232139 -0.040182985
-0.008744693 0.023637211 -0.010825394 -0.08941942 0.021666858 -0.030711887 0.030796444 0.037490677
-0.02823446 -0.017674573 -0.053733688 -0.049235586 0.062526576 -0.00039380795 -0.0116662 0.023738155
0.00846081 0.005340704 0.022750724 0.0036279648 -0.009481069 0.043831047 -0.0208251 0.0438983
-0.026421485 0.011324488 -0.002049317 -0.06067832 -0.012388526 0.006256704 0.021490509 -0.005412991
-0.057907246 0.024637248 0.0089435885 -0.04860584 0.013851429 -0.009802211 -0.0370446 0.026591154
-0.046497 0.018497547 0.010021489 -0.010637342 0.028534103 -0.044393286 -0.042104468 0.0026602696
-0.0091909235 -0.021707341 -0.026065608 -0.03402894 0.021538762 -0.011055205 0.0043858197 -0.030512985
-0.077225 0.051399726 -0.025238905 0.057019446 -0.028031154 -0.01442385 0.0119531015 -0.016659193
-0.023839569 -0.03435648 0.009734996 0.008832885 0.04461019 -0.0068158126 0.02279801 0.06169301
-0.044392962 -0.029009307 0.029036159 -0.0052246 -0.0049219066 -0.0017939268 -0.046520445 -0.034906965
0.0074479883 -0.018021144 0.0027391985 -0.0025023327 0.032367274 0.046062384 -0.0012056908 0.08164555
0.0017176722 -0.0077667832 -0.053953815 -0.02242741 0.04743676 -0.017877005 -0.034351554 -0.090684034
00000000: 83f6 8b3d 3d91 6e3c b65c 4abd 0e2f 80bc
00000010: eb31 e3bc 7970 14bd cc5a 25bc 639e 00bd
00000020: 30b0 0b3c 07c9 7fbc 18bd 2c3c 0195 023d
00000030: eb5e 813d 9165 4e3c 1df4 fa3a f63b 0bbc
00000040: beeb 55bd cd41 803c 12dd dcbb e2bc 9bbc
00000050: 9506 a13b 3d16 ba3b de4f dcb9 4506 fcbb
00000060: 9f89 003d b47f e0bc 1310 8abb f1d2 9bbc
00000070: 8f76 9ebb d15e 69bd 9e9f 9bbc 6bc2 f33b
00000080: 9e7b 65ba e800 ca3c 38b1 d03b f195 27bd
00000090: b96a 353d 18b2 043d b911 44ba a324 1ebc
000000a0: 88b0 e2bb fc50 d93a 2529 7c3c 6d80 9cbc
000000b0: 2843 6bbd bc2a 42bd f289 0f3d 8abf a3bc
000000c0: 5732 b83c 9d07 15bd 9540 b6bc f9e8 92bc
000000d0: fbc2 c9bc 330e a3bc e669 bf3c aaf4 29bd
000000e0: 20b5 41bc bd13 57bd 3a2f c2bd 3676 a83c
000000f0: 18f1 df3c f490 903c c58b 1d3d a627 e73a
00000100: 788e 87bb 142a 8ebd 34dc 15bd 20d3 2e3b
00000110: 7f60 973d 0e3e 9c3b 1f4e 9f3b d87e 3cbd
00000120: 2101 57bc 3e30 0dbc 47e9 7b39 be02 84bc
00000130: 717a ee3c 82a3 7abd 97c3 7cbb 1af7 f03b
00000140: c049 3fbd f138 40bc c49a dfbb a906 06bb
00000150: 7ff6 d5bc 43a7 2d3d f436 f4ba 79bc 513d
00000160: 78f0 b3bc 9453 acbc e4e5 bfbb 8665 763c
00000170: e33d 543d 5b84 25bd fc60 aebc ec97 d83c
00000180: 72ef 0ebd 48ed fc3c faa8 0bbd d804 05bd
00000190: ee7a 71bd 2c14 34bd bd2a 973d bc60 58bd
000001a0: 558b 213c 4fd2 de3c 1d43 353d dcba d63b
000001b0: c029 63bd d704 43bd c716 a93c 1efe e2bc
000001c0: 9fe8 503c 2f98 c7bb 30eb 20bd 0b4c a43c
000001d0: 998a 5b3c b45c c0bc 1e50 4bbd 98bb 26bc
000001e0: 7d0d 09bc 5544 49bd 9fa9 87bc 3ed3 793c
000001f0: 0f56 2f3d 636a 933c f043 8bbb bf77 95bd
00000200: 9f45 26bd 63d8 d1bc cd07 dbbc 4785 03bb
00000210: c278 a5bb e956 10bc 7c55 d4bc a04d 0ebd
00000220: 2d64 823c 571b abbc 9d1b 203d 7671 61bd
00000230: f907 1cbd 3bd0 93bb c2cc 17bd 07e0 2b3d
00000240: 1d21 02bd 4a15 43bd 31fd 38bd 1ea0 d63b
00000250: 9c8a f5bc 704d 4abc 7b07 49bd 26b6 d5bc
00000260: 6ba1 203c d467 e0bb 2f02 fd3b a462 7cbc
00000270: ac41 f2bc 81de d23b eb2d 693c ea96 24bd
00000280: e745 0fbc d3a2 c13c fe5c 31bc 8721 b7bd
00000290: b27e b13c 7f97 fbbc d348 fc3c d38f 193d
000002a0: f44b e7bc 44ca 90bc db17 5cbd 41ab 49bd
000002b0: ef0d 803d 0278 ceb9 9723 3fbc 8576 c23c
000002c0: 369f 0a3c 1301 af3b ba5f ba3c 26c3 6d3b
000002d0: 7c56 1bbc 2f88 333d 6699 aabc b4ce 333d
000002e0: df71 d8bc 588a 393c d54d 06bb d489 78bd
000002f0: 3ff9 4abc 0a05 cd3b dd0c b03c 765f b1bb
00000300: 2630 6dbd 0ed4 c93c 2188 123c eb16 47bd
00000310: 1bf1 623c 7499 20bc 14bc 17bd b1d5 d93c
00000320: a373 3ebd 2b88 973c 2c31 243c 3f48 2ebc
00000330: 5ac0 e93c bcd5 35bd bc75 2cbd eb57 2e3b
00000340: 8795 16bc 98d3 b1bc 8b87 d5bc ee61 0bbd
00000350: 0f72 b03c e420 35bc ecb6 8f3b 5ef6 f9bc
00000360: 2428 9ebd 8588 523d d2c1 cebc 398d 693d
00000370: 97a1 e5bc 0352 6cbc f1d6 433c dc78 88bc
00000380: 334b c3bc 61b9 0cbd 887f 1f3c ceb7 103c
00000390: 2db9 363d 2e57 dfbb e4c2 ba3c cfb1 7c3d
000003a0: 65d5 35bd eda4 edbc 3ddd ed3c 1f33 abbb
000003b0: f247 a1bb 3222 ebba 398c 3ebd 9bfa 0ebd
000003c0: 410e f43b 14a1 93bc 2084 333b 2dfe 23bb
000003d0: 8c93 043d e9ab 3c3d 4508 9eba c835 a73d
000003e0: 8423 e13a 8080 febb adfe 5cbd b0b9 b7bc
000003f0: 0c4d 423d cc72 92bc 37b4 0cbd 8db8 b9bd

network_body._body_endoder.seq_layers.0.bias f4 [256]
0.086265236 -0.09940064 0.11025733 -0.042060032 -0.06471816 -0.043094695 0.01948187 -0.06130377
-0.09604406 -0.005473351 -0.105886415 -0.061890125 0.0017029645 -0.06753608 0.0033447226 0.035648443
0.11380309 -0.09587602 -0.0048915786 -0.089971706 0.01613083 -0.048985988 -0.009553568 -0.069999434
0.0053336318 -0.013418052 -0.03166218 0.019272747 -0.045166794 -0.14833501 -0.026837468 -0.0015924353
0.009029719 -0.09488179 -0.04526279 -0.06878456 -0.033246897 -0.09153555 -0.063871324 -0.07540455
-0.028712558 -0.0786709 -0.022744013 0.056107093 -0.06314756 -0.05394456 0.014148391 -0.08581945
0.082652524 -0.026799226 -0.17781268 -0.081719495 -0.087400824 0.048548367 -0.05299501 -0.12287679
-0.072549105 -0.02505387 -0.023614721 -0.040273387 -0.14269343 -0.05247999 -0.085562766 -0.06853901
-0.07740363 -0.06646824 -0.027618123 0.056598186 -0.15434803 0.007525329 -0.02400326 -0.09182473
-0.027209977 0.037210364 -0.103198 -0.0014320472 -0.09164598 -0.03928741 -0.103877716 -0.12065179
-0.03834077 0.074283876 -0.08329388 0.084902816 -0.005477671 -0.10355685 -0.105285555 -0.083160415
-0.050993517 -0.13090698 -0.07886448 -0.022825293 0.13214007 0.03765948 0.027319726 -0.11759993
-0.047711644 -0.05766496 -0.09144196 0.054114014 -0.052725278 -0.045595437 -0.08574587 -0.08294333
0.0015176513 -0.11012217 0.019368706 0.11134849 0.011176871 0.014477997 -0.05054735 -0.013008909
-0.13903505 0.07899577 0.053482115 -0.090627566 -0.08627472 0.0018289483 -0.10060011 -0.110102385
0.02213328 -0.10184343 -0.098882735 -0.038082507 -0.0033852344 0.028501637 0.014839948 -0.032772183
0.06342727 -0.03814507 -0.0012690186 0.049738336 -0.012453534 -0.063854516 0.018586732 -0.10149803
0.07155539 -0.10574364 -0.120357096 0.018448664 -0.11096604 0.09329562 -0.0034164574 -0.09060833
-0.111361906 0.0065988246 -0.08043197 -0.20183308 -0.032197587 -0.025855666 -0.029777795 0.011940372
0.074811995 0.046574213 -0.00067653705 -0.012003076 0.03645601 -0.04003288 -0.0066715237 -0.012222674
0.061712734 0.10591397 -0.07248735 0.047114655 -0.09044898 -0.010654228 -0.06394748 -0.048944127
-0.02492078 0.057132427 -0.03638451 -0.029540638 -0.005918449 0.008861164 0.08248341 -0.04397535
-0.032912754 -0.15542637 0.033249676 -0.07699273 -0.14460076 -0.05248221 -0.08717094 -0.04742531
-0.06344111 0.037246894 -0.12937343 -0.068397686 -0.005541839 0.089492396 -0.10635154 0.008583368
-0.06471747 0.015754076 -0.07411332 -0.027176835 -0.03501733 -0.06144929 -0.019543894 -0.023797473
0.018301366 0.060523894 -0.060361255 -0.104932666 -0.047151808 -0.10259773 -0.08129022 -0.15959921
-0.07039834 -0.013116324 0.013348457 -0.06592058 -0.073263004 -0.022611955 -0.091464624 -0.037636437
-0.031695608 0.06928936 -0.055818696 -0.074992165 -0.12573285 0.052157324 0.009090707 -0.009006303
-0.06633813 -0.03736091 -0.06472842 -0.046754677 -0.094888784 -0.023449875 0.07783821 0.08016443
-0.100665316 -0.008383937 -0.027255036 -0.021998964 -0.007094581 0.03225829 -0.028281188 0.055097573
-0.019524494 0.073079154 0.019130018 0.04054659 0.039033875 -0.10914773 -0.013053022 -0.087707505
-0.008930374 -0.012869313 -0.047231775 -0.046023726 0.025804166 -0.06841857 -0.024467036 -0.029103734
00000000: d4ab b03d 9092 cbbd 98ce e13d 2447 2cbd
00000010: f48a 84bd 1084 30bd 7198 9f3c a919 7bbd
00000020: c0b2 c4bd cc59 b3bb fada d8bd 8080 7dbd
00000030: 0236 df3a 5b50 8abd 2233 5b3b 1a04 123d
00000040: 9811 e93d a65a c4bd 8949 a0bb 1643 b8bd
00000050: cd24 843c 88a5 48bd 9286 1cbc dd5b 8fbd
00000060: bfc5 ae3b 64d7 5bbc 34b0 01bd e1e1 9d3c
00000070: d100 39bd 22e5 17be 40da dbbc 43b9 d0ba
00000080: 63f1 133c 6251 c2bd 7a65 39bd ebde 8cbd
00000090: e62d 08bd fe76 bbbd f8ce 82bd b36d 9abd
000000a0: 9936 ebbc 351e a1bd a751 babc 8dd0 653d
000000b0: 8253 81bd f9f4 5cbd a7ce 673c 1cc2 afbd
000000c0: ba45 a93d 0d8a dbbc 8714 36be 8d5c a7bd
000000d0: 34ff b2bd a7da 463d 4c11 59bd d4a6 fbbd
000000e0: a094 94bd c63d cdbc a973 c1bc b5f5 24bd
000000f0: 3a1e 12be 42f5 56bd 883b afbd 2e5e 8cbd
00000100: cb85 9ebd 8020 88bd 673f e2bc 80d3 673d
00000110: 690d 1ebe 0997 f63b 7ca2 c4bc 9b0e bcbd
00000120: 75e7 debc e569 183d 7959 d3bd 88b3 bbba
00000130: e3b0 bbbd d6eb 20bd d7bd d4bd 4918 f7bd
00000140: 360b 1dbd 2522 983d fb95 aabd 87e1 ad3d
00000150: 097e b3bb 9d15 d4bd f49f d7bd 0250 aabd
00000160: 94de 50bd 7b0c 06be b383 a1bd 1cfc babc
00000170: ba4f 073e d440 1a3d 9ecd df3c 3bd8 f0bd
00000180: 496d 43bd 1832 6cbd ec45 bbbd a8a6 5d3d
00000190: 76f6 57bd 48c2 3abd 889b afbd 31de a9bd
000001a0: edeb c63a bb87 e1bd 1fab 9e3c ad0a e43d
000001b0: 321f 373c 1f35 6d3c bd0a 4fbd 5223 55bc
000001c0: 345f 0ebe 89c8 a13d 1010 5b3d f29a b9bd
000001d0: cdb0 b0bd 52b9 ef3a 6e07 cebd 5c7d e1bd
000001e0: da50 b53c 4a93 d0bd 0883 cabd 67fc 1bbd
000001f0: cfda 5dbb 447c e93c 4123 733c 203c 06bd
00000200: 28e6 813d 013e 1cbd 3355 a6ba 6dba 4b3d
00000210: e809 4cbc 28c6 82bd 3443 983c 33de cfbd
00000220: a28b 923d 1f90 d8bd c87d f6bd a721 973c
00000230: 2a42 e3bd c611 bf3d a5e6 5fbb dc90 b9bd
00000240: b611 e4bd f43a d83b 84b9 a4bd 55ad 4ebe
00000250: 9ee1 03bd 43cf d3bc 90f0 f3bc 8da1 433c
00000260: 0837 993d 9ac4 3e3d a259 31ba 8da8 44bc
00000270: e652 153d 84f9 23bd cc9c dabb 9c41 48bc
00000280: 7ec6 7c3d 6ce9 d83d 3f74 94bd 4cfb 403d
00000290: 513d b9bd 128f 2ebc e5f6 82bd a379 48bd
000002a0: aa26 ccbc b103 6a3d ed07 15bd 35ff f1bc
000002b0: 8cef c1bb 6a2e 113c 10ed a83d 7f1f 34bd
000002c0: 86cf 06bd 1728 1fbe d030 083d 5dae 9dbd
000002d0: 3912 14be 96f7 56bd ae86 b2bd 0b41 42bd
000002e0: 6aed 81bd 3390 183d 787a 04be 1614 8cbd
000002f0: 5198 b5bb ca47 b73d d6ce d9bd 41a1 0c3c
00000300: 988a 84bd b10e 813c b9c8 97bd f4a1 debc
00000310: 556e 0fbd 40b2 7bbd 841a a0bc ebf2 c2bc
00000320: bfec 953c e7e7 773d 5d3d 77bd f0e6 d6bd
00000330: 4122 41bd c21e d2bd 7d7b a6bd fa6d 23be
00000340: 012d 90bd dae5 56bc 7db3 5a3c 5e01 87bd
00000350: ea0a 96bd b53c b9bc ce51 bbbd aa28 1abd
00000360: 41d3 01bd 94e7 8d3d 25a2 64bd 7e95 99bd
00000370: 1dc0 00be eba2 553d 30f1 143c 2c8f 13bc
00000380: 49dc 87bd c107 19bd 5590 84bd d581 3fbd
00000390: 0d55 c2bd f419 c0bc a469 9f3d 402d a43d
000003a0: 9e29 cebd c85c 09bc f445 dfbc 2c37 b4bc
000003b0: a979 e8bb 4521 043d f3ad e7bc fead 613d
000003c0: d5f1 9fbc 86aa 953d 8eb6 9c3c 2e14 263d
000003d0: fce1 1f3d d888 dfbd 58dc 55bc fe9f b3bd
000003e0: b450 12bc d0d9 52bc 1b76 41bd 6083 3cbd
000003f0: 4263 d33c 091f 8cbd 186f c8bc f46a eebc

network_body._body_endoder.seq_layers.0.weight f4 [256, 13]
0.29571933 -0.25292253 -0.15152419 -0.12587571 0.12427703 0.269346 0.69842637 -0.16666327
-0.89856535 0.9723399 -0.14631282 -0.051782794 0.66735107 0.11246043 0.22746326 0.11715518
-0.24360523 -0.031879015 -0.029675646 0.25342563 -0.030624617 -0.24122639 0.02253763 0.14040679
-0.008667445 0.6437192 -0.04187678 0.081787564 -0.39780802 -0.05687442 -0.07407621 0.12657802
1.5854913 0.5482141 0.054995924 0.5723954 -0.17783885 0.62045324 0.15677214 0.20910576
-0.49860018 -0.14137033 -0.034153398 0.13084891 -0.117149934 -0.08556968 -0.03339906 0.117740594
-0.013479478 0.028085316 -0.4261816 -0.06618339 -0.30404076 -0.40296796 0.11464103 0.75364476
-0.3731263 0.3443992 0.2209701 0.30903062 0.12175441 -0.37877643 -0.11539294 -0.36707938
0.111182496 -0.037888795 -0.05280432 0.008594657 -0.23644589 0.15133181 0.27336818 -0.82798916
-0.25363898 -0.021932838 -0.018733433 -0.016059345 0.22822692 -0.31581932 -0.031025587 -0.2359691
-0.5445723 0.2038466 -0.03680628 -0.1401531 -0.52718085 0.38423485 -0.21473375 0.4643992
0.07871943 0.22223726 -0.25270233 0.2309639 -0.8082428 0.13520373 -0.34657568 0.0845903
-0.1776943 -0.09171229 -0.5831606 -0.23404545 0.273886 -0.14986716 -0.10869712 -0.23097254
0.2564322 -0.024018638 0.078630894 0.25612867 0.17512402 -0.2339608 -0.4240457 -0.6238342
0.094742686 -0.099774964 -0.02023198 0.010598542 -0.23971827 0.35219502 -0.22365426 0.092971474
0.096099764 -0.053066183 0.09669961 -0.020397494 0.1076099 0.22262019 -0.3912608 0.15663323
0.17203216 -0.113798656 0.02038241 -0.01617004 -0.042117257 0.07683663 0.03211023 -0.064413406
0.015595157 -0.38953975 -0.09046594 -0.27254596 0.5672139 -0.621654 0.15706603 -0.013649311
-0.259077 -0.013123616 -0.4206298 0.16596258 0.108138874 -0.6433586 -0.4767642 -0.008932793
0.20002247 -0.16159467 0.32240513 -0.19259809 0.18029153 0.15776603 0.34753174 -0.3793479
0.27041546 0.22068031 0.37467957 -0.38434607 0.44842777 -0.054618925 -0.29312935 0.36857674
0.51107645 0.31166735 -0.2091723 0.020882135 0.09482801 0.15933518 0.85274726 -0.5881178
0.016673906 -0.3241258 -0.42774737 0.058046035 0.18042071 -0.2557676 -0.19542032 -0.065504596
-0.4591483 0.15332575 -0.108043164 0.052954182 0.47373438 0.3422129 0.022708623 0.42490104
-0.056788422 -0.34358227 0.06226978 0.062298216 0.12724735 0.0037215303 0.231814 -0.40072992
0.2636768 -0.48316616 0.30154318 -0.8890042 0.39567256 0.039219223 0.043925073 -0.09229238
0.015807752 0.3155263 0.069156334 -0.21835692 0.039303213 0.06709911 0.7658421 -0.022446807
0.43609935 0.34292975 -0.31191412 0.596114 0.4434167 0.14541951 0.4935287 0.33957854
-0.36006987 -0.109224804 0.14686333 -0.11056275 0.12714723 0.7958536 -0.15958093 0.14307879
-0.08804867 -0.06885822 -0.4244895 0.07544175 0.08004761 0.44464228 -0.31392574 -0.07588009
-1.3035356 -0.39606807 0.03931774 0.46476462 0.066263705 -0.13938197 -0.07748597 0.15599592
-0.36287826 0.096094854 -0.3508833 0.27942717 -0.47044656 -0.2171997 -0.41495517 0.07484367
00000000: 8668 973e 107f 81be 2829 1bbe 90e5 00be
00000010: f584 fe3d b8e7 893e 12cc 323f c7a9 2abe
00000020: 6108 66bf 45eb 783f 07d3 15be 321a 54bd
00000030: 85d7 2a3f a751 e63d 21ec 683e 0eef ef3d
00000040: a673 79be 9293 02bd 571a f3bc 01c1 813e
00000050: 7ae0 fabc 0d04 77be d6a0 b83c ccc6 0f3e
00000060: e601 0ebc c8ca 243f fd86 2bbd 3d80 a73d
00000070: 7ead cbbe 27f5 68bd 45b5 97bd ab9d 013e
00000080: 61f1 ca3f c257 0c3f 6843 613d 8188 123f
00000090: 631b 36be 06d6 1e3f e088 203e d21f 563e
000000a0: 8648 ffbe 62c3 10be 6fe4 0bbd 42fd 053e
000000b0: 4eec efbd 283f afbd 74cd 08bd fb21 f13d
000000c0: 07d9 5cbc 2d13 e63c 7a34 dabe 288b 87bd
000000d0: 3bab 9bbe d151 cebe ebc8 ea3d ddee 403f
000000e0: 690a bfbe 1855 b03e fc45 623e 4339 9e3e
000000f0: 605a f93d fcee c1be 2253 ecbd d4f1 bbbe
00000100: a6b3 e33d 4831 1bbd 5849 58bd 9bd0 0c3c
00000110: df1e 72be baf6 1a3e eaf6 8b3e 19f7 53bf
00000120: f8dc 81be 7fac b3bc db76 99bc e38e 83bc
00000130: 51b4 693e 12b3 a1be 5f29 febc e2a1 71be
00000140: 1769 0bbf 2abd 503e 2fc2 16bd 4b84 0fbe
00000150: 53f5 06bf 6eba c43e 2ae3 5bbe bbc5 ed3e
00000160: a737 a13d 2a92 633e 3362 81be cd81 6c3e
00000170: 00e9 4ebf d972 0a3e 5e72 b1be ae3d ad3d
00000180: 7ff5 35be a7d3 bbbd 034a 15bf 9ca9 6fbe
00000190: c93a 8c3e c776 19be 989c debd 1184 6cbe
000001a0: 154b 833e bcc2 c4bc 3c09 a13d 4c23 833e
000001b0: b653 333e 6c93 6fbe 851c d9be 99b3 1fbf
000001c0: 7408 c23d d156 ccbd 8abd a5bc 82a5 2d3c
000001d0: b578 75be e852 b43e 9f05 65be d467 be3d
000001e0: f4cf c43d ed5b 59bd 720a c63d a518 a7bc
000001f0: 9462 dc3d 8cf6 633e 5653 c8be 7664 203e
00000200: 3329 303e 450f e9bd 03f9 a63c 0877 84bc
00000210: 2583 2cbd 865c 9d3d 0486 033d 2deb 83bd
00000220: d482 7f3c c171 c7be 3546 b9bd 258b 8bbe
00000230: ee34 113f b724 1fbf ebd5 203e 5ca1 5fbc
00000240: bea5 84be 6f04 57bc ca5c d7be 18f2 293e
00000250: ea77 dd3d 26b3 24bf 701a f4be d95a 12bc
00000260: b1d2 4c3e 1379 25be 4912 a53e 6f38 45be
00000270: 589e 383e 6b8d 213e aeef b13e e339 c2be
00000280: e573 8a3e 05fa 613e 00d6 bf3e 02c9 c4be
00000290: 5398 e53e 18b8 5fbd 0d15 96be 17b6 bc3e
000002a0: e8d5 023f dd92 9f3e 4331 56be 0311 ab3c
000002b0: 3035 c23d c328 233e a54d 5a3f e38e 16bf
000002c0: b797 883c d1f3 a5be b401 dbbe aec1 6d3d
000002d0: 35c0 383e f9f3 82be 441c 48be 4627 86bd
000002e0: 7c15 ebbe 6d01 1d3e bc45 ddbd 7ce6 583d
000002f0: 508d f23e 8736 af3e 6f07 ba3c a18c d93e
00000300: fa9a 68bd 04ea afbe 990e 7f3d 6a2c 7f3d
00000310: 214d 023e ebe4 733b a660 6d3e 792c cdbe
00000320: a500 873e 8e61 f7be de63 9a3e c795 63bf
00000330: 9895 ca3e 56a4 203d c7ea 333d ca03 bdbd
00000340: 427f 813c aa8c a13e d6a1 8d3d f598 5fbe
00000350: 68fc 203d 426b 893d 3a0e 443f 5ee2 b7bc
00000360: 6a48 df3e 7d94 af3e 35b3 9fbe ed9a 183f
00000370: 8407 e33e dae8 143e cbaf fc3e 3ddd ad3e
00000380: 145b b8be 41b1 dfbd 5763 163e b96e e2bd
00000390: e232 023e 10bd 4b3f 2f69 23be 3f83 123e
000003a0: dc52 b4bd 8a05 8dbd b056 d9be 3481 9a3d
000003b0: 00f0 a33d 27a8 e33e e0ba a0be 0567 9bbd
000003c0: 41da a6bf 6fc9 cabe a30b 213d a1f5 ed3e
000003d0: 44b5 873d 26ba 0ebe f7b0 9ebd 65bd 1f3e
000003e0: 2ecb b9be 61cd c43d faa6 b3be 1411 8f3e
000003f0: 5fde f0be 9969 5ebe 0175 d4be a347 993d

network_body._body_endoder.seq_layers.2.bias f4 [256]
-0.06489118 -0.04712182 0.05691877 0.057679918 -0.00055651175 -0.010378958 -0.02004624 -0.020540494
-0.017063355 -0.07089471 0.014632019 0.06137903 0.023500482 -0.02696166 0.01583152 0.0056587327
-0.032076895 -0.0071822987 -0.019360108 -0.058088835 -0.056070767 0.015736235 -0.023499064 0.017651644
0.0006249586 -0.0349467 -0.11060415 -0.016853094 0.016159708 -0.063109286 0.008308705 -0.0016317563
-0.032481868 -0.07042789 -0.032951653 -0.032388777 -0.008991694 -0.04148009 -0.04697901 0.015747184
-0.060652006 0.008186904 -0.059820816 -0.04146238 -0.03398779 -0.022536855 -0.0004328306 -0.025382841
-0.01568757 -0.05621754 0.05549563 -0.0061795446 0.04504735 0.016013835 -0.03259413 -0.013314583
-0.023232073 -0.013829195 -0.06765852 -0.0057988465 -0.0631204 -0.030667024 -0.03167199 -0.02258248
0.0077399486 -0.0054780617 -0.09736339 -0.031191926 -0.009576774 0.00943275 -0.00041753802 0.029010082
-0.027936084 0.00045216206 -0.03357549 -0.06512896 -0.022495635 -0.014245165 -0.06754638 0.026848607
-0.020118142 -0.04475836 0.005066642 -0.033786472 -0.056212075 0.002267627 0.035932347 -0.026170528
-0.0025825258 -0.0051550814 0.020535473 -0.0145593695 -0.04019532 -0.002854887 -0.04212283 0.015114282
0.033772655 0.03559457 -0.006692121 -0.08489597 -0.008986004 -0.037297945 -0.053792972 0.002931178
-0.0021682966 -0.009622179 -0.01693784 -0.033150803 -0.025998421 -0.047330737 -0.015827348 0.016457954
-0.03189297 0.013936653 -0.03067943 -0.06050449 0.010254649 0.00735036 -0.021302816 0.04066827
-0.017142149 0.0038313472 0.002121078 -0.028357217 -0.07086415 0.008217943 -0.038789712 -0.0648439
-0.036216848 -0.047347598 -0.028765328 -0.012731565 -0.021455655 -0.038946204 -0.045970805 -0.046853095
-0.0031891265 -0.081688985 -0.023417797 0.048126284 -0.022970086 -0.05464596 -0.002206808 -0.02679044
-0.0025216173 -0.0026932948 -0.034288075 -0.04233052 0.024020549 -0.07925493 -0.03449211 0.025409939
0.02364652 -0.06324282 -0.019440372 -0.033428304 -0.07112925 -0.03369154 -0.020043671 -0.070495404
-0.017831353 -0.019750545 0.008761196 -0.05444407 -0.04796231 0.051229373 -0.011233771 -0.014288399
0.013646806 -0.029535834 -0.024990512 -0.008731275 0.0072179493 -0.021513553 0.0051358026 -0.0562875
-0.026608093 -0.045332666 0.062497027 0.040826216 0.0074166628 -0.05060384 0.022727335 -0.0053641843
-0.0011004142 0.018083667 0.014517968 -0.043804772 -0.023488544 -0.053665183 -0.03357808 -0.050715994
-0.0034116674 -0.060686763 0.020226471 -0.0074287835 -0.024516607 0.07598331 -0.031228306 -0.061555177
-0.028332649 -0.007352931 0.0069837663 -0.0061705634 -0.051038712 -0.0343589 -0.056596484 0.0002274187
-0.0248785 -0.006467526 -0.049791746 -0.06796894 -0.045613036 -0.03796846 -0.051224504 0.002170605
-0.012568792 -0.0480473 -0.001277033 -0.016771067 -0.0053357496 -0.050396595 -0.006357901 -0.05385777
-0.016967254 -0.0107024815 0.0070451023 -0.044113044 0.0017561272 0.04535451 0.0086931335 -0.023742925
-0.011801862 -0.020229543 0.039815716 -0.07361504 -0.013053446 -0.018430866 -0.035560362 0.033995833
0.0012377703 -0.03470445 0.009462326 0.02998844 -0.035083614 -0.0058118845 -0.0034186326 -0.0019885553
-0.0036549212 -0.012216353 -0.019931272 -0.0488002 -0.04622551 -0.0063525666 0.008207816 0.021409076
00000000: abe5 84bd cf02 41bd a823 693d c741 6c3d
00000010: dfe2 11ba 810c 2abc 0338 a4bc 8a44 a8bc
00000020: 73c8 8bbc 3f31 91bd 23bb 6f3c 9468 7b3d
00000030: 1584 c03c b3de dcbc 1bb1 813c e46c b93b
00000040: 1063 03bd 7d59 ebbb 1799 9ebc 8fee 6dbd
00000050: 76aa 65bd 47e9 803c 1c81 c0bc 2e9a 903c
00000060: 43d4 233a 4524 0fbd 6e84 e2bd 800f 8abc
00000070: 5d61 843c 713f 81bd 3c21 083c a8e0 d5ba
00000080: b50b 05bd 7f3c 90bd 50f8 06bd 18aa 04bd
00000090: e651 13bc 07e7 29bd 106d 40bd 3d00 813c
000000a0: 3d6e 78bd 5d22 063c ac06 75bd 75d4 29bd
000000b0: c836 0bbd 369f b8bc 8aed e2b9 adef cfbc
000000c0: 3883 80bc 5d44 66bd 634f 633d c77d cabb
000000d0: 9283 383d 722f 833c 6c81 05bd 6925 5abc
000000e0: 3051 bebc d993 62bc 8d90 8abd 4004 bebb
000000f0: 4545 81bd 6939 fbbc 7dba 01bd e5fe b8bc
00000100: 659f fd3b 5081 b3bb 7566 c7bd 3686 ffbc
00000110: e7e7 1cbc d28b 1a3c 01e9 dab9 8da6 ed3c
00000120: 37da e4bc 2a10 ed39 7486 09bd 5562 85bd
00000130: c448 b8bc 8d64 69bc c255 8abd 9cf1 db3c
00000140: cdce a4bc 8b54 37bd 1306 a63b af63 0abd
00000150: a23e 66bd 789c 143b cc2d 133d 9363 d6bc
00000160: 983f 29bb f5eb a8bb 023a a83c 6c8a 6ebc
00000170: d9a3 24bd 0e19 3bbb fd88 2cbd e5a1 773c
00000180: 3255 0a3d 9dcb 113d 9449 dbbb f0dd adbd
00000190: 083a 13bc bbc5 18bd 0556 5cbd 0219 403b
000001a0: fb19 0ebb 58a6 1dbc 3ac1 8abc 23c9 07bd
000001b0: a4fa d4bc e0dd 41bd 5ba8 81bc d5d2 863c
000001c0: 34a2 02bd 8f56 643c 6e53 fbbc 8ed3 77bd
000001d0: 1e03 283c 4adb f03b 3e83 aebc c693 263d
000001e0: b16d 8cbc 5717 7b3b c901 0b3b 654d e8bc
000001f0: 3921 91bd 8da4 063c f6e1 1ebd e1cc 84bd
00000200: 1e58 14bd 8eef 41bd 44a5 ebbc 0e98 50bc
00000210: c5c3 afbc 0e86 1fbd e24b 3cbd 08e9 3fbd
00000220: aa00 51bb 8e4c a7bd aed6 bfbc 1120 453d
00000230: c32b bcbc 71d4 5fbd 18a0 10bb a077 dbbc
00000240: b841 25bb fd81 30bb a771 0cbd c462 2dbd
00000250: bec6 c43c 6950 a2bd 9947 0dbd 8128 d03c
00000260: 59b6 c13c 7485 81bd 6a41 9fbc 1eec 08bd
00000270: 36ac 91bd 2400 0abd a032 a4bc e55f 90bd
00000280: 0f13 92bc e5cb a1bc 1f8b 0f3c bf00 5fbd
00000290: 2174 44bd e4d5 513d da0d 38bc e419 6abc
000002a0: da96 5f3c 22f5 f1bc e7b8 ccbc 9f0d 0fbc
000002b0: 8c84 ec3b 313d b0bc 3c4a a83b b98d 66bd
000002c0: 37f9 d9bc bfae 39bd e2fc 7f3d 6439 273d
000002d0: 7a07 f33b f945 4fbd ad2e ba3c 0ac6 afbb
000002e0: c63b 90ba 3324 943c c5dc 6d3c a26c 33bd
000002f0: 0c6b c0bc 06d0 5bbd 2b89 09bd 93bb 4fbd
00000300: 4896 5fbb af92 78bd fcb1 a53c 276d f3bb
00000310: 0dd7 c8bc 239d 9b3d 81d2 ffbc 4821 7cbd
00000320: df19 e8bc dbf0 f0bb 14d8 e43b 7032 cabb
00000330: f80d 51bd ebbb 0cbd b7d1 67bd 3e77 6e39
00000340: ffcd cbbc 8aed d3bb 6ef2 4bbd 4d33 8bbd
00000350: bcd4 3abd d184 1bbd c9d0 51bd b540 0e3b
00000360: 56ed 4dbc 3fcd 44bd 1e62 a7ba 7a63 89bc
00000370: 83d7 aebb a96c 4ebd f055 d0bb f799 5cbd
00000380: e9fe 8abc 7659 2fbc 9ada e63b e1af 34bd
00000390: da2d e63a a7c5 393d a56d 0e3c 8680 c2bc
000003a0: 995c 41bc 6db8 a5bc ce15 233d 7bc3 96bd
000003b0: 1fde 55bc 54fc 96bc bea7 11bd 373f 0b3d
000003c0: ae3c a23a 4126 0ebd df07 1b3c 51aa f53c
000003d0: d6b3 0fbd 9f71 bebb 230b 60bb 6c52 02bb
000003e0: 6787 6fbb 1927 48bc e846 a3bc b8e2 47bd
000003f0: f656 3dbd 3129 d0bb 137a 063c 1662 af3c

network_body._body_endoder.seq_layers.2.weight f4 [256, 256]
-0.016057674 0.031736545 -0.044658553 -0.03618449 0.022361713 -0.056072325 -0.007894989 0.10464792
0.0106434245 -0.025793811 -0.025866378 0.037495475 -0.11598325 -0.133268 -0.09011074 0.07337275
-0.06683582 0.028523566 0.052773684 -0.06500492 0.059657417 0.058032107 -0.04774427 0.010871203
0.07065691 -0.08384941 -0.12082323 -0.0752601 -0.03849596 -0.0011942599 -0.12700094 -0.045381643
-0.0016367447 -0.016886428 -0.00061435055 -0.09914584 0.012772411 -0.03296078 -0.014635675 0.045227975
-0.016417444 0.08981443 0.010442109 -0.042170938 -0.094614014 -0.013470095 -0.08330439 -0.041907214
0.040097576 0.089089304 -0.0740966 0.0011374569 0.0037986992 0.010378502 0.05841708 -0.038686626
0.033992756 -0.080209084 0.12708417 0.019816652 -0.019553212 -0.042390525 0.028826546 0.01493847
-0.0024315186 0.05129723 0.0677614 -0.0319596 -0.034639884 -0.09239105 -0.063753374 0.003908103
-0.085184984 0.022957161 0.017779686 -0.06501029 -0.018568948 0.05184221 -0.16889831 -0.007667567
0.003598899 -0.031665497 -0.06677663 -0.016642407 -0.033165384 -0.02360495 -0.15449354 0.030942874
-0.021911412 -0.09752493 0.06328383 -0.09179425 0.03233486 -0.02592229 0.034992944 -0.0087336935
0.055169903 0.027269354 0.090203874 -0.014495942 -0.10006452 -0.017295647 -0.031580325 0.011799859
0.011015405 0.0323355 -0.02992232 -0.081060514 0.06923351 -0.03561159 -0.114581816 0.10726835
0.09141571 -0.040091746 0.08405926 -0.016893113 0.06568438 -0.08762866 -0.07560452 -0.08135668
0.07189655 -0.0054210536 0.029988267 -0.010921208 0.007611177 -0.062837645 -0.10252856 -0.12985614
0.064480156 0.098115146 0.07013501 -0.16573395 -0.09544393 -0.04951798 -0.09475264 -0.07039843
-0.02094228 -0.06493098 -0.048410308 -0.038659316 -0.0985027 -0.123595364 -0.005315262 -0.053321123
-0.114943944 0.10774459 -0.054526772 0.096705124 -0.058690812 -0.044083122 -0.009151413 0.064622946
-0.08726784 -0.13389352 -0.16210459 0.009025022 -0.06785873 -0.04557902 0.018494565 -0.018639602
-0.0148926 -0.020434568 0.021654338 0.13818541 -0.010363105 -0.120008126 -0.046428125 -0.017893469
0.029839292 -0.03009371 -0.059144106 -0.015640387 -0.0023312178 -0.13591695 -0.016071022 -0.04140028
-0.08881315 0.015962975 -0.002111063 -0.101025164 -0.08208646 0.16054769 -0.08087895 -0.07831341
-0.1228276 0.007019749 -0.035493147 -0.04508051 -0.007977739 0.20059559 -0.03271207 0.040837985
-0.11001649 -0.15472801 0.027083058 -0.05185145 0.060764927 -0.049163107 0.02644705 -0.073160656
-0.010242146 -0.098664 -0.13125786 -0.06364227 -0.12848698 0.15030694 -0.093079336 -0.065781355
-0.019888163 -0.122318484 -0.041502334 -0.17199342 -0.10968075 0.009005221 0.03618742 -0.03600961
-0.03523753 -0.10553642 0.010847532 -0.087564856 -0.024410024 -0.008656342 0.024889397 -0.12608023
0.031228786 -0.022163298 -0.07668421 0.17603941 -0.02097694 -0.12877606 -0.07334011 -0.039476275
-0.04109523 0.02249992 -0.0030937463 0.01351395 -0.13506544 -0.0937663 -0.062722035 -0.19345506
-0.04572011 0.032321054 -0.0363474 -0.08573325 0.0135844685 0.014876281 0.039847307 -0.028325645
0.07676522 0.024314195 0.032276455 -0.046495594 -0.049134575 0.016629146 -0.1733036 -0.07365066
00000000: 628b 83bc 2efe 013d e3eb 36bd 3036 14bd
00000010: e92f b73c 18ac 65bd fc59 01bc a651 d63d
00000020: c261 2e3c 8b4d d3bc bae5 d3bc db94 193d
00000030: a088 edbd 6877 08be fb8b b8bd 7444 963d
00000040: 38e1 88bd 41aa e93c 3829 583d 4d21 85bd
00000050: 565b 743d 13b3 6d3d 7f8f 43bd 211d 323c
00000060: 92b4 903d 3db9 abbd 2b72 f7bd f821 9abd
00000070: f1ad 1dbd b688 9cba 890c 02be 1ae2 39bd
00000080: 0a88 d6ba 6855 8abc 5e0c 21ba f90c cbbd
00000090: 6043 513c e201 07bd 78ca 6fbc f840 393d
000000a0: e07d 86bc a1f0 b73d 6115 2b3c 6fbb 2cbd
000000b0: fec4 c1bd acb1 5cbc 7e9b aabd e6a6 2bbd
000000c0: 5b3d 243d 7474 b63d f5bf 97bd b816 953a
000000d0: 99f3 783b 980a 2a3c c046 6f3d de75 1ebd
000000e0: fd3b 0b3d a944 a4bd 5a22 023e 8856 a23c
000000f0: 0f2e a0bc b0a1 2dbd a625 ec3c 7cc0 743c
00000100: 1d5a 1fbb 0b1d 523d 7dc6 8a3d 12e8 02bd
00000110: 8de2 0dbd 8537 bdbd 2191 82bd 8b0f 803b
00000120: 7775 aebd a810 bc3c b4a6 913c 1d24 85bd
00000130: e81d 98bc 7f58 543d aef3 2cbe 3740 fbbb
00000140: 82db 6b3b aeb3 01bd 30c2 88bd a855 88bc
00000150: 6dd8 07bd 2b5f c1bc 8e33 1ebe e97b fd3c
00000160: 907f b3bc 27bb c7bd f49a 813d a0fe bbbd
00000170: 8f71 043d fb5a d4bc c354 0f3d c417 0fbc
00000180: d6f9 613d fb63 df3c cfbc b83d 6380 6dbc
00000190: a1ee ccbd 9aaf 8dbc 5f5a 01bd 3254 413c
000001a0: f579 343c 3b72 043d a71f f5bc 0e03 a6bd
000001b0: 4cca 8d3d 75dd 11bd dfa9 eabd 82af db3d
000001c0: 2938 bb3d 3e37 24bd 4327 ac3d 6d63 8abc
000001d0: 8885 863d a876 b3bd 8bd6 9abd 559e a6bd
000001e0: 803e 933d 18a3 b1bb f4a9 f53c deee 32bc
000001f0: 2e67 f93b 06b1 80bd 7efa d1bd 02f9 04be
00000200: 2c0e 843d 98f0 c83d f2a2 8f3d 29b6 29be
00000210: 1b78 c3bd 5ed3 4abd ac0d c2bd 0d2d 90bd
00000220: 258f abbc 89fa 84bd e349 46bd 3b59 1ebd
00000230: c9bb c9bd 911f fdbd a62b aebb 4067 5abd
00000240: bb67 ebbd 32a9 dc3d 7757 5fbd 560d c63d
00000250: c765 70bd 8190 34bd cfef 15bc 0959 843d
00000260: 7bb9 b2bd 621b 09be bffe 25be b0dd 133c
00000270: 85f9 8abd 11b1 3abd ea81 973c 14b2 98bc
00000280: 1700 74bc 6566 a7bc 7064 b13c 7a80 0d3e
00000290: 03ca 29bc d2c6 f5bd 6b2b 3ebd 5395 92bc
000002a0: 8871 f43c 1687 f6bc 1741 72bd 4520 80bc
000002b0: 58c7 18bb d02d 0bbe 60a7 83bc 5793 29bd
000002c0: abe3 b5bd c9c4 823c c359 0abb 48e6 cebd
000002d0: f21c a8bd 9d66 243e dda3 a5bd c862 a0bd
000002e0: 098d fbbd ec05 e63b 4361 11bd 57a6 38bd
000002f0: 10b5 02bc ee68 4d3e 17fd 05bd bb45 273d
00000300: 5350 e1bd 0571 1ebe 4add dd3c 3062 54bd
00000310: a5e4 783d 415f 49bd 7ca7 d83c 41d5 95bd
00000320: adce 27bc 5a10 cabd 7668 06be e156 82bd
00000330: 1792 03be 10ea 193e 61a0 bebd 60b8 86bd
00000340: 80ec a2bc 1d82 fabd 5afe 29bd 0b1f 30be
00000350: 4da0 e0bd a28a 133c 4339 143d d07e 13bd
00000360: 3a55 10bd 7b23 d8bd d9b9 313c 3455 b3bd
00000370: 88f7 c7bc 54d3 0dbc d9e4 cb3c 2d1b 01be
00000380: 83d3 ff3c ce8f b5bc 9c0c 9dbd ad43 343e
00000390: d5d7 abbc dfdd 03be 5733 96bd e0b1 21bd
000003a0: 7953 28bd c151 b83c 73c0 4abb 9d69 5d3c
000003b0: 984e 0abe 8c08 c0bd 6974 80bd 1519 46be
000003c0: 0345 3bbd 1563 043d 03e1 14bd ea94 afbd
000003d0: 6491 5e3c a5bb 733c ee36 233d 2f0b e8bc
000003e0: 1537 9d3d 902e c73c 5134 043d 2a72 3ebd
000003f0: 5641 49bd d939 883c 8076 31be 28d6 96bd

network_body._body_endoder.seq_layers.4.bias f4 [256]
-0.040622085 0.016419603 -0.037941534 -0.049949087 -0.00468641 -0.059373774 -0.004762023 -0.0251801
-0.021840625 -0.08827435 0.01151708 0.0023525525 -0.020747446 -0.025027294 -0.07226172 -0.021648182
-0.024584278 -0.01786921 0.013072865 -0.07802262 -0.021292677 -0.03538955 -0.037966203 -0.036326315
-0.043258052 -0.06456421 -0.02837988 -0.06404803 -0.063658394 -0.06807771 -0.04433309 -0.070682265
0.012585498 -0.004398922 -0.009006269 -0.013450376 -0.045768257 -0.07512471 -0.027436445 -0.04593779
0.00039701888 -0.064381436 -0.04693954 -0.036246676 0.00542247 -0.014805482 -0.0044374703 0.025420973
-0.0523478 0.027107427 -0.0670544 -0.013703437 -0.013103304 -0.003357899 0.06406493 -0.06909937
-0.013075386 0.0064237285 -0.021494552 0.0174706 -0.033596218 -0.044729788 0.02552733 -0.044170823
0.0150198005 -0.06987029 -0.05747861 -0.024272462 -0.08195599 -0.0028929366 -0.026649764 -0.018387532
-0.06510555 -0.038922925 -0.049976572 -0.0754583 -0.036475353 -0.016557712 -0.031076545 -0.026365926
-0.04443999 -0.041751117 -0.053839095 -0.061677318 -0.04622255 -0.0530653 0.072704054 -0.011566975
0.00934729 0.021093315 -0.084816076 0.00011618154 0.006601609 -0.072426625 -0.017734231 0.014694914
-0.063614 0.039144635 -0.0013747257 -0.021577826 -0.04281651 -0.032807246 -0.09536419 -0.049423505
-0.054811027 0.009159193 -0.0147356875 -0.039626896 -0.025250671 -0.062788606 -0.034847356 0.022272563
1.39096255e-05 -0.022055566 -0.0128082475 -0.031475805 -0.0020722495 0.015819967 -0.0781045 0.012523468
-0.027334914 -0.046325605 -0.08302105 -0.044004735 0.009700478 -0.009418844 -0.027998082 -0.018210592
0.014181416 -0.01672809 0.010628173 -0.07247265 -0.04195781 -0.064813115 -0.067345895 -0.13439612
-0.079288945 -0.031386152 -0.07058732 -0.038165476 -0.033060845 -0.0851595 -0.10936608 0.047845792
-0.012363301 -0.03859538 0.013815311 0.0022311006 -0.02300326 0.033024773 0.007089785 -0.072241314
-0.07001251 -0.0259219 -0.020694971 -0.0952215 -0.06393905 -0.048969496 -0.094090484 -0.00630869
-0.009057871 0.04214476 -0.053719245 0.03196333 -0.037602182 -0.048495825 -0.034905776 -0.007671671
-0.05544061 -0.05522398 -0.018312288 -0.10289571 0.04011389 0.02127463 0.0030785408 -0.018307244
-0.0443154 -0.02019965 -0.029652953 -0.058005452 -0.019782467 0.02321093 -0.044868547 -0.07843889
-0.06408158 -0.0068896273 -0.02175995 -0.000287252 -0.043453775 -0.025084212 -0.04975802 -0.0072972057
0.0010362536 -0.054551214 0.04934891 -0.029091801 -0.085985884 0.01841277 -0.023353456 -0.10598659
-0.04225984 -0.0406139 -0.018695282 -0.03288351 0.009299871 -0.035370316 0.021022499 0.005718679
-0.011911235 0.022883747 -0.09655929 -0.011167719 -0.019018324 -0.008337026 -0.05210671 -0.022189151
-0.01213756 -0.04730441 -0.09756442 -0.036314923 -0.002367108 0.012142928 -0.048103876 -0.07716487
-0.031101646 -0.06268853 0.008041851 -0.0115620755 -0.031135865 -0.056464884 -0.061085425 -0.033232827
-0.056864444 -0.058133177 0.011435043 -0.028941052 -0.06352801 0.005806646 -0.021616273 -0.023398524
-0.013745494 -0.0499107 0.014713773 -0.044408176 -0.054265674 -0.0037452194 0.050785612 -0.04993005
-0.009490317 -0.016443895 -0.0014342899 -0.06340739 -0.014773918 -0.012142177 0.00207023 -0.014456276
00000000: 5863 26bd 6782 863c 9568 1bbd 6a97 4cbd
00000010: 7590 99bb ea31 73bd bf0a 9cbb 7f46 cebc
00000020: 1ceb b2bc 2fc9 b4bd 22b2 3c3c 482d 1a3b
00000030: 8cf6 a9bc 0a06 cdbc f4fd 93bd 8757 b1bc
00000040: f864 c9bc 7362 92bc 922f 563c 53ca 9fbd
00000050: fb6d aebc a2f4 10bd 7382 1bbd e7ca 14bd
00000060: 5b2f 31bd 3e3a 84bd ec7c e8bc 9d2b 83bd
00000070: 555f 82bd 546c 8bbd 9d96 35bd ddc1 90bd
00000080: 6833 4e3c d524 90bb 088f 13bc f75e 5cbc
00000090: 7f77 3bbd fcda 99bd 65c2 e0bc 4429 3cbd
000000a0: f926 d039 6ada 83bd ad43 40bd 6577 14bd
000000b0: faae b13b b192 72bc 3368 91bb a53f d03c
000000c0: a66a 56bd 6510 de3c d153 89bd 6184 60bc
000000d0: 3eaf 56bc 3210 5cbb 7934 833d f883 8dbd
000000e0: 253a 56bc 247e d23b 5815 b0bc 811e 8f3c
000000f0: 309c 09bd 9536 37bd b11e d13c 77ec 34bd
00000100: 9c15 763c 2818 8fbd b16e 6bbd 0bd7 c6bc
00000110: 8bd8 a7bd 6c97 3dbb 9b50 dabc 73a1 96bc
00000120: 0f56 85bd a56d 1fbd 3cb4 4cbd e289 9abd
00000130: 2e67 15bd 0aa4 87bc 3d94 febc 5bfd d7bc
00000140: b506 36bd 3803 2bbd 6286 5cbd 5ba1 7cbd
00000150: db53 3dbd 005b 59bd dde5 943d 6983 3dbc
00000160: 6025 193c e3cb ac3c 0db4 adbd 7da6 f338
00000170: 4f52 d83b 6954 94bd 6147 91bc f0c2 703c
00000180: 0f48 82bd 2056 203d 2430 b4ba fbc3 b0bc
00000190: 5d60 2fbd e460 06bd 4d4e c3bd 4d70 4abd
000001a0: 8781 60bd 7110 163c f46d 71bc d04f 22bd
000001b0: 7fda cebc 5097 80bd 1abc 0ebd f374 b63c
000001c0: 635d 6937 e0ad b4bc afd9 51bc c6ec 00bd
000001d0: 94ce 07bb e098 813c 41f5 9fbd 3b2f 4d3c
000001e0: 78ed dfbc ebbf 3dbd f106 aabd 4f3e 34bd
000001f0: c1ee 1e3c 7f51 1abc 3c5c e5bc 612e 95bc
00000200: 2b59 683c 5909 89bc ca21 2e3c 8a6c 94bd
00000210: f4db 2bbd bdbc 84bd a5ec 89bd 239f 09be
00000220: 3e62 a2bd c48e 00bd 1690 90bd 6753 1cbd
00000230: cf6a 07bd 1b68 aebd 53fb dfbd f3f9 433d
00000240: 718f 4abc 3016 1ebd 9d59 623c a837 123b
00000250: 5571 bcbc fc44 073d 6d51 e83b 41f3 93bd
00000260: b862 8fbd 2a5a d4bc 8088 a9bc 7d03 c3bd
00000270: 7af2 82bd 3d94 48bd 83b2 c0bd 21b9 cebb
00000280: 7767 14bc fc9f 2c3d b608 5cbd fbeb 023d
00000290: bf04 1abd 8fa3 46bd 5cf9 0ebd a462 fbbb
000002a0: b115 63bd 8a32 62bd a703 96bc fcba d2bd
000002b0: 764e 243d 2248 ae3c 58c1 493b 13f9 95bc
000002c0: 1184 35bd bd79 a5bc c0ea f2bc 2097 6dbd
000002d0: d70e a2bc d924 be3c 15c8 37bd 92a4 a0bd
000002e0: 343d 83bd 62c2 e1bb ec41 b2bc 509a 96b9
000002f0: 96fc 31bd 687d cdbc 11cf 4bbd 661d efbb
00000300: e7d2 873a 1871 5fbd 1522 4a3d ee51 eebc
00000310: 5e19 b0bd 61d6 963c bf4f bfbc 7f0f d9bd
00000320: a718 2dbd c35a 26bd d926 99bc dcb0 06bd
00000330: 7c5e 183c 77e0 10bd 6037 ac3c c263 bb3b
00000340: 5727 43bc b276 bb3c e1c0 c5bd cff8 36bc
00000350: 51cc 9bbc 0698 08bc d86d 55bd 06c6 b5bc
00000360: 9edc 46bc 45c2 41bd dbcf c7bd f5be 14bd
00000370: 7b21 1bbb 22f3 463c 9208 45bd 9e08 9ebd
00000380: e1c8 febc d862 80bd f8c1 033c dc6e 3dbc
00000390: a410 ffbc b947 67bd b634 7abd 251f 08bd
000003a0: b1ea 68bd 0e1d 6ebd 0c5a 3b3c c915 edbc
000003b0: f91a 82bd ad45 be3b 9c14 b1bc 43ae bfbc
000003c0: c834 61bc 2a6f 4cbd 0912 713c 59e5 35bd
000003d0: af45 5ebd 5b72 75bb 9304 503d 7483 4cbd
000003e0: 467d 1bbc 59b5 86bc c8fe bbba bcdb 81bd
000003f0: 4e0e 72bc fbef 46bc b2ac 073b 04da 6cbc

network_body._body_endoder.seq_layers.4.weight f4 [256, 256]
-0.0061175167 -0.06284657 -0.16484766 -0.0932891 -0.012929401 0.15480396 -0.1519615 0.011469475
-0.112000674 -0.15481018 0.051032893 -0.10164468 0.15053818 0.06339014 -0.026541485 0.13992706
0.045574985 -0.024881914 -0.06541685 0.058819976 0.006335044 -0.06623054 -0.16895527 -0.055386007
-0.0121417185 -0.012912808 0.03598423 -0.05085023 -0.093256295 0.2328847 -0.11759896 -0.14275084
-0.04614509 0.007597925 -0.060403243 0.015807556 0.09557068 0.0398358 -0.011435257 0.011564631
0.07156147 -0.052543826 0.0482268 -0.09747571 -0.037544202 0.059400335 0.14532359 -0.051031407
0.05523164 -0.09705676 -0.029734725 -0.04934148 -0.18788663 -0.11180984 -0.042591825 0.020254368
0.06333235 0.09147707 0.20571795 0.035879575 0.10675131 0.06817246 -0.017190302 -0.10519288
-0.17440249 0.07471905 -0.032618046 0.032000866 -0.0100523215 0.037177395 -0.098048545 0.017275427
0.05962384 -0.10932367 -0.21113354 0.022411399 -0.038363516 0.04207069 0.06137231 -0.00061850925
-0.024397386 -0.008644204 -0.017728258 -0.10307464 0.048302893 -0.038357146 -0.037996933 -0.0434287
-0.12881753 -0.009882771 -0.15743262 -0.05239383 0.11222599 -0.089543864 0.13124377 -0.032675676
-0.060210746 0.026334206 0.011137532 -0.14023446 0.028303118 0.06893967 -0.0012840433 0.010637051
0.052056905 -0.004804218 -0.011185676 0.03332613 0.008972183 -0.018908486 -0.17221785 -0.13376711
-0.053222023 -0.00874769 0.12445094 0.03145149 0.060840476 -0.037883252 0.22362354 -0.082844004
-0.04060788 -0.024259476 -0.0109009165 -0.05677904 -0.0014513077 0.013458838 -0.098358825 0.0051734117
-0.07628818 0.08983341 -0.09474811 -0.11043618 -0.06977011 0.0039409604 0.022199115 0.12712954
-0.0075598196 0.11151035 -0.13601784 0.02591654 -0.015205154 0.007828287 0.0048720096 0.16467428
0.020601774 -0.03245878 -0.02306843 -0.039357573 -0.09094886 0.05859526 0.1175942 0.073531374
-0.034063354 -0.052797142 -0.081946686 -0.023401937 0.037405353 -0.06450681 -0.086550675 0.14088646
0.119288795 -0.09421283 -0.13568604 0.0014819631 0.13348709 0.021258974 0.14631943 0.018828165
-0.04461728 -0.007956818 0.0013670023 0.022350084 -0.028973985 -0.04009908 0.067872845 0.071141265
-0.15348911 -0.07566219 -0.030341808 -0.10182076 0.14354995 0.0154052805 -0.0012999328 0.04084889
-0.08741075 -0.08268327 0.12133754 -0.0055652075 -0.033505913 -0.13393883 0.01516373 0.0017863547
0.11165675 -0.10022079 -0.03184366 -0.022619983 -0.076328665 -0.10325305 -0.16950423 0.09736343
0.0680511 0.002220646 0.18080956 0.11909153 0.18298414 -0.015886871 -0.08560195 -0.035807025
-0.041792825 0.12068862 0.026618125 -0.09152653 -0.16272186 -0.0075743836 0.13235186 0.1684458
-0.04696805 0.0233102 -0.04148734 0.114153005 0.034558058 0.0093132565 0.05832627 -0.03379598
0.11378865 0.03943634 0.05267759 0.03426525 -0.02608869 0.011914555 0.034452878 0.0852451
-0.013138977 -0.058045592 -0.18034816 -0.011327014 0.043612406 0.15148857 0.04127581 -0.06294098
-0.008335296 -0.10494414 -0.027760591 -0.14579502 -0.07502527 0.051325433 -0.0072008823 -0.15392572
0.10446243 0.027148617 0.050945822 0.13159962 0.026660543 -0.065302745 0.06174609 -0.011865722
00000000: 7375 c8bb b4b5 80bd d3cd 28be 5b0e bfbd
00000010: d7d5 53bc ee84 1e3e cc9b 1bbe 77ea 3b3c
00000020: 9c60 e5bd 8f86 1ebe de07 513d 162b d0bd
00000030: ae26 1a3e b1d2 813d 876d d9bc 0a49 0f3e
00000040: d6ac 3a3d 28d5 cbbc 45f9 85bd 37ed 703d
00000050: 3396 cf3b e1a3 87bd 9c02 2dbe 70dc 62bd
00000060: 0fee 46bc 3e90 53bc 3364 133d 5548 50bd
00000070: 28fd bebd 5479 6e3e b9d7 f0bd 472d 12be
00000080: a202 3dbd 04f8 f83b 6469 77bd d97e 813c
00000090: 90ba c33d dd2a 233d f25a 3bbc 9479 3d3c
000000a0: d28e 923d 3238 57bd 7789 453d 58a1 c7bd
000000b0: f3c7 19bd c44d 733d b5cf 143e 4f06 51bd
000000c0: 923a 623d b2c5 c6bd 3d96 f3bc 4b1a 4abd
000000d0: 5a65 40be 8ffc e4bd c474 2ebd 7dec a53c
000000e0: 64b4 813d 5458 bb3d baa7 523e 76f6 123d
000000f0: 6ea0 da3d 019e 8b3d add2 8cbc 5d6f d7bd
00000100: 9196 32be 4d06 993d 809a 05bd 5713 033d
00000110: 7eb2 24bc 5347 183d adcd c8bd 3285 8d3c
00000120: 2138 743d 17e5 dfbd 6433 58be 1c98 b73c
00000130: 1023 1dbd 5152 2c3d 8861 7b3d 7423 22ba
00000140: 07dd c7bc 6ba0 0dbc da3a 91bc cc18 d3bd
00000150: 41d9 453d 621c 1dbd aca2 1bbd 4be2 31bd
00000160: bee8 03be 59eb 21bc 0436 21be ea9a 56bd
00000170: bdd6 e53d c662 b7bd c464 063e eed6 05bd
00000180: 8b9f 76bd d5ba d73c 327a 363c 9f99 0fbe
00000190: f1db e73c 3e30 8d3d 584d a8ba 0747 2e3c
000001a0: 9f39 553d b46c 9dbb 2044 37bc fb80 083d
000001b0: 1000 133c f8e5 9abc e059 30be 3ffa 08be
000001c0: 56ff 59bd 7952 0fbc 22e0 fe3d 47d3 003d
000001d0: dd33 793d 782b 1bbd 92fd 643e 1eaa a9bd
000001e0: 7354 26bd cfbb c6bc c299 32bc 2391 68bd
000001f0: ce39 beba 7582 5c3c 5a70 c9bd b985 a93b
00000200: fa3c 9cbd 94fa b73d 4c0b c2bd 5d2c e2bd
00000210: a2e3 8ebd 2c23 813b ebda b53c 3f2e 023e
00000220: 5db8 f7bb 8a5f e43d 4348 0bbe ec4e d43c
00000230: 0a1f 79bc 3742 003c 61a5 9f3b 60a0 283e
00000240: 0dc5 a83c 7ff3 04bd 01fa bcbc 6835 21bd
00000250: 6543 babd 9501 703d 3ad5 f03d 9e97 963d
00000260: 0486 0bbd d141 58bd aad3 a7bd 6bb5 bfbc
00000270: 5b36 193d 251c 84bd 7b41 b1bd 8a44 103e
00000280: af4d f43d a8f2 c0bd 48f1 0abe 6e3e c23a
00000290: d7b0 083e 4d27 ae3c c3d4 153e 863d 9a3c
000002a0: 9cc0 36bd 505d 02bc fc2c b33a 8617 b73c
000002b0: da5a edbc ef3e 24bd eb00 8b3d 83b2 913d
000002c0: 402c 1dbe c7f4 9abd 628f f8bc 6787 d0bd
000002d0: c2fe 123e 6e66 7c3c 8262 aaba 2a51 273d
000002e0: 6804 b3bd d955 a9bd d17f f83d 585c b6bb
000002f0: 7f3d 09bd 4327 09be 4b71 783c 1e24 ea3a
00000300: 4bac e43d 8f40 cdbd 7f6e 02bd 8b4d b9bc
00000310: 3452 9cbd 5676 d3bd 8492 2dbe 7a66 c73d
00000320: 605e 8b3d 4288 113b 2426 393e 43e6 f33d
00000330: 3260 3b3e 2f25 82bc 1350 afbd 63aa 12bd
00000340: f42e 2bbd 982b f73d 410e da3c 4372 bbbd
00000350: 8fa0 26be 8932 f8bb 3f87 073e 0e7d 2c3e
00000360: 9261 40bd 08f5 be3c a1ee 29bd 0dc9 e93d
00000370: c08c 0d3d a196 183c 87e7 6e3d a76d 0abd
00000380: 060a e93d 0088 213d 75c4 573d b859 0c3d
00000390: f3b7 d5bc 4435 433c 761e 0d3d fc94 ae3d
000003a0: dd44 57bc 37c1 6dbd 30ad 38be f194 39bc
000003b0: eca2 323d d21f 1b3e d310 293d 33e7 80bd
000003c0: c490 08bc f4ec d6bd 2e6a e3bc 4a4b 15be
000003d0: d9a6 99bd 9e3a 523d 61f5 ebbb b49e 1dbe
000003e0: 66f0 d53d c766 de3c 91ac 503d 0dc2 063e
000003f0: 3667 da3c 72bd 85bd 78e9 7c3d 7268 42bc
