results/Drone1/My Behavior/My Behavior-1024.pt (torch, 143687 bytes, 10 tensors)

network_body._body_endoder.seq_layers.0.weight f4 [128, 1]
-0.21929824 -1.3860843 0.38410005 -2.7149816 -0.3398712 1.0567938 0.44207776 -0.82869786
1.2628906 0.41578794 -0.16421588 -0.8727651 -0.7258705 -0.54652554 0.3225548 1.2285421
-0.4370707 -0.13248132 -0.40559995 0.7704523 0.39777982 -0.34060457 0.5865654 1.692212
-0.0142931305 -1.6192592 1.5092963 1.1966001 0.4233123 -1.8528174 1.2558995 -0.1919902
0.72960806 -0.42039943 0.7930324 -0.19341725 0.6837862 1.0308009 1.7862221 1.1689583
-0.77218693 -0.70119286 0.3447947 -0.52694035 -1.0373043 2.2292788 -0.5970625 0.3619831
-1.047309 -0.6508931 1.1212711 0.59174526 0.56857306 0.038918003 -0.6339432 -1.7905021
-1.6637175 -1.114454 0.7626292 0.8181335 2.0341547 1.0064477 0.6604006 -0.7158789
-1.712916 -0.09851344 0.7067868 1.4144042 -1.887906 1.7292762 -1.1999428 0.7235093
2.191198 -0.97489405 0.34178233 0.23532473 0.078311026 -0.612915 -0.3186552 0.46768904
-1.8246781 -1.5390462 -0.66818094 -1.3869743 0.7245744 -0.28553385 -1.2059534 0.5060295
-1.2413546 0.7227189 -0.7875148 -2.2180786 -0.35880592 0.7889049 -0.0030256335 0.54781073
0.83527094 -0.0978122 -0.070293844 0.50744295 0.7579204 -1.1829993 -1.9340403 -1.394436
-1.366078 -1.0198745 -0.9429536 -1.3741161 1.124989 -0.750936 -0.8806631 0.79744464
-0.22194919 0.33063823 -0.2404311 0.4409075 -0.37674412 -1.066313 1.2132937 2.2312813
-1.3543062 0.7823138 0.6369991 -0.19784608 -1.0844386 0.3633632 -1.3522683 -1.8431673
00000000: b88f 60be 366b b1bf c3a8 c43e 42c2 2dc0
00000010: 9903 aebe 0545 873f 0458 e23e 8b25 54bf
00000020: 66a6 a13f 28e2 d43e 3528 28be 896d 5fbf
00000030: a6d2 39bf 19e9 0bbf e725 a53e de40 9d3f
00000040: bbc7 dfbe 2fa9 07be ccaa cfbe 5d3c 453f
00000050: cca9 cb3e b963 aebe 2629 163f 679a d83f
00000060: bc2d 6abc e343 cfbf 9f30 c13f 312a 993f
00000070: 64bc d83e 1f29 edbf 51c1 a03f 1499 44be
00000080: 98c7 3a3f 983e d7be 2c04 4b3f 2c0f 46be
00000090: 9d0c 2f3f 49f1 833f eda2 e43f 6da0 953f
000000a0: 0bae 45bf 6081 33bf ee88 b03e 90e5 06bf
000000b0: 63c6 84bf 81ac 0e40 17d9 18bf d955 b93e
000000c0: 390e 86bf eea0 26bf d085 8f3f 9e7c 173f
000000d0: 018e 113f 7c68 1f3d 1a4a 22bf 2c2f e5bf
000000e0: b2f4 d4bf 6ea6 8ebf ab3b 433f 3271 513f
000000f0: 972f 0240 47d3 803f 0410 293f d743 37bf
00000100: d540 dbbf 6ac1 c9bd fbef 343f 320b b53f
00000110: e7a6 f1bf ec58 dd3f ba97 99bf e837 393f
00000120: 973c 0c40 a892 79bf 18fe ae3e f7f8 703e
00000130: 8861 a03d ffe7 1cbf c626 a3be f074 ef3e
00000140: 0d8f e9bf 77ff c4bf e80d 2bbf 6088 b1bf
00000150: b57d 393f 7e31 92be ae5c 9abf 268b 013f
00000160: b5e4 9ebf 1b04 393f 929a 49bf 00f5 0dc0
00000170: 69b5 b7be acf5 493f b549 46bb 533d 0c3f
00000180: 51d4 553f c351 c8bd 38f6 8fbd c8e7 013f
00000190: 1207 423f 856c 97bf a28e f7bf e17c b2bf
000001a0: a5db aebf 3f8b 82bf 6865 71bf 09e3 afbf
000001b0: a4ff 8f3f 573d 40bf 2373 61bf 5525 4c3f
000001c0: a646 63be 6a49 a93e 9233 76be a1be e13e
000001d0: 9be4 c0be f27c 88bf 354d 9b3f 50cd 0e40
000001e0: e859 adbf b845 483f 5f12 233f 2a98 4abe
000001f0: e2ce 8abf be0a ba3e 2117 adbf e8ec ebbf

network_body._body_endoder.seq_layers.0.bias f4 [128]
0.0 0.0 0.0 0.0 0.0 0.0 0.0 0.0
0.0 0.0 0.0 0.0 0.0 0.0 0.0 0.0
0.0 0.0 0.0 0.0 0.0 0.0 0.0 0.0
0.0 0.0 0.0 0.0 0.0 0.0 0.0 0.0
0.0 0.0 0.0 0.0 0.0 0.0 0.0 0.0
0.0 0.0 0.0 0.0 0.0 0.0 0.0 0.0
0.0 0.0 0.0 0.0 0.0 0.0 0.0 0.0
0.0 0.0 0.0 0.0 0.0 0.0 0.0 0.0
0.0 0.0 0.0 0.0 0.0 0.0 0.0 0.0
0.0 0.0 0.0 0.0 0.0 0.0 0.0 0.0
0.0 0.0 0.0 0.0 0.0 0.0 0.0 0.0
0.0 0.0 0.0 0.0 0.0 0.0 0.0 0.0
0.0 0.0 0.0 0.0 0.0 0.0 0.0 0.0
0.0 0.0 0.0 0.0 0.0 0.0 0.0 0.0
0.0 0.0 0.0 0.0 0.0 0.0 0.0 0.0
0.0 0.0 0.0 0.0 0.0 0.0 0.0 0.0
00000000: 0000 0000 0000 0000 0000 0000 0000 0000
00000010: 0000 0000 0000 0000 0000 0000 0000 0000
00000020: 0000 0000 0000 0000 0000 0000 0000 0000
00000030: 0000 0000 0000 0000 0000 0000 0000 0000
00000040: 0000 0000 0000 0000 0000 0000 0000 0000
00000050: 0000 0000 0000 0000 0000 0000 0000 0000
00000060: 0000 0000 0000 0000 0000 0000 0000 0000
00000070: 0000 0000 0000 0000 0000 0000 0000 0000
00000080: 0000 0000 0000 0000 0000 0000 0000 0000
00000090: 0000 0000 0000 0000 0000 0000 0000 0000
000000a0: 0000 0000 0000 0000 0000 0000 0000 0000
000000b0: 0000 0000 0000 0000 0000 0000 0000 0000
000000c0: 0000 0000 0000 0000 0000 0000 0000 0000
000000d0: 0000 0000 0000 0000 0000 0000 0000 0000
000000e0: 0000 0000 0000 0000 0000 0000 0000 0000
000000f0: 0000 0000 0000 0000 0000 0000 0000 0000
00000100: 0000 0000 0000 0000 0000 0000 0000 0000
00000110: 0000 0000 0000 0000 0000 0000 0000 0000
00000120: 0000 0000 0000 0000 0000 0000 0000 0000
00000130: 0000 0000 0000 0000 0000 0000 0000 0000
00000140: 0000 0000 0000 0000 0000 0000 0000 0000
00000150: 0000 0000 0000 0000 0000 0000 0000 0000
00000160: 0000 0000 0000 0000 0000 0000 0000 0000
00000170: 0000 0000 0000 0000 0000 0000 0000 0000
00000180: 0000 0000 0000 0000 0000 0000 0000 0000
00000190: 0000 0000 0000 0000 0000 0000 0000 0000
000001a0: 0000 0000 0000 0000 0000 0000 0000 0000
000001b0: 0000 0000 0000 0000 0000 0000 0000 0000
000001c0: 0000 0000 0000 0000 0000 0000 0000 0000
000001d0: 0000 0000 0000 0000 0000 0000 0000 0000
000001e0: 0000 0000 0000 0000 0000 0000 0000 0000
000001f0: 0000 0000 0000 0000 0000 0000 0000 0000

network_body._body_endoder.seq_layers.2.weight f4 [128, 128]
0.07503664 0.15755092 0.07801586 0.12552382 -0.09719337 -0.05722905 0.0026656082 -0.11616374
0.032567512 -0.03329066 -0.037915487 0.04548061 -0.013396739 -0.019802088 0.21221302 -0.049441278
-0.1112791 -0.08400818 -0.058085043 -0.020792041 -0.06805287 -0.072958425 -0.04265816 0.07347886
-0.024680017 -0.064263046 -0.10839266 0.106413804 0.07357071 -0.13138582 -0.004762227 -0.09183141
-0.111766525 -0.061637335 0.14384884 -0.09875716 -0.112608604 -0.010270931 0.017301992 -0.1522555
-0.08194366 0.07926615 0.084507965 -0.10411307 0.035450265 -0.04707501 -0.019921076 -0.018360997
-0.0725788 0.007618933 -0.14980564 -0.025112472 0.019931726 -0.0039672283 0.08617695 0.14957082
-0.07057768 -0.07132582 -0.029567847 -0.060954694 0.02932457 0.10408642 0.13211265 0.03492663
-0.07350883 0.0574151 -0.051953148 0.051240478 -0.05433211 0.012644539 -0.10761539 0.2908615
0.0941562 -0.006376334 -0.10289422 0.13316101 0.09017474 0.058543094 0.12051328 -0.080233365
0.048747744 0.049275644 0.10484942 0.14350025 0.012545591 -0.01869746 0.007433766 0.05040988
-0.036616247 -0.042628825 -0.12180992 0.19582492 -0.13439506 0.056676928 -0.061800156 0.23156305
-0.033481963 0.04150744 0.078962564 -0.005127468 0.0062674596 0.027920749 -0.069337964 0.0035218496
-0.06070924 0.11701933 0.101069555 0.032438062 0.09249916 -0.0119817 0.012002572 0.0627138
0.04015508 0.0855122 -0.04711642 0.10852136 -0.1531526 -0.104621425 -0.05414593 -0.08643331
0.17947027 0.08266214 -0.08980442 -0.011854218 -0.052748244 0.103245735 -0.12427388 0.029792462
0.20919773 -0.053888597 0.012687856 0.109867506 -0.008420255 -0.043831088 0.007004244 0.03298216
0.049678944 -0.09526176 0.027532322 0.021372426 -0.11936061 -0.11578819 0.011787482 -0.119771786
0.09228795 -0.086215585 0.14086865 0.1283745 -0.05251256 -0.011583562 0.0014980539 -0.21338119
0.06569223 0.14583483 -0.023911849 -0.06367387 0.051708814 -0.11598926 -0.10387228 -0.04012717
-0.0034206125 0.033194475 -0.0007024625 -0.015748888 0.15268846 0.08324905 -0.10213342 -0.16000919
-0.07561766 -0.09655223 -0.108889416 -0.06662001 0.039256893 -0.012197274 -0.022602556 -0.06323213
0.12402642 -0.15134294 -0.00013335238 -0.06854821 0.017756674 -0.047309346 -0.089359105 0.02153103
-0.09776281 0.047367387 0.026810681 0.0883319 0.0645227 0.06168659 0.03236226 -0.0038256005
-0.032645382 0.0844729 -0.07699812 0.07389594 0.054316834 -0.06369876 0.04657124 -0.023034986
-0.0045664893 -0.0071813324 0.08256934 0.02936196 -0.019407155 0.11877656 0.0062468327 -0.10805991
0.013391097 0.00017550876 0.16246493 0.17340267 -0.09587382 -0.16817556 0.011688663 0.03750218
0.044950914 0.058668602 -0.0628812 -0.14490709 -0.09578049 -0.1098604 0.09443856 0.0023695535
0.063813075 -0.054752655 0.022806315 0.042017102 -0.006737029 -0.11139198 0.065037996 -0.0749081
0.12111028 -0.13756596 0.08332342 0.03153376 -0.16076022 0.041666493 0.20088303 0.07463677
0.062495872 0.049620394 -0.049228482 0.023237726 0.18263392 -0.18631515 0.15545598 -0.018934317
0.06440717 0.11106876 -0.070153594 0.06375097 -0.048290443 0.16752736 0.06075386 -0.102352954
00000000: cfac 993d 0755 213e c7c6 9f3d 5189 003e
00000010: 510d c7bd 0269 6abd 7cb1 2e3b 41e7 edbd
00000020: 8365 053d c95b 08bd 454d 1bbd e049 3a3d
00000030: ff7d 5bbc fd37 a2bc 5f4e 593e f082 4abd
00000040: 4ce6 e3bd 7b0c acbd 95ea 6dbd 1254 aabc
00000050: 4e5f 8bbd 3a6b 95bd 53ba 2ebd 167c 963d
00000060: bf2d cabc 589c 83bd f9fc ddbd 7bef d93d
00000070: 3eac 963d 018a 06be 750c 9cbb 1b12 bcbd
00000080: d9e5 e4bd 6e77 7cbd 1c4d 133e 3241 cabd
00000090: 579f e6bd 6847 28bc e8bc 8d3c dee8 1bbe
000000a0: 14d2 a7bd 4b56 a23d 8312 ad3d 3c39 d5bd
000000b0: 4c34 113d bad1 40bd 8631 a3bc cd69 96bc
000000c0: 32a4 94bd 3ea8 f93b a666 19be acb8 cdbc
000000d0: dc47 a33c 86ff 81bb 8a7d b03d 1829 193e
000000e0: 088b 90bd 4613 92bd 4538 f2bc a1ab 79bd
000000f0: 153a f03c 432b d53d 8a48 073e 3a0f 0f3d
00000100: cc8b 96bd 192c 6b3d d3cc 54bd 89e1 513d
00000110: 598b 5ebd 0a2b 4f3c 7565 dcbd cceb 943e
00000120: f7d4 c03d 91f0 d0bb 34ba d2bd 5c5b 083e
00000130: 89ad b83d e2ca 6f3d abcf f63d 6451 a4bd
00000140: b7ab 473d 42d5 493d 4bbb d63d bbf1 123e
00000150: 068c 4d3c 6a2b 99bc f396 f33b 977a 4e3d
00000160: ebfa 15bd 909b 2ebd 7b77 f9bd 5486 483e
00000170: dc9e 09be 1126 683d 2922 7dbd dd1e 6d3e
00000180: 6224 09bd b503 2a3d 20b7 a13d 5204 a8bb
00000190: 435f cd3b 0eba e43c 1001 8ebd d5ce 663b
000001a0: 41aa 78bd d5a7 ef3d 8efd ce3d c6dd 043d
000001b0: 3370 bd3d e44e 44bc 70a6 443c 1870 803d
000001c0: a779 243d 0521 af3d 26fd 40bd 7240 de3d
000001d0: 09d4 1cbe c243 d6bd 1fc8 5dbd f203 b1bd
000001e0: 0ec7 373e c54a a93d 61eb b7bd 3238 42bc
000001f0: 8b0e 58bd 8072 d33d 4e83 febd 520f f43c
00000200: ee37 563e 4aba 5cbd bae0 4f3c 3702 e13d
00000210: 1cf5 09bc 3a88 33bd db83 e53b 4d18 073d
00000220: 267c 4b3d 9918 c3bd 778b e13c 3a15 af3c
00000230: 5673 f4bd 5c22 edbd 4820 413c e94a f5bd
00000240: 7701 bd3d cc91 b0bd df3f 103e 9b74 033e
00000250: 6917 57bd fbc8 3dbc 595a c43a 9980 5abe
00000260: a689 863d ba55 153e c8e2 c3bc 7267 82bd
00000270: 9fcc 533d c78b edbd fdba d4bd 635c 24bd
00000280: 5b2c 60bb eef6 073d 7625 38ba d003 81bc
00000290: 5d5a 1c3e 7a7e aa3d 542b d1bd 73d9 23be
000002a0: 6fdd 9abd 2dbd c5bd 6a01 dfbd 1270 88bd
000002b0: d6cb 203d 13d7 47bc ff28 b9bc d97f 81bd
000002c0: 9001 fe3d a5f9 1abe 82d4 0bb9 0163 8cbd
000002d0: 7276 913c 72c7 41bd e801 b7bd d861 b03c
000002e0: de37 c8bd 4e04 423d 13a2 db3c 5be7 b43d
000002f0: 7a24 843d 14ab 7c3d 4a8e 043d edb6 7abb
00000300: 2ab7 05bd 2100 ad3d 31b1 9dbd c156 973d
00000310: 547b 5e3d 7f74 82bd 7cc1 3e3d deb3 bcbc
00000320: 7da2 95bb 6251 ebbb 1d1a a93d 7e88 f03c
00000330: c1fb 9ebc 2041 f33d 3bb2 cc3b 844e ddbd
00000340: 5566 5b3c c608 3839 355d 263e 7890 313e
00000350: 7e59 c4bd 3736 2cbe ce81 3f3c e39b 193d
00000360: 731e 383d 7d4e 703d dcc7 80bd 8662 14be
00000370: 9028 c4bd 7dfe e0bd 0169 c13d 834a 1b3b
00000380: 6eb0 823d 5244 60bd 4fd4 ba3c 201a 2c3d
00000390: 4cc2 dcbb 7a21 e4bd a432 853d 6b69 99bd
000003a0: ab08 f83d 17de 0cbe 78a5 aa3d 8b29 013d
000003b0: 549e 24be 7caa 2a3d 48b4 4d3e 2adb 983d
000003c0: acfb 7f3d c13e 4b3d cea3 49bd 0b5d be3c
000003d0: 6304 3b3e 66c9 3ebe da2f 1f3e 241c 9bbc
000003e0: e8e7 833d 0578 e33d b0ac 8fbd de8f 823d
000003f0: 33cc 45bd 4b8c 2b3e 0ad9 783d 6d9e d1bd

network_body._body_endoder.seq_layers.2.bias f4 [128]
0.0 0.0 0.0 0.0 0.0 0.0 0.0 0.0
0.0 0.0 0.0 0.0 0.0 0.0 0.0 0.0
0.0 0.0 0.0 0.0 0.0 0.0 0.0 0.0
0.0 0.0 0.0 0.0 0.0 0.0 0.0 0.0
0.0 0.0 0.0 0.0 0.0 0.0 0.0 0.0
0.0 0.0 0.0 0.0 0.0 0.0 0.0 0.0
0.0 0.0 0.0 0.0 0.0 0.0 0.0 0.0
0.0 0.0 0.0 0.0 0.0 0.0 0.0 0.0
0.0 0.0 0.0 0.0 0.0 0.0 0.0 0.0
0.0 0.0 0.0 0.0 0.0 0.0 0.0 0.0
0.0 0.0 0.0 0.0 0.0 0.0 0.0 0.0
0.0 0.0 0.0 0.0 0.0 0.0 0.0 0.0
0.0 0.0 0.0 0.0 0.0 0.0 0.0 0.0
0.0 0.0 0.0 0.0 0.0 0.0 0.0 0.0
0.0 0.0 0.0 0.0 0.0 0.0 0.0 0.0
0.0 0.0 0.0 0.0 0.0 0.0 0.0 0.0
00000000: 0000 0000 0000 0000 0000 0000 0000 0000
00000010: 0000 0000 0000 0000 0000 0000 0000 0000
00000020: 0000 0000 0000 0000 0000 0000 0000 0000
00000030: 0000 0000 0000 0000 0000 0000 0000 0000
00000040: 0000 0000 0000 0000 0000 0000 0000 0000
00000050: 0000 0000 0000 0000 0000 0000 0000 0000
00000060: 0000 0000 0000 0000 0000 0000 0000 0000
00000070: 0000 0000 0000 0000 0000 0000 0000 0000
00000080: 0000 0000 0000 0000 0000 0000 0000 0000
00000090: 0000 0000 0000 0000 0000 0000 0000 0000
000000a0: 0000 0000 0000 0000 0000 0000 0000 0000
000000b0: 0000 0000 0000 0000 0000 0000 0000 0000
000000c0: 0000 0000 0000 0000 0000 0000 0000 0000
000000d0: 0000 0000 0000 0000 0000 0000 0000 0000
000000e0: 0000 0000 0000 0000 0000 0000 0000 0000
000000f0: 0000 0000 0000 0000 0000 0000 0000 0000
00000100: 0000 0000 0000 0000 0000 0000 0000 0000
00000110: 0000 0000 0000 0000 0000 0000 0000 0000
00000120: 0000 0000 0000 0000 0000 0000 0000 0000
00000130: 0000 0000 0000 0000 0000 0000 0000 0000
00000140: 0000 0000 0000 0000 0000 0000 0000 0000
00000150: 0000 0000 0000 0000 0000 0000 0000 0000
00000160: 0000 0000 0000 0000 0000 0000 0000 0000
00000170: 0000 0000 0000 0000 0000 0000 0000 0000
00000180: 0000 0000 0000 0000 0000 0000 0000 0000
00000190: 0000 0000 0000 0000 0000 0000 0000 0000
000001a0: 0000 0000 0000 0000 0000 0000 0000 0000
000001b0: 0000 0000 0000 0000 0000 0000 0000 0000
000001c0: 0000 0000 0000 0000 0000 0000 0000 0000
000001d0: 0000 0000 0000 0000 0000 0000 0000 0000
000001e0: 0000 0000 0000 0000 0000 0000 0000 0000
000001f0: 0000 0000 0000 0000 0000 0000 0000 0000

action_model._discrete_distribution.branches.0.weight f4 [1, 128]
-0.001690975 -0.017944934 0.0088793775 0.012097737 -0.005504604 0.001676172 -0.011645696 0.004688823
0.0048515648 -0.010768595 -0.0022656494 0.008329048 0.007687237 -0.0106073385 -0.006911137 0.006137425
-0.0013459024 -0.005009542 0.010538222 -0.024191579 0.0038587393 -0.0006217255 0.012106183 -0.026087133
0.006319581 -0.0065663876 -0.011830456 0.014009505 0.016661322 -0.0026602885 0.009167554 0.015296573
-0.016592627 -0.00020882777 -0.011520577 -0.00018307877 -0.0013483282 0.011075427 -0.012186616 -0.005039948
0.0038818624 0.0033798595 -0.0076332795 0.0042925854 -0.0053864955 -0.005283342 -0.0036471118 0.012803
0.022484336 0.004819157 0.0010806834 0.008478921 -0.011173737 -0.0048518972 -0.011575422 -0.012173923
-0.0039567715 -0.01469099 0.0073859184 0.0035098442 0.00016807212 0.007130079 -0.0011311782 0.00047917856
0.0063729 -0.00066245295 -0.009181866 -0.013321052 0.0054042335 0.01867642 -5.446035e-05 0.0031497774
0.005798026 0.0187948 0.00020094079 -0.0013416804 -0.013535874 0.0013614631 -0.0033261457 0.012750717
0.00590497 -0.0076115928 0.0033688098 0.0037049376 0.010002921 -0.001446036 -0.013098061 0.008820857
-0.006309278 0.008360504 0.00036756325 -0.0085737705 0.0033017755 0.0075847507 0.02008309 -0.008918345
0.0129585285 -0.005937963 0.0072092223 0.008232865 0.0066434415 -0.0031258191 0.004135729 -0.002484514
0.011522363 0.0031148132 0.0026526083 -0.017897947 0.022949155 -0.0032756273 0.011240645 -0.0043876893
0.003344124 -0.0024489746 0.01608051 0.002384669 0.0023886005 0.0033478085 -0.015848456 0.0019325644
-0.014021437 -0.002345887 0.0037140665 -0.005487761 -0.0011531216 0.00012659491 0.007387887 -0.005362509
00000000: b5a3 ddba 4101 93bc cf7a 113c 9635 463c
00000010: f75f b4bb 00b3 db3a 97cd 3ebc b3a4 993b
00000020: e0f9 9e3b c36e 30bc 4a7b 14bb 8f76 083c
00000030: 38e5 fb3b 67ca 2dbc d276 e2bb 741c c93b
00000040: fe68 b0ba 1627 a4bb 82a8 2c3c 6b2d c6bc
00000050: e7e2 7c3b 4bfb 22ba 0359 463c afb4 d5bc
00000060: 7d14 cf3b da2a d7bb 87d4 41bc 1f88 653c
00000070: 537d 883c 3c58 2ebb 8233 163c 7a9e 7a3c
00000080: 43ed 87bc c7f8 5ab9 cdc0 3cbc d5f8 3fb9
00000090: 63ba b0ba b575 353c 5faa 47bc 2626 a5bb
000000a0: d866 7e3b a280 5d3b 9720 fabb d1a8 8c3b
000000b0: 3381 b0bb e31f adbb 6204 6fbb adc3 513c
000000c0: 1231 b83c 05ea 9d3b b8a5 8d3a 2ceb 0a3c
000000d0: 0d12 37bc aafc 9ebb d7a6 3dbc 2275 47bc
000000e0: cea7 81bb 7ab2 70bc 9305 f23b 6a05 663b
000000f0: 843c 3039 70a3 e93b 0b44 94ba 423a fb39
00000100: c3d3 d03b 77a8 2dba 8a6f 16bc 8b40 5abc
00000110: ff15 b13b 4bff 983c 5b6c 64b8 7f6c 4e3b
00000120: 5efd bd3b 8df7 993c a2b3 5239 53db afba
00000130: 92c5 5dbc 1f73 b23a 77fb 59bb 62e8 503c
00000140: 7b7e c13b ab6a f9bb 40c7 5c3b 8ace 723b
00000150: 4be3 233c eb88 bdba 4099 56bc 5b85 103c
00000160: 0fbe cebb 7ffa 083c 81b5 c039 0079 0cbc
00000170: 9a62 583b 8089 f83b 4b85 a43c 401e 12bc
00000180: 0250 543c 3e93 c2bb 573b ec3b 23e3 063c
00000190: 3ab1 d93b 8bda 4cbb 0285 873b 3ad3 22bb
000001a0: 4bc8 3c3c e521 4c3b 62d7 2d3b b79e 92bc
000001b0: deff bb3c e8ab 56bb af2a 383c 9bc6 8fbb
000001c0: 1729 5b3b fa7e 20bb 46bb 833c 1b48 1c3b
000001d0: 118a 1c3b e866 5b3b 9fd4 81bc 1a4e fd3a
000001e0: 2bba 65bc 74bd 19bb b267 733b add2 b3bb
000001f0: 5724 97ba 90be 0439 1716 f23b fcb7 afbb

network_body._body_endoder.seq_layers.0.weight f4 [128, 1]
-0.5587718 1.3949841 0.41512358 -0.38936046 -0.17093413 -0.5669891 -0.127144 0.36484894
0.023711821 -0.40704477 -0.47576347 -0.6561323 -0.7567552 -0.9791943 -1.6590589 0.5780981
0.6464746 -1.8145995 -0.6515561 -0.8897567 -2.4399202 -0.4646472 -0.6945069 -0.33586302
2.0135803 -0.61738 1.0660789 0.1018719 -0.9587076 1.2993294 -1.3276445 -1.3327
0.2548239 0.5453514 0.6507077 1.1355797 -1.2600975 -0.2504122 2.6381857 -0.37186706
-1.1841772 1.523301 0.00022817426 0.020157762 -1.239715 -1.8045359 -0.5474694 -0.90610653
1.716442 1.1089984 -1.6573226 -1.1892933 -0.6380698 -0.3310713 -0.69913006 0.13867764
-0.18600716 -2.4405262 0.004201624 0.45644706 0.64657444 0.24603513 -0.35709453 -0.23671052
-0.56441027 0.2383992 -0.3252098 -0.06164314 -1.5218915 -0.5457676 -0.40509254 -0.22430205
-2.647637 -1.7074082 -0.8053926 0.17258178 0.63925385 0.01627438 -1.1639353 0.11692982
0.33251047 2.9166465 1.143281 0.23143579 -1.5819423 0.86563754 -0.21460854 -0.7611313
0.24710076 -0.30581453 -2.1570687 -0.13213497 1.1360689 0.7393091 -0.1572534 -0.81973886
-0.34734195 -0.215656 0.80518454 0.86323845 -0.316235 -0.42033258 0.61951035 0.3778476
-1.6378653 0.08023809 0.87258464 0.06624289 -0.5301449 0.500285 -0.61908174 1.4494594
-0.82251525 0.76287204 1.4382596 -0.13226874 1.4736811 0.12401886 -0.025300812 -0.16253509
-2.314922 2.373659 0.8440101 -0.9208633 1.3912466 0.028114984 -0.5594317 0.6838927
00000000: ab0b 0fbf d78e b23f 148b d43e 415a c7be
00000010: 5b09 2fbe 3326 11bf 0932 02be 7bcd ba3e
00000020: 4b3f c23c 2c68 d0be 4597 f3be 49f8 27bf
00000030: b5ba 41bf 7aac 7abf 0b5c d4bf 3dfe 133f
00000040: 5c7f 253f cc44 e8bf 61cc 26bf 18c7 63bf
00000050: a727 1cc0 3de6 edbe 34cb 31bf 3df6 abbe
00000060: 80de 0040 9e0c 1ebf 4675 883f 37a2 d03d
00000070: dc6d 75bf 6d50 a63f 41f0 a9bf ea95 aabf
00000080: 4778 823e 269c 0b3f c894 263f ad5a 913f
00000090: e04a a1bf 0736 80be 09d8 2840 5c65 bebe
000000a0: 1e93 97bf 87fb c23f 1042 6f39 e421 a53c
000000b0: fbae 9ebf 08fb e6bf f426 0cbf 99f6 67bf
000000c0: 5fb4 db3f a9f3 8d3f 2623 d4bf c33a 98bf
000000d0: 8b58 23bf 2d82 a9be 30fa 32bf 8301 0e3e
000000e0: a978 3ebe 9531 1cc0 c7ad 893b 6eb3 e93e
000000f0: e785 253f a2f0 7b3e 18d5 b6be 3e64 72be
00000100: 317d 10bf eb1e 743e e681 a6be 847d 7cbd
00000110: 57cd c2bf 6db7 0bbf 4a68 cfbe 70af 65be
00000120: e272 29c0 5a8c dabf 362e 4ebf 47b9 303e
00000130: 24a6 233f d951 853c d5fb 94bf e778 ef3d
00000140: d03e aa3e 56aa 3a40 0857 923f 81fd 6c3e
00000150: 167d cabf 6c9a 5d3f 57c2 5bbe 80d9 42bf
00000160: fb07 7d3e b993 9cbe 6a0d 0ac0 644e 07be
00000170: b56a 913f 5c43 3d3f 0907 21be 68da 51bf
00000180: ced6 b1be edd4 5cbe 9320 4e3f 32fd 5c3f
00000190: 8ee9 a1be d535 d7be 3b98 1e3f 3e75 c13e
000001a0: 92a5 d1bf de53 a43d b561 5f3f 5aaa 873d
000001b0: 93b7 07bf ae12 003f 247c 1ebf e387 b93f
000001c0: 5c90 52bf 954b 433f e418 b83f 7571 07be
000001d0: 95a1 bc3f 9afd fd3d a643 cfbc 996f 26be
000001e0: af27 14c0 07ea 1740 0c11 583f b2bd 6bbf
000001f0: 5e14 b23f 6551 e63c ea36 0fbf 9813 2f3f

network_body._body_endoder.seq_layers.0.bias f4 [128]
0.0 0.0 0.0 0.0 0.0 0.0 0.0 0.0
0.0 0.0 0.0 0.0 0.0 0.0 0.0 0.0
0.0 0.0 0.0 0.0 0.0 0.0 0.0 0.0
0.0 0.0 0.0 0.0 0.0 0.0 0.0 0.0
0.0 0.0 0.0 0.0 0.0 0.0 0.0 0.0
0.0 0.0 0.0 0.0 0.0 0.0 0.0 0.0
0.0 0.0 0.0 0.0 0.0 0.0 0.0 0.0
0.0 0.0 0.0 0.0 0.0 0.0 0.0 0.0
0.0 0.0 0.0 0.0 0.0 0.0 0.0 0.0
0.0 0.0 0.0 0.0 0.0 0.0 0.0 0.0
0.0 0.0 0.0 0.0 0.0 0.0 0.0 0.0
0.0 0.0 0.0 0.0 0.0 0.0 0.0 0.0
0.0 0.0 0.0 0.0 0.0 0.0 0.0 0.0
0.0 0.0 0.0 0.0 0.0 0.0 0.0 0.0
0.0 0.0 0.0 0.0 0.0 0.0 0.0 0.0
0.0 0.0 0.0 0.0 0.0 0.0 0.0 0.0
00000000: 0000 0000 0000 0000 0000 0000 0000 0000
00000010: 0000 0000 0000 0000 0000 0000 0000 0000
00000020: 0000 0000 0000 0000 0000 0000 0000 0000
00000030: 0000 0000 0000 0000 0000 0000 0000 0000
00000040: 0000 0000 0000 0000 0000 0000 0000 0000
00000050: 0000 0000 0000 0000 0000 0000 0000 0000
00000060: 0000 0000 0000 0000 0000 0000 0000 0000
00000070: 0000 0000 0000 0000 0000 0000 0000 0000
00000080: 0000 0000 0000 0000 0000 0000 0000 0000
00000090: 0000 0000 0000 0000 0000 0000 0000 0000
000000a0: 0000 0000 0000 0000 0000 0000 0000 0000
000000b0: 0000 0000 0000 0000 0000 0000 0000 0000
000000c0: 0000 0000 0000 0000 0000 0000 0000 0000
000000d0: 0000 0000 0000 0000 0000 0000 0000 0000
000000e0: 0000 0000 0000 0000 0000 0000 0000 0000
000000f0: 0000 0000 0000 0000 0000 0000 0000 0000
00000100: 0000 0000 0000 0000 0000 0000 0000 0000
00000110: 0000 0000 0000 0000 0000 0000 0000 0000
00000120: 0000 0000 0000 0000 0000 0000 0000 0000
00000130: 0000 0000 0000 0000 0000 0000 0000 0000
00000140: 0000 0000 0000 0000 0000 0000 0000 0000
00000150: 0000 0000 0000 0000 0000 0000 0000 0000
00000160: 0000 0000 0000 0000 0000 0000 0000 0000
00000170: 0000 0000 0000 0000 0000 0000 0000 0000
00000180: 0000 0000 0000 0000 0000 0000 0000 0000
00000190: 0000 0000 0000 0000 0000 0000 0000 0000
000001a0: 0000 0000 0000 0000 0000 0000 0000 0000
000001b0: 0000 0000 0000 0000 0000 0000 0000 0000
000001c0: 0000 0000 0000 0000 0000 0000 0000 0000
000001d0: 0000 0000 0000 0000 0000 0000 0000 0000
000001e0: 0000 0000 0000 0000 0000 0000 0000 0000
000001f0: 0000 0000 0000 0000 0000 0000 0000 0000

network_body._body_endoder.seq_layers.2.weight f4 [128, 128]
-0.11496632 0.06796576 -0.037877508 -0.009841762 0.010754698 0.28781456 0.05195134 0.056667153
0.12522715 0.04135052 -0.015034376 -0.0025364636 0.098487206 0.03967024 0.03943894 0.056471016
0.17494538 -0.053925242 0.2261051 0.028456727 0.053398598 0.055122767 0.040966474 -0.08581461
0.11708674 -0.122332975 -0.057144377 -0.08302621 0.08449948 -0.040792953 -0.0046135667 -0.0013309026
-0.1739284 0.045351766 0.016123312 -0.027638802 -0.10512154 0.1433841 -0.11113016 -0.114407964
-0.11239788 0.07616468 -0.11830478 -0.071328595 -0.021320164 -0.02088066 -0.022600554 0.07893172
-0.047622055 -0.02815974 -0.053458683 -0.019576982 0.116702326 0.090985656 -0.08163 0.02616229
-0.033805292 -0.2723816 0.02487899 0.009534276 0.04839199 0.13525994 0.062931694 -0.24808387
-0.06165893 -0.005812778 0.09010186 -0.14672384 0.077974506 0.05514861 -0.024518067 0.07630502
-0.043594446 -0.13936804 -0.21933338 0.06644325 0.06975549 -0.07577078 0.008121627 -0.04897592
0.0135689555 -0.17156817 0.0698356 -0.032999728 -0.09934032 -0.0098724775 0.019630399 0.00062456547
0.010902898 -0.027299985 -0.12790768 0.0071288645 0.06579956 0.107579984 0.07992569 -0.034105737
0.1321017 0.095739536 -0.010575998 0.099510975 0.05458609 0.069210805 0.026232312 -0.0567468
-0.056713898 -0.08230979 -0.069966085 0.021245537 -0.039393824 -0.08828537 -0.0025688608 -0.15704793
0.023912786 -0.006514983 0.104353316 -0.06672649 0.04036499 -0.03147073 -0.13933362 -0.024755979
0.11232534 0.040952902 -0.05445018 0.19349554 0.026221588 0.034892105 -0.1505007 -0.15294038
-0.05323004 -0.011824647 0.025892826 -0.06444783 0.08309268 0.10832919 0.063733354 0.18697773
0.012807105 -0.0381651 0.061502334 0.0064173187 -0.0022689747 -0.07917351 -0.04585617 0.098283365
0.036076564 -0.032141 0.052600153 0.120099865 0.009304606 0.06257297 -0.06271709 -0.043971047
0.06807352 -0.16661878 0.088636026 -0.14405076 0.06523768 -0.05414017 -0.027421005 1.9205861e-05
-0.025279453 -0.0064622043 0.021670079 0.06344145 -0.14448597 0.036817778 0.054707367 0.10188563
0.033695493 0.04324932 0.021963263 0.0521167 -0.03843415 -0.12045878 0.0929385 0.15112326
-0.0897006 0.051588405 0.015584584 0.11723009 0.001505249 0.0341333 0.024405232 -0.08745611
0.031808432 0.085306115 0.06750577 -0.035983052 -0.028339103 -0.112758525 0.0024971974 0.16425222
-0.11759255 -0.0675238 0.14236706 -0.05111446 0.084136516 0.024332797 -0.19997853 -0.012953039
-0.095626116 0.052719623 0.1373931 0.11614228 -0.021080187 -0.027993333 -0.13901296 0.09507801
0.088708565 0.029945556 -0.11951481 0.010949866 -0.011551539 0.035053313 0.18327537 -0.03179631
0.03265014 -0.19185477 0.03192791 -0.1753649 -0.0039655375 0.073032424 -0.1850179 -0.055792507
0.07081789 -0.054708954 -0.06876624 -0.0909929 -0.047871582 0.16900918 -0.028647764 0.166457
-0.14726025 0.024633987 0.09089916 -0.031700682 0.18237698 -0.05095874 0.03223053 0.0017253556
-0.038189698 0.109833896 -0.06916149 0.048068937 0.26371726 0.121090464 -0.0026243515 -0.050710924
0.08669303 0.015802054 0.055523653 -0.0008464375 -0.062028274 0.03538171 -0.04929565 0.085871875
00000000: 7673 ebbd a231 8b3d 7225 1bbd 573f 21bc
00000010: 7934 303c 6e5c 933e eeca 543d d11b 683d
00000020: 8c3b 003e 2a5f 293d be52 76bc cc3a 26bb
00000030: a9b3 c93d 437d 223d ba8a 213d 274e 673d
00000040: e224 333e b7e0 5cbd 1888 673e 151e e93c
00000050: 7db8 5a3d 69c8 613d 76cc 273d 92bf afbd
00000060: 2ccb ef3d b689 fabd 3910 6abd a509 aabd
00000070: 100e ad3d 8316 27bd 672d 97bb ae71 aeba
00000080: 491a 32be c6c2 393d 0915 843c c56a e2bc
00000090: f649 d7bd 48d3 123e 3698 e3bd b94e eabd
000000a0: dc30 e6bd 3afc 9b3d c749 f2bd ba14 92bd
000000b0: a0a7 aebc eb0d abbc cc24 b9bc f4a6 a13d
000000c0: 580f 43bd 41af e6bc 7ef7 5abd e85f a0bc
000000d0: a101 ef3d b056 ba3d a12d a7bd 4c52 d63c
000000e0: 6b77 0abd 9a75 8bbe 06cf cb3c a735 1c3c
000000f0: ae36 463d 9581 0a3e 55e2 803d b309 7ebe
00000100: 138e 7cbd 1e79 bebb 5387 b83d c63e 16be
00000110: 19b1 9f3d 82e3 613d 1dda c8bc ce45 9c3d
00000120: 1790 32bd 7fb6 0ebe ee98 60be 6613 883d
00000130: f7db 8e3d b62d 9bbd 9310 053c f99a 48bd
00000140: 5350 5e3c 91af 2fbe f805 8f3d b92a 07bd
00000150: f072 cbbd 2cc0 21bc eecf a03c e1b9 233a
00000160: 12a2 323c 38a4 dfbc 3bfa 02be 4099 e93b
00000170: ebc1 863d e552 dc3d 15b0 a33d 75b2 0bbd
00000180: ab45 073e 1713 c43d f346 2dbc 69cc cb3d
00000190: aa95 5f3d 65be 8d3d 25e5 d63c 556f 68bd
000001a0: d54c 68bd 0992 a8bd 614a 8fbd 1f0b ae3c
000001b0: 6b5b 21bd f6ce b4bd 555a 28bb 2cd1 20be
000001c0: bfe4 c33c a37b d5bb 31b7 d53d e6a7 88bd
000001d0: c255 253d 74e7 00bd 79ad 0ebe 0dcd cabc
000001e0: d40a e63d 3bbe 273d 2707 5fbd b223 463e
000001f0: a8ce d63c 06eb 0e3d db1c 1abe 679c 1cbe
00000200: be07 5abd 2abc 41bc 311d d43c 39fd 83bd
00000210: 7f2c aa3d b2db dd3d a286 823d 1777 3f3e
00000220: e4d4 513c 0253 1cbd dfe9 7b3d 5f48 d23b
00000230: 14b3 14bb b925 a2bd aed3 3bbd ca48 c93d
00000240: 05c5 133d 48a6 03bd 4273 573d ebf6 f53d
00000250: 5972 183c 4226 803d d171 80bd fc1a 34bd
00000260: 216a 8b3d 1d9e 2abe ce86 b53d 0b82 13be
00000270: 559b 853d 15c2 5dbd 04a2 e0bc 461c a137
00000280: db16 cfbc e6c0 d3bb 7385 b13c 97ed 813d
00000290: 21f4 13be 3dce 163d d514 603d 6aa9 d03d
000002a0: 4904 0a3d 3326 313d 4dec b33c 5278 553d
000002b0: 216d 1dbd 18b3 f6bd 8a56 be3d 0ec0 1a3e
000002c0: f3b4 b7bd 5d4e 533d 7c56 7f3c 5416 f03d
000002d0: c64b c53a 5ccf 0b3d 7bed c73c 301c b3bd
000002e0: 8f49 023d f9b4 ae3d 7740 8a3d f762 13bd
000002f0: 6827 e8bc f1ed e6bd 05a8 233b bc31 283e
00000300: 5dd4 f0bd eb49 8abd acc8 113e 655d 51bd
00000310: c44f ac3d 9355 c73c 2cc7 4cbe fc38 54bc
00000320: a0d7 c3bd 88f0 573d c7b0 0c3e 01dc ed3d
00000330: 5bb0 acbc 4652 e5bc 6a59 0ebe 42b8 c23d
00000340: d6ac b53d 6250 f53c 2ec4 f4bd 1167 333c
00000350: ab42 3dbc 1094 0f3d 8aac 3b3e d93c 02bd
00000360: 27bc 053d 9475 44be d7c6 023d db92 33be
00000370: 57f1 81bb 0692 953d 5575 3dbe af86 64bd
00000380: f808 913d 7f16 60bd 50d5 8cbd 7c5a babd
00000390: fe14 44bd be10 2d3e b7ae eabc b473 2a3e
000003a0: 64cb 16be 37cd c93c 5729 ba3d 93d8 01bd
000003b0: 08c1 3a3e 1dba 50bd 2904 043d 5425 e23a
000003c0: cd6c 1cbd 98f0 e03d 8aa4 8dbd efe3 443d
000003d0: f305 873e 47fe f73d 50fd 2bbb 42b6 4fbd
000003e0: 1e8c b13d 4f73 813c c56c 633d 76e3 5dba
000003f0: 5c11 7ebd 69ec 103d 3cea 49bd 98dd af3d

network_body._body_endoder.seq_layers.2.bias f4 [128]
0.0 0.0 0.0 0.0 0.0 0.0 0.0 0.0
0.0 0.0 0.0 0.0 0.0 0.0 0.0 0.0
0.0 0.0 0.0 0.0 0.0 0.0 0.0 0.0
0.0 0.0 0.0 0.0 0.0 0.0 0.0 0.0
0.0 0.0 0.0 0.0 0.0 0.0 0.0 0.0
0.0 0.0 0.0 0.0 0.0 0.0 0.0 0.0
0.0 0.0 0.0 0.0 0.0 0.0 0.0 0.0
0.0 0.0 0.0 0.0 0.0 0.0 0.0 0.0
0.0 0.0 0.0 0.0 0.0 0.0 0.0 0.0
0.0 0.0 0.0 0.0 0.0 0.0 0.0 0.0
0.0 0.0 0.0 0.0 0.0 0.0 0.0 0.0
0.0 0.0 0.0 0.0 0.0 0.0 0.0 0.0
0.0 0.0 0.0 0.0 0.0 0.0 0.0 0.0
0.0 0.0 0.0 0.0 0.0 0.0 0.0 0.0
0.0 0.0 0.0 0.0 0.0 0.0 0.0 0.0
0.0 0.0 0.0 0.0 0.0 0.0 0.0 0.0
00000000: 0000 0000 0000 0000 0000 0000 0000 0000
00000010: 0000 0000 0000 0000 0000 0000 0000 0000
00000020: 0000 0000 0000 0000 0000 0000 0000 0000
00000030: 0000 0000 0000 0000 0000 0000 0000 0000
00000040: 0000 0000 0000 0000 0000 0000 0000 0000
00000050: 0000 0000 0000 0000 0000 0000 0000 0000
00000060: 0000 0000 0000 0000 0000 0000 0000 0000
00000070: 0000 0000 0000 0000 0000 0000 0000 0000
00000080: 0000 0000 0000 0000 0000 0000 0000 0000
00000090: 0000 0000 0000 0000 0000 0000 0000 0000
000000a0: 0000 0000 0000 0000 0000 0000 0000 0000
000000b0: 0000 0000 0000 0000 0000 0000 0000 0000
000000c0: 0000 0000 0000 0000 0000 0000 0000 0000
000000d0: 0000 0000 0000 0000 0000 0000 0000 0000
000000e0: 0000 0000 0000 0000 0000 0000 0000 0000
000000f0: 0000 0000 0000 0000 0000 0000 0000 0000
00000100: 0000 0000 0000 0000 0000 0000 0000 0000
00000110: 0000 0000 0000 0000 0000 0000 0000 0000
00000120: 0000 0000 0000 0000 0000 0000 0000 0000
00000130: 0000 0000 0000 0000 0000 0000 0000 0000
00000140: 0000 0000 0000 0000 0000 0000 0000 0000
00000150: 0000 0000 0000 0000 0000 0000 0000 0000
00000160: 0000 0000 0000 0000 0000 0000 0000 0000
00000170: 0000 0000 0000 0000 0000 0000 0000 0000
00000180: 0000 0000 0000 0000 0000 0000 0000 0000
00000190: 0000 0000 0000 0000 0000 0000 0000 0000
000001a0: 0000 0000 0000 0000 0000 0000 0000 0000
000001b0: 0000 0000 0000 0000 0000 0000 0000 0000
000001c0: 0000 0000 0000 0000 0000 0000 0000 0000
000001d0: 0000 0000 0000 0000 0000 0000 0000 0000
000001e0: 0000 0000 0000 0000 0000 0000 0000 0000
000001f0: 0000 0000 0000 0000 0000 0000 0000 0000

value_heads.value_heads.extrinsic.weight f4 [1, 128]
0.071677245 0.18071033 -0.053377505 -0.028211653 0.14616115 0.111064516 0.1736835 0.20939063
-0.10106775 -0.023519095 0.11017112 -0.20206842 0.15898603 0.15786658 -0.14682098 -0.14198974
-0.05352928 -0.11586438 0.09750189 0.05791856 -0.16414657 0.17807066 -0.18180566 -0.019581748
-0.12610818 -0.08651238 -0.013830235 0.0805291 -0.19993076 -0.12589876 0.030924322 0.12342325
-0.045634843 -0.056879748 -0.15757468 0.07758209 -0.15204221 -0.043192703 -0.042329933 0.020042537
0.20101427 -0.005961224 -0.11066942 -0.114349894 -0.028183771 -0.022749139 -0.11094383 -0.14631744
0.17381561 -0.09346086 -0.12982786 -0.16624722 0.2097475 -0.03209956 0.009753043 0.099990554
0.06905096 -0.16885276 -0.12610313 -0.1463328 0.064089365 0.047257386 0.21308014 0.030835368
-0.04265486 0.07305367 0.032620907 0.03524267 0.14474784 0.0044655576 0.18004298 -0.13520736
0.13443382 -0.09907003 0.09937664 0.08137669 0.16682835 0.1509943 0.06416577 -0.0062166206
0.011669185 -0.16015215 -0.19925076 0.09562577 0.05909926 0.08480937 0.036446687 -0.13273251
0.20019099 -0.18863277 0.14804837 0.15063843 -0.023623025 0.1668326 0.19119096 0.19543728
-0.11087258 -0.03591498 -0.051680744 -0.005219908 -0.13919719 -0.19581005 -0.09876548 -0.059949458
-0.11223906 -0.025279092 -0.06748858 -0.12659004 -0.16424012 0.12617026 -0.06357695 -0.04577884
-0.11877739 0.17991461 0.015646368 0.109465264 0.17092636 -0.015074387 0.17279358 0.05208678
0.1793538 0.0285541 0.18647815 -0.07021394 -0.15619396 0.09208833 0.040145874 -0.12010191
00000000: 85cb 923d 210c 393e 5fa2 5abd 201c e7bc
00000010: 45ab 153e cb75 e33d 16da 313e 7f6a 563e
00000020: 9cfc cebd 1eab c0bc 65a1 e13d 06eb 4ebe
00000030: 3ccd 223e c7a7 213e 3d58 16be c265 11be
00000040: 8541 5bbd 4e4a edbd 12af c73d 033c 6d3d
00000050: 0a16 28be 2858 363e 432b 3abe e769 a0bc
00000060: 8122 01be 672d b1bd 3698 62bc 71ec a43d
00000070: a6ba 4cbe 9beb 00be 0155 fd3c 54c5 fc3d
00000080: 9aeb 3abd bdfa 68bd 425b 21be 5ce3 9e3d
00000090: f4b0 1bbe d5ea 30bd 2762 2dbd 3f30 a43c
000000a0: afd6 4d3e 5f56 c3bb a6a6 e2bd 4730 eabd
000000b0: a7e1 e6bc 675c babc 8536 e3bd 3dd4 15be
000000c0: b8fc 313e 6868 bfbd 98f1 04be b63c 2abe
000000d0: 0cc8 563e d47a 03bd 3acb 1f3c d9c7 cc3d
000000e0: 976a 8d3d bde7 2cbe 2e21 01be 44d8 15be
000000f0: 4941 833d f690 413d ae31 5a3e 749a fc3c
00000100: ddb6 2ebd 2a9d 953d 809d 053d 9e5a 103d
00000110: c738 143e d053 923b 305d 383e cc73 0abe
00000120: 05a9 093e 3ae5 cabd fb85 cb3d d2a8 a63d
00000130: 0dd5 2a3e 409e 1a3e 5869 833d cbb4 cbbb
00000140: 1c30 3f3c edfe 23be 6408 4cbe 72d7 c33d
00000150: 1112 723d 89b0 ad3d 1f49 153d 08eb 07be
00000160: defe 4c3e f328 41be fe99 173e f640 1a3e
00000170: 1385 c1bc 2ad6 2a3e 90c7 433e b620 483e
00000180: 2a11 e3bd 961b 13bd 30af 53bd c30b abbb
00000190: b589 0ebe 6e82 48be 8e45 cabd 908d 75bd
000001a0: 98dd e5bd 1916 cfbc 7437 8abd d2a0 01be
000001b0: 902e 28be c732 013e a234 82bd 9882 3bbd
000001c0: 8f41 f3bd 893b 383e d02c 803c 532f e03d
000001d0: 5207 2f3e 90fa 76bc cdf0 303e f358 553d
000001e0: 86a8 373e 4aea e93c 21f4 3e3e 54cc 8fbd
000001f0: 4ff1 1fbe ce98 bc3d 0070 243d fdf7 f5bd
